weights/policy_checkpoint4000.pt (torch, 522983 bytes, 12 tensors)

net.0.weight f4 [128, 142]
000000 8e fe f3 3c c0 9d ca 3d 79 c3 66 3c 83 9b 0d 3e
       0.029784467 0.0989337 0.01408469 0.13828854
000010 b5 52 d7 3d 90 b8 19 3e 32 d9 ac 3d 41 62 23 3d
       0.10513822 0.15011811 0.08439864 0.039888624
000020 cf 4a 3e 3d 65 a7 66 bd 87 75 c5 3d 0b ab 8f 3d
       0.04645806 -0.056311984 0.09641557 0.07015046
000030 38 17 97 3d c3 58 30 3d 24 96 dd 3d 0d 6a 51 3d
       0.073774755 0.0430534 0.10819653 0.05112653
000040 3a ee 73 3d 2a 26 b0 bc 1a b9 8e bd 6f e0 92 3d
       0.059553362 -0.021502573 -0.06968899 0.071717136
000050 66 07 bf 3c 26 e1 6f 3d 5c 30 41 3c 34 b6 e0 3d
       0.023318958 0.058564328 0.011791315 0.109722525
000060 47 70 b9 bc 98 67 0d bd a5 e9 06 bd da 13 70 bd
       -0.022636546 -0.034522623 -0.032937665 -0.058612682
000070 1c 53 d7 39 24 f2 c4 bd 5e b9 2e 3e a4 20 06 bc
       0.00041069917 -0.09616497 0.170629 -0.008186493
000080 41 b9 c8 3d 5d 3a 68 3d e0 0f d0 bb 65 40 01 3d
       0.098009594 0.056696285 -0.0063495487 0.031555552
000090 12 4d ac 3c c6 a3 be 3d 62 2d 57 3d 00 0a fc bb
       0.021032844 0.09308581 0.052533515 -0.007691622
0000a0 9b a6 ed 3d e1 09 cd bc bc 02 a4 3d ac d6 9d 3d
       0.11604043 -0.025029125 0.08008334 0.07706961
0000b0 d0 9a 7f 3d ae 8a 61 3d 71 ea f8 3d 64 d8 f5 3c
       0.0624035 0.055063896 0.12154091 0.03001041
0000c0 0c c1 c2 3d 54 16 91 3d a1 b9 4f bd 59 e7 a6 3c
       0.09509477 0.07084337 -0.05071414 0.020373987
0000d0 e7 e4 0f bd 4f 1c 6c 3e 98 10 07 3e 00 25 f8 3d
       -0.035130408 0.23057674 0.13189924 0.12116432
0000e0 cf d7 03 3d 81 ee 42 3d 94 b3 4a 3e 56 0f a7 3d
       0.032188233 0.047590736 0.19795066 0.08157222
0000f0 ef 62 28 bc f1 f3 20 3c 8f 89 f9 3d ff 59 04 3d
       -0.010277494 0.009823785 0.1218444 0.03231239
000100 b9 45 9c 3c e5 3e 8f bd 8c e8 aa 3d eb 8d 34 bd
       0.019076215 -0.06994418 0.08345136 -0.044080656
000110 09 16 03 bd ea 1f 1d bd 2d 38 01 3e 2f 01 bf 3d
       -0.032003436 -0.038360514 0.12619086 0.09326398
000120 68 60 a5 3d e8 d5 8d bd 9a da 4c bd 6a b7 b9 bc
       0.08075029 -0.06925565 -0.050013162 -0.022670466
000130 32 81 fe bc 53 39 0b 3d 72 29 f6 3c 57 f0 91 3d
       -0.031067465 0.033990216 0.03004906 0.07125919
000140 9e 82 31 bd ec 52 6a bd fc 5f 36 3d ca ef 0a bd
       -0.043337457 -0.057207987 0.04452513 -0.033920087
000150 4d 29 37 3c 53 22 a3 bc ec a0 44 3d 79 88 85 bd
       0.0111792805 -0.019913828 0.04800503 -0.06520171
000160 6d 76 2d bd 7e 1b af 3d 64 5d 27 3d 5c 86 aa 3c
       -0.042349268 0.085501656 0.04086055 0.02081602
000170 45 57 8c 3d fe e9 86 3d 5c 91 b7 bb c0 e2 a0 bd
       0.06852583 0.06587599 -0.005602045 -0.07855749
000180 a3 ca f4 3d 71 f8 e7 bc 05 b7 f3 bc ab 53 55 3b
       0.119527124 -0.028316708 -0.029750356 0.003255109
000190 4b aa 65 bd 34 a0 64 3d b8 7a 35 bc 02 82 79 bd
       -0.056070607 0.055816844 -0.011076622 -0.060915
0001a0 d1 e2 b4 3d 73 cb 6a bd 24 cf 91 bd 4f 47 3d bd
       0.08832324 -0.05732293 -0.07119587 -0.046210583
0001b0 f2 6a 96 bd 5b 3f 76 3d 11 cc ab 3d ef d7 81 3c
       -0.07344617 0.060119014 0.08388532 0.015850035
0001c0 bf d8 d3 3c 91 4b a0 bd 1e b7 24 bd 91 59 33 3d
       0.025860189 -0.07826913 -0.040213697 0.04378659
0001d0 4c 41 98 3d b4 49 81 bc c5 f5 2c 3c 78 53 f3 bd
       0.074343294 -0.015782215 0.010556643 -0.11881155
0001e0 c8 fc 9f 3c 05 8c 25 bb 32 8d be bb b8 eb 68 bd
       0.019529715 -0.002526046 -0.0058151716 -0.056865424
0001f0 f9 fd 32 be 95 51 b9 bd 9d b9 4d bd 35 a6 87 bd
       -0.17479695 -0.09048764 -0.050225843 -0.06623498
000200 63 1a 90 3d b7 ea 51 bd 1c df 93 3d 0d 33 d6 3c
       0.07036283 -0.051249232 0.07220289 0.02614739
000210 c2 88 91 bd 53 df 6d 3d 03 9c 9a 3a 9a c2 03 bd
       -0.071061626 0.058074307 0.0011795763 -0.03216801
000220 d7 a8 8e bd 5c dc aa bd 5a b0 c4 3c b4 1b c0 3d
       -0.069657974 -0.083428115 0.024009872 0.09380284
000230 02 98 a5 3d 97 10 68 3a 79 45 ea 3c 93 c7 b3 bd
       0.08085634 0.000885257 0.02859758 -0.087783
000240 c4 ff b2 bd 29 6e 6a bd d2 f9 40 3d 80 f2 4a 3d
       -0.0874019 -0.057233963 0.047113247 0.049547672
000250 f4 44 af 3d 7d 47 e2 bd b9 3d 97 3c da ca 21 bd
       0.08558074 -0.110487916 0.018462049 -0.039500095
000260 f3 7e 07 bb f3 76 d9 bd 79 55 09 3e 74 c2 d8 bc
       -0.0020675033 -0.10618391 0.13411511 -0.02645991
000270 b8 12 aa 3d 93 78 ba bc 54 86 31 3d a2 f0 0d bd
       0.083043516 -0.022762572 0.043340996 -0.034653313
000280 ec bd b3 3d 3c d2 9f 3c 1a b0 8a 3b b1 da 97 bd
       0.08776459 0.019509427 0.0042324187 -0.07414759
000290 8c ef d2 3d 08 ef 60 3c 86 6f ed bc 8a 1f bd 3d
       0.10299596 0.0137288645 -0.028983843 0.09234531
0002a0 d8 7c b2 3d 06 4f 80 bc 9a 09 64 bd 2d c9 9e bd
       0.08715218 -0.015662681 -0.05567322 -0.07753215
0002b0 05 5e df 3d 35 52 88 3c 9b 21 38 bd 96 35 03 bd
       0.10906605 0.016640762 -0.044953924 -0.032033525
0002c0 70 67 96 bd 2f a1 b0 3c ab 3f 24 3d 52 ea 21 be
       -0.07343948 0.021561233 0.04009978 -0.15812042
0002d0 0b 51 b3 3d 1a 13 a3 3d 81 36 f1 bc f3 43 a3 bd
       0.08755692 0.07962628 -0.029444935 -0.07971945
0002e0 97 c9 17 3d df 20 99 3d 9c 85 38 ba eb 7b 18 bd
       0.037057485 0.07476973 -0.00070389523 -0.037227552
0002f0 d9 bf 87 3c ca 74 d9 3c 85 9b a7 bd 6b 81 14 bc
       0.016570972 0.026544947 -0.0818396 -0.009064059
000300 86 98 96 3d 88 2d d4 3d 87 8f 89 3c f9 b3 bf 3c
       0.0735331 0.10360247 0.016792072 0.023401247
000310 85 3a 99 3c 8f d8 de bd a8 d8 e5 3d a6 b7 be 3d
       0.018704662 -0.10881149 0.112229645 0.09312372
000320 62 b6 c1 bc 8f 14 97 3d 79 df 0c 3e dc aa c8 3b
       -0.023646537 0.07376968 0.13757123 0.0061238836
000330 bb 1a 4c bc d8 e1 29 bd ca 04 8d bd 83 ab b7 bd
       -0.012457545 -0.041475147 -0.06885679 -0.0896826
000340 45 ff 51 bd af af 7b bc 59 3b 9a 3d c6 d4 90 3d
       -0.051268835 -0.01536171 0.07530851 0.07071833
000350 09 8d e8 bd 65 31 04 be 05 fc 58 bc be 40 a6 3d
       -0.11355025 -0.12909468 -0.01324368 0.08117817
000360 c6 ee c6 3d 49 01 f1 bc 64 88 22 3c 80 eb 02 bd
       0.09713511 -0.029419558 0.009920213 -0.03196287
000370 f8 7a 5e bd 9c 52 86 3d 47 4b 1c bd f6 cf 89 bc
       -0.05431649 0.06558725 -0.038157728 -0.016822796
000380 ad f8 aa bd 2b 0c 66 3d 5a 61 62 3d e8 8a fa 3c
       -0.083482124 0.056163948 0.055268623 0.030583814
000390 54 ac 6f bd aa 9e a9 bd a9 95 8b bd 52 93 97 3c
       -0.058513954 -0.08282216 -0.06815655 0.018502865
0003a0 31 b7 c0 3c dc f6 b7 3d ff 72 a7 bd f2 92 ef bd
       0.023524852 0.089826316 -0.08176231 -0.116979495
0003b0 ba 81 8a 3c a5 b7 28 bd 12 fb 65 bd ca c0 a0 bd
       0.016907562 -0.041190762 -0.056147642 -0.078492716
0003c0 9f b5 0c 3d b7 cf d7 bc be de 0e 3d 11 55 75 bd
       0.034352895 -0.026344163 0.034880392 -0.05989558
0003d0 b8 8a 7a bc a2 ed 71 bd 48 29 2e bd 7c 09 e4 3c
       -0.015291862 -0.059064515 -0.042519838 0.027836554
0003e0 53 4f cc bc d6 32 54 3d d8 8a dc bc 73 71 93 bd
       -0.024940168 0.051806293 -0.026921675 -0.07199373
0003f0 a7 96 72 bc 21 9f 26 bd 62 52 d2 bc 36 9d a3 bd
       -0.014806426 -0.0406791 -0.025674049 -0.0798897

net.0.bias f4 [128]
000000 50 7a 03 3e 17 88 b2 bb 2a 61 72 3c 98 6c 5b 3d
       0.12839627 -0.005448352 0.0147936735 0.05357036
000010 a9 19 ed 3d 53 d1 bf 3c b8 c1 c4 3b d9 f9 b0 bd
       0.1157716 0.023415243 0.0060045384 -0.08641405
000020 d4 46 90 3d 61 fe 63 3d 1f 34 03 bb 1f 88 8b bc
       0.070447594 0.055662517 -0.002002008 -0.017032681
000030 df d6 7b bd db ec d6 3d f0 4f 96 bd b9 b9 61 bd
       -0.061484214 0.10494395 -0.073394656 -0.05510876
000040 74 35 2d 3d aa b5 99 bd 01 20 54 3c 55 9f 6f bd
       0.042287305 -0.07505353 0.012947083 -0.05850156
000050 12 01 e2 3a b4 d9 e3 bd c9 c0 72 3d 32 f7 9b 3d
       0.0017242751 -0.11125508 0.059265886 0.07615508
000060 a6 63 4f bc 3a 41 1a 3d 64 08 75 3d b9 79 20 bd
       -0.012658035 0.03765986 0.059822455 -0.039178584
000070 d6 db 83 bd f0 0b 88 3d 42 59 1d bd 4f 79 88 3d
       -0.06438415 0.06642902 -0.0384152 0.06663763
000080 14 78 c5 3d 7d bc 0c 3d c7 f6 3b 3d 80 6e 03 bd
       0.09642044 0.034359444 0.045889642 -0.032087803
000090 b4 7c 06 be 0c 4a dd 3b f8 5f c4 3d db 0f c5 3d
       -0.13133508 0.006753212 0.09588617 0.09622165
0000a0 1c ed ae 3d 28 42 e6 bd d7 6c 84 3a bc 57 4d 3e
       0.08541319 -0.11243087 0.0010103238 0.20053
0000b0 f9 3b 1c bd d3 bf 9e bd 32 2c c1 bd 09 eb 08 3e
       -0.038143132 -0.07751431 -0.09432258 0.13370909
0000c0 86 ad 94 bd 99 1f 8e bb 5a c8 a8 3c 7e 5f 9a 3c
       -0.072596595 -0.004337263 0.020603348 0.018844362
0000d0 9e ca 46 bd 82 47 86 3c 14 4e a3 3b fe 21 c1 bd
       -0.048533075 0.01639152 0.004983673 -0.094303116
0000e0 9b c9 39 bd 47 8d f1 3c 54 94 34 bc 48 b2 89 3c
       -0.04535828 0.029486312 -0.011021692 0.016808644
0000f0 43 96 e4 bd f8 61 39 3d f8 3b de 3d 81 2b af bd
       -0.11161473 0.045259446 0.10851282 -0.085532196
000100 f6 9b 69 bc 59 38 0e 3d 6a 12 3b bc 08 04 84 3d
       -0.014258375 0.034721706 -0.0114179645 0.064460814
000110 fc 30 3b bd 8a aa 22 3d d7 54 e6 bd 83 9d 6e 3d
       -0.045701012 0.03971342 -0.11246651 0.058255684
000120 c3 a2 b0 bc 77 95 c0 3c 4a f3 80 3d 06 05 e1 bd
       -0.021561986 0.02350877 0.06296404 -0.10987286
000130 d6 cd 19 bd c6 c2 52 3d ac ef 28 3e 6c 5f 52 bd
       -0.037549816 0.05145528 0.16497678 -0.051360533
000140 6a 9a ef 3a 34 3b e7 bb fd 04 92 3d 51 10 f1 3d
       0.0018280272 -0.007056618 0.07129858 0.1177069
000150 43 2d 4b bc 31 2c 71 3d 15 2c e4 bd 02 68 d9 bc
       -0.012400928 0.058880035 -0.111412205 -0.026538853
000160 aa 88 49 bd 4e 31 e7 3d 73 b6 15 3e 31 55 b5 bc
       -0.0492026 0.11288701 0.1462038 -0.022135349
000170 9f 3c d7 3b fa e9 c0 bd bb 97 f1 3d 00 61 c6 3c
       0.006568506 -0.094196275 0.117965184 0.024216175
000180 22 e5 ba bd 5f da 4e 3a ef 3e b5 3c ef d8 78 bc
       -0.09125735 0.0007890816 0.022124736 -0.01518844
000190 24 8b b2 bd 6d cd c9 bd 45 e5 a9 bd 55 1e 86 bd
       -0.08717945 -0.09853635 -0.08295683 -0.06548754
0001a0 62 1f 33 3d e3 e4 2f 3e 4c 96 9f 37 df ce 3d bd
       0.0437311 0.17177157 1.9024264e-05 -0.046339866
0001b0 19 8c b9 bd 9b 4e f7 bd 0d 28 0a 3d 8b 85 03 3d
       -0.09059925 -0.1207554 0.0337296 0.03210978
0001c0 09 d2 d9 3d 13 9f e2 bd e9 ff 9a bd 6b 0e 36 bd
       0.10635764 -0.11065497 -0.07568342 -0.044447344
0001d0 80 41 1c 3e bc 25 dc bd 86 18 34 3d bb cf 9c bd
       0.15259361 -0.10749385 0.0439687 -0.07656809
0001e0 45 46 1d 3d 50 71 39 bd 3a 12 67 bd 11 59 aa 3b
       0.038397092 -0.04527408 -0.056413867 0.005198606
0001f0 20 f1 d1 bd 94 f5 2e bd e7 f3 84 bd 72 c9 13 bd
       -0.10251069 -0.04271467 -0.06491833 -0.036080785

net.2.weight f4 [192, 128]
000000 6e 44 99 bd 7f b9 95 bd d7 e2 f5 3d 55 28 ef bd
       -0.07483755 -0.07310771 0.12006157 -0.116776146
000010 95 0e 2e bd 11 dd 86 bd fa d6 ff bd 9b 21 b4 3d
       -0.042494375 -0.06585134 -0.124921754 0.08795472
000020 03 38 ce 3a 8e cb b8 3b 23 f9 9b 3c d5 a8 b9 bc
       0.0015733246 0.0056395 0.019039696 -0.022663513
000030 20 47 3d 3c e8 80 86 bd 6f 42 5d 3d 50 b5 69 bb
       0.011552602 -0.06567556 0.054018434 -0.003566105
000040 ef 31 c7 3d 9f 37 dc 3c e0 7c fd bd 5c 75 39 3d
       0.09726321 0.026881991 -0.12377334 0.04527794
000050 dd ec b6 3d 06 2c 4e bd 95 74 b8 bd 05 d5 37 be
       0.08931897 -0.050334953 -0.09006611 -0.17952354
000060 e7 00 f4 3c bd 5e c6 bd 3f 8f ed bd 95 0a 8c 3c
       0.029785587 -0.09686039 -0.11599588 0.01709489
000070 a3 96 7c bd 01 7b 2a 3d 0f 34 39 be a9 d4 eb bd
       -0.061667096 0.041621212 -0.18086265 -0.11515171
000080 04 51 c8 bd 77 2d fd 3a 93 c1 02 be 65 2f 80 be
       -0.097810775 0.0019315918 -0.12769155 -0.2503616
000090 fa b7 8a bd 6c e1 36 bd 1a 8a 66 bd fe 9e e5 bd
       -0.06773372 -0.044648573 -0.056284048 -0.11211966
0000a0 78 b0 cd bd f8 99 ae bd b6 3d 1e bd 21 71 fb bd
       -0.10043424 -0.08525461 -0.03863307 -0.12277437
0000b0 c2 0c df bd 95 ec a8 3d 11 64 9a bd 36 d1 89 bd
       -0.10891105 0.082482494 -0.075386174 -0.06729357
0000c0 ff 46 b9 bd 68 a9 00 be b5 9f 65 be af 33 05 be
       -0.090467446 -0.12564623 -0.22424205 -0.13007997
0000d0 91 0f c2 bd 9e 1a fc bd 97 07 98 bd 77 0e c7 bd
       -0.09475625 -0.12309764 -0.07423323 -0.09719556
0000e0 98 e9 30 3d b9 5c eb bd 9a 82 a7 bd 4a 4a 33 3c
       0.043191522 -0.11492295 -0.08179207 0.010943005
0000f0 3b a8 90 bd 05 c7 09 bd d7 d5 c6 bd e8 58 87 bd
       -0.070633374 -0.033637065 -0.097087555 -0.066087544
000100 c5 e3 f3 3c 5c 96 63 3d 12 51 8b 3b 85 8d 11 ba
       0.029771695 0.055563316 0.0042516077 -0.0005552399
000110 e8 6e ea 3b b7 78 1b be 0c 19 a2 bd 8c 0c 0f bc
       0.0071543343 -0.15182768 -0.079149336 -0.008731019
000120 82 60 c8 bd 31 5d 4c 3d d9 86 e9 bd 3c d0 6c 3d
       -0.097840324 0.04989356 -0.11402673 0.057815775
000130 03 43 03 bd db f1 a4 bd 2f 40 13 be 34 92 b2 3d
       -0.03204633 -0.08053943 -0.14379953 0.08719292
000140 ad fb e1 bd d2 87 71 3c f8 e3 87 bd c6 19 58 bd
       -0.110343315 0.014741855 -0.066352785 -0.052758954
000150 ad f3 67 bd a4 b5 79 bd ad 24 8a 3d de 20 b8 bd
       -0.05662887 -0.06096424 0.067452766 -0.08990644
000160 9e 54 c2 bd 97 df 0f bc 04 f1 00 be e5 e7 91 bd
       -0.09488796 -0.008781335 -0.1259194 -0.071243085
000170 af c4 aa bb 1c b4 6c 3d 45 a9 e4 bd 31 68 c9 3d
       -0.005211435 0.057788953 -0.11165098 0.09834326
000180 c2 53 b0 bd 55 ed 83 bd 3e ed 1e be 8b 45 10 be
       -0.086097255 -0.06441752 -0.15520188 -0.14089029
000190 f8 b4 87 bd 3e 32 fd bd f4 bb 8f 3d 6e 4a 2c bd
       -0.06626314 -0.123630986 0.07018271 -0.04206317
0001a0 7c 0e f4 3d ab 3c 80 bd 65 8f 1f bc ae 61 41 bd
       0.11916825 -0.062615715 -0.009738778 -0.047212295
0001b0 cc 4c cd bc 2d e3 2c bd 70 ef 91 3d a4 5e 02 be
       -0.025061034 -0.04220884 0.07125747 -0.12731415
0001c0 94 bc 94 bd a7 fd 41 be c4 00 0f bd 31 e2 91 3d
       -0.07262531 -0.18944417 -0.03491284 0.07123221
0001d0 56 6f 87 bd ed 1b e5 bd 3c d5 43 be a7 1d 37 bd
       -0.066130325 -0.11186967 -0.19124311 -0.044706013
0001e0 1e b5 7c bd 6e 85 0e 3e 4e 12 df bd ce a0 f6 bc
       -0.061696164 0.13918087 -0.10892163 -0.030105975
0001f0 a8 77 09 be 84 45 0e 3e 97 3b 0e be 0c 57 f4 bd
       -0.13424551 0.13893706 -0.13889919 -0.119306654
000200 d6 70 00 3e b1 00 a5 3d ea de 36 ba 68 33 b6 bc
       0.12543043 0.080567725 -0.0006975966 -0.02224131
000210 4a a8 b3 3d 67 ba ba 3c a2 d1 0e 3e 57 31 15 3d
       0.08772333 0.022793962 0.13947156 0.036424007
000220 bd 60 97 3d 5d ea bc bc e9 78 95 3d 67 88 53 bc
       0.07391498 -0.023060972 0.072984524 -0.012910939
000230 49 6a cf bc 0e 1d 17 3e 12 20 49 bd fa 4c 23 3c
       -0.025319235 0.14757177 -0.04910285 0.009967083
000240 ef 49 58 3d f0 94 b4 bb 72 4e cd 3d e7 b1 cb bc
       0.052804884 -0.005510919 0.10024728 -0.024865104
000250 74 d2 4d bd 17 32 0a 3c ac d2 0a 3e ee 9b 38 3e
       -0.050249532 0.008434794 0.13556927 0.18028232
000260 46 4b 35 bd 00 be d1 3c 8e 0e e0 3d 9d 1f 89 3d
       -0.04426124 0.025603294 0.10940276 0.06695483
000270 2f 45 34 3e 47 51 e4 3c c1 b3 07 3e d0 3b 92 3e
       0.17604516 0.027870787 0.13252164 0.28561258
000280 fa 84 1f 3e b7 16 b3 bb f6 8c b3 3d 7a 73 72 3d
       0.1557807 -0.0054653543 0.087671205 0.05919216
000290 7a 6b 6c bd a4 a9 32 bd 95 cd 24 3e 51 0c 44 3d
       -0.057719685 -0.043618813 0.16094048 0.04786331
0002a0 55 48 06 3e a8 19 97 bd cd 0f 89 3d 1f f2 26 3e
       0.1311353 -0.073779404 0.06692467 0.163033
0002b0 d9 39 48 bd 14 ab 16 3c 45 c3 28 3d 6b f5 af 3d
       -0.048883293 0.009196062 0.04120185 0.08591732
0002c0 c8 d3 56 3c d4 0d 49 3e 09 9a bd 3d 52 c8 b5 3d
       0.013112016 0.19634181 0.092578955 0.08876099
0002d0 4a 08 a0 3d 23 53 29 bd ad 35 80 bd 37 01 0a 3d
       0.07814081 -0.04133905 -0.06260238 0.033692565
0002e0 de 28 81 bd 8e 67 81 3d 79 3f 0d 3d bc 15 46 3d
       -0.06306623 0.063185796 0.03448436 0.04836057
0002f0 96 ce 50 bd 74 e3 c5 3c 0b 44 32 3d c9 99 e7 3c
       -0.050978266 0.02415631 0.043521922 0.028271573
000300 5c 18 73 bd 3b 58 3e 3e ad bf 27 3d 64 e4 88 3d
       -0.059349403 0.18588345 0.04095428 0.06684187
000310 2f be b1 3d ad 73 3b 3e 1b 90 c7 bd e3 da ee 3d
       0.08678853 0.18305846 -0.09744283 0.11662843
000320 64 19 ea 3c 94 41 cc 3d 0b 0a 4c 3e b2 6b a3 bc
       0.02857656 0.099734455 0.19925706 -0.019948814
000330 da de 64 bc 44 ff b0 3d 25 7c d6 3d 93 c2 c9 3d
       -0.013969148 0.08642438 0.104728974 0.09851565
000340 0f 4c 48 bd e6 99 c5 3d 53 70 d2 3d d1 4d b9 3d
       -0.04890066 0.096484944 0.102753304 0.090480454
000350 bc a8 69 3c a2 f9 64 3c 0c bf 55 bd 25 b3 4f bd
       0.014261421 0.013975533 -0.05218415 -0.050707955
000360 2b 79 72 bd 35 b9 1e 3e 30 5e 11 3e d9 4a 8c bd
       -0.059197586 0.15500338 0.14196086 -0.068502136
000370 81 07 77 3d 9f 3f b2 3d a0 2a cb 3d bc fb 78 3d
       0.06030989 0.08703541 0.099202394 0.060786948
000380 ef c3 ff 3b b7 cf e3 3d 96 c0 c9 3d 69 66 e0 3d
       0.0078053395 0.11123603 0.09851186 0.10957033
000390 18 cd 1e 3d db 25 f9 bd 94 7f ad 3c 48 14 9d bd
       0.03876981 -0.121654235 0.021178998 -0.07669884
0003a0 b3 ff 18 3c f4 4c 23 3e 2f be 90 bb 97 27 42 bd
       0.009338307 0.15947324 -0.004417203 -0.047401037
0003b0 0f 11 ba bc ac 8a 8e bb a1 c6 a1 3c 90 a6 80 3d
       -0.022713212 -0.004350027 0.019748034 0.06281769
0003c0 5c 50 41 3e 1a ab 9f 3d 47 40 41 bb 32 57 c5 3c
       0.18878311 0.07796307 -0.0029487775 0.02408943
0003d0 24 b5 ce 3d e7 d3 80 3d 75 de 83 3d 57 2c f5 3a
       0.100931436 0.06290417 0.06438915 0.0018705231
0003e0 2d 18 7d 3d 8b 25 8f bd e7 1d 10 3e 15 71 68 bd
       0.061790634 -0.06989583 0.14073907 -0.05674847
0003f0 98 22 71 bd 87 ce 83 bd 84 d2 b6 bb 71 51 d5 3d
       -0.05887088 -0.06435876 -0.0055792946 0.10415924

net.2.bias f4 [192]
000000 bd fb b1 bc b5 e3 2e 3e b7 f8 e1 3c ce 8b 6d 3d
       -0.021726483 0.17079051 0.027584417 0.057994656
000010 b7 28 24 bd 82 77 c7 bb 8a 3c 0f 3c b7 6e 1e bd
       -0.04007789 -0.0060872445 0.008742461 -0.038679805
000020 09 57 fb bd d0 36 9d 3c 86 f9 8d bc 75 47 f3 bd
       -0.1227246 0.019191176 -0.017330896 -0.11878864
000030 b4 df f5 bb f2 09 9c 3b 08 6c 25 bd dd 4d 50 3c
       -0.007503474 0.0047619278 -0.04038623 0.012713877
000040 83 67 05 3e 05 ea 0f bc d5 38 52 bc 78 5a c5 3d
       0.13027768 -0.008783822 -0.012830933 0.09636396
000050 93 21 2b bd 0d 31 a1 bb 32 8d 4e bd e8 f4 76 3d
       -0.041780066 -0.0049191774 -0.050427623 0.060292155
000060 99 b5 6e 3d 96 88 e3 3d b6 ba 29 3d ae 98 4b 3e
       0.058278654 0.11110036 0.041437827 0.19882461
000070 ff 2a 02 bc e5 c7 41 bd a4 d6 b6 bd 9f 66 f5 bc
       -0.007944821 -0.047309775 -0.08927658 -0.02995616
000080 9c 35 44 3d 4c 80 d3 bb 18 4a 20 3e 38 15 58 3c
       0.04790269 -0.006454503 0.15653265 0.013188653
000090 7b 6d 3b 3c dd cb 98 3c cf 72 a8 bd 92 84 a2 3c
       0.011439676 0.018651897 -0.08225023 0.019838605
0000a0 21 8b a3 bd 41 3f d7 bd 7d 46 87 3d f5 62 c3 3d
       -0.07985521 -0.105101116 0.066052414 0.09540359
0000b0 73 a2 0d 3b 9e 6d 79 bd c6 11 01 be 6c df 85 bd
       0.002161172 -0.060895555 -0.12604436 -0.06536755
0000c0 15 40 c1 3d dc 36 7a bd 47 fb 99 bc f8 72 c2 3d
       0.09436051 -0.061087474 -0.018796576 0.09494585
0000d0 8c 70 07 3d 97 3f e9 bc dd d8 8a 3d 7b db 22 3d
       0.033066317 -0.028472705 0.06779645 0.039760094
0000e0 11 2a 2c bd d8 05 b3 bd 15 e2 9f 3c 6e d9 c4 bd
       -0.042032305 -0.08741349 0.019516984 -0.09611784
0000f0 1e 69 1f bc 7f 8c 98 3b 49 4c 10 3d b6 71 ce bc
       -0.009729652 0.0046554203 0.035229 -0.025200706
000100 20 a2 e1 bd 0e 1d 7c bd c4 da bd bd c2 ac 21 bd
       -0.11017251 -0.061551146 -0.09270242 -0.039471395
000110 ef 69 18 3d 45 3c 08 be 89 d5 00 3e 3f e6 b2 bd
       0.0372104 -0.13304241 0.12581457 -0.08735322
000120 c6 8f ca bc 4e fd 4d bd 83 2c e6 3c b9 d2 7b bb
       -0.02472676 -0.0502904 0.028097397 -0.003842516
000130 64 dc 4f 3d 5c 0c bf 3d 29 07 31 3e 2e 20 35 3c
       0.05074729 0.09328529 0.17287888 0.0110550355
000140 b4 a4 57 bc 1c b2 8f 3d a6 3f e1 bc 6d 51 44 3a
       -0.013161827 0.070163935 -0.02749617 0.000748894
000150 ad f5 a8 bd c5 ca 76 bd 44 56 fe 3c 67 c8 95 bc
       -0.08249984 -0.06025197 0.031046994 -0.018284036
000160 c8 f5 ad bd 7e 5d a6 3d d7 39 59 3c f1 07 dc 3d
       -0.08494145 0.08123301 0.013258419 0.10743702
000170 61 21 76 bd 8c 49 b0 3d b5 0a 26 bd ec f2 8f bc
       -0.060090426 0.08607778 -0.040537555 -0.017571889
000180 95 77 8d 3d e3 0c c8 bd bc 71 3e bd 1e b3 60 3d
       0.06907574 -0.09768083 -0.046495184 0.05485832
000190 d8 e9 29 bd 31 2f 92 bd 95 78 29 3b af f2 95 bd
       -0.041482776 -0.07137907 0.0025859226 -0.07321679
0001a0 e5 05 14 3e 9d 29 c9 bc 96 1f a1 3d 84 66 a8 bd
       0.14455374 -0.024555976 0.07867353 -0.08222678
0001b0 3d 19 87 3d 41 f3 73 bc 27 dd 4e bc 07 72 7f bd
       0.06596611 -0.014889539 -0.012625969 -0.062364604
0001c0 77 3d bd bc 59 df 83 3d ed c4 e4 3d 33 24 3e 3d
       -0.023100598 0.064390846 0.11170373 0.04642124
0001d0 8f cd 1a 3d 8b f5 b6 bd eb 49 48 3d 5b 14 82 bd
       0.037793692 -0.08933552 0.04889862 -0.06351539
0001e0 dc 79 02 be d2 02 61 bc 67 bb 14 bc 68 28 0c 39
       -0.12741798 -0.013733583 -0.009077883 0.00013366493
0001f0 9c e1 cb b9 05 73 2d bd d5 90 64 bc db d2 71 3d
       -0.0003888727 -0.04234602 -0.013950546 0.059038978
000200 5f 88 1c 3d c7 5d 0d 3e ef 84 9d bc 03 95 56 bd
       0.03821599 0.13805304 -0.019228427 -0.052388202
000210 2d 6e 24 bd 62 08 80 bd f5 0b aa bd 4d e6 26 3d
       -0.040144134 -0.06251599 -0.08303062 0.040746976
000220 38 b8 9f bc 36 30 ef 3d 1a e2 af bc b3 c3 bc bc
       -0.019497022 0.116791174 -0.021470118 -0.023042535
000230 5b 12 c5 bd 2a d1 2f bc e4 be ef bb 9a e9 20 3b
       -0.09622642 -0.010731021 -0.007316457 0.00245533
000240 9d ac 10 3e 53 57 d4 bc 20 73 ac 3d 50 3f 6e 3e
       0.14128347 -0.025920546 0.08420396 0.2326634
000250 b4 7f 04 3e bc 23 a5 bd 92 6a 0c 3c 44 e4 9e 3d
       0.1293934 -0.080634564 0.00857033 0.07758382
000260 72 96 a8 3d b1 9c b3 3d fc 0a ad 3d 37 80 0e bc
       0.0823182 0.08770121 0.08449361 -0.008697561
000270 02 16 a4 3d fe 3c e0 3c 99 5b 4a 3d e4 0f 2f 3e
       0.0801201 0.027372833 0.04940376 0.17095906
000280 09 ca a9 3d 1f e3 95 3c 10 55 2d bd 29 12 b7 3c
       0.08290488 0.018296776 -0.04231745 0.022347527
000290 26 f6 3e 3c 64 29 26 bd 61 fe d9 ba 6a c2 c6 3d
       0.011655366 -0.040566817 -0.0016631597 0.0970505
0002a0 d8 9b 0d bc db 22 0b 3d 18 fa 64 bd e6 f3 90 3d
       -0.008643113 0.033968788 -0.05590257 0.0707777
0002b0 28 a4 cf 3a 02 6b ce bd 49 6e a2 3d da 46 e6 37
       0.0015841769 -0.10079004 0.079311915 2.745113e-05
0002c0 dd b7 02 bd fd 83 f4 3d f5 48 13 3d 80 bb 02 3d
       -0.031913627 0.11939237 0.03595825 0.031917095
0002d0 2e 69 ca 3d a5 b1 18 bb 1b cb eb 3c 48 2f 41 bb
       0.09883343 -0.0023299244 0.028783372 -0.0029477645
0002e0 51 1f f6 bd be 2d c6 3c 9d 4c 01 bc 92 73 8a bd
       -0.12017692 0.024191733 -0.007891801 -0.067603245
0002f0 66 f5 ca bd b9 e2 43 bc 64 47 69 3c f2 d5 67 bd
       -0.09910087 -0.01195591 0.014238212 -0.05660052

exp_avg f4 [128, 142]
000000 80 af c9 3b b5 92 92 3d d9 be a7 3d 0d 64 8d 3d
       0.0061549544 0.071568884 0.08190698 0.06903849
000010 b2 80 17 3c 8a 5b 03 39 d5 c3 1f 3b 5e b3 e0 3a
       0.009246992 0.00012527235 0.00243782 0.0017143299
000020 2b 6d 4d 3c 08 a3 79 3c 72 d7 a5 3d d6 c4 02 3c
       0.012538235 0.015236624 0.080977336 0.0079815
000030 40 f3 25 3c fa 7b 56 3c 9d 45 5e 3c d2 a0 50 3b
       0.010128796 0.013091082 0.013566402 0.0031834138
000040 a5 b8 49 3b 48 9d fc 3b f6 4c d1 3b 93 91 d6 3b
       0.0030780223 0.007709179 0.0063873483 0.0065481155
000050 ae 1d 86 3b 15 57 56 3c 31 da e7 3b 24 bc 0b 3a
       0.0040928936 0.013082285 0.007075571 0.00053304643
000060 9d a1 ec 3b e4 76 1f 3c 16 c0 28 3c e4 bd 46 3c
       0.0072214142 0.009732936 0.010299703 0.012130234
000070 64 24 17 3b 8c 1e 4d 3d 5b a5 ae 3b 55 60 e1 3b
       0.0023062462 0.05007796 0.0053297705 0.0068779388
000080 93 b2 34 3d 96 6d 1e 3c 02 65 1e 3c 65 63 4d 3d
       0.044115614 0.009669682 0.009667637 0.050143618
000090 e4 a9 23 3d e4 4c 4c 3d 8f 6a b4 3b 51 04 00 39
       0.039956942 0.049878016 0.005505867 0.00012208639
0000a0 f4 f3 3b 3d c2 24 5b 3b 0b 14 0e 3c 9f 73 2b 3c
       0.04588695 0.0033438657 0.008671771 0.010464578
0000b0 e4 1f 90 3d d6 e8 8f 3d 79 6c 89 3d 44 8b 03 36
       0.07037333 0.07026832 0.06710143 1.9601584e-06
0000c0 41 12 38 3d 61 f7 5a 3b 39 1f 2e 3d cc 1e 27 3d
       0.044939283 0.003341161 0.042510245 0.040800855
0000d0 b1 e7 4c 3d e4 32 80 3d 1c 04 df 3b 25 2a e8 3b
       0.050025646 0.062597066 0.00680591 0.007085102
0000e0 36 56 3e 3d 0a 4e 5c 3b ca 71 38 3c 0e d4 26 3d
       0.046468936 0.003361585 0.011257598 0.040729575
0000f0 8b 0e 1a 3c 70 96 0a 38 57 0c da 3b e8 47 a6 35
       0.009402881 3.304187e-05 0.006654303 1.2388891e-06
000100 8b 54 02 3b 32 5c f6 3b 8a b0 73 3b 96 5f 6c b7
       0.0019886817 0.0075183148 0.0037184083 -1.40889515e-05
000110 98 55 6b b7 28 c6 e5 3b 11 3f 0e 3c d8 01 4f 3b
       -1.402702e-05 0.0070121475 0.008682028 0.0031586792
000120 00 00 00 00 00 00 00 00 f9 e5 36 3b 8c 20 c3 ba
       0.0 0.0 0.002790807 -0.0014887019
000130 79 d6 25 bb 00 00 00 00 00 00 00 00 62 b3 09 3b
       -0.0025304838 0.0 0.0 0.0021011462
000140 00 00 00 00 00 00 00 00 00 00 00 00 00 00 00 00
       0.0 0.0 0.0 0.0
000150 5e 86 a8 38 00 00 00 00 00 00 00 00 00 00 00 00
       8.035892e-05 0.0 0.0 0.0
000160 00 00 00 00 0e 18 a9 3d 6e 49 e1 3c dd bf 07 3d
       0.0 0.08256541 0.027500834 0.03314196
000170 b8 fd ad b6 60 c0 cd b6 bb 0e 5c 3d e8 bc 10 3d
       -5.1853385e-06 -6.1318715e-06 0.053724986 0.035336405
000180 f0 55 90 3b 00 00 00 00 00 00 00 00 a0 b9 45 3d
       0.004404776 0.0 0.0 0.04827273
000190 51 39 67 3b 22 db 8c 3b 00 00 00 00 00 00 00 00
       0.0035281966 0.0042985836 0.0 0.0
0001a0 d7 53 2c 3d 00 00 00 00 00 00 00 00 00 00 00 00
       0.042072143 0.0 0.0 0.0
0001b0 00 00 00 00 4e 19 22 3d 00 00 00 00 00 00 00 00
       0.0 0.039574914 0.0 0.0
0001c0 00 00 00 00 00 00 00 00 bb d5 61 3c e9 9f 73 3c
       0.0 0.0 0.0137838675 0.0148696685
0001d0 8d 34 1e 3c 19 4d 92 b7 19 4d 92 b7 2f e5 a8 3b
       0.009656084 -1.7440458e-05 -1.7440458e-05 0.005154274
0001e0 81 0b 76 3c c8 f2 3d 3a 00 00 00 00 00 00 00 00
       0.015017391 0.0007245955 0.0 0.0
0001f0 e9 c7 57 3c 23 d5 fa 3b 2f 25 94 3a 00 00 00 00
       0.013170221 0.0076548024 0.0011302585 0.0
000200 00 00 00 00 12 2c ba 3b 00 00 00 00 00 00 00 00
       0.0 0.005681523 0.0 0.0
000210 00 00 00 00 00 00 00 00 e9 f1 56 b6 00 00 00 00
       0.0 0.0 -3.2029295e-06 0.0
000220 00 00 00 00 00 00 00 00 00 00 00 00 c4 83 8c 3e
       0.0 0.0 0.0 0.2744428
000230 e3 63 9f bb 12 c4 bb 3c 67 ff f2 b2 e5 69 a5 b9
       -0.0048642023 0.022920642 -2.8288651e-08 -0.0003155015
000240 a6 86 40 3c 29 00 9d b9 5f b7 3c 3c 5b 7c 5d 39
       0.011750853 -0.00029945493 0.011518328 0.00021122528
000250 b4 fb 0c bb 00 35 95 36 73 94 5f 3c 30 e9 34 3c
       -0.0021512331 4.446716e-06 0.013646233 0.011041924
000260 59 0d 3d 3c b0 f9 57 3c 06 3d 39 3c d8 98 41 3c
       0.011538827 0.013182089 0.011306053 0.011816226
000270 b6 52 3c 3c 0d 28 98 39 10 14 bc 3c 0e fd b7 3c
       0.011494329 0.0002902154 0.022958785 0.022459533
000280 03 0c ab 3c 99 a6 a9 3c b2 6c a9 3c 70 1b 46 3c
       0.020879751 0.020709323 0.020681713 0.012091503
000290 fd 4f f4 ba 5f af 41 b9 e6 07 63 3c ff d1 cc 3c
       -0.0018639561 -0.00018471245 0.013856864 0.025002478
0002a0 d0 70 d3 3c 01 f0 bf 3c 3e 08 6e 39 29 8f 46 3c
       0.02581063 0.023429872 0.00022700519 0.012119093
0002b0 f0 93 5f 3c 56 7c 5c 3c d6 3a 39 3c 9b 16 cb 3c
       0.013646111 0.013457378 0.0113055315 0.024791053
0002c0 1a 8a cf 3c 5e d0 bf 3c 7c 52 a0 33 a0 98 41 3c
       0.025334407 0.023414787 7.4655844e-08 0.011816174
0002d0 15 08 63 3c 91 38 fc b2 bc ad 3c 3c 93 24 3f 3c
       0.013856907 -2.9362385e-08 0.011516031 0.011666435
0002e0 5f b0 5e 3c a9 f1 bf 3c f2 f1 bf 3c ed fa c3 3c
       0.013591855 0.023430662 0.023430798 0.023923362
0002f0 84 b7 40 3c db 13 ea 33 ba f4 3c 3c 97 c4 47 3c
       0.011762504 1.0900086e-07 0.011532957 0.012192867
000300 e4 e1 94 39 0a dc 05 ba 4a b8 3c 3c 56 82 25 b5
       0.0002839706 -0.0005106336 0.011518547 -6.1656954e-07
000310 67 b7 40 3c 25 86 60 3c c7 a4 c0 3c 80 b4 48 3c
       0.0117624765 0.013703858 0.023516072 0.012250066
000320 83 3f 46 3c be d3 d8 b2 9f 41 39 3c 1a ca 24 b5
       0.012100103 -2.5241999e-08 0.011307149 -6.138886e-07
000330 42 44 3d 3c c2 eb e9 33 47 53 b4 3c 59 18 d6 3c
       0.011551918 1.0892792e-07 0.022012366 0.026134657
000340 98 4b a0 b8 ce 15 cc 33 f5 04 8e ad c5 52 b8 3c
       -7.643475e-05 9.5034565e-08 -1.6145732e-11 0.022500405
000350 b9 99 ce 3c 76 38 12 ba 00 00 00 00 00 00 00 00
       0.025219785 -0.00055778713 0.0 0.0
000360 f8 2d 10 3c ca 1d 1a 3c 80 34 37 bb 00 00 00 00
       0.008800022 0.009406516 -0.0027954876 0.0
000370 00 00 00 00 c1 51 15 35 00 00 00 00 00 00 00 00
       0.0 5.5625793e-07 0.0 0.0
000380 00 00 00 00 00 00 00 00 46 c0 21 35 00 00 00 00
       0.0 0.0 6.025697e-07 0.0
000390 00 00 00 00 00 00 00 00 00 00 00 00 0c ff c0 3c
       0.0 0.0 0.0 0.023559116
0003a0 85 1a 13 3c 88 5c 43 3c d3 31 0c 34 2a 69 79 2d
       0.008978491 0.011923917 1.3056642e-07 1.4177362e-11
0003b0 9b 7b c0 3c cd 28 ad 3c 15 91 43 3c 00 00 00 00
       0.02349644 0.02113762 0.011936446 0.0
0003c0 00 00 00 00 70 eb b5 3c 80 80 f7 3b d6 d5 43 3c
       0.0 0.022206992 0.00755316 0.011952838
0003d0 00 00 00 00 00 00 00 00 e8 d6 05 ba 00 00 00 00
       0.0 0.0 -0.0005105571 0.0
0003e0 00 00 00 00 00 00 00 00 00 00 00 00 e8 d6 05 ba
       0.0 0.0 0.0 -0.0005105571
0003f0 00 00 00 00 00 00 00 00 00 00 00 00 00 00 00 00
       0.0 0.0 0.0 0.0

exp_avg_sq f4 [128, 142]
000000 2d dc 30 3c 85 c1 94 3c e5 98 9a 3c 78 17 7c 3c
       0.0107946815 0.018158684 0.018871734 0.015386455
000010 a6 12 75 3c 28 8d fa 3b e4 05 aa 3b b9 79 f9 3b
       0.014958059 0.0076462217 0.0051886905 0.0076133874
000020 40 60 16 3c a0 67 80 3c cb 82 57 3c f1 d0 26 3c
       0.009178221 0.015674412 0.013153742 0.010181651
000030 32 5c 83 3c 60 0a 80 3c 82 60 83 3c 63 08 41 3c
       0.016035173 0.015629947 0.01603723 0.011781785
000040 47 1f 63 3c e9 47 44 3c 40 99 2a 3c b2 b5 22 3c
       0.013862438 0.011980035 0.010412514 0.009931015
000050 58 be 20 3c ff 40 53 3c f6 42 72 3c 2e 82 27 3c
       0.0098110065 0.012893914 0.014786473 0.010223908
000060 d1 79 32 3c 9c 12 69 3c 5c 85 27 3c 25 6d 96 3c
       0.010893301 0.014225628 0.010224666 0.018362591
000070 78 5d 8e 3c 5d 18 85 3c 09 c6 2c 3c 0b c7 14 3c
       0.017378554 0.016246969 0.010545262 0.009080659
000080 da 26 6e 3c af 3e 59 3c 24 69 61 3c 7a 2d b2 3c
       0.01453563 0.013259574 0.013757978 0.0217502
000090 9c bb 7c 3c 3d 90 74 3c b8 02 cd 3b dc 26 1f 3c
       0.015425589 0.014926967 0.0062564276 0.009713855
0000a0 f3 3b a4 3c 9b 87 90 3c 16 e9 a8 3c 7a a7 5f 3c
       0.020048117 0.017642787 0.020618957 0.013650769
0000b0 f9 f0 86 3c cf 16 30 3c 91 b4 2f 3c d5 2c f3 3b
       0.016472327 0.0107476255 0.010724203 0.007421116
0000c0 cb 8a 81 3c e2 f7 46 3c 25 b2 6b 3c 82 0a d0 3b
       0.015813252 0.012144061 0.014385735 0.006348909
0000d0 94 b6 59 3c 2a f8 12 3c 77 82 fd 3b fe a9 d2 3b
       0.013288159 0.0089703 0.0077365 0.006428956
0000e0 76 dc 6a 3c 86 2b 25 3c 63 24 68 3c d3 2f 93 3b
       0.014334789 0.010081178 0.0141688315 0.004491785
0000f0 30 c6 37 3c df 4e f5 3b 50 7b 06 3c 53 86 98 3b
       0.011216685 0.007486209 0.008208111 0.0046546846
000100 6c 2a 88 3c 24 ab 72 3c cc 16 1a 3c 4a 1f 54 3b
       0.01662179 0.014811311 0.009404849 0.0032367283
000110 bf 92 93 3a f0 85 87 3c bf 0b 4f 3c 96 69 11 3c
       0.0011258944 0.016543359 0.012637078 0.008875271
000120 00 00 00 00 00 00 00 00 91 c7 23 3c 11 01 be 3b
       0.0 0.0 0.009996311 0.005798467
000130 23 1a 99 3b 00 00 00 00 00 00 00 00 d5 49 20 3b
       0.004672305 0.0 0.0 0.002445807
000140 00 00 00 00 00 00 00 00 00 00 00 00 00 00 00 00
       0.0 0.0 0.0 0.0
000150 7d 6c df 3a 00 00 00 00 00 00 00 00 00 00 00 00
       0.0017045882 0.0 0.0 0.0
000160 00 00 00 00 ac 9f 98 3c e7 b2 6d 3c 82 4d 2a 3c
       0.0 0.018630825 0.014507986 0.010394456
000170 90 f1 69 3a a1 e1 e2 39 b9 28 80 3c 79 0d 54 3c
       0.000892424 0.00043274186 0.015644418 0.012942665
000180 73 fa 06 3c 00 00 00 00 00 00 00 00 fb 77 2a 3c
       0.008238423 0.0 0.0 0.010404582
000190 f8 1f 03 3c 34 8f 5d 3b 00 00 00 00 00 00 00 00
       0.008003227 0.003380728 0.0 0.0
0001a0 02 98 0e 3b 00 00 00 00 00 00 00 00 00 00 00 00
       0.0021758084 0.0 0.0 0.0
0001b0 00 00 00 00 f3 62 f5 3a 00 00 00 00 00 00 00 00
       0.0 0.0018721506 0.0 0.0
0001c0 00 00 00 00 00 00 00 00 b0 a2 55 3c 9a 42 fe 3b
       0.0 0.0 0.013039276 0.0077594044
0001d0 cf 71 c3 3b 20 66 5e 3a 93 cb 35 3a 31 61 50 3c
       0.005964495 0.0008483846 0.0006934937 0.012718485
0001e0 fe 5a 2d 3c 54 70 95 3b 00 00 00 00 00 00 00 00
       0.010580776 0.0045605097 0.0 0.0
0001f0 eb 7b 2d 3c 22 43 98 3b 05 85 2e 3b 00 00 00 00
       0.010588626 0.0046466747 0.0026629579 0.0
000200 00 00 00 00 76 55 52 3a 00 00 00 00 00 00 00 00
       0.0 0.0008023599 0.0 0.0
000210 00 00 00 00 00 00 00 00 a1 e8 29 3a 00 00 00 00
       0.0 0.0 0.0006481503 0.0
000220 00 00 00 00 00 00 00 00 00 00 00 00 5b e5 34 3e
       0.0 0.0 0.0 0.17665617
000230 c1 cd 8e 3c e0 8c 59 3f c0 69 a3 3b 27 e5 08 3c
       0.017432095 0.84980583 0.0049869716 0.008355415
000240 1b 7b 15 3c 25 1d ff 3b 7a 95 d7 3b 0f a0 ab 3b
       0.009123589 0.0077854567 0.0065790983 0.0052375863
000250 85 9b 8c 3b 19 c7 2d 3b 77 1e aa 3b 32 c0 00 3c
       0.0042910003 0.0026516377 0.00519162 0.007858323
000260 70 39 fb 3b 99 d8 e6 3b d6 31 e3 3b f7 b5 f3 3b
       0.007666759 0.0070448634 0.006933431 0.0074374634
000270 63 8f 0b 3c 1d 6d a6 3b f8 13 0a 3c c1 57 f5 3b
       0.008518073 0.0050789253 0.0084276125 0.0074872677
000280 95 ed fd 3b b1 d9 03 3c c2 7d e3 3b 24 41 c6 3b
       0.0077492693 0.008047507 0.0069424817 0.006050246
000290 94 5a e5 3b cb 45 98 3b fc 5c c9 3b 18 a1 00 3c
       0.006999323 0.004646992 0.006145118 0.007850908
0002a0 df ca da 3b 4d d0 24 3c 59 43 e6 3b aa f0 0d 3c
       0.006677016 0.010059428 0.0070270714 0.008663336
0002b0 bb 05 02 3c f0 a0 fa 3b 82 56 0b 3c b0 1b 0a 3c
       0.007935937 0.00764858 0.008504512 0.008429453
0002c0 9a 2c d7 3b 8c 32 0a 3c 9d 6d fb 3b 38 a1 09 3c
       0.006566596 0.008434903 0.007672979 0.008400254
0002d0 c7 96 d7 3b 82 3b 99 3b e7 e8 0f 3c 9d a7 1e 3c
       0.0065792534 0.0046762833 0.008783556 0.009683517
0002e0 d7 89 0d 3c 84 51 d2 3b 63 ea ea 3b e8 a5 e2 3b
       0.008638821 0.006418409 0.0071690544 0.00691675
0002f0 51 f0 e7 3b 3b df 94 3b 54 3e 05 3c c5 8e f8 3b
       0.0070782085 0.0045432127 0.008132536 0.007585379
000300 69 e8 c5 3b 16 c4 97 3b 85 24 ce 3b 1b 2f c0 3b
       0.0060396683 0.0046315296 0.0062909746 0.0058649904
000310 0a 0a b9 3b 2c 3d af 3b dd cc d3 3b 22 6f 95 3b
       0.0056469487 0.0053478684 0.0064636306 0.004560367
000320 84 04 be 3b a6 50 6e 3b f9 49 a1 3b 93 cb 9f 3b
       0.005798878 0.0036363988 0.0049221483 0.004876563
000330 6a b6 ac 3b 7b a1 56 3b fc 8d 0f 3c f6 e8 c7 3b
       0.005270769 0.0032750058 0.008761879 0.006100769
000340 9c 60 83 3b 37 49 bd 3a 1c c2 d7 39 23 d9 dc 3b
       0.0040093195 0.0014441375 0.00041152618 0.006739752
000350 36 85 85 3b 0c 71 f5 3a 00 00 00 00 00 00 00 00
       0.004074718 0.0018725707 0.0 0.0
000360 20 50 93 3b e0 a6 ec 3a e1 f1 d3 3a 00 00 00 00
       0.0044956356 0.0018055104 0.0016170108 0.0
000370 00 00 00 00 23 a1 b5 3a 00 00 00 00 00 00 00 00
       0.0 0.0013857227 0.0 0.0
000380 00 00 00 00 00 00 00 00 78 62 a3 3a 00 00 00 00
       0.0 0.0 0.0012465259 0.0
000390 00 00 00 00 00 00 00 00 00 00 00 00 8d 65 0f 3c
       0.0 0.0 0.0 0.008752239
0003a0 e4 85 c8 3b 59 57 a7 3b 24 53 f5 39 af 66 aa 39
       0.0061194766 0.005106848 0.00046791986 0.00032501432
0003b0 31 7d e6 3b 18 bc c4 3b 14 f9 87 3b 00 00 00 00
       0.007033967 0.006003868 0.0041495655 0.0
0003c0 00 00 00 00 66 e4 a6 3b 2b 88 32 3b 8e 6e 09 3b
       0.0 0.005093145 0.0027241807 0.0020970437
0003d0 00 00 00 00 00 00 00 00 17 0b c8 3a 00 00 00 00
       0.0 0.0 0.0015262094 0.0
0003e0 00 00 00 00 00 00 00 00 00 00 00 00 98 2e b5 3a
       0.0 0.0 0.0 0.001382309
0003f0 00 00 00 00 00 00 00 00 00 00 00 00 00 00 00 00
       0.0 0.0 0.0 0.0

exp_avg f4 [128]
000000 29 95 9d 3d 2d 09 a9 3c 7a 99 72 1b 3d 6a a8 ba
       0.07694466 0.020634258 2.0067362e-22 -0.0012849044
000010 7b f1 b8 3c 83 ae ce bc 36 06 2f 3d 04 00 00 00
       0.022576084 -0.025229698 0.042730533 6e-45
000020 7e fa 40 3c 63 e4 17 bb 18 1c f7 1a 62 12 da 36
       0.011778472 -0.00231769 1.02202194e-22 6.4990463e-06
000030 6c 90 2c 22 50 cd 45 3c 04 00 00 00 c8 b8 04 1e
       2.3386803e-18 0.012072876 6e-45 7.026234e-21
000040 d8 75 13 07 21 28 13 3c 21 34 be 3c 18 b3 fd 0c
       1.1093682e-34 0.008981735 0.023218216 3.908861e-31
000050 1f 3a b7 0d 3a de 88 bb 13 69 71 3a 0f c9 98 3d
       1.1292238e-30 -0.004176882 0.00092090777 0.07460224
000060 04 00 00 80 97 fc 0c 95 00 9d 3c 3d 9e dd 5b 36
       -6e-45 -2.8472033e-26 0.046048164 3.2762541e-06
000070 4f 64 8b 3c 59 33 dd bc d7 db 97 bc d5 01 e1 3c
       0.017015604 -0.027002024 -0.018537445 0.027466694
000080 58 80 56 bd e2 8a 86 b7 37 b7 59 3d 37 59 60 3d
       -0.052368492 -1.6038717e-05 0.053153243 0.054772582
000090 32 0d b8 32 94 dd cb b9 59 9f 86 3d b7 ac 07 3a
       2.142642e-08 -0.00038884266 0.06573362 0.0005175578
0000a0 32 5b 6c bd f1 36 72 3c 3b c3 4d 39 60 c5 13 bd
       -0.057704158 0.014783607 0.00019623053 -0.036076903
0000b0 98 24 24 1b 87 ba 8a 32 1a 94 b9 09 45 70 88 3c
       1.3577586e-22 1.6150137e-08 4.4676404e-33 0.016655097
0000c0 b4 0c 89 2f 6d e2 6d 3d e0 eb 98 3d dd a0 30 3d
       2.492918e-10 0.058077265 0.074668646 0.04312216
0000d0 98 d5 f2 36 41 d5 3d 3b 90 dc 03 39 d2 34 51 bb
       7.2370276e-06 0.002896622 0.000125753 -0.0031922353
0000e0 04 00 00 00 7e a8 1b b7 72 d2 ad 3c 38 8d 3f 3b
       6e-45 -9.27795e-06 0.021218512 0.002922846
0000f0 04 00 00 00 69 68 a4 3b b2 05 04 bc 52 23 91 10
       6e-45 0.0050173295 -0.0080579985 5.7246835e-29
000100 b9 c5 bf 2d 8b bd 4f bc 04 00 00 00 8d b1 60 3c
       2.1801993e-11 -0.012679468 6e-45 0.013714206
000110 c2 29 3a bb c3 f9 05 3d 48 7e 47 11 1f ca 5a 3c
       -0.0028406237 0.032708894 1.5737245e-28 0.0133538535
000120 28 03 f0 2c b5 37 7b bb 83 09 3b 3d 04 00 00 00
       6.8215607e-12 -0.0038332765 0.045663368 6e-45
000130 64 3c d6 ae be 7c fe bb 41 e9 c2 bb e9 89 8d 2c
       -9.742321e-11 -0.0077663353 -0.005948216 4.022772e-12
000140 10 e2 3a 3a d1 d1 12 3d c0 17 76 3c d5 89 0e 3c
       0.0007129023 0.035844628 0.015020311 0.008699854
000150 6a e7 2a 3b 34 23 60 bc 62 1d cb ba d1 8b 8c b6
       0.0026077875 -0.013680268 -0.0015496428 -4.188602e-06
000160 b5 bd 03 3b 55 12 5c 3d 21 fb 20 3d 8e 36 8d ba
       0.0020102088 0.05372842 0.039301995 -0.0010773705
000170 83 83 b1 b1 75 35 95 2b eb f9 2f 3d 04 00 00 00
       -5.166329e-09 1.0601924e-12 0.04296295 6e-45
000180 72 f3 a2 85 df 77 15 ba d3 f4 00 3d 17 13 12 3c
       -1.5323834e-35 -0.0005701761 0.031483483 0.008915684
000190 ab f8 82 2a 86 08 21 3c 04 00 00 00 f5 c0 f8 0b
       2.3265187e-13 0.009828692 6e-45 9.5816455e-32
0001a0 1e 7e 81 3c 67 87 96 3c 14 c2 1c 2d 29 95 a0 3c
       0.015807208 0.018375112 8.910667e-12 0.019602375
0001b0 04 00 00 00 04 00 00 00 07 00 00 80 fa 50 80 3d
       6e-45 6e-45 -1e-44 0.06265445
0001c0 6b c5 0d 3d d9 44 53 3c f8 d5 56 0d 67 b4 ab 19
       0.0346121 0.0128948325 6.6201397e-31 1.775385e-23
0001d0 65 fc 8f 3d 99 3d 05 b9 fb d8 10 3d 56 53 b8 36
       0.07030562 -0.00012706815 0.03536318 5.493329e-06
0001e0 1f d0 5a 3d 04 00 00 00 fd 75 81 3c 55 e8 9e bb
       0.053421136 6e-45 0.015803332 -0.0048494735
0001f0 54 87 1b 18 6d 00 00 00 ea 4c 32 bb aa 5e 1f 3c
       2.0101604e-24 1.53e-43 -0.002720649 0.0097271595

exp_avg_sq f4 [128]
000000 a3 27 e5 3c 09 9f 58 3c 8d 1f 66 38 99 32 1c 3a
       0.027973002 0.013221511 5.4865657e-05 0.00059584674
000010 e4 1f b6 3c 07 91 85 3c 53 85 b2 3c ff db 61 37
       0.022232004 0.016304506 0.02179209 1.3462267e-05
000020 8e b6 13 3c 2e e0 1b 3c f6 e7 5f 3a 7f 34 ff 38
       0.009015692 0.009513898 0.000854134 0.00012169126
000030 72 de b8 3a 7d 5c 98 3c 3b 19 50 38 1b 17 4c 39
       0.001410438 0.01859879 4.9614562e-05 0.00019463564
000040 4f 5a 2f 38 de 92 17 3a 89 94 9a 3c 58 b8 8e 39
       4.1807358e-05 0.0005782078 0.018869655 0.00027221697
000050 a6 13 25 38 6d c5 24 3b 6a 04 b3 3c 9d 5a e2 3c
       3.9357365e-05 0.002514209 0.02185269 0.027631098
000060 db 4c 63 38 d4 bd c1 39 e4 2f 9d 3c 82 8c 29 3a
       5.4192595e-05 0.00036953262 0.019187875 0.00064677757
000070 67 93 a6 3c d4 83 0e 3d 1f 9d 3e 3c 5a de d6 3c
       0.020333959 0.03479369 0.01163414 0.026229072
000080 c6 a1 aa 3c de 59 8f 3a cf 69 b3 3c c9 a3 b8 3c
       0.020829093 0.0010936817 0.02190104 0.022539036
000090 e3 ca 1d 3a 2d 41 98 39 d3 ef bd 3c 6b a7 02 3d
       0.0006019307 0.0002904026 0.023185646 0.031897943
0000a0 e8 63 21 3c c1 61 5e 3a 59 18 81 3c e6 2b d3 3c
       0.00985048 0.00084831944 0.01575868 0.025777768
0000b0 a3 11 18 3a 7a 8a 62 39 a7 fb 5c 38 14 05 e8 3c
       0.0005800968 0.00021604626 5.2686457e-05 0.028322734
0000c0 0a 51 89 3a c5 88 b5 3c 86 f3 02 3d e7 17 a7 3c
       0.0010476422 0.022159943 0.031970523 0.02039714
0000d0 2d 22 20 3a f0 2d 63 3a db b7 0f 3c ad c4 f9 3a
       0.0006108608 0.0008666208 0.008771862 0.0019055806
0000e0 51 66 67 39 e0 3e 13 3b 4e 58 9c 3c 7b 70 1e 3b
       0.00022067993 0.0022467896 0.019085076 0.002417593
0000f0 f6 c2 17 37 49 be 59 39 93 e0 b4 3c de 7b 60 38
       9.045694e-06 0.0002076562 0.022079742 5.3521122e-05
000100 18 b6 80 3a 29 ef 15 3b 55 61 be 37 82 cb e1 3c
       0.0009819893 0.0022878146 2.2695089e-05 0.02756286
000110 2f d3 c3 39 3f 84 a8 3c 93 82 95 37 e2 5f d9 3b
       0.00037350642 0.020570872 1.7822988e-05 0.0066337446
000120 d5 90 80 39 42 11 23 3c bf d5 cc 3c 9e 44 a8 37
       0.0002452197 0.009952845 0.025004266 2.0059113e-05
000130 c1 9d 61 39 c1 ff c8 3c f7 93 af 3c 82 31 9b 3b
       0.0002151644 0.024536015 0.02143286 0.0047361264
000140 93 22 97 3a 2c ea c2 3c 4d 26 ce 3c a8 ea b7 3c
       0.001153069 0.023793302 0.025164748 0.02245076
000150 05 ce 17 3b 35 5e 81 3c 2a e1 93 38 a2 fc 0c 3a
       0.0023163569 0.015791992 7.051446e-05 0.00053782214
000160 bc 42 9f 3c 74 84 bf 3c 54 1b 07 3d 79 7c e7 39
       0.019441001 0.023378588 0.032985047 0.00044152493
000170 07 86 16 3a 54 75 ae 39 b8 52 8c 3c 11 39 10 3a
       0.00057420175 0.00033275282 0.017129287 0.00055016676
000180 ab 17 68 37 7b 63 7d 3c 71 0b a2 3c 72 b5 8b 3c
       1.3833788e-05 0.0154656125 0.019780846 0.017054293
000190 e6 dd 20 3a a1 59 82 39 ab 98 30 37 4a fd 32 38
       0.0006136581 0.0002486231 1.0525963e-05 4.26744e-05
0001a0 ad a2 90 3c 94 50 e3 3c d5 0c 5b 3a c3 ef 91 3a
       0.017655695 0.027748384 0.0008356099 0.0011134077
0001b0 18 20 09 36 39 c0 e3 38 f5 8f 53 38 00 0c cc 3c
       2.0433272e-06 0.00010860008 5.044039e-05 0.024908066
0001c0 8f c9 cf 3c d8 7a a6 3c dd 4c c9 39 6e bc c3 37
       0.025364665 0.020322248 0.00038394975 2.3333556e-05
0001d0 95 25 0f 3d 8d 60 13 3c 8a c0 19 3d 40 c6 2c 3b
       0.03494795 0.0089951875 0.037537135 0.0026363283
0001e0 8b aa 53 3c 4c 24 11 37 46 83 1b 3c 85 4c 78 3b
       0.012919079 8.6511245e-06 0.009491747 0.0037887406
0001f0 2e 9d 98 39 58 bf 2c 38 47 c8 92 3a 19 51 8b 3c
       0.00029108807 4.11862e-05 0.0011198603 0.017006444
