weights/policy_checkpoint4400.pt (torch, 522983 bytes, 12 tensors)

net.0.weight f4 [128, 142]
0	0x3cb28c3b	0.021795383
1	0x3da50406	0.08057408
2	0x3b70f515	0.0036767174
3	0x3ded731e	0.115942225
4	0x3d9be2b5	0.076116
5	0x3e09ce35	0.13457568
6	0x3d9a01c1	0.07519866
7	0x3d3846d7	0.044989433
8	0x3d11b9d3	0.035577606
9	0xbd83195d	-0.06401322
10	0x3dbbf24f	0.09177076
11	0x3d8197c8	0.06327778
12	0x3d7cd72e	0.06172865
13	0x3d21d7eb	0.039512556
14	0x3dc487c0	0.09596205
15	0x3d67fb74	0.05663629
16	0x3d29fdb5	0.04150172
17	0xbd0d705b	-0.03453098
18	0xbda3a092	-0.07989611
19	0x3d5d4b92	0.054027148
20	0xba939aaa	-0.0011261303
21	0x3d503dfd	0.050840367
22	0x3c02e53c	0.007989224
23	0x3dedbc8c	0.11608228
24	0xbd13e3ca	-0.03610591
25	0xbd2759fd	-0.040857304
26	0xbcfe7311	-0.031060727
27	0xbd90d393	-0.070716046
28	0xbc972411	-0.018449815
29	0xbdd6c03a	-0.10485883
30	0x3e2a04bc	0.16603369
31	0xbbb93a2b	-0.005652686
32	0x3dd0e312	0.1019956
33	0x3d46085a	0.04834781
34	0xbc97f138	-0.01854764
35	0x3cd22425	0.025652
36	0x3c7958e1	0.015218944
37	0x3dbc0752	0.09181084
38	0x3d02acce	0.03190308
39	0xbc85fbcf	-0.016355423
40	0x3dd0ee60	0.102017164
41	0xbd086a45	-0.03330447
42	0x3d95398d	0.072863676
43	0x3d82ad36	0.063806936
44	0x3d6b6d2a	0.057477154
45	0x3d4a8b50	0.049449265
46	0x3dd53d85	0.104121245
47	0x3ba3f777	0.0050038653
48	0x3da175ae	0.07883774
49	0x3d89b174	0.067232996
50	0xbd677068	-0.056503683
51	0x3c0cb9de	0.008589236
52	0xbd2ba127	-0.041901734
53	0x3e6b2309	0.22962584
54	0x3df0382f	0.11729466
55	0x3df20a84	0.11818412
56	0x3cc2155d	0.023691827
57	0x3d542a4e	0.051798157
58	0x3e443379	0.1916026
59	0x3da40e91	0.08010591
60	0xbca5889c	-0.020206742
61	0x3c4d4687	0.012529022
62	0x3df7a393	0.12091746
63	0x3cb9e0c2	0.02269018
64	0x3c888889	0.016666668
65	0xbd87e011	-0.06634534
66	0x3da26e00	0.07931137
67	0xbd1eb1d7	-0.03874382
68	0xbc80f4a1	-0.015741648
69	0xbd424c72	-0.047436185
70	0x3e0421b2	0.12903479
71	0x3dbbd685	0.09171776
72	0x3da56068	0.08075029
73	0xbd8dd5e8	-0.06925565
74	0xbd8b9d8c	-0.06817159
75	0xbcd5067c	-0.026004069
76	0xbd32c225	-0.043642182
77	0x3d0b3953	0.033990216
78	0x3cf62972	0.03004906
79	0x3d1d0171	0.038331453
80	0xbd31829e	-0.043337457
81	0xbd6a52ec	-0.057207987
82	0x3d365ffc	0.04452513
83	0xbd0aefca	-0.033920087
84	0xbb3c09a1	-0.0028692263
85	0xbca32253	-0.019913828
86	0x3d44a0ec	0.04800503
87	0xbd858879	-0.06520171
88	0xbd2d766d	-0.042349268
89	0x3d91b074	0.07113734
90	0x3d10d64a	0.035360612
91	0x3cd64cd8	0.026159689
92	0x3d8695d8	0.06571549
93	0x3dae00c1	0.084962375
94	0xbc983062	-0.018577758
95	0xbda45ab8	-0.08025116
96	0x3e0017d4	0.1250909
97	0xbce7f871	-0.028316708
98	0xbcf3b705	-0.029750356
99	0xbc3592a7	-0.011082328
100	0xbd432a0c	-0.04764752
101	0x3d8290f1	0.06375302
102	0xbc357ab8	-0.011076622
103	0xbd798202	-0.060915
104	0x3da42b8a	0.08016117
105	0xbd6acb73	-0.05732293
106	0xbd91cf24	-0.07119587
107	0xbd3d474f	-0.046210583
108	0xbd966af2	-0.07344617
109	0x3d6fe818	0.05857095
110	0x3dabcc11	0.08388532
111	0x3c81d7ef	0.015850035
112	0x3cd3d8bf	0.025860189
113	0xbda04b91	-0.07826913
114	0xbd54eaf2	-0.051981874
115	0x3c83e5e0	0.016100824
116	0x3d3c599d	0.0459839
117	0xbc890b20	-0.016728938
118	0x3c050a99	0.008120202
119	0xbdfbd8e5	-0.12297229
120	0x3c8680aa	0.016418774
121	0xbcc52c09	-0.02406885
122	0xbbbe8d32	-0.0058151716
123	0xbd68ebb8	-0.056865424
124	0xbe31756e	-0.17329952
125	0xbda7c39c	-0.081916064
126	0xbd609d53	-0.054837536
127	0xbd87a635	-0.06623498
128	0x3d901a63	0.07036283
129	0xbd692362	-0.05691851
130	0x3d93df1c	0.07220289
131	0x3cd6330d	0.02614739
132	0xbd9188c2	-0.071061626
133	0x3d6ddf53	0.058074307
134	0x3c8114fe	0.01575708
135	0xbd03c29a	-0.03216801
136	0xbd8ea8d7	-0.069657974
137	0xbdaadc5c	-0.083428115
138	0x3cc4b05a	0.024009872
139	0x3dac51e6	0.084140584
140	0x3da3d501	0.07999612
141	0xbc0fc39a	-0.008774662
142	0x3cb833c4	0.022485621
143	0xbdc26d40	-0.09493494
144	0xbdc1b02d	-0.09457431
145	0xbd81371f	-0.06309342
146	0x3d2fd292	0.042925425
147	0x3d40ecee	0.047100954
148	0x3da5c111	0.08093465
149	0xbdeef53a	-0.11667867
150	0x3c18fd56	0.009337744
151	0xbd49598a	-0.049157657
152	0xbb9cb043	-0.004781754
153	0xbdead71a	-0.114668086
154	0x3e0762bb	0.13221256
155	0xbd03b52e	-0.03215521
156	0x3da0e6aa	0.07856496
157	0xbce4a609	-0.027911203
158	0x3d0d27c2	0.034461744
159	0xbd2e380e	-0.042533927
160	0x3dabaa81	0.083821304
161	0x3c418fbd	0.011814055
162	0x3b1eb0b4	0.002421421
163	0xbda17245	-0.07883123
164	0x3dca8f0f	0.098905675
165	0x3c0ca3e4	0.008583996
166	0xbd1d1581	-0.038350586
167	0x3da7da07	0.08195882
168	0x3d9afeab	0.07568105
169	0xbcc4084c	-0.023929738
170	0xbd6b76be	-0.05748629
171	0xbda18529	-0.078867264
172	0x3ddadc74	0.10686579
173	0x3c444a73	0.011980641
174	0xbd3f31e9	-0.046678457
175	0xbd16480c	-0.036689803
176	0xbda3952f	-0.07987439
177	0x3c3e001d	0.011596707
178	0x3d15ba4b	0.036554616
179	0xbe24ce8d	-0.16094418
180	0x3da791f7	0.081821375
181	0x3d954593	0.07288661
182	0xbd12160e	-0.035665564
183	0xbdaea05c	-0.0852668
184	0x3ce863d6	0.028367918
185	0x3d902b41	0.070395
186	0xbc3a598e	-0.011373891
187	0xbd305876	-0.043053113
188	0x3c074b66	0.0082577225
189	0x3cd8725d	0.02642172
190	0xbdb3fe68	-0.087887585
191	0xbc7e578b	-0.015523802
192	0x3d8a8989	0.06764514
193	0x3dd49737	0.103804044
194	0x3c0cb03c	0.008586939
195	0x3ca2f971	0.019894334
196	0x3c2fe4ad	0.010735673
197	0xbde56d02	-0.11202432
198	0x3dd12921	0.10212923
199	0x3daad3cd	0.08341179
200	0xbd02e561	-0.031957034
201	0x3d991cff	0.07476234
202	0x3e027844	0.1274119
203	0x3a1d1a45	0.0005992989
204	0xbca94729	-0.020663815
205	0xbd31ddda	-0.043424465
206	0xbd9c7ad5	-0.07640616
207	0xbdc2423e	-0.09485291
208	0xbd56c10f	-0.05243021
209	0xbc8faca0	-0.017538369
210	0x3d91fada	0.07127924
211	0x3d812d59	0.063074775
212	0xbdf35713	-0.118818425
213	0xbe045b2f	-0.12925409
214	0xbc58fc05	-0.01324368
215	0x3da640be	0.08117817
216	0x3db83b8c	0.08995733
217	0xbd0b4cdc	-0.034008846
218	0x3c2cad4d	0.010539365
219	0xbd02eb80	-0.03196287
220	0xbd5e7af8	-0.05431649
221	0x3d8e2825	0.06941251
222	0xbd1c4b47	-0.038157728
223	0xbc89cff6	-0.016822796
224	0xbdaaf8ad	-0.083482124
225	0x3d660c2b	0.056163948
226	0x3d66c07e	0.05633592
227	0x3cfa8ae8	0.030583814
228	0xbd6fac54	-0.058513954
229	0xbda99eaa	-0.08282216
230	0xbd8b95a9	-0.06815655
231	0x3c269943	0.010168376
232	0x3c856b2a	0.016286451
233	0x3da639a3	0.08116462
234	0xbda77303	-0.081762336
235	0xbdef92f2	-0.116979495
236	0x3c473d51	0.012160615
237	0xbd3de61d	-0.04636203
238	0xbd88431c	-0.06653425
239	0xbda0c0ca	-0.078492716
240	0x3d0cb59f	0.034352895
241	0xbce9b597	-0.028528972
242	0x3ce57e29	0.02801426
243	0xbd9742d1	-0.07385791
244	0xbc7a8ab8	-0.015291862
245	0xbd71eda2	-0.059064515
246	0xbd27d89a	-0.04097805
247	0x3ce4097c	0.027836554
248	0xbccc4f53	-0.024940168
249	0x3d5432d6	0.051806293
250	0xbcdc8ad8	-0.026921675
251	0xbd93d8ae	-0.07219063
252	0xbc7296a7	-0.014806426
253	0xbd269f21	-0.0406791
254	0xbcd25262	-0.025674049
255	0xbda39d36	-0.0798897

net.0.bias f4 [128]
0	0x3deb1705	0.11479
1	0xbc5c4476	-0.013444057
2	0x3ae53edf	0.001749005
3	0x3d5d5b4b	0.054042142
4	0x3ded0b18	0.115743816
5	0x3cc45353	0.023965513
6	0x3bbac213	0.005699405
7	0xbdb0f9d9	-0.08641405
8	0x3dc92466	0.098213956
9	0x3d5f9264	0.05458297
10	0xbbc472f2	-0.005995148
11	0xbc8b932d	-0.017037952
12	0xbd65f44a	-0.056141175
13	0x3df219ba	0.11821313
14	0xbd964ff0	-0.073394656
15	0xbd597632	-0.053091235
16	0x3d656dc5	0.056012888
17	0xbdacd14f	-0.0843836
18	0x3d04993b	0.032372694
19	0xbd6f9f55	-0.05850156
20	0x3ae20112	0.0017242751
21	0xbdd50da3	-0.104029916
22	0x3dd17865	0.102280416
23	0x3dcba413	0.09943404
24	0xbc4f63a6	-0.012658035
25	0x3d1affe9	0.03784171
26	0x3dc25ffb	0.09490963
27	0xbd312299	-0.043245886
28	0xbd38a14b	-0.045075696
29	0x3d7bf0d5	0.061508972
30	0xbd4e367e	-0.050344937
31	0x3d6accd5	0.05732425
32	0x3deef9c1	0.116687305
33	0x3d1ba929	0.03800312
34	0x3d863262	0.065525785
35	0x3c8632fa	0.01638173
36	0xbe07a318	-0.13245809
37	0x3a45bf75	0.0007543483
38	0x3dac987c	0.084275216
39	0x3dce9f21	0.10088945
40	0x3dd9ab83	0.106284164
41	0xbdef9352	-0.11698021
42	0x3b47d1ec	0.0030490113
43	0x3e558663	0.20852046
44	0xbd217459	-0.0394176
45	0xbd9ebfd3	-0.07751431
46	0xbdc12c32	-0.09432258
47	0x3e0bd755	0.13656361
48	0xbd931b22	-0.071829095
49	0xbbe78a6d	-0.007066062
50	0x3c476bab	0.012171666
51	0x3d1ed5f3	0.038778257
52	0xbd21f259	-0.03953776
53	0x3d2ba9a1	0.041909818
54	0x3ba2e91e	0.0049716374
55	0xbd80c330	-0.06287229
56	0xbd39c99b	-0.04535828
57	0x3ce84865	0.028354833
58	0xbc7dbcd9	-0.015486919
59	0x3c753be4	0.014967892
60	0xbde49643	-0.11161473
61	0x3cad0907	0.021122469
62	0x3de2b9eb	0.11070617
63	0xbdaf2b81	-0.085532196
64	0xbc699bf6	-0.014258375
65	0x3d48467c	0.048895344
66	0xbc3b126a	-0.0114179645
67	0x3db1b663	0.08677366
68	0xbd691bdb	-0.05691133
69	0x3d0630e9	0.032761488
70	0xbde654d7	-0.11246651
71	0x3d67c113	0.056580614
72	0xbbeb2725	-0.0071762973
73	0x3d81eb9f	0.06343769
74	0x3d46d08c	0.04853873
75	0xbde10506	-0.10987286
76	0xbd19cdd6	-0.037549816
77	0x3dacd530	0.084391
78	0x3e29b93f	0.16574572
79	0xbd525f6c	-0.051360533
80	0xbc4d5e60	-0.012534708
81	0xbbf82376	-0.0075725866
82	0x3da218ed	0.079149105
83	0x3e096a6f	0.13419507
84	0xbcb9661b	-0.022631695
85	0x3d779282	0.060442455
86	0xbd5055bf	-0.050863024
87	0xbce092a7	-0.02741368
88	0xbd5aee61	-0.053449992
89	0x3dd7041b	0.1049883
90	0x3e120154	0.14258319
91	0xbccefd8e	-0.025267389
92	0x3bde8358	0.0067905597
93	0xbdbb45f2	-0.091442004
94	0x3e149009	0.1450807
95	0x3cc66100	0.024216175
96	0xbdbae522	-0.09125735
97	0x3a26e54a	0.0006366564
98	0x3c90ab75	0.017659882
99	0xbc803fbd	-0.015655393
100	0xbdb28b24	-0.08717945
101	0xbdd53e9c	-0.104123324
102	0xbda9e545	-0.08295683
103	0xbd861e55	-0.06548754
104	0x3cf3a7b8	0.02974306
105	0x3e33a4d0	0.1754334
106	0x379ae25f	1.8463643e-05
107	0xbd7157bf	-0.05892157
108	0xbdb98c19	-0.09059925
109	0xbdf74e9b	-0.1207554
110	0x3d0a280d	0.0337296
111	0x3cebd168	0.028786376
112	0x3dc5fa38	0.09666866
113	0xbdeb84bd	-0.11499927
114	0xbd7f0f40	-0.062270403
115	0xbd360e6b	-0.044447344
116	0x3e2043e5	0.156509
117	0xbddf9c4c	-0.10918483
118	0x3d24d254	0.040239647
119	0xbd9021fc	-0.07037732
120	0x3d5e85be	0.054326765
121	0xbd397150	-0.04527408
122	0xbd645a67	-0.055750277
123	0xba220dce	-0.00061818666
124	0xbdd1f120	-0.10251069
125	0xbd2ef594	-0.04271467
126	0xbd8077d3	-0.06272855
127	0xbd568885	-0.05237629

net.2.weight f4 [192, 128]
0	0xbd991830	-0.074753165
1	0xbd95b9d1	-0.07310832
2	0x3df30e39	0.11867947
3	0xbdef2855	-0.116776146
4	0xbd2c4255	-0.042055447
5	0xbd86dd82	-0.06585218
6	0xbdff95a7	-0.12479716
7	0x3db4219b	0.08795472
8	0x3acec853	0.0015776254
9	0x3bb8c925	0.0056392127
10	0x3c9bf634	0.019038297
11	0xbcb9a919	-0.02266364
12	0x3c3d4720	0.011552602
13	0xbd85cc1d	-0.06533072
14	0x3d5d426f	0.054018434
15	0xbb69b550	-0.003566105
16	0x3dc58ba5	0.09645776
17	0x3cd6acbe	0.026205417
18	0xbdfcafc2	-0.12338211
19	0x3d39755c	0.04527794
20	0x3db6ecdd	0.08931897
21	0xbd51d624	-0.05122961
22	0xbdb78545	-0.08960966
23	0xbe378316	-0.17921099
24	0x3cf400e7	0.029785587
25	0xbdc66388	-0.09686953
26	0xbde579f2	-0.112049
27	0x3c8b4d9e	0.017004784
28	0xbd7c0f34	-0.061537936
29	0x3d2a3e04	0.04156305
30	0xbe38cd39	-0.18047036
31	0xbdeb6106	-0.11493115
32	0xbdc79e7c	-0.09747025
33	0x3afce39f	0.0019293911
34	0xbe021433	-0.12703018
35	0xbe7ff0d0	-0.24994206
36	0xbd8ab91b	-0.06773587
37	0xbd377e57	-0.04479822
38	0xbd677f1a	-0.056517698
39	0xbde61df3	-0.11236181
40	0xbdcd3902	-0.10020639
41	0xbdae99f8	-0.08525461
42	0xbd1e4320	-0.038638234
43	0xbdfb054f	-0.12256872
44	0xbddf1171	-0.108919986
45	0x3da8ec95	0.082482494
46	0xbd9a6411	-0.075386174
47	0xbd898578	-0.0671491
48	0xbdb946ff	-0.090467446
49	0xbe004054	-0.12524539
50	0xbe663dd7	-0.22484528
51	0xbe05135a	-0.12995663
52	0xbdc21668	-0.0947693
53	0xbdfd42e7	-0.12366276
54	0xbd980797	-0.07423323
55	0xbdc71eda	-0.09722681
56	0x3d30e998	0.043191522
57	0xbdeb61fa	-0.11493297
58	0xbda723bb	-0.08161112
59	0x3c334a4a	0.010943005
60	0xbd90a83b	-0.070633374
61	0xbd0a14b5	-0.033711154
62	0xbdc4deca	-0.09612806
63	0xbd8758e8	-0.066087544
64	0x3cf3e3c5	0.029771695
65	0x3d55765d	0.052114833
66	0x3b8b5112	0.0042516077
67	0xb96514b2	-0.00021846851
68	0x3be98336	0.0071262373
69	0xbe1b3aed	-0.15159197
70	0xbda2190c	-0.079149336
71	0xbc09cf48	-0.008411236
72	0xbdc86574	-0.09784976
73	0x3d466f93	0.04844625
74	0xbde96463	-0.113961
75	0x3d6cd03c	0.057815775
76	0xbd034303	-0.03204633
77	0xbda62f77	-0.08114522
78	0xbe13522c	-0.14386815
79	0x3db29234	0.08719292
80	0xbde20c3a	-0.11037488
81	0x3c7e21d2	0.015510993
82	0xbd872902	-0.065996185
83	0xbd58a4b0	-0.052891433
84	0xbd67f3ad	-0.05662887
85	0xbd79ba37	-0.060968604
86	0xbdd483a9	-0.10376675
87	0xbdb83250	-0.08993971
88	0xbdc2549e	-0.09488796
89	0xbc14102c	-0.009037059
90	0xbe00899a	-0.12552491
91	0xbd922bfc	-0.071372956
92	0xbbaac4af	-0.005211435
93	0x3d6cb41c	0.057788953
94	0xbde3e984	-0.11128524
95	0x3dc96831	0.09834326
96	0xbdb053c2	-0.086097255
97	0xbd83ed55	-0.06441752
98	0xbe1ee86d	-0.15518351
99	0xbe1010ea	-0.14068952
100	0xbd87b4f8	-0.06626314
101	0xbdfd323e	-0.123630986
102	0x3d8fbbf4	0.07018271
103	0xbd2c4a6e	-0.04206317
104	0x3df4018c	0.119143575
105	0xbd7ff377	-0.062488046
106	0xbc1f8f65	-0.009738778
107	0xbd4161ae	-0.047212295
108	0xbccd4ccc	-0.025061034
109	0xbd2ce32d	-0.04220884
110	0x3d91ef70	0.07125747
111	0xbe011b4b	-0.12608068
112	0xbd94a045	-0.072571315
113	0xbe41fe2c	-0.18944615
114	0xbd0f00c4	-0.03491284
115	0x3d91e231	0.07123221
116	0xbd85fe79	-0.065426774
117	0xbde521f6	-0.11188118
118	0xbe43ac6d	-0.19108744
119	0xbd371da7	-0.044706013
120	0xbd7afd04	-0.06127645
121	0x3e0e856e	0.13918087
122	0xbddf1a18	-0.10893649
123	0xbcf6b01b	-0.03011327
124	0xbe0977a8	-0.13424551
125	0x3e0e4584	0.13893706
126	0xbe0e3b97	-0.13889919
127	0xbdf45b9d	-0.11931536
128	0x3e0ad0c6	0.13556203
129	0x3da9ccf9	0.082910486
130	0x3bf200f6	0.0073853685
131	0xbcb63368	-0.02224131
132	0x3dfe6297	0.12421148
133	0x3c680ead	0.014163655
134	0x3e20182a	0.15634218
135	0x3d153157	0.036424007
136	0x3dfecb8b	0.124411665
137	0xbcbcfd13	-0.023069894
138	0x3d9426e9	0.07233984
139	0xbc5394fa	-0.012913937
140	0xbcc38d1c	-0.023870997
141	0x3e2e2a34	0.17008287
142	0xbd492012	-0.04910285
143	0x3c234cfa	0.009967083
144	0x3d707e21	0.058714036
145	0x3c46576d	0.012105805
146	0x3e08f7d6	0.13375792
147	0xbccbb1e7	-0.024865104
148	0xbd4dd274	-0.050249532
149	0x3c2f5a01	0.010702611
150	0x3e2d7d2c	0.1694228
151	0x3e4e864e	0.2016842
152	0xbd354b46	-0.04426124
153	0x3ca54c17	0.020177884
154	0x3e1464c2	0.14491561
155	0x3d88223d	0.066471554
156	0x3e464c84	0.19365126
157	0x3d148cb0	0.036266983
158	0x3e04512f	0.12921594
159	0x3e9d9726	0.3077938
160	0x3e3f1ba2	0.18662885
161	0xbb916aff	-0.0044378038
162	0x3e0002e4	0.12501103
163	0x3dab0ce1	0.08352066
164	0xbd5aa7df	-0.05338275
165	0xbcf1000f	-0.029418973
166	0x3e31cda8	0.17363608
167	0x3d9f86d1	0.07789386
168	0x3dfc5345	0.1232057
169	0xbd9719a8	-0.073779404
170	0x3d88a00f	0.06671154
171	0x3e436242	0.19080451
172	0xbd132df0	-0.03593248
173	0x3c16ab14	0.009196062
174	0x3d28c345	0.04120185
175	0x3de7bf66	0.11315803
176	0x3c569266	0.013096428
177	0x3e7295e3	0.2368999
178	0x3e00a3b9	0.12562455
179	0x3dc5e48e	0.09662734
180	0x3d9e4811	0.07728589
181	0xbd533721	-0.051566247
182	0xbd8035ad	-0.06260238
183	0x3d599468	0.053120047
184	0xbd8128de	-0.06306623
185	0x3d67cfc5	0.05659463
186	0x3d138f52	0.036025353
187	0x3d461079	0.048355553
188	0xbd50ce96	-0.050978266
189	0x3c42c001	0.011886598
190	0x3db4cb22	0.08827807
191	0x3ce799c9	0.028271573
192	0xbd73185c	-0.059349403
193	0x3e3ca3f4	0.18421918
194	0x3d27bfad	0.04095428
195	0x3db5b396	0.08872144
196	0x3dab51e2	0.08365227
197	0x3e54e7f8	0.20791614
198	0xbdc7901b	-0.09744283
199	0x3e14ab54	0.14518481
200	0x3c62ef7f	0.013851046
201	0x3db289ad	0.08717666
202	0x3e645630	0.22298503
203	0xbca36bb2	-0.019948814
204	0xbc64deda	-0.013969148
205	0x3dcea4b3	0.10090008
206	0x3e0c5a54	0.13706332
207	0x3dc9c293	0.09851565
208	0xbd344821	-0.0440141
209	0x3ddc9c97	0.10772055
210	0x3e0fb424	0.14033562
211	0x3de9c8f3	0.11415281
212	0x3c69a8bc	0.014261421
213	0x3c7161b3	0.014732766
214	0xbc4286a4	-0.011872921
215	0xbd54018f	-0.0517593
216	0xbd726bfc	-0.059185013
217	0x3e3f371d	0.18673368
218	0x3e306ee1	0.17229797
219	0xbd869deb	-0.06573089
220	0x3d717dbb	0.058957797
221	0x3db23f9f	0.08703541
222	0x3e0216b6	0.12703976
223	0x3d78fbbc	0.060786948
224	0x3bffc3ef	0.0078053395
225	0x3de3d5ac	0.11124739
226	0x3de3c87b	0.11122223
227	0x3e041694	0.12899238
228	0x3d1ecd18	0.03876981
229	0xbdf925db	-0.121654235
230	0x3cad7f94	0.021178998
231	0xbd9d1448	-0.07669884
232	0x3c80234b	0.015641829
233	0x3e3fc422	0.18727162
234	0xbb90be2f	-0.004417203
235	0xbd422797	-0.047401037
236	0xbcba110f	-0.022713212
237	0xbb8e8aac	-0.004350027
238	0x3ca1c6a1	0.019748034
239	0x3dab94e2	0.083780065
240	0x3e46a052	0.19397095
241	0x3d9dcf72	0.07705583
242	0xbb414047	-0.0029487775
243	0x3cc55732	0.02408943
244	0x3e066e27	0.13127957
245	0x3d808538	0.062754095
246	0x3db78dc7	0.08962589
247	0x3af52c57	0.0018705231
248	0x3ddc13e6	0.10745983
249	0xbd8f258b	-0.06989583
250	0x3e0ef5ae	0.13960907
251	0xbd417501	-0.047230724
252	0xbd712298	-0.05887088
253	0xbd83ce87	-0.06435876
254	0xbbbde3f0	-0.0057949945
255	0x3dd9e7c7	0.10639911

net.2.bias f4 [192]
0	0xbcb17f2a	-0.021667082
1	0x3e44a0b9	0.19201936
2	0x3cd85a98	0.026410386
3	0x3d89ea84	0.067341834
4	0xbc4b73bc	-0.01241773
5	0xbc24a7b7	-0.010049752
6	0x3c0a8d97	0.008456609
7	0xbd5ecee3	-0.05439652
8	0xbe155b1f	-0.14585541
9	0x3c850be8	0.016241029
10	0xbc8dda95	-0.017316142
11	0xbdf2a08c	-0.11847028
12	0xbc01a772	-0.007913457
13	0x3c1c3a5a	0.0095353965
14	0xbd411162	-0.04713572
15	0x3c380851	0.011232452
16	0x3e18d198	0.14923704
17	0xbc12d55b	-0.008962001
18	0x3c2cd9cf	0.0105499765
19	0x3dc33293	0.09531131
20	0xbd94c9a4	-0.072650224
21	0xbbda94c8	-0.006670568
22	0xbdab10f8	-0.08352846
23	0x3d8e6214	0.06952301
24	0x3d9f785e	0.0778663
25	0x3ddcd185	0.1078215
26	0x3caa99cc	0.02082529
27	0x3e4e0948	0.20120728
28	0x3a3f3233	0.0007293552
29	0xbd42d30e	-0.04756456
30	0xbdc43fd8	-0.0958249
31	0xbd0ec793	-0.034858298
32	0x3d34d724	0.044150487
33	0x3cb2c1cb	0.021820923
34	0x3e2a7fc6	0.16650304
35	0x3c542048	0.01294715
36	0x3c315d63	0.010825488
37	0x3c8d20ab	0.017227491
38	0xbda36347	-0.0797792
39	0x3c9281e5	0.017884204
40	0xbda3bf73	-0.079955004
41	0xbda4cbe5	-0.08046702
42	0x3d9a7aaa	0.075429276
43	0x3db8e42c	0.09027895
44	0x39cf5644	0.0003954639
45	0xbd6f1550	-0.058369935
46	0xbe153eb5	-0.14574702
47	0xbd85dfa7	-0.06536799
48	0x3db350d8	0.08755654
49	0xbd9d0206	-0.076664016
50	0xbc982f6d	-0.018577302
51	0x3db6bdb9	0.089229055
52	0x3cb81c2c	0.02247437
53	0xbcea801c	-0.02862554
54	0x3d8a7f20	0.067625284
55	0x3cc3da2d	0.023907745
56	0xbd2c75b3	-0.042104434
57	0xbdbf5ca2	-0.0934384
58	0x3c80205d	0.015640432
59	0xbdfd5a39	-0.12370724
60	0xb99ee604	-0.00030307483
61	0x3b988504	0.0046545286
62	0x3d104c49	0.035229
63	0xbcce71b6	-0.025200706
64	0xbde3b8a4	-0.11119202
65	0xbd88532e	-0.0665649
66	0xbde4214d	-0.11139164
67	0xbd409c2c	-0.047023937
68	0x3d42a3aa	0.047519363
69	0xbdf145df	-0.11780905
70	0x3e137eac	0.1440379
71	0xbdb6fed0	-0.089353204
72	0xbceceab2	-0.028920505
73	0xbd50fabe	-0.051020376
74	0x3c99f247	0.018792285
75	0xbbb9222b	-0.005649825
76	0x3d43ae8c	0.047773883
77	0x3d930883	0.07179358
78	0x3e24b364	0.16084057
79	0x3c1fd2ab	0.009754817
80	0xbc59fbf1	-0.013304696
81	0x3d8cb921	0.06871248
82	0xbce48a0d	-0.027897859
83	0x3c59279f	0.013254075
84	0xbda96928	-0.0827201
85	0xbd79b219	-0.060960863
86	0x3d253c46	0.040340684
87	0xbd03850e	-0.032109313
88	0xbda78cef	-0.08181178
89	0x3dc17a6e	0.0944718
90	0x3c4f1791	0.012639896
91	0x3dd4014f	0.10351812
92	0xbd78e584	-0.06076576
93	0x3dbbe5e2	0.09174706
94	0xbd75bbba	-0.059993483
95	0xbc9498b2	-0.018139217
96	0x3d740a5e	0.0595802
97	0xbdce4133	-0.100710295
98	0xbcd11854	-0.025524296
99	0x3d15cdb0	0.036573112
100	0xbd2b2e68	-0.041792303
101	0xbb8a7e64	-0.0042264927
102	0xbc6c7e70	-0.014434442
103	0xbd990f9e	-0.07473682
104	0x3e089374	0.13337499
105	0xbcfdf43e	-0.031000253
106	0x3d9c18dd	0.0762193
107	0xbdab7c94	-0.08373371
108	0x3d84d3d7	0.06485718
109	0xbc1e88b3	-0.009676146
110	0xbc429cb2	-0.011878179
111	0xbd7f82e7	-0.062380698
112	0xbca962cb	-0.020676991
113	0x3d0ba130	0.034089267
114	0x3dea35b3	0.114360236
115	0x3d376160	0.0447706
116	0x3d1a7a05	0.037714023
117	0xbdaca013	-0.08428969
118	0x3d235268	0.03987351
119	0xbd834aa6	-0.064107224
120	0xbe032309	-0.12806334
121	0xbc74f5df	-0.014951198
122	0xbc964d5c	-0.018347435
123	0xbb087ffa	-0.0020828233
124	0xba89edab	-0.0010523101
125	0xbd2d742b	-0.042347115
126	0xbc6490d5	-0.013950546
127	0x3d71d2db	0.059038978
128	0x3cda726a	0.026665885
129	0x3e08714b	0.13324468
130	0x3cb92a5a	0.022603203
131	0xbd5952cd	-0.05305748
132	0xbdb0835d	-0.086188056
133	0xbd8199fd	-0.06328199
134	0xbd9e1082	-0.07717992
135	0x3d92d41a	0.071693614
136	0xbca09bcc	-0.01960554
137	0x3e0c36ae	0.13692734
138	0xbcb18fce	-0.021675017
139	0xbcc3f165	-0.023918817
140	0xbdf960c6	-0.12176661
141	0xbd192058	-0.03738436
142	0xbc24f131	-0.01006727
143	0x3c601771	0.013677464
144	0x3dfbc8dd	0.12294171
145	0xbcda87d3	-0.026676094
146	0x3da79476	0.081826136
147	0x3e61b70c	0.22042483
148	0x3e09790d	0.13425083
149	0xbdce0db4	-0.100612074
150	0xba2e960f	-0.0006659934
151	0x3d9eb4ec	0.07749352
152	0x3dab5fc3	0.083678745
153	0x3dddb06d	0.10824666
154	0x3daccc37	0.084373884
155	0xbc0eb857	-0.008710942
156	0x3da78db1	0.08181322
157	0x3cbf60f3	0.023361659
158	0x3d4a3b21	0.049372796
159	0x3e277200	0.16352081
160	0x3de98986	0.11403184
161	0x3c95940d	0.018259073
162	0xbd354e62	-0.044264205
163	0x3c4db32b	0.012554924
164	0x3c3ac4a0	0.011399418
165	0xbd8a6bd7	-0.0675885
166	0xbae51615	-0.0017477894
167	0x3dc6b997	0.09703367
168	0xbc0e7278	-0.008694284
169	0x3d0afa07	0.03392985
170	0xbd65e404	-0.056125656
171	0x3d9c8d3a	0.07644124
172	0xbc2e6e45	-0.0106464075
173	0xbdcf1964	-0.10112265
174	0x3dbd22ca	0.09235151
175	0xb831656d	-4.229455e-05
176	0xbb8da5e4	-0.004322754
177	0x3e1ac11b	0.15112726
178	0x3d125667	0.03572693
179	0x3ce2afff	0.027671812
180	0x3de1de21	0.11028696
181	0xbca39177	-0.019966824
182	0x3ce88529	0.028383808
183	0xbb412f48	-0.0029477645
184	0xbdf6322e	-0.1202129
185	0x3cc5ede1	0.024161281
186	0xbc05662e	-0.008142037
187	0xbd8b1ace	-0.06792222
188	0xbdcaf841	-0.09910632
189	0xbc44f6f9	-0.0120217735
190	0x3c694764	0.014238212
191	0xbd67d5f2	-0.05660052

exp_avg f4 [128, 142]
0	0xb7a83532	-2.0051932e-05
1	0xbb204a1f	-0.0024458242
2	0xbc0b1b26	-0.008490359
3	0xbba5db57	-0.0050615477
4	0xbb7bb058	-0.003840467
5	0xbbd046b0	-0.006356083
6	0xbbcc1838	-0.006228473
7	0x3af57e11	0.0018729587
8	0x3ac7fa44	0.001525708
9	0xbc08e64b	-0.008355687
10	0xbc0b1ba6	-0.008490479
11	0xbbe507ae	-0.006989441
12	0xba4c35d4	-0.00077900034
13	0xbbfeb42c	-0.007772943
14	0xba25b564	-0.000632128
15	0x39f60e7e	0.00046931574
16	0x3ab4fdc9	0.0013808544
17	0xbbf847a0	-0.0075768977
18	0xb8c7785f	-9.51148e-05
19	0xbb95c688	-0.004570786
20	0x3a1d798b	0.0006007186
21	0xbbd1e33b	-0.006405262
22	0xba6c5de9	-0.0009016679
23	0x393d7f8a	0.00018071957
24	0x39654b6c	0.00021867239
25	0xbaec1191	-0.0018010606
26	0xb9f0c259	-0.00045921167
27	0xbb8ffcc1	-0.0043941443
28	0x3ad26710	0.0016052444
29	0x38f15578	0.00011507695
30	0x39081c61	0.00012980543
31	0xb588de36	-1.0197462e-06
32	0xbc4e6122	-0.0125964
33	0x3a6a38e9	0.0008934872
34	0x3b017444	0.0019753138
35	0xbb80ffc3	-0.003936739
36	0x3a4060e4	0.00073386566
37	0xbc1c4de6	-0.009540057
38	0xbc1a40d6	-0.009414872
39	0xbc15bc5f	-0.009139149
40	0xbbd8aff3	-0.0066127717
41	0x3bb7cc62	0.005609081
42	0x39638003	0.00021696095
43	0xbba3891b	-0.0049907095
44	0x3a85cbf1	0.0010207874
45	0xbb3b6917	-0.0028596574
46	0xbbceae97	-0.006307434
47	0xbb48533c	-0.003056719
48	0xbc3a7a63	-0.011381718
49	0x3a2af5f0	0.0006521633
50	0xbb44a330	-0.0030004494
51	0xbc04ee60	-0.008113474
52	0xb909e0fa	-0.00013149148
53	0xbb8b091f	-0.0042430307
54	0xbb8452a0	-0.00403817
55	0xbb4b61ae	-0.0031033563
56	0xbc4726b4	-0.012155224
57	0xbb994544	-0.0046774466
58	0xbb8f2a4c	-0.004369056
59	0xbc120ad5	-0.008913715
60	0xbb87bbd5	-0.0041422644
61	0xb8f7db17	-0.000118186865
62	0x38d13a37	9.97674e-05
63	0xb8440735	-4.6736754e-05
64	0xbc363a5f	-0.011122315
65	0xbada6373	-0.0016661718
66	0xbb0dd5a1	-0.0021642225
67	0xbb0e9e28	-0.002176175
68	0xb686b9ad	-4.0151267e-06
69	0xbc0232c8	-0.0079466775
70	0x39b68e2f	0.0003481968
71	0xba6c2896	-0.00090087333
72	0x00000000	0.0
73	0x00000000	0.0
74	0xbbf60a53	-0.007508555
75	0x39201d66	0.00015269741
76	0x3907ebe4	0.0001296248
77	0x00000000	0.0
78	0x00000000	0.0
79	0xbbe8ab8e	-0.007100529
80	0x00000000	0.0
81	0x00000000	0.0
82	0x00000000	0.0
83	0x00000000	0.0
84	0xbbf5d44a	-0.0075021135
85	0x00000000	0.0
86	0x00000000	0.0
87	0x00000000	0.0
88	0x00000000	0.0
89	0xbc06f308	-0.008236654
90	0xbbc6043c	-0.0060429852
91	0xbc6d9dc5	-0.014502947
92	0x38d766dd	0.00010271159
93	0xb975f4f1	-0.00023456269
94	0x3adac5e4	0.0016691056
95	0xbc714abe	-0.014727293
96	0xbba0ff32	-0.004913234
97	0x00000000	0.0
98	0x00000000	0.0
99	0x3ab7e17b	0.001402899
100	0xbb954ba4	-0.004556136
101	0xbb9c079d	-0.0047616498
102	0x00000000	0.0
103	0x00000000	0.0
104	0xbb0a3da5	-0.0021093872
105	0x00000000	0.0
106	0x00000000	0.0
107	0x00000000	0.0
108	0x00000000	0.0
109	0xbb0a760d	-0.0021127493
110	0x00000000	0.0
111	0x00000000	0.0
112	0x00000000	0.0
113	0x00000000	0.0
114	0xbc082d62	-0.008311601
115	0xbb7d32e0	-0.003863506
116	0x3a5a3c47	0.0008325022
117	0xae5c9ef7	-5.0163398e-11
118	0xae5c9ef7	-5.0163398e-11
119	0xbc0654af	-0.008198901
120	0xbb81a5ba	-0.0039565237
121	0x3a2084f3	0.00061233266
122	0x00000000	0.0
123	0x00000000	0.0
124	0xbc14b566	-0.009076452
125	0xbc14b3b7	-0.0090760505
126	0xbb94203c	-0.004520444
127	0x00000000	0.0
128	0x00000000	0.0
129	0xb4a11dbd	-3.0010224e-07
130	0x00000000	0.0
131	0x00000000	0.0
132	0x00000000	0.0
133	0x00000000	0.0
134	0xb4a11e5a	-3.001067e-07
135	0x00000000	0.0
136	0x00000000	0.0
137	0x00000000	0.0
138	0x00000000	0.0
139	0xbd0aeaae	-0.033915214
140	0x3af3d0b9	0.0018601633
141	0xba62acbc	-0.0008646955
142	0xadda612e	-2.4826887e-11
143	0xadda613e	-2.4826915e-11
144	0xb85d58f7	-5.277336e-05
145	0x34e1de6d	4.2071352e-07
146	0x34e4db89	4.2628042e-07
147	0xb85fdffc	-5.3375945e-05
148	0xb85fdffc	-5.3375945e-05
149	0x2cbfc4fa	5.4504153e-12
150	0x2d86106e	1.5241333e-11
151	0xb85fe5ec	-5.3381475e-05
152	0xb85d58f3	-5.2773346e-05
153	0x34e1e3f1	4.2075365e-07
154	0x34e4e0ea	4.2631956e-07
155	0xb85fdff2	-5.337591e-05
156	0x34e4dc1c	4.262846e-07
157	0x2cbfba46	5.449227e-12
158	0x34e1df0f	4.2071812e-07
159	0xb85e2232	-5.296077e-05
160	0x35233d6d	6.081162e-07
161	0x34e1de6d	4.2071352e-07
162	0x34e4db61	4.2627929e-07
163	0xb85fdffc	-5.3375945e-05
164	0x31be61c7	5.540844e-09
165	0x2cbfba34	5.449219e-12
166	0xb85e2233	-5.2960775e-05
167	0xb860ab5d	-5.3565356e-05
168	0xb85e1e59	-5.2957188e-05
169	0x3bacd9e3	0.0052749976
170	0x34e1dcf0	4.207027e-07
171	0xae1d1b59	-3.5721957e-11
172	0x2b9b399a	1.10294e-12
173	0x31bfa5b3	5.5776694e-09
174	0x39cfab0c	0.00039609557
175	0xb860ab04	-5.3565032e-05
176	0xb85d5300	-5.2767806e-05
177	0x3bae9627	0.005327958
178	0x31be6293	5.5409344e-09
179	0xb85fde2a	-5.337425e-05
180	0xb85e1a59	-5.2953463e-05
181	0xb85e1c2e	-5.295517e-05
182	0x39cfab19	0.00039609594
183	0xb4450e80	-1.835233e-07
184	0x3524d567	6.14053e-07
185	0x3bae9628	0.0053279586
186	0x34e4dd57	4.2629355e-07
187	0xae004c73	-2.917173e-11
188	0x31fa73e5	7.2891333e-09
189	0x34e4db89	4.2628042e-07
190	0x39cf91ce	0.0003959075
191	0xb448e4b0	-1.8709648e-07
192	0xb85fe598	-5.338117e-05
193	0x3bacd64f	0.005274571
194	0xade3d992	-2.5903533e-11
195	0xae05279f	-3.027589e-11
196	0x34e5c69c	4.279908e-07
197	0x31bfa5be	5.5776743e-09
198	0x39cfe380	0.00039651617
199	0xb860af35	-5.3568936e-05
200	0xb85d589a	-5.2773023e-05
201	0x3bacd9d7	0.005274992
202	0xb85e2232	-5.296077e-05
203	0xadda5e06	-2.4825485e-11
204	0x34e1dee1	4.2071682e-07
205	0x31bf9c00	5.5765668e-09
206	0xbba35cbc	-0.00498542
207	0xb85fdff2	-5.337591e-05
208	0x31bf9c00	5.5765668e-09
209	0x31bf9c00	5.5765668e-09
210	0x31bf9c00	5.5765668e-09
211	0xbba35cc9	-0.004985426
212	0x2fc01ad1	3.494365e-10
213	0x2292abdd	3.9755347e-18
214	0x00000000	0.0
215	0x00000000	0.0
216	0xbba35cc9	-0.004985426
217	0x2c66142a	3.269616e-12
218	0x1ba66191	2.7525447e-22
219	0x00000000	0.0
220	0x00000000	0.0
221	0xbba19cfd	-0.0049320445
222	0x00000000	0.0
223	0x00000000	0.0
224	0x00000000	0.0
225	0x00000000	0.0
226	0xbba19cfc	-0.004932044
227	0x00000000	0.0
228	0x00000000	0.0
229	0x00000000	0.0
230	0x00000000	0.0
231	0x39cf91a7	0.00039590636
232	0x39cf91a7	0.00039590636
233	0x39cf91da	0.00039590785
234	0x15a0e735	6.4988266e-26
235	0x0f0f2039	7.05665e-30
236	0xb4494559	-1.8744812e-07
237	0x39cf9199	0.00039590595
238	0xb44937f6	-1.8739942e-07
239	0x00000000	0.0
240	0x00000000	0.0
241	0xae18402b	-3.461779e-11
242	0xb0e92093	-1.6962239e-09
243	0x2d78ba72	1.4138567e-11
244	0x00000000	0.0
245	0x00000000	0.0
246	0xa2cbd86f	-5.525242e-18
247	0x00000000	0.0
248	0x00000000	0.0
249	0x00000000	0.0
250	0x00000000	0.0
251	0x2292ac16	3.9755582e-18
252	0x00000000	0.0
253	0x00000000	0.0
254	0x00000000	0.0
255	0x00000000	0.0

exp_avg_sq f4 [128, 142]
0	0x3c064d87	0.008197195
1	0x3c65ffae	0.01403801
2	0x3c6a7aeb	0.0143115325
3	0x3c4d1763	0.012517783
4	0x3c3e9489	0.011632093
5	0x3bc867a1	0.006115869
6	0x3b90f8e1	0.0044242
7	0x3bb3b8b2	0.005484664
8	0x3bed97c9	0.00725076
9	0x3c450971	0.012026177
10	0x3c21dba8	0.00987903
11	0x3c076cc9	0.0082656825
12	0x3c3ee704	0.011651758
13	0x3c43c499	0.011948728
14	0x3c49337a	0.012280339
15	0x3c0b0393	0.008484739
16	0x3c3353cf	0.0109452745
17	0x3c1d135f	0.009587138
18	0x3bf90eae	0.007600627
19	0x3c0cdbfd	0.008597371
20	0x3c06de4a	0.008231709
21	0x3c2abb44	0.010420624
22	0x3c36d2cf	0.011158659
23	0x3bf191f8	0.007372137
24	0x3c13a254	0.00901087
25	0x3c3a4ae2	0.0113703925
26	0x3c0810b6	0.008304765
27	0x3c735c0a	0.014853487
28	0x3c5c492b	0.013445179
29	0x3c4aa297	0.012367866
30	0x3c0169bf	0.007898747
31	0x3bcf3f4b	0.006324684
32	0x3c3500de	0.01104757
33	0x3c309de9	0.010779836
34	0x3c332940	0.010935128
35	0x3c881753	0.016612684
36	0x3c419d02	0.011817219
37	0x3c3e67e3	0.011621448
38	0x3bb60f45	0.0055560195
39	0x3bf13baa	0.007361849
40	0x3c81a86b	0.015827378
41	0x3c67c77a	0.01414668
42	0x3c811a45	0.015759597
43	0x3c2813d9	0.010258638
44	0x3c4d5610	0.012532726
45	0x3c0986be	0.008393941
46	0x3c0a06d9	0.008424484
47	0x3bc95f32	0.0061453814
48	0x3c4c559a	0.012471581
49	0x3c1d89ed	0.009615404
50	0x3c338ca0	0.010958821
51	0x3ba9a0dc	0.0051766466
52	0x3c24514d	0.010029149
53	0x3be6428c	0.007026976
54	0x3bcbd0cb	0.0062199584
55	0x3ba3b066	0.0049953936
56	0x3c2df333	0.010617065
57	0x3bf13be3	0.0073618754
58	0x3c2c5edf	0.010520666
59	0x3b610141	0.0034333023
60	0x3c0faa7f	0.008768677
61	0x3bbd4978	0.0057765804
62	0x3bc9b523	0.0061556264
63	0x3b6a4514	0.003574674
64	0x3c54bc4c	0.012984347
65	0x3c316c58	0.010829054
66	0x3be7b986	0.0070716767
67	0x3b190813	0.002335076
68	0x3a518f43	0.0007994065
69	0x3c5264c9	0.012841412
70	0x3c17b6db	0.009259905
71	0x3bd59957	0.0065185237
72	0x00000000	0.0
73	0x00000000	0.0
74	0x3c01fd5b	0.00793394
75	0x3b8cc8e7	0.0042964104
76	0x3b637923	0.0034709654
77	0x00000000	0.0
78	0x00000000	0.0
79	0x3b17df57	0.0023173892
80	0x00000000	0.0
81	0x00000000	0.0
82	0x00000000	0.0
83	0x00000000	0.0
84	0x3acaf676	0.0015484828
85	0x00000000	0.0
86	0x00000000	0.0
87	0x00000000	0.0
88	0x00000000	0.0
89	0x3c728192	0.0148014
90	0x3c37b275	0.011211981
91	0x3c022ec0	0.007945716
92	0x3a45b05c	0.0007541233
93	0x39c09a69	0.00036736138
94	0x3c4e2e38	0.012584262
95	0x3c245db2	0.010032104
96	0x3bdaabaa	0.006673296
97	0x00000000	0.0
98	0x00000000	0.0
99	0x3c0ba06e	0.008522136
100	0x3bc7b0d8	0.0060940795
101	0x3b3eb809	0.0029101393
102	0x00000000	0.0
103	0x00000000	0.0
104	0x3adaf150	0.0016703997
105	0x00000000	0.0
106	0x00000000	0.0
107	0x00000000	0.0
108	0x00000000	0.0
109	0x3aae5ae4	0.0013302234
110	0x00000000	0.0
111	0x00000000	0.0
112	0x00000000	0.0
113	0x00000000	0.0
114	0x3c261066	0.010135746
115	0x3bd0b081	0.006368697
116	0x3b9ff5e0	0.0048816055
117	0x3a15ba8c	0.00057116966
118	0x39f49aaf	0.00046654555
119	0x3c192d3c	0.009349164
120	0x3bfe4ce0	0.007760629
121	0x3b7da047	0.003870027
122	0x00000000	0.0
123	0x00000000	0.0
124	0x3bfa3642	0.0076358626
125	0x3b590652	0.003311534
126	0x3b12a654	0.0022376971
127	0x00000000	0.0
128	0x00000000	0.0
129	0x3a4875e9	0.00076469645
130	0x00000000	0.0
131	0x00000000	0.0
132	0x00000000	0.0
133	0x00000000	0.0
134	0x39fcd2b0	0.0004822216
135	0x00000000	0.0
136	0x00000000	0.0
137	0x00000000	0.0
138	0x00000000	0.0
139	0x3e1b819c	0.15186161
140	0x3c4766ea	0.012170533
141	0x3f1a5c8a	0.60297453
142	0x3b64a0a2	0.0034885784
143	0x3bbd6e07	0.0057809385
144	0x3bce5a3a	0.006297377
145	0x3bb0e9cb	0.005398964
146	0x3b91ff10	0.0044554546
147	0x3b68e9ed	0.0035539821
148	0x3b401a88	0.002931269
149	0x3aedde20	0.0018147863
150	0x3b6d205f	0.0036182625
151	0x3bb244c0	0.0054403245
152	0x3ba990a7	0.0051747146
153	0x3ba05cfa	0.004893896
154	0x3b991c06	0.00467253
155	0x3ba569dd	0.0050480203
156	0x3bbd6d67	0.005780864
157	0x3b61a0d4	0.0034428136
158	0x3bbf4f86	0.0058383374
159	0x3ba9813b	0.005172876
160	0x3bab6541	0.0052305763
161	0x3bb6aa48	0.0055744983
162	0x3b99976c	0.0046872403
163	0x3b8731c9	0.004125808
164	0x3b9bc84e	0.004754103
165	0x3b4ea69e	0.0031532417
166	0x3b8d308f	0.004308767
167	0x3bb2f2fe	0.005461096
168	0x3b98f6bf	0.0046680863
169	0x3be34a45	0.006936344
170	0x3b9b89ab	0.004746636
171	0x3bbed6ed	0.005823961
172	0x3bae93e2	0.0053276876
173	0x3ba929df	0.005162462
174	0x3bbcbf84	0.005760135
175	0x3bba9c08	0.00569487
176	0x3b9249c1	0.0044643586
177	0x3bbfe0ea	0.0058556693
178	0x3baa48f8	0.005196687
179	0x3bb952d7	0.005655627
180	0x3b9161d3	0.0044367104
181	0x3b508124	0.0031815255
182	0x3bc70e48	0.0060747005
183	0x3bd976e9	0.0066364896
184	0x3bc408dd	0.005982502
185	0x3b8e0247	0.0043337676
186	0x3ba3fde6	0.0050046323
187	0x3b9cdc90	0.0047870353
188	0x3ba02f7b	0.0048884726
189	0x3b48b443	0.0030625022
190	0x3bb8bfe1	0.005638108
191	0x3bab409c	0.005226208
192	0x3b89e40a	0.0042080926
193	0x3b4df798	0.0031428095
194	0x3b905554	0.004404703
195	0x3b85c3ab	0.0040821633
196	0x3b80d265	0.003931331
197	0x3b6b901b	0.0035944048
198	0x3b9479e2	0.004531131
199	0x3b524cf3	0.0032089322
200	0x3b84a917	0.0040484774
201	0x3b21b19e	0.0024672518
202	0x3b64a9d4	0.0034891265
203	0x3b60cc3b	0.0034301418
204	0x3b71401b	0.0036811891
205	0x3b10850a	0.0022051954
206	0x3bc5aa47	0.0060322615
207	0x3b869815	0.004107485
208	0x3b30b115	0.0026961018
209	0x3a800b90	0.0009769071
210	0x39955975	0.00028486145
211	0x3b98f5f9	0.004667994
212	0x3b33a3dc	0.00274109
213	0x3aa48135	0.0012550714
214	0x00000000	0.0
215	0x00000000	0.0
216	0x3b4f5a51	0.0031639526
217	0x3a9febc1	0.0012200997
218	0x3a8e0b10	0.0010837037
219	0x00000000	0.0
220	0x00000000	0.0
221	0x3a769fff	0.00094079965
222	0x00000000	0.0
223	0x00000000	0.0
224	0x00000000	0.0
225	0x00000000	0.0
226	0x3a5c3630	0.00084004086
227	0x00000000	0.0
228	0x00000000	0.0
229	0x00000000	0.0
230	0x00000000	0.0
231	0x3bc6c243	0.0060656383
232	0x3b8b410a	0.0042496966
233	0x3b69fe9a	0.0035704733
234	0x39a469ff	0.0003135949
235	0x396466f0	0.00021782122
236	0x3b9c80a4	0.0047760773
237	0x3b85adda	0.0040795626
238	0x3b3f712c	0.0029211743
239	0x00000000	0.0
240	0x00000000	0.0
241	0x3b61e4ed	0.0034468726
242	0x3af450ae	0.0018639767
243	0x3aca68ec	0.0015442646
244	0x00000000	0.0
245	0x00000000	0.0
246	0x3a881cad	0.0010384523
247	0x00000000	0.0
248	0x00000000	0.0
249	0x00000000	0.0
250	0x00000000	0.0
251	0x3a72e093	0.00092650315
252	0x00000000	0.0
253	0x00000000	0.0
254	0x00000000	0.0
255	0x00000000	0.0

exp_avg f4 [128]
0	0xbc31caa1	-0.010851533
1	0x39b3e784	0.00034314033
2	0x2546734f	1.721283e-16
3	0x9c414aab	-6.395485e-22
4	0x39d22d27	0.00040087962
5	0xbc4e06ff	-0.01257491
6	0xbbd21fe6	-0.006412494
7	0x00000004	6e-45
8	0xbca187a9	-0.019718008
9	0xb6ef755f	-7.136419e-06
10	0xb69e9d5f	-4.7270873e-06
11	0x187a4899	3.2348395e-24
12	0x3bcc2fde	0.006231292
13	0xbbe8df2d	-0.0071066828
14	0x00000004	6e-45
15	0xb9110756	-0.0001383101
16	0x3b3caa7c	0.002878814
17	0x31415481	2.8133231e-09
18	0xbc4dde64	-0.012565229
19	0x00000004	6e-45
20	0x00000004	6e-45
21	0xbc105c0c	-0.008811008
22	0xbc11cbf1	-0.008898721
23	0xbc9a101f	-0.018806515
24	0x80000004	-6e-45
25	0xbb88d972	-0.004176312
26	0xbc83f167	-0.01610632
27	0x357baf8c	9.376024e-07
28	0xbc2fadcf	-0.010722592
29	0xbbb9a0d5	-0.0056649246
30	0x3b437cb5	0.002982897
31	0xbc8b0cac	-0.016973816
32	0xbc4e2290	-0.0125814825
33	0xb7f3a631	-2.9045246e-05
34	0xbb68931a	-0.003548807
35	0xbc4a55bf	-0.012349545
36	0x32ab3b53	1.9933998e-08
37	0x3678ccbd	3.7074053e-06
38	0xbbdb4a55	-0.0066922107
39	0xbc79762b	-0.015225927
40	0xbc32b78d	-0.01090802
41	0x1e0aff12	7.3584065e-21
42	0x32af2fd6	2.0394435e-08
43	0xbca326bc	-0.01991593
44	0x380b8ae0	3.326952e-05
45	0x141f387a	8.0385866e-27
46	0x00000004	6e-45
47	0xba325394	-0.0006802615
48	0xb8f02abf	-0.00011452054
49	0xbcd21fe9	-0.025649982
50	0x3bb000a7	0.0053711715
51	0xbc29952f	-0.01035051
52	0xba9d7f2d	-0.0012016051
53	0xbbf9ecf5	-0.0076271244
54	0x1a9756d5	6.259242e-23
55	0xbb59830c	-0.0033189682
56	0x00000004	6e-45
57	0xbaaaa334	-0.0013018609
58	0xbbb51cb6	-0.0055271043
59	0x363efa00	2.8457725e-06
60	0x00000004	6e-45
61	0x34d003e0	3.8745839e-07
62	0x3c4539f5	0.012037744
63	0x00000004	6e-45
64	0x0f5c196f	1.0851736e-29
65	0x3b488a9a	0.003060019
66	0x00000004	6e-45
67	0xbc17dbfc	-0.009268757
68	0x3a3ba8f2	0.00071586587
69	0xbbd543b4	-0.006508315
70	0x00000004	6e-45
71	0xbb6d1fac	-0.0036182208
72	0xb0aa22ee	-1.2379056e-09
73	0xbc1bed1a	-0.009516979
74	0x39485498	0.00019105
75	0x00000004	6e-45
76	0x9075e18b	-4.8491482e-29
77	0x3b9f8216	0.0048678024
78	0xbbe85b6f	-0.007090978
79	0x0e22720d	2.0022955e-30
80	0x3a3db3f3	0.00072365924
81	0x3c033a0f	0.008009448
82	0xbb073d55	-0.0020635922
83	0xbbf40f46	-0.00744811
84	0x2578f4be	2.1593493e-16
85	0xb9a54ed8	-0.00031529996
86	0xbb711183	-0.003678412
87	0x377bcb1b	1.5008055e-05
88	0x3c8f5d63	0.017500585
89	0xbc109b5a	-0.008826101
90	0xbaef1af4	-0.0018242286
91	0x251662f2	1.304395e-16
92	0xba73cf53	-0.0009300608
93	0xb840f0e0	-4.60007e-05
94	0xbacba5f5	-0.001553713
95	0x00000004	6e-45
96	0x80000004	-6e-45
97	0x38ac8ec3	8.2281906e-05
98	0x3a4b14de	0.0007746945
99	0xbb35bec0	-0.0027732104
100	0x0c16513f	1.1580029e-31
101	0x1db8d1e1	4.8921404e-21
102	0x00000004	6e-45
103	0x00000004	6e-45
104	0x3c73c644	0.014878813
105	0xbc7d4dde	-0.0154604595
106	0x1ab1e695	7.357801e-23
107	0x32ed4256	2.7620597e-08
108	0x00000004	6e-45
109	0x00000004	6e-45
110	0x80000004	-6e-45
111	0x3c80a799	0.015704917
112	0x3b4c0966	0.0031133532
113	0xb9f5d7ee	-0.00046890922
114	0xb729e9fc	-1.0127664e-05
115	0x000018a1	8.835e-42
116	0xbbe6d677	-0.007044609
117	0xba3da5ba	-0.0007234473
118	0x3b3f9678	0.0029233973
119	0xb5d7b7ce	-1.6072242e-06
120	0x3c1d1255	0.00958689
121	0x00000004	6e-45
122	0x3ad7e3c6	0.001647108
123	0x38e91f5f	0.00011116149
124	0x000002ca	1e-42
125	0x00000004	6e-45
126	0xbc0d4ae4	-0.008623812
127	0xb6386cd2	-2.7481478e-06

exp_avg_sq f4 [128]
0	0x3cb2cece	0.021827128
1	0x3c149e03	0.009070876
2	0x3828b3c7	4.0221752e-05
3	0x39d15d2e	0.0003993301
4	0x3ca823f5	0.020524958
5	0x3c44154e	0.01196797
6	0x3c902988	0.017597929
7	0x37175e52	9.022262e-06
8	0x3c26bb60	0.01017651
9	0x3bd16e4a	0.0063913213
10	0x3a1a053e	0.0005875415
11	0x38ab0924	8.155618e-05
12	0x3a814b56	0.0009864371
13	0x3c852528	0.016253069
14	0x380b7726	3.3251148e-05
15	0x390ea162	0.00013602295
16	0x387f0285	6.0799084e-05
17	0x39cd5b7e	0.00039168814
18	0x3c7ba4cb	0.015359114
19	0x393f4c8b	0.00018243694
20	0x37dd43f4	2.6376896e-05
21	0x3afa4dc2	0.001909666
22	0x3cbb9934	0.022900201
23	0x3cb4da26	0.022076678
24	0x38185594	3.6319325e-05
25	0x3991d056	0.00027811778
26	0x3cb019ed	0.021496737
27	0x39e5533a	0.00043740292
28	0x3c828268	0.015931323
29	0x3ce22dfb	0.027609816
30	0x3c2b3288	0.010449059
31	0x3cdc7d28	0.026915148
32	0x3c893f14	0.01675371
33	0x3a419e1a	0.00073859247
34	0x3c8d5597	0.017252726
35	0x3c9f14bb	0.019419065
36	0x39d3c525	0.0004039194
37	0x3959e341	0.00020779391
38	0x3ca10a45	0.019658217
39	0x3cd757da	0.026287008
40	0x3c187c3f	0.009306966
41	0x3a1509b6	0.0005685346
42	0x3c2d7ff3	0.0105895875
43	0x3cbd3a13	0.023098981
44	0x39d524ef	0.00040654044
45	0x3917d346	0.00014479188
46	0x381419b4	3.5309888e-05
47	0x3cc7a9f0	0.024373025
48	0x3a381e08	0.0007023518
49	0x3c939568	0.018015578
50	0x3ce43881	0.027858974
51	0x3c8e07cb	0.0173377
52	0x39e143f3	0.0004296597
53	0x3a40bafa	0.00073520804
54	0x3bc0a30b	0.0058788112
55	0x3b0f4c35	0.0021865491
56	0x391b14e9	0.00014789742
57	0x3ac9f908	0.00154093
58	0x3c63e476	0.01390945
59	0x3ad6fda9	0.0016402501
60	0x36cb6af3	6.062322e-06
61	0x393f56df	0.00018247541
62	0x3cab5420	0.020914137
63	0x3816724e	3.586924e-05
64	0x3a2c859a	0.00065811875
65	0x3b090426	0.0020907014
66	0x377f2e83	1.5210014e-05
67	0x3cb55be8	0.02213855
68	0x399d12b0	0.00029959297
69	0x3c8508cf	0.016239552
70	0x37486668	1.1944772e-05
71	0x3bbc8b9a	0.0057539465
72	0x39866ae6	0.00025638117
73	0x3c28fd43	0.010314289
74	0x3ca63c98	0.020292565
75	0x37618ae9	1.3443388e-05
76	0x391734a2	0.0001442009
77	0x3cafe055	0.021469275
78	0x3ca52c10	0.020162612
79	0x3b5004a1	0.003174104
80	0x3a555ad3	0.0008138839
81	0x3cadeada	0.02123015
82	0x3cab983a	0.02094661
83	0x3c973fb4	0.018462993
84	0x3ad9ca71	0.0016616118
85	0x3c4af1f4	0.012386788
86	0x3b3a02ca	0.002838301
87	0x39bd1fc3	0.00036072553
88	0x3c58877d	0.013215897
89	0x3ca3d5f5	0.019999484
90	0x3cd7da71	0.026349278
91	0x399e393b	0.00030178748
92	0x39c9d7f7	0.00038498614
93	0x396baba9	0.00022475295
94	0x3c7efdfd	0.015563485
95	0x39c15029	0.00036871553
96	0x371b8bc4	9.271262e-06
97	0x3c2a30ee	0.010387642
98	0x3c81af48	0.01583065
99	0x3c62b76f	0.013837679
100	0x39d79f5a	0.00041126722
101	0x392eb7eb	0.00016662448
102	0x36ecb4c2	7.054391e-06
103	0x37efe9df	2.8599925e-05
104	0x3c702c05	0.014658933
105	0x3cb82db7	0.022482736
106	0x3a12ce17	0.0005600168
107	0x3a4ed735	0.0007890345
108	0x35b7ccc5	1.3694158e-06
109	0x3898a2dd	7.2782605e-05
110	0x380dc96f	3.380462e-05
111	0x3cb05376	0.021524172
112	0x3ca0b33b	0.019616714
113	0x3c6365ed	0.0138792815
114	0x39a3ea57	0.0003126438
115	0x37832e24	1.5637903e-05
116	0x3cdeb655	0.027186552
117	0x3bc7a130	0.006092213
118	0x3cf57fce	0.029968169
119	0x3aeca17d	0.0018053498
120	0x3c46c1e8	0.012131192
121	0x36c28b7f	5.79789e-06
122	0x3bd487ef	0.006485931
123	0x3b2a3f77	0.002597777
124	0x394c8f7e	0.00019508411
125	0x37e78c16	2.7602578e-05
126	0x3a4866c2	0.00076447066
127	0x3c4eea6e	0.012629135

exp_avg f4 [192, 128]
0	0x3679772f	3.7173265e-06
1	0x34c9f243	3.7615436e-07
2	0x1fdc3bb0	9.327237e-20
3	0x0c1ef14a	1.2244488e-31
4	0x36c115d8	5.754391e-06
5	0x345c64e0	2.0525795e-07
6	0x370bbe0b	8.329293e-06
7	0x00000004	6e-45
8	0x36f390cf	7.2588223e-06
9	0x16437a4e	1.5790567e-25
10	0x2c48a8cf	2.8515417e-12
11	0x12de9136	1.4045967e-27
12	0x302cb98e	6.2836925e-10
13	0x3728c443	1.0059276e-05
14	0x00000004	6e-45
15	0x80000004	-6e-45
16	0x318f9678	4.178954e-09
17	0x209793a5	2.5678098e-19
18	0x3775caaf	1.4650329e-05
19	0x00000004	6e-45
20	0x00000004	6e-45
21	0x352fd34d	6.5500063e-07
22	0x37351290	1.0792763e-05
23	0x375cd62e	1.3162889e-05
24	0x80000004	-6e-45
25	0x351afeed	5.7740436e-07
26	0x3725c26e	9.880036e-06
27	0x1de9c20a	6.187522e-21
28	0x36dc2e5c	6.561908e-06
29	0x2ebba99d	8.533905e-11
30	0xb1924962	-4.257502e-09
31	0x37183477	9.072121e-06
32	0x37535022	1.2595237e-05
33	0x3397625e	7.049378e-08
34	0x37533865	1.258971e-05
35	0x3725ff17	9.894159e-06
36	0x2d655d99	1.3037926e-11
37	0x301ea1f5	5.771022e-10
38	0x369c23f0	4.653346e-06
39	0x372866df	1.0037532e-05
40	0x36d38267	6.303471e-06
41	0x0f09aa4a	6.787418e-30
42	0x2cbed4cd	5.4237504e-12
43	0x3766c0f8	1.3753997e-05
44	0x2e8918ea	6.234464e-11
45	0x0e54d86c	2.623522e-30
46	0x00000004	6e-45
47	0x37c9953b	2.4030558e-05
48	0x2f363f8f	1.6575384e-10
49	0x3687e8e4	4.0504256e-06
50	0x36e5ed73	6.8523746e-06
51	0x365a0e2d	3.2492783e-06
52	0x34ab41d2	3.1899123e-07
53	0x3552420b	7.83272e-07
54	0x0f955d89	1.4728563e-29
55	0x360e5196	2.1207138e-06
56	0x00000004	6e-45
57	0x346b0a22	2.1889767e-07
58	0x35eccf26	1.7643658e-06
59	0x12b6409d	1.1501743e-27
60	0x00000004	6e-45
61	0x2df4d0bd	2.7832287e-11
62	0x3738630f	1.09903185e-05
63	0x00000004	6e-45
64	0x0443fde4	2.303872e-36
65	0x3619d4d8	2.2922668e-06
66	0x00000004	6e-45
67	0x3723ce71	9.763623e-06
68	0x3411fa15	1.3595157e-07
69	0x37539703	1.261174e-05
70	0x00000004	6e-45
71	0x35e284fc	1.6877016e-06
72	0x21a021f9	1.0851014e-18
73	0x361ca28c	2.3340426e-06
74	0x3735254a	1.0797123e-05
75	0x00000004	6e-45
76	0x00000004	6e-45
77	0x36df7f99	6.660772e-06
78	0x37814e1f	1.5414376e-05
79	0x01bae1e8	6.864977e-38
80	0x2b3e5a18	6.762659e-13
81	0x36e9097e	6.945046e-06
82	0x377560ea	1.46257025e-05
83	0x36bfae84	5.71256e-06
84	0x0da3d66e	1.0097273e-30
85	0x341afb50	1.4433795e-07
86	0x369d8e14	4.6955047e-06
87	0x2f49d4c9	1.835644e-10
88	0x117b1a7c	1.980857e-28
89	0x36b8faa7	5.512807e-06
90	0x377a5ab2	1.4922278e-05
91	0x1fbbb2bf	7.949329e-20
92	0x0d2bf3e4	5.2987016e-31
93	0x00000004	6e-45
94	0x37af1161	2.0869718e-05
95	0x00000004	6e-45
96	0x80000004	-6e-45
97	0x11308c2e	1.3927148e-28
98	0x355a550a	8.1335077e-07
99	0x36e58688	6.8403933e-06
100	0x026d077c	1.7414158e-37
101	0x08b6aedf	1.0994839e-33
102	0x80000004	-6e-45
103	0x00000004	6e-45
104	0x3593eb32	1.1020804e-06
105	0x378d83a5	1.6869812e-05
106	0x0aa9d41f	1.6353899e-32
107	0x0d61ea66	6.9615625e-31
108	0x80000004	-6e-45
109	0x00000004	6e-45
110	0x80000004	-6e-45
111	0x368e6e12	4.2447436e-06
112	0x35b1b6df	1.324075e-06
113	0x33c3ed3e	9.123549e-08
114	0x00000004	6e-45
115	0x00000097	2.12e-43
116	0x3776c2a2	1.4708059e-05
117	0x35b056bd	1.3138266e-06
118	0x371762ce	9.023306e-06
119	0x00000004	6e-45
120	0x36ba3e7c	5.550506e-06
121	0x00000004	6e-45
122	0x32843b22	1.5393713e-08
123	0x31578dfa	3.1367322e-09
124	0x00000004	6e-45
125	0x00000004	6e-45
126	0x00000004	6e-45
127	0x28c30c20	2.1654607e-14
128	0xbd637ce3	-0.055539023
129	0x3bdb4105	0.0066911005
130	0xa5272ec5	-1.4500787e-16
131	0x110202dc	1.0256073e-28
132	0xbd81ecad	-0.063439704
133	0x39341bb9	0.00017176465
134	0xbdd73e8d	-0.105099775
135	0x00000004	6e-45
136	0xbdacfd90	-0.08446801
137	0x1a3ce734	3.9064253e-23
138	0x31563e52	3.1176524e-09
139	0x163a5779	1.5052562e-25
140	0xbc290853	-0.010316926
141	0xbdf158f9	-0.11784548
142	0x80000004	-6e-45
143	0x80000004	-6e-45
144	0x3a9636b4	0.0011460395
145	0xa5ceb246	-3.5856106e-16
146	0xbe375083	-0.17901807
147	0x80000004	-6e-45
148	0x80000004	-6e-45
149	0xba9b566d	-0.0011851318
150	0xbd9e91f9	-0.07742686
151	0xbe08c032	-0.13354567
152	0x00000004	6e-45
153	0x3c35232b	0.011055748
154	0xbda00653	-0.07813706
155	0x21a55183	1.1202411e-18
156	0xbd851e56	-0.06499927
157	0x3af32fef	0.0018553714
158	0x3bc57152	0.0060254717
159	0xbdce58d8	-0.10075539
160	0xbe0de03d	-0.13855071
161	0x39140490	0.0001411608
162	0xbe3704c9	-0.17872919
163	0xbe0fa035	-0.14025958
164	0xb30ffa9b	-3.3522706e-08
165	0x349610cf	2.7951907e-07
166	0xbc5f84e0	-0.01364252
167	0xbdf1fd27	-0.11815863
168	0xbd43e8af	-0.047829326
169	0x9428bc35	-8.51895e-27
170	0x31a5432b	4.809768e-09
171	0xbe08b1f3	-0.13349132
172	0xb42a4bad	-1.5860014e-07
173	0x1206b756	4.2508924e-28
174	0x80000004	-6e-45
175	0xbe87d495	-0.26529375
176	0x350bdd34	5.210343e-07
177	0xbd2e9a53	-0.042627644
178	0xbdbd9821	-0.09257532
179	0xbd2e0d3f	-0.0424931
180	0x3a27d1af	0.000640179
181	0x39d39ab4	0.0004036032
182	0x1217d8d5	4.7914465e-28
183	0xbc92f528	-0.017939165
184	0x80000004	-6e-45
185	0x39daff83	0.0004177057
186	0x3b9d10b3	0.0047932505
187	0x18fcf881	6.53914e-24
188	0x00000004	6e-45
189	0x33921ba6	6.803684e-08
190	0xbdd7ce28	-0.10537368
191	0x00000004	6e-45
192	0x8e0abcf6	-1.7100795e-30
193	0x3bccac01	0.0062460904
194	0x00000004	6e-45
195	0xbe0a5f89	-0.13513006
196	0x38a382fb	7.796843e-05
197	0xbdbc967a	-0.092083886
198	0x00000004	6e-45
199	0xbd140792	-0.036140032
200	0x2e4110d9	4.3898083e-11
201	0xbc8349c7	-0.01602639
202	0xbde05b6e	-0.10954939
203	0x00000004	6e-45
204	0x00000024	5e-44
205	0xbd07b4fc	-0.033131585
206	0xbe2f458a	-0.17116371
207	0x87bd1804	-2.8451674e-34
208	0x3024d8d5	5.997099e-10
209	0xbd550692	-0.05200822
210	0xbe26c3cf	-0.16285633
211	0xbdae5a56	-0.08513324
212	0x10b854ee	7.270606e-29
213	0xac2de4eb	-2.4711854e-12
214	0xbd902617	-0.07038515
215	0x351ae490	5.770207e-07
216	0x9a94985e	-6.145753e-23
217	0xbddfca39	-0.10927243
218	0xbe1fb4ab	-0.15596263
219	0xa5328f4a	-1.5487587e-16
220	0x3adcce37	0.0016846125
221	0x00000004	6e-45
222	0xbe1e8ffe	-0.15484616
223	0x80000004	-6e-45
224	0x80000004	-6e-45
225	0x9a474af1	-4.1212773e-23
226	0xbc28ec57	-0.010310254
227	0xbda599cc	-0.08085975
228	0x871f6153	-1.1990432e-34
229	0x00000004	6e-45
230	0x00000004	6e-45
231	0x00000004	6e-45
232	0x3ccdfab2	0.025143955
233	0xbe1d2b19	-0.15348472
234	0x0d9dfede	9.737229e-31
235	0x129f64da	1.0059173e-27
236	0x80000004	-6e-45
237	0x00000004	6e-45
238	0x00000004	6e-45
239	0xbd28cd34	-0.041211322
240	0x3c863933	0.016384697
241	0x3b80c329	0.003929515
242	0x00000004	6e-45
243	0x000016f7	8.238e-42
244	0xbded2d40	-0.115808964
245	0x3ac207c4	0.001480334
246	0xbd7dc1f3	-0.061952543
247	0x00000004	6e-45
248	0xbd6b2256	-0.057405792
249	0x80000004	-6e-45
250	0xbc6fc71a	-0.014634872
251	0xb83b7f53	-4.4702854e-05
252	0x80000095	-2.09e-43
253	0x00000004	6e-45
254	0x3a8e98fd	0.0010879334
255	0xaf78af20	-2.2617686e-10
