weights/policy_checkpoint1200.pt (torch, 522983 bytes, 12 tensors)

net.0.weight f4 [128, 142]
000000 5a 91 99 3d 9b 93 f3 3d c2 11 e5 3b 91 12 01 3e
       0.07498427 0.11893388 0.0069906423 0.12604739
000010 62 c1 0f 3d a5 ac d3 3d b9 ad 4f 3d 10 87 bd 3d
       0.035096534 0.10335664 0.050702784 0.09254277
000020 8b 5c 87 3d ab 3c 8f bb d3 08 a6 3d cf 9e 33 3d
       0.06609448 -0.004371246 0.08107152 0.043852624
000030 e2 68 80 3d 12 ba 13 3d 00 c9 c4 3d 93 f5 60 3d
       0.06270005 0.036066122 0.0960865 0.054921698
000040 1f 3a 68 3d b5 ec 45 3d f5 09 28 bd 6c 6c 8e 3c
       0.056696054 0.048321445 -0.04102512 0.017385684
000050 de e8 cb bc 63 49 89 3d ea 15 e6 3c c3 f1 0d 3e
       -0.024891313 0.067034505 0.028086621 0.13861756
000060 3a bb 5c bd d1 e7 13 bd 32 c4 e3 3b 49 22 52 bd
       -0.05388949 -0.03610975 0.0069508785 -0.051302228
000070 fc 28 8e 3c 41 c4 a6 bd 7c 51 f9 3d a3 41 94 bc
       0.017353527 -0.08142901 0.12173745 -0.018097704
000080 c6 e3 ce 3d ea dd 3f 3d bd ef d0 3b d6 92 94 3d
       0.10102038 0.046842493 0.0063762353 0.07254569
000090 e5 5e 86 3c a9 e7 d7 3d 54 f9 ad 3c 1e 2f 0d 3d
       0.016402671 0.105422325 0.021237053 0.034468763
0000a0 6c be e3 3d 34 3a f1 3b 2f db 00 3e 63 a9 ea 3d
       0.111203045 0.0073616747 0.12583612 0.11458089
0000b0 3f 9c e0 3d 0c 6e e9 3c 2c 75 0a 3e 2e cf 9e 3d
       0.109673016 0.028494857 0.1352126 0.0775436
0000c0 39 9f b3 3d b1 81 ee 3c 56 f3 c8 bc 8a 30 01 3d
       0.08770604 0.029114576 -0.024530094 0.03154043
0000d0 45 7c 54 3a 15 d6 34 3e 51 cd b7 3d c4 b2 e8 3d
       0.0008105676 0.17659791 0.08974708 0.11362222
0000e0 cd 7f fa 3c 1d 45 26 3d 14 2c 2c 3e 10 b8 06 3d
       0.030578518 0.040593255 0.1681369 0.03289038
0000f0 a1 92 34 3d ec 11 e3 bb b6 da ea 3d 57 73 47 3d
       0.04408515 -0.0069296267 0.11467497 0.04869398
000100 9d 5b c6 3c a2 be 4f bd b6 f5 0b 3d e9 8b 8c bd
       0.024213606 -0.05071891 0.034169875 -0.06862623
000110 1d 3c 90 bd d1 9d 65 bb be ab d2 3d e1 28 0f 3d
       -0.07042716 -0.0035036693 0.102866635 0.034951095
000120 68 60 a5 3d e8 d5 8d bd fc c3 4f bd af be 84 bd
       0.08075029 -0.06925565 -0.050724015 -0.064816825
000130 c8 a2 af bd 53 39 0b 3d 72 29 f6 3c db 42 e0 3d
       -0.0857597 0.033990216 0.03004906 0.10950252
000140 9e 82 31 bd ec 52 6a bd fc 5f 36 3d ca ef 0a bd
       -0.043337457 -0.057207987 0.04452513 -0.033920087
000150 f3 13 14 3c 53 22 a3 bc ec a0 44 3d 79 88 85 bd
       0.009037959 -0.019913828 0.04800503 -0.06520171
000160 6d 76 2d bd db 92 08 3e 9c 66 df 3d c9 22 4d 3d
       -0.042349268 0.13337271 0.10908243 0.050082
000170 a1 f9 e5 3d 95 2d d2 3d e8 7a ab bb aa d9 e2 bc
       0.112292536 0.102626 -0.0052331574 -0.027691681
000180 48 c9 07 3e 71 f8 e7 bc 05 b7 f3 bc cc f8 33 3b
       0.13260376 -0.028316708 -0.029750356 0.0027461527
000190 38 d9 b8 3c 5d c5 bb 3d b8 7a 35 bc 02 82 79 bd
       0.022564515 0.091685034 -0.011076622 -0.060915
0001a0 fc c4 41 3d 73 cb 6a bd 24 cf 91 bd 4f 47 3d bd
       0.047307 -0.05732293 -0.07119587 -0.046210583
0001b0 f2 6a 96 bd ab 17 df 3c 11 cc ab 3d ef d7 81 3c
       -0.07344617 0.027232965 0.08388532 0.015850035
0001c0 bf d8 d3 3c 91 4b a0 bd d5 f3 4f bc 59 da ba 3c
       0.025860189 -0.07826913 -0.012692411 0.022809194
0001d0 a7 1b 66 3d 3b 57 da bc bc 36 4b 3c a4 f0 90 bd
       0.056178715 -0.026652923 0.012403186 -0.070771486
0001e0 2c 9e c0 3c ae 3e 11 bd 32 8d be bb b8 eb 68 bd
       0.023512922 -0.035460167 -0.0058151716 -0.056865424
0001f0 20 db bd bd 7c 34 8c bd 26 a5 8f bd 35 a6 87 bd
       -0.092703104 -0.06845948 -0.070139214 -0.06623498
000200 63 1a 90 3d bc 9a 36 bd 1c df 93 3d 0d 33 d6 3c
       0.07036283 -0.04458116 0.07220289 0.02614739
000210 c2 88 91 bd 53 df 6d 3d cc 07 3d bc 9a c2 03 bd
       -0.071061626 0.058074307 -0.011537503 -0.03216801
000220 d7 a8 8e bd 5c dc aa bd 5a b0 c4 3c fa a9 36 3d
       -0.069657974 -0.083428115 0.024009872 0.044595696
000230 5e 5c c7 3d be f1 8d bc 05 08 5a 3d 22 ed b4 bd
       0.097344145 -0.017327186 0.053230304 -0.08834292
000240 c6 d0 69 bd f8 28 c6 bb 41 9a fb 3c 48 c9 83 3d
       -0.057083867 -0.0060473643 0.030713202 0.06434876
000250 aa c4 9f 3d 09 00 4f bd 09 a1 97 3c 26 16 8a bd
       0.078011826 -0.050537143 0.018509405 -0.06742506
000260 be f5 a8 3b cd c1 9b bd 68 d2 8e 3d ee bb 5a bd
       0.005156248 -0.07605324 0.069737256 -0.05340188
000270 73 ad 88 3d 29 ff 70 3c 92 59 9c 3d f1 d4 be 3b
       0.06673708 0.014709272 0.07634272 0.0058237244
000280 bc 28 06 3e b5 3c 6d 3d d1 fe 33 3d 6a 7d 05 bd
       0.13101476 0.057919223 0.043944184 -0.032590307
000290 3b 68 9f 3d 7a 6a d9 3a 8f 44 d6 bb f0 2a cd 3d
       0.07783552 0.0016587519 -0.0065389345 0.10017955
0002a0 eb df 54 3d 81 52 38 3c 4c 32 70 bc df 12 37 bc
       0.051971357 0.011250139 -0.014660429 -0.011173933
0002b0 19 e1 96 3d 2c f1 96 bc 41 c6 0d bd c7 c9 3b bd
       0.07367153 -0.018425547 -0.034612898 -0.045846727
0002c0 ae 71 86 bd 37 cc 37 3d 87 cc 81 3d c2 d8 cb bd
       -0.065646514 0.04487249 0.063378386 -0.09953453
0002d0 ed ac 22 3d 53 1a 90 3d 27 60 65 3d 47 44 e6 bc
       0.039715696 0.07036271 0.0559999 -0.028108729
0002e0 b1 2c 96 3d 70 e4 ef 3d b6 b7 51 3d 62 ea a0 3c
       0.07332743 0.11713493 0.05120059 0.019643012
0002f0 2d 69 01 3d 39 8c 56 3d f7 2c 09 bc fb 18 41 bb
       0.031594444 0.05237982 -0.008372537 -0.0029464352
000300 0a 7c 9f 3d 69 f3 c6 3d c9 31 dc bc 2a 51 a9 bc
       0.077873304 0.097143956 -0.026879208 -0.020668585
000310 f2 bc b0 bc 4c fd 6e bd 1b 81 42 3d d7 3e fa 3c
       -0.021574471 -0.05834703 0.047486406 0.030547542
000320 3d 7b 2a bd d2 80 10 3b 49 d3 d7 3d 23 8e a0 3c
       -0.041621435 0.002204944 0.10538346 0.019599026
000330 1e bf 0f bd 0b 12 14 bd 47 3c 0e bd 26 9a 75 bd
       -0.035094373 -0.03615002 -0.034725454 -0.05996146
000340 04 5c 12 bd 2e a6 63 3d 10 16 dd 3d c0 46 3b 3d
       -0.035732284 0.055578403 0.10795224 0.04572177
000350 bb 08 d1 bd c8 7f b6 bd 05 fc 58 bc be 40 a6 3d
       -0.10206743 -0.08911091 -0.01324368 0.08117817
000360 0d 1c 63 3d 46 9a 2b bd cd bf e7 3c 80 eb 02 bd
       0.055446673 -0.041895173 0.0282897 -0.03196287
000370 f8 7a 5e bd 38 66 2c 3d 47 4b 1c bd f6 cf 89 bc
       -0.05431649 0.04208967 -0.038157728 -0.016822796
000380 ad f8 aa bd 2b 0c 66 3d 3f c2 99 3c e8 8a fa 3c
       -0.083482124 0.056163948 0.018769382 0.030583814
000390 54 ac 6f bd aa 9e a9 bd a9 95 8b bd 91 09 ab 3c
       -0.058513954 -0.08282216 -0.06815655 0.020878585
0003a0 ea 82 1a 3d fc 28 8d 3d 35 ab 1c 3d 3f 1d 9e bb
       0.037722506 0.06892583 0.038249213 -0.0048252637
0003b0 1c 19 21 bd c1 95 96 bd 38 d1 a9 bd ca c0 a0 bd
       -0.039330587 -0.07352782 -0.082918584 -0.078492716
0003c0 9f b5 0c 3d 43 d0 9a bd 27 81 1f bc 34 e4 ad bd
       0.034352895 -0.07559254 -0.009735382 -0.08490792
0003d0 b8 8a 7a bc a2 ed 71 bd a9 4a d8 bd 7c 09 e4 3c
       -0.015291862 -0.059064515 -0.10561115 0.027836554
0003e0 53 4f cc bc d6 32 54 3d d8 8a dc bc 31 77 fb bd
       -0.024940168 0.051806293 -0.026921675 -0.12278593
0003f0 a7 96 72 bc 21 9f 26 bd 62 52 d2 bc 36 9d a3 bd
       -0.014806426 -0.0406791 -0.025674049 -0.0798897

net.0.bias f4 [128]
000000 b7 f6 ff 3d 02 b4 ba 3c d6 8f bb 3c 59 5d a0 3d
       0.12498229 0.022790913 0.022895735 0.07830305
000010 d9 8e 49 3d aa 4c 2d 3d a2 2a 03 bd 9d b3 91 bd
       0.049208496 0.04230944 -0.03202308 -0.07114337
000020 f2 dd ff 3c 99 63 cf 3d 69 7d af 3c 63 67 47 3c
       0.031233761 0.101264186 0.021422105 0.012170645
000030 d4 da e7 bc da 11 88 3d f0 4f 96 bd 39 78 4b bd
       -0.028302588 0.0664403 -0.073394656 -0.0496752
000040 ac ef 71 3d 46 4d 8c bd 63 78 43 bd 46 6f 1e bd
       0.05906646 -0.06850676 -0.04772223 -0.038680337
000050 45 f4 96 3c ee 89 b4 bd b3 fb aa 3d c9 a8 18 3d
       0.018427024 -0.088153705 0.08348789 0.03727034
000060 e2 87 84 bc ce 63 12 3d be 31 6e 3d 27 46 26 bd
       -0.016178075 0.035739712 0.058152907 -0.040594246
000070 a3 c3 20 bd 61 6d 51 3d af 1e e1 bc 71 93 33 bd
       -0.039249074 0.051129702 -0.027480451 -0.043841783
000080 a7 e9 c2 3c 8a 6a 2c 3d 7a d0 59 3c fc d7 a9 bc
       0.023793055 0.04209379 0.013294334 -0.020732872
000090 1c 0b db bd f9 2a cc 3a c6 28 d0 3d 37 7d 2f 3d
       -0.10695478 0.0015576772 0.10164027 0.042844024
0000a0 6f cb bb 3d 53 8c b2 bd 64 4f 11 3d 21 4a 69 3d
       0.09169661 -0.08718171 0.035476103 0.05695546
0000b0 7b 96 c7 bc 05 02 21 bd 5c 11 ab bd b1 84 ca bc
       -0.024363747 -0.039308567 -0.083529204 -0.024721475
0000c0 a7 b5 18 bd 73 0f 54 bd 60 34 77 bd 0c a6 34 3d
       -0.037282612 -0.051772546 -0.060352683 0.044103667
0000d0 76 99 48 bd 47 f4 e2 3c ce 86 fa 3c b3 d5 98 bd
       -0.048974477 0.027704371 0.030581858 -0.07462635
0000e0 eb b5 1d bd 9d 4c b1 3d 76 76 d0 3c 89 7a 93 3d
       -0.03850357 0.08657191 0.025447112 0.07201106
0000f0 c5 3d c7 bd 1c 7b 74 3d c8 49 8f 3c a7 6f aa bd
       -0.097285785 0.05968772 0.017491236 -0.08322077
000100 09 f4 9f 3c 3a fb d4 3c 55 d2 9a 3c b2 99 87 3d
       0.019525545 0.0259987 0.018899122 0.06621112
000110 97 67 28 bd 32 bb a0 bc 01 8e a8 bd 3e 85 81 3d
       -0.041114416 -0.019620512 -0.0823021 0.06324242
000120 86 06 58 3b 26 66 aa 3c 09 ea b4 3a d6 9e bc bd
       0.0032962873 0.020800661 0.0013802658 -0.09209983
000130 05 32 81 bc 86 ee 6d 3d d1 1b 8b 3d ae e1 fc bb
       -0.015770921 0.0580888 0.06792415 -0.007717333
000140 25 2d f4 3c ed 53 2e 3d 17 20 03 bd c9 2d 0f 3e
       0.029806683 0.042560507 -0.032013025 0.1398231
000150 da df 4d 3d a5 70 d9 3d 9d a7 f2 bd cf f1 cd bc
       0.05026231 0.10617188 -0.11848376 -0.025139717
000160 d4 78 b6 bc 15 7a d3 3d e5 1d 55 3d aa d7 81 bc
       -0.022274412 0.1032602 0.052030463 -0.015849907
000170 8b 4e e6 3c b8 9b 6c bd 79 fa 5c 3d 59 db 1f 3d
       0.028113624 -0.057765692 0.053949807 0.039027546
000180 18 b5 9d bd a8 e6 31 3d 56 7c f4 3b db 00 69 bd
       -0.077005565 0.04343286 0.007461111 -0.05688558
000190 67 bc 88 bd 9a 6d b8 bd a4 2a a4 bd c8 59 59 bd
       -0.0667656 -0.0900528 -0.080159456 -0.053064138
0001a0 d0 16 43 3d 3c e0 11 3d 40 83 82 3c e0 dc 0f bc
       0.047629178 0.035614237 0.015931726 -0.008780688
0001b0 19 8c b9 bd 20 d1 cc bd 83 ee 4a 3d b9 2b 01 3d
       -0.09059925 -0.10000825 0.04954387 0.031535838
0001c0 4f b7 06 3e 02 e8 2f bd bc 6d 97 bd 91 ac 14 bd
       0.13155864 -0.04294587 -0.07393977 -0.036297385
0001d0 67 bb a2 3d 8e 3e 44 bd f5 f4 68 bd bd ad 93 bd
       0.079459004 -0.04791122 -0.056874234 -0.07210872
0001e0 f1 58 27 3d 51 53 0f bd 18 cb 01 bd b9 a9 86 3d
       0.040856306 -0.034991566 -0.031687826 0.06575341
0001f0 2d 03 bc bd 70 09 19 bd 15 96 75 bd f5 38 85 bc
       -0.09180293 -0.037362516 -0.059957583 -0.01626251

net.2.weight f4 [192, 128]
000000 b1 96 83 bd e0 28 87 bd 33 a4 1f 3e 90 a0 ee bd
       -0.064252265 -0.06599593 0.15589981 -0.116517186
000010 9e 3f 3b bd 8f 24 7b bd c6 28 cc bd 0a 23 b4 3d
       -0.045714967 -0.061314162 -0.099687144 0.08795746
000020 07 c0 09 3d 0d 7e 80 3b 86 a0 9d 3c 70 2d a1 bc
       0.033630397 0.0039212764 0.019241583 -0.019674987
000030 43 08 d8 3b a7 34 5f bd 6f 42 5d 3d 50 b5 69 bb
       0.0065927817 -0.054493573 0.054018434 -0.003566105
000040 09 e1 cb 3d 21 cd e7 3c 7f b6 d0 bd 5c 75 39 3d
       0.099550314 0.028296055 -0.10191058 0.04527794
000050 35 95 b6 3d 4c 1e 04 bd 81 18 4d bd 9b c5 1d be
       0.08915178 -0.032255456 -0.050072197 -0.15407412
000060 e7 00 f4 3c 62 14 c6 bd 90 97 e3 bd 5a a1 91 3c
       0.029785587 -0.096718565 -0.11112893 0.017777134
000070 24 a6 7b bd 62 9b 3e 3d ff ce e4 bd 82 c4 c7 bd
       -0.06143774 0.046534903 -0.11172294 -0.09754278
000080 27 4e a1 bd ec c3 36 3b 8b 26 e1 bd ee 3c 60 be
       -0.078762345 0.0027887775 -0.109936796 -0.21898243
000090 41 ab 8a bd be 69 33 bd a1 78 d7 bc 57 4d 60 bc
       -0.06770945 -0.043802015 -0.026302638 -0.013690314
0000a0 f9 ba fa bd 82 06 a3 bd da 31 a8 3c 5e 3c 99 bd
       -0.122426935 -0.07960226 0.020531584 -0.07482217
0000b0 76 9d de bd 87 53 ae 3d 3d dc 98 bd fd 13 2f 3b
       -0.10869877 0.08512025 -0.07463882 0.0026714795
0000c0 a6 5c b9 bd 32 82 c8 bd 4b 63 02 be 48 92 ee bd
       -0.090508744 -0.09790458 -0.1273319 -0.11648995
0000d0 be d2 c1 bd 66 9c f4 bd b5 f7 97 bd 66 f7 0b be
       -0.09464024 -0.11943893 -0.07420293 -0.13668594
0000e0 b4 03 31 3d 47 88 ec bd ff 96 ae bd 22 da 01 3c
       0.043216422 -0.1154943 -0.08524894 0.007925542
0000f0 ed 4f 90 bd 12 ef 03 bd 6d 41 96 bd cc 17 85 bd
       -0.07046495 -0.032210417 -0.07336698 -0.064986795
000100 84 8f a7 3c 7b e0 8c 3d e5 6f 8d 3b e2 95 ef 3b
       0.020454176 0.06878754 0.0043163174 0.0073115686
000110 fe 5d fe 3b 96 02 02 be a8 1e a2 bd c8 4a 1f bb
       0.0077626696 -0.12696299 -0.079160035 -0.0024306048
000120 0b 41 c8 bd c7 e1 12 3e 75 77 93 bd f1 d0 6c 3d
       -0.09778031 0.1434394 -0.07200519 0.05781645
000130 e0 c5 f1 bc 69 83 78 bd e0 07 e4 bd 32 f3 80 3d
       -0.0295133 -0.060672197 -0.111343145 0.06296386
000140 df 68 e1 bd bf 78 8f 3c cc 13 43 bd d1 ff 4c bd
       -0.11006331 0.01751363 -0.0476263 -0.050048653
000150 f3 01 86 bd 6e 9e f1 bc ad 24 8a 3d 73 74 b7 bd
       -0.065433405 -0.02949449 0.067452766 -0.08957758
000160 ca 50 01 be ec 81 81 bc 09 ef 94 bd 06 44 91 bd
       -0.12628475 -0.015809022 -0.07272155 -0.070930526
000170 ec 76 9b bb 5f 5b 6e 3d 2b 0e bf bd dc 89 99 3d
       -0.004744401 0.058192607 -0.09328874 0.07496998
000180 c2 53 b0 bd b6 24 84 bd 32 39 8b bd c7 49 d3 bd
       -0.086097255 -0.064523146 -0.067980185 -0.10316806
000190 90 42 87 bd 89 96 fb bd f4 bb 8f 3d 5b f5 26 bd
       -0.06604493 -0.12284572 0.07018271 -0.040761333
0001a0 67 46 14 3e 6d 84 ad 3c 58 8f b9 bb cb 3d 89 bb
       0.14479981 0.02118131 -0.00566284 -0.0041882745
0001b0 cc 4c cd bc f9 9b 2c bd 7e bb 91 3d d9 88 36 bd
       -0.025061034 -0.042140935 0.071158394 -0.0445641
0001c0 f5 7a 60 bd b8 be 34 be 2a c9 0e bd a2 a5 93 3d
       -0.05480476 -0.17650878 -0.034859814 0.07209326
0001d0 55 3a ff bc 81 12 fe bd c7 6f d3 bd 81 41 fe bc
       -0.031155745 -0.12405873 -0.10324054 -0.031037094
0001e0 05 d7 53 bd 59 f5 12 3e 46 69 0c be 69 5a 2e bd
       -0.05171873 0.14351405 -0.13712034 -0.04256669
0001f0 66 7e 09 be ec df 06 3e d7 17 0e be 53 a3 aa bd
       -0.13427123 0.13171357 -0.13876282 -0.08331933
000200 7c 2e 46 3c ea 5e e6 3c db c3 ba bc 63 7b d7 bc
       0.012096044 0.02812143 -0.02279847 -0.026303953
000210 ea da 61 3d 06 f0 30 bd cf a5 33 3d 0d 05 21 3d
       0.055140413 -0.043197654 0.0438593 0.039311457
000220 a6 38 b5 3c c7 16 31 bd 7b 28 ad 3d 81 b7 e8 bb
       0.022121739 -0.043234613 0.08454987 -0.0071019535
000230 fc c8 28 bd 36 89 f6 3c 12 20 49 bd fa 4c 23 3c
       -0.0412073 0.030094724 -0.04910285 0.009967083
000240 bb bd 93 3d 7f 15 d7 3b 22 45 bc 3a e7 b1 cb bc
       0.072139226 0.006563842 0.0014363865 -0.024865104
000250 cd 60 92 bd 13 43 bd bc 4c c1 a5 3d da ae 75 3d
       -0.071473695 -0.023103273 0.08093509 0.059981205
000260 46 4b 35 bd 3b 08 e4 3c 8c 89 a3 3c 27 f9 7f 3d
       -0.04426124 0.027835956 0.019963048 0.06249347
000270 21 f0 8f 3d a5 2d 92 bc 82 09 83 3c 54 dc 0b 3e
       0.07028223 -0.01784403 0.015995745 0.13658267
000280 54 79 bc 3c 1f 2a 61 bd c6 8b e1 bc fa f4 29 bd
       0.023007073 -0.05497181 -0.02753247 -0.041493393
000290 9e af 97 bd 0a ac 27 bd c8 a3 54 3d f8 4e 88 b9
       -0.07406543 -0.040935554 0.051914006 -0.00025998778
0002a0 5a dc 84 3d 88 46 8b bd 5c 8a ef 3c 95 4f 08 3d
       0.06487341 -0.06800562 0.02924078 0.03327902
0002b0 3e 17 83 bd ba b8 7f bc 6d ad a0 3c 8e ee 67 bd
       -0.064009175 -0.015608007 0.019613946 -0.056623988
0002c0 c2 75 49 3c 97 b3 a5 3d 23 d5 20 bd e1 40 4c bc
       0.012296142 0.08090895 -0.039265763 -0.01246664
0002d0 6b 93 9b 3d 3e 1c 14 bd 63 af a1 bd 9a b8 d0 3c
       0.07596477 -0.036159746 -0.078947805 0.02547865
0002e0 ae 20 85 bd 0a 4f 96 3d 53 ed 25 bd 0a 9c 34 3d
       -0.06500374 0.07339294 -0.040509533 0.044094123
0002f0 b7 74 16 bc 94 d3 eb bc a6 6a e1 bc 3b 64 7d 3d
       -0.0091831 -0.028787412 -0.027516674 0.061863165
000300 b2 14 62 bd c4 0b 91 3d 41 88 28 3d bd d5 40 bd
       -0.055195518 0.07082322 0.041145567 -0.047078837
000310 b8 02 9c 3d 6f bf 83 3d ef 76 61 bd d2 cc 87 3c
       0.07617706 0.064329974 -0.055045065 0.016577158
000320 03 5b 13 3d 40 fc e3 bb 80 2f b6 3d 89 f3 a2 bc
       0.035975467 -0.006957561 0.08895779 -0.019891517
000330 6b 70 f5 bc 08 d0 5f 3c 0a 12 e4 bb b4 5b c1 3d
       -0.029960832 0.013660438 -0.0069601582 0.09441319
000340 2a ec 3d bd 03 c3 27 bb ca e7 49 bd fb 2c 71 3c
       -0.0463678 -0.0025598414 -0.049293317 0.014720197
000350 9e 13 c2 bc e1 6b 54 bd 0c bf 55 bd 08 4a 08 bd
       -0.023690995 -0.051860694 -0.05218415 -0.033273727
000360 84 d3 d2 bd b6 c3 3c 3d 34 16 77 3c c5 ab 20 bd
       -0.1029425 0.046085082 0.015080977 -0.039226312
000370 38 61 bf 3d 47 22 b4 3d 1c 2f a2 bc 02 38 8a 3d
       0.09344715 0.087956004 -0.019797854 0.06748964
000380 ef c3 ff 3b 44 77 9d 3d ca c4 84 bc d7 b1 99 bc
       0.0078053395 0.07688764 -0.016207118 -0.018761558
000390 03 fe 1e 3d 34 a1 f8 bd 94 7f ad 3c d1 8a 94 bd
       0.038816463 -0.12140122 0.021178998 -0.0725304
0003a0 57 b4 1d bc 6b 0f 94 3c d6 03 43 bd 51 87 c3 bc
       -0.009625516 0.018073758 -0.04761108 -0.023868235
0003b0 0f 11 ba bc ff f3 8a bb 47 bd a6 3c 29 53 59 bd
       -0.022713212 -0.0042405124 0.020353926 -0.053057823
0003c0 3c 42 b7 3d a9 45 83 bc 47 40 41 bb 34 3a dd 3c
       0.0894818 -0.016024427 -0.0029487775 0.027005292
0003d0 4d 5d 0d bd 8b bc b9 3c 7f d4 b2 bd 63 49 6e ba
       -0.034512807 0.022672912 -0.08731937 -0.0009089915
0003e0 75 60 a0 bb 3b d5 9b bd 75 d4 ef 3c 8d f3 8f bd
       -0.004894311 -0.0760903 0.029276112 -0.070288755
0003f0 57 ba 7a bd ac 4e 80 bd 84 3d c9 bb 72 d5 af ba
       -0.061212864 -0.062650055 -0.0061413664 -0.0013415052

net.2.bias f4 [192]
000000 21 3d 71 bc 61 91 5c 3d d1 fc 59 3d 4f 41 5b 3c
       -0.014724047 0.05384958 0.05321962 0.01338227
000010 ca a0 f8 3c 43 fd b5 bb de 8f 95 3c b3 8f 47 3c
       0.030350108 -0.005553873 0.018257078 0.012180257
000020 cf 37 df bd c8 aa 14 bc ed c5 84 3c 36 a2 e3 bc
       -0.108993165 -0.009073921 0.01620766 -0.02778731
000030 1e ce a4 3b 78 0a 83 3b 06 46 4a 3c ff 48 75 3d
       0.005029454 0.0039990507 0.012345796 0.059884068
000040 a0 73 81 3d ce e5 e4 3c b9 b7 f8 3c ce 67 04 3e
       0.06320882 0.02794161 0.030361043 0.12930223
000050 44 05 15 bc 40 ad 18 3c a8 1f 08 bd ae d6 e4 3d
       -0.009095494 0.00931865 -0.033233315 0.111737594
000060 ab 4d 81 3d 8b fe 75 3d d6 55 a7 3c 63 f3 27 3e
       0.06313642 0.060057204 0.020426672 0.16401438
000070 72 c9 c3 3c 67 f4 92 3c 71 e3 b1 bc af 85 30 3d
       0.023899768 0.017938806 -0.021714898 0.04309624
000080 9f 0b 44 3d c0 db 3c 3a 22 69 71 3d d2 c1 40 3d
       0.047862645 0.0007204376 0.058938153 0.04705984
000090 54 fa f0 3c 32 1c 86 3d ae 57 8b bd af fc 13 bb
       0.02941624 0.065483466 -0.06803833 -0.002258103
0000a0 c4 eb 9a bd 57 67 c0 bc 73 e3 80 3d b4 76 f9 3d
       -0.075645 -0.023486776 0.062933825 0.12180844
0000b0 32 42 3d bb c5 7e c5 bc c0 63 fc bd 8d a0 0d 3b
       -0.0028878567 -0.0241083 -0.12323713 0.0021610588
0000c0 8c e3 a9 3d 2d 0b 41 bd 1e 2b 2c 3d 94 eb af 3d
       0.08295354 -0.0471298 0.042033307 0.08589855
0000d0 64 91 e6 3c a5 fc 52 bc 9e 31 bd 3d 2b 94 aa bc
       0.0281455 -0.012877618 0.09237979 -0.020822605
0000e0 c0 59 7c 3c 51 88 ad bd 9c e7 a2 3a 97 4e 0b bd
       0.015402257 -0.08473266 0.0012428644 -0.034010496
0000f0 03 b9 f3 3c 22 9e 30 3c d0 98 8d 3d b6 71 ce bc
       0.029751306 0.010779889 0.06913912 -0.025200706
000100 17 0f af bd 8d 34 54 bd 50 c8 98 bd c5 4f 33 bd
       -0.085478 -0.05180793 -0.074600816 -0.043777246
000110 6b ae fb bc e4 47 c4 bd b8 8b cb 3d 94 20 9a bd
       -0.030722817 -0.095840245 0.099387586 -0.07525745
000120 57 ef db bc c6 68 14 ba 6d 85 74 3c b7 8a 37 3d
       -0.026847525 -0.00056613644 0.014924389 0.044810023
000130 bf 0c 42 3d 8d 9c 40 3d 4a d1 bf 3d db 16 fa 3c
       0.047375437 0.0470243 0.093660906 0.030528476
000140 54 95 d3 3c ce 64 15 3c 5c 44 7b 3c c9 c2 ab bb
       0.025828041 0.009118272 0.015336122 -0.005241726
000150 81 0b 09 bd ba f3 2d bc 22 94 e5 3c d2 54 45 3d
       -0.033458237 -0.010617191 0.028024737 0.048176594
000160 1e e8 87 bd 03 3a c3 3d a9 25 33 3d 8c 1a c5 3d
       -0.0663607 0.09532549 0.043737087 0.09624204
000170 cb 74 ff bc c8 08 8d 3d 6a 42 02 3a 45 b6 d5 3d
       -0.03118362 0.068864405 0.0004969003 0.10435156
000180 a5 27 93 bc a3 8f a2 bd d7 a8 a0 bd b6 98 d3 bc
       -0.01796324 -0.07937553 -0.07844704 -0.025829654
000190 da 2d 2c 3c 2e 52 0b bd 25 4f 69 bc 35 17 65 bd
       0.010508979 -0.03401392 -0.014240061 -0.055930335
0001a0 ba cd ff 3d 42 23 2f ba 6b 99 86 3d 6f f1 30 bd
       0.12490411 -0.0006680974 0.06572231 -0.043199
0001b0 4b 5e 84 3d 1e c1 f8 3c 40 9b 94 3c a4 da 6f bd
       0.064632975 0.030365523 0.018140435 -0.05855812
0001c0 39 67 62 bd f2 fc 9c 3d ed b1 9d 3d 0f f2 71 3d
       -0.055274222 0.07665433 0.07699952 0.059068736
0001d0 cc 85 e6 3d 25 f2 e0 bd 7f ab 01 3d 3f 65 6f bd
       0.112559885 -0.109836854 0.031657692 -0.058446165
0001e0 3d c3 c0 bd 51 bb 46 3d 4b 12 41 3d 5b be b8 3c
       -0.09412239 0.048518483 0.047136586 0.022551706
0001f0 cd bb de 3c 39 fa 0c bd a8 0e c9 3c db d2 71 3d
       0.02718916 -0.03441832 0.024543121 0.059038978
000200 67 4a 02 bd bb a4 bd 3d fe db 6e bd c5 43 4b bc
       -0.031809237 0.092599355 -0.05831527 -0.012406294
000210 b2 ba 0d bd 3e 3e 59 bc 36 c7 e0 bd dc 81 d3 3c
       -0.034601875 -0.013259469 -0.109754965 0.025818758
000220 3e 60 18 3c 57 c2 ea 3d 6c 6c 9f ba 7b 7a f4 3c
       0.00930029 0.11462849 -0.001216305 0.02984356
000230 33 0f 3f bd cb 82 f0 bc 76 9a e6 3a e6 be 38 3c
       -0.046645354 -0.029359242 0.001759364 0.0112759825
000240 95 b3 9b 3d ce d2 b4 bc d9 af ca bc d2 e2 00 3e
       0.07602612 -0.022073176 -0.024742054 0.12586525
000250 32 24 04 3e 69 06 ef bc 18 a1 16 3d 39 82 f8 3d
       0.12904432 -0.029177861 0.036774725 0.12134213
000260 30 03 8c 3d 32 c3 3c 3d a3 ff da 3d 8b f6 5b 3d
       0.068365455 0.04608459 0.1069329 0.05370192
000270 e6 22 21 3d 31 0f 79 3c 4c ad 86 3d f7 5c 06 3e
       0.039339922 0.015201376 0.065760225 0.13121401
000280 55 f3 79 bc 0b af 91 3d fe ac 54 bd 8a 9f 6b bc
       -0.015255769 0.07113465 -0.05192279 -0.014381299
000290 d9 5b cd 3c 01 76 64 bd f1 a7 7f 3d 4f d6 d3 3d
       0.02506821 -0.0557766 0.06241602 0.103436105
0002a0 ad 33 0b 3d 49 48 c3 3d 61 98 37 bd 5c 08 cf 3d
       0.03398483 0.09535272 -0.044823054 0.10109016
0002b0 0c 38 55 bd 4a c3 80 bd 13 9e 0f 3c 70 ab ac 3b
       -0.052055404 -0.062872484 0.008765715 0.0052694604
0002c0 61 21 a8 bc 9d 83 bb 3d f6 bf 6b 3d 8d 4f 1f 3c
       -0.020523729 0.091559626 0.057556115 0.009723556
0002d0 04 ad 96 3d 9c da 71 3c 30 05 5b 3d 56 cb 1c bb
       0.07357219 0.014761593 0.053471744 -0.0023924909
0002e0 db 13 c5 bd 55 4f 35 3d c0 38 49 3d 4e 5b 8d bd
       -0.09622928 0.04426511 0.049126387 -0.069021806
0002f0 a1 8b 56 bd 7e ef 27 3d 35 cb 44 3d f2 d5 67 bd
       -0.052379254 0.040999882 0.048045356 -0.05660052

exp_avg f4 [128, 142]
000000 a9 dc e1 bb 25 44 2b 3c 19 f0 cb 3b c6 44 e1 bb
       -0.00689276 0.010453259 0.00622369 -0.0068746535
000010 8e 75 3f b7 c6 0d ea bb 8d 4f e9 bb 07 30 e8 bb
       -1.14118575e-05 -0.007142755 -0.007120079 -0.0070858034
000020 fc dd e1 bb a4 65 26 3c 72 40 f8 bb 84 1e 8e 3b
       -0.0068929177 0.010156069 -0.007576042 0.004337134
000030 de 67 82 3b bc f8 72 bb c4 a8 2c 3b c4 48 f5 3a
       0.003979667 -0.0037074527 0.002634571 0.0018713702
000040 3d 21 d2 bb cb 59 30 3c 4d 47 f9 b8 9c a6 9c 3b
       -0.0064126537 0.010763596 -0.00011886526 0.0047806036
000050 49 39 80 3b bc b8 59 bb 1a b1 52 3b 6d 9e 20 3b
       0.003913079 -0.0033221683 0.0032149018 0.0024508492
000060 b6 c4 2f 3b 7c 48 42 ba 04 6e cc bb e5 06 95 3b
       0.002682013 -0.00074113137 -0.006238701 0.004547941
000070 2b 19 d5 3b 2a 8b 90 ba 01 1c b5 3b 2b 40 69 3b
       0.0065032444 -0.0011027802 0.00552702 0.0035591226
000080 25 c7 1f 3b c4 6c 09 bb 62 47 66 3c 26 17 d4 bb
       0.0024380174 -0.002096937 0.014055105 -0.006472486
000090 6f 9a de bb 49 67 e7 39 14 a6 09 3c 73 70 6a 3b
       -0.0067933123 0.00044136707 0.0084014125 0.0035772591
0000a0 0d 1f e0 ba af 50 17 3c b1 0b 6f 3c a3 9a 9a bb
       -0.0017099098 0.009235545 0.01459019 -0.004718141
0000b0 37 0e 9a bb a4 4c 2d 3c 62 65 8a 3b 85 b8 10 3c
       -0.0047014016 0.010577355 0.0042235116 0.008833055
0000c0 94 7e 48 3c 81 aa 1b 3c 2f 95 e3 3b 60 b9 c4 3b
       0.01223721 0.0095011005 0.0069452743 0.0060035437
0000d0 8e 49 cd 3b ad 60 d3 3b ef 63 3f bc 54 43 8b bb
       0.006264872 0.0064507336 -0.011681541 -0.0042499695
0000e0 52 8c bf bb 8c cc 15 3c a8 01 33 3b 3d f4 14 3c
       -0.005845585 0.009143006 0.002731422 0.009091434
0000f0 a9 61 9b 3b d1 bb 3e bb a7 87 31 bb 06 f4 ee bb
       0.0047418666 -0.0029103647 -0.0027088912 -0.0072922735
000100 6b 7e 47 bb 04 fe b0 37 f9 50 33 3a d5 f5 28 39
       -0.0030440341 2.109912e-05 0.0006840374 0.00016113308
000110 2d bd 28 39 7a cd 2e bc 9a 12 ac bb 7c 29 da 39
       0.00016092202 -0.010669107 -0.005251241 0.00041611108
000120 00 00 00 00 00 00 00 00 a9 db 51 3b 4d 5b bd 3b
       0.0 0.0 0.0032021797 0.005778706
000130 d5 22 c8 3b 00 00 00 00 00 00 00 00 50 5e 8a bb
       0.006107668 0.0 0.0 -0.0042226687
000140 00 00 00 00 00 00 00 00 00 00 00 00 00 00 00 00
       0.0 0.0 0.0 0.0
000150 c7 e9 2c 30 00 00 00 00 00 00 00 00 00 00 00 00
       6.2905453e-10 0.0 0.0 0.0
000160 00 00 00 00 b9 1f de bb 8e 78 12 3c 7c c9 48 bb
       0.0 -0.006778684 0.008939875 -0.0030637672
000170 c3 59 82 b9 2c 07 63 b9 ef af 41 3c 66 38 7f 3c
       -0.0002486241 -0.00021651079 0.011821731 0.015577411
000180 04 dc 5e bb 00 00 00 00 00 00 00 00 c3 09 21 3c
       -0.0034005651 0.0 0.0 0.0098289875
000190 0f fd 20 3b 17 6f 80 3b 00 00 00 00 00 00 00 00
       0.0024564897 0.003919493 0.0 0.0
0001a0 9d 4f 1a b6 00 00 00 00 00 00 00 00 00 00 00 00
       -2.299413e-06 0.0 0.0 0.0
0001b0 00 00 00 00 9d 4f 1a b6 00 00 00 00 00 00 00 00
       0.0 -2.299413e-06 0.0 0.0
0001c0 00 00 00 00 00 00 00 00 a4 8b 76 3c fe 35 48 bb
       0.0 0.0 0.015047941 -0.003054976
0001d0 74 9f c8 b9 7f 12 e5 ba 85 12 e5 ba 9f d5 be 3b
       -0.00038265774 -0.0017476826 -0.0017476833 0.0058238055
0001e0 d2 21 55 bb 3d d8 fc 3a 00 00 00 00 00 00 00 00
       -0.003252138 0.0019290518 0.0 0.0
0001f0 b9 e8 08 3c b5 a5 25 bc 88 68 0e 3b 00 00 00 00
       0.008356267 -0.010110308 0.0021729786 0.0
000200 00 00 00 00 f8 7e 0b 3c 00 00 00 00 00 00 00 00
       0.0 0.008514158 0.0 0.0
000210 00 00 00 00 00 00 00 00 a2 7a 0b 3c 00 00 00 00
       0.0 0.0 0.008513125 0.0
000220 00 00 00 00 00 00 00 00 00 00 00 00 3d 9f 92 3d
       0.0 0.0 0.0 0.071592785
000230 31 35 b3 bb 15 01 db 3a 43 67 aa bb de 99 9a b9
       -0.0054689874 0.0016708696 -0.005200298 -0.0002948781
000240 e5 f7 7c bb a6 01 af bb c0 e1 23 37 72 94 a2 ba
       -0.0038599905 -0.0053407727 9.768119e-06 -0.0012403859
000250 61 32 a3 ba f0 71 9f ba 43 67 aa bb 30 c3 a0 b9
       -0.0012450927 -0.0012164693 -0.005200298 -0.00030663004
000260 f9 8a 99 bb fe 54 94 bb 07 41 c1 bb 7b 7d 98 bb
       -0.0046857563 -0.0045267334 -0.0058976444 -0.0046536303
000270 8e 2b 02 bc c8 f2 e3 ba 29 e4 c0 bb c4 5c 11 bb
       -0.007944955 -0.001739108 -0.005886574 -0.0022180537
000280 b3 ee 57 38 a8 17 90 bb 91 58 a1 bb 2a 3e b6 bb
       5.14823e-05 -0.0043973513 -0.004923888 -0.0055616098
000290 29 29 fa bb ae 0c bb ba ad 6c 0a ba 26 b1 31 bb
       -0.007634301 -0.0014270747 -0.0005280476 -0.0027113645
0002a0 7a 5e bc bb 37 88 b2 bb 5a b2 b7 bb db ca ce bb
       -0.005748567 -0.005448367 -0.005605978 -0.0063108034
0002b0 0d 38 1d bc 2a 57 1a bc 9b c8 45 3a 63 67 d9 ba
       -0.009595883 -0.009420196 0.0007544846 -0.0016586598
0002c0 45 9c ba 39 dd dc a2 bb cf da d5 bb d5 31 b7 bb
       0.00035593114 -0.0049701766 -0.006526328 -0.0055906572
0002d0 34 10 3d bb 59 91 6f bb a7 c4 ed ba f7 2f 1d 3a
       -0.002884877 -0.003655514 -0.0018140272 0.0005996222
0002e0 fe 5d 97 3a c1 5a be bb 5c 64 be bb 4c a3 4b bb
       0.0011548398 -0.0058091586 -0.0058103036 -0.0031072674
0002f0 89 aa 72 bb 5f df 08 bb 53 20 86 39 06 23 05 ba
       -0.0037027916 -0.0020885093 0.00025582555 -0.0005078766
000300 a6 9a 85 bb 15 5c 9d bb 18 d4 61 bb ed 3a 17 bb
       -0.0040772734 -0.004802237 -0.0034458693 -0.0023075894
000310 b7 e3 55 bb db d2 9a bb 1e 2c bf bb b3 74 73 ba
       -0.003263695 -0.004724843 -0.0058341166 -0.0009287104
000320 dd a2 ca bb 60 9f 4e ba e5 60 1d bb 8c c9 9a bb
       -0.0061839656 -0.0007882025 -0.0024014052 -0.0047237333
000330 e1 96 99 bb 08 a0 10 bb 38 00 2d bb 2e a4 ee ba
       -0.0046871756 -0.0022068042 -0.0026397835 -0.0018206888
000340 7b 30 14 bb d5 ff c4 39 d6 ff c4 39 77 8b ac bb
       -0.0022611904 0.00037574643 0.00037574646 -0.005265649
000350 f6 ca 57 bb 42 7e 2f bb 00 00 00 00 00 00 00 00
       -0.003292737 -0.0026778136 0.0 0.0
000360 c1 56 a2 bb 90 7a b2 ba b4 ec ae ba 00 00 00 00
       -0.0049541895 -0.0013616849 -0.001334569 0.0
000370 00 00 00 00 72 cf 0b bb 00 00 00 00 00 00 00 00
       0.0 -0.0021333364 0.0 0.0
000380 00 00 00 00 00 00 00 00 2d 2a 94 af 00 00 00 00
       0.0 0.0 -2.695101e-10 0.0
000390 00 00 00 00 00 00 00 00 00 00 00 00 3a ed 6f bb
       0.0 0.0 0.0 -0.0036609904
0003a0 f8 8f eb ba ac 51 1f bb 9f 34 fc b7 6c d7 1c b7
       -0.0017971983 -0.0024310155 -3.0065245e-05 -9.348481e-06
0003b0 05 46 7f ba e0 1a 94 39 ec e6 eb ba 00 00 00 00
       -0.0009737912 0.00028248783 -0.0017997897 0.0
0003c0 00 00 00 00 7f 6d 44 ba 69 8c b4 ba 8f 43 0d b9
       0.0 -0.0007493123 -0.0013774756 -0.00013471975
0003d0 00 00 00 00 00 00 00 00 a7 79 8f 36 00 00 00 00
       0.0 0.0 4.2758943e-06 0.0
0003e0 00 00 00 00 00 00 00 00 00 00 00 00 a7 79 8f 36
       0.0 0.0 0.0 4.2758943e-06
0003f0 00 00 00 00 00 00 00 00 00 00 00 00 00 00 00 00
       0.0 0.0 0.0 0.0

exp_avg_sq f4 [128, 142]
000000 85 42 23 3c 0b be 1f 3c 42 65 0c 3c 50 34 1b 3c
       0.00996459 0.0097499 0.008569064 0.0094729215
000010 d0 f2 18 3c 7c 98 0d 3c 26 88 0b 3c 1e f2 36 3c
       0.009335235 0.008642312 0.008516347 0.011166124
000020 89 6f 08 3c e2 6a 19 3c 66 fe 14 3c dc 1e 4d 3c
       0.008327373 0.009363862 0.009093856 0.0125195645
000030 9f 5b 32 3c 95 bb f4 3b 6e b2 3d 3c ea 0e 02 3c
       0.010886102 0.0074686506 0.0115781855 0.007938126
000040 01 ff 14 3c 6d 44 4e 3c 89 cb 40 3c fe 18 1b 3c
       0.009094001 0.012589556 0.011767277 0.009466408
000050 12 36 4f 3c e6 15 47 3c bf fc 6f 3c 29 04 46 3c
       0.012647169 0.012151217 0.014647662 0.012085953
000060 15 f6 e7 3b 36 d9 40 3c 25 da 59 3c 38 80 49 3c
       0.007078896 0.011770537 0.013296639 0.012298636
000070 cc aa 60 3c dc 59 4a 3c 39 78 36 3c f9 12 48 3c
       0.013712596 0.012350526 0.011137062 0.012211555
000080 c7 e1 49 3c 58 b2 4a 3c 2d 5b 44 3c 83 ed 6e 3c
       0.012321896 0.012371622 0.011984629 0.014582994
000090 58 70 18 3c ac 81 46 3c 7e bc 42 3c 62 73 10 3c
       0.009304129 0.012115877 0.01188576 0.008816572
0000a0 3d 00 37 3c 8f fb 2e 3c c6 23 42 3c bf 36 34 3c
       0.01116949 0.010680093 0.011849349 0.010999381
0000b0 80 29 4a 3c b1 60 41 3c 55 f2 32 3c 46 f4 2a 3c
       0.012338996 0.011802838 0.010922034 0.010434216
0000c0 0b 2f 45 3c 0e f6 0b 3c 8d 74 2a 3c c1 4a 13 3c
       0.012035142 0.008542551 0.010403764 0.008989991
0000d0 0e 7a 21 3c 0e 07 18 3c 16 97 5f 3c 78 74 23 3c
       0.00985576 0.009279026 0.013646862 0.009976499
0000e0 72 63 30 3c fa 66 02 3c 59 c0 5f 3c 48 f0 4d 3c
       0.010765897 0.007959122 0.013656699 0.012569495
0000f0 36 97 2c 3c 79 6c 0e 3c 4f 98 49 3c 14 9c 02 3c
       0.010534098 0.008692854 0.01230438 0.007971782
000100 fc d7 23 3c 79 c5 11 3c ed f9 b5 3b fa 14 80 3a
       0.010000225 0.008897179 0.005553475 0.0009771877
000110 00 04 12 3a d4 c4 31 3c 5e 37 de 3b 74 5c 7f 3b
       0.0005570054 0.01085015 0.0067815026 0.0038965018
000120 00 00 00 00 00 00 00 00 11 b7 a2 3b 4a b1 84 3b
       0.0 0.0 0.004965671 0.004049455
000130 5c 5f 13 3b 00 00 00 00 00 00 00 00 27 b2 68 3a
       0.0022487259 0.0 0.0 0.00088766444
000140 00 00 00 00 00 00 00 00 00 00 00 00 00 00 00 00
       0.0 0.0 0.0 0.0
000150 84 47 27 3a 00 00 00 00 00 00 00 00 00 00 00 00
       0.0006381201 0.0 0.0 0.0
000160 00 00 00 00 e8 6b 4d 3c 23 1d 48 3c 98 ca 1a 3c
       0.0 0.012537934 0.012213978 0.009447716
000170 3f ce 7f 3a ef 31 eb 39 ec 56 44 3c a9 87 14 3c
       0.0009758211 0.00044859896 0.011983614 0.009065547
000180 02 d8 c3 3b 00 00 00 00 00 00 00 00 0c 90 18 3c
       0.005976678 0.0 0.0 0.009311687
000190 5e 58 fe 3b af 53 98 3b 00 00 00 00 00 00 00 00
       0.007761999 0.0046486477 0.0 0.0
0001a0 52 7b 5a 3a 00 00 00 00 00 00 00 00 00 00 00 00
       0.0008334416 0.0 0.0 0.0
0001b0 00 00 00 00 10 e3 bc 39 00 00 00 00 00 00 00 00
       0.0 0.0003602733 0.0 0.0
0001c0 00 00 00 00 00 00 00 00 af 7b 5a 3c 75 4d 2f 3c
       0.0 0.0 0.0133351525 0.01069962
0001d0 01 5d e3 3b 74 38 33 3a 74 02 17 3a b8 14 44 3c
       0.006938577 0.000683672 0.00057605584 0.01196783
0001e0 44 aa 2b 3c 75 7a ef 3b 00 00 00 00 00 00 00 00
       0.010477606 0.007308299 0.0 0.0
0001f0 22 d6 04 3c 91 fe d3 3b 02 21 9a 3b 00 00 00 00
       0.008107694 0.0064695557 0.004703642 0.0
000200 00 00 00 00 8f 5a ba 3a 00 00 00 00 00 00 00 00
       0.0 0.0014217662 0.0 0.0
000210 00 00 00 00 00 00 00 00 60 30 94 3a 00 00 00 00
       0.0 0.0 0.0011305921 0.0
000220 00 00 00 00 00 00 00 00 00 00 00 00 c1 17 a5 3d
       0.0 0.0 0.0 0.08061171
000230 0b c9 c8 3c a3 ce be 3e 64 43 f0 3b 44 74 f4 3b
       0.024509927 0.37267026 0.0073322523 0.007460149
000240 71 53 ea 3b f3 d5 e2 3b 5b 74 f4 3b 33 a3 00 3c
       0.0071510603 0.0069224774 0.0074601597 0.00785141
000250 63 f5 bb 3b b0 c9 df 3b 80 ad de 3b 4c 53 07 3c
       0.0057360395 0.006829463 0.006795585 0.008259606
000260 f5 bd 03 3c 51 d5 0a 3c ec 2d 14 3c fb a4 f8 3b
       0.008040895 0.00847371 0.009044152 0.0075880266
000270 cb e6 15 3c 85 63 f9 3b 20 93 a6 3b 47 1e 0e 3c
       0.009149264 0.0076107406 0.0050834566 0.008674211
000280 ab c2 e8 3b 75 60 d1 3b ff 90 f7 3b 5e d4 e9 3b
       0.0071032844 0.0063896724 0.0075551267 0.007135912
000290 cb 5d 08 3c 7a 11 f3 3b 86 48 b8 3b 01 f4 1b 3c
       0.008323143 0.007417855 0.00562388 0.009518624
0002a0 d0 2e 18 3c 0e 98 1d 3c fe 44 2e 3c 1a 5d 19 3c
       0.009288505 0.009618772 0.010636566 0.009360576
0002b0 bd 52 ee 3b 6c 40 19 3c a8 15 ed 3b a5 bc 0e 3c
       0.0072730468 0.009353738 0.0072352476 0.008711969
0002c0 bb 93 21 3c 47 1c 24 3c ac 73 f7 3b a1 23 18 3c
       0.009861882 0.0100165075 0.007551631 0.009285838
0002d0 3a 44 0e 3c a9 e2 c9 3b fe fb ee 3b 96 1d 03 3c
       0.008683259 0.006161053 0.0072932234 0.008002659
0002e0 6d e9 1d 3c df 66 24 3c 7f b2 11 3c 12 5a 2a 3c
       0.009638173 0.010034292 0.008892654 0.010397451
0002f0 25 21 fb 3b c8 7c c1 3b 96 c6 12 3c 75 fd 14 3c
       0.0076638632 0.0059047677 0.008958479 0.009093632
000300 de 26 06 3c 51 8b 0e 3c 9e b5 cb 3b 74 07 d2 3b
       0.008187978 0.008700208 0.006216719 0.00640958
000310 ff 62 eb 3b c1 a6 93 3b 5a 09 a8 3b be 66 05 3c
       0.007183432 0.0045059626 0.005128068 0.008142171
000320 03 0b e8 3b 65 f9 fe 3b 60 97 a6 3b bc 1b d4 3b
       0.007081391 0.007781195 0.0050839633 0.0064730328
000330 0f 8f aa 3b 22 95 4a 3b 5a 0a e9 3b d5 6b f6 3b
       0.005205042 0.0030911644 0.0071118297 0.007520179
000340 86 4e 81 3b a5 bd 83 3a 66 01 c6 39 ab 9f eb 3b
       0.0039461283 0.0010051025 0.00037766545 0.0071906648
000350 d0 21 95 3b c4 67 3b 3b 00 00 00 00 00 00 00 00
       0.00455115 0.0028595785 0.0 0.0
000360 89 20 84 3b 61 55 3a 3b 40 f6 f3 3a 00 00 00 00
       0.004032199 0.0028432237 0.0018612817 0.0
000370 00 00 00 00 cc f5 07 3a 00 00 00 00 00 00 00 00
       0.0 0.0005186468 0.0 0.0
000380 00 00 00 00 00 00 00 00 a3 0c 74 39 00 00 00 00
       0.0 0.0 0.00023274361 0.0
000390 00 00 00 00 00 00 00 00 00 00 00 00 e5 f5 14 3c
       0.0 0.0 0.0 0.009091829
0003a0 65 55 21 3c 3a 63 ec 3b 50 7f 26 3a 5e 44 e4 39
       0.00984702 0.007213977 0.00063513685 0.00043538486
0003b0 c1 7f 22 3c 2e 11 f7 3b 68 0e 92 3b 00 00 00 00
       0.009918154 0.00753989 0.0044572838 0.0
0003c0 00 00 00 00 fa d8 b7 3b 25 f5 ab 3b d1 c2 5a 3b
       0.0 0.0056105824 0.0052477294 0.003338028
0003d0 00 00 00 00 00 00 00 00 90 ff ca 39 00 00 00 00
       0.0 0.0 0.0003871885 0.0
0003e0 00 00 00 00 00 00 00 00 00 00 00 00 c5 66 a3 39
       0.0 0.0 0.0 0.00031166352
0003f0 00 00 00 00 00 00 00 00 00 00 00 00 00 00 00 00
       0.0 0.0 0.0 0.0

exp_avg f4 [128]
000000 da 27 e0 3b 31 5f be bb e7 28 12 b1 81 6f 11 3b
       0.006840688 -0.0058096875 -2.1269047e-09 0.0022191706
000010 d4 fd c1 39 97 98 87 39 9e 30 8d 3c 01 78 b3 2b
       0.00037000945 0.00025862895 0.017235097 1.2752023e-12
000020 00 6c 34 3b 44 20 dd b9 e0 5a 27 3a d5 21 23 35
       0.0027530193 -0.00042176445 0.0006384086 6.0771464e-07
000030 a1 f3 32 3c 13 a2 f6 bb 8c 97 21 03 cd db f1 19
       0.0109223435 -0.007526645 4.7487615e-37 2.5007593e-23
000040 3a d9 c5 3a 81 b5 c0 2e 52 2e 1c 3b af 45 b0 36
       0.0015094646 8.763391e-11 0.002383132 5.253321e-06
000050 80 25 3c 27 d6 ab 8c b8 1c 2f c4 bc b9 06 ec 3c
       2.611057e-15 -6.707727e-05 -0.023948245 0.0288118
000060 e5 f2 95 22 e0 27 ba 3a 27 4e 61 bc 92 76 1e 38
       4.0643706e-18 0.0014202558 -0.013751543 3.7780563e-05
000070 26 c2 96 bb 6e 2e 06 3b a2 78 b2 ba 2b 8b 92 b8
       -0.004600781 0.0020474452 -0.0013616274 -6.9877446e-05
000080 b6 43 f0 3b 1d ed 88 ba 18 ff 73 3a c5 00 bf bb
       0.0073322905 -0.0010446642 0.0009307726 -0.005828949
000090 11 f7 f4 39 61 59 e8 3a 9f 49 c4 bc 10 58 23 bc
       0.00046723385 0.0017726832 -0.023960887 -0.009969726
0000a0 e4 90 65 bc 1d 18 0b 39 34 e4 03 3b 04 3f d4 37
       -0.014011595 0.00013265056 0.0020125033 2.5301713e-05
0000b0 ad cb 36 ba 70 6c 3e 3b 82 44 cd 1c 11 90 32 39
       -0.0006973099 0.0029056333 1.3583471e-21 0.00017029072
0000c0 52 4a 8e 3b a5 d3 cf b9 25 b7 87 33 6b a0 d4 bb
       0.0043423558 -0.00039639804 6.319741e-08 -0.00648885
0000d0 ff a2 13 2f 3e 52 c8 3a 5d b6 7c 34 d8 dd 9d 3b
       1.342748e-10 0.0015283299 2.3535672e-07 0.0048177056
0000e0 b5 3e 11 30 33 aa c5 bb 1f b1 be bb f8 41 89 3c
       5.2839805e-10 -0.006032252 -0.0058194543 0.01675509
0000f0 45 09 00 80 e0 9e e6 38 10 55 9d ba d3 41 44 19
       -3.325e-42 0.000109968474 -0.00120035 1.01462556e-23
000100 72 c9 26 3b bf ac cf 39 d9 6b 7e a2 cc 0e 80 3c
       0.002544966 0.00039610823 -3.4480513e-18 0.015632056
000110 fb 24 f8 3a 6b 72 41 ba 04 00 00 00 d1 ff d9 b9
       0.001893192 -0.00073794153 6e-45 -0.00041580063
000120 95 3c ea 3a 2d 92 b9 38 74 4e e2 3c 27 25 3b 35
       0.0017870838 8.848715e-05 0.0276253 6.971699e-07
000130 33 3e ea b5 98 64 9d bb 8d f8 32 bc 86 2d 36 3c
       -1.7452461e-06 -0.0048032515 -0.010923517 0.011119252
000140 af 7c 20 3c 7f 20 90 bc 84 05 32 3b 2a 7d 6f 3b
       0.009795352 -0.01759362 0.0027163932 0.003654311
000150 6b 9a ce 3b 7f ab c9 3b d0 14 d4 19 00 e4 01 33
       0.006305029 0.006154477 2.1928692e-23 3.0242518e-08
000160 1f 13 87 bc d8 34 c5 3c 7c c8 c5 3b 20 45 f3 35
       -0.01648861 0.02407305 0.0060358625 1.8125029e-06
000170 09 4d b8 3a 44 ce cc 3a b9 63 e9 bb d3 96 68 34
       0.0014061044 0.0015625437 -0.0071224836 2.1661553e-07
000180 d0 ef 33 3b 1a 28 2c 3c 6e 77 94 bb c5 48 77 3c
       0.0027456172 0.010507608 -0.0045308387 0.015093033
000190 e0 8c ee b7 51 1b 80 2f d3 5d c2 28 b6 33 df 9e
       -2.8437411e-05 2.3302474e-10 2.1579016e-14 -2.363243e-20
0001a0 2f aa 4b bc d5 6f d9 3b 61 46 a2 34 e6 d8 79 bb
       -0.012430712 0.006635646 3.022606e-07 -0.0038123666
0001b0 04 00 00 00 d4 5d 92 b9 45 ef 83 3b 7d f4 13 3c
       6e-45 -0.00027917197 0.004026326 0.0090304585
0001c0 11 d1 2f bc 70 6e 17 3a 02 b1 c1 15 c3 86 9e ad
       -0.010730998 0.00057766493 7.823135e-26 -1.8022367e-11
0001d0 3e ee 92 bb 0e 6d 8e bc 5a 94 5e 3b 5b ea 80 34
       -0.004483967 -0.017385986 0.0033962936 2.4012374e-07
0001e0 32 79 1f 3c 14 ba 40 ae d5 33 b9 3b 0f 43 cb bb
       0.009733485 -4.3821016e-11 0.005651931 -0.0062030624
0001f0 68 47 a6 38 17 42 24 38 35 e7 34 30 bd 4e 56 3c
       7.928797e-05 3.9162198e-05 6.5812183e-10 0.013080296

exp_avg_sq f4 [128]
000000 e9 96 a6 3c b8 c3 6d 3c 40 8d e5 39 b0 2e df 3b
       0.020335631 0.014511995 0.00043783523 0.0068109855
000010 16 e1 86 3a 7e 4b 8d 3c 44 9b 89 3c 04 28 50 39
       0.001029047 0.017247912 0.01679767 0.00019851333
000020 86 79 a4 3b d5 b4 81 3c 24 66 39 3c 41 32 cc 3a
       0.0050193695 0.015833298 0.011315856 0.0015578942
000030 87 83 10 3c cf 4c a6 3c 8d 2c 56 3a 48 55 37 3b
       0.008820421 0.020300297 0.0008170091 0.0027974416
000040 62 80 e8 39 29 15 5c 3a 0e 28 9c 3c 31 08 f1 3a
       0.0004434614 0.0008395487 0.019062068 0.0018389282
000050 85 86 f0 39 91 6c d3 3a 09 33 4e 3c 4b 0b a0 3c
       0.00045876592 0.0016130378 0.01258541 0.019536635
000060 ac 62 65 3a c3 91 ad 3b b2 33 05 3b 34 9d 17 3c
       0.000875036 0.005296917 0.0020325002 0.009253789
000070 46 38 9b 3c b7 70 aa 3b 99 f0 26 3c f1 34 21 3c
       0.018947732 0.005201425 0.010189199 0.009839282
000080 ad 84 7d 3c f3 52 91 3b bc 93 c6 3c 95 40 a0 3c
       0.015473527 0.004434937 0.024240367 0.019562045
000090 a2 a9 d9 3b 37 45 f7 3a 2f 15 8f 3c 02 31 0c 3c
       0.0066425363 0.0018865232 0.017466156 0.008556606
0000a0 b8 81 91 3c fb 3e 91 3a c8 1d 86 3b 56 e7 0c 3b
       0.01776205 0.0011081392 0.0040929057 0.0021500192
0000b0 a0 25 00 3c 52 43 e4 39 35 cd 40 3a 14 39 5d 3b
       0.0078214705 0.00043537706 0.0007354797 0.0033755945
0000c0 8e f9 4b 3c 36 85 fa 3b db f8 74 3c 9e 3a b6 3c
       0.012449635 0.0076452745 0.01495191 0.022244748
0000d0 a7 36 22 3c 91 07 0a 3c 6a ff 33 3c df cd 99 3c
       0.009900725 0.0084246555 0.010986188 0.018774925
0000e0 01 e7 5f 3b d9 27 51 3c e4 6b c0 3c 87 35 8b 3c
       0.0034164789 0.012765848 0.023488946 0.016993297
0000f0 a2 cf e0 38 47 9d bf 3a b9 dd b3 39 f4 9f 62 3a
       0.00010719827 0.0014619016 0.00034306737 0.00086450507
000100 8e 31 a1 3b 7b 83 5b 3b b5 65 75 39 ee ec de 3c
       0.0049192375 0.0033495117 0.0002340291 0.027212586
000110 48 d0 1d 3b 60 c4 92 3c b5 d4 0c 38 a9 c1 fa 3b
       0.0024080444 0.017915905 3.35767e-05 0.0076524806
000120 d6 ef 25 3b 9b 14 17 3a 4b 3b 89 3c 96 91 56 39
       0.0025319955 0.00057632633 0.016751906 0.00020462865
000130 e6 1e 0e 3a 77 66 1d 3c 55 7c 8a 3b 86 3b 46 3c
       0.00054214743 0.009606949 0.0042262473 0.012099152
000140 cf 54 2d 3c cd 08 60 3c 95 56 c5 3b 9a ca a4 3c
       0.010579302 0.013673973 0.0060222843 0.02011614
000150 1c 5b 42 3c 2b a4 69 3c f2 08 90 3a 4b 02 80 3a
       0.0118625425 0.014260332 0.0010988994 0.0009766308
000160 fa 4a 62 3c 9f 9d ca 3c 28 42 a8 3c 2a 5f 02 3b
       0.013811821 0.024733363 0.020539358 0.0019893148
000170 c2 08 80 3b c4 8b ce 3a f0 3c ed 3c c2 93 8a 38
       0.003907294 0.0015758206 0.028959721 6.607875e-05
000180 c2 ab 51 39 01 c4 b2 3c 41 25 56 3c 33 e8 90 3c
       0.00019995778 0.021821978 0.013070405 0.017688846
000190 c3 1f c8 3b 52 88 3f 3b d3 72 33 39 61 d4 27 3a
       0.006107302 0.002922554 0.00017113546 0.00064021914
0001a0 f8 40 01 3c 35 5c 90 3b 1a 79 2c 3b 93 fe b0 3a
       0.007889025 0.004405523 0.00263173 0.0013503603
0001b0 f1 20 0d 38 35 e5 ba 3a 6a ea 14 3a 46 7d 90 3b
       3.36477e-05 0.0014258983 0.00056806824 0.004409465
0001c0 43 65 a6 3c 06 74 a0 3c 61 69 d9 37 44 e9 b9 39
       0.020311957 0.019586574 2.5917487e-05 0.00035459746
0001d0 22 37 16 3c 43 15 5d 3c 26 18 41 3b 6e 9b e9 3b
       0.009168418 0.013493839 0.0029463856 0.0071291244
0001e0 be be 78 3c 77 ae 9f 38 45 71 3b 3c ca d5 c1 3c
       0.015182195 7.6142074e-05 0.01144058 0.023661513
0001f0 a3 e3 88 3b d9 db df 39 96 7f 7d 3c 8f ca 78 3c
       0.004177527 0.00042697674 0.015472313 0.0151850125
