weights/policy_checkpoint700.pt (torch, 522961 bytes, 12 tensors)

net.0.weight f4 [128, 142]
0.07130695 0.117067546 0.0054922095 0.15460177 0.03411637 0.11608996 0.036463946 0.09868125
0.06869759 -0.01883898 0.10217153 0.052158527 0.055164766 0.051150646 0.091721304 0.033921577
0.06783905 0.032516316 -0.024851168 0.03463821 -0.022456314 0.05400706 0.026416233 0.12249632
-0.043438572 -0.032651342 0.008650034 -0.05233157 0.018537007 -0.084321134 0.11615208 -0.030864472
0.09818173 0.041094564 -0.0016066036 0.08138536 0.028164078 0.10411263 0.049202006 0.019058047
0.106107384 0.024180755 0.10937331 0.10088094 0.080237284 0.011458736 0.11973863 0.06236575
0.11173091 0.050693005 -0.033403125 0.024692586 -0.010401088 0.15630318 0.102653325 0.12039953
0.044228856 0.06619666 0.1515969 0.013640175 0.0109969 -0.031971004 0.09696075 0.029567368
0.038534448 -0.015225876 0.07222264 -0.04732179 -0.053067174 -0.011091344 0.10457496 0.053762794
0.08075029 -0.06925565 -0.040391646 -0.045952003 -0.059526682 0.033990216 0.03004906 0.078879
-0.043337457 -0.057207987 0.04452513 -0.033920087 0.010157114 -0.019913828 0.04800503 -0.06520171
-0.042349268 0.10324405 0.10403069 0.03637962 0.100162126 0.10327461 -0.0053640236 0.009890147
0.12250542 -0.028316708 -0.029750356 -0.0024312772 0.0371398 0.08451879 -0.011076622 -0.060915
0.034956943 -0.05732293 -0.07119587 -0.046210583 -0.07344617 0.0052336017 0.08388532 0.015850035
0.025860189 -0.07826913 -0.015764685 -0.012648048 0.023544855 -0.043928407 -0.01434549 -0.048334304
0.015503555 -0.028578954 -0.0058151716 -0.056865424 -0.066372745 -0.06898417 -0.06807577 -0.06623498
0.07036283 -0.010345363 0.07220289 0.02614739 -0.071061626 0.058074307 0.0041936142 -0.03216801
-0.069657974 -0.083428115 0.024009872 0.006949841 0.107520014 -0.015351651 0.055990346 -0.07642104
-0.043346774 0.010853688 0.0523077 0.07609402 0.08030071 -0.036002394 0.026532192 -0.05763243
0.0030624743 -0.07389288 0.07187636 -0.055645034 0.07934292 0.02806956 0.054527327 0.013464865
0.1280698 0.04876815 0.036419835 -0.036811832 0.0733131 0.0074463044 -0.02943923 0.10919353
0.074377865 0.024245396 -0.0026952047 -0.0075579896 0.07213755 -0.011886392 -0.027565172 -0.031245476
-0.043188173 0.05626498 0.06005445 -0.09472411 0.045244236 0.0732424 0.06488984 -0.010265314
0.07066382 0.11169421 0.040533602 0.02803857 0.035881825 0.050255705 -0.0045166216 0.0072761197
0.07381113 0.088614024 -0.01957252 -0.0014786028 -0.017821524 -0.059932627 0.032658976 0.029666476
-0.0616974 -0.009858384 0.09311107 0.035898667 -0.022013532 -0.04313419 -0.03400716 -0.05920643
-0.013727073 0.04696865 0.09333133 0.04797712 -0.09461694 -0.05684664 -0.01324368 0.08117817
0.04548564 -0.02271274 0.05508708 -0.03196287 -0.05431649 0.049475495 -0.038157728 -0.016822796
-0.083482124 0.056163948 0.03649014 0.030583814 -0.058513954 -0.08282216 -0.06815655 0.023928244
0.03750943 0.06718757 0.030636417 -0.0006652568 -0.025701819 -0.067637354 -0.07702723 -0.078492716
0.034352895 -0.056201298 0.010481175 -0.07396796 -0.015291862 -0.059064515 -0.08978252 0.027836554
-0.024940168 0.051806293 -0.026921675 -0.11349542 -0.014806426 -0.0406791 -0.025674049 -0.0798897
00000000: 6109 923d 1cc1 ef3d fef7 b33b ed4f 1e3e
00000010: 9bbd 0b3d 93c0 ed3d 385b 153d 6519 ca3d
00000020: 52b1 8c3d 3454 9abc 4f3f d13d 2ea4 553d
00000030: 73f4 613d 5783 513d 61d8 bb3d 5af1 0a3d
00000040: 33ef 8a3d d42f 053d ad94 cbbc cce0 0d3d
00000050: 4ef6 b7bc 8236 5d3d db66 d83c 5adf fa3d
00000060: a5ec 31bd 6abd 05bd dfb8 0d3c a159 56bd
00000070: ecda 973c 8fb0 acbd 24e1 ed3d 7dd7 fcbc
00000080: 8113 c93d c652 283d ac94 d2ba 5ead a63d
00000090: 5ab8 e63c 0139 d53d 0b88 493d 9f1f 9c3c
000000a0: d44e d93d b816 c63c 1dff df3d ab9a ce3d
000000b0: 7253 a43d 6cbd 3b3c 8739 f53d 3b73 7f3d
000000c0: 2dd3 e43d 78a3 4f3d b7d1 08bd 1b48 ca3c
000000d0: 5369 2abc f10d 203e e83b d23d 0794 f63d
000000e0: 5129 353d 1d92 873d 383c 1b3e 0a7b 5f3c
000000f0: 572c 343c 07f4 02bd 5c93 c63d 4437 f23c
00000100: 4cd6 1d3d f475 79bc 77e9 933d 7ed4 41bd
00000110: f75c 59bd 78b8 35bc 662b d63d 6036 5c3d
00000120: 6860 a53d e8d5 8dbd b671 25bd 2b38 3cbd
00000130: 40d2 73bd 5339 0b3d 7229 f63c 508b a13d
00000140: 9e82 31bd ec52 6abd fc5f 363d caef 0abd
00000150: 066a 263c 5322 a3bc eca0 443d 7988 85bd
00000160: 6d76 2dbd 9e71 d33d 0b0e d53d cc02 153d
00000170: cd21 cd3d a481 d33d b1c4 afbb 480a 223c
00000180: 1fe4 fa3d 71f8 e7bc 05b7 f3bc 1056 1fbb
00000190: e71f 183d 3018 ad3d b87a 35bc 0282 79bd
000001a0: 032f 0f3d 73cb 6abd 24cf 91bd 4f47 3dbd
000001b0: f26a 96bd a27e ab3b 11cc ab3d efd7 813c
000001c0: bfd8 d33c 914b a0bd f124 81bc c239 4fbc
000001d0: 24e1 c03c 46ee 33bd 5909 6bbc 31fa 45bd
000001e0: 9f02 7e3c 691e eabc 328d bebb b8eb 68bd
000001f0: 6fee 87bd 9347 8dbd 4f6b 8bbd 35a6 87bd
00000200: 631a 903d 997f 29bc 1cdf 933d 0d33 d63c
00000210: c288 91bd 53df 6d3d 966a 893b 9ac2 03bd
00000220: d7a8 8ebd 5cdc aabd 5ab0 c43c 7ebb e33b
00000230: 7433 dc3d 7e85 7bbc 2256 653d a282 9cbd
00000240: 638c 31bd abd3 313c 9940 563d 2ed7 9b3d
00000250: b374 a43d 3f77 13bd 0a5a d93c fc0f 6cbd
00000260: cbb3 483b 2655 97bd ea33 933d 0cec 63bd
00000270: 8a7e a23d 22f2 e53c 0c58 5f3d bd9b 5c3c
00000280: bb24 033e 1dc1 473d f72c 153d 01c8 16bd
00000290: 2e25 963d 2100 f43b 8a2a f1bc dca0 df3d
000002a0: 6c53 983d 489e c63c 08a2 30bb 03a9 f7bb
000002b0: dabc 933d 24bf 42bc 5bd0 e1bc 83f6 ffbc
000002c0: 15e6 30bd 1c76 663d a8fb 753d b7fe c1bd
000002d0: 0552 393d 1d00 963d f7e4 843d d92f 28bc
000002e0: 31b8 903d efbf e43d 9006 263d 25b1 e53c
000002f0: d2f8 123d edd8 4d3d 2b00 94bb 846c ee3b
00000300: 4a2a 973d 457b b53d 8d56 a0bc adcd c1ba
00000310: 72fe 91bc ea7b 75bd 6bc5 053d 1c07 f33c
00000320: 6ab6 7cbd 0f85 21bc 04b1 be3d 7b0a 133d
00000330: b955 b4bc 7aad 30bd 184b 0bbd 7182 72bd
00000340: 84e7 60bc 3362 403d 7f24 bf3d a883 443d
00000350: 87c6 c1bd 06d8 68bd 05fc 58bc be40 a63d
00000360: 274f 3a3d 1110 babc fda2 613d 80eb 02bd
00000370: f87a 5ebd d1a6 4a3d 474b 1cbd f6cf 89bc
00000380: adf8 aabd 2b0c 663d af76 153d e88a fa3c
00000390: 54ac 6fbd aa9e a9bd a995 8bbd 2a05 c43c
000003a0: 7da3 193d a399 893d 39f9 fa3c a164 2eba
000003b0: 9f8c d2bc 7485 8abd 74c0 9dbd cac0 a0bd
000003c0: 9fb5 0c3d 5533 66bd 3cb9 2b3c 847c 97bd
000003d0: b88a 7abc a2ed 71bd e6df b7bd 7c09 e43c
000003e0: 534f ccbc d632 543d d88a dcbc 4970 e8bd
000003f0: a796 72bc 219f 26bd 6252 d2bc 369d a3bd

net.0.bias f4 [128]
0.12867282 0.0313693 0.022753235 0.07973569 0.049569987 0.08447657 -0.008967841 -0.066343084
0.04935693 0.08930226 0.04275587 0.024963235 -0.03722369 0.056734204 -0.073394656 -0.033393957
0.06770869 -0.06571684 -0.03476061 -0.03319246 0.018893518 -0.08846488 0.061444517 0.04650373
0.0020765346 0.04208035 0.02797796 -0.025506997 -0.03801379 0.057433642 -0.027064081 -0.021814084
0.059800554 0.050339162 0.04009295 0.014045843 -0.09547074 0.009116229 0.05476781 0.047362413
0.091339484 -0.07543087 0.048121296 0.060051817 -0.009010256 -0.036864243 -0.077015504 -0.013423681
-0.022335691 -0.069331825 -0.034896534 0.06482649 -0.025161788 0.06203165 0.07458967 -0.07586279
-0.034983467 0.056093853 0.01890251 0.06775394 -0.097285785 0.059275374 0.017373046 -0.07132992
0.026304169 0.04955439 0.019754311 0.071159884 -0.02419316 -0.014317772 -0.0823021 0.062106047
0.01598817 0.014855195 0.00045562902 -0.09177999 -0.018143803 0.03530143 0.05613622 0.009677428
0.03934248 -0.00021054225 -0.014373533 0.1376693 0.038994443 0.11664387 -0.09570532 -0.01942051
-0.012485592 0.10569754 0.053890124 -0.014457793 0.033144522 -0.037462566 0.015232871 0.028936526
-0.07448435 0.03773025 0.021465143 -0.038725756 -0.05699918 -0.08695153 -0.07718781 -0.05313286
0.023164684 0.034684982 0.017798258 -0.014421837 -0.09059925 -0.098335706 0.055336077 0.02661579
0.09564869 -0.028410507 -0.07047545 -0.033616994 0.06492808 -0.0808065 -0.05092417 -0.03789928
0.044464216 -0.02965511 -0.037511986 0.07324866 -0.08534468 -0.030458413 -0.03314573 -0.00683789
00000000: cfc2 033e 187d 003d fe64 ba3c 774c a33d
00000010: e609 4b3d 0d02 ad3d daed 12bc e2de 87bd
00000020: 7e2a 4a3d 1ae4 b63d c720 2f3d b37f cc3c
00000030: de77 18bd 2062 683d f04f 96bd 1ac8 08bd
00000040: dbaa 8a3d 8d96 86bd 2461 0ebd d1f4 07bd
00000050: 94c6 9a3c 132d b5bd 3fad 7b3d b27a 3e3d
00000060: 7816 083b 725c 2c3d 0932 e53c 0df4 d0bc
00000070: 59b4 1bbd 8a3f 6b3d 7eb5 ddbc 73b3 b2bc
00000080: 6df1 743d 7030 4e3d 8138 243d 8920 663c
00000090: 2a86 c3bd 3c5c 153c 3654 603d 17ff 413d
000000a0: 3210 bb3d 807b 9abd d61a 453d e5f8 753d
000000b0: c19f 13bc f6fe 16bd 4eba 9dbd 00ef 5bbc
000000c0: 57f9 b6bc d8fd 8dbd abef 0ebd c0c3 843d
000000d0: 1820 cebc e614 7e3d 78c2 983d f35d 9bbd
000000e0: d34a 0fbd abc2 653d 70d9 9a3c 94c2 8a3d
000000f0: c53d c7bd bcca 723d eb51 8e3c 6c15 92bd
00000100: d77b d73c 8bf9 4a3d cbd3 a13c 46bc 913d
00000110: bc30 c6bc 1795 6abc 018e a8bd e962 7e3d
00000120: 9ff9 823c 3463 733c 7ee1 ee39 26f7 bbbd
00000130: 50a2 94bc 3b98 103d 18ef 653d 138e 1e3c
00000140: 9525 213d 01c5 5cb9 f87e 6bbc 2ef9 0c3e
00000150: a3b8 1f3d fbe2 ee3d 2701 c4bd c317 9fbc
00000160: 5e90 4cbc f477 d83d e4bb 5c3d 61e0 6cbc
00000170: 8dc2 073d 5972 19bd 4b93 793c 4b0c ed3c
00000180: 408b 98bd 098b 1a3d abd7 af3c e69e 1ebd
00000190: f977 69bd a513 b2bd a414 9ebd d8a1 59bd
000001a0: ddc3 bd3c d711 0e3d a7cd 913c 9249 6cbc
000001b0: 198c b9bd 3b64 c9bd 15a8 623d 5b09 da3c
000001c0: 76e3 c33d 27bd e8bc 6f55 90bd f9b1 09bd
000001d0: 03f9 843d e17d a5bd dd95 50bd 473c 1bbd
000001e0: 1c20 363d 46ef f2bc 2ba6 19bd 6503 963d
000001f0: 31c9 aebd ec83 f9bc d1c3 07bd 6110 e0bb

net.2.weight f4 [192, 128]
-0.03749483 -0.06552535 0.15263404 -0.11735529 -0.046489153 -0.057487667 -0.09557969 0.08748322
0.033552866 0.05413791 0.035024274 0.0028494084 0.011823864 -0.04703858 0.054018434 -0.003566105
0.09813954 0.0356884 -0.095053494 0.04527794 0.08915178 -0.03354617 -0.02704849 -0.12550032
0.029785587 -0.096748665 -0.11181995 0.027182937 -0.033244085 0.07605113 -0.10290634 -0.0964074
-0.07440751 0.0024464345 -0.09883893 -0.17214651 -0.06729506 -0.04928923 0.029737784 0.040632747
-0.118239075 -0.07962468 0.052020352 -0.075336784 -0.108949244 0.080458224 -0.075187705 0.0024026618
-0.08747578 -0.099642776 -0.101238355 -0.10774739 -0.09464058 -0.09505468 -0.056131825 -0.10366532
0.043219708 -0.1142466 -0.0738202 0.0094019575 -0.07046495 -0.031921275 -0.074992776 -0.064986795
0.019603672 0.059584264 0.0043163174 0.01771938 0.0054722643 -0.12019173 -0.079160035 -0.004228195
-0.09786538 0.13463446 -0.05296279 0.05781645 -0.030212158 -0.03459764 -0.10960534 0.10189338
-0.107623346 0.024765044 -0.047653638 -0.02945256 -0.06426204 -0.008383275 0.067452766 -0.08975409
-0.08012599 0.037486494 0.019390156 -0.071496785 -0.0047767027 0.056891855 -0.0776375 0.049508817
-0.086097255 -0.03679247 -0.034333054 -0.09459576 -0.066181585 -0.122850426 0.07018271 -0.040986262
0.14192206 0.023539517 -0.007892855 -0.012713486 -0.025061034 -0.042402547 0.07059436 -0.046769805
0.0041662096 -0.13905592 -0.034859814 0.07208232 0.008426186 -0.11969454 -0.08451557 0.016558357
-0.045970734 0.14199144 -0.13754742 -0.004912826 -0.13452522 0.107748434 -0.112743676 -0.04534861
0.0013202826 0.01706955 -0.026030129 -0.02650559 0.06089379 -0.055804357 0.033859633 0.03519268
0.017117647 -0.034627862 0.088312626 0.004718518 -0.024045872 0.012290128 -0.04910285 0.009967081
0.062619954 0.011048588 -0.005521933 -0.024865104 -0.071473695 -0.023392865 0.07591884 0.05454607
-0.04426124 0.027687108 0.02090786 0.062508725 0.05974809 -0.032890435 -0.0040882565 0.12552285
0.015085801 -0.04743086 -0.04819822 -0.047703702 -0.07325178 -0.04353173 0.03989986 -0.0079403715
0.05016352 -0.06782511 0.11104575 0.031003235 -0.06787232 -0.020169241 0.019017944 -0.05699224
0.016157951 0.060457423 -0.055088867 -0.023852512 0.075961545 -0.03590457 -0.043029074 0.0072013238
-0.06470092 0.052414376 -0.049600765 0.028684039 -0.0091831 -0.027577795 -0.034303483 0.06186325
-0.055821396 0.06891029 0.041145567 -0.05755524 0.067389615 0.05238607 -0.055045065 0.008792553
0.035502166 -0.0077446005 0.07584218 -0.019891517 -0.035620455 0.032129154 -0.0029592502 0.109706596
-0.08281619 -0.034089647 -0.03742167 0.01403514 -0.017344689 -0.05759662 -0.05218415 -0.03330159
-0.071784526 0.036815617 0.08287375 -0.039342407 0.093351424 0.0893513 -0.035834406 0.04201593
0.0078053395 0.08394799 -0.010720947 -0.031819683 0.07222989 -0.121398255 0.02117908 -0.0725304
0.00035829053 0.00032509907 -0.07333286 -0.028111042 -0.022713212 -0.0042860615 0.024860065 -0.06683179
0.08200429 -0.024503058 0.019757675 0.027003193 -0.05550526 0.006668748 -0.08592874 0.028743902
-0.025389576 -0.07610084 0.019093558 -0.07359284 -0.06178536 -0.064830154 -0.017901216 -0.0052714823
00000000: 2e94 19bd 2832 86bd 194c 1c3e f857 f0bd
00000010: 696b 3ebd 3078 6bbd 49bf c3bd 672a b33d
00000020: bb6e 093d b7bf 5d3d 9d75 0f3d 24bd 3a3b
00000030: e1b8 413c 87ab 40bd 6f42 5d3d 50b5 69bb
00000040: 62fd c83d 002e 123d 68ab c2bd 5c75 393d
00000050: 3595 b63d b567 09bd cb94 ddbc 2883 00be
00000060: e700 f43c 2a24 c6bd dc01 e5bd c0ae de3c
00000070: f32a 08bd b2c0 9b3d 8fc0 d2bd 3e71 c5bd
00000080: f762 98bd 5c54 203b 116c cabd 2d47 30be
00000090: fed1 89bd 81e3 49bd a79c f33c 866e 263d
000000a0: 5427 f2bd 4412 a3bd 4b13 553d 2c4a 9abd
000000b0: c820 dfbd 48c7 a43d 03fc 99bd fa75 1d3b
000000c0: 8026 b3bd 8311 ccbd 0e56 cfbd aaaa dcbd
000000d0: ecd2 c1bd 07ac c2bd 7cea 65bd 7c4e d4bd
000000e0: 2607 313d 1ffa e9bd 0c2f 97bd ab0a 1a3c
000000f0: ed4f 90bd e2bf 02bd d095 99bd cc17 85bd
00000100: e197 a03c a10e 743d e56f 8d3b 3c28 913c
00000110: ae50 b33b 1527 f6bd a81e a2bd ac8c 8abb
00000120: a56d c8bd 9edd 093e 83ef 58bd f1d0 6c3d
00000130: 7d7f f7bc 41b6 0dbd c478 e0bd 7aad d03d
00000140: a169 dcbd 10e0 ca3c 7630 43bd 7f46 f1bc
00000150: d19b 83bd 015a 09bc ad24 8a3d fed0 b7bd
00000160: 1819 a4bd 708b 193d 1bd8 9e3c e86c 92bd
00000170: e385 9cbb 6f07 693d 6900 9fbd c2c9 4a3d
00000180: c253 b0bd b3b3 16bd d1a0 0cbd 6cbb c1bd
00000190: 368a 87bd 0199 fbbd f4bb 8f3d 36e1 27bd
000001a0: 0454 113e f2d5 c03c 0951 01bc 3a4c 50bc
000001b0: cc4c cdbc 4bae 2dbd c793 903d b291 3fbd
000001c0: b384 883b ad64 0ebe 2ac9 0ebd e59f 933d
000001d0: fc0d 0a3c 6922 f5bd 8016 adbd 64a5 873c
000001e0: cf4b 3cbd 3466 113e 3bd9 0cbe c6fb a0bb
000001f0: fbc0 09be 36ab dc3d 28e6 e6bd 77bf 39bd
00000200: 550d ad3a 71d5 8b3c 233d d5bc 4022 d9bc
00000210: c46b 793d 1c93 64bd 66b0 0a3d 3326 103d
00000220: 4f3a 8c3c f2d5 0dbd 40dd b43d cc9d 9a3b
00000230: d9fb c4bc 885c 493c 1220 49bd f84c 233c
00000240: e43e 803d 2305 353c 55f1 b4bb e7b1 cbbc
00000250: cd60 92bd 65a2 bfbc 567b 9b3d b36b 5f3d
00000260: 464b 35bd 13d0 e23c f646 ab3c 9304 803d
00000270: 6aba 743d 1fb8 06bd c8f6 85bb 1089 003e
00000280: 6f2a 773c dd46 42bd 7f6b 45bd f564 43bd
00000290: 0705 96bd 544e 32bd 096e 233d 5518 02bc
000002a0: 4378 4d3d e4e7 8abd f46b e33d 7ffa fd3c
000002b0: a500 8bbd f739 a5bc 85cb 9b3c b270 69bd
000002c0: ae5d 843c 34a2 773d dda4 61bd 5866 c3bc
000002d0: ba91 9b3d ac10 13bd 413f 30bd 15f9 eb3b
000002e0: ea81 84bd 75b0 563d 2c2a 4bbd cafa ea3c
000002f0: b774 16bc d4ea e1bc cf81 0cbd 5264 7d3d
00000300: faa4 64bd d720 8d3d 4188 283d 0bbf 6bbd
00000310: 9103 8a3d c792 563d ef76 61bd a40e 103c
00000320: b86a 113d 6bc6 fdbb 2553 9b3d 89f3 a2bc
00000330: c1e6 11bd dc99 033d fbef 41bb daad e03d
00000340: 899b a9bd 96a1 0bbd 7747 19bd a5f3 653c
00000350: 7316 8ebc 6fea 6bbd 0cbf 55bd 3f67 08bd
00000360: c403 93bd f9cb 163d b6b9 a93d 8125 21bd
00000370: 082f bf3d d0fd b63d 19c7 12bd e518 2c3d
00000380: efc3 ff3b ecec ab3d e9a6 2fbc 5b55 02bd
00000390: 44ed 933d a69f f8bd c07f ad3c d18a 94bd
000003a0: f1d8 bb39 0f72 aa39 8a2f 96bd 2149 e6bc
000003b0: 0f11 babc 1772 8cbb 56a7 cb3c 1bdf 88bd
000003c0: ddf1 a73d a3ba c8bc d9da a13c cd35 dd3c
000003d0: 7c59 63bd 8385 da3b 68fb afbd 5578 eb3c
000003e0: cdfd cfbc c2da 9bbd 186a 9c3c d8b7 96bd
000003f0: a512 7dbd acc5 84bd 92a5 92bc 66bc acbb

net.2.bias f4 [192]
-0.0072049536 0.04364542 0.047203664 0.020149387 0.027271448 -0.004806415 0.028354647 -0.022897925
-0.09131567 0.0039705127 0.043366417 -0.052428644 0.016557043 0.00086580886 -0.03562334 0.06826354
0.056031242 0.014081883 0.036939424 0.1478954 0.012276873 0.026519384 -0.007683616 0.11615712
0.04527439 0.062145494 0.036787465 0.14559452 0.032483097 0.018953953 -0.03557052 0.041709375
0.016628506 0.02214801 0.07174076 0.05478002 0.02552313 0.05748087 -0.060478363 -0.0020384253
-0.052211743 -0.028337304 0.05698973 0.11362533 -0.023266355 -0.0053274725 -0.056170743 0.0032435944
0.05846808 -0.03886619 0.024403617 0.1028899 0.030727742 -0.016548991 0.10164724 -0.019740067
0.024228241 -0.08037867 -0.0045756046 -0.026771162 0.0044266046 0.011574531 0.06913912 -0.025200706
-0.065966986 -0.029783567 -0.058079597 -0.035731036 -0.032352988 -0.06281774 0.051654473 -0.07414243
-0.018456502 0.016307788 0.02003574 0.046211112 0.004759924 0.059564088 0.051966764 0.0302053
0.049667176 0.006410469 0.034378506 -0.00076557515 -0.020926904 -0.029209718 0.04512825 0.06910513
-0.05547814 0.081352904 0.04681081 0.07812798 -0.03636805 0.0864227 0.0060641835 0.11986184
0.014023818 -0.07536042 -0.08815331 -0.01983011 0.018269332 -0.039112475 -0.009768475 -0.0696989
0.11970693 -0.0017341751 0.061508972 -0.016173627 0.062276296 0.051040445 0.0378239 -0.012847019
-0.04545135 0.104959175 0.09485673 0.06513603 0.09761743 -0.10981582 0.02933616 -0.03422872
-0.09083603 0.07510617 0.007293297 0.009595756 0.023186788 -0.03462341 0.024543121 0.059038978
-0.017510904 0.06820138 -0.05652671 -0.016346069 -0.015130545 -0.0011429077 -0.08218192 0.04650947
0.0018453824 0.10709791 -0.0048702294 0.022509241 -0.069479816 -0.048784785 0.00041379174 0.021597518
0.09745753 -0.022738632 -0.042595156 0.11577664 0.13853194 -0.034381166 0.02049238 0.128966
0.06325855 0.05040155 0.11127163 0.056573983 0.038291767 0.0508545 0.083742015 0.12876835
-0.027220346 0.03628008 -0.09374633 -0.020391567 0.028140722 -0.098290615 0.03847325 0.082726724
0.04198926 0.108696215 -0.04669702 0.090655334 -0.047337987 -0.028114734 0.011645376 0.0052694604
-0.017126625 0.120275475 0.048391063 0.013972361 0.08936199 -0.050239142 0.05084716 -0.0023924909
-0.059905697 0.04802414 0.023370897 -0.03874177 -0.008269844 0.04100186 0.048825987 -0.05660052
00000000: 8817 ecbb 8ac5 323d a158 413d 5410 a53c
00000010: 5f68 df3c 227f 9dbb 0148 e83c 6e94 bbbc
00000020: b603 bbbd 131b 823b fca0 313d 6bbf 56bd
00000030: a3a2 873c 73f7 623a c8e9 11bd c1cd 8b3d
00000040: 0481 653d b3b7 663c cb4d 173d e471 173e
00000050: f024 493c 2e3f d93c d8c6 fbbb c9e3 ed3d
00000060: a471 393d 468c 7e3d 74ae 163d bb16 153e
00000070: ff0c 053d 5245 9b3c 65b2 11bd 73d7 2a3d
00000080: 8138 883c be6f b53c d2ec 923d 0461 603d
00000090: e215 d13c 1071 6b3d 29b8 77bd 1a97 05bb
000000a0: fbdb 55bd a223 e8bc 106e 693d 66b4 e83d
000000b0: 1599 bebc 1492 aebb 4b13 66bd 7c92 543b
000000c0: 3a7c 6f3d 2732 1fbd 18ea c73c f1b7 d23d
000000d0: bfb8 fb3c c091 87bc 6e2c d03d ecb5 a1bc
000000e0: 4e7a c63c 929d a4bd f4ee 95bb 324f dbbc
000000f0: 0d0d 913b 1aa3 3d3c d098 8d3d b671 cebc
00000100: b319 87bd abfc f3bc dfe4 6dbd b55a 12bd
00000110: 9184 04bd 96a6 80bd a493 533d fdd7 97bd
00000120: 1732 97bc e997 853c fe21 a43c dd47 3d3d
00000130: 23f9 9b3b 79f9 733d 1adb 543d 1b71 f73c
00000140: cf6f 4b3d e90e d23b 7ad0 0c3d e1b0 48ba
00000150: e66e abbc 3849 efbc 66d8 383d fe86 8d3d
00000160: 0c3d 63bd 5a9c a63d b1bc 3f3d 9001 a03d
00000170: aaf6 14bd 62fe b03d 0fb6 c63b 207a f53d
00000180: 28c4 653c 9056 9abd b989 b4bd c172 a2bc
00000190: 91a9 953c 6734 20bd f40b 20bc 4cbe 8ebd
000001a0: e828 f53d 434d e3ba d5f0 7b3d 8e7e 84bc
000001b0: 6e15 7f3d c90f 513d 3ced 1a3d 4e7c 52bc
000001c0: 322b 3abd d6f4 d63d 3f44 c23d 0a66 853d
000001d0: a6eb c73d 1ee7 e0bd 6352 f03c 6a33 0cbd
000001e0: 3e08 babd 43d1 993d 9cfc ee3b 8537 1d3c
000001f0: 38f2 bd3c 47d1 0dbd a80e c93c dbd2 713d
00000200: 0773 8fbc 2aad 8b3d 8d88 67bd 31e8 85bc
00000210: 1be6 77bc 9ecd 95ba ff4e a8bd b780 3e3d
00000220: c2e0 f13a 2656 db3d 7296 9fbb 4d65 b83c
00000230: 6f4b 8ebd 8ed2 47bd 30f2 d839 47ed b03c
00000240: d097 c73d 5e46 babc 4278 2ebd 4e1c ed3d
00000250: 51db 0d3e 44d3 0cbd a3df a73c aa0f 043e
00000260: b38d 813d db71 4e3d 61e2 e33d 1fba 673d
00000270: d4d7 1c3d cf4c 503d ef80 ab3d dadb 033e
00000280: 34fd debc 6c9a 143d 13fe bfbd 370c a7bc
00000290: 5f87 e63c 974c c9bd 2096 1d3d a16c a93d
000002a0: eefc 2b3d 1f9c de3d 6045 3fbd 81a9 b93d
000002b0: 7ae5 41bd df50 e6bc 3fcc 3e3c 70ab ac3b
000002c0: 234d 8cbc fd52 f63d b535 463d 54ec 643c
000002d0: 6b03 b73d 8fc7 4dbd 1d45 503d 56cb 1cbb
000002e0: ad5f 75bd f6b4 443d 5374 bf3c b1af 1ebd
000002f0: 3d7e 07bc 91f1 273d c2fd 473d f2d5 67bd

exp_avg f4 [128, 142]
-0.030104708 -0.041840196 -0.030692605 -0.0412286 -0.032207 -0.03308981 -0.034866363 -0.011815202
-0.030134192 -0.031612765 -0.031396385 -0.060376618 -0.06134898 -0.060509242 -0.063545205 -0.0013790244
-0.04196679 -0.034883723 -0.034885004 -0.022914419 -0.026152048 -0.0121700615 -0.0038394346 -0.013344195
-0.01823321 -0.019685257 -0.010491377 -0.0460231 -0.04643269 -0.05563248 0.0023542866 -0.05807893
-0.04484792 -0.05666245 -0.057285365 -0.057669792 -0.046726335 -0.057229917 -0.0006032361 -0.011246479
-0.04487491 -0.056529645 -0.055780813 -0.0043175546 -0.0010669682 -0.00023490402 -0.013351685 -0.045769602
-0.00088440016 -0.05613911 -0.057049256 -0.053690467 -0.05043056 -0.04976601 -0.06085286 -0.058527447
-0.00012556372 -0.010452211 -0.057483733 -0.047815904 -0.04732692 -0.046267908 -0.057989806 -0.052695494
-0.037416805 0.00026277947 0.0008768463 0.0036674347 0.0040335828 -0.043287292 -0.012672793 -0.0037682182
0.0 0.0 -0.003370692 -0.002459254 -0.0009958972 0.0 0.0 -1.4753136e-10
0.0 0.0 0.0 0.0 1.2679438e-10 0.0 0.0 0.0
0.0 -0.06676772 -0.06626339 -0.06358016 -0.018048372 -0.00019247131 -0.018859169 -0.018870857
-0.017608708 0.0 0.0 -0.013525936 -0.012825887 -0.011728887 0.0 0.0
5.6680787e-05 0.0 0.0 0.0 0.0 -0.0006958988 0.0 0.0
0.0 0.0 -0.06891396 -0.06713874 -0.056106362 -0.02730879 -0.02730879 -0.008067601
-0.0440498 -0.0020068157 0.0 0.0 -0.0076019 -0.011056626 -2.2845888e-05 0.0
0.0 -0.0009131169 0.0 0.0 0.0 0.0 -0.00091313786 0.0
0.0 0.0 0.0 -0.080365114 -0.013949335 -0.060143515 0.015109458 0.0147045655
0.016279489 0.013953944 0.021738784 0.021662164 0.0217759 -0.0014850661 0.015146151 0.025010709
0.01639448 -0.014391061 -0.009124814 -0.009202169 -0.009098576 0.00027317659 -0.039625276 -0.019407362
-0.019408334 -0.02604858 -0.02094908 0.0051658666 0.0051561594 0.0053950665 -0.013354144 -0.011555446
-0.0021819915 -0.00675125 -0.009028728 -0.008978473 -0.01413031 -0.009784487 -0.016506629 -0.016835209
-0.01724646 -0.014952441 -0.010132719 -0.008668483 -0.0017234324 -0.001694731 -0.009338751 -0.00938425
-0.011218517 0.002455541 -0.0019510771 -0.0019265168 0.00046365728 -0.009605793 -2.8167295e-05 -0.017329449
-0.017371569 -0.011549769 -0.015945612 -0.0135201365 -0.010322375 -0.008073911 -0.00030232107 -0.0021574462
-0.016922604 -0.015406044 -0.015068521 -0.015083124 -0.014741609 -0.012554671 0.004548712 0.0017304611
0.0030208013 0.0031121145 0.002952383 -0.00041330035 -0.016321603 -9.988154e-05 0.0 0.0
0.0032236166 -7.429237e-05 -5.371179e-05 0.0 0.0 4.038412e-10 0.0 0.0
0.0 0.0 9.14248e-11 0.0 0.0 0.0 0.0 -0.011730832
-0.01071267 -0.012529219 0.014855941 -5.960203e-05 0.005201155 0.005936996 0.0027566468 0.0
0.0 -0.0016097538 -0.00053601956 -0.0011342131 0.0 0.0 -0.00041165462 0.0
0.0 0.0 0.0 -0.00041164193 0.0 0.0 0.0 0.0
00000000: 269e f6bc a060 2bbd 0f6f fbbc 52df 28bd
00000010: 7deb 03bd 2e89 07bd 08d0 0ebd 8d94 41bc
00000020: fbdb f6bc 637c 01bd 7f99 00bd 794d 77bd
00000030: 1149 7bbd 8ad8 77bd fd23 82bd 61c0 b4ba
00000040: 5ee5 2bbd 3ce2 0ebd 94e3 0ebd 05b7 bbbc
00000050: d23c d6bc f064 47bc 069f 7bbb 9ca1 5abc
00000060: d05d 95bc fa42 a1bc 06e4 2bbc b882 3cbd
00000070: 3430 3ebd e2de 63bd 604a 1a3b 2ce4 6dbd
00000080: 74b2 37bd e316 68bd 0fa4 6abd 2937 6cbd
00000090: 1d64 3fbd eb69 6abd 7d22 1eba 2743 38bc
000000a0: c1ce 37bd a18b 67bd 6c7a 64bd 467a 8dbb
000000b0: 83d9 8bba 9150 76b9 07c1 5abc e878 3bbd
000000c0: 17d7 67ba 20f2 65bd 7bac 69bd 89ea 5bbd
000000d0: 4690 4ebd 72d7 4bbd d940 79bd 7aba 6fbd
000000e0: c1a9 03b9 c03f 2bbc 1074 6bbd 9cda 43bd
000000f0: dfd9 41bd 6b83 3dbd b886 6dbd 3bd7 57bd
00000100: 5d42 19bd aac5 8939 29dc 653a 5859 703b
00000110: 252c 843b 044e 31bd 8ca1 4fbc 36f4 76bb
00000120: 0000 0000 0000 0000 d4e6 5cbb 702b 21bb
00000130: c488 82ba 0000 0000 0000 0000 6336 22af
00000140: 0000 0000 0000 0000 0000 0000 0000 0000
00000150: 7269 0b2f 0000 0000 0000 0000 0000 0000
00000160: 0000 0000 84bd 88bd 1ab5 87bd 5136 82bd
00000170: 2eda 93bc 20d2 49b9 8b7e 9abc 0e97 9abc
00000180: 2340 90bc 0000 0000 0000 0000 e39b 5dbc
00000190: ab23 52bc 852a 40bc 0000 0000 0000 0000
000001a0: 88bc 6d38 0000 0000 0000 0000 0000 0000
000001b0: 0000 0000 fa6c 36ba 0000 0000 0000 0000
000001c0: 0000 0000 0000 0000 c322 8dbd 0980 89bd
000001d0: c9cf 65bd afb6 dfbc afb6 dfbc f92d 04bc
000001e0: 906d 34bd c884 03bb 0000 0000 0000 0000
000001f0: 5c19 f9bb da26 35bc 2ca5 bfb7 0000 0000
00000200: 0000 0000 3d5e 6fba 0000 0000 0000 0000
00000210: 0000 0000 0000 0000 a55f 6fba 0000 0000
00000220: 0000 0000 0000 0000 0000 0000 7796 a4bd
00000230: c08b 64bc 0c59 76bd a98d 773c 6beb 703c
00000240: 905c 853c 159f 643c 8915 b23c da74 b13c
00000250: 5f63 b23c 8da6 c2ba 9027 783c 42e3 cc3c
00000260: b74d 863c 7cc8 6bbc 3e80 15bc b2c4 16bc
00000270: 3212 15bc 2439 8f39 1d4e 22bd 30fc 9ebc
00000280: 3afe 9ebc d563 d5bc 689d abbc 6e46 a93b
00000290: 00f5 a83b 19c9 b03b 57cb 5abc 0e53 3dbc
000002a0: beff 0ebb 9739 ddbb 3bed 13bc 721a 13bc
000002b0: d182 67bc 1d4f 20bc e938 87bc fee9 89bc
000002c0: 7348 8dbc 15fb 74bc b403 26bc 4106 0ebc
000002d0: cce4 e1ba bc21 deba 9001 19bc 66c0 19bc
000002e0: dfcd 37bc 24ed 203b 49bb ffba 2d83 fcba
000002f0: 0717 f339 9e61 1dbc ce48 ecb7 7df6 8dbc
00000300: d24e 8ebc 3e3b 3dbc 5fa0 82bc 9083 5dbc
00000310: 2e1f 29bc 7048 04bc d980 9eb9 f163 0dbb
00000320: 46a1 8abc a269 7cbc f5e1 76bc 351f 77bc
00000330: ca86 71bc 1bb2 4dbc 5d0d 953b a4d0 e23a
00000340: a3f8 453b 9ef4 4b3b c47c 413b 3cb0 d8b9
00000350: e2b4 85bc 7e77 d1b8 0000 0000 0000 0000
00000360: 5043 533b 6acd 9bb8 9848 61b8 0000 0000
00000370: 0000 0000 9903 de2f 0000 0000 0000 0000
00000380: 0000 0000 0000 0000 960b c92e 0000 0000
00000390: 0000 0000 0000 0000 0000 0000 ad32 40bc
000003a0: 3284 2fbc 5a47 4dbc 5566 733c 31fd 79b8
000003b0: 736e aa3b 228b c23b dca8 343b 0000 0000
000003c0: 0000 0000 60fe d2ba aa83 0cba e0a9 94ba
000003d0: 0000 0000 0000 0000 59d3 d7b9 0000 0000
000003e0: 0000 0000 0000 0000 0000 0000 a5d1 d7b9
000003f0: 0000 0000 0000 0000 0000 0000 0000 0000

exp_avg_sq f4 [128, 142]
0.00615934 0.007815463 0.0044445344 0.004831429 0.0056191245 0.005676487 0.008656874 0.008637221
0.007024091 0.008121227 0.007447449 0.008476765 0.0069074566 0.004521131 0.005697339 0.004760369
0.0036712477 0.0106962025 0.009047381 0.005226919 0.008673948 0.008549291 0.010190597 0.010416261
0.008062804 0.008601676 0.008814126 0.007606755 0.00996504 0.00770096 0.008250112 0.008742493
0.00746037 0.006909086 0.009665436 0.008357104 0.0079349615 0.0078822095 0.0084125195 0.007919572
0.007956687 0.0072587635 0.009333368 0.0077781854 0.00892434 0.009649994 0.007710082 0.007833713
0.0083793 0.0073396047 0.0061493968 0.0071483357 0.0067669638 0.0053622676 0.010315346 0.007918012
0.0064472705 0.007462127 0.010831695 0.0099325 0.005940205 0.0034905525 0.0082216095 0.0043051904
0.006593615 0.004140596 0.003828615 0.0012014203 0.0006525212 0.004499017 0.00371152 0.0018660418
0.0 0.0 0.002048885 0.002637415 0.000923517 0.0 0.0 0.00031699447
0.0 0.0 0.0 0.0 0.0001784779 0.0 0.0 0.0
0.0 0.0111269 0.0104311835 0.008395084 0.0006608586 0.00025647972 0.010128596 0.008051123
0.005416929 0.0 0.0 0.008815501 0.006890946 0.005014097 0.0 0.0
0.0012157076 0.0 0.0 0.0 0.0 0.0004507515 0.0 0.0
0.0 0.0 0.010778244 0.009823187 0.0065820725 0.0006170302 0.0005733968 0.009126774
0.009243638 0.0070059444 0.0 0.0 0.0056553385 0.003992628 0.0026770774 0.0
0.0 0.0009334952 0.0 0.0 0.0 0.0 0.00091353565 0.0
0.0 0.0 0.0 0.037671726 0.013025005 0.10831656 0.006034611 0.007084719
0.0062995264 0.0054570693 0.006736567 0.007217708 0.008102617 0.007017869 0.0057397583 0.0077686985
0.007815467 0.007390136 0.006496726 0.006848335 0.006446239 0.0062258537 0.0042049573 0.008593037
0.0074723377 0.005320327 0.006091388 0.0057993704 0.008537834 0.008945947 0.0062797903 0.007587574
0.007928936 0.006900362 0.009692866 0.0066426843 0.007095093 0.008107166 0.007809689 0.006645923
0.009110378 0.008859056 0.008931075 0.0074487575 0.007455908 0.007176336 0.007973772 0.006973636
0.008730633 0.00897164 0.009565855 0.010231066 0.009090541 0.0063147806 0.007949076 0.0089981025
0.006292507 0.0074555106 0.0036877957 0.0044599352 0.0064500086 0.0051134285 0.006186811 0.008028306
0.007807509 0.008534911 0.0033990885 0.0035727443 0.0048347577 0.0029534409 0.0077221994 0.0065340614
0.004367225 0.001369497 0.00033547147 0.005512428 0.004381515 0.002997101 0.0 0.0
0.003961903 0.0036205172 0.0020375145 0.0 0.0 0.000373019 0.0 0.0
0.0 0.0 8.519693e-05 0.0 0.0 0.0 0.0 0.01030834
0.009533157 0.007960469 0.00045327222 0.00029078356 0.00969792 0.008135241 0.006265979 0.0
0.0 0.00603687 0.005223404 0.0046128747 0.0 0.0 0.0004970471 0.0
0.0 0.0 0.0 0.00042020157 0.0 0.0 0.0 0.0
00000000: 4ad4 c93b 6d0c 003c 75a3 913b f750 9e3b
00000010: a220 b83b d301 ba3b 90d5 0d3c 2183 0d3c
00000020: 592a e63b e50e 053c bb09 f43b 21e2 0a3c
00000030: f257 e23b ff25 943b beb0 ba3b dffc 9b3b
00000040: 5199 703b 203f 2f3c 773b 143c 9346 ab3b
00000050: 2d1d 0e3c 5312 0c3c 76f6 263c f7a8 2a3c
00000060: da19 043c 0bee 0c3c 2069 103c 1642 f93b
00000070: 6844 233c 5658 fc3b 7a2b 073c ac3c 0f3c
00000080: 1f76 f43b 9d65 e23b c75b 1e3c 3cec 083c
00000090: a401 023c 6224 013c aad4 093c 18c1 013c
000000a0: c45c 023c ecda ed3b fcea 183c 26e0 fe3b
000000b0: 6537 123c 021b 1e3c dba4 fc3b f958 003c
000000c0: 5549 093c 1181 f03b e180 c93b 963c ea3b
000000d0: 68bd dd3b f6b5 af3b b201 293c 8dba 013c
000000e0: a043 d33b dc84 f43b 6c77 313c edbb 223c
000000f0: 0da6 c23b c1c1 643b eeb3 063c 8e12 8d3b
00000100: 400f d83b d6ad 873b 80e9 7a3b fa78 9d3a
00000110: f50d 2b3a 7d6c 933b f93c 733b f995 f43a
00000120: 0000 0000 0000 0000 9646 063b 7bd8 2c3b
00000130: 2d18 723a 0000 0000 0000 0000 4732 a639
00000140: 0000 0000 0000 0000 0000 0000 0000 0000
00000150: cc25 3b39 0000 0000 0000 0000 0000 0000
00000160: 0000 0000 9a4d 363c 8ee7 2a3c 898b 093c
00000170: 783d 2d3a 2078 8639 69f2 253c dbe8 033c
00000180: 7e80 b13b 0000 0000 0000 0000 e46e 103c
00000190: 72cd e13b 4b4d a43b 0000 0000 0000 0000
000001a0: 6158 9f3a 0000 0000 0000 0000 0000 0000
000001b0: 0000 0000 d852 ec39 0000 0000 0000 0000
000001c0: 0000 0000 0000 0000 3b97 303c 6ff1 203c
000001d0: 6dae d73b 32c0 213a 0250 163a 7788 153c
000001e0: a172 173c 1f92 e53b 0000 0000 0000 0000
000001f0: 6b50 b93b 97d4 823b e871 2f3b 0000 0000
00000200: 0000 0000 cdb5 743a 0000 0000 0000 0000
00000210: 0000 0000 0000 0000 577a 6f3a 0000 0000
00000220: 0000 0000 0000 0000 0000 0000 ab4d 1a3d
00000230: d566 553c 13d5 dd3d fcbd c53b ee26 e83b
00000240: 426c ce3b 37d1 b23b 6bbe dc3b 8682 ec3b
00000250: d7c0 043c 27f6 e53b 9514 bc3b 9190 fe3b
00000260: 720c 003c f428 f23b 7de2 d43b ff67 e03b
00000270: f93a d33b 3f02 cc3b bdc9 893b cfc9 0c3c
00000280: 83da f43b 2356 ae3b 449a c73b a508 be3b
00000290: 45e2 0b3c 0592 123c b3c6 cd3b 2fa1 f83b
000002a0: 5ee8 013c 6f1c e23b d4ce 1e3c e0aa d93b
000002b0: f47d e83b ebd3 043c 6be8 ff3b 0bc6 d93b
000002c0: b243 153c 9325 113c a553 123c b514 f43b
000002d0: b150 f43b 7827 eb3b 6ca4 023c 1983 e43b
000002e0: ee0a 0f3c c9fd 123c 1bba 1c3c 33a0 273c
000002f0: 7ef0 143c 38ec ce3b d73c 023c c76c 133c
00000300: 6031 ce3b 5b4d f43b f2ae 713b a624 923b
00000310: 985a d33b 8c8e a73b bbba ca3b 2889 033c
00000320: 22d6 ff3b 03d6 0b3c 3ec3 5e3b b424 6a3b
00000330: e36c 9e3b 848e 413b 810a fd3b ae1b d63b
00000340: f01a 8f3b b280 b33a 38e2 af39 99a1 b43b
00000350: d092 8f3b 036b 443b 0000 0000 0000 0000
00000360: dad2 813b 3346 6d3b d287 053b 0000 0000
00000370: 0000 0000 c391 c339 0000 0000 0000 0000
00000380: 0000 0000 0000 0000 c1ab b238 0000 0000
00000390: 0000 0000 0000 0000 0000 0000 50e4 283c
000003a0: f530 1c3c a16c 023c 2ba5 ed39 4f74 9839
000003b0: 06e4 1e3c ad49 053c d752 cd3b 0000 0000
000003c0: 0000 0000 f0d0 c53b 1729 ab3b 9927 973b
000003d0: 0000 0000 0000 0000 444c 023a 0000 0000
000003e0: 0000 0000 0000 0000 0000 0000 804e dc39
000003f0: 0000 0000 0000 0000 0000 0000 0000 0000

exp_avg f4 [128]
-0.061523866 -0.0098071685 4.0226864e-06 0.005176345 -0.00015353749 0.006973021 0.00032894738 -3.9332154e-08
-0.007955328 -0.04037894 -0.025529308 0.003836325 0.008457922 -0.020566287 3.591916e-14 1.9715274e-06
0.0015252932 -0.00012396128 -0.054968033 3.7778866e-06 -5.29941e-12 -0.0006024591 -0.004065337 -0.028293725
3.1001033e-08 0.000858591 0.0001429586 0.00884577 -0.08586044 -0.023294521 0.01637782 0.025540449
-0.022342877 -0.0047148974 -0.020073187 -0.020933308 -0.00094105816 0.003482844 -0.041461363 0.040336788
-0.028616635 -4.10362e-06 -0.0035614716 0.0002811757 0.0129832765 0.00032742386 -0.00018565563 0.026861142
0.006739586 0.016659483 0.02255852 -0.02191293 -0.0029532672 -0.022022022 -0.037543118 -0.0046523637
9.060218e-08 0.02250319 -0.023201186 0.0068644327 -2.5163496e-19 -5.4829878e-05 1.7973696e-06 4.5086697e-05
-0.0012262207 -0.020920778 2.4191354e-16 -0.062169913 -0.0027764232 -0.037448857 5.3438676e-24 0.0003665696
0.00168615 0.0006114254 -0.04709759 2.877823e-10 0.00022232796 -0.0036296595 0.002806234 0.04995495
0.029496366 -0.007133912 -1.9642353e-05 -0.035328895 0.0028987005 -0.065395735 4.6427205e-30 3.131116e-06
-0.061974645 -0.030106016 -0.013501423 1.842307e-10 -0.00027412747 -0.009047171 -0.061083447 7.1352346e-10
-7.0678885e-13 0.006996319 -0.070845805 0.03752723 -0.05257255 0.0016198801 8.254986e-05 1.426392e-08
-0.001661545 0.0055014146 9.0258e-05 0.0002977311 1.6639016e-22 1.8472845e-06 9.429367e-05 -0.0010903035
-0.049513176 -0.12156296 4.142581e-09 -7.196504e-13 0.017184105 -0.0011085776 -0.010720833 -0.02155906
0.0047841617 0.00017051508 0.004349291 -0.010740456 -0.00040239724 0.010389259 -0.023218766 -0.0500513
00000000: 7300 7cbd 3fae 20bc 9dfa 8636 549e a93b
00000010: e8fe 20b9 f17d e43b 9276 ac39 29ee 28b3
00000020: 1057 02bc 6364 25bd d722 d1bc da6a 7b3b
00000030: 1993 0a3c a17a a8bc f9c3 2129 954e 0436
00000040: 59ec c73a 9afb 01b9 2926 61bd 9987 7d36
00000050: d874 baac 59ee 1dba 8536 85bb 3ec8 e7bc
00000060: ff25 0533 1113 613a 28e7 1539 d9ed 103c
00000070: 99d7 afbd 27d4 bebc c72a 863c 343a d13c
00000080: 6908 b7bc 6d7f 9abb 8670 a4bc 547c abbc
00000090: 58b1 76ba 6d40 643b 64d3 29bd 3038 253d
000000a0: 6f6d eabc d4b1 89b6 9467 69bb c36a 9339
000000b0: cfb7 543c 16aa ab39 8eac 42b9 e60b dc3c
000000c0: bfd7 dc3b 7879 883c a5cc b83c bf82 b3bc
000000d0: 9a8b 41bb 8767 b4bc d0c6 19bd db72 98bb
000000e0: 1391 c233 9c58 b83c 6a10 bebc 09ef e03b
000000f0: 008a 94a0 22f9 65b8 263d f135 791b 3d38
00000100: 24b9 a0ba 0d62 abbc 2374 8b25 e1a5 7ebd
00000110: a7f4 35bb f963 19bd 1abb ce18 2430 c039
00000120: ce01 dd3a 1048 203a 67e9 40bd c235 9e2f
00000130: b520 6939 95df 6dbb cbe8 373b 909d 4c3d
00000140: 5da2 f13c 97c3 e9bb a2c5 a4b7 08b5 10bd
00000150: 20f8 3d3b 33ee 85bd c454 bc0e 2a20 5236
00000160: 20d9 7dbd e4a0 f6bc 1335 5dbc 5590 4a2f
00000170: c4b8 8fb9 963a 14bc a332 7abd c021 4430
00000180: 81f1 46ab 6141 e53b 9b17 91bd 27b6 193d
00000190: 5056 57bd 2852 d43a 9e1e ad38 620d 7532
000001a0: 33c8 d9ba 3645 b43b e548 bd38 cb18 9c39
000001b0: 4327 491b 36f0 f735 87bf c538 84e8 8eba
000001c0: 54ce 4abd 00f6 f8bd 8756 8e31 4790 4aab
000001d0: aec5 8c3c b14d 91ba 6fa6 2fbc a09c b0bc
000001e0: 75c4 9c3b 4bcc 3239 7f84 8e3b bdf8 2fbc
000001f0: d8f8 d2b9 b637 2a3c 4835 bebc 9802 4dbd

exp_avg_sq f4 [128]
0.014206486 0.013687179 0.0006983732 0.010097972 0.0013420893 0.010475255 0.010236293 0.000314719
0.004953603 0.0054769185 0.010351704 0.0009944497 0.008706514 0.013606223 0.0013473494 0.0022814618
0.000693411 0.0011873848 0.009771305 0.0028987345 0.00075632666 0.002616266 0.0043916963 0.011081267
0.00065811456 0.008237768 0.0016638957 0.007666653 0.014297025 0.002585924 0.007711077 0.010237971
0.012134434 0.0048360093 0.013067918 0.009458314 0.008610622 0.0028830646 0.006621363 0.0033611564
0.012870694 0.0016436449 0.00040634547 0.0035237288 0.009384474 0.00055666914 0.0011075994 0.005426436
0.012356238 0.003992467 0.017441597 0.016873969 0.0065750107 0.0057970895 0.0066631436 0.010714382
0.0055627436 0.00818115 0.011281956 0.016142126 0.0001767831 0.001157546 0.00049593765 0.0010418596
0.006947671 0.0020685012 0.00038505578 0.013308797 0.0031801034 0.011890026 5.537213e-05 0.007995616
0.0039193723 0.00089227693 0.011751577 0.0003371519 0.0008842903 0.0013604182 0.003794293 0.0073919627
0.006224096 0.009821329 0.008015722 0.012645282 0.0067404923 0.009196088 1.9195853e-05 0.0015871854
0.00523019 0.011644032 0.0050651254 0.0027444412 0.0061263056 0.0013499771 0.012752139 0.000100007695
0.00032058655 0.0070401533 0.0066708196 0.012396881 0.004233157 0.00478352 0.00027729565 0.001055792
0.0053959778 0.0031040062 0.001508608 0.0019353946 5.5489254e-05 0.002338481 0.0003658747 0.0034409722
0.0067654424 0.010498643 4.1746265e-05 0.0005767293 0.0054792524 0.0081305215 0.001499398 0.00481532
0.012938185 0.000100823796 0.011895646 0.011567471 0.0063990112 0.0005981819 0.008694134 0.007727555
00000000: 52c2 683c 3140 603c 0813 373a f771 253c
00000010: 0be9 af3a 67a0 2b3c 20b6 273c de00 a539
00000020: d551 a23b b977 b33b 329a 293c 3258 823a
00000030: c4a5 0e3c a3ec 5e3c 8b99 b03a 9484 153b
00000040: 06c6 353a 06a2 9b3a d317 203c b2f8 3d3b
00000050: 3944 463a a975 2b3b 38e8 8f3b 348e 353c
00000060: 5285 2c3a b4f7 063c 1317 da3a 8c38 fb3b
00000070: 123e 6a3c 9b78 293b 34ad fc3b 2abd 273c
00000080: 81cf 463c 6377 9e3b d21a 563c 0bf7 1a3c
00000090: 9113 0d3c ccf1 3c3b 05f8 d83b d946 5c3b
000000a0: 9adf 523c 926f d73a c40a d539 5cee 663b
000000b0: 56c1 193c 6fed 113a de2c 913a 3fd0 b13b
000000c0: d271 4a3c 3ed3 823b aee1 8e3c 473b 8a3c
000000d0: 3073 d73b 83f5 bd3b 8056 da3b 608b 2f3c
000000e0: ad47 b63b 3b0a 063c f4d7 383c 7e3c 843c
000000f0: da5e 3939 ccb8 973a d001 023a 028f 883a
00000100: 4aa9 e33b b18f 073b 50e1 c939 240d 5a3c
00000110: 4869 503b 62ce 423c 5f3f 6838 0b00 033c
00000120: 146e 803b b1e7 693a b089 403c c3c3 b039
00000130: b8cf 673a 0f50 b23a aca9 783b 4738 f23b
00000140: 80f3 cb3b a4e9 203c 6054 033c 282e 4f3c
00000150: 59df dc3b 30ab 163c c806 a137 1b09 d03a
00000160: 0462 ab3b 9cc6 3e3c 5af9 a53b 15dc 333b
00000170: 2dbf c83b b7f1 b03a 59ee 503c 39bb d138
00000180: 6614 a839 16b1 e63b e496 da3b 4a1c 4b3c
00000190: 4bb6 8a3b 13bf 9c3b fe61 9139 8062 8a3a
000001a0: bed0 b03b 956c 4b3b 7cbc c53a 11ad fd3a
000001b0: 22bd 6838 3341 193b dfd2 bf39 ef81 613b
000001c0: a5b0 dd3b 8002 2c3c b618 2f38 a62f 173a
000001d0: 4d8b b33b e135 053c 7387 c43a d5c9 9d3b
000001e0: aefa 533c 5d71 d338 f5e5 423c 7d85 3d3c
000001f0: ccae d13b 4fcf 1c3a d771 0e3c 6e37 fd3b

exp_avg f4 [192, 128]
0.0047920616 0.0003908938 -2.3438055e-08 -1.4289578e-06 4.8482417e-07 0.0027222706 0.0038214757 -1.869901e-10
-2.8595866e-06 0.002030993 0.0008383159 -6.8163246e-07 -1.5061234e-05 0.0005114655 1.1017357e-24 -6.454079e-10
-1.0251054e-07 1.2579482e-06 0.0038432064 5.2240284e-17 -1.2669143e-14 -1.5324883e-06 0.0003276423 0.0038706707
-2.4492941e-21 2.4803749e-06 5.171064e-06 9.164915e-06 0.0020533898 -3.4904207e-07 0.00033962884 0.0006066845
0.0012707764 -1.4685371e-06 0.0019543928 0.005026648 0.0003637691 -2.2422164e-05 0.00056863 0.00087393064
0.000876098 -2.630106e-07 -5.2651358e-06 -9.950611e-07 -2.1182052e-05 -1.4017219e-05 -3.4481957e-07 -1.5532391e-06
3.7760063e-05 4.1989962e-05 0.0019898738 0.0034321577 -1.097087e-06 0.0012245127 0.0014942734 4.308618e-05
-4.0546663e-10 0.0006111947 0.0024471697 -7.395134e-07 -3.084764e-21 -2.7646616e-10 -2.5561981e-08 3.9699055e-10
-1.3753107e-05 1.0534216e-05 9.4344995e-24 0.00460622 -3.3694538e-05 0.0005905488 3.2979728e-24 -2.2358965e-05
-4.971675e-06 -3.2831718e-07 0.0023670488 -1.1812938e-14 -6.2735076e-08 -7.6398155e-06 -8.895707e-06 0.0016692213
7.550334e-05 0.00010460044 -1.2204864e-05 0.00229586 -2.7990282e-05 0.0026028543 0.0 -1.5866929e-08
0.0007809225 0.0020511248 0.0015535636 8.345918e-15 -1.1421342e-06 -1.1566028e-05 0.0020788438 0.0
-8.9496436e-29 0.0012860484 0.0019123729 0.0029310698 0.00015318759 2.8126092e-07 -1.3666696e-09 -6.940778e-13
-3.4929755e-05 0.00042297234 -6.155035e-07 -1.9509584e-06 -1.0190027e-29 2.0966047e-09 -1.6202866e-12 5.500926e-05
0.002075985 0.0042949687 -1.7181847e-34 -3.5830857e-16 0.0009174083 -7.432196e-08 0.00039255145 0.00086227723
0.00025586865 -8.2893223e-07 9.668261e-07 0.0009339496 -1.2992741e-07 -7.1679375e-07 0.0005432497 0.002117937
0.045846514 0.0053383354 -4.6682434e-08 1.25633505e-05 1.921683e-05 0.026866967 0.038834013 -4.7105914e-10
-2.6139562e-05 0.01972179 0.0072449725 -1.2384389e-06 -7.710426e-05 0.0071205124 -9.167822e-37 -3.5144467e-09
-1.040385e-06 -6.2395215e-27 0.03740561 -3.3148296e-15 -4.6315677e-14 -4.348994e-06 0.0026923595 0.038401034
6.523483e-22 3.037815e-06 -2.0673417e-12 0.00023452588 0.02126168 -6.330861e-07 0.004966607 0.006097322
0.013206083 0.00013040991 0.022114016 0.048715692 0.002674047 -4.9840302e-05 0.005706555 0.008308486
0.010217069 -1.5389142e-09 -3.1848955e-05 -3.435028e-07 -1.5269867e-05 -3.4372195e-05 -4.3433947e-06 -2.0475127e-06
0.0013495883 0.0002817529 0.019301211 0.0338995 -1.2548856e-05 0.011537838 0.012928585 0.00095916254
-1.0223515e-09 0.0057542487 0.024588091 0.00095071475 -1.2178006e-20 -4.9905027e-09 -5.2087795e-08 4.3425836e-09
-2.490944e-05 0.00021686542 -1.0950101e-26 0.044987466 -7.248326e-05 0.0090002045 -6.6584237e-28 -2.7194577e-05
-2.8784163e-05 -1.984553e-07 0.02527268 -2.5538152e-14 -7.9021873e-07 -1.4873933e-05 -1.2318366e-05 0.015758505
0.0014441196 0.0022089093 0.00075376965 0.023973236 0.0004963617 0.024978744 0.0 -3.306151e-08
0.007131578 0.021272903 0.012969952 2.3780575e-14 -2.3977916e-06 0.00018886123 0.020842286 0.0
-1.0008966e-28 0.013234744 0.018093117 0.028426386 0.001163351 9.52769e-06 1.6702602e-08 -2.2700327e-12
-7.9179474e-05 0.0031056914 -1.8577745e-09 1.6078074e-07 -1.1856809e-29 5.9248702e-08 -4.1794858e-12 0.0013215966
0.019729512 0.04143528 -1.8946657e-34 -6.681038e-16 0.0075812954 6.4098356e-05 0.0029791305 0.007961266
0.0025549852 -3.996739e-08 8.749389e-05 0.010202332 -7.331805e-07 -1.4069317e-06 0.0039054928 0.019611146
00000000: ba06 9d3b e1f0 cc39 d454 c9b2 9eca bfb5
00000010: dd24 0235 1f68 323b b971 7a3b 0999 4daf
00000020: 53e7 3fb6 691a 053b 6dc2 5b3a 6df9 36b5
00000030: 82af 7cb7 de13 063a 3f7c aa17 8b68 31b0
00000040: c423 dcb3 c5d6 a835 4ede 7b3b 71ea 7024
00000050: 1c3a 64a8 e6af cdb5 68c7 ab39 14ab 7d3b
00000060: 3d10 399d 8474 2636 1a83 ad36 03c3 1937
00000070: 2a92 063b fa63 bbb4 3610 b239 e809 1f3a
00000080: 2e90 a63a 8d1a c5b5 4515 003b 94b6 a43b
00000090: 43b8 be39 3b17 bcb7 1d10 153a 7e18 653a
000000a0: f1a9 653a e733 8db4 2cab b0b6 0a8e 85b5
000000b0: 1cb0 b1b7 7f2b 6bb7 a41f b9b4 e478 d0b5
000000c0: 8f60 1e38 611e 3038 8b68 023b 0dee 603b
000000d0: 9f3f 93b5 d47f a03a 7fdb c33a 6fb7 3438
000000e0: 5be8 deaf 9538 203a b260 203b f982 46b5
000000f0: 0314 699d 27fd 97af 6493 dbb2 743f da2f
00000100: 25bd 66b7 1dbc 3037 617d 3619 c6ef 963b
00000110: 3c53 0db8 0fcf 1a3a 152b 7f18 838f bbb7
00000120: 5dd2 a6b6 9243 b0b4 7d20 1b3b 90cd 54a8
00000130: f9b8 86b3 c22c 00b7 c53e 15b7 c6c9 da3a
00000140: 8c57 9e38 ef5c db38 7ec3 4cb7 2476 163b
00000150: accc eab7 a694 2a3b 0000 0000 bf4b 88b2
00000160: d2b6 4c3a 2a6c 063b f2a0 cb3a c158 1628
00000170: 6f4b 99b5 b60b 42b7 363d 083b 0000 0000
00000180: 82e6 e290 a090 a83a 96a8 fa3a 3117 403b
00000190: fba0 2039 3500 9734 69d5 bbb0 945d 43ab
000001a0: 8a81 12b8 63c2 dd39 1439 25b5 36ed 02b6
000001b0: a5ad 4e8f dc13 1031 fa08 e4ab beb9 6638
000001c0: 400d 083b cfbc 8c3b cc62 6487 038d cea5
000001d0: 3b7e 703a ee9a 9fb3 5dcf cd39 720a 623a
000001e0: 1c26 8639 ca83 5eb5 e4c3 8135 4cd4 743a
000001f0: 2d82 0bb4 b169 40b5 df68 0e3a 16cd 0a3b
00000200: 8ec9 3b3d 34ed ae3b e17f 48b3 2ec7 5237
00000210: d433 a137 1d18 dc3c 6a10 1f3d d77b 01b0
00000220: 4846 dbb7 978f a13c 3c67 ed3b 7038 a6b5
00000230: 09b3 a1b8 3053 e93b 7ffb 9b83 cd82 71b1
00000240: 5ba3 8bb5 442c f793 a036 193d d0db 6ea7
00000250: 5796 50a9 93ed 91b6 4c72 303b 674a 1d3d
00000260: 0129 451c 44dd 4b36 eb79 11ac 10eb 7539
00000270: fa2c ae3c 58f1 29b5 ebbe a23b 0bcc c73b
00000280: 545e 583c a5be 0839 7428 b53c 1b8a 473d
00000290: 103f 2f3b 9e0b 51b8 0efe ba3b 5120 083c
000002a0: 7e65 273c bb81 d3b0 8e95 05b8 aa6a b8b4
000002b0: ca17 80b7 dd2a 10b8 7abd 91b6 0068 09b6
000002c0: abe4 b03a 3cb8 9339 931d 9e3c 34da 0a3d
000002d0: ed88 52b7 3309 3d3c 6ad2 533c 4f70 7b3a
000002e0: cc82 8cb0 238e bc3b f76c c93c 6339 793a
000002f0: 3909 669e ed78 abb1 23b7 5fb3 c535 9531
00000300: 9df4 d0b7 5e66 6339 9ce3 5894 c744 383d
00000310: 2702 98b8 9875 133c 8d03 5392 e91f e4b7
00000320: 8575 f1b7 fa16 55b4 a708 cf3c f806 e6a8
00000330: 6b1f 54b5 0e8b 79b7 fbaa 4eb7 fb17 813c
00000340: 9d48 bd3a 59c3 103b a098 453a 8563 c43c
00000350: 451e 023a 39a0 cc3c 0000 0000 84ff 0db3
00000360: 03b0 e93b 8344 ae3c ec7f 543c 4632 d628
00000370: bfe9 20b6 0d09 4639 71bd aa3c 0000 0000
00000380: e7c1 fd90 8ad6 583c 0438 943c 74de e83c
00000390: 957b 983a 1ed9 1f37 6979 8f32 46bd 1fac
000003a0: 280d a6b8 db88 4b3b a154 ffb0 13a3 2c34
000003b0: 127c 708f a378 7e33 760d 93ac 6c39 ad3a
000003c0: c99f a13c 0ab8 293d 22d8 7b87 5c91 40a6
000003d0: 846c f83b 8b6c 8638 843d 433b f86f 023c
000003e0: 8a71 273b 9ca8 2bb3 ed7c b738 af27 273c
000003f0: c8cf 44b5 ced5 bcb5 4cf3 7f3b 8ea7 a03c
