weights/policy_checkpoint600.pt (torch, 522961 bytes, 12 tensors)

net.0.weight f4 [128, 142]
000000 ab 3c a7 3d e7 d7 f2 3d 91 67 9c 3c 00 bd 0b 3e
       0.08165868 0.11857586 0.019092353 0.13646317
000010 bc 93 a9 3c 39 77 aa 3d 4d 04 9d 3c 9d 5e af 3d
       0.020700328 0.08323521 0.01916709 0.08562968
000020 a3 a0 84 3d c2 92 c1 bc 19 06 da 3d af 21 48 3d
       0.064759515 -0.02362955 0.10645694 0.04886025
000030 b7 b5 40 3d 8e ff b2 3c d4 4a 6c 3d 5c d4 b2 3c
       0.047048297 0.021850374 0.05768855 0.021829776
000040 77 c9 70 3d 0c 9b a7 3c 10 51 1d bd 64 a6 32 3d
       0.05878588 0.020459674 -0.038407385 0.043615714
000050 49 3c bf bc 8e ae 04 3d 80 04 de 3c a0 5c e3 3d
       -0.023344176 0.03239303 0.027101755 0.11101651
000060 6e be 1e bd d7 0a 03 bd 82 53 ce b9 b6 1f 52 bd
       -0.038755827 -0.03199276 -0.000393536 -0.051299773
000070 6f 66 de 3c 8b 05 b4 bd fa 16 f7 3d 86 bb 21 bd
       0.027148454 -0.0879012 0.12064929 -0.039485477
000080 57 30 cc 3d 28 5d 9c 3c 68 00 58 bc e6 a2 97 3d
       0.099701576 0.01908739 -0.013183691 0.07404117
000090 c5 a2 1f 3d f6 d7 c9 3d d1 ea 59 3d ea 37 c7 3b
       0.03897359 0.098556444 0.053202454 0.0060796635
0000a0 66 16 c8 3d 0b 62 e2 bb 5b 92 a5 3d b9 a8 be 3d
       0.09769897 -0.0069086603 0.08084556 0.09309525
0000b0 89 d4 a8 3d 54 cd c6 3b 96 f9 e1 3d e6 45 55 3d
       0.08243663 0.0060669575 0.11033933 0.052068613
0000c0 89 93 d6 3d d4 e9 1e 3d ee 41 90 bd 90 e4 90 3c
       0.10477359 0.038797215 -0.07043825 0.017687112
0000d0 27 1a b5 bb ba 7a 1b 3e 48 33 b7 3d 0a d9 d2 3d
       -0.0055267992 0.15183535 0.08945328 0.10295303
0000e0 fb 9a 33 3d fb 94 6b 3d 2b ba 0d 3e ed b1 ea 3b
       0.043848973 0.057515126 0.13840549 0.0071623237
0000f0 52 4a 8c 3c 44 f0 0e bd 2b 0b af 3d 9a a5 3c 3c
       0.017125282 -0.034897104 0.08547052 0.011514092
000100 d0 20 61 3d 4f 8a 27 bc 69 2c a4 3d b0 24 39 bd
       0.054962933 -0.010225846 0.08016283 -0.045201004
000110 d5 db 4e bd bf 24 50 bc 9c 1c f6 3d 93 a3 42 3d
       -0.050502617 -0.012704073 0.120171756 0.047519278
000120 68 60 a5 3d e8 d5 8d bd f9 3f 47 bd 97 0a 09 bd
       0.08075029 -0.06925565 -0.048644993 -0.033457365
000130 81 b6 66 bd 53 39 0b 3d 72 29 f6 3c 5f 8a a1 3d
       -0.056326393 0.033990216 0.03004906 0.0788772
000140 9e 82 31 bd ec 52 6a bd fc 5f 36 3d ca ef 0a bd
       -0.043337457 -0.057207987 0.04452513 -0.033920087
000150 b8 72 26 3c 53 22 a3 bc ec a0 44 3d 79 88 85 bd
       0.010159187 -0.019913828 0.04800503 -0.06520171
000160 6d 76 2d bd 74 83 b2 3d 4b 2a ad 3d ba c8 07 3d
       -0.042349268 0.08716479 0.08455332 0.033150412
000170 e6 f4 aa 3d 74 d0 c2 3d 12 ab 9d bc f8 51 88 bc
       0.08347492 0.095124155 -0.019246612 -0.016640648
000180 e8 2a e4 3d 71 f8 e7 bc 05 b7 f3 bc 34 40 c9 bc
       0.11140996 -0.028316708 -0.029750356 -0.024566747
000190 a7 e6 65 3c 78 b8 96 3d b8 7a 35 bc 02 82 79 bd
       0.014032043 0.07359403 -0.011076622 -0.060915
0001a0 96 3c 15 3d 73 cb 6a bd 24 cf 91 bd 4f 47 3d bd
       0.036434732 -0.05732293 -0.07119587 -0.046210583
0001b0 f2 6a 96 bd ee 43 86 bc 11 cc ab 3d ef d7 81 3c
       -0.07344617 -0.016389813 0.08388532 0.015850035
0001c0 bf d8 d3 3c 91 4b a0 bd 62 b2 23 bd 9d d7 d8 bc
       0.025860189 -0.07826913 -0.03996504 -0.02647
0001d0 0a 64 b9 3c 5b 59 8b bd 2e bd 23 bd bd e8 58 bd
       0.02263071 -0.068041526 -0.039975338 -0.05295633
0001e0 9b 5f e9 3b 30 b2 04 bd 32 8d be bb b8 eb 68 bd
       0.0071219928 -0.032396495 -0.0058151716 -0.056865424
0001f0 26 75 8b bd b3 ba 8e bd 50 ba 62 bd 35 a6 87 bd
       -0.06809454 -0.06969204 -0.055353463 -0.06623498
000200 63 1a 90 3d 34 6f e6 bc 1c df 93 3d 0d 33 d6 3c
       0.07036283 -0.028129198 0.07220289 0.02614739
000210 c2 88 91 bd 53 df 6d 3d ac e6 64 bc 9a c2 03 bd
       -0.071061626 0.058074307 -0.013971012 -0.03216801
000220 d7 a8 8e bd 5c dc aa bd 5a b0 c4 3c 97 0c c1 3b
       -0.069657974 -0.083428115 0.024009872 0.0058913934
000230 6d c1 92 3d 6d ee 2b bd 5e 47 6c 3d 22 ad 9d bd
       0.07165799 -0.041975427 0.05768525 -0.07699038
000240 c3 05 39 bd 88 d4 92 3c 32 96 83 3d 98 0f a5 3d
       -0.04517151 0.017923608 0.06425132 0.08059615
000250 90 23 cb 3d f8 e6 03 bd a9 e9 3a 3d fb e8 1d bd
       0.099188924 -0.03220269 0.045632992 -0.038552266
000260 28 c9 a6 3a cd e4 5f bd 76 1f b8 3d dd 32 66 bd
       0.0012724744 -0.05466156 0.08990376 -0.05620085
000270 d3 df 9d 3d 40 6d cb 3c 2a 3a 3c 3d 32 76 4a 3c
       0.07708707 0.024832368 0.045953907 0.0123572815
000280 88 ce 01 3e cb 1d 62 3d 87 c4 31 3d bc 21 03 bd
       0.12676442 0.055204194 0.043400314 -0.032014593
000290 4f dd 9e 3d 03 4c 50 3c ec 19 2d bc af 5b f7 3d
       0.07757055 0.012713435 -0.010565262 0.12078034
0002a0 27 4c a4 3d c4 2d bf 3c eb bd 8a bb 99 00 0a 3c
       0.080223374 0.023337252 -0.004234066 0.008422994
0002b0 a2 b8 aa 3d 0c ee 8f bb 10 da f4 bc a1 59 9b bc
       0.08335997 -0.004392391 -0.029889137 -0.018963637
0002c0 67 2e eb bc 2c 76 7f 3d de ae 9a 3d d8 c9 89 bd
       -0.02870865 0.062368557 0.075528845 -0.06727952
0002d0 2f 5a 8d 3d 0e 1c be 3d 7b dc 7e 3d e5 8f 3d bb
       0.06901967 0.09282695 0.062221985 -0.002892488
0002e0 9c 7b 92 3d 87 a7 d9 3d 4d 47 4c 3d 80 3e 19 3d
       0.07152483 0.106276564 0.049872685 0.03741312
0002f0 92 fa ad 3c 9f f9 46 3d 70 c3 72 3c 05 92 69 3c
       0.021237645 0.0485779 0.014817104 0.014256005
000300 2c 1e 97 3d c0 13 c6 3d 6b af a4 bb a0 08 3c bb
       0.07378802 0.09671736 -0.0050257943 -0.0028691664
000310 c6 c9 20 3c 1c 72 c6 bc c4 2a 65 3d 9a 3f 40 3d
       0.009813732 -0.024224333 0.055948988 0.046935655
000320 d3 1c 32 bd 84 38 77 3b e4 91 dd 3d b1 7c 0e 3d
       -0.04348452 0.0037722895 0.10818842 0.034786884
000330 e1 e1 1a 3c 16 9b 2f bd 35 d3 0e bd e1 4b 90 bd
       0.009453268 -0.04287251 -0.03486939 -0.07045723
000340 70 8e c5 bc 62 1d 42 3d d8 d3 c2 3d ff 15 33 3d
       -0.024115771 0.047391303 0.09513062 0.04372215
000350 98 8b b8 bd dc b0 92 bd 05 fc 58 bc be 40 a6 3d
       -0.090110004 -0.071626395 -0.01324368 0.08117817
000360 a7 00 04 3d 74 17 8c bc 22 af 14 3d 80 eb 02 bd
       0.032227185 -0.017101027 0.036299832 -0.03196287
000370 f8 7a 5e bd 9d ab 4a 3d 47 4b 1c bd f6 cf 89 bc
       -0.05431649 0.04948007 -0.038157728 -0.016822796
000380 ad f8 aa bd 2b 0c 66 3d f1 78 15 3d e8 8a fa 3c
       -0.083482124 0.056163948 0.03649229 0.030583814
000390 54 ac 6f bd aa 9e a9 bd a9 95 8b bd 6a 86 14 3d
       -0.058513954 -0.08282216 -0.06815655 0.036261
0003a0 2c c6 46 3d 58 90 8c 3d 97 e4 27 3d 8c 29 42 ba
       0.048528835 0.06863469 0.040989485 -0.00074067037
0003b0 a4 ae 79 bc 98 c1 85 bd 3e 50 b4 bd ca c0 a0 bd
       -0.0152393915 -0.06531066 -0.088043675 -0.078492716
0003c0 9f b5 0c 3d e2 99 68 bd 13 52 1a 3c eb 83 9b bd
       0.034352895 -0.05678738 0.009418982 -0.07593521
0003d0 b8 8a 7a bc a2 ed 71 bd a3 47 aa bd 7c 09 e4 3c
       -0.015291862 -0.059064515 -0.08314445 0.027836554
0003e0 53 4f cc bc d6 32 54 3d d8 8a dc bc 9d 62 d9 bd
       -0.024940168 0.051806293 -0.026921675 -0.10614512
0003f0 a7 96 72 bc 21 9f 26 bd 62 52 d2 bc 36 9d a3 bd
       -0.014806426 -0.0406791 -0.025674049 -0.0798897

net.0.bias f4 [128]
000000 55 8e e8 3d 74 29 20 3d a6 fb d1 3c e3 10 c7 3d
       0.11355273 0.039102033 0.02563269 0.09720018
000010 f2 ca 49 3d 83 3a a4 3d 3e 77 05 bc 5e dd 88 bd
       0.04926581 0.08018973 -0.008146105 -0.066828474
000020 98 a1 4e 3d 12 2c 7a 3d e3 ad 19 3d fe e8 bf 3c
       0.050447077 0.061077185 0.037519347 0.023426529
000030 44 b6 0f bd 36 77 2b 3d f0 4f 96 bd 60 a6 79 bc
       -0.03508593 0.041861735 -0.073394656 -0.015237421
000040 1e 6a 98 3d b4 b3 87 bd 37 28 28 bd bb 3f ef bc
       0.07442115 -0.066260725 -0.041053977 -0.029205194
000050 81 c6 9a 3c 24 eb b5 bd 7c 0a 4b 3d 56 02 d4 3c
       0.018893482 -0.0888274 0.049570546 0.02588002
000060 06 6d 19 3b 39 67 61 3d 06 ed ef 3c ec 26 77 ba
       0.002341093 0.05503008 0.029287826 -0.0009428102
000070 26 36 52 bd 6a a0 4a 3d 9c 3f 7f bc 11 72 84 bc
       -0.05132117 0.04946939 -0.0155791305 -0.016167672
000080 18 b1 81 3d 77 65 40 3d 2e b6 40 3d a0 6b 7e bc
       0.06332606 0.046971764 0.04704874 -0.0155285895
000090 c5 d5 cb bd 97 82 2e 3c b8 c4 5f 3d 8f 01 c9 3c
       -0.09952883 0.010651252 0.054630965 0.024536876
0000a0 24 b9 bb 3d c4 96 9a bd 94 26 f2 3c f4 b2 83 3d
       0.09166172 -0.075482875 0.029559411 0.06430617
0000b0 0a 1e 49 3c 4b f1 1d bd 58 dd 9c bd 93 7e 0a bc
       0.012275228 -0.038560193 -0.076594055 -0.008453029
0000c0 5f c6 ae bc df e9 84 bd c9 cc 80 bc 51 e3 51 3d
       -0.021334825 -0.0648992 -0.01572265 0.051242176
0000d0 eb b8 a2 bc e5 9e 3f 3d ca 90 40 3d 6f fb 90 bd
       -0.019863566 0.046782393 0.04701308 -0.07079207
0000e0 f7 33 0e bd 1f e4 82 3d 7c 56 0a 3b 6b 6c aa 3d
       -0.034717526 0.06391167 0.0021108678 0.0832146
0000f0 c5 3d c7 bd 0d da 6f 3d a2 67 99 3c 58 d7 8b bd
       -0.097285785 0.05855756 0.018726174 -0.06828183
000100 ef ee f4 3c 89 24 48 3d cb d3 a1 3c e3 b7 77 3d
       0.029899089 0.048862968 0.019754311 0.060478102
000110 a9 ac 9a bc dc ea 49 bc 01 8e a8 bd a9 85 8e 3d
       -0.018881159 -0.012324061 -0.0823021 0.069590874
000120 c3 79 5d 3c ef 7f 78 3c 33 6e c4 ba 5c f5 bb bd
       0.0135178 0.0151672205 -0.0014986455 -0.09177658
000130 46 6e 73 bc 41 3e 17 3d f7 2c 91 3d 35 13 94 bc
       -0.014857834 0.036924604 0.070886545 -0.018075565
000140 20 bf ee 3c aa 69 b3 bb 46 c9 f2 bb 66 f5 e1 3d
       0.02914387 -0.0054752426 -0.0074092476 0.11033134
000150 cf c9 da 3c c3 d3 b9 3d 27 01 c4 bd 5e 77 8c bc
       0.026707558 0.090735935 -0.09570532 -0.017146762
000160 21 cb 2a bd 83 3a a7 3d 5c d0 f6 3c 2b dd 6c bc
       -0.041697625 0.08165457 0.03012865 -0.014457027
000170 20 8e 0c 3d 2a c8 66 bd 2b c0 9a 3c 0c 2d ed 3c
       0.03431523 -0.056343235 0.018890461 0.028952144
000180 40 8b 98 bd 75 a6 29 3c f3 6d d5 39 e0 02 39 bd
       -0.07448435 0.010354628 0.00040708444 -0.045168757
000190 19 54 7d bd 13 cd 72 bd 10 2d 89 bd 16 3d 59 bd
       -0.06184778 -0.059277605 -0.06698048 -0.05303677
0001a0 a0 64 81 3c be 56 1d 3d 12 a7 92 3c 6c 4b ae bb
       0.015795052 0.038412802 0.017901931 -0.0053190496
0001b0 19 8c b9 bd 50 07 c4 bd 93 fa 6a 3d 0d dc c8 3c
       -0.09059925 -0.09571707 0.057367872 0.02451899
0001c0 cc b4 ae 3d 25 e6 48 bd da 0b 90 bd f9 b1 09 bd
       0.08530578 -0.049047608 -0.070335105 -0.033616994
0001d0 51 1e 89 3d 03 8d a7 bd 08 26 4d bd 8c 3b 61 bd
       0.066952355 -0.08181193 -0.050085098 -0.05498843
0001e0 77 59 6f 3d 23 1f da bc 44 37 dd bc c3 60 84 3d
       0.05843493 -0.026626175 -0.027003892 0.06463768
0001f0 05 a5 a8 bd 98 1e e7 bc 2b ae 92 bc 0d cc 9e bc
       -0.082346 -0.02821283 -0.017905315 -0.019384408

net.2.weight f4 [192, 128]
000000 86 5a 12 bd ce b0 85 bd 1b fa 19 3e 99 cc ef bd
       -0.03573086 -0.065278634 0.15036814 -0.11708946
000010 36 19 43 bd af f7 68 bd 26 e4 c2 bd b7 f5 b2 3d
       -0.047631465 -0.056876834 -0.09516172 0.08738273
000020 21 64 15 3d f8 85 65 3d ca 47 0f 3d ca b9 89 3a
       0.036472443 0.056035966 0.034980573 0.001050764
000030 27 16 3f 3c 55 78 3e bd 6f 42 5d 3d 84 f3 6b bb
       0.011662996 -0.046501476 0.054018434 -0.00360033
000040 ce a5 b3 3d 2e d5 12 3d 2d 34 c2 bd 5c 75 39 3d
       0.08771859 0.035847835 -0.09482608 0.04527794
000050 35 95 b6 3d 2d 93 0a bd ae cb e1 bc 2e 34 fd bd
       0.08915178 -0.033831764 -0.027562942 -0.12363468
000060 e7 00 f4 3c fe e9 c5 bd ee d1 e4 bd 87 a7 41 3d
       0.029785587 -0.09663771 -0.111728534 0.047278907
000070 b6 ac 01 bd 73 88 9b 3d 7f 2e cd bd 57 c1 c4 bd
       -0.03165885 0.07594385 -0.10018634 -0.09607189
000080 11 3a 97 bd b1 56 1b 3b 75 1c c5 bd 00 0b 24 be
       -0.07384122 0.0023702795 -0.096245684 -0.16019821
000090 26 c1 89 bd b7 d1 4d bd 8b 7f 1b 3d 46 c8 34 3d
       -0.06726293 -0.050248828 0.03796343 0.044136308
0000a0 70 14 f1 bd 2f 18 a3 bd e3 94 43 3d 3e 91 9a bd
       -0.11771476 -0.07963597 0.04774941 -0.07547234
0000b0 64 5a df bd 6e ca a3 3d 16 02 9a bd 43 9d 15 3b
       -0.109059125 0.07997595 -0.07519929 0.002282933
0000c0 ed 7d b2 bd 2e 64 cc bd 5e 89 ba bd c6 8b da bd
       -0.08715425 -0.09980045 -0.09108232 -0.10671191
0000d0 86 b6 c1 bd a6 dc bc bd ab ff 64 bd d7 be c9 bd
       -0.09458642 -0.09221773 -0.055907886 -0.09850853
0000e0 77 02 31 3d d9 85 ea bd 01 32 96 bd 49 05 26 3c
       0.04321524 -0.11451311 -0.07333756 0.010133096
0000f0 ed 4f 90 bd d7 c0 02 bd 3b e5 99 bd de c0 84 bd
       -0.07046495 -0.031922188 -0.07514425 -0.06482099
000100 03 7b 9d 3c df 29 67 3d e5 6f 8d 3b a0 ae 97 3c
       0.019223696 0.056436416 0.0043163174 0.018515885
000110 42 b5 a5 3b 9c 9c f5 bd a8 1e a2 bd 21 4a aa bb
       0.005057008 -0.119927615 -0.079160035 -0.005196825
000120 09 9a c8 bd 6e 4e 09 3e 0c ef 50 bd f1 d0 6c 3d
       -0.09795005 0.13408825 -0.051009223 0.05781645
000130 ed 81 f7 bc 08 79 0f bd 8a a7 bf bd 0d e0 cb 3d
       -0.03021332 -0.035027534 -0.093581274 0.09954844
000140 d3 94 dc bd f0 42 cb 3c 7a b2 40 bd 06 cb ed bc
       -0.107705735 0.024812192 -0.04704521 -0.029027473
000150 54 30 84 bd ec c6 e0 bb ad 24 8a 3d 0b d3 b7 bd
       -0.0645453 -0.006859651 0.067452766 -0.089758
000160 bc f6 a3 bd d4 c5 17 3d 42 05 09 3d e8 6c 92 bd
       -0.08006045 0.037053898 0.03345228 -0.071496785
000170 13 6c 9e bb 80 d2 64 3d 01 2c 9d bd c2 c9 4a 3d
       -0.004834661 0.05586481 -0.07674409 0.049508817
000180 c2 53 b0 bd c4 1b 18 bd f5 cd 0b bd ad 5c bf bd
       -0.086097255 -0.037135854 -0.034131963 -0.093438484
000190 34 e0 87 bd 8e 59 e2 bd a5 bd 91 3d 01 e2 27 bd
       -0.0663456 -0.110522375 0.0711625 -0.04098702
0001a0 c3 86 0b 3e b6 56 c1 3c 99 a3 03 bc cf 8c 5f bc
       0.13625626 0.023600917 -0.00803461 -0.013644411
0001b0 cc 4c cd bc 6e 2d 2d bd 31 93 90 3d f2 18 49 bd
       -0.025061034 -0.042279653 0.070593245 -0.049096055
0001c0 87 23 35 3c 44 c9 08 be 2a c9 0e bd e5 9f 93 3d
       0.011055834 -0.13358027 -0.034859814 0.07208232
0001d0 4e 08 42 3c 1c 21 f5 bd e7 47 ac bd e7 ed ea 3c
       0.0118428 -0.11969206 -0.08412152 0.028677894
0001e0 52 10 39 bd 9c 04 0b 3e e1 4c 0b be 2b 60 85 bb
       -0.04518158 0.13575977 -0.13603546 -0.004070302
0001f0 72 c6 09 be d3 f3 d7 3d 79 f7 d3 bd 88 c0 1c bd
       -0.13454607 0.10544553 -0.10349936 -0.03826955
000200 d3 a0 ba 3c d0 93 f6 3c 8f 96 e1 bc 8c 3c 8e bc
       0.022781765 0.03009978 -0.027537612 -0.017362855
000210 d5 09 73 3d 8d 2b 1a bd a5 41 48 3d 42 63 0b 3d
       0.05933555 -0.03763919 0.04889073 0.034030207
000220 e5 de 3d 3d e0 a4 a9 bc 5a 4e ba 3d 67 c6 4b 3b
       0.046355147 -0.020708501 0.090969756 0.0031093599
000230 a3 08 c5 bc 23 e9 e9 3c 12 20 49 bd d6 29 20 3c
       -0.02405197 0.028553551 -0.04910285 0.009775599
000240 5f 6a ad 3c 23 05 35 3c 71 57 ff 3b e7 b1 cb bc
       0.021168886 0.011048588 0.0077924062 -0.024865104
000250 cd 60 92 bd 7f 2d c2 bc 48 20 9d 3d 18 0d a8 3d
       -0.071473695 -0.023703335 0.07672173 0.082056224
000260 46 4b 35 bd eb e7 fd 3c ef 46 ab 3c f0 29 bd 3d
       -0.04426124 0.030994376 0.020907847 0.092365146
000270 40 dc ad 3d bf 61 08 bd 73 f5 67 3c 28 3d 0e 3e
       0.08489275 -0.033296343 0.014157641 0.13890517
000280 8f 74 d1 3c 40 9d 41 bd 46 8a 92 bc 3a a2 9d bc
       0.025568275 -0.047269106 -0.0178882 -0.019242395
000290 71 69 95 bd f3 16 34 bd 40 4d 8f 3d 6b 7d 86 bb
       -0.07295502 -0.0439672 0.06997156 -0.0041043065
0002a0 4f 4b 8d 3d 27 f0 8a bd 19 5c d2 3d 9b 82 f9 3c
       0.068991296 -0.06784087 0.102714725 0.030457785
0002b0 74 2a 7e bd 06 af a8 bc ce f1 9a 3c 96 fe 69 bd
       -0.062052205 -0.02059127 0.01891413 -0.057127558
0002c0 15 15 09 3d 5c 70 77 3d f6 e1 03 bd e9 65 56 bb
       0.03346737 0.06040989 -0.032197915 -0.0032714552
0002d0 63 22 a1 3d 6d 92 df bc 8a 9b 2a bd 5c c3 05 3d
       0.07867887 -0.027291501 -0.04165224 0.032657012
0002e0 34 88 84 bd ea 7d 66 3d 9a 7a 0c bd ab bc 52 3d
       -0.06471291 0.056272425 -0.03429661 0.05144946
0002f0 b7 74 16 bc 2c f7 e1 bc ac de 0f bd 9e 93 85 3d
       -0.0091831 -0.027583681 -0.035124466 0.06522296
000300 5d 3f 67 bd b9 f1 8a 3d 41 88 28 3d 71 19 1d bd
       -0.056456912 0.06784386 0.041145567 -0.03835434
000310 bb 19 8a 3d 92 b2 95 3d ef 76 61 bd 53 60 06 3c
       0.06743189 0.0730945 -0.055045065 0.008201676
000320 3f f7 0f 3d e0 99 00 bc 58 9a ca 3d 89 f3 a2 bc
       0.0351479 -0.007849187 0.0989272 -0.019891517
000330 94 fc 11 bd c1 a4 01 3d f3 57 dd 3c 5c 02 eb 3d
       -0.035641268 0.031651262 0.027019477 0.114750594
000340 35 90 a9 bd cf 28 9d bc 78 6b 9a bc 3d 22 dc 3c
       -0.082794584 -0.019184498 -0.018850073 0.026871795
000350 59 98 84 bc b1 a1 f5 bc 0c bf 55 bd 5f cc 07 bd
       -0.016185926 -0.029984327 -0.05218415 -0.033153888
000360 d0 bf 72 bd 85 14 27 3d 81 2c b9 3d 81 25 21 bd
       -0.059264958 0.040791053 0.090416916 -0.039342407
000370 1a 84 be 3d 40 d0 ba 3d 25 84 7a bc e5 18 2c 3d
       0.0930254 0.09121752 -0.015290295 0.04201593
000380 ef c3 ff 3b b8 4d b9 3d eb 44 d5 bb 15 8e f2 bb
       0.0078053395 0.09048027 -0.00650846 -0.0074021914
000390 25 6d 96 3d f0 7e b8 bd 9c bf cd 3c d7 8a 94 bd
       0.073450364 -0.090085864 0.02511578 -0.07253044
0003a0 be f6 1f ba d6 b5 24 3a 6a e7 96 bd 04 26 f9 bc
       -0.0006102136 0.0006283199 -0.073683575 -0.030413635
0003b0 0f 11 ba bc 24 96 7b bb 3b a7 cb 3c f2 fb 89 bd
       -0.022713212 -0.0038389051 0.024860015 -0.06737508
0003c0 16 34 d5 3d 33 a9 26 3c d9 da a1 3c cd 35 dd 3c
       0.10410325 0.010172176 0.019757675 0.027003193
0003d0 38 99 23 bd 17 f2 e0 3b 43 9d ad bd a4 3e 62 3d
       -0.039941043 0.006864797 -0.08477261 0.05523552
0003e0 f2 83 1a bc 69 e5 9b bd 23 80 2d 3d 64 42 5d bd
       -0.009430872 -0.07612116 0.04235853 -0.054018393
0003f0 1a ec 7d bd 12 44 85 bd 1e 7b 18 3b ec 7d bf 3c
       -0.061992742 -0.06507124 0.0023266743 0.023375474

net.2.bias f4 [192]
000000 fa cc da bb 6d 7e 6c 3d 06 c9 3b 3d 64 34 a9 3c
       -0.006677267 0.057737757 0.045846008 0.020654865
000010 16 70 3d 3d b8 d5 58 bc 3a d4 ec 3c d2 21 f7 bc
       0.04624947 -0.013234548 0.028909791 -0.030167494
000020 86 80 ba bd be e4 8b 3b f1 f9 59 3d 47 ba 49 bd
       -0.09106545 0.0042692116 0.05321688 -0.049249914
000030 b2 9d 92 3c da 79 9a bc 6e 12 13 bd 85 a9 98 3d
       0.01789746 -0.018856931 -0.035906248 0.07454208
000040 7b 95 76 3d aa 31 8b 3c 9e 12 1b 3d 5f f8 12 3e
       0.06020115 0.016991455 0.03785955 0.14352559
000050 f7 90 a6 3c bc fd bc 3c 5c 0c f6 bb ad e5 ed 3d
       0.020332796 0.023070209 -0.0075087976 0.11616073
000060 cb 49 39 3d 54 97 46 3d d9 22 14 3d cc be 05 3e
       0.04523639 0.04848416 0.036166046 0.13061064
000070 44 31 03 3d fb 12 91 3c b4 1f 92 bc ad d5 2a 3d
       0.032029405 0.017709246 -0.017837383 0.041707683
000080 a0 4b 91 3c fe 2e e5 3a 88 14 92 3d dd 6f 67 3d
       0.017736256 0.0017485318 0.07132822 0.056503166
000090 b5 4c 12 3d 1c 65 4f 3d 62 17 76 bd cc 98 05 bb
       0.035717685 0.050633535 -0.060080893 -0.0020385263
0000a0 48 ab 0e bd ea 5a 5c bc 7c 86 67 3d a0 e9 e8 3d
       -0.034831315 -0.01344941 0.05652474 0.113726854
0000b0 2d 06 9a bc 0b 56 c0 bb dc a1 6c bd 5f 9c c8 3c
       -0.018801773 -0.005869632 -0.05777155 0.024488626
0000c0 88 4f 89 3d 24 8f 01 bd 6a 61 cd 3c ed b6 d3 3d
       0.067046225 -0.03163065 0.025070865 0.10337625
0000d0 80 72 16 3d db 53 82 bc 97 74 98 3d eb 45 c5 3a
       0.03673029 -0.015909126 0.07444113 0.0015050744
0000e0 a1 58 05 3d e0 94 90 bd cc 5a 99 bc 57 9d d0 bc
       0.032555226 -0.07059646 -0.018720053 -0.02546565
0000f0 14 0d 91 3b 1a a3 3d 3c d0 98 8d 3d b6 71 ce bc
       0.004426608 0.011574531 0.06913912 -0.025200706
000100 22 56 87 bd 0e 46 0b bd ed ba 5e bd bc ea 4c bd
       -0.066082254 -0.034002356 -0.054377485 -0.050028548
000110 6e c4 a7 bc e5 74 81 bd c6 eb 63 3d 1f 3b 7a bd
       -0.020479407 -0.06321124 0.055644773 -0.06109154
000120 1d 21 a0 bc 7c 70 1d 3d 9f 41 a8 3c 41 ff 37 3d
       -0.01954704 0.03843735 0.020539103 0.044921163
000130 17 79 f7 3b 24 4c 9f 3d 80 57 8a 3d 98 a7 c7 3c
       0.007552277 0.077781945 0.067549706 0.024371907
000140 d0 ce 54 3d 67 76 e6 3b d2 14 3b 3d e6 e0 c7 3c
       0.051955044 0.0070331576 0.045674153 0.024399232
000150 48 87 80 bc 67 f4 4e bd 6a 68 40 3d 77 45 88 3d
       -0.015689507 -0.05052605 0.046974577 0.06653874
000160 07 13 7b bd 5f 08 98 3d 65 16 58 3d 3e fd 9b 3d
       -0.061297443 0.07423472 0.052755732 0.076166615
000170 69 aa 07 bd a4 0e a4 3d a7 25 dc 3b f9 02 f2 3d
       -0.0331215 0.08010605 0.0067183557 0.11816973
000180 65 97 78 3c f0 2c 8d bd 1f 7f b5 bd 04 5a 93 bc
       0.015172814 -0.06893337 -0.08862137 -0.017987259
000190 11 a1 4a 3c c1 62 2b bd c0 ea e7 bb 4c be 8e bd
       0.012367503 -0.041842226 -0.007077545 -0.0696989
0001a0 ea 8a e9 3d 7c 4f 91 ba 20 e4 70 3d 21 68 b0 bc
       0.11403449 -0.001108631 0.058811307 -0.021534028
0001b0 08 40 97 3d ad 7f 96 3d db 59 83 39 4e 7c 52 bc
       0.0738526 0.07348571 0.00025053215 -0.012847019
0001c0 5d db 21 bd f7 7d d2 3d 59 3a c2 3d dd 6e 88 3d
       -0.03951584 0.10277932 0.09483785 0.066617705
0001d0 45 44 be 3d 46 cb be bd 51 52 f0 3c 6a 33 0c bd
       0.09290365 -0.09316115 0.029336127 -0.03422872
0001e0 bf 04 bb bd d6 4c 8c 3d 5d 48 ad bb ba cb 18 3c
       -0.091317646 0.06850593 -0.0052881674 0.009325916
0001f0 38 f2 bd 3c 47 d1 0d bd a8 0e c9 3c db d2 71 3d
       0.023186788 -0.03462341 0.024543121 0.059038978
000200 6f 32 81 bc 5e 38 8c 3d d1 55 64 bd 0d 52 36 3c
       -0.015771119 0.06846689 -0.055745903 0.011127961
000210 67 1a 76 bc 7f fe eb 3b 08 bc a8 bd 9e 8b 3b 3d
       -0.015020943 0.007201969 -0.08238989 0.045787446
000220 f5 df a3 3a bb 63 af 3d ab 3c 9b bb 69 23 16 3c
       0.0012502657 0.08563944 -0.004737457 0.009163716
000230 ab a2 8b bd f3 f0 3f bd 9e 7f 93 3c 53 27 af 3c
       -0.06818136 -0.046860646 0.018005189 0.021381056
000240 2b 20 b3 3d 47 fc ae bc 38 1a 18 bd 71 65 0d 3e
       0.0874637 -0.02136053 -0.03713438 0.13808228
000250 57 eb ef 3d b5 76 34 bd 68 37 a7 3c fd 26 17 3e
       0.117148094 -0.04405852 0.020412162 0.14760967
000260 63 33 a3 3d 84 23 5d 3d 51 2e e7 3d 45 67 65 3d
       0.079687856 0.05398895 0.11288131 0.05600669
000270 1f 56 20 3d 6a 5d 5b 3c 55 5d ad 3d 7b 1b f2 3d
       0.03914463 0.013388971 0.08465067 0.11821648
000280 58 22 ce bc 05 5a 16 3d ba a0 c4 bd 52 30 98 bb
       -0.02516286 0.036706943 -0.09600969 -0.004644432
000290 f2 b4 08 3d 49 1e d1 bd 0d 55 1f 3d f1 00 a8 3d
       0.033375688 -0.102108546 0.03889947 0.082033046
0002a0 cf f3 02 3d 11 88 dc 3d 9e 16 42 bd d6 f4 a7 3d
       0.031970795 0.1076814 -0.04738485 0.082009956
0002b0 1b 0f 07 bd 0d de 09 bd 7e e9 de 3c bd e9 ac 3b
       -0.03297339 -0.03365903 0.027210947 0.005276887
0002c0 1b 6f 8a bc 87 fb d3 3d c9 d3 5b 3d 01 02 cc bb
       -0.016898682 0.103507094 0.05366877 -0.006225825
0002d0 f7 ad b5 3d 93 e6 50 bd c4 30 50 3d 56 cb 1c bb
       0.08871072 -0.051001143 0.050827757 -0.0023924909
0002e0 06 60 75 bd bd b4 44 3d b2 66 bd 3c 5d d0 7f bc
       -0.05990603 0.048023928 0.023120258 -0.0156136425
0002f0 f7 50 07 bc 22 2a 28 3d 8d 82 8f 3d f2 d5 67 bd
       -0.00825905 0.041055806 0.070073225 -0.05660052

exp_avg f4 [128, 142]
000000 28 c0 5c 3b 1d 2a 5d 3b fb 8a 6c 3b ff c7 6b 3b
       0.003368387 0.0033747025 0.003609358 0.0035977361
000010 56 11 58 3a cf 3f 65 39 02 9a d9 bc c3 13 bf bc
       0.00082423293 0.00021862912 -0.026562694 -0.023324853
000020 cf 9b df 3a a5 e9 ec 38 20 a7 b5 bc 2c fe 6a 3b
       0.0017059984 0.000112968766 -0.022174418 0.0035857065
000030 ff 52 b5 bc b0 0b c6 bc 73 e1 c8 bc c2 a1 c1 bc
       -0.022134302 -0.024175495 -0.024521565 -0.023636702
000040 4b 80 4c 3b e6 88 d9 bc 74 e6 d9 bc 8a 0d 29 3c
       0.0031204398 -0.026554536 -0.026599146 0.010318169
000050 ab f9 9f bc ab 5c a8 3b 19 45 a2 3b 16 ca bf bc
       -0.01952823 0.005138 0.0049520847 -0.023411792
000060 75 ed 2f bb 26 47 d9 bc d9 f0 d1 bc 48 8b 67 bc
       -0.0026844416 -0.026523184 -0.02562754 -0.014132328
000070 1a 0b a5 bc e1 35 a2 3b 48 e6 c0 3a 23 44 d2 bc
       -0.020146895 0.0049502705 0.0014717067 -0.025667256
000080 c2 20 c3 bc 05 bb 6d bc 86 2e 94 bc 60 91 e3 bb
       -0.023819331 -0.014509921 -0.01808859 -0.0069448203
000090 0e 08 36 3c c1 76 4c 3c 9d 44 4a 3c 8b f1 93 bc
       0.011110319 0.012479485 0.01234546 -0.018059513
0000a0 0a 61 0d bd 3a 43 76 bb 4b 0d 0c bd 6e 53 e0 bc
       -0.03451637 -0.0037576691 -0.034192365 -0.027383532
0000b0 46 e2 0c bc 68 4a 04 bd 56 bd 03 bd fa c5 03 bd
       -0.00859887 -0.03229752 -0.032162987 -0.032171227
0000c0 83 56 05 bd 99 da 00 bd 98 9a fa bc 9f 91 9d bc
       -0.032553207 -0.03145847 -0.030591294 -0.019234477
0000d0 bb 5d 08 ba 21 11 0b bb 16 c7 0a bb 48 0c 0a bb
       -0.0005201955 -0.0021219926 -0.0021175793 -0.002106445
0000e0 64 44 1b 3c 7e b1 0d 3b 32 36 6f 3a 6d ff cd bc
       0.009476755 0.0021620686 0.0009125202 -0.02514621
0000f0 10 f6 b4 3a 2d 26 2a 3b 54 23 81 3a f5 b3 81 3a
       0.0013806242 0.0025962696 0.0009852448 0.000989555
000100 60 72 5e bc 84 32 ba bc f7 0d ec 3a 83 2b 57 3b
       -0.013577074 -0.022729166 0.0018009533 0.0032832331
000110 b4 c2 a3 3a 4a 16 96 bc 89 3d 93 ba e9 a4 43 3b
       0.0012493939 -0.018321175 -0.0011233549 0.0029852933
000120 00 00 00 00 00 00 00 00 10 dc a6 bc 8a db 5d ba
       0.0 0.0 -0.020368606 -0.0008463195
000130 51 9f bd 39 00 00 00 00 00 00 00 00 8d 5f ba b6
       0.0003616759 0.0 0.0 -5.5543555e-06
000140 00 00 00 00 00 00 00 00 00 00 00 00 00 00 00 00
       0.0 0.0 0.0 0.0
000150 3a 2d a0 36 00 00 00 00 00 00 00 00 00 00 00 00
       4.7736366e-06 0.0 0.0 0.0
000160 00 00 00 00 f3 01 09 bc 72 2a 00 bc 2a 56 cc bb
       0.0 -0.008362281 -0.00782262 -0.0062358575
000170 c0 9d 44 bc c0 9d 44 bc 31 80 92 3a c6 bb b5 3a
       -0.012000501 -0.012000501 0.001117712 0.0013865165
000180 44 c9 40 3b 00 00 00 00 00 00 00 00 96 e2 a9 ba
       0.0029416839 0.0 0.0 -0.0012961205
000190 a0 0b 5d 3b 8c b7 39 3b 00 00 00 00 00 00 00 00
       0.0033728853 0.0028338162 0.0 0.0
0001a0 dd 31 26 3b 00 00 00 00 00 00 00 00 00 00 00 00
       0.002535931 0.0 0.0 0.0
0001b0 00 00 00 00 44 7d a4 3a 00 00 00 00 00 00 00 00
       0.0 0.0012549539 0.0 0.0
0001c0 00 00 00 00 00 00 00 00 c6 a0 11 bd 6d 68 bc bc
       0.0 0.0 -0.035553716 -0.022999013
0001d0 7c 0a 16 3b b3 ab e6 35 1b 86 d1 af 8c 1d 13 bd
       0.0022894433 1.7186306e-06 -3.8112166e-10 -0.03591685
0001e0 77 6a bc bc a9 b5 0f 3b 00 00 00 00 00 00 00 00
       -0.022999985 0.0021928346 0.0 0.0
0001f0 66 da 14 bd ce 8a f6 bc 74 b5 67 bb 00 00 00 00
       -0.036341093 -0.030095484 -0.0035355957 0.0
000200 00 00 00 00 4e 91 f0 bb 00 00 00 00 00 00 00 00
       0.0 -0.0073415404 0.0 0.0
000210 00 00 00 00 00 00 00 00 8a 41 05 bc 00 00 00 00
       0.0 0.0 -0.0081333015 0.0
000220 00 00 00 00 00 00 00 00 00 00 00 00 17 4e 30 be
       0.0 0.0 0.0 -0.17217289
000230 ce fb 38 bc 99 d7 23 3c 64 2d 3d 3a 4e 2a 3b 3a
       -0.011290504 0.010000133 0.00072165416 0.0007139788
000240 19 91 b1 bc 03 a5 b4 bc 15 12 91 bc 87 59 b8 bc
       -0.021675633 -0.02205134 -0.017708817 -0.022503627
000250 68 74 60 bd 62 89 5d bd d1 16 ab bc 43 80 90 b7
       -0.054798514 -0.054086097 -0.020884903 -1.7225864e-05
000260 d4 a9 60 bd 38 6c 54 3a 58 77 51 bd 26 e0 9e bd
       -0.05484946 0.0008103284 -0.051139206 -0.07757597
000270 f1 a4 9f bd a5 4b 98 bd d8 92 34 3a d2 aa 88 bd
       -0.07795132 -0.07436303 0.00068883365 -0.066732064
000280 2d ba 87 bd 35 bb b2 bc df 7d 9d bd 8c 84 a2 bc
       -0.06627307 -0.021817783 -0.07690024 -0.019838594
000290 19 5f a3 bc d0 ce 97 bd 81 2f 27 3c 77 2b 88 bd
       -0.019942807 -0.07412493 0.010204197 -0.06648915
0002a0 b8 1b 93 bd 58 58 97 bd 05 75 9e bd cf ba a2 bc
       -0.07183021 -0.07389897 -0.077371635 -0.019864468
0002b0 18 f6 a9 bc ee 87 9a bd 24 7e 53 bd 87 56 6d bd
       -0.02074723 -0.07545458 -0.05163397 -0.057943847
0002c0 f0 c4 58 bd b7 0c 63 bd 3a aa 44 ba a6 e3 b5 bb
       -0.05292219 -0.055432048 -0.00075021724 -0.0055508194
0002d0 d7 17 c1 bb f9 38 7b bd 4c aa 92 bd 1b b2 52 3b
       -0.0058927345 -0.06133363 -0.07161388 0.0032149616
0002e0 35 23 5b bd 5e 50 92 bd 38 4e 78 3b cb 21 5f bd
       -0.053500373 -0.07144235 0.003788842 -0.054475587
0002f0 1b 20 5f bd 16 16 5f bd 6b 05 8c bd f1 75 42 bd
       -0.054473978 -0.054464422 -0.06836971 -0.04747576
000300 b8 59 54 bd 7f 12 89 bd f8 b1 07 3c 48 2c 2a 3c
       -0.051843375 -0.06692981 0.008282177 0.010386534
000310 44 06 2a 3c 6b 27 2a 3c 5b 33 c4 bc 7b cf 48 3a
       0.01037747 0.010385375 -0.02395027 0.00076603115
000320 4c 1a d3 bc a4 7f 9f bd fe 1a c9 3a 82 7f 9d bc
       -0.025769375 -0.077880174 0.0015343127 -0.01922584
000330 6b c6 a9 bc 09 cb a9 bc ec 62 78 bd 8c 5f 4d bd
       -0.020724496 -0.020726698 -0.060641214 -0.05013995
000340 fd 03 c5 3a 29 63 9f bb de 10 cb ba 19 b6 5b bd
       0.0015031096 -0.0048641157 -0.0015492698 -0.05364046
000350 f7 06 0a 3b a4 25 25 3b 00 00 00 00 00 00 00 00
       0.002106128 0.0025199438 0.0 0.0
000360 e6 ba 7e bd a1 2b 2e bb 90 29 2a bb 00 00 00 00
       -0.06218996 -0.0026576298 -0.0025964715 0.0
000370 00 00 00 00 08 15 7f 37 00 00 00 00 00 00 00 00
       0.0 1.5204081e-05 0.0 0.0
000380 00 00 00 00 00 00 00 00 67 fd 66 36 00 00 00 00
       0.0 0.0 3.442017e-06 0.0
000390 00 00 00 00 00 00 00 00 00 00 00 00 ff 5e 40 bc
       0.0 0.0 0.0 -0.011741399
0003a0 32 88 f6 bb bf c5 e9 bb c8 ab 45 3b c8 ab 45 3b
       -0.00752356 -0.007134169 0.0030162204 0.0030162204
0003b0 7a 15 8a bc ac 6d 8a bc 5b 66 85 bc 00 00 00 00
       -0.016855944 -0.016897999 -0.016284158 0.0
0003c0 00 00 00 00 a8 e3 b9 bc d5 98 7c bc cd b3 85 bc
       0.0 -0.022691563 -0.015417297 -0.016321087
0003d0 00 00 00 00 00 00 00 00 3d 6c 89 bb 00 00 00 00
       0.0 0.0 -0.004193811 0.0
0003e0 00 00 00 00 00 00 00 00 00 00 00 00 a0 95 73 bb
       0.0 0.0 0.0 -0.003716804
0003f0 00 00 00 00 00 00 00 00 00 00 00 00 00 00 00 00
       0.0 0.0 0.0 0.0

exp_avg_sq f4 [128, 142]
000000 e3 82 13 3b 52 ff 4d 3b 3f 12 39 3b 9a e3 81 3b
       0.0022508434 0.00314327 0.0028239635 0.0039639
000010 37 a0 a4 3b 37 49 72 3b 74 8d af 3b a1 2b a6 3b
       0.005023982 0.003696991 0.0053574387 0.005071119
000020 81 e5 26 3b 31 a0 79 3b a5 08 98 3b 86 65 97 3b
       0.0025466385 0.0038089866 0.0046397024 0.004620257
000030 3a 9d 8c 3b fb a8 56 3b 3d 6a 5b 3b 89 fd 7b 3b
       0.004291204 0.0032754529 0.003348007 0.003845068
000040 8d 75 47 3b 42 b4 cd 3b 00 b0 91 3b 96 a4 65 3b
       0.0030435056 0.006277592 0.0044460297 0.0035040728
000050 00 c7 a8 3b 4e bc b9 3b 2e 9f d5 3b c1 49 da 3b
       0.005150676 0.0056681996 0.00651922 0.006661624
000060 77 e6 ba 3b a9 9f de 3b 25 c4 cf 3b 52 45 e4 3b
       0.005703743 0.0067939353 0.006340521 0.0069662714
000070 41 27 ef 3b d7 86 79 3b a3 90 bf 3b 87 9f bc 3b
       0.0072983806 0.0038074756 0.0058460995 0.005756322
000080 1e 59 dd 3b 83 1f 89 3b 7a da d9 3b 17 05 e1 3b
       0.0067550084 0.0041846647 0.006648359 0.006867062
000090 9f b1 a6 3b 23 3e 81 3b 7b d6 c7 3b a5 f0 a5 3b
       0.005087092 0.003944175 0.006098566 0.0050640875
0000a0 c8 c3 c8 3b 78 7b 90 3b da ce da 3b 00 50 d1 3b
       0.0061268546 0.00440925 0.0066774907 0.0063877106
0000b0 b0 e3 b2 3b dc dd c7 3b f4 18 f3 3b d6 cf c8 3b
       0.0054592714 0.0060994457 0.007418746 0.0061282916
0000c0 51 41 a0 3b 34 33 88 3b 15 3b 0c 3b da 88 3b 3b
       0.004890599 0.0041564945 0.002139752 0.0028615505
0000d0 b7 85 29 3b 69 13 ab 3b 4e 46 ad 3b 2f 82 24 3b
       0.0025867054 0.0052208197 0.005287922 0.002510201
0000e0 5c eb 9b 3b 56 68 a3 3b 2d b7 bb 3b 72 b7 c6 3b
       0.0047582816 0.004986803 0.0057286234 0.006064349
0000f0 64 9b 74 3b 94 db 55 3b ca 7d 46 3b 10 16 31 3b
       0.0037324065 0.00326321 0.0030287378 0.0027021207
000100 42 39 8a 3b 72 55 70 3b c1 d3 5a 3b 08 c9 ac 3a
       0.0042182514 0.0036672023 0.0033390375 0.001318247
000110 e7 92 3a 3a 86 c1 1c 3b 9f 8f a6 3a 09 6c da 3a
       0.0007117227 0.002391906 0.0012707597 0.0016664277
000120 00 00 00 00 00 00 00 00 db ad 07 3b cc 5b 88 3a
       0.0 0.0 0.0020702991 0.0010403334
000130 7d 40 6a 3a 00 00 00 00 00 00 00 00 33 af b7 39
       0.0008936001 0.0 0.0 0.00035035014
000140 00 00 00 00 00 00 00 00 00 00 00 00 00 00 00 00
       0.0 0.0 0.0 0.0
000150 1d d7 4e 39 00 00 00 00 00 00 00 00 00 00 00 00
       0.00019725827 0.0 0.0 0.0
000160 00 00 00 00 75 14 ca 3b 48 ec c2 3b fc 9a b3 3b
       0.0 0.0061669894 0.005948577 0.005481122
000170 be 51 c5 39 c4 16 92 39 5a 12 b4 3b 2b 1c ba 3b
       0.0003763567 0.00027864252 0.0054953517 0.0056796274
000180 10 e2 92 3b 00 00 00 00 00 00 00 00 5e 3a bf 3b
       0.004482515 0.0 0.0 0.0058358153
000190 b5 f1 99 3b e9 18 89 3b 00 00 00 00 00 00 00 00
       0.004698003 0.0041838777 0.0 0.0
0001a0 ab b6 1f 3a 00 00 00 00 00 00 00 00 00 00 00 00
       0.00060925883 0.0 0.0 0.0
0001b0 00 00 00 00 af 1b 17 39 00 00 00 00 00 00 00 00
       0.0 0.00014410795 0.0 0.0
0001c0 00 00 00 00 00 00 00 00 9a fc d8 3b d4 67 b7 3b
       0.0 0.0 0.0066219093 0.005597094
0001d0 9e 5f 96 3b ce 0a a8 39 30 c2 8e 39 09 c1 d0 3b
       0.004589035 0.00032051507 0.00027229032 0.006370668
0001e0 3d 79 b1 3b b2 90 8c 3b 00 00 00 00 00 00 00 00
       0.005416064 0.00428971 0.0 0.0
0001f0 de fa 43 3b 5a b7 eb 3a b4 94 a4 3a 00 00 00 00
       0.0029904167 0.001798372 0.0012556524 0.0
000200 00 00 00 00 7d 1f 46 3a 00 00 00 00 00 00 00 00
       0.0 0.00075577927 0.0 0.0
000210 00 00 00 00 00 00 00 00 14 57 40 3a 00 00 00 00
       0.0 0.0 0.00073371944 0.0
000220 00 00 00 00 00 00 00 00 00 00 00 00 24 29 0c 3d
       0.0 0.0 0.0 0.034218922
000230 0d 2a c9 3b 04 ea cf 3c 12 08 83 3b 49 bc a9 3b
       0.006139046 0.025380142 0.003998765 0.005179916
000240 53 1d 94 3b 26 9b a2 3b 6a d3 c9 3b 3f 6d ad 3b
       0.0045200973 0.004962343 0.0061592357 0.005292564
000250 ad a9 da 3b df 99 da 3b ff f3 25 3b b1 af 9d 3b
       0.006673059 0.006671175 0.0025322435 0.004812204
000260 a2 3f c8 3b b1 83 c1 3b 1b 02 9b 3b 6b b0 9b 3b
       0.0061111012 0.0059055914 0.0047304756 0.0047512553
000270 98 0b 90 3b 00 a7 de 3b 8b b1 3f 3b 52 6b d8 3b
       0.0043959133 0.0067948103 0.002925011 0.0066045905
000280 8e c5 af 3b fb e1 9a 3b 3a e8 ac 3b e8 34 c3 3b
       0.0053641265 0.004726646 0.005276707 0.0059572347
000290 a0 54 d9 3b d1 a2 0b 3c 5a 2b b2 3b 37 2b e2 3b
       0.0066324025 0.008522705 0.005437297 0.0069021243
0002a0 29 b6 ef 3b 42 f3 ed 3b 4e b4 fe 3b f5 04 b9 3b
       0.0073154164 0.0072616646 0.007772959 0.005646343
0002b0 b2 d5 cf 3b 77 36 f2 3b 1d cf 07 3c 0a a6 bf 3b
       0.006342613 0.0073917466 0.008289126 0.005848651
0002c0 ab 58 fb 3b 38 5c 0e 3c 3e f9 ca 3b 5d a6 ba 3b
       0.007670482 0.008688979 0.0061942628 0.0056961016
0002d0 8d ed c1 3b 01 b0 b8 3b fe 50 0a 3c a9 da a0 3b
       0.005918211 0.0056362157 0.008442162 0.004908879
0002e0 20 be e0 3b 11 11 f7 3b ea be e4 3b a7 42 f8 3b
       0.006858602 0.0075398763 0.0069807665 0.007576305
0002f0 34 b6 0b 3c 74 c0 d9 3b c7 27 d6 3b e2 4b cd 3b
       0.008527327 0.0066452567 0.0065355035 0.0062651495
000300 07 79 86 3b 95 be 93 3b 36 42 2a 3b 9b 92 98 3b
       0.004103783 0.004508803 0.0025979406 0.0046561486
000310 9e 7e 96 3b 1d a3 50 3b dc 33 99 3b a4 ca dc 3b
       0.0045927307 0.0031835504 0.0046753716 0.006738024
000320 4e df c9 3b 7d f4 e8 3b 83 33 1f 3b 60 06 77 3b
       0.006160653 0.0071092234 0.0024292178 0.0037693009
000330 ec 80 3e 3b ba 69 49 3b 08 74 bb 3b 4b 8b b4 3b
       0.0029068543 0.0030733184 0.005720619 0.005509769
000340 99 e9 5b 3b df 9d c5 3a 08 59 bf 39 10 ca 59 3b
       0.0033555983 0.0015076956 0.00036496692 0.003323201
000350 9e 04 08 3b cc 5e fc 3a 00 00 00 00 00 00 00 00
       0.0020754705 0.0019254326 0.0 0.0
000360 ac 0b 3a 3b 3c 99 c5 3a 7c f8 66 3a 00 00 00 00
       0.0028388305 0.0015075575 0.0008810831 0.0
000370 00 00 00 00 ea 25 d8 39 00 00 00 00 00 00 00 00
       0.0 0.0004122698 0.0 0.0
000380 00 00 00 00 00 00 00 00 bb 78 c5 38 00 00 00 00
       0.0 0.0 9.41618e-05 0.0
000390 00 00 00 00 00 00 00 00 00 00 00 00 42 ad f7 3b
       0.0 0.0 0.0 0.0075584957
0003a0 f6 b0 df 3b 00 9d c7 3b 4e 0c b2 39 9c 27 a8 39
       0.0068265153 0.006091714 0.00033959973 0.00032072968
0003b0 74 6c e9 3b 7a 5b d8 3b ee 0a b3 3b 00 00 00 00
       0.0071235243 0.0066027017 0.0054639494 0.0
0003c0 00 00 00 00 19 f8 d0 3b af 9d b9 3b 09 26 a5 3b
       0.0 0.006377232 0.0056645493 0.0050399345
0003d0 00 00 00 00 00 00 00 00 c3 80 de 39 00 00 00 00
       0.0 0.0 0.00042439075 0.0
0003e0 00 00 00 00 00 00 00 00 00 00 00 00 6c f9 b1 39
       0.0 0.0 0.0 0.00033945905
0003f0 00 00 00 00 00 00 00 00 00 00 00 00 00 00 00 00
       0.0 0.0 0.0 0.0

exp_avg f4 [128]
000000 0e cb 01 bd 54 db 8a bd 2b 0a dc 3a 59 a4 b7 bb
       -0.03168779 -0.06780115 0.0016787698 -0.0056043086
000010 d6 91 de bb 37 80 7c bc 6e 69 56 bd 78 17 c2 ba
       -0.0067922873 -0.015411428 -0.05234664 -0.001480802
000020 ed f2 64 3d f4 50 54 3c d9 38 ba 3a db 37 47 3c
       0.055895735 0.012958754 0.0014207616 0.012159313
000030 49 6f e2 bb 80 88 29 bd 19 dc b9 30 95 2f 62 bb
       -0.006910239 -0.041389942 1.3523077e-09 -0.0034513224
000040 ca 99 9c ba cc ba 9d 32 8c 19 05 bd f4 f5 0e 38
       -0.0011947688 1.8362151e-08 -0.032495067 3.40845e-05
000050 6f 3a 56 b4 ab 67 68 3b ae 87 ef b8 13 24 b3 bd
       -1.9951561e-07 0.0035462182 -0.000114216804 -0.08747115
000060 f1 fa 98 3a 31 8c fb 3b 32 17 2f 3b f8 36 3a bc
       0.0011671466 0.007676624 0.0026716706 -0.011365645
000070 97 93 4d 3d 97 68 c0 36 8b f1 7a bd 30 ab dd 3c
       0.05018958 5.7342218e-06 -0.06126551 0.027059168
000080 ab af 8f 3c dd 9b b4 3c b0 4f bb bc ce 84 91 bc
       0.01753982 0.022046978 -0.022865146 -0.017763522
000090 2f 2d c7 3b ba 77 25 3c 0e aa a3 3d d7 e8 05 bb
       0.0060783844 0.010099346 0.0799142 -0.0020432973
0000a0 60 1b 45 bd aa 14 5a b9 3b 93 54 ba b7 a8 bd 3b
       -0.04812181 -0.00020797798 -0.0008109097 0.0057879346
0000b0 7a 7b 18 3d 64 75 1a ba 2a 94 64 b4 42 5c b8 bb
       0.03722713 -0.00058921264 -2.1288056e-07 -0.0056262324
0000c0 7a 2f 86 bd 5e bb f9 ba c9 ed 02 bd 5d 7d a7 bd
       -0.06552024 -0.0019053032 -0.03196505 -0.08178208
0000d0 c0 c9 1d bb 2b 60 1d 3d ed be 0a bb 97 18 3a bc
       -0.0024076551 0.03842179 -0.002117093 -0.011358402
0000e0 e4 8b 5f 3b e1 c8 f4 3c f8 e7 34 bd 77 02 44 3d
       0.003411048 0.029880943 -0.044166535 0.047853913
0000f0 cd a9 2a a8 90 54 e8 34 4b 0f fb 3a fa 9f 42 3b
       -9.473715e-15 4.3274895e-07 0.0019154338 0.0029697404
000100 d2 20 6c 3d a0 3f 0d bb 82 39 20 2d 8c 14 d6 bc
       0.057648487 -0.0021552816 9.107716e-12 -0.026132844
000110 ab 2f 1d 3b c4 fa f1 bc c7 85 6d 20 5a a3 40 3d
       0.002398471 -0.02953852 2.0118944e-19 0.047030784
000120 04 3e 83 bb 35 3d 59 3a 22 02 82 bd 4e c6 35 37
       -0.0040051956 0.00082870136 -0.06348063 1.0834612e-05
000130 0a 5c 5f 35 f6 f9 20 3c c8 a3 16 bc 60 65 bb bb
       8.320791e-07 0.00982522 -0.009194322 -0.005718872
000140 2e 8d 81 3c da 5d 41 bc 88 7c e4 bc c5 a6 b4 bc
       0.01581439 -0.011802161 -0.027891412 -0.022052178
000150 cf 46 03 bd 06 05 52 3c d4 61 58 16 c9 a4 42 3b
       -0.03204995 0.0128185805 1.747921e-25 0.002970027
000160 fc 5b 49 3b a4 9e 1a bd cd a2 69 39 14 bc e8 36
       0.0030724993 -0.037748948 0.0002228126 6.936034e-06
000170 d2 be 12 3b 1b b0 33 bc cf 82 62 bd 3f 58 e1 37
       0.002239157 -0.01096728 -0.05530053 2.6863183e-05
000180 31 93 e4 b2 86 6c c4 bc b8 82 a1 b8 92 68 2b 3d
       -2.6609628e-08 -0.02397753 -7.7014265e-05 0.041847773
000190 71 96 82 bc d6 59 94 bc c0 8d 91 bb 9b c6 0c 3a
       -0.015940877 -0.018109243 -0.0044419467 0.00053701707
0001a0 b6 3c 67 3b 3d d2 70 3c cd 38 93 bb e1 da f0 bc
       0.003528399 0.014698562 -0.004492855 -0.029401245
0001b0 3f 1d e7 22 44 76 86 3c 01 60 25 b7 e7 b4 bf bc
       6.264364e-18 0.016413815 -9.857119e-06 -0.02340169
0001c0 17 e9 a6 bb 16 da 9e bc e1 89 23 39 04 bc e8 b2
       -0.0050937044 -0.0193911 0.00015596255 -2.7093854e-08
0001d0 51 fe 3b 3c a6 35 9b b9 0f 1c ed 3b b8 82 06 bc
       0.011474208 -0.00029603875 0.007236011 -0.008209877
0001e0 11 9e ff bc 87 7d 14 37 40 d1 b0 bd 5a f5 13 3d
       -0.031203302 8.850714e-06 -0.08633661 0.036122657
0001f0 d8 cf 07 3b 0c 35 b7 3a 81 dd 70 bc 66 c5 15 bc
       0.002072325 0.0013977601 -0.014701248 -0.009141302

exp_avg_sq f4 [128]
000000 f6 eb 15 3c ab e9 36 3c a2 f1 48 3a 43 40 14 3c
       0.009150496 0.011164109 0.00076654006 0.009048524
000010 ad 1f c1 3a f6 9c 06 3c b4 63 fa 3b a6 5d b6 39
       0.0014734172 0.008216133 0.00764128 0.0003478352
000020 01 47 a1 3b 5d 7f 25 3b fe 42 0b 3c 79 2e 55 3a
       0.0049217944 0.0025252916 0.008499859 0.000813223
000030 18 72 09 3c 69 c6 21 3c b4 2e c3 3a 6d 65 ce 3a
       0.0083890185 0.009873965 0.0014891238 0.001574678
000040 c4 e8 ee 39 63 23 ab 3a 70 8b 03 3c 6b 06 4b 3b
       0.0004556832 0.0013056811 0.00802885 0.0030979167
000050 08 21 5b 3a cb 3a 3d 3b c7 c5 42 3b 7f ba 14 3c
       0.0008359109 0.0028874155 0.0029719935 0.009077667
000060 9f ac 3e 3a 7c 80 0a 3c ec b9 f0 3a 5b ae b5 3b
       0.00072736474 0.008453485 0.0018365956 0.0055444664
000070 ff 3d 18 3c d4 a1 19 3b 0b 11 9f 3b 38 f6 20 3c
       0.009292125 0.0023442404 0.0048543266 0.009824328
000080 94 73 1c 3c 60 6b aa 3b 2c 6e 47 3c f4 56 c0 3b
       0.00954904 0.0052007884 0.012172263 0.0058697406
000090 28 aa 14 3c d6 2c 50 3b 1a ee 8b 3b a5 c0 0b 3b
       0.009073772 0.0031765006 0.0042703273 0.0021324542
0000a0 99 d3 2d 3c cc 1a ee 3a e5 f8 70 39 2e 50 7e 3b
       0.010609531 0.0018165945 0.00022980904 0.0038805115
0000b0 ca ac 00 3c 79 26 20 3a 11 02 9f 3a 48 c5 b5 3b
       0.007853696 0.00061092485 0.0012131353 0.0055471994
0000c0 56 57 35 3c 11 b0 54 3b 2e b0 0f 3c 3d db 40 3c
       0.011068186 0.0032453577 0.008770032 0.0117710205
0000d0 fe 0c d0 3b 10 e8 7c 3b 66 95 93 3b f7 29 ea 3b
       0.006349205 0.0038590468 0.0045038937 0.007146116
0000e0 db 75 c9 3b d2 ea 0c 3c 3c 81 06 3c cc af 5e 3c
       0.0061480827 0.008600907 0.008209523 0.013591718
0000f0 4c e0 4c 39 7a 8c a7 3a 43 bf 0e 3a d5 f4 94 3a
       0.00019538513 0.0012782954 0.00054453703 0.001136447
000100 98 23 fa 3b bc 53 0b 3b 79 1f df 39 e6 47 39 3c
       0.0076336376 0.0021259626 0.00042557323 0.011308646
000110 b4 44 56 3b af 69 1c 3c c6 57 80 38 cd 0f fa 3b
       0.003269476 0.009546681 6.119865e-05 0.007631278
000120 b8 3f 63 3b 4e 8a 80 3a 4d 87 23 3c 5b 5d c3 39
       0.003467543 0.0009806843 0.009980989 0.00037262854
000130 a8 55 7b 3a 20 1d b1 3a 7f 25 19 3b 25 90 8b 3b
       0.0009587654 0.0013512708 0.0023368297 0.0042591267
000140 a5 a0 ac 3b a4 44 18 3c a1 93 e9 3b a3 8f 26 3c
       0.0052681738 0.009293709 0.0071281944 0.010166082
000150 0e 0d dc 3b e4 02 be 3b 71 f8 b1 37 18 bb e4 3a
       0.0067154234 0.0057986844 2.1215734e-05 0.0017450778
000160 c5 1b 87 3b db a0 ba 3b 86 60 13 3b 0d c9 46 3b
       0.0041231834 0.005695445 0.0022487952 0.0030332238
000170 db 9d dc 3b 07 be 17 3a 09 9b 2f 3c e4 cc e7 38
       0.006732685 0.0005788509 0.010718116 0.00011053102
000180 0d c4 b9 39 d0 01 9f 3b c2 a7 70 3b 28 55 39 3c
       0.0003543202 0.004852511 0.0036721085 0.011311807
000190 ae fe 86 3b d0 80 f5 3a d6 69 8b 39 3b f2 98 3a
       0.0041197157 0.0018730406 0.00026591 0.001166887
0001a0 20 3d b2 3b ce 17 56 3b 07 44 da 3a 76 66 c2 3a
       0.0054394156 0.0032667997 0.0016652354 0.0014831561
0001b0 45 9d 80 38 6e 3b 29 3b d3 2b d2 39 19 ca 49 3b
       6.132809e-05 0.0025822776 0.00040086973 0.0030790626
0001c0 40 73 95 3b 23 8c e5 3b 63 85 41 38 40 18 27 3a
       0.004560858 0.007005231 4.6139012e-05 0.0006374158
0001d0 6d 2e 8c 3b 5f a6 12 3c 67 57 56 3a 32 f3 18 3b
       0.0042779953 0.008950799 0.0008176476 0.0023338315
0001e0 c3 d3 1a 3c d9 e8 de 38 3f 50 2b 3c df 8d 1e 3c
       0.009449902 0.00010629156 0.010456144 0.009677379
0001f0 f6 1d e6 3b a1 b7 0c 3a 8e bf c1 3b b9 ed a0 3b
       0.0070226146 0.0005367939 0.0059127277 0.0049111512
