weights/policy_checkpoint1100.pt (torch, 522983 bytes, 12 tensors)

net.0.weight f4 [128, 142]
000000 fd f0 81 3d 9d f9 de 3d c8 bb 07 bc 5a b3 00 3e
       0.06344793 0.10887454 -0.008284517 0.12568417
000010 67 26 db 3c e6 17 c5 3d b0 ad 3a 3d 22 79 ac 3d
       0.02675171 0.09623699 0.045575798 0.08421542
000020 2d dc 58 3d 00 0d b1 bc 3b aa 90 3d a6 23 f4 3c
       0.05294435 -0.021612644 0.07063719 0.029802155
000030 54 59 3c 3d 08 5d ca 3c 8e 15 a5 3d 52 27 30 3d
       0.045983627 0.024702564 0.08060752 0.04300625
000040 1e b3 2a 3d 75 c3 07 3d d8 8e 3d bd 3c 07 bb 3b
       0.041674726 0.033145387 -0.046278805 0.0057076495
000050 4b 27 19 bd 35 3a 56 3d 97 d5 89 3c fe 7b 05 3e
       -0.03739099 0.052301604 0.01682548 0.1303558
000060 ea 60 60 bd 7a 98 4b bd 9a 2d 89 bb c3 da 79 bd
       -0.054779924 -0.04970596 -0.0041863443 -0.060999643
000070 56 e9 5f 3b 2e 2c c4 bd 73 4f db 3d 8d 0d ca bc
       0.0034166179 -0.09578739 0.10708513 -0.024664665
000080 d1 de b0 3d 17 61 00 3d 1f 2a 1a bb a6 98 6c 3d
       0.08636249 0.031342592 -0.0023523641 0.057762764
000090 33 49 02 3c c5 c7 b1 3d 3b 2b ea 3b 93 37 f7 3c
       0.007952022 0.08680681 0.0071462668 0.030177867
0000a0 da d6 d1 3d 70 78 a8 bb a9 18 e7 3d 09 c9 ca 3d
       0.10246058 -0.0051413104 0.112840004 0.09901626
0000b0 fd a1 b8 3d 88 44 9a 3c 5e 63 03 3e 97 2b 93 3d
       0.09015272 0.018831506 0.12830874 0.071860485
0000c0 a5 ff b3 3d 87 8e ff 3c ef 8c 17 bd 41 23 ae 3c
       0.08788995 0.031195892 -0.03699964 0.021257045
0000d0 86 2d 0f bc ff 0b 25 3e 71 a8 a8 3d 9f ed e0 3d
       -0.008738881 0.16117857 0.08235253 0.109828226
0000e0 1c 06 b7 3c f4 fe 2c 3d 7d 8d 21 3e 67 4d a6 3c
       0.02234178 0.04223533 0.1577663 0.02030058
0000f0 c9 c5 08 3d 0e 71 a4 bc df 23 c7 3d ee 36 d0 3c
       0.033391748 -0.02007344 0.09723639 0.025416818
000100 5c 75 88 3c 8c 91 70 bd 3d 9e 06 3d 8f d4 88 bd
       0.016657524 -0.058732554 0.03286575 -0.06681167
000110 d3 2b 90 bd 74 91 8b bc 07 6f b2 3d 7f e1 d7 3c
       -0.07039609 -0.01703713 0.08712583 0.026352642
000120 68 60 a5 3d e8 d5 8d bd 55 7d 52 bd 66 f4 83 bd
       0.08075029 -0.06925565 -0.051389057 -0.064431
000130 cb 9d 97 bd 53 39 0b 3d 72 29 f6 3c 76 9d d8 3d
       -0.074031435 0.033990216 0.03004906 0.10576908
000140 9e 82 31 bd ec 52 6a bd fc 5f 36 3d ca ef 0a bd
       -0.043337457 -0.057207987 0.04452513 -0.033920087
000150 aa 2f 14 3c 53 22 a3 bc ec a0 44 3d 79 88 85 bd
       0.009044567 -0.019913828 0.04800503 -0.06520171
000160 6d 76 2d bd 56 db e6 3d c9 33 bf 3d 0e 7f 1b 3d
       -0.042349268 0.11272304 0.09336049 0.037962966
000170 b6 37 d1 3d 57 fb d6 3d 17 5a 8a bc 94 4f e7 bc
       0.10215704 0.10497158 -0.016888661 -0.028236188
000180 88 0c f8 3d 71 f8 e7 bc 05 b7 f3 bc 73 b1 97 b9
       0.12111765 -0.028316708 -0.029750356 -0.00028933174
000190 cc 9d af 3c e6 7a bf 3d b8 7a 35 bc 02 82 79 bd
       0.021437548 0.09349613 -0.011076622 -0.060915
0001a0 b1 0a 33 3d 73 cb 6a bd 24 cf 91 bd 4f 47 3d bd
       0.043711368 -0.05732293 -0.07119587 -0.046210583
0001b0 f2 6a 96 bd 84 49 b2 3c 11 cc ab 3d ef d7 81 3c
       -0.07344617 0.02176357 0.08388532 0.015850035
0001c0 bf d8 d3 3c 91 4b a0 bd a0 8f 91 bc c9 90 a1 3b
       0.025860189 -0.07826913 -0.017768681 0.00493059
0001d0 a0 5d 36 3d 3e 4f 35 bd 59 d1 de bb 64 1b 82 bd
       0.04452288 -0.044265024 -0.0067998585 -0.063528806
0001e0 da 2b 33 3c de b9 08 bd 32 8d be bb b8 eb 68 bd
       0.010935748 -0.03338038 -0.0058151716 -0.056865424
0001f0 8d 9a a5 bd 54 2b 97 bd 09 e5 87 bd 35 a6 87 bd
       -0.08086119 -0.07381311 -0.06635482 -0.06623498
000200 63 1a 90 3d c4 ab d0 bc 1c df 93 3d 0d 33 d6 3c
       0.07036283 -0.02547253 0.07220289 0.02614739
000210 c2 88 91 bd 53 df 6d 3d be 1a e9 3b 9a c2 03 bd
       -0.071061626 0.058074307 0.0071137836 -0.03216801
000220 d7 a8 8e bd 5c dc aa bd 5a b0 c4 3c a5 9e 16 3d
       -0.069657974 -0.083428115 0.024009872 0.03677239
000230 ce a2 a7 3d 4d c7 cb bc ea a4 57 3d 30 14 b7 bd
       0.081853494 -0.024875307 0.05264751 -0.08939397
000240 97 90 6b bd 35 74 03 bc 58 5f 0b 3d 58 0f 81 3d
       -0.05751094 -0.008023311 0.034026474 0.06301755
000250 01 4a 99 3d b7 e0 50 bd aa ae 92 3c 8d 1d 8d bd
       0.07484818 -0.050995555 0.017905552 -0.06890402
000260 ab 48 0b 3b 93 0c 9b bd 0d c7 84 3d c4 c8 79 bd
       0.002125303 -0.07570758 0.064832784 -0.06098248
000270 67 c8 80 3d 6c 33 38 3c c6 54 92 3d 98 1a 48 38
       0.06288224 0.011242729 0.071450755 4.7708483e-05
000280 71 3f 07 3e 5c 6f 7f 3d 6a 63 34 3d b6 18 20 bd
       0.13207795 0.06236206 0.04404012 -0.039086066
000290 68 f6 9b 3d 1c eb 52 3b 0a 02 15 bc 7a ab c3 3d
       0.07615358 0.0032183593 -0.009094724 0.09554191
0002a0 b3 55 5c 3d 9d 89 3a 3c ed ec 93 bc 0d 7c 8b bc
       0.053792667 0.011385349 -0.018057311 -0.017026925
0002b0 af 79 85 3d 8a c9 a5 bc 86 14 05 bd 0e 56 4f bd
       0.0651735 -0.020237703 -0.032490276 -0.050619178
0002c0 4f 3a 84 bd 82 50 3b 3d 37 cd 67 3d 66 9d d9 bd
       -0.06456434 0.045731075 0.056592193 -0.106257245
0002d0 d4 c6 0d 3d da 62 92 3d 65 c6 77 3d c5 65 d8 bc
       0.034613445 0.07147761 0.06049194 -0.026415715
0002e0 e4 05 9a 3d f6 cd de 3d c2 c3 38 3d 84 75 67 3c
       0.07520655 0.10879128 0.045108564 0.014127139
0002f0 9e 71 e3 3c c6 57 4e 3d 52 c0 85 bb 2c 94 41 bb
       0.027764138 0.050376676 -0.0040817643 -0.002953778
000300 94 15 9f 3d 9e a3 b4 3d 74 e9 ec bc c8 49 cc bc
       0.077677876 0.0882027 -0.028919913 -0.024937525
000310 cc 1f a0 bc 59 88 6a bd 43 4a 34 3d 5a 9b dc 3c
       -0.019546412 -0.057258938 0.044016134 0.026929546
000320 2f 78 39 bd 69 84 3c 3b f2 04 d8 3d 94 d6 2f 3c
       -0.04528063 0.0028765446 0.10547818 0.010732312
000330 d2 db 24 bd bd e3 15 bd 4e de 18 bd 29 aa 80 bd
       -0.0402487 -0.03659414 -0.03732138 -0.062824555
000340 83 23 13 bd fe d6 63 3d 06 3e dd 3d e2 49 28 3d
       -0.03592254 0.055624954 0.10802846 0.041086085
000350 13 d4 e6 bd 3f 4d c0 bd 05 fc 58 bc be 40 a6 3d
       -0.11270919 -0.093897335 -0.01324368 0.08117817
000360 b6 6f 45 3d 51 a3 33 bd 21 36 f9 3c 80 eb 02 bd
       0.04820224 -0.043856923 0.030421318 -0.03196287
000370 f8 7a 5e bd e1 f9 22 3d 47 4b 1c bd f6 cf 89 bc
       -0.05431649 0.039789084 -0.038157728 -0.016822796
000380 ad f8 aa bd 2b 0c 66 3d 70 b8 99 3c e8 8a fa 3c
       -0.083482124 0.056163948 0.018764704 0.030583814
000390 54 ac 6f bd aa 9e a9 bd a9 95 8b bd 3f c7 a6 3c
       -0.058513954 -0.08282216 -0.06815655 0.02035868
0003a0 9c ae 13 3d c8 70 86 3d c7 82 ff 3c 30 77 00 bb
       0.036055192 0.0656448 0.03119029 -0.0019602291
0003b0 22 28 16 bd 26 a0 95 bd 7b 9b aa bd ca c0 a0 bd
       -0.036659367 -0.073059365 -0.08330437 -0.078492716
0003c0 9f b5 0c 3d b1 81 90 bd ba 4e ee bb 4b 36 a7 bd
       0.034352895 -0.07055987 -0.0072725685 -0.081646524
0003d0 b8 8a 7a bc a2 ed 71 bd bc 86 c4 bd 7c 09 e4 3c
       -0.015291862 -0.059064515 -0.09596011 0.027836554
0003e0 53 4f cc bc d6 32 54 3d d8 8a dc bc 78 70 e5 bd
       -0.024940168 0.051806293 -0.026921675 -0.11203092
0003f0 a7 96 72 bc 21 9f 26 bd 62 52 d2 bc 36 9d a3 bd
       -0.014806426 -0.0406791 -0.025674049 -0.0798897

net.0.bias f4 [128]
000000 4a 1d e5 3d 8c 9b 9f 3c 4b 57 bb 3c e9 54 a1 3d
       0.11187227 0.01948335 0.022868773 0.078775235
000010 d2 03 25 3d 9a f0 4d 3d 39 5f ee bc 9d b3 91 bd
       0.040286846 0.050278284 -0.02909814 -0.07114337
000020 a8 a2 07 3d 5d 37 d2 3d be 6e 96 3c bf 28 85 3c
       0.033114105 0.10264466 0.018363353 0.01625478
000030 f7 27 e8 bc 90 6a 93 3d f0 4f 96 bd 39 78 4b bd
       -0.02833937 0.071980596 -0.073394656 -0.0496752
000040 20 c5 73 3d dd 4c 8c bd 4e fb 6c bd 47 f5 07 bd
       0.059514165 -0.06850598 -0.05785685 -0.0331929
000050 45 f4 96 3c 13 f3 b6 bd c5 73 94 3d 2f 3f 25 3d
       0.018427024 -0.089330815 0.07248644 0.04034346
000060 e2 87 84 bc 06 77 18 3d 9f 76 19 3d f4 0c 27 bd
       -0.016178075 0.037222885 0.03746664 -0.040783837
000070 a6 95 36 bd cf a9 6a 3d 14 03 c4 bc b1 9f 19 bd
       -0.04457631 0.05729085 -0.023927249 -0.03750581
000080 ce f6 eb 3c ac 20 2e 3d b6 7a a1 3c b7 38 c9 bc
       0.02880421 0.042511627 0.019711833 -0.024563177
000090 77 94 da bd 18 d0 49 3b de 20 8b 3d 8f 81 54 3d
       -0.10672849 0.00307942 0.06793378 0.05188137
0000a0 8e a2 a6 3d 5c e7 ae bd 75 7a 12 3d 3c ba 6b 3d
       0.081364736 -0.08540222 0.035761315 0.057550654
0000b0 e5 1b 95 bc 95 0c 15 bd 5c 11 ab bd b4 fa c3 bc
       -0.018201778 -0.036388952 -0.083529204 -0.023923256
0000c0 7d 13 07 bd e2 fe 83 bd a6 17 77 bd 0a e7 38 3d
       -0.03297757 -0.064450994 -0.060325287 0.04514221
0000d0 18 99 48 bd a8 c6 e4 3c ee 67 ff 3c 37 e0 9d bd
       -0.048974127 0.027926758 0.031177487 -0.07708781
0000e0 6b b3 1d bd e3 a1 99 3d 2f 86 a0 3c 08 27 83 3d
       -0.038501184 0.075015806 0.019595234 0.06403929
0000f0 c5 3d c7 bd 50 2e 87 3d 5e 9f 0a 3c a7 6f aa bd
       -0.097285785 0.0660063 0.008460848 -0.08322077
000100 95 ec b2 3c 46 fd e6 3c 55 d2 9a 3c c2 d6 6d 3d
       0.021841327 0.028196942 0.018899122 0.058066137
000110 09 57 13 bd 59 38 d6 bc 01 8e a8 bd b0 4e 72 3d
       -0.035971675 -0.026149916 -0.0823021 0.059157073
000120 17 51 9f 3b 7e 62 90 3c 7a 8d a8 3b e9 34 bb bd
       0.0048619616 0.01762509 0.0051438184 -0.09140951
000130 cd f2 93 bc 85 d5 5c 3d 94 da 69 3d de 95 a2 bc
       -0.018060112 0.053914566 0.057093218 -0.019846853
000140 e5 b1 64 3d 0d 48 41 3c 20 9a 05 bd 11 67 11 3e
       0.055833716 0.011796963 -0.03261769 0.14199473
000150 86 89 3c 3d 58 b2 d8 3d 9d a7 f2 bd 7c d7 cb bc
       0.04602959 0.10580891 -0.11848376 -0.024883024
000160 5c de 02 bd 37 db d5 3d f6 cd 17 3d 7c 08 63 bc
       -0.03195034 0.104422025 0.037061654 -0.013857003
000170 98 14 da 3c af 37 68 bd 91 eb 3b 3d 80 02 29 3d
       0.026621148 -0.05669373 0.04587895 0.04126215
000180 af 1f 97 bd 32 36 2a 3d 4c 7d 59 3c 4d 61 7a bd
       -0.0737909 0.04155559 0.013274502 -0.06112795
000190 3a 4f 89 bd 04 6d b8 bd a4 2a a4 bd c8 59 59 bd
       -0.067045644 -0.09005168 -0.080159456 -0.053064138
0001a0 c7 3e e6 3c 46 4c 06 3d e1 50 8f 3c b0 58 93 bc
       0.028106106 0.032787584 0.01749462 -0.017986625
0001b0 19 8c b9 bd f1 b9 cc bd 84 52 70 3d 3c 3a 8c 3c
       -0.09059925 -0.09996403 0.058672443 0.017117612
0001c0 0a 54 ec 3d 81 4f 81 bd bc 6d 97 bd d1 ac 14 bd
       0.11539467 -0.06313992 -0.07393977 -0.036297623
0001d0 5d e7 a4 3d fa 47 87 bd c1 50 63 bd 39 22 92 bd
       0.080519415 -0.06605525 -0.055496935 -0.07135434
0001e0 60 5b 35 3d b2 54 0f bd 61 01 1c bd 12 62 83 3d
       0.044276595 -0.03499288 -0.038087253 0.0641519
0001f0 c3 60 b8 bd 20 89 10 bd 9f 94 75 bd 9e 84 8a bc
       -0.09002831 -0.035287023 -0.05995619 -0.01690894

net.2.weight f4 [192, 128]
000000 85 ff 73 bd 8f 88 87 bd 33 a4 1f 3e 5d 72 ef bd
       -0.059569854 -0.06617843 0.15589981 -0.11691735
000010 fb e6 3d bd bc bb 7c bd fc 1e ca bd 0a 23 b4 3d
       -0.04636286 -0.061702475 -0.09869191 0.08795746
000020 58 d4 09 3d 00 af 14 3c 92 94 9c 3c 37 b6 7d bc
       0.033649772 0.009074926 0.019113813 -0.015485338
000030 93 31 13 3c 94 c0 55 bd 6f 42 5d 3d 50 b5 69 bb
       0.008983987 -0.05218561 0.054018434 -0.003566105
000040 67 79 cb 3d 21 cd e7 3c 14 07 cd bd 5c 75 39 3d
       0.09935265 0.028296055 -0.10011116 0.04527794
000050 35 95 b6 3d d6 a5 04 bd b0 7b 19 bd 34 9d 17 be
       0.08915178 -0.032384716 -0.037471473 -0.14806062
000060 e7 00 f4 3c d2 24 c6 bd 4f f7 e7 bd f0 9d 91 3c
       0.029785587 -0.09674992 -0.11326467 0.017775506
000070 f2 bd 6d bd 16 99 37 3d db ea ed bd 68 02 c8 bd
       -0.058042474 0.04482373 -0.11617061 -0.09766084
000080 89 e3 a1 bd 4e ec 34 3b 0f 38 de bd 61 5b 5a be
       -0.07904727 0.002760667 -0.10850536 -0.21323921
000090 41 ab 8a bd 08 98 36 bd bc 43 69 bc 78 f7 a2 bb
       -0.06770945 -0.044578582 -0.014237341 -0.004973348
0000a0 ce c4 f9 bd 43 03 a3 bd 7d fc b1 3c 5c 86 99 bd
       -0.12195741 -0.079596065 0.021726841 -0.0749633
0000b0 61 b7 de bd a3 c8 a9 3d 3d dc 98 bd 0c e2 2a 3b
       -0.108748205 0.082902215 -0.07463882 0.0026074676
0000c0 8d ff b5 bd 48 4d ce bd 4b 63 02 be 73 33 eb bd
       -0.08886633 -0.10073334 -0.1273319 -0.114844225
0000d0 be d2 c1 bd ff 8a ef bd b5 f7 97 bd 43 f9 04 be
       -0.09464024 -0.11696433 -0.07420293 -0.12985711
0000e0 b4 03 31 3d a9 1c eb bd f1 63 aa bd 95 24 f1 3b
       0.043216422 -0.11480076 -0.083198436 0.0073590972
0000f0 ed 4f 90 bd 27 00 05 bd 58 b1 96 bd cc 17 85 bd
       -0.07046495 -0.03247085 -0.073580444 -0.064986795
000100 3c cb a6 3c 06 b6 89 3d e5 6f 8d 3b 02 3a 14 3c
       0.020360582 0.06724171 0.0043163174 0.009047033
000110 48 9e ec 3b 45 58 fe bd a8 1e a2 bd bf f9 4e bb
       0.007221017 -0.1241918 -0.079160035 -0.0031581966
000120 65 41 c8 bd b2 67 0f 3e 18 08 85 bd f1 d0 6c 3d
       -0.09778098 0.140044 -0.064956844 0.05781645
000130 a1 18 f7 bc 7a 29 3b bd 98 4b e5 bd db b9 7a 3d
       -0.030163111 -0.045693852 -0.11196059 0.0612124
000140 be 91 dd bd 0c a4 9d 3c 0b b8 43 bd eb 43 3f bd
       -0.10818814 0.019243263 -0.04778294 -0.04669563
000150 e2 1b 87 bd 2f bc d3 bc ad 24 8a 3d 73 74 b7 bd
       -0.06597115 -0.025846569 0.067452766 -0.08957758
000160 62 54 fa bd a6 0f 86 bb c2 a6 4a bd 5d 5d 91 bd
       -0.12223126 -0.004091221 -0.04947544 -0.07097886
000170 64 03 9c bb 11 2a 6d 3d f3 11 b7 bd 6e 86 99 3d
       -0.0047611464 0.057901446 -0.089389704 0.074963436
000180 c2 53 b0 bd 34 57 7d bd 31 7c 87 bd f1 76 d2 bd
       -0.086097255 -0.06185074 -0.066154845 -0.102765925
000190 1b 64 87 bd 89 96 fb bd f4 bb 8f 3d 5b f5 26 bd
       -0.066108905 -0.12284572 0.07018271 -0.040761333
0001a0 33 c6 25 3e 4d f8 b0 3c db 9a b9 bb 88 76 41 bc
       0.16188888 0.021602774 -0.005664212 -0.011808045
0001b0 cc 4c cd bc 50 a2 2c bd 7e bb 91 3d be 73 33 bd
       -0.025061034 -0.04214698 0.071158394 -0.043811552
0001c0 4f 66 36 bd b8 08 30 be 2a c9 0e bd a2 a5 93 3d
       -0.044531163 -0.17190826 -0.034859814 0.07209326
0001d0 7b 7b cf bc 3d d5 f8 bd 9d 6e dc bd 81 41 fe bc
       -0.025327435 -0.12150047 -0.10763285 -0.031037094
0001e0 96 be 49 bd 49 f5 12 3e 78 86 0d be a3 f7 0e bd
       -0.049254023 0.14351381 -0.13820827 -0.034904134
0001f0 fe 80 09 be fb ef 04 3e d7 17 0e be a5 32 a9 bd
       -0.13428113 0.1298217 -0.13876282 -0.08261613
000200 a4 eb cf 3b 28 76 d6 3c db c3 ba bc 85 98 db bc
       0.006345229 0.026179388 -0.02279847 -0.026806125
000210 1e 75 59 3d 2c 7b 3d bd ed 0a 26 3d 0d 05 21 3d
       0.053090207 -0.046260044 0.040537763 0.039311457
000220 95 cb b5 3c aa d0 43 bd 04 cd ac 3d 64 42 e7 bb
       0.022191802 -0.04780642 0.08437541 -0.007057475
000230 41 b4 44 bd 33 9c c9 3c 12 20 49 bd fa 4c 23 3c
       -0.048023466 0.024610614 -0.04910285 0.009967083
000240 6d 55 93 3d 7f 15 d7 3b d7 63 10 bb e7 b1 cb bc
       0.07194028 0.006563842 -0.0022032165 -0.024865104
000250 cd 60 92 bd b7 9a bd bc 22 63 99 3d 23 28 5e 3d
       -0.071473695 -0.023145063 0.07489611 0.054237496
000260 46 4b 35 bd 7b ab e3 3c 74 c4 a2 3c 09 f9 7f 3d
       -0.04426124 0.02779173 0.019869067 0.062493358
000270 a0 0c 83 3d cc 9a c5 bc 47 0f 5c 3c 0a dc 06 3e
       0.063988924 -0.024121664 0.013431377 0.13169876
000280 6b 5c ba 3c ee 7e 61 bd 9a b6 06 bd 73 90 34 bd
       0.022749146 -0.05505269 -0.032888986 -0.04408307
000290 9e af 97 bd f3 1f 29 bd 92 df 38 3d 96 0a 92 ba
       -0.07406543 -0.041290235 0.04513509 -0.0011142071
0002a0 6e 8a 69 3d 9f 5b 8a bd 89 42 82 3d 24 33 06 3d
       0.057016782 -0.067557566 0.06360347 0.032763615
0002b0 0a b5 89 bd 4f db 94 bc 6d ad a0 3c 01 37 68 bd
       -0.067239836 -0.01817098 0.019613946 -0.05669308
0002c0 67 90 23 3c ec 5c 99 3d 23 d5 20 bd 53 b8 86 bc
       0.009983159 0.074884266 -0.039265763 -0.016445315
0002d0 6b 93 9b 3d 3b 48 14 bd 63 af a1 bd 05 6a 7e 3c
       0.07596477 -0.036201697 -0.078947805 0.015528207
0002e0 80 20 85 bd c2 43 84 3d 48 56 3a bd c6 c8 01 3d
       -0.065003395 0.06458236 -0.04549244 0.031685613
0002f0 b7 74 16 bc ea 09 f0 bc 86 d3 f2 bc 3b 64 7d 3d
       -0.0091831 -0.029301602 -0.029641878 0.061863165
000300 98 82 64 bd b3 49 90 3d 41 88 28 3d 5e ab 4d bd
       -0.055788606 0.07045307 0.041145567 -0.050212257
000310 45 b0 96 3d 25 b9 6c 3d ef 76 61 bd 39 b5 44 3c
       0.073578395 0.057793755 -0.055045065 0.0120060975
000320 a3 52 13 3d 5d 30 f0 bb ab d1 aa 3d 89 f3 a2 bc
       0.03596748 -0.007329984 0.08340772 -0.019891517
000330 36 64 11 bd e6 b0 0f bc fb 60 dc bb 68 99 c0 3d
       -0.03549596 -0.008770203 -0.006725428 0.0940426
000340 ef fb 61 bd 01 8f a4 bc 9b c6 4a bd c7 3c 3c 3c
       -0.055171903 -0.02008772 -0.04950581 0.0114891
000350 ba a0 02 bd 36 bf 5e bd 0c bf 55 bd 08 4a 08 bd
       -0.031891562 -0.05438157 -0.05218415 -0.033273727
000360 c2 c2 d3 bd 25 1a 2c 3d ae 9c b0 3c ec 35 21 bd
       -0.103398815 0.04201712 0.021559086 -0.039358065
000370 b3 44 bf 3d 51 ef b3 3d ab 3b df bc 94 34 8a 3d
       0.09339275 0.0878588 -0.027250132 0.0674831
000380 ef c3 ff 3b ac e8 8b 3d da c7 92 bc 10 34 b1 bc
       0.0078053395 0.06831488 -0.017917562 -0.02163127
000390 53 91 1e 3d 34 a1 f8 bd 94 7f ad 3c d1 8a 94 bd
       0.03871281 -0.12140122 0.021178998 -0.0725304
0003a0 32 f5 87 bc 5b c1 9c 3c dc 9e 42 bd c6 11 e1 bc
       -0.01659641 0.019135168 -0.04751478 -0.027474295
0003b0 0f 11 ba bc 5b 02 8b bb 47 bd a6 3c 57 7a 5f bd
       -0.022713212 -0.004242224 0.020353926 -0.05456003
0003c0 21 6b aa 3d 58 a7 9f bc 47 40 41 bb 34 3a dd 3c
       0.083212145 -0.019488975 -0.0029487775 0.027005292
0003d0 96 96 36 bd dd 52 69 3c 14 a3 c5 bd f0 57 6d ba
       -0.044577204 0.014240948 -0.09650245 -0.0009053936
0003e0 16 9c 10 bc 3b d5 9b bd 70 7f cd 3c fa 02 94 bd
       -0.008826276 -0.0760903 0.025085181 -0.0722713
0003f0 f4 d4 7a bd 4f b3 80 bd 84 3d c9 bb a9 10 f1 ba
       -0.061238244 -0.062842004 -0.0061413664 -0.0018391806

net.2.bias f4 [192]
000000 8d f7 5a bc 30 b3 49 3d 1d 27 2f 3d fd ae 59 3c
       -0.013364685 0.049243152 0.04276191 0.013286349
000010 1a ba dc 3c c0 2f 92 bb 04 91 a7 3c 83 6f 10 3c
       0.026944209 -0.0044612586 0.020454891 0.008815649
000020 e0 db df bd 5f 40 7a bc 72 db 66 3c a3 ae f7 bc
       -0.1093061 -0.015274136 0.014090406 -0.03023464
000030 98 ad 97 3b 4f 49 bd 3b 90 0c 89 bc ff 48 75 3d
       0.0046288483 0.0057765613 -0.016729623 0.059884068
000040 19 6a 69 3d 1e d7 e8 3c ba 73 0e 3d 01 f9 02 3e
       0.05698595 0.028422888 0.034778334 0.127903
000050 e3 61 0b bc 85 80 32 3c 0c de 8c bc c3 d6 e4 3d
       -0.008507225 0.010894899 -0.017195724 0.11173775
000060 d6 12 96 3d 4a 28 a0 3d fe c5 2b 3d 81 6e 21 3e
       0.073278114 0.078201845 0.041936867 0.1576481
000070 44 f6 b9 3c a6 c7 21 3c 4c 43 9c bc b1 84 30 3d
       0.022700436 0.00987426 -0.019075058 0.043095294
000080 47 4e 01 3d 81 5f 90 3c 23 31 81 3d 2a cf 4b 3d
       0.03156879 0.017623665 0.063082 0.049758114
000090 dc f1 ec 3c d8 5c 37 3d bc 5a 89 bd af fc 13 bb
       0.028923921 0.044766277 -0.06706759 -0.002258103
0000a0 de 8e 97 bd 76 3e 1b bd 52 9a 80 3d f3 7b ea 3d
       -0.07400297 -0.037901364 0.06279434 0.11449423
0000b0 d2 a6 bd bb 49 0e ce bc 22 85 f8 bd 8d a0 0d 3b
       -0.005787709 -0.025153296 -0.12134768 0.0021610588
0000c0 fa 2b ab 3d ce 05 38 bd 3b 28 45 3d e6 ed b2 3d
       0.08357997 -0.04492741 0.04813407 0.08736782
0000d0 f2 6e e8 3c 5d ce b6 bb b5 08 ba 3d 2b 94 aa bc
       0.028373215 -0.0055787996 0.09083692 -0.020822605
0000e0 75 6d 8b 3c 51 88 ad bd cb b8 32 3b 42 78 09 bd
       0.017019967 -0.08473266 0.002727079 -0.033561952
0000f0 7a c3 c3 3c 22 9e 30 3c d0 98 8d 3d b6 71 ce bc
       0.023896921 0.010779889 0.06913912 -0.025200706
000100 30 cb 83 bd d3 8e 52 bd dc 8d 91 bd 47 ac 36 bd
       -0.06435239 -0.05140574 -0.07107136 -0.04459789
000110 ce 24 fa bc 4f 67 9d bd 17 e8 c8 3d 7c f6 99 bd
       -0.030535128 -0.0768572 0.098098926 -0.07517716
000120 3b a1 e5 bc 54 86 76 ba cc 28 79 3c 00 9d 37 3d
       -0.028030982 -0.0009404172 0.015207481 0.04482746
000130 e0 1b 38 3d ab 00 50 3d ba 84 96 3d db 16 fa 3c
       0.04494846 0.050781887 0.07349534 0.030528476
000140 9c 61 d7 3c cc c6 75 3c e4 a7 6e 3c 8e a0 ba bb
       0.026291661 0.01500101 0.014566395 -0.005695409
000150 50 44 09 bd bb ae 69 bc a1 2f e6 3c d2 54 45 3d
       -0.033512414 -0.01426285 0.028098883 0.048176594
000160 86 af 7f bd 52 5c b9 3d 87 fc 3b 3d 9e 02 cc 3d
       -0.06242325 0.09050812 0.045895126 0.09961437
000170 c8 71 16 bd 6c a9 b0 3d 99 a5 07 3a 45 b6 d5 3d
       -0.036729604 0.08626065 0.0005174517 0.10435156
000180 56 a3 07 bc a8 05 a4 bd b2 b9 9d bd 3a c9 eb bc
       -0.008278688 -0.08008891 -0.07701434 -0.028782476
000190 81 63 35 3c 29 67 08 bd 09 fb 61 bc 35 17 65 bd
       0.011071087 -0.033301506 -0.013792762 -0.055930335
0001a0 f5 5c 01 3e 06 f7 90 bc e4 1d 89 3d bf 84 29 bd
       0.12633117 -0.017695915 0.06695154 -0.041386362
0001b0 ab 60 89 3d 40 05 04 3d d6 32 dd 3c a4 da 6f bd
       0.06707891 0.03223157 0.02700178 -0.05855812
0001c0 cc 1a 01 bd 54 80 9d 3d bf d0 a3 3d 27 5d 73 3d
       -0.031519696 0.07690492 0.079987995 0.05941501
0001d0 f3 ec e7 3d fd a3 e0 bd 7a ab 01 3d 3f 65 6f bd
       0.11324491 -0.10968778 0.031657673 -0.058446165
0001e0 11 3e c1 bd 0d 36 4c 3d 26 ec 8f 3c 70 2b a5 3c
       -0.09435666 0.049856234 0.017568659 0.020162314
0001f0 e4 ce bf 3c 39 fa 0c bd a8 0e c9 3c db d2 71 3d
       0.023414083 -0.03441832 0.024543121 0.059038978
000200 05 02 fc bc 06 de c9 3d 73 ca 70 bd d3 83 52 bc
       -0.030762682 0.09856801 -0.05878682 -0.012848812
000210 4a c5 0d bd 16 0f 2b bc fd 48 df bd 33 88 ca 3c
       -0.034611978 -0.0104406085 -0.10902593 0.024723148
000220 2c 34 11 bb 75 aa f9 3d 3a c5 c3 ba 19 3e f2 3c
       -0.002215634 0.12190715 -0.0014936097 0.029570626
000230 c8 d2 46 bd 37 13 19 bd bc e4 8e 3a a2 bc 30 3c
       -0.04854086 -0.03737184 0.0010901908 0.010787161
000240 fb 86 d1 3d f7 a0 ad bc af f4 c9 bc 89 7b fc 3d
       0.102308236 -0.021194918 -0.024652807 0.1232825
000250 b4 97 08 3e 95 9f bd bc d8 47 16 3d f2 a9 f5 3d
       0.1333912 -0.023147384 0.03668961 0.11995305
000260 fd f6 8f 3d bb 7c 0f 3d 3a 02 dd 3d 8e 3a 5d 3d
       0.07029531 0.03503106 0.1079144 0.05401092
000270 6e 9e 1c 3d ab 0d 06 3d 06 66 47 3d ad 0b d4 3d
       0.038237028 0.03272788 0.04868128 0.103537895
000280 f2 a6 7a bc f1 ab 8d 3d f7 ef 64 bd 91 b3 4c bc
       -0.015298592 0.06917561 -0.05589291 -0.012493984
000290 42 75 cb 3c 79 86 77 bd 7d e3 62 3d 78 a6 d3 3d
       0.024836186 -0.060430977 0.05539273 0.10334486
0002a0 93 3d 23 3d 26 1d bc 3d 71 a7 31 bd 15 d4 b8 3d
       0.039853644 0.09185247 -0.043372575 0.090248264
0002b0 fb 92 55 bd 65 0b 59 bd c0 95 47 3c 70 ab ac 3b
       -0.052142125 -0.052989382 0.012181699 0.0052694604
0002c0 ef 4c 6d bc d2 8f b8 3d ae bb 68 3d 9a 72 3f 3c
       -0.014483674 0.090118065 0.05681961 0.011685038
0002d0 1b 62 9b 3d 2e ba 0b 3a 2d 05 65 3d 56 cb 1c bb
       0.075870715 0.0005330172 0.05591314 -0.0023924909
0002e0 81 57 b4 bd 55 4f 35 3d c2 1e 49 3d 29 4d 8d bd
       -0.088057525 0.04426511 0.0491016 -0.06899483
0002f0 ed 62 56 bd 7e ef 27 3d 35 cb 44 3d f2 d5 67 bd
       -0.052340437 0.040999882 0.048045356 -0.05660052

exp_avg f4 [128, 142]
000000 91 51 af bd 39 51 af bd 10 d4 af bd 92 2b c4 3b
       -0.085604794 -0.08560414 -0.085853696 0.0059866393
000010 f9 a7 b6 bd 0a ad 06 bb 1d e6 bb b9 5e b7 96 bd
       -0.08918757 -0.0020549917 -0.00035838867 -0.07359193
000020 8f 8f bb bd 3b 29 c4 bd 1b bc 89 ba 6c c3 b7 bd
       -0.09158241 -0.095781766 -0.001050833 -0.08972821
000030 9f f3 be bd 98 35 bd bb 55 56 cb bd 3c e3 a2 bd
       -0.09323811 -0.005774211 -0.09928576 -0.07953498
000040 47 45 b9 bd a1 e2 c1 bd c6 05 73 b9 44 77 aa bd
       -0.09046417 -0.09467054 -0.00023176437 -0.08323529
000050 88 b5 b1 bd 8a 5f 88 bd d8 43 be bd fb 3d bb bd
       -0.086772025 -0.06658848 -0.09290284 -0.09142681
000060 1e d7 c9 37 ee ec b6 bd 07 e8 b6 bd 3a 05 ad bd
       2.4061239e-05 -0.089319095 -0.089309745 -0.084482625
000070 74 b7 b1 bd b7 06 88 bd ba f5 b6 bd 15 37 b4 bd
       -0.08677569 -0.06641906 -0.08933587 -0.087995686
000080 c6 e7 bb bd 57 60 bc bd ed 3d c6 bd 43 e0 bb bd
       -0.09175067 -0.09198063 -0.0967978 -0.09173634
000090 fb ce b3 ba cb 7d 96 bd 15 9c be bd 7a c5 be bd
       -0.0013718301 -0.07348212 -0.09307114 -0.093150094
0000a0 a4 53 70 bd 61 83 69 bd 2b 1c 7f bd 3c a7 ab 3b
       -0.058673516 -0.05701006 -0.062282722 0.0052384418
0000b0 4d 9a 9b bd e6 76 57 bd 51 88 96 bd f8 23 94 bd
       -0.0759779 -0.052603625 -0.07350219 -0.07233423
0000c0 62 52 90 bd 55 2e b8 bb aa 18 bd bd f8 16 87 bc
       -0.07046963 -0.0056207576 -0.0923322 -0.016490445
0000d0 89 67 d0 bc ed 2c 84 bd 4d c6 9f 3b ee db 09 bc
       -0.025439994 -0.064538814 0.004875934 -0.008414252
0000e0 ec 8b 82 bd a8 d5 cb b8 6d a7 bd bd 02 05 c1 bd
       -0.06374344 -9.719591e-05 -0.092604496 -0.09424783
0000f0 79 21 c9 bd 07 fe 3a bc 7c 50 c5 bd cf ea c4 bd
       -0.098208375 -0.011413104 -0.09634492 -0.09615099
000100 e0 d6 1b 3c 60 29 4f bd 7b a6 76 3c 09 6e 02 3c
       0.009511679 -0.050576568 0.0150543405 0.007960805
000110 b8 cc 6d 37 56 a6 71 bd 93 e6 4c 3a b4 f9 23 3a
       1.4173966e-05 -0.05899652 0.00078163407 0.0006255165
000120 00 00 00 00 00 00 00 00 de 11 2a bb f2 12 38 3a
       0.0 0.0 -0.002595059 0.0007021866
000130 79 2c 96 b9 00 00 00 00 00 00 00 00 f6 ea b1 37
       -0.00028643364 0.0 0.0 2.1209456e-05
000140 00 00 00 00 00 00 00 00 00 00 00 00 00 00 00 00
       0.0 0.0 0.0 0.0
000150 f7 aa c6 37 00 00 00 00 00 00 00 00 00 00 00 00
       2.3683051e-05 0.0 0.0 0.0
000160 00 00 00 00 29 e0 ab bd 75 35 8a bd 80 2b a4 bb
       0.0 -0.083923645 -0.06748477 -0.0050100684
000170 08 0d 7e b7 73 43 0e ac 27 f9 9b bd d9 5e 77 3b
       -1.5142614e-05 -2.0216856e-12 -0.076158814 0.0037745743
000180 7c 53 bd bb 00 00 00 00 00 00 00 00 09 90 c4 3a
       -0.0057777744 0.0 0.0 0.0014996539
000190 41 70 8d 3b 02 99 d8 ba 00 00 00 00 00 00 00 00
       0.00431636 -0.0016525092 0.0 0.0
0001a0 17 e7 8c b9 00 00 00 00 00 00 00 00 00 00 00 00
       -0.00026875056 0.0 0.0 0.0
0001b0 00 00 00 00 17 e7 8c b9 00 00 00 00 00 00 00 00
       0.0 -0.00026875056 0.0 0.0
0001c0 00 00 00 00 00 00 00 00 d3 68 88 bd 32 cc 1c bc
       0.0 0.0 -0.06660619 -0.009570168
0001d0 94 92 07 bb a6 f4 91 37 9d 18 28 b1 79 0f ee bb
       -0.0020686733 1.739927e-05 -2.4461209e-09 -0.007265028
0001e0 2b a2 22 bd ec ee 98 ba 00 00 00 00 00 00 00 00
       -0.039705437 -0.0011667884 0.0 0.0
0001f0 0c 68 95 bb 97 8d db 3b 21 ea 9b ba 00 00 00 00
       -0.0045595225 0.0067002284 -0.0011895337 0.0
000200 00 00 00 00 66 c0 84 bc 00 00 00 00 00 00 00 00
       0.0 -0.016205024 0.0 0.0
000210 00 00 00 00 00 00 00 00 df c0 84 bc 00 00 00 00
       0.0 0.0 -0.01620525 0.0
000220 00 00 00 00 00 00 00 00 00 00 00 00 1f a8 88 be
       0.0 0.0 0.0 -0.26690766
000230 4d fc db bc b0 c6 2d 3b 3f 83 3e 3c 89 83 3e 3c
       -0.026853705 0.0026516132 0.011627971 0.01162804
000240 29 00 3e 3c 45 79 a0 b8 de 03 32 3c 60 77 b8 bb
       0.011596718 -7.651983e-05 0.01086518 -0.005629465
000250 f8 0c 8e ba f9 ae 6a 3c 2b 83 3e 3c 7a 6c 78 3c
       -0.0010837605 0.014323943 0.011627953 0.015162582
000260 bd 0d 9a ba 7d 07 85 3c 7c 9c 78 3c 1e 79 b8 ba
       -0.0011753362 0.016238922 0.0151740275 -0.0014074182
000270 5d 24 78 3c 3b 6d 69 3c 3d f6 4f 3c 92 e9 84 3c
       0.015145388 0.014247234 0.012692985 0.016224656
000280 a9 31 15 b8 fd ed 84 3c b3 90 78 3c 24 b8 ab 3c
       -3.5570618e-05 0.016226763 0.015171218 0.020961829
000290 b6 9b 78 3c 33 9d 76 3c 46 e6 9d b8 b7 a0 77 3c
       0.015173843 0.015052128 -7.529235e-05 0.015114001
0002a0 1e 5e 78 3c 17 23 77 3c 30 9d 78 3c e6 cd ab 3c
       0.015159158 0.01508405 0.015174195 0.020972203
0002b0 23 64 77 3c 1b 37 77 3c fd f5 7d 3c b8 9f 77 3c
       0.015099558 0.015088822 0.015500543 0.0151137635
0002c0 10 63 dc 3b bb 62 78 3c ab 76 94 ba 54 34 ac 3c
       0.0067256764 0.015160258 -0.001132687 0.021021046
0002d0 3e e9 76 3c 87 6c 7b 3c c5 04 9b 3c 10 e5 95 3c
       0.015070258 0.015345699 0.018923173 0.018297702
0002e0 d0 eb 1c 3c 19 cc 0c 3c 91 32 7b 3b 36 75 81 3c
       0.009577706 0.008593583 0.00383297 0.01580296
0002f0 2d 39 26 3c 36 5b 37 3c 5c 05 c6 3c 60 d5 1b bb
       0.010145468 0.01119118 0.024172477 -0.0023778304
000300 87 a7 d2 3b 37 34 6c bc 3f 5d 2d 3c 77 b9 fd 3c
       0.006428662 -0.014416746 0.010581314 0.030972226
000310 e0 62 08 3c f1 4e ad 3a cb fc ce 3c 89 cc 36 38
       0.008324355 0.0013222379 0.025267025 4.358267e-05
000320 8b ce dd 3b 49 c1 1e 3c ec 70 43 3c 3e 3d 94 bb
       0.0067690066 0.009689637 0.011928778 -0.004523902
000330 ee 0a 53 3c f9 33 53 3c bd 1a 1d 3c 5b b9 1d 3d
       0.012881024 0.012890809 0.009588894 0.038506847
000340 18 5b 1c 3c b1 d5 31 b5 a4 5d 47 34 56 81 0a 3d
       0.009543203 -6.62486e-07 1.8567385e-07 0.03381475
000350 5f d8 98 b9 d9 5d 1c 3c 00 00 00 00 00 00 00 00
       -0.00029152908 0.009543859 0.0 0.0
000360 bb 44 4d b8 93 b2 22 b8 25 98 1a b8 00 00 00 00
       -4.893982e-05 -3.879012e-05 -3.6858157e-05 0.0
000370 00 00 00 00 b4 3b 2a b7 00 00 00 00 00 00 00 00
       0.0 -1.014669e-05 0.0 0.0
000380 00 00 00 00 00 00 00 00 b4 3b 2a b7 00 00 00 00
       0.0 0.0 -1.014669e-05 0.0
000390 00 00 00 00 00 00 00 00 00 00 00 00 6b b6 74 3c
       0.0 0.0 0.0 0.01493607
0003a0 0c 29 bd 3c d1 e5 41 bb 49 65 06 37 c3 4f 24 ac
       0.023090862 -0.0029586444 8.010605e-06 -2.3350078e-12
0003b0 0c dc a6 3c d8 7b a2 ba 88 0f d5 bb 00 00 00 00
       0.020368598 -0.0012396527 -0.0065020956 0.0
0003c0 00 00 00 00 e3 c1 2a 3b 7c 0e 73 ba 28 9d 72 ba
       0.0 0.0026055507 -0.00092718727 -0.00092549855
0003d0 00 00 00 00 00 00 00 00 8f d2 2a 26 00 00 00 00
       0.0 0.0 5.926596e-16 0.0
0003e0 00 00 00 00 00 00 00 00 00 00 00 00 8c 41 4f a7
       0.0 0.0 0.0 -2.8762554e-15
0003f0 00 00 00 00 00 00 00 00 00 00 00 00 00 00 00 00
       0.0 0.0 0.0 0.0

exp_avg_sq f4 [128, 142]
000000 7e 49 27 3c e7 26 2e 3c 73 38 09 3c 8c e5 1f 3c
       0.010210393 0.010629392 0.008375275 0.009759318
000010 3f 1e 1e 3c 0a 6f 07 3c 30 33 0d 3c d0 b5 3d 3c
       0.009650766 0.00826622 0.008618161 0.011578992
000020 ed a3 09 3c 71 a8 23 3c a9 1a 18 3c 7b 72 4a 3c
       0.008400899 0.00998889 0.0092837 0.012356396
000030 f0 64 2c 3c 7e 0b e2 3b 2e 44 3b 3c 00 5a 05 3c
       0.010522112 0.0068983426 0.0114298295 0.008139133
000040 b6 2f 13 3c 77 c1 52 3c 38 13 47 3c c5 f3 13 3c
       0.008983543 0.012863508 0.012150578 0.009030287
000050 cc 6d 4d 3c 95 2f 42 3c 05 24 73 3c 5e 3b 4a 3c
       0.012538385 0.011852165 0.014840131 0.012343256
000060 65 1c fe 3b a9 c7 45 3c 96 a0 5c 3c ff 95 47 3c
       0.0077548497 0.0120715285 0.013466021 0.012181758
000070 8d 79 5f 3c 10 51 4a 3c f7 0f 37 3c 05 32 4d 3c
       0.01363982 0.012348428 0.01117324 0.012524133
000080 38 c1 52 3c 6a 68 50 3c 3b 4e 48 3c 26 5e 69 3c
       0.01286345 0.012720207 0.012225683 0.014243638
000090 c7 fb 11 3c 08 0a 42 3c 48 63 4a 3c a2 3a 1c 3c
       0.008910126 0.011843212 0.012352772 0.0095354635
0000a0 f1 72 31 3c 2c 64 2f 3c f4 ec 40 3c 21 26 2e 3c
       0.010830627 0.010705035 0.011775244 0.010629208
0000b0 98 0e 42 3c 39 6d 43 3c 6a 9b 38 3c 57 f4 2d 3c
       0.0118443 0.011927896 0.011267522 0.010617337
0000c0 21 c9 4b 3c bd b5 0e 3c c4 8c 1e 3c e5 35 08 3c
       0.01243809 0.008710322 0.009677116 0.008313631
0000d0 8b 4d 18 3c 80 a0 10 3c ca 2b 68 3c e4 f6 27 3c
       0.009295831 0.008827329 0.014170596 0.010251734
0000e0 e3 3b 2e 3c 6f 5f 08 3c 28 11 5e 3c 96 08 50 3c
       0.010634395 0.008323534 0.013553895 0.01269736
0000f0 a5 7b 2e 3c 19 14 12 3c aa a7 4e 3c 65 f7 fc 3b
       0.010649596 0.0089159245 0.012613216 0.0077199214
000100 d0 a5 21 3c 33 02 18 3c 9e 5c ab 3b 04 8f 8d 3a
       0.009866193 0.009277868 0.0052295467 0.0010800068
000110 f2 60 21 3a ce 97 28 3c 9e 12 c5 3b d0 7c 67 3b
       0.00061561086 0.010290099 0.006014182 0.0035322197
000120 00 00 00 00 00 00 00 00 82 5d 9b 3b 9b 53 80 3b
       0.0 0.0 0.0047413716 0.0039162165
000130 88 0b 0c 3b 00 00 00 00 00 00 00 00 73 86 7c 3a
       0.0021369178 0.0 0.0 0.00096330716
000140 00 00 00 00 00 00 00 00 00 00 00 00 00 00 00 00
       0.0 0.0 0.0 0.0
000150 a3 e1 38 3a 00 00 00 00 00 00 00 00 00 00 00 00
       0.00070526655 0.0 0.0 0.0
000160 00 00 00 00 eb 22 4a 3c cc 7c 4b 3c 77 77 1a 3c
       0.0 0.012337427 0.012419891 0.009427897
000170 f3 76 5a 3a d5 a8 ff 39 21 7a 47 3c d2 18 1b 3c
       0.0008333765 0.0004876318 0.012175114 0.009466367
000180 60 70 c0 3b 00 00 00 00 00 00 00 00 61 6f 19 3c
       0.005872771 0.0 0.0 0.009364934
000190 d1 ff fb 3b da 8b 99 3b 00 00 00 00 00 00 00 00
       0.007690408 0.004685861 0.0 0.0
0001a0 da d5 6c 3a 00 00 00 00 00 00 00 00 00 00 00 00
       0.0009034552 0.0 0.0 0.0
0001b0 00 00 00 00 7d 7d c7 39 00 00 00 00 00 00 00 00
       0.0 0.00038049734 0.0 0.0
0001c0 00 00 00 00 00 00 00 00 bd 36 60 3c 7e 89 31 3c
       0.0 0.0 0.013684926 0.010836003
0001d0 1b db eb 3b c5 2c 04 3a ae fd c9 39 ef d4 48 3c
       0.0071977503 0.00050420716 0.00038526714 0.012257799
0001e0 1c 65 32 3c ae 52 03 3c 00 00 00 00 00 00 00 00
       0.010888364 0.008015318 0.0 0.0
0001f0 1b 5b 0a 3c 01 b6 d4 3b b9 de a2 3b 00 00 00 00
       0.008444573 0.006491423 0.0049703983 0.0
000200 00 00 00 00 1f 54 a9 3a 00 00 00 00 00 00 00 00
       0.0 0.0012918747 0.0 0.0
000210 00 00 00 00 00 00 00 00 af 0c 80 3a 00 00 00 00
       0.0 0.0 0.0009769405 0.0
000220 00 00 00 00 00 00 00 00 00 00 00 00 ed f4 8a 3d
       0.0 0.0 0.0 0.06784997
000230 c4 fa c4 3c f5 76 ca 3e 02 25 00 3c ce d5 06 3c
       0.024045356 0.39543882 0.007821323 0.008229686
000240 7b b3 f9 3b 16 ec f2 3b 35 32 05 3c 62 5e 0a 3c
       0.0076202727 0.0074133975 0.008129646 0.008445354
000250 1d cf ca 3b 46 db f2 3b 6b da ec 3b 97 f3 14 3c
       0.0061892406 0.0074113933 0.007228186 0.0090912795
000260 74 0c 0e 3c ac 94 13 3c 9d ba 17 3c 9a 4f fe 3b
       0.008669961 0.009007614 0.009260801 0.007760954
000270 9f fd 19 3c 9f df 02 3c 69 1e ab 3b c6 a9 12 3c
       0.009398847 0.007987886 0.005222131 0.00895161
000280 47 ca f9 3b 29 86 d9 3b a6 e6 f7 3b 55 f9 eb 3b
       0.0076229903 0.0066383076 0.0075653372 0.0072013536
000290 04 34 0f 3c 74 55 02 3c cf 00 bd 3b fb df 21 3c
       0.008740429 0.007954944 0.0057679187 0.009880061
0002a0 8d f3 21 3c 23 5e 21 3c 1d b7 32 3c 18 da 1e 3c
       0.009884727 0.009849104 0.010907915 0.009695552
0002b0 89 0f ef 3b c5 a2 1d 3c b3 e1 fc 3b 24 43 13 3c
       0.007295553 0.009621327 0.007717335 0.008988176
0002c0 d8 05 2e 3c 6f 1e 2d 3c fb 81 f7 3b 5c aa 1d 3c
       0.01062151 0.010566338 0.0075533367 0.009623136
0002d0 53 71 15 3c fe e9 d9 3b cf 2c f8 3b 56 35 0c 3c
       0.009121257 0.0066502085 0.007573701 0.008557638
0002e0 c4 94 28 3c ed 0b 29 3c de 75 12 3c 47 ba 31 3c
       0.010289375 0.010317785 0.008939235 0.010847635
0002f0 9b fd 00 3c 43 e1 c0 3b 8d 10 1d 3c 72 bb 20 3c
       0.007872964 0.0058862283 0.009586466 0.009810315
000300 56 b2 0b 3c d9 a2 10 3c 9a b0 d3 3b 42 1c d3 3b
       0.008526405 0.008827888 0.0064602615 0.0064425776
000310 3d a6 ff 3b 8d 71 9c 3b 63 7d ac 3b 64 6c 11 3c
       0.0078017996 0.0047742785 0.0052639707 0.00887594
000320 1c d9 e6 3b fa 07 03 3c 02 03 a5 3b 01 a7 db 3b
       0.0070449244 0.007997507 0.005035759 0.006703258
000330 b2 63 ab 3b 18 ca 57 3b 65 94 fb 3b a2 ae fd 3b
       0.0052303905 0.0032926854 0.007677602 0.007741765
000340 15 a5 86 3b 6e 99 91 3a 41 d3 da 39 45 5e ef 3b
       0.004109035 0.0011108348 0.00041737597 0.007304939
000350 91 93 90 3b f5 86 43 3b 00 00 00 00 00 00 00 00
       0.0044121225 0.002983508 0.0 0.0
000360 33 81 82 3b cc b9 47 3b a1 35 01 3b 00 00 00 00
       0.003982687 0.0030475734 0.0019715803 0.0
000370 00 00 00 00 21 53 13 3a 00 00 00 00 00 00 00 00
       0.0 0.0005619992 0.0 0.0
000380 00 00 00 00 00 00 00 00 5d dd 86 39 00 00 00 00
       0.0 0.0 0.000257234 0.0
000390 00 00 00 00 00 00 00 00 00 00 00 00 03 b5 1e 3c
       0.0 0.0 0.0 0.009686711
0003a0 4b 19 2f 3c a2 1f ff 3b 52 f5 1d 3a 2c fa f8 39
       0.010687183 0.0077857533 0.000602563 0.0004748864
0003b0 dd dc 2f 3c 32 a5 07 3c 88 08 9f 3b 00 00 00 00
       0.01073381 0.008279132 0.004853312 0.0
0003c0 00 00 00 00 ad 90 c4 3b 44 7d b9 3b 71 83 6f 3b
       0.0 0.005998692 0.005660685 0.003654685
0003d0 00 00 00 00 00 00 00 00 3c a3 bf 39 00 00 00 00
       0.0 0.0 0.00036551978 0.0
0003e0 00 00 00 00 00 00 00 00 00 00 00 00 ce df 93 39
       0.0 0.0 0.0 0.00028204772
0003f0 00 00 00 00 00 00 00 00 00 00 00 00 00 00 00 00
       0.0 0.0 0.0 0.0

exp_avg f4 [128]
000000 43 9a bc bd 77 56 77 3c f7 ed a7 b8 52 6a 43 38
       -0.092091106 0.015096298 -8.007505e-05 4.659064e-05
000010 a2 0c 17 b7 bd c1 89 3d cb b1 9b 3c 1d 33 4e 33
       -9.003243e-06 0.06726406 0.019005677 4.80096e-08
000020 d7 9b 00 3c e4 ad 4b bd bd 81 8c 39 0a 6e bb 3c
       0.007849655 -0.049726382 0.00026799543 0.02287962
000030 8d 5a 1a bd 55 b8 98 bb 05 a9 b9 0a eb f0 8a 21
       -0.037684012 -0.004660646 1.787843e-32 9.415014e-19
000040 80 8f c0 2b 7f 69 5d 36 02 6c 23 bd 4e 7d 11 18
       1.368225e-12 3.2992973e-06 -0.039897926 1.8804073e-24
000050 86 2b d8 2e 1a e0 0d b6 80 f5 39 3c 70 fb 86 3c
       9.830274e-11 -2.1141082e-06 0.011350036 0.016477317
000060 72 48 2c 2a 67 d8 41 39 67 b9 d7 bb 09 01 f5 3a
       1.5301803e-13 0.0001848653 -0.006583381 0.0018692325
000070 9b fa 87 3c 25 f5 6b bb a3 2c 04 bc 27 4c dd bb
       0.01659899 -0.0036004272 -0.008067283 -0.006753463
000080 54 2e 3f b8 2f 4e 43 38 99 86 b9 3c 9e 37 cd bb
       -4.5581095e-05 4.6564437e-05 0.022647189 -0.0062627336
000090 7e 06 0e 35 9d ac 4b b7 f5 cc 12 3d 7e 47 64 3d
       5.290857e-07 -1.2139933e-05 0.035839994 0.055732243
0000a0 b1 c4 6a bb d3 e0 88 b1 2b ac 44 39 5b 06 9d 37
       -0.0035822804 -3.9836805e-09 0.00018756154 1.8718818e-05
0000b0 67 65 f8 bb 9b 7c 30 b9 59 d7 6b 24 99 2d 7e 37
       -0.0075804475 -0.00016831087 5.113991e-17 1.5150196e-05
0000c0 ca 84 45 3d 1c 51 d7 bc 6b 05 be 37 94 44 a2 39
       0.04822234 -0.026283793 2.2652288e-05 0.00030950143
0000d0 61 a0 a9 36 29 65 2c 3c 23 2d 11 3c 61 e4 0d 3d
       5.055263e-06 0.010522165 0.008860859 0.034641627
0000e0 e3 e0 a6 37 33 b3 26 bd 15 f0 1b bd b3 2f 79 3c
       1.9893463e-05 -0.04069824 -0.038070757 0.015209126
0000f0 e5 7a 2a 82 93 aa c7 3c e4 10 26 33 1c 7d e1 20
       -1.2524896e-37 0.024373328 3.866525e-08 3.8199273e-19
000100 0a 8b 12 38 eb 53 6b 37 74 28 12 aa 46 7f fe 3c
       3.4938603e-05 1.402663e-05 -1.298144e-13 0.031066548
000110 78 19 7c 39 e7 c2 22 bd 6a 07 00 00 99 bf aa b7
       0.0002404208 -0.039736655 2.66e-42 -2.0354799e-05
000120 4e c2 09 b7 b8 b6 06 37 7e 11 b4 3c a7 23 67 b4
       -8.211076e-06 8.029565e-06 0.021980997 -2.1526522e-07
000130 03 e6 e4 ad 84 f3 83 bc 90 ed af bb a5 22 88 3c
       -2.6022745e-11 -0.016107328 -0.005368896 0.016618082
000140 6e 52 86 bc 89 37 ff bc 56 28 23 b9 30 64 fd 3c
       -0.016396727 -0.03115441 -0.00015559918 0.030931562
000150 bb 3d 9f 3b 2d bc 3e 3c 77 ab 73 21 b9 3c 95 3a
       0.004859654 0.011641544 8.2558534e-19 0.0011385895
000160 8d 51 5e 3d 3a 97 36 bd 4d f5 aa bc 9e fb 49 31
       0.05427699 -0.044577815 -0.020868922 2.9392377e-09
000170 a4 8a bc 32 a7 92 00 b9 39 c6 ee bc ce 2f 3a b6
       2.1949127e-08 -0.00012261664 -0.029147254 -2.7743986e-06
000180 ac c7 44 ae c6 bf 1b 3d b2 2e 0f bc ab d7 93 3c
       -4.4742585e-11 0.038024686 -0.00873916 0.018047174
000190 ed 91 b3 bb 08 30 13 37 00 51 5f 30 33 39 80 a6
       -0.005480042 8.773066e-06 8.1242035e-10 -8.897288e-16
0001a0 88 15 44 b9 7f a8 2a b9 e6 71 3a 3c d6 60 1a b4
       -0.00018700038 -0.00016275233 0.011379695 -1.4377596e-07
0001b0 dd e6 00 00 cb a0 91 35 7a 8c c9 bc e7 80 06 38
       8.2818e-41 1.0850139e-06 -0.024603117 3.206814e-05
0001c0 cb 0f 0b bd 3a 4c aa 3c 77 8a 5e 1d 5b 23 36 b5
       -0.03395061 0.0207883 2.945304e-21 -6.785173e-07
0001d0 d4 4b 3d 3d c2 91 9c bc 43 05 e3 ba e6 1d 14 3c
       0.046214893 -0.019112471 -0.0017320294 0.0090403315
0001e0 dc d0 09 3d c0 6e dd b5 bd 18 4d 3c 75 fa 4f 3d
       0.03364645 -1.6498016e-06 0.012518105 0.050775964
0001f0 7f ba b7 3b cb aa f6 36 0f d9 cf 37 24 79 e2 3c
       0.005606949 7.351254e-06 2.4777399e-05 0.027645655

exp_avg_sq f4 [128]
000000 82 26 a7 3c 3a c1 77 3c cf b4 fd 39 ec 51 f4 3b
       0.020404104 0.015121752 0.00048390633 0.007456055
000010 a8 2b 76 3a d4 e1 97 3c 33 c9 89 3c 3e 0f 66 39
       0.00093906606 0.0185403 0.016819572 0.00021940187
000020 df 8a b5 3b f2 18 74 3c 88 6b 4b 3c cd ae e1 3a
       0.0055402364 0.014898526 0.012415774 0.0017218232
000030 b2 12 e8 3b c8 e0 a3 3c de b5 6c 3a cf 9f 4a 3b
       0.007082307 0.020004645 0.0009029786 0.0030918007
000040 6c 67 fd 39 a5 3d 73 3a 14 9b 98 3c 48 a2 fe 3a
       0.00048332976 0.00092789 0.018628635 0.0019427026
000050 d7 ea 04 3a eb 1f e9 3a 7f 82 39 3c 3f 1a 91 3c
       0.0005070394 0.0017786002 0.011322617 0.01771271
000060 c0 85 7d 3a b4 98 bf 3b db ef a3 3a 00 84 27 3c
       0.00096711144 0.005847061 0.0012507396 0.010224342
000070 04 b7 9b 3c c5 bd 9c 3b dd 74 27 3c cb c1 28 3c
       0.019008167 0.0047833645 0.0102207335 0.01030011
000080 a9 1c 88 3c 41 fd 9f 3b cc c2 c7 3c bd ce 95 3c
       0.016615229 0.004882485 0.024384879 0.018287057
000090 22 22 ef 3b a2 1b 08 3b cb 50 58 3c 8a c8 07 3c
       0.00729777 0.0020768424 0.013202856 0.008287558
0000a0 f6 ef 8d 3c 97 65 9f 3a f8 3a 83 3b 8a 80 1b 3b
       0.017326336 0.0012161013 0.0040048324 0.0023727738
0000b0 ce e8 ff 3b 66 7c e6 39 cb 16 55 3a b2 49 74 3b
       0.007809735 0.00043961703 0.00081287016 0.003727537
0000c0 1f ca 4f 3c ac cf d9 3b c0 5f 87 3c e6 01 ad 3c
       0.012682467 0.006647071 0.01652515 0.02111907
0000d0 50 48 33 3c 33 a6 17 3c 1f f0 46 3c f0 78 9b 3c
       0.010942534 0.009255934 0.01214221 0.018978566
0000e0 60 76 77 3b d1 35 21 3c 7c e3 b3 3c e6 14 8e 3c
       0.0037759766 0.009839491 0.021959059 0.01734395
0000f0 81 77 f8 38 19 d8 d2 3a a2 83 c0 39 a6 78 7a 3a
       0.00011847821 0.0016086131 0.00036719168 0.0009554721
000100 16 e5 aa 3b c9 d0 71 3b 0d 9c 87 39 72 9a c7 3c
       0.0052152975 0.0036898127 0.00025865473 0.024365637
000110 c4 71 2c 3b de 32 87 3c 5b a6 1b 38 8e 99 b7 3b
       0.0026312927 0.016503748 3.710981e-05 0.005603022
000120 c0 10 37 3b e8 6e 21 3a a9 72 87 3c 52 fb 6c 39
       0.0027933568 0.0006158189 0.016534166 0.00022600338
000130 a4 5c 1b 3a b1 ca cc 3b 29 57 91 3b 56 28 3c 3c
       0.0005926585 0.0062497486 0.004435439 0.011484226
000140 33 67 16 3c c4 b1 45 3c ed e2 d8 3b da cd a3 3c
       0.009179878 0.012066308 0.0066188485 0.019995619
000150 2b 8b 40 3c 67 5b 50 3c e1 30 9f 3a 8d 7a 8d 3a
       0.01175193 0.0127171045 0.0012145304 0.0010793969
000160 66 56 57 3c 7f 90 b9 3c 8a da 95 3c 8c 87 0f 3b
       0.013143158 0.022651909 0.018292684 0.002190086
000170 5a 20 8d 3b 8a 57 e0 3a c9 34 e6 3c 3e 08 98 38
       0.004306835 0.0017115932 0.028101342 7.24946e-05
000180 1d f8 62 39 7e b5 9b 3c 41 08 3c 3c dc 03 8f 3c
       0.00021645469 0.01900744 0.011476577 0.017457895
000190 66 13 dd 3b bb af 53 3b bb 54 46 39 4e 7d 39 3a
       0.0067466972 0.0032300788 0.00018914316 0.0007075862
0001a0 07 86 83 3b 2e 26 99 3b 16 9f 3e 3b e5 a6 b0 3a
       0.00401378 0.004673741 0.0029086522 0.0013477473
0001b0 9e fa 1b 38 92 82 ce 3a e3 65 c1 39 91 68 67 3b
       3.7188285e-05 0.0015755466 0.0003688774 0.003531013
0001c0 6d 17 96 3c 4d cf 93 3c e9 49 f0 37 42 79 cd 39
       0.018321717 0.018043185 2.8644647e-05 0.0003919099
0001d0 f2 1b 09 3c 97 c7 12 3c 26 33 3f 3b 20 18 01 3c
       0.008368479 0.008958719 0.0029174774 0.007879287
0001e0 5b 29 71 3c e8 7b b0 38 05 95 37 3c 3b 90 b0 3c
       0.014719333 8.415413e-05 0.011204963 0.02155315
0001f0 fe 1d 97 3b fd 59 f5 39 1c 16 8c 3c b2 0f 83 3c
       0.0046117296 0.00046797088 0.017100386 0.015998695
