weights/policy_checkpoint4300.pt (torch, 522983 bytes, 12 tensors)

net.0.weight f4 [128, 142]
00000000: 7fc0 9c3c f97e a53d 96cf af3b 698c f93d
00000010: 5cf4 a33d f611 093e add8 9d3d 79a1 463d
00000020: 455c 173d 8ddb 79bd 442b c03d 686b 843d
00000030: 3d36 813d f918 0c3d 9c8a c93d 692f 6a3d
00000040: 14a9 363d e71c 1bbd 5004 a1bd 6db1 643d
00000050: 62f2 6c3b f925 3b3d dc11 e33b d93b f13d
00000060: 98be e9bc ea4b 2cbd 440f e8bc c542 88bd
00000070: 67b6 81bc be15 debd 34d0 293e d8db e2bb
00000080: b3c7 c83d 88fb 593d 1ff5 75bc 6f15 b43c
00000090: 1496 413c 7470 ab3d 5c49 0d3d d739 7fbc
000000a0: cb2e e33d ebb2 d5bc 9733 9b3d 3d82 863d
000000b0: 8ba7 703d e195 3b3d 190a cb3d e521 b23b
000000c0: 4e0b a83d 879b 8d3d ab42 6bbd 745f 313c
000000d0: e422 3bbd fa99 643e 12d5 ef3d c027 e83d
000000e0: 0dfb d73c 0d05 3b3d 4d30 473e bd07 aa3d
000000f0: 5f12 b6bc 05af d83b 7ec1 f93d caf3 953c
00000100: 5a26 6e3c 9c33 88bd 18eb a73d 45c7 1fbd
00000110: 5fbe 81bc a578 43bd 0adf 033e eadc b83d
00000120: 6860 a53d e8d5 8dbd 2cc1 8bbd a73f cebc
00000130: a80e 29bd 5339 0b3d 7229 f63c c71a 1c3d
00000140: 9e82 31bd ec52 6abd fc5f 363d caef 0abd
00000150: 5ce7 03bc 5322 a3bc eca0 443d 7988 85bd
00000160: 6d76 2dbd a001 9c3d b726 313d 2b2d da3c
00000170: 8262 863d 0ca6 9a3d fc44 3bbc 71e9 a6bd
00000180: b13d fc3d 71f8 e7bc 05b7 f3bc df70 cabb
00000190: 9ea3 52bd 5371 6f3d b87a 35bc 0282 79bd
000001a0: 2cb3 a43d 73cb 6abd 24cf 91bd 4f47 3dbd
000001b0: f26a 96bd 7469 6f3d 11cc ab3d efd7 813c
000001c0: bfd8 d33c 914b a0bd c5b0 54bd 4776 913c
000001d0: 663c 543d 840c 89bc 7a07 053c 881a 02be
000001e0: ff81 993c 67e7 c4bc 328d bebb b8eb 68bd
000001f0: bacf 37be 12a4 b8bd d9b1 7abd 35a6 87bd
00000200: 631a 903d 758f 73bd 1cdf 933d 0d33 d63c
00000210: c288 91bd 53df 6d3d 6faa 4d3c 9ac2 03bd
00000220: d7a8 8ebd 5cdc aabd 5ab0 c43c cb86 ae3d
00000230: d601 b23d 0e83 0dbc 7f33 b83c 4a6d c2bd
00000240: 9be4 c0bd fa86 80bd 8372 313d 80e7 403d
00000250: 15be a53d 39f5 eebd aafd 183c 2e77 49bd
00000260: 34a6 8ebb fe1d eabd 54c8 073e 86b9 03bd
00000270: 3d9d a13d fca5 e4bc 917a 0e3d 97ee 2cbd
00000280: f998 ac3d 91fa 463c 4009 383b c574 a1bd
00000290: 979c ca3d 02a4 0c3c 81ac 1bbd ea9c a73d
000002a0: 18b9 9b3d 08e4 bfbc 0dff 69bd 3a85 a1bd
000002b0: 74dc da3d 30b3 443c af7c 3fbd 42be 16bd
000002c0: 5b95 a2bd 8b2c 423c 35d4 153d b9cd 24be
000002d0: 5f56 a83d 6128 963d 545d 12bd a5c9 aebd
000002e0: 9413 ec3c 59c7 903d 7337 34bc 9758 30bd
000002f0: 0ed8 073c c75d dc3c 935d b4bd 1117 80bc
00000300: 7879 8a3d 2c2a d53d b9af 0c3c 22f9 a23c
00000310: bdf4 363c 555d e5bd 8abf d13d 6374 aa3d
00000320: c7e7 00bd c4c7 9a3d 90dc 023e 2111 1d3a
00000330: d2f1 a5bc d0b5 31bd 914f 9dbd a244 c2bd
00000340: da9c 56bd 4034 8fbc 9132 923d c32d 803d
00000350: f655 f3bd 2f5b 04be 05fc 58bc be40 a63d
00000360: 1305 b73d d74c 0bbd 4dad 2c3c 80eb 02bd
00000370: f87a 5ebd 4e10 8c3d 474b 1cbd f6cf 89bc
00000380: adf8 aabd 2b0c 663d b752 623d e88a fa3c
00000390: 54ac 6fbd aa9e a9bd a995 8bbd e49d 233c
000003a0: 79a3 833c 21c2 a53d 0373 a7bd f292 efbd
000003b0: 304a 453c f1ce 3ebd c092 88bd cac0 a0bd
000003c0: 9fb5 0c3d f9b5 e9bc ab63 e53c c542 97bd
000003d0: b88a 7abc a2ed 71bd 9ad8 27bd 7c09 e43c
000003e0: 534f ccbc d632 543d d88a dcbc aed8 93bd
000003f0: a796 72bc 219f 26bd 6252 d2bc 369d a3bd
0.019134758 0.08080859 0.0053653223 0.12184984 0.08005592 0.13385758 0.07707343 0.048493836
0.03695323 -0.061000396 0.09383252 0.064657986 0.06309173 0.034203503 0.09840891 0.05717412
0.04459484 -0.03786936 -0.07862151 0.05583327 0.0036155214 0.04569051 0.0069296192 0.11778993
-0.028533265 -0.042064585 -0.028327592 -0.0665336 -0.015834047 -0.10843991 0.1658333 -0.00692318
0.098037146 0.053218395 -0.015012055 0.021982877 0.011815567 0.08371058 0.03449379 -0.015577755
0.110929094 -0.026086291 0.07578199 0.0656781 0.05875353 0.045797233 0.09914035 0.0054361694
0.08205281 0.0691443 -0.057436626 0.01082598 -0.04568757 0.22324362 0.11710562 0.11335707
0.026364828 0.045659114 0.19452019 0.08302257 -0.022225557 0.006612661 0.12195109 0.018304724
0.014535511 -0.06650469 0.081991374 -0.039008398 -0.015837846 -0.047722477 0.12878051 0.09026511
0.08075029 -0.06925565 -0.06823954 -0.025176836 -0.041273743 0.033990216 0.03004906 0.038111474
-0.043337457 -0.057207987 0.04452513 -0.033920087 -0.008050766 -0.019913828 0.04800503 -0.06520171
-0.042349268 0.076174974 0.043249812 0.026632866 0.065617576 0.07551202 -0.011430021 -0.08149994
0.12316454 -0.028316708 -0.029750356 -0.006178006 -0.05142557 0.058457684 -0.011076622 -0.060915
0.08041987 -0.05732293 -0.07119587 -0.046210583 -0.07344617 0.058450177 0.08388532 0.015850035
0.025860189 -0.07826913 -0.051926393 0.017756594 0.051815413 -0.0167296 0.008119458 -0.12705433
0.018738745 -0.024036122 -0.0058151716 -0.056865424 -0.17950335 -0.09015669 -0.061204765 -0.06623498
0.07036283 -0.059462983 0.07220289 0.02614739 -0.071061626 0.058074307 0.012552842 -0.03216801
-0.069657974 -0.083428115 0.024009872 0.085218035 0.086917564 -0.008637203 0.022485493 -0.094935015
-0.09418603 -0.06275745 0.043322098 0.047095776 0.08092896 -0.11667866 0.009337822 -0.049185924
-0.004353309 -0.11431502 0.13260013 -0.03215935 0.07891319 -0.027911179 0.034784857 -0.042219725
0.08427615 0.012144701 0.0028081685 -0.078836 0.098931484 0.008584024 -0.03800631 0.08184226
0.07603663 -0.023424163 -0.057128 -0.07886739 0.10686579 0.012005612 -0.046749767 -0.036802538
-0.079386435 0.01185144 0.03657933 -0.16094102 0.08219599 0.073319204 -0.035733536 -0.085345544
0.02881793 0.070692725 -0.010999548 -0.043053236 0.008291258 0.026900185 -0.0880691 -0.015635999
0.067614496 0.10408434 0.008586817 0.019894186 0.011166749 -0.11199442 0.10241611 0.0832298
-0.03147104 0.075576335 0.1277945 0.0005991627 -0.02025691 -0.04338628 -0.07681192 -0.09485747
-0.05239568 -0.01748097 0.07138551 0.06258728 -0.1188163 -0.12925409 -0.01324368 0.08117817
0.08936515 -0.034008827 0.010539365 -0.03196287 -0.05431649 0.06839047 -0.038157728 -0.016822796
-0.083482124 0.056163948 0.055254664 0.030583814 -0.058513954 -0.08282216 -0.06815655 0.0099863745
0.01606916 0.08093668 -0.081762336 -0.116979495 0.012041613 -0.046584073 -0.06668615 -0.078492716
0.034352895 -0.028529154 0.028001627 -0.07385782 -0.015291862 -0.059064515 -0.04097805 0.027836554
-0.024940168 0.051806293 -0.026921675 -0.07219063 -0.014806426 -0.0406791 -0.025674049 -0.0798897

net.0.bias f4 [128]
00000000: fddf f73d 82fa 58bc df3e e53a 4b5b 5d3d
00000010: a47a e93d f5d9 ba3c 2d9b eb3b d9f9 b0bd
00000020: 196d 883d 0bac 5e3d 15c6 adbb 2d93 8bbc
00000030: dfd6 7bbd 9ecb e23d f04f 96bd 4c1a 58bd
00000040: d783 7d3d 5ab9 acbd 11e4 0b3d 559f 6fbd
00000050: 1201 e23a bd89 dcbd 42d8 c23d e1d4 ce3d
00000060: a663 4fbc fe4c 143d 1d5e bd3d af35 27bd
00000070: d2e1 55bd 7452 633d 13f9 0abd 13e7 603d
00000080: 65b9 ea3d 9910 133d e411 813d 8090 643c
00000090: 744f 07be c4c6 ee3b c399 af3d 6653 c63d
000000a0: 39b3 be3d 5293 efbd afff 4b3b 9f18 503e
000000b0: 58d3 19bd d3bf 9ebd 322c c1bd 2772 0f3e
000000c0: 86ad 94bd cdeb 2abc 98db 853c 196a 173d
000000d0: 5dcd 46bd bd14 0d3d 1ee9 a23b e005 8abd
000000e0: 9bc9 39bd 1cf8 f63c 26c8 5ebc 1538 8a3c
000000f0: 4396 e4bd 49a2 f83c 729f ee3d 812b afbd
00000100: f69b 69bc 39d2 023d 6a12 3bbc b99e a73d
00000110: e439 45bd e9c6 f03c d754 e6bd 90d0 613d
00000120: c6f7 ebbb aa16 483d cd1e 7e3d 0605 e1bd
00000130: d6cd 19bd c1ba a63d 72ce 283e 6c5f 52bd
00000140: 407e 0bbc d309 02bc 2aac 9c3d a313 053e
00000150: 1b66 b9bc 7a40 563d d498 29bd 9e64 d9bc
00000160: e30e 4bbd 0aad df3d af95 253e 8efd cebc
00000170: 9f3c d73b fae9 c0bd 6141 153e 0061 c63c
00000180: 22e5 babd 4687 2f39 8a95 f33c 0cd5 65bc
00000190: 248b b2bd 9c3e d5bd 45e5 a9bd 551e 86bd
000001a0: 61d0 1e3d 09d6 2b3e 5fe2 9a37 050c 70bd
000001b0: 198c b9bd 9b4e f7bd 0d28 0a3d 63e7 1d3d
000001c0: bc9a d33d d9ca f0bd 966a 7fbd 6b0e 36bd
000001d0: 0aa3 1f3e 79c8 ddbd 031e 353d 229d 94bd
000001e0: 9749 583d 5071 39bd 88c5 67bd e2df cb3a
000001f0: 20f1 d1bd 94f5 2ebd e175 83bd c8bf 56bd
0.12103269 -0.0132433195 0.001749005 0.054042142 0.11400345 0.022809008 0.0071901293 -0.08641405
0.06661434 0.05436329 -0.0053031542 -0.017037952 -0.061484214 0.11073993 -0.073394656 -0.052759454
0.06189331 -0.084337905 0.034153048 -0.05850156 0.0017242751 -0.10768459 0.09513904 0.10099197
-0.012658035 0.036206238 0.09246466 -0.04082268 -0.052217312 0.055498555 -0.033928942 0.05490787
0.114611425 0.0359045 0.063022405 0.013950467 -0.13213903 0.0072868783 0.085742496 0.09683876
0.09311528 -0.11698021 0.003112774 0.20321892 -0.03755507 -0.07751431 -0.09432258 0.1400839
-0.072596595 -0.010432196 0.016340062 0.036966417 -0.048535693 0.034443606 0.0049716374 -0.06739402
-0.04535828 0.030147605 -0.013597524 0.016872445 -0.11161473 0.030350821 0.116515055 -0.085532196
-0.014258375 0.031938765 -0.0114179645 0.08184571 -0.048150912 0.029391723 -0.11246651 0.05513054
-0.0072011678 0.04884974 0.062041093 -0.10987286 -0.037549816 0.08141089 0.16485003 -0.051360533
-0.008513987 -0.007936913 0.07650025 0.12995772 -0.022631695 0.052307583 -0.041405514 -0.026537236
-0.049574744 0.109216765 0.16170381 -0.025267389 0.006568506 -0.094196275 0.14575721 0.024216175
-0.09125735 0.00016739694 0.029734392 -0.014027845 -0.08717945 -0.104123324 -0.08295683 -0.06548754
0.038772944 0.16780867 1.8463643e-05 -0.058605213 -0.09059925 -0.1207554 0.0337296 0.038550746
0.103322476 -0.1175744 -0.062357508 -0.044447344 0.15589538 -0.10829253 0.044218075 -0.07256533
0.052804556 -0.04527408 -0.056584865 0.0015554393 -0.10251069 -0.04271467 -0.06418968 -0.05242899

net.2.weight f4 [192, 128]
00000000: 7d86 99bd b8b9 95bd 390e f33d 5528 efbd
00000010: a1e0 2dbd 7add 86bd 610d 00be 9b21 b43d
00000020: c8ba 8e3a 25c9 b83b 1bf7 9b3c 19a9 b9bc
00000030: 2047 3d3c 6fad 86bd 6f42 5d3d 50b5 69bb
00000040: 9901 c63d beac d63c 31aa fdbd 5c75 393d
00000050: ddec b63d 2d04 51bd bd13 b9bd bedd 37be
00000060: e700 f43c 1a62 c6bd a394 eabd 9e4d 8b3c
00000070: bd13 7dbd 373e 2a3d d107 39be cdf1 ebbd
00000080: ca68 c8bd df17 fd3a c6c8 02be 5c34 80be
00000090: cbb8 8abd d04d 37bd 09d9 67bd 90a3 e6bd
000000a0: 3f7e cdbd f899 aebd 6442 1ebd 04d3 fbbd
000000b0: 1e10 dfbd 95ec a83d 1164 9abd 0b36 8abd
000000c0: ff46 b9bd 5954 01be fe9c 66be 1d3e 05be
000000d0: 910f c2bd 6a0c fdbd 9707 98bd 1c11 c7bd
000000e0: 98e9 303d ee5f ebbd ae56 a7bd 4a4a 333c
000000f0: 3ba8 90bd 51fb 09bd 3e99 c6bd e858 87bd
00000100: c5e3 f33c 628f 5b3d 1251 8b3b f0d3 22ba
00000110: c1f6 e93b b089 1bbe 0c19 a2bd c656 11bc
00000120: 7465 c8bd 037a 463d d4fc e9bd 3cd0 6c3d
00000130: 0343 03bd 901d a6bd 9fad 13be 3492 b23d
00000140: 3a0c e2bd c92d 773c 32f8 87bd b539 59bd
00000150: adf3 67bd dab9 79bd 43ab f6bd a331 b8bd
00000160: 9e54 c2bd 7ac7 17bc 78f5 00be fc2b 92bd
00000170: afc4 aabb 1cb4 6c3d 57c4 e4bd 3168 c93d
00000180: c253 b0bd 55ed 83bd 310d 1fbe 4556 10be
00000190: f8b4 87bd 3e32 fdbd f4bb 8f3d 6e4a 2cbd
000001a0: 52a3 f33d 9fe3 80bd 658f 1fbc ae61 41bd
000001b0: cc4c cdbc 2de3 2cbd 70ef 913d 2eef 01be
000001c0: 7f17 95bd 2afe 41be c400 0fbd 31e2 913d
000001d0: 28bf 87bd 5620 e5bd 330f 44be a71d 37bd
000001e0: 69bd 7dbd 6e85 0e3e 7819 dfbd 1caf f6bc
000001f0: a877 09be 8445 0e3e 973b 0ebe 9d5b f4bd
00000200: d35f 0a3e a52f aa3d f600 f23b 6833 b6bc
00000210: 7ba7 e43d 321e 733c 366d 1d3e 5731 153d
00000220: 2395 cb3d 13fd bcbc 7671 943d fa94 53bc
00000230: 496a cfbc 9ef0 283e 1220 49bd fa4c 233c
00000240: 6070 103d 6d57 463c f3d7 003e e7b1 cbbc
00000250: 74d2 4dbd 6641 073c e0d9 203e e3bd 493e
00000260: 464b 35bd 26a3 ee3c 68bb 0c3e 3d22 883d
00000270: e859 443e d829 1a3d 07f6 053e 6226 9b3e
00000280: b33b 373e 4626 96bb 96c2 ef3d 988d 9e3d
00000290: 0eb4 5fbd 3380 d7bc 8014 303e 5e43 943d
000002a0: fc19 f93d a819 97bd edae 883d 182e 3d3e
000002b0: ab3c 22bd 14ab 163c 45c3 283d 7197 dc3d
000002c0: c8d3 563c 9e96 6c3e 9eb0 f33d a3ce bf3d
000002d0: 2308 a03d 6bd3 57bd ad35 80bd db7c 123d
000002e0: de28 81bd 1e20 713d 02b0 183d 7910 463d
000002f0: 96ce 50bd 11c6 8c3c 3970 993d c999 e73c
00000300: 5c18 73bd 3764 393e adbf 273d b849 a83d
00000310: 9ef7 ae3d 46c7 4f3e 1b90 c7bd 8dac 0c3e
00000320: 25f4 623c 2558 ca3d ad3b 5e3e b26b a3bc
00000330: dade 64bc ff2a c03d 7436 063e 93c2 c93d
00000340: 0543 34bd eb0c d53d 80c3 053e 6a8c e23d
00000350: bca8 693c b361 713c c3f7 0ebd 178a 52bd
00000360: fc6b 72bd 7499 363e a8ab 2a3e eb9d 86bd
00000370: 8107 773d 9f3f b23d 684a f83d bcfb 783d
00000380: efc3 ff3b acd5 e33d c344 dd3d 9ac2 003e
00000390: 18cd 1e3d db25 f9bd 947f ad3c 4814 9dbd
000003a0: 6131 8b3c a38c 3a3e 2fbe 90bb 9727 42bd
000003b0: 0f11 babc ac8a 8ebb a1c6 a13c c7dc a33d
000003c0: 2372 473e 7acd a03d 4740 41bb 3257 c53c
000003d0: 0d03 fe3d 0715 823d b1b8 b13d 572c f53a
000003e0: c307 c33d 8b25 8fbd 5fc6 0c3e 3f8a 48bd
000003f0: 9822 71bd 87ce 83bd 05a1 b4bb 93e7 d93d
-0.07496355 -0.07310814 0.11867947 -0.116776146 -0.04245055 -0.06585212 -0.12505104 0.08795472
0.0010889405 0.0056392127 0.019038728 -0.02266364 0.011552602 -0.065760486 0.054018434 -0.003566105
0.096682735 0.026205417 -0.12385977 0.04527794 0.08931897 -0.051029373 -0.09036968 -0.17955682
0.029785587 -0.0968668 -0.114541315 0.017004784 -0.061786402 0.04156324 -0.18069388 -0.11520729
-0.09785612 0.0019309482 -0.12771901 -0.25039947 -0.06773528 -0.044751942 -0.056603465 -0.11261666
-0.10033845 -0.08525461 -0.038637534 -0.122961074 -0.10891746 0.082482494 -0.075386174 -0.06748589
-0.090467446 -0.12629832 -0.22520825 -0.13011976 -0.09475625 -0.123558834 -0.07423323 -0.0972006
0.043191522 -0.114929065 -0.0817083 0.010943005 -0.070633374 -0.03368694 -0.096971974 -0.066087544
0.029771695 0.053603537 0.0042516077 -0.0006211391 0.007140011 -0.15189242 -0.079149336 -0.008870786
-0.09784976 0.048456203 -0.11425176 0.057815775 -0.03204633 -0.08111107 -0.144217 0.08719292
-0.11037488 0.0150866 -0.066391364 -0.05303355 -0.05662887 -0.060968257 -0.12044384 -0.089938425
-0.09488796 -0.0092638675 -0.12593639 -0.071372956 -0.005211435 0.057788953 -0.11170261 0.09834326
-0.086097255 -0.06441752 -0.15532376 -0.14095409 -0.06626314 -0.123630986 0.07018271 -0.04206317
0.11896385 -0.06293415 -0.009738778 -0.047212295 -0.025061034 -0.04220884 0.07125747 -0.12688896
-0.07279872 -0.18944612 -0.03491284 0.07123221 -0.06628257 -0.11187808 -0.19146423 -0.044706013
-0.061948214 0.13918087 -0.1089353 -0.030112796 -0.13424551 0.13893706 -0.13889919 -0.11931536
0.13513117 0.08309869 0.0073853685 -0.02224131 0.11164757 0.014838742 0.15373692 0.036424007
0.09940555 -0.023069894 0.072482035 -0.012913937 -0.025319235 0.16498038 -0.04910285 0.009967083
0.03526342 0.012105805 0.12582378 -0.024865104 -0.050249532 0.008255338 0.15708113 0.19701342
-0.04426124 0.02913053 0.13743365 0.066471554 0.19174922 0.03763756 0.13082133 0.3030272
0.17893867 -0.0045821993 0.11707036 0.077418506 -0.054615073 -0.026306247 0.1719532 0.07239412
0.12163159 -0.073779404 0.066739894 0.18474615 -0.03960864 0.009196062 0.04120185 0.10771073
0.013112016 0.23104331 0.118989214 0.09365585 0.07814052 -0.05269186 -0.06260238 0.035763603
-0.06306623 0.05886852 0.03727723 0.048355553 -0.050978266 0.01718429 0.07492108 0.028271573
-0.059349403 0.18104635 0.04095428 0.08217186 0.08543323 0.2029086 -0.09744283 0.13737698
0.013852154 0.098800935 0.21702452 -0.019948814 -0.013969148 0.09383201 0.1310671 0.09851565
-0.044009227 0.104028545 0.13062859 0.11061938 0.014261421 0.014732766 -0.034904253 -0.051401224
-0.059185013 0.17831975 0.16667044 -0.06573089 0.06030989 0.08703541 0.12123567 0.060786948
0.0078053395 0.11124739 0.10804131 0.12574235 0.03876981 -0.121654235 0.021178998 -0.07669884
0.01699132 0.18217711 -0.004417203 -0.047401037 -0.022713212 -0.004350027 0.019748034 0.08001094
0.19477133 0.078516915 -0.0029487775 0.02408943 0.12402926 0.06351667 0.08677805 0.0018705231
0.09522965 -0.06989583 0.13747548 -0.048959967 -0.05887088 -0.06435876 -0.005512359 0.106398724

net.2.bias f4 [192]
00000000: 79dc b3bc 5781 3d3e 617c da3c 7394 8f3d
00000010: c7c6 25bd 0912 20bc 9ba7 0b3c c991 5ebd
00000020: 2e73 18be b50a 873c f2bf 8dbc a393 f2bd
00000030: ba60 00bc 8d98 233c f6f2 3fbd 27c1 383c
00000040: 5bd5 113e eab2 11bc 5e54 353c bba8 c33d
00000050: 54b5 94bd eec5 bbbb c03c 57bd 6970 8e3d
00000060: a7d4 6d3d 3956 de3d 9b35 ab3c 87ea 563e
00000070: e904 a93a b2c4 42bd 362c c4bd 03b4 0ebd
00000080: 5fd8 363d 895c b33c 725e 2a3e 9024 533c
00000090: 9232 333c be44 8e3c 8000 a2bd 062f 953c
000000a0: 50b5 a3bd 9ca1 ddbd f483 a33d b511 ba3d
000000b0: 54d4 beba 8d46 75bd 1cb4 0abe 73df 85bd
000000c0: 393f c03d 7ce5 afbd 910a 9abc c8ff bc3d
000000d0: 4823 053d edeb e9bc 207f 8a3d 2dda c33c
000000e0: d468 2cbd 4c4f bfbd 7dc8 823c 4450 fdbd
000000f0: 14e2 63b9 8e86 983b 494c 103d b671 cebc
00000100: 122f e3bd 2b3c 85bd 0566 e3bd 128e 30bd
00000110: ebe1 2c3d 20ea 0abe 2ce9 123e 3d0d b7bd
00000120: ca45 e6bc 6234 4fbd cf1d a73c de9d a6bb
00000130: df4a 193d 93e9 933d 8a58 273e a100 2f3c
00000140: d888 59bc 54e6 8d3d 2ce4 e2bc 2372 1fb9
00000150: d735 a9bd 54cd 78bd 566f 2c3d ce2d 0dbd
00000160: 4966 a7bd d475 c13d 8cd1 503c 7c50 d73d
00000170: 5f87 75bd dd04 be3d cc4d 75bd 47c5 94bc
00000180: 655b 743d ee48 cdbd b684 ccbc 46e8 7e3d
00000190: d196 2abd 8bfc 0ebd 00d0 6abc 72a6 99bd
000001a0: 2bc9 0a3e 0b5d fdbc ab2e 9e3d dfdb a9bd
000001b0: 204b 863d b6a9 55bc 434b 3fbc 0772 7fbd
000001c0: 4c69 d7bc 66c0 303d 1c36 ea3d 9a4e 3b3d
000001d0: 5b80 1a3d 2193 acbd 3903 243d 5b14 82bd
000001e0: 5291 02be 2f8d 62bc 090f 8639 05e6 3eb9
000001f0: bba6 9db9 2b74 2dbd d590 64bc dbd2 713d
00000200: 5dc0 c93c 1fc8 083e 6759 063c 6e0c 59bd
00000210: 210b 7ebd f485 81bd dcd8 9dbd 66e0 923d
00000220: ec48 a0bc 4067 0c3e c80a b1bc 66e4 c2bc
00000230: 0d40 c5bd 568f 18bd 532a 08bc d925 623c
00000240: d9b4 023e 0a40 d9bc d001 a53d 9c85 5f3e
00000250: 7cf1 093e e86d a2bd afa8 af3c 87dc 9e3d
00000260: 41a2 ab3d a4a6 db3d 16db ac3d bfa9 0ebc
00000270: a150 b93d 9201 d23c 7046 4a3d 617c 333e
00000280: 692f d83d d8a8 953c 39a9 34bd 11c5 b53c
00000290: 7b48 3c3c 2d61 8abd 1ec0 ddba ebc1 c63d
000002a0: 1439 0ebc 4308 0b3d 1661 65bd 1ccf 8a3d
000002b0: 0e63 b8bb bf14 cfbd 4445 a23d 6d65 31b8
000002c0: 8327 eebc b569 123e 0f90 123d a233 e43c
000002d0: 0088 e33d 0e23 8ebc e585 e83c 482f 41bb
000002e0: 2e32 f6bd e1ed c53c 2e66 05bc ce1a 8bbd
000002f0: 41f8 cabd f9f6 44bc 6447 693c f2d5 67bd
-0.021955715 0.1850637 0.026670637 0.07010736 -0.040472772 -0.009769925 0.008523847 -0.05433825
-0.14887688 0.016484598 -0.01730344 -0.11844566 -0.007835561 0.009985101 -0.046862565 0.01127652
0.14241545 -0.008892754 0.011067478 0.09553667 -0.07261148 -0.005730382 -0.05254817 0.06955034
0.05806413 0.108562894 0.020899585 0.20987903 0.001289514 -0.047550865 -0.09578745 -0.03483964
0.04463994 0.02189471 0.1663759 0.012887135 0.01093735 0.017366763 -0.079102516 0.0182109
-0.07993567 -0.1082184 0.079841524 0.090854086 -0.0014559128 -0.059881736 -0.13545269 -0.0653676
0.09387059 -0.085886925 -0.018803867 0.09228474 0.03250435 -0.028554881 0.067625284 0.023907745
-0.04209216 -0.093412966 0.01596474 -0.12368825 -0.00021732628 0.004654712 0.035229 -0.025200706
-0.11092962 -0.06505617 -0.11103443 -0.04310424 0.04220764 -0.13565874 0.1434676 -0.08938072
-0.02810945 -0.050587066 0.020399956 -0.005084737 0.03742492 0.07222285 0.16342369 0.010681302
-0.013277255 0.06928697 -0.027696691 -0.00015205941 -0.08262222 -0.06074269 0.042098366 -0.03446751
-0.08173806 0.09446302 0.012745272 0.10513398 -0.059943553 0.09278271 -0.059888646 -0.018160475
0.059657473 -0.10023676 -0.024965625 0.062233232 -0.041647736 -0.034908812 -0.014331818 -0.0750245
0.13553302 -0.030928155 0.07723745 -0.0829389 0.06557298 -0.0130409505 -0.011675659 -0.062364604
-0.026295327 0.043152235 0.11436102 0.045729257 0.037720066 -0.084265 0.040042136 -0.06351539
-0.12750748 -0.013827606 0.00025569674 -0.00018205501 -0.00030069597 -0.042347115 -0.013950546 0.059038978
0.024627859 0.1335759 0.008200026 -0.05299037 -0.062022332 -0.06324378 -0.07707378 0.07171707
-0.019566022 0.13711262 -0.021611586 -0.02379055 -0.09631357 -0.03724607 -0.008310872 0.013802969
0.127643 -0.026519794 0.08056986 0.21828312 0.13471025 -0.07931119 0.02144274 0.07756906
0.08380557 0.107251436 0.08440225 -0.008707463 0.09048582 0.025635514 0.04938358 0.17527916
0.10555918 0.018268988 -0.044106696 0.022188695 0.01149189 -0.06756816 -0.0016918217 0.09704956
-0.008680601 0.033943426 -0.05600079 0.06777784 -0.0056270426 -0.10111379 0.079233676 -4.229455e-05
-0.029071575 0.14298137 0.035781916 0.027856652 0.11109924 -0.0173507 0.028384158 -0.0029477645
-0.1202129 0.024161281 -0.008142037 -0.06792222 -0.09910632 -0.0120217735 0.014238212 -0.05660052

exp_avg f4 [128, 142]
00000000: f3a9 4aba 1393 7fbc 1553 80bc 94a2 74bc
00000010: b29b 9dbb ea07 4db9 e974 6bba b0a6 7737
00000020: a7e6 4cba 6074 3eba 97c3 7dbc 42d7 eeb7
00000030: 6637 97bb e36c 97bb 77aa aebb 9652 7138
00000040: da1c 0f3c efa2 853a b74b 813a d06f 6b3c
00000050: d069 2a3a c175 2bbb a92a 88bb 4efe 41b8
00000060: a02c 1a3c f531 89bc a575 82bc 188a 19bb
00000070: 3409 6a3c 2f0b 5d3c 705a 83bb dc51 8bba
00000080: 0ae7 c6bb 7bd0 8bba e2ea 2fbc 22a0 3dbc
00000090: e9e5 3dbc 8feb 42bc b37a 5cbb 386d 80ba
000000a0: ca5e c7bb 307c 74bc 5ed3 12bc f4ce ec3a
000000b0: 2657 52bc ba69 053b 5b18 08b9 3e30 7fba
000000c0: 600c 4d3b 7ae4 153b 646c cd39 8c5e d3ba
000000d0: 8576 4aba 0b9f f0b6 adbd 21b9 227e 86ba
000000e0: bb87 3038 90a1 31bb 2c46 31bb 54e7 33bb
000000f0: da61 41ba e07f 41ba 6711 2fba ad88 7fba
00000100: dabc 0fbc b6da 0ebc 4cbb 2e3b a9a6 d1ba
00000110: 4872 53b9 bf38 d23a 0abe 7cbc 1b5a df37
00000120: 0000 0000 0000 0000 6a50 3eba 28a6 3abc
00000130: 7502 55b8 0000 0000 0000 0000 d516 2b3b
00000140: 0000 0000 0000 0000 0000 0000 0000 0000
00000150: 69cb 2a37 0000 0000 0000 0000 0000 0000
00000160: 0000 0000 1991 df3a 4ee1 213c fbc0 223c
00000170: be0b 443c cf45 6fb5 1c52 0bbc 904a 5ebc
00000180: 155d 41bc 0000 0000 0000 0000 9615 d9b7
00000190: b899 5dbb 8921 5cbb 0000 0000 0000 0000
000001a0: 8f51 a63a 0000 0000 0000 0000 0000 0000
000001b0: 0000 0000 435f 9bb6 0000 0000 0000 0000
000001c0: 0000 0000 0000 0000 eb24 73bb f4ce 88ba
000001d0: 5d42 e43a 3f7b fdb5 3f7b fdb5 efdb 7ebb
000001e0: 58c6 8abb f0c2 d9ba 0000 0000 0000 0000
000001f0: b9d2 38ba 6cfa 44ba bb59 7bb8 0000 0000
00000200: 0000 0000 e44c 6d38 0000 0000 0000 0000
00000210: 0000 0000 0000 0000 5590 6c38 0000 0000
00000220: 0000 0000 0000 0000 0000 0000 c2c8 33bd
00000230: b7d2 0fb9 4b47 6637 f9e7 7ab5 0be8 7ab5
00000240: 5708 83b5 116a 93b5 4e9c 5a39 4e9c 5a39
00000250: 36c8 5a39 1e55 5c34 4d08 1a35 3408 1a35
00000260: 0f93 6aae 6237 dc34 0d26 5c39 fe51 5c39
00000270: 36c8 5a39 d548 5c34 5ae4 7ab5 77e4 7ab5
00000280: e677 cab5 116a 93b5 2391 5a39 11bd 5a39
00000290: 0abd 5a39 c748 5c34 5408 83b5 0320 5b39
000002a0: 0320 5b39 42ff 5a39 e677 cab5 d481 b4b5
000002b0: 5258 3233 3631 5c39 b879 cab5 913b 6839
000002c0: f3bd 5a39 e420 5b39 f2bd 5a39 2bfb 8e39
000002d0: a2c5 8f39 c35d 5c39 0a3a 4837 b6a9 6839
000002e0: c0ca 6839 a15c 6839 4a20 5b39 7968 93b5
000002f0: d6e0 8f39 4e9c 5a39 496a 93b5 0a3a 4837
00000300: bc4a 4a37 4c1b 4437 bae4 82b5 cdfc 98b5
00000310: cc10 8f39 3e31 5c39 5408 83b5 1208 83b5
00000320: 4546 4a37 4f58 4137 58e4 7ab5 5ae4 7ab5
00000330: 1a08 83b5 0d26 5c39 c0ca 6839 2347 5c39
00000340: 0d26 5c39 0d26 5c39 0d26 5c39 f14a 4a37
00000350: c2b7 5c37 6f84 282a 0000 0000 0000 0000
00000360: b24a 4a37 882c 0434 b229 3f23 0000 0000
00000370: 0000 0000 c9e3 c4b5 0000 0000 0000 0000
00000380: 0000 0000 0000 0000 d38a 3233 0000 0000
00000390: 0000 0000 0000 0000 0000 0000 c850 88b8
000003a0: eb26 85b8 a2e2 0e35 6dde 381d 9d71 a416
000003b0: 38ed aeb5 b316 89b8 abe3 0e35 0000 0000
000003c0: 0000 0000 7ded aeb5 d6ec 85b8 3ae3 0e35
000003d0: 0000 0000 0000 0000 1235 6aaa 0000 0000
000003e0: 0000 0000 0000 0000 0000 0000 b584 282a
000003f0: 0000 0000 0000 0000 0000 0000 0000 0000
-0.0007731013 -0.01559903 -0.015664617 -0.01493134 -0.00480982 -0.00019553272 -0.00089819595 1.4761157e-05
-0.00078163523 -0.0007265266 -0.015488527 -2.8472048e-05 -0.0046147583 -0.0046211346 -0.0053303796 5.753579e-05
0.008734906 0.0010195653 0.0009864484 0.01436992 0.00065007526 -0.0026162716 -0.004155476 -4.6251625e-05
0.0094100535 -0.016747454 -0.015925238 -0.0023428258 0.014284421 0.013491436 -0.0040085837 -0.0010629254
-0.0060700225 -0.001066699 -0.010737153 -0.011573823 -0.011590459 -0.011896982 -0.003364247 -0.0009798175
-0.006084298 -0.014922187 -0.008961527 0.0018067048 -0.012838161 0.0020357207 -0.00012979044 -0.00097346667
0.0031287894 0.0022871778 0.00039181404 -0.00161262 -0.0007723349 -7.1710724e-06 -0.00015424816 -0.0010260979
4.208808e-05 -0.0027104355 -0.0027049882 -0.0027451115 -0.0007376947 -0.00073814206 -0.00066783134 -0.00097478443
-0.008773053 -0.008719137 0.002666193 -0.0015995103 -0.00020165101 0.001603864 -0.015426168 2.662563e-05
0.0 0.0 -0.00072599074 -0.011392154 -5.0785446e-05 0.0 0.0 0.0026106138
0.0 0.0 0.0 0.0 1.018015e-05 0.0 0.0 0.0
0.0 0.0017056792 0.009880377 0.009933705 0.01196569 -8.9136023e-07 -0.008503463 -0.013567582
-0.011801978 0.0 0.0 -2.5878468e-05 -0.0033813547 -0.0033589324 0.0 0.0
0.0012689101 0.0 0.0 0.0 0.0 -4.63045e-06 0.0 0.0
0.0 0.0 -0.0037100862 -0.0010437653 0.0017414797 -1.8885838e-06 -1.8885838e-06 -0.0038888415
-0.00423507 -0.0016613882 0.0 0.0 -0.0007050443 -0.00075141224 -5.992663e-05 0.0
0.0 5.6576813e-05 0.0 0.0 0.0 0.0 5.6401204e-05 0.0
0.0 0.0 0.0 -0.04389263 -0.0001371604 1.37256675e-05 -9.346982e-07 -9.3469924e-07
-9.762688e-07 -1.0983223e-06 0.00020848328 0.00020848328 0.00020864684 2.0520062e-07 5.738155e-07 5.738141e-07
-5.3336054e-11 4.101849e-07 0.0002099501 0.0002101138 0.00020864684 2.0515593e-07 -9.346455e-07 -9.346472e-07
-1.5085068e-06 -1.0983223e-06 0.00020844168 0.00020860533 0.00020860523 2.0515573e-07 -9.762684e-07 0.00020897393
0.00020897393 0.00020885191 -1.5085068e-06 -1.344883e-06 4.152418e-08 0.00020999167 -1.5085598e-06 0.00022147434
0.00020860862 0.0002089772 0.0002086086 0.00027271485 0.00027422333 0.00021015764 1.1934442e-05 0.00022188466
0.00022200774 0.00022159751 0.00020897496 -1.0982759e-06 0.000274426 0.00020848328 -1.0983287e-06 1.1934442e-05
1.2057539e-05 1.1688866e-05 -9.752323e-07 -1.1398457e-06 0.000272876 0.00020999179 -9.762684e-07 -9.762609e-07
1.2056499e-05 1.1524257e-05 -9.346454e-07 -9.346455e-07 -9.762618e-07 0.0002099501 0.00022200774 0.00021007335
0.0002099501 0.0002099501 0.0002099501 1.2057587e-05 1.3155806e-05 1.4967345e-13 0.0 0.0
1.205753e-05 1.2309658e-07 1.036296e-17 0.0 0.0 -1.4669432e-06 0.0 0.0
0.0 0.0 4.1570114e-08 0.0 0.0 0.0 0.0 -6.500032e-05
-6.349183e-05 5.3228916e-07 2.4467189e-21 2.656733e-25 -1.303305e-06 -6.536897e-05 5.323042e-07 0.0
0.0 -1.3033128e-06 -6.386048e-05 5.322978e-07 0.0 0.0 -2.0801787e-13 0.0
0.0 0.0 0.0 1.496744e-13 0.0 0.0 0.0 0.0

exp_avg_sq f4 [128, 142]
00000000: c51f 143c 4eca 7b3c ba57 793c aa94 593c
00000010: 7830 4c3c 2664 d63b d86a 983b fa82 c23b
00000020: e31f 023c 0f6c 543c 3365 293c 4fc3 0e3c
00000030: 2c90 4e3c 6919 563c bd2b 593c 1b43 183c
00000040: dbb8 403c 9a67 273c 898f 053c f120 163c
00000050: 9db9 0d3c a327 383c 2bf3 493c 8cac 043c
00000060: fce8 173c 836e 463c 245e 0b3c d05b 7f3c
00000070: dac6 6c3c 6b9e 5e3c f905 0f3c 60ba e43b
00000080: c08c 463c 29dd 363c 59e7 373c bc56 953c
00000090: d0ed 543c 30b0 4f3c 750d bf3b 5370 003c
000000a0: 5d0b 8a3c ee14 743c 6457 8a3c 927d 383c
000000b0: e932 5d3c 4724 153c ba54 173c 7a4a d53b
000000c0: 1f03 603c 7dd7 2b3c 7251 433c 3251 b83b
000000d0: 4faf 343c 96eb fa3b e932 d73b f1be b23b
000000e0: 3c5b 3c3c 29c9 033c be4e 3a3c a2cf 653b
000000f0: 0930 193c 4f8c ce3b 0ec9 d53b a12e 803b
00000100: f28f 663c 5a8f 3f3c 0140 f83b 6a15 223b
00000110: 339c 673a 82a4 643c 89ff 243c 2a46 e83b
00000120: 0000 0000 0000 0000 5c88 0d3c beef 993b
00000130: 4723 783b 0000 0000 0000 0000 91ac 233b
00000140: 0000 0000 0000 0000 0000 0000 0000 0000
00000150: af69 dc3a 0000 0000 0000 0000 0000 0000
00000160: 0000 0000 bb59 803c feea 3f3c e69c 0a3c
00000170: 73f9 543a cf79 cd39 342b 593c 7660 313c
00000180: ea5c e93b 0000 0000 0000 0000 7cf6 103c
00000190: 52a6 d53b b9fc 443b 0000 0000 0000 0000
000001a0: 26e7 f13a 0000 0000 0000 0000 0000 0000
000001b0: 0000 0000 4ca0 c03a 0000 0000 0000 0000
000001c0: 0000 0000 0000 0000 468f 313c e96c db3b
000001d0: 7e44 a83b e07b 253a dc2b 073a 78f1 263c
000001e0: 126c 073c 47c1 8a3b 0000 0000 0000 0000
000001f0: af79 083c b4cb 673b 215d 1d3b 0000 0000
00000200: 0000 0000 f017 5c3a 0000 0000 0000 0000
00000210: 0000 0000 0000 0000 ae40 0a3a 0000 0000
00000220: 0000 0000 0000 0000 0000 0000 a63b 273e
00000230: e59d 573c 88e0 273f 4baf 7c3b cc5c d13b
00000240: b406 e43b ac7c c33b 2251 a13b f7b5 803b
00000250: 3251 543b de72 033b 000a 833b ce06 c53b
00000260: 295e bb3b 0732 b13b b02d a93b a1d1 b63b
00000270: 6251 d13b b35e 793b 3b66 d33b 794c bb3b
00000280: 1f64 bd3b 1bd8 c93b 11b6 a93b 866b 953b
00000290: b32c ac3b 4965 643b 1401 9c3b bec6 c53b
000002a0: 6d04 a93b 1702 fb3b bfdc ab3b a9eb d23b
000002b0: 95f2 c03b baf6 ba3b 9349 d03b 213e ce3b
000002c0: 3fa4 a13b 9fe9 d33b 0634 bc3b eed2 cc3b
000002d0: 43a3 a03b 245c 663b 03ae db3b 3b58 f03b
000002e0: 779f d83b 9fcb 9c3b b334 b53b 0b5e ad3b
000002f0: 780a b13b 46bd 5d3b 9ddd cb3b 1345 bd3b
00000300: 6e66 983b a453 633b 4b85 9f3b f0d6 933b
00000310: d555 8e3b cc2c 823b 62bc a33b 876c 683b
00000320: 8494 923b 9a4f 323b e4a3 7c3b bc73 783b
00000330: ab46 853b 0cba 1f3b e14b da3b a6c1 943b
00000340: b848 433b c584 8d3a 8f10 a539 59e3 a83b
00000350: f38a 463b 93d0 b53a 0000 0000 0000 0000
00000360: e2d5 643b 9ebf b03a 5cfd 9c3a 0000 0000
00000370: 0000 0000 ef9d 873a 0000 0000 0000 0000
00000380: 0000 0000 0000 0000 8f0a 723a 0000 0000
00000390: 0000 0000 0000 0000 0000 0000 5b59 db3b
000003a0: 3795 993b effb 803b eab6 b539 806f 7c39
000003b0: cef7 ac3b d96b 933b d894 533b 0000 0000
000003c0: 0000 0000 faa9 793b f402 073b 59b5 df3a
000003d0: 0000 0000 0000 0000 356f 963a 0000 0000
000003e0: 0000 0000 0000 0000 0000 0000 8c37 863a
000003f0: 0000 0000 0000 0000 0000 0000 0000 0000
0.009040778 0.015368057 0.01521867 0.013280073 0.012462728 0.0065427003 0.0046514086 0.005936024
0.007942173 0.012965216 0.010339069 0.008713557 0.012607615 0.013067582 0.013255057 0.009293343
0.011762823 0.010217572 0.008151897 0.009163127 0.008650211 0.011239919 0.012326042 0.008097779
0.009271856 0.012111309 0.008506332 0.015585855 0.014451707 0.0135875745 0.008729451 0.0069802254
0.012118518 0.011161127 0.011224591 0.018229835 0.012996152 0.012676284 0.0058304616 0.00783928
0.016851122 0.014897568 0.016887374 0.011260407 0.013500907 0.0091028875 0.009236509 0.0065091224
0.013672619 0.010488388 0.011921274 0.0056249136 0.011028125 0.0076574786 0.0065673483 0.005454891
0.011496361 0.008043566 0.011371313 0.0035066386 0.009349831 0.006303347 0.0065242117 0.0039118086
0.014072405 0.0116918925 0.0075759892 0.0024732002 0.0008835226 0.013955237 0.01007069 0.0070884423
0.0 0.0 0.008638468 0.004697769 0.0037862824 0.0 0.0 0.0024974684
0.0 0.0 0.0 0.0 0.0016816164 0.0 0.0 0.0
0.0 0.015667787 0.011713741 0.008460259 0.0008124329 0.000391914 0.013254929 0.010826221
0.007121672 0.0 0.0 0.008847829 0.006520071 0.003005786 0.0 0.0
0.0018455728 0.0 0.0 0.0 0.0 0.001469621 0.0 0.0
0.0 0.0 0.010837382 0.0066963327 0.005135118 0.00063127093 0.0005156377 0.010189407
0.008265512 0.0042344662 0.0 0.0 0.008329793 0.003536922 0.0024011808 0.0
0.0 0.0008395901 0.0 0.0 0.0 0.0 0.000527392 0.0
0.0 0.0 0.0 0.16331348 0.013160204 0.6557698 0.0038556631 0.006389236
0.006958807 0.00596579 0.004923002 0.003927942 0.003239703 0.002005748 0.003998995 0.006012774
0.005718012 0.005407575 0.005162917 0.005579189 0.0063878754 0.003805083 0.006451396 0.0057159034
0.0057797576 0.006159795 0.0051791747 0.004559937 0.005254352 0.003485041 0.0047608707 0.006035655
0.0051579983 0.0076601612 0.005244821 0.0064367843 0.005888293 0.0057056816 0.006356427 0.0062940274
0.0049329097 0.006467059 0.0057435064 0.0062507307 0.004902275 0.0035150135 0.0067040934 0.0073347366
0.0066108066 0.0047850157 0.005529964 0.005290752 0.0054028593 0.003383474 0.0062214867 0.0057760566
0.0046508824 0.0034687305 0.0048681847 0.0045117065 0.004343728 0.0039726254 0.004996822 0.0035465078
0.004473271 0.002720809 0.0038549835 0.003791078 0.004067262 0.0024372367 0.0066618775 0.0045396863
0.0029797982 0.0010797015 0.0003148359 0.005154055 0.0030295223 0.0013871364 0.0 0.0
0.0034917523 0.0013484841 0.0011977362 0.0 0.0 0.001034675 0.0 0.0
0.0 0.0 0.0009233141 0.0 0.0 0.0 0.0 0.0066940016
0.0046869772 0.003936283 0.00034659292 0.0002407413 0.005278564 0.0044989404 0.0032284763 0.0
0.0 0.0038095699 0.0020601125 0.0017067596 0.0 0.0 0.0011477234 0.0
0.0 0.0 0.0 0.0010239943 0.0 0.0 0.0 0.0

exp_avg f4 [128]
00000000: a482 c1b9 a1d5 6839 3702 e42c e814 dea3
00000010: 0c05 ae3b 2162 03bb fc75 e039 0400 0000
00000020: 613f 9cbc 4d6a 9727 f2a9 4d3b f3c7 0f20
00000030: 9e8d 630b 5ba2 e33a 0400 0000 81b8 e73a
00000040: d5bc b739 2b20 de38 0917 f93b 0400 0000
00000050: 0f00 0000 206f ed3b 09c2 6ebd f162 89bc
00000060: 0400 0080 7a07 7fba 736e ffbc 4102 3b2c
00000070: 6cc7 d2bc fc24 10bb f7e3 5fba f19d eeb9
00000080: 4820 533c abd4 2e31 7dc3 413c 63a9 f2bb
00000090: 64bc 443a 38f3 81b6 14d4 67bc 92f3 963b
000000a0: 22f0 24bd feb2 9f25 b947 493a 20dc 63bb
000000b0: de00 0f3b 8def b61b 0400 0000 0c1c c63c
000000c0: b7b8 b418 019e c6bc 6242 043c ff43 40bc
000000d0: 991b 2020 6d85 86bc 60e1 2d22 5831 25bc
000000e0: 0400 0000 83ca 843b 274d 07bc ceeb ae3a
000000f0: 0400 0000 7cff 6e3c f3a3 be3b fc02 0000
00000100: cde1 fc16 b2c7 d4bc 0400 0000 d721 3a3b
00000110: 0f12 0e39 a1df 46bc 3708 0000 0557 d8bc
00000120: 387a 43b8 1dad 05bb 7562 48bb 0400 0000
00000130: 7f40 0d98 7451 99bc 858b adbc 1ba4 ba15
00000140: 426f 4db8 4799 40bd 04e5 1ebb 89d4 5bb9
00000150: b604 0f2d a61f 3bb8 f496 aa3b 0955 b99f
00000160: 1f47 2738 027a 77bb 058a 003c 2bc9 ac2c
00000170: 7114 ea9a 5fc1 c414 eaa0 3fbb 0400 0000
00000180: 0400 0080 71e2 09bc 7b92 e3bc ceb0 8e3b
00000190: d2b4 ac13 1059 5425 0400 0000 0400 0000
000001a0: 723c 89bc dbce 7fbc ec65 4c22 844c 883a
000001b0: 0400 0000 0400 0000 0400 0080 b60a b7bb
000001c0: a3b6 94bc 5b29 c13b fc81 fbb3 7e6b e202
000001d0: a3d2 13bc 4447 ed3a 4576 3abc e9b5 d6a7
000001e0: 31d7 0abc 0400 0000 0f88 95bb a141 85b7
000001f0: da16 4d01 0400 0000 fd1d 6ba4 6df4 b3b7
-0.00036909163 0.00022204827 6.4803956e-12 -2.4078142e-17 0.00531066 -0.0020047503 0.00042812515 6e-45
-0.01907319 4.202617e-15 0.0031381813 1.2178729e-19 4.382515e-32 0.0017367111 6e-45 0.0017678888
0.0003504517 0.00010591777 0.007601623 6e-45 2.1e-44 0.007245913 -0.058290515 -0.016770812
-6e-45 -0.0009728592 -0.031180596 2.657555e-12 -0.025729857 -0.00219947 -0.00085407443 -0.00045512573
0.012886114 2.544122e-09 0.011826393 -0.0074054464 0.0007504879 -3.872814e-06 -0.014149684 0.0046066726
-0.04026807 2.7703393e-16 0.0007678229 -0.0034768656 0.0021820585 3.026418e-22 6e-45 0.024183296
4.6715424e-24 -0.024245264 0.0080724675 -0.0117349615 1.3561658e-19 -0.016421044 2.3565185e-18 -0.010082565
6e-45 0.0040524616 -0.008258141 0.0013345422 6e-45 0.014587279 0.005817884 1.07e-42
4.0855296e-25 -0.025974128 6e-45 0.0028401518 0.00013548903 -0.012138278 2.947e-42 -0.026408682
-4.6605448e-05 -0.0020397373 -0.0030576263 6e-45 -1.8256385e-24 -0.018715598 -0.021184692 7.5383715e-26
-4.8979426e-05 -0.047021177 -0.002424539 -0.00020964643 8.129655e-12 -4.461375e-05 0.0052059833 -7.8491226e-20
3.988214e-05 -0.0037761931 0.007845406 4.910868e-12 -9.6813157e-23 1.9867214e-26 -0.00292402 6e-45
-6e-45 -0.008415804 -0.027779808 0.004354573 4.3597207e-27 1.8418244e-16 6e-45 6e-45
-0.016752455 -0.015613283 2.7701112e-18 0.001039878 6e-45 6e-45 -6e-45 -0.0055859936
-0.018153494 0.0058948225 -1.1711742e-07 3.3269413e-37 -0.009022388 0.0018102904 -0.011380737 -5.959416e-15
-0.008474157 6e-45 -0.0045633386 -1.5885396e-05 3.766895e-38 6e-45 -5.0982903e-17 -2.1452282e-05

exp_avg_sq f4 [128]
00000000: 051c bd3c d812 243c 2d74 3a38 ef64 e739
00000010: 84d7 b13c b417 573c fbcc 9a3c d54b 2737
00000020: 7e9e 223c 9973 e73b 9932 2a3a 6d08 bd38
00000030: 2cef 883a 8143 8e3c 0324 1a38 0b75 1d39
00000040: 193f 8338 51f7 e239 abf0 823c ae6d 5339
00000050: 4b8c f437 57fa 073b cb86 c13c 5867 c23c
00000060: 165d 2838 51b2 9e39 37f9 b63c 12ed fb39
00000070: f519 8a3c 3f5a f13c f54e 2f3c ce8f cf3c
00000080: 671b 923c c50d 553a c4b5 953c a28e a73c
00000090: b60d ea39 7725 6b39 38ed aa3c 82f4 e03c
000000a0: bcfa 133c 72b8 243a a3c1 3f3c b963 c23c
000000b0: ca71 eb39 14cd 2739 31af 2338 7570 d33c
000000c0: 6f6c 4b3a 560b 9b3c df95 f03c 4d19 963c
000000d0: 9f39 ed39 7545 3d3a 31e8 d43b 9b81 093b
000000e0: 6966 2b39 3181 de3a 0436 713c 07fc ec3a
000000f0: 87d2 e036 1879 5339 e2d0 b53c fb46 2638
00000100: ebac 3e3a 2bbd 043b 3c04 8d37 3929 c23c
00000110: d483 a639 0a41 8d3c b37c 5d37 4238 b23b
00000120: c58f 9439 693a 333c d489 ad3c 7d46 7937
00000130: bc1d 2739 b965 ab3c 4995 a13c 21e8 653b
00000140: 3ac1 693a 828e b63c 5226 b33c cc0c a03c
00000150: 2db5 f03a f38c 583c 072f d63a 5cdc d039
00000160: d5f9 6c3c baf1 a43c 97b0 e13c 65df ae39
00000170: 11fd de39 0c39 8139 67f3 853c 8ca7 d539
00000180: c9e9 2b37 360a 3c3c cfe5 883c 7593 703c
00000190: af4f ee39 6b1a 4139 84ce 0237 4994 0438
000001a0: c219 7e3c 746a c03c ab40 223a fd9a 643a
000001b0: e223 cb35 82b2 a838 ceb4 1c38 3722 b83c
000001c0: a3c3 ab3c b290 7a3c 7429 b539 d2fb 9037
000001d0: a8f2 eb3c a66b dc3b c49e 053d 4e14 023b
000001e0: 7b58 4a3c 0d04 d736 6b90 e93b 6240 3b3b
000001f0: d815 6239 68e9 ff37 3a72 593a 12b0 643c
0.02308465 0.010014258 4.4454053e-05 0.00044134955 0.021709211 0.01312821 0.01889657 9.971632e-06
0.009925483 0.007063341 0.0006492525 9.013792e-05 0.0010447255 0.017366173 3.675e-05 0.00015016289
6.2583196e-05 0.00043290344 0.0159839 0.00020163387 2.9152396e-05 0.002074858 0.023623845 0.023730919
4.0141014e-05 0.00030268964 0.022335632 0.00048051082 0.01685808 0.029461978 0.010699977 0.025337126
0.017835332 0.0008127357 0.01827515 0.020453755 0.00044642173 0.00022425303 0.020865068 0.02746034
0.009031948 0.0006283588 0.011703881 0.023729192 0.00044907472 0.00016002759 3.9025388e-05 0.02581046
0.00077599933 0.018926304 0.02936834 0.018322611 0.00045247094 0.0007220128 0.006497406 0.0020981792
0.00016345982 0.0016975758 0.014722351 0.0018080481 6.700229e-06 0.00020167639 0.02219433 3.964359e-05
0.00072736916 0.0020254354 1.6810482e-05 0.023701297 0.00031760207 0.017242927 1.320166e-05 0.0054388354
0.00028335876 0.010939219 0.021183886 1.4857968e-05 0.00015937438 0.020922529 0.019724505 0.0035080987
0.00089170376 0.02228475 0.021868858 0.019537352 0.0018364541 0.013217199 0.001634092 0.00039837032
0.0144638615 0.020134795 0.027550025 0.00033354308 0.0004253169 0.000246473 0.016351415 0.00040751358
1.0246827e-05 0.011477044 0.016711144 0.014683594 0.00045454266 0.00018415756 7.796687e-06 3.1609354e-05
0.015509071 0.02348826 0.0006189446 0.0008720605 1.5135122e-06 8.044114e-05 3.7361686e-05 0.022477252
0.02096731 0.015293287 0.00034553895 1.72834e-05 0.028802231 0.0067267 0.032622114 0.0019848528
0.012350197 6.407971e-06 0.0071278117 0.002857231 0.00021561177 3.0507057e-05 0.0008294914 0.013957994

exp_avg f4 [192, 128]
00000000: b0f4 a5bb 0ddb 9f30 2f09 7d27 c49d b613
00000010: 80b4 46bb f203 9f30 f509 c5bb 0400 0000
00000020: d540 53b9 df97 e01d eb8b e633 aab7 7f1a
00000030: d496 0e04 d001 c4bb 0400 0000 0400 0080
00000040: 2313 b532 4427 2e28 169e 30bc 0400 0000
00000050: 0400 0000 0aab cc35 474f 11bb 1c06 17bc
00000060: 0400 0080 49af df35 7820 93bb 9f49 8625
00000070: 6053 45bb 4714 0436 175c 6eba 0d62 08bc
00000080: 05bd e6bb 691b a32a 21e7 f8bb 4732 bdbb
00000090: a4c3 0335 eeae 7d27 49b1 96ba d9aa feba
000000a0: 4cdb 1eba 752b 9e16 3041 5b34 17f4 07bc
000000b0: 6f84 1d36 3b8c f415 0400 0000 777a 5bbc
000000c0: f279 da11 587c 70bb c8da 1cbb 9a73 0bbb
000000d0: 2997 111a 27be ac36 d29c 2b17 4ff6 e434
000000e0: 0400 0000 59b8 9236 4b20 f8b9 e765 511a
000000f0: 0400 0000 c5a3 8c35 c796 98bb 0400 0000
00000100: 0b2f e10b 5371 5836 0400 0000 357b babb
00000110: 44e6 4030 2bc3 fcbb 0400 0000 83ef e8b8
00000120: d1fb 3729 2909 a035 1b07 d9bb 0400 0000
00000130: bd13 0000 57ec 5b37 1e0e babb b9b7 5609
00000140: 32b4 da32 771d 2ebb b6ee 0bbc 0e31 85ba
00000150: 8a3d 3c15 8c39 f027 4333 e8bb 9e64 711e
00000160: 8140 1019 cad2 13bb f6b8 13bc aba7 5727
00000170: 7690 c514 0400 0000 c198 3ebc 0400 0000
00000180: 0400 0080 e9d7 ca18 24a8 24ba 0fcc aabb
00000190: b62a 080a 95e4 5110 0400 0080 0400 0000
000001a0: 0324 efb9 94df 03bc a81f 4312 49c8 0115
000001b0: 0400 0080 0400 0000 0400 0080 30e9 6ebb
000001c0: d91f b6ba 2e71 8233 0400 0000 9260 5700
000001d0: fbf3 f6bb 86a7 b735 8fc0 01bc 0400 0000
000001e0: 90ad 3fbb 0400 0000 a7af d535 231e 0330
000001f0: 7f05 0000 0400 0000 0400 0000 4919 6030
00000200: 7683 c6bd 0e30 49b7 6d15 c0ac 2960 9518
00000210: 248e 18be c268 08b7 3ab0 82be 0400 0000
00000220: df85 a8bd 150a d921 6a27 f638 a818 d61d
00000230: c138 e289 2457 33be 0400 0080 0400 0080
00000240: 5425 6839 977b 6dad 775a d2be 0400 0080
00000250: 0400 0080 f868 183b e531 98bd 7440 a0be
00000260: 0400 0000 3e7f 853b da84 adbd 19f1 3d29
00000270: 70c1 0cbe d779 e5bc d088 73bd 0391 89be
00000280: e870 7bbe ed86 feb1 00c4 82be 5da2 b0be
00000290: 866c a5ba 4cb0 87b1 1d0e b4bd af04 53be
000002a0: b7e9 b5bc 12de c19b 98e0 3d39 49f9 80be
000002b0: 0ea9 c3bb 0fc8 9a19 0400 0080 247d 2abf
000002c0: bdb5 cf19 0e05 9abd 23fc 1bbe bfa0 bebd
000002d0: e3c9 731d 97d0 ea3b c076 ae19 4c05 edbb
000002e0: 0400 0080 9ae2 223c b0e5 d3bb 2053 9120
000002f0: 0400 0000 c1de 273b a7a0 98be 2a00 0000
00000300: 0967 9f95 1b87 cdbb 0400 0000 339a 81be
00000310: 7df5 cf36 4cbe a3be 4c00 0000 a007 8ebd
00000320: 71d2 dd35 7854 e2bc 3767 98be 0400 0000
00000330: 7698 1400 6ebd 63bd de6e 98be 2942 598f
00000340: 6b66 bd37 ff10 80bd 6f71 c4be 70cb 21be
00000350: 7cc9 5318 80cb c7b3 25ea 5ebe 2580 6922
00000360: 4bba 2aa2 da45 4abe 8e64 dcbe c427 cdac
00000370: 41e4 ad18 0400 0000 4f38 02bf 0400 0080
00000380: 0400 0080 f4f9 e4a1 8035 87bd c298 8bbe
00000390: 801e b78e 0400 0000 0400 0000 0400 0000
000003a0: eeea 4f3b 0c2b adbe 3d87 3515 8b22 371a
000003b0: 0400 0080 0400 0000 0400 0000 e7b9 4cbd
000003c0: 11aa c4bc 1219 0bb4 0400 0000 e116 d302
000003d0: 14ba 75be 2f2b 513a 5430 5fbe 0400 0000
000003e0: f1f7 0fbe 0400 0080 5ced 72bb 6af2 8d36
000003f0: 2b88 5580 0400 0000 f85f 63a2 b8dc 0eb7
-0.0050645694 1.1631031e-09 3.5115782e-15 4.6098828e-27 -0.0030319989 1.1569894e-09 -0.00601315 6e-45
-0.0002014668 5.9449337e-21 1.07356605e-07 5.2881127e-23 1.6761277e-36 -0.0059816614 6e-45 -6e-45
2.1079876e-08 9.667455e-15 -0.010779878 6e-45 6e-45 1.5248963e-06 -0.0022172497 -0.009217765
-6e-45 1.6665809e-06 -0.0044899546 2.3295182e-16 -0.003010951 1.9681336e-06 -0.0009092702 -0.008324158
-0.007041576 2.8973636e-13 -0.007595912 -0.005773816 4.9086e-07 3.5205633e-15 -0.0011496927 -0.0019429579
-0.00060598995 2.5553702e-25 2.041968e-07 -0.008297942 2.347191e-06 9.877206e-26 6e-45 -0.013395897
3.446949e-28 -0.0036695208 -0.0023934115 -0.002127862 3.0107403e-23 5.148136e-06 5.5451015e-25 4.2647522e-07
6e-45 4.3726e-06 -0.00047326306 4.3302503e-23 6e-45 1.0478476e-06 -0.004656646 6e-45
8.673763e-32 3.2252472e-06 6e-45 -0.005690957 7.017642e-10 -0.0077136955 6e-45 -0.000111072346
4.085258e-14 1.1923595e-06 -0.0066231615 6e-45 7.081e-42 1.3108444e-05 -0.0056779524 2.5845699e-33
2.5460483e-08 -0.0026567855 -0.0085408 -0.0010161714 3.8014843e-26 6.6675774e-15 -0.007086189 1.2779241e-20
7.457652e-24 -0.002255606 -0.009016266 2.9928137e-15 1.9948896e-26 6e-45 -0.011633099 6e-45
-6e-45 5.243379e-24 -0.00062811584 -0.005212314 6.556195e-33 4.1394075e-29 -6e-45 6e-45
-0.00045612463 -0.008048911 6.157017e-28 2.620934e-26 -6e-45 6e-45 -6e-45 -0.0036454909
-0.0013894989 6.074184e-08 6e-45 8.024331e-39 -0.007536409 1.3683318e-06 -0.007919445 6e-45
-0.0029247738 6e-45 1.5920858e-06 4.770035e-10 1.972e-42 6e-45 6e-45 8.152666e-10
-0.09693043 -1.1991722e-05 -5.459347e-12 3.8612694e-24 -0.14897972 -8.1306225e-06 -0.25525075 6e-45
-0.08228659 1.4707161e-18 0.000117375355 5.6670822e-21 -5.4460892e-33 -0.1751371 -6e-45 -6e-45
0.0002213915 -1.3499333e-11 -0.41084644 -6e-45 -6e-45 0.0023255926 -0.074313916 -0.31299174
6e-45 0.0040740063 -0.08472605 4.217555e-14 -0.13745666 -0.0280122 -0.059456646 -0.26868448
-0.24554789 -7.407712e-09 -0.2554016 -0.34498873 -0.0012620843 -3.9490597e-09 -0.087917544 -0.20607255
-0.02220617 -3.207268e-22 0.00018108112 -0.2519019 -0.0059710806 1.600403e-23 -6e-45 -0.665972
2.1476702e-23 -0.07520495 -0.15232901 -0.09308004 3.2265155e-21 0.007165979 1.8039141e-23 -0.0072332975
-6e-45 0.009941721 -0.00646659 2.4618963e-19 6e-45 0.002561495 -0.29810068 5.9e-44
-6.438215e-26 -0.0062722093 6e-45 -0.25312957 6.1976593e-06 -0.31981122 1.06e-43 -0.06935048
1.652703e-06 -0.027628168 -0.29766247 6e-45 1.891403e-39 -0.055600576 -0.29772085 -1.0711668e-29
2.2578248e-05 -0.06253242 -0.38367793 -0.15800261 2.7372834e-24 -9.303676e-08 -0.21769007 3.1645227e-18
-2.3137919e-18 -0.19753209 -0.43045467 -5.8308653e-12 4.494993e-24 6e-45 -0.5086717 -6e-45
-6e-45 -1.5516043e-18 -0.06602001 -0.27264982 -4.5142353e-30 6e-45 6e-45 6e-45
0.0031725722 -0.33821905 3.6659343e-26 3.7871417e-23 -6e-45 6e-45 6e-45 -0.049981978
-0.024006875 -1.2954504e-07 6e-45 3.1016795e-37 -0.23996764 0.0007979152 -0.2179578 6e-45
-0.14059426 -6e-45 -0.0037067747 4.230348e-06 -7.854865e-39 6e-45 -3.0815042e-18 -8.51525e-06
