weights/policy_checkpoint4100.pt (torch, 522983 bytes, 12 tensors)

net.0.weight f4 [128, 142]
00000000: 1d79 db3c a752 b73d a798 1b3c 70a5 033e
00000010: 9cb1 c13d 7ab7 153e 024b be3d 38e6 373d
00000020: 31f8 0c3d 7213 74bd 145d bf3d 027d 8c3d
00000030: 9a08 903d 2f48 113d 72cd da3d 7a2e 683d
00000040: 80d5 593d 0fb1 dabc 64c9 91bd a56a 8f3d
00000050: f158 9e3c 48ae 5a3d 3bc9 1d3c dbdb e93d
00000060: 2fdb b7bc 3159 12bd 21ee f8bc 89ea 72bd
00000070: 59d8 59bb 76fb d4bd 41c5 273e 3964 9ebb
00000080: d40e cd3d 0d86 573d bccf 1cbb 9b61 ef3c
00000090: 7d1a 963c 7a88 a63d 472a 173d 9004 32bc
000000a0: bd0f e83d 3804 f4bc 5b56 aa3d 734f 903d
000000b0: aaa8 7d3d 316e 3e3d a218 db3d 91cc bf3c
000000c0: 569f b93d 8010 903d a8d6 49bd 5ac0 f53b
000000d0: afe6 2abd aec5 613e 63bf f63d 6515 e53d
000000e0: b719 143d 7f8e 4d3d 1949 4f3e ac19 ac3d
000000f0: 615e 5ebc eec0 7c3c d1e3 fc3d 909b b83c
00000100: 71fa 713c 7a4d 8abd 4702 b53d e4f5 16bd
00000110: 9fd3 a4bc 3649 3ebd c9bc 013e f242 c23d
00000120: 6860 a53d e8d5 8dbd d7c5 7fbd ca94 a9bc
00000130: 4433 06bd 5339 0b3d 7229 f63c 28db 443d
00000140: 9e82 31bd ec52 6abd fc5f 363d caef 0abd
00000150: b745 77bb 5322 a3bc eca0 443d 7988 85bd
00000160: 6d76 2dbd 355c ac3d 58b8 383d 0885 c93c
00000170: bab7 883d c087 993d 678f 72bb d33f a9bd
00000180: a3b9 f23d 71f8 e7bc 05b7 f3bc f236 ff3b
00000190: c5aa 52bd 44cf 673d b87a 35bc 0282 79bd
000001a0: 9db7 b83d 73cb 6abd 24cf 91bd 4f47 3dbd
000001b0: f26a 96bd fad1 743d 11cc ab3d efd7 813c
000001c0: bfd8 d33c 914b a0bd cdf8 36bd e6db e43c
000001d0: ee2b 813d ec25 6ebc a80e 2d3c f563 fcbd
000001e0: 42c9 813c 0d15 b6bc 328d bebb b8eb 68bd
000001f0: 91a4 32be f4a6 b8bd eaa0 7bbd 35a6 87bd
00000200: 631a 903d 41db 5dbd 1cdf 933d 0d33 d63c
00000210: c288 91bd 53df 6d3d e62b c63a 9ac2 03bd
00000220: d7a8 8ebd 5cdc aabd 5ab0 c43c 9fe2 af3d
00000230: ae11 af3d 10ae 2bb9 97a9 ea3c 78c4 b8bd
00000240: 63b1 b7bd 7a15 71bd abb7 313d 2a97 3f3d
00000250: c2a9 a93d 0928 eabd 02b8 893c d3c7 30bd
00000260: 6bf2 94bb c9e8 dfbd b3bd 083e 0fb0 f0bc
00000270: 0b9f a43d 9cbf d2bc f332 223d 1737 18bd
00000280: 2ad6 aa3d bbbd 823c b9a1 373b 9c4a 9ebd
00000290: 439e cd3d 8592 313c fe15 05bd be6f b43d
000002a0: 197d a93d 9e2c 9dbc 9fb1 6dbd 042d a1bd
000002b0: bf85 db3d 27c1 523c a855 43bd e9e3 15bd
000002c0: cb5e 9fbd 831f 913c b919 1b3d a919 23be
000002d0: df0b af3d c2cd 9c3d 1d80 03bd 175f a5bd
000002e0: 1568 0d3d 87c1 933d 7f87 9fbb ab64 20bd
000002f0: d65a 723c c574 d93c d631 adbd c806 38bc
00000300: e59d 963d 9fe8 d53d 98a6 5f3c 1d7a c53c
00000310: e5cf 8d3c 2349 e2bd 74c2 dc3d bddf b83d
00000320: bc00 cdbc 90e0 983d f843 093e 2bfd e13b
00000330: ca46 63bc d8e1 29bd 17df 91bd cacf bdbd
00000340: f1f3 51bd c3af 7bbc 593b 9a3d 6731 8b3d
00000350: 13f8 efbd 164f 04be 05fc 58bc be40 a63d
00000360: 1615 c43d 337e 02bd 4dad 2c3c 80eb 02bd
00000370: f87a 5ebd 8d52 863d 474b 1cbd f6cf 89bc
00000380: adf8 aabd 2b0c 663d 3461 623d e88a fa3c
00000390: 54ac 6fbd aa9e a9bd a995 8bbd 4c2f 713c
000003a0: 04b7 b83c d305 b53d 0373 a7bd f292 efbd
000003b0: e80b 503c 843e 3dbd 94ba 6cbd cac0 a0bd
000003c0: 9fb5 0c3d f52c e8bc 5ceb f33c 27ea 7ebd
000003d0: b88a 7abc a2ed 71bd aa22 28bd 7c09 e43c
000003e0: 534f ccbc d632 543d d88a dcbc 7dbc 93bd
000003f0: a796 72bc 219f 26bd 6252 d2bc 369d a3bd
0.02679115 0.089513116 0.009496844 0.12856078 0.094577044 0.14620772 0.0929165 0.044897288
0.03441638 -0.059588857 0.09343925 0.06859781 0.070328906 0.03546923 0.10683717 0.05668495
0.053182125 -0.026695756 -0.0711849 0.07002763 0.01932952 0.053388864 0.009630497 0.11418887
-0.022443382 -0.03572959 -0.030386986 -0.0593057 -0.0033240526 -0.10399525 0.1638384 -0.004833725
0.10012594 0.052618075 -0.002392753 0.029221347 0.018323177 0.081314996 0.036905553 -0.010865346
0.11331127 -0.029787168 0.08317252 0.07046404 0.06192843 0.046491805 0.10698058 0.023412975
0.09063594 0.07034397 -0.049276978 0.0074997367 -0.041723903 0.22048065 0.12048223 0.11185721
0.036157336 0.050184723 0.20242728 0.08403334 -0.013572306 0.015426857 0.1234814 0.022535115
0.014769183 -0.06753059 0.08838325 -0.036855593 -0.02012044 -0.04645654 0.12669672 0.09485425
0.08075029 -0.06925565 -0.062444534 -0.020700831 -0.032763734 0.033990216 0.03004906 0.048060566
-0.043337457 -0.057207987 0.04452513 -0.033920087 -0.0037730762 -0.019913828 0.04800503 -0.06520171
-0.042349268 0.084160246 0.04509768 0.024599567 0.06675668 0.074965954 -0.0037011744 -0.08264127
0.11851814 -0.028316708 -0.029750356 0.0077885324 -0.05143239 0.05659415 -0.011076622 -0.060915
0.090193965 -0.05732293 -0.07119587 -0.046210583 -0.07344617 0.05977056 0.08388532 0.015850035
0.025860189 -0.07826913 -0.04467087 0.027936887 0.06307207 -0.0145354085 0.010562576 -0.12323753
0.015843038 -0.022226835 -0.0058151716 -0.056865424 -0.1744559 -0.09016219 -0.061432756 -0.06623498
0.07036283 -0.054164175 0.07220289 0.02614739 -0.071061626 0.058074307 0.0015119284 -0.03216801
-0.069657974 -0.083428115 0.024009872 0.085881464 0.08548294 -0.00016372674 0.02864532 -0.090218484
-0.08969381 -0.058858372 0.04338805 0.04677502 0.08284332 -0.11433417 0.016811375 -0.043159317
-0.0045455 -0.10933072 0.13353615 -0.029380826 0.080381475 -0.025726132 0.03959937 -0.037161913
0.0834163 0.015959611 0.0028019978 -0.07729074 0.10039952 0.010838156 -0.032491677 0.08810376
0.082758136 -0.019186314 -0.05803072 -0.07869914 0.107188694 0.012863434 -0.04768911 -0.036594305
-0.07781752 0.017715221 0.037866328 -0.15927757 0.08547186 0.07656433 -0.0321046 -0.080747776
0.03452309 0.07214647 -0.0048684473 -0.039158504 0.014792165 0.026544938 -0.08456771 -0.0112320855
0.07354335 0.104447596 0.013650559 0.02410608 0.017311046 -0.11049106 0.107792765 0.0902705
-0.025024764 0.07464707 0.13404834 0.006896635 -0.013871858 -0.041475147 -0.07122629 -0.09268148
-0.05125803 -0.015361729 0.07530851 0.06796532 -0.11717238 -0.12920794 -0.01324368 0.08117817
0.09574334 -0.031858634 0.010539365 -0.03196287 -0.05431649 0.06558714 -0.038157728 -0.016822796
-0.083482124 0.056163948 0.05526848 0.030583814 -0.058513954 -0.08282216 -0.06815655 0.014720749
0.022548206 0.088390015 -0.081762336 -0.116979495 0.012698151 -0.046202198 -0.057795122 -0.078492716
0.034352895 -0.02834175 0.029775314 -0.062235024 -0.015291862 -0.059064515 -0.041048683 0.027836554
-0.024940168 0.051806293 -0.026921675 -0.07213686 -0.014806426 -0.0406791 -0.025674049 -0.0798897

net.0.bias f4 [128]
00000000: a22e ff3d 2af6 07bc 84dd 533c 4b5b 5d3d
00000010: 4095 d03d 6181 fb3c 6746 5d3c d9f9 b0bd
00000020: a8f1 8d3d a1ac 5e3d 1f34 03bb 2d93 8bbc
00000030: dfd6 7bbd cc00 d73d f04f 96bd b9b9 61bd
00000040: 7435 2d3d b2d9 a1bd eefe 763c 559f 6fbd
00000050: 1201 e23a c49a e2bd af9f 743d e837 9f3d
00000060: a663 4fbc 9469 2c3d 768b 763d 227f 21bd
00000070: b941 83bd 8bb9 8f3d 6f10 0cbd a0e7 923d
00000080: 2c35 d33d 0bc1 0c3d 555a 753d f7bd 44bc
00000090: b47c 06be 3782 363c 0896 a53d 3c17 d13d
000000a0: 155b a53d 4493 efbd 9a95 3d3b 209d 513e
000000b0: f93b 1cbd d3bf 9ebd 322c c1bd 1bb2 113e
000000c0: 86ad 94bd ad99 aabb d630 cc3c 2e7a 893c
000000d0: 5dcd 46bd a72a 863c 1ee9 a23b a6e5 b4bd
000000e0: 9bc9 39bd 10c3 033d 5674 99bc 6cea 863c
000000f0: 4396 e4bd bf9a 103d 6b26 cf3d 812b afbd
00000100: f69b 69bc 4ea9 c63c 6a12 3bbc b36e 803d
00000110: da82 44bd 0931 e83c d754 e6bd 5e35 633d
00000120: 0ebf adbc d1ad 263d a4ec 683d 0605 e1bd
00000130: d6cd 19bd 3eec 5f3d 6a5b 323e 6c5f 52bd
00000140: 0e74 bc39 39ff 8dbc 6ef3 913d 4f01 043e
00000150: fb84 a7bc 1434 643d 0bb7 e1bd 9e64 d9bc
00000160: 08bd 48bd 2bbf eb3d 3db1 1c3e cca5 b5bc
00000170: 9f3c d73b fae9 c0bd 8748 013e 0061 c63c
00000180: 22e5 babd 0977 0ab9 9981 be3c 9b11 6bbc
00000190: 248b b2bd 8a3e d5bd 45e5 a9bd 551e 86bd
000001a0: d063 193d 3777 2c3e 1de5 9a37 153c 53bd
000001b0: 198c b9bd 9b4e f7bd 0d28 0a3d 4e81 2c3d
000001c0: 05f4 d33d f1fb e2bd e9ff 9abd 6b0e 36bd
000001d0: 83ee 1a3e 01bb ddbd 168e 543d ee9d 94bd
000001e0: 53c3 2e3d 5071 39bd 580d 6bbd 8276 c63b
000001f0: 20f1 d1bd 94f5 2ebd e175 83bd 81cf 31bd
0.124600664 -0.008298436 0.012931231 0.054042142 0.10184717 0.030701341 0.013505555 -0.08641405
0.06930858 0.05436385 -0.002002008 -0.017037952 -0.061484214 0.10498199 -0.073394656 -0.05510876
0.042287305 -0.0790285 0.015075428 -0.05850156 0.0017242751 -0.110646755 0.0597226 0.07774335
-0.012658035 0.042092875 0.060191594 -0.039427884 -0.0640902 0.070178114 -0.03419536 0.07173085
0.10312876 0.034363788 0.0599006 -0.012008182 -0.13133508 0.011139444 0.08085257 0.1020951
0.08074013 -0.116980106 0.002892828 0.20470095 -0.038143132 -0.07751431 -0.09432258 0.14228098
-0.072596595 -0.005206308 0.02492563 0.016781893 -0.048535693 0.01637776 0.0049716374 -0.088328645
-0.04535828 0.032168448 -0.018732231 0.016469203 -0.11161473 0.035303827 0.101147495 -0.085532196
-0.014258375 0.024250653 -0.0114179645 0.06271114 -0.047976352 0.028343694 -0.11246651 0.055470817
-0.021209266 0.040693108 0.056866303 -0.10987286 -0.037549816 0.054668657 0.17417684 -0.051360533
0.00035944622 -0.017333614 0.07126509 0.12891124 -0.020449152 0.055713728 -0.11021241 -0.026537236
-0.0490084 0.11511072 0.15301986 -0.022173785 0.006568506 -0.094196275 0.12625323 0.024216175
-0.09125735 -0.0001320505 0.023255156 -0.014347459 -0.08717945 -0.10412319 -0.08295683 -0.06548754
0.037448704 0.16842352 1.846492e-05 -0.05157097 -0.09059925 -0.1207554 0.0337296 0.042115502
0.103492774 -0.1108321 -0.07568342 -0.044447344 0.15130048 -0.10826684 0.051893316 -0.07256685
0.042666744 -0.04527408 -0.057385772 0.0060566077 -0.10251069 -0.04271467 -0.06418968 -0.04341078

net.2.weight f4 [192, 128]
00000000: 7ce3 99bd b8b9 95bd 7e8b f53d 5528 efbd
00000010: 493e 2fbd 7add 86bd d445 00be 9b21 b43d
00000020: 5dfb 683a 25c9 b83b 23f9 9b3c 19a9 b9bc
00000030: 2047 3d3c 886c 87bd 6f42 5d3d 50b5 69bb
00000040: ef31 c73d 1083 db3c 2b7f febd 5c75 393d
00000050: ddec b63d 5283 4fbd 0169 babd 032b 38be
00000060: e700 f43c 445f c6bd c4fe eebd 5259 8b3c
00000070: 5df3 7dbd eb41 2a3d 073a 39be 606d ecbd
00000080: 1d12 c9bd 9b2c fd3a 4e61 03be cf67 80be
00000090: fab7 8abd ec3f 37bd 0026 68bd 750f e7bd
000000a0: a4bc cdbd f899 aebd 1c3e 1ebd 3380 fcbd
000000b0: c20c dfbd 95ec a83d 1164 9abd b5c9 8abd
000000c0: ff46 b9bd 963f 02be d7e9 66be 9c63 05be
000000d0: 910f c2bd 996c fcbd 9707 98bd 020f c7bd
000000e0: 98e9 303d 555d ebbd d983 a7bd 4a4a 333c
000000f0: 3ba8 90bd 47ed 09bd 0f0b c8bd e858 87bd
00000100: c5e3 f33c 1913 5e3d 1251 8b3b 149f 7bba
00000110: 32fd e93b a1cc 1bbe 0c19 a2bd defe 13bc
00000120: 0161 c8bd 3b99 463d 127d eabd 3cd0 6c3d
00000130: 0343 03bd eb0d a6bd 4cf8 13be 3492 b23d
00000140: 0e02 e2bd 213e 713c ffa6 88bd a4ab 59bd
00000150: adf3 67bd 38b9 79bd ad24 8a3d a331 b8bd
00000160: 9e54 c2bd c8bf 1abc 3d50 01be edfc 91bd
00000170: afc4 aabb 1cb4 6c3d 587e e5bd 3168 c93d
00000180: c253 b0bd 55ed 83bd 022c 1fbe 8f91 10be
00000190: f8b4 87bd 3e32 fdbd f4bb 8f3d 6e4a 2cbd
000001a0: 7c59 f33d 14a8 81bd 658f 1fbc ae61 41bd
000001b0: cc4c cdbc 2de3 2cbd 70ef 913d 78a2 02be
000001c0: d27c 95bd 20fe 41be c400 0fbd 31e2 913d
000001d0: 1f38 89bd 7e1f e5bd e361 44be a71d 37bd
000001e0: ca01 80bd 6e85 0e3e ec17 dfbd 57ad f6bc
000001f0: a877 09be 8445 0e3e 973b 0ebe 8758 f4bd
00000200: cb42 043e 3974 a93d 9815 b338 6833 b6bc
00000210: acc4 c53d cd5a b83c a65c 133e 5731 153d
00000220: 97e8 5b3d 13fd bcbc e978 953d fa94 53bc
00000230: 496a cfbc 34b3 1b3e 1220 49bd fa4c 233c
00000240: ef49 583d 44ae 7bbb cd70 db3d e7b1 cbbc
00000250: 74d2 4dbd 6553 3a3c 077e 093e 9e8d 3d3e
00000260: 464b 35bd a6e4 d43c 2bcf ed3d 7037 883d
00000270: 8dee 383e f046 ff3c f799 013e ca3c 943e
00000280: 65ac 243e 7627 b3bb 65a0 c43d 86f1 833d
00000290: 7a6b 6cbd 9837 42bd c0d5 293e 3a47 643d
000002a0: b3fd de3d a819 97bd bf04 893d 97eb 2b3e
000002b0: d939 48bd 14ab 163c 45c3 283d faa1 bb3d
000002c0: c8d3 563c 563f 573e 1a2c d53d 318e b53d
000002d0: 2308 a03d d318 2abd ad35 80bd 420c a33c
000002e0: de28 81bd 7c6e 803d 9635 123d 7910 463d
000002f0: 96ce 50bd cd19 a43c 235e 503d c999 e73c
00000300: 5c18 73bd bea4 373e adbf 273d d332 8e3d
00000310: 3330 b23d cbf7 3f3e 1b90 c7bd 16ac f73d
00000320: 08be f53c 5e71 d73d a793 503e b26b a3bc
00000330: dade 64bc 49bc b03d a90b e73d 93c2 c93d
00000340: fc79 4bbd 643e c63d d434 e23d 73ca c33d
00000350: bca8 693c 832a 673c 0cbf 55bd 168a 52bd
00000360: fc6b 72bd e7f5 253e 2509 183e 23b7 8abd
00000370: 8107 773d 9f3f b23d d69f d73d bcfb 783d
00000380: efc3 ff3b acd5 e33d 5513 cd3d 0386 e83d
00000390: 18cd 1e3d db25 f9bd 947f ad3c 4814 9dbd
000003a0: 785e 773c 3fdc 293e 2fbe 90bb 9727 42bd
000003b0: 0f11 babc ac8a 8ebb a1c6 a13c ed60 8d3d
000003c0: b852 423e 97c0 9f3d 4740 41bb 3257 c53c
000003d0: f866 de3d af2c 813d 1726 943d 572c f53a
000003e0: 7ea0 953d 8b25 8fbd bb86 0d3e 9c0a 57bd
000003f0: 9822 71bd 87ce 83bd 05a1 b4bb d7c7 d53d
-0.07514092 -0.07310814 0.11989497 -0.116776146 -0.04278401 -0.06585212 -0.12526637 0.08795472
0.00088875537 0.0056392127 0.019039696 -0.02266364 0.011552602 -0.066124976 0.054018434 -0.003566105
0.09726321 0.026795894 -0.12426599 0.04527794 0.08931897 -0.050662346 -0.09102059 -0.17985158
0.029785587 -0.09686139 -0.116696864 0.017010365 -0.061999667 0.04156677 -0.18088542 -0.11544299
-0.09817908 0.0019315662 -0.12830088 -0.250792 -0.06773372 -0.044738695 -0.056676865 -0.11282245
-0.10045746 -0.08525461 -0.03863345 -0.123291396 -0.10891105 0.082482494 -0.075386174 -0.06776754
-0.090467446 -0.12719569 -0.2255014 -0.13026279 -0.09475625 -0.12325401 -0.07423323 -0.097196594
0.043191522 -0.11492411 -0.08179445 0.010943005 -0.070633374 -0.03367355 -0.09767734 -0.066087544
0.029771695 0.05421743 0.0042516077 -0.00095985946 0.007140779 -0.15214778 -0.079149336 -0.009032933
-0.09784127 0.048485976 -0.114496365 0.057815775 -0.03204633 -0.081081234 -0.14450186 0.08719292
-0.11035548 0.014724285 -0.06672477 -0.053142205 -0.05662887 -0.060967654 0.067452766 -0.089938425
-0.09488796 -0.009445138 -0.12628265 -0.0712832 -0.005211435 0.057788953 -0.11205739 0.09834326
-0.086097255 -0.06441752 -0.15544131 -0.14118026 -0.06626314 -0.123630986 0.07018271 -0.04206317
0.11882302 -0.063308865 -0.009738778 -0.047212295 -0.025061034 -0.04220884 0.07125747 -0.1275729
-0.07299198 -0.18944597 -0.03491284 0.07123221 -0.067001574 -0.11187647 -0.19177966 -0.044706013
-0.06250341 0.13918087 -0.108932346 -0.030111952 -0.13424551 0.13893706 -0.13889919 -0.11930948
0.12916104 0.08274121 8.539407e-05 -0.02224131 0.09656653 0.022504235 0.14390811 0.036424007
0.05368861 -0.023069894 0.072984524 -0.012913937 -0.025319235 0.1520508 -0.04910285 0.009967083
0.052804884 -0.003840343 0.107148744 -0.024865104 -0.050249532 0.011372422 0.13426982 0.18511054
-0.04426124 0.025987934 0.1161178 0.06651199 0.1805975 0.031161755 0.12656389 0.28952628
0.16081388 -0.0054673506 0.09600905 0.06442551 -0.057719685 -0.0474163 0.16585445 0.05573199
0.10888233 -0.073779404 0.06690358 0.16789089 -0.048883293 0.009196062 0.04120185 0.09161754
0.013112016 0.21020254 0.10408802 0.088650115 0.07814052 -0.04152758 -0.06260238 0.019903306
-0.06306623 0.06271073 0.035695635 0.048355553 -0.050978266 0.020031834 0.050871026 0.028271573
-0.059349403 0.17933938 0.04095428 0.06943288 0.087005995 0.1874687 -0.09744283 0.1209337
0.02999784 0.1051967 0.20368825 -0.019948814 -0.013969148 0.086296625 0.11281521 0.09851565
-0.04967688 0.09679869 0.110452324 0.095600985 0.014261421 0.014109257 -0.05218415 -0.05140122
-0.059185013 0.16207086 0.14847238 -0.06773212 0.06030989 0.08703541 0.10528533 0.060786948
0.0078053395 0.11124739 0.10013453 0.11353686 0.03876981 -0.121654235 0.021178998 -0.07669884
0.015098207 0.16587923 -0.004417203 -0.047401037 -0.022713212 -0.004350027 0.019748034 0.06903253
0.18976867 0.078004055 -0.0029487775 0.02408943 0.108594835 0.06307351 0.072338276 0.0018705231
0.07306002 -0.06989583 0.13820927 -0.052500352 -0.05887088 -0.06435876 -0.005512359 0.10438507

net.2.bias f4 [192]
00000000: 68ba b5bc 244b 2f3e 88dd db3c fd15 8c3d
00000010: 0f72 24bd e725 cbbb 1106 0d3c 0768 7cbd
00000020: 773a 16be b719 8b3c 11b1 8dbc 7d7d f2bd
00000030: b203 fabb e127 d93a f540 25bd 2f31 4f3c
00000040: 8686 033e 126f 10bc b50b 613c d50e c53d
00000050: cd00 2cbd 894c 9fbb 95eb 4ebd 7dec 763d
00000060: 5a34 6e3d 119c e13d b3d0 ab3c 6267 523e
00000070: 52ac 05bc c5ac 42bd fb1b bebd 9f66 f5bc
00000080: df65 403d 48aa 8c3c 1b63 223e 14a9 553c
00000090: b82e 373c 68d8 893c fd04 9cbd 623d 9d3c
000000a0: 689c a3bd 0090 ddbd 6ff4 b13d ee97 a83d
000000b0: 527a 103c 3695 7abd 291d 01be 6cdf 85bd
000000c0: 7ed9 c03d 13a5 76bd 3804 9abc 652d c03d
000000d0: 5c61 ff3c 96bf e9bc 1780 8a3d 7bdb 223d
000000e0: 7244 2cbd b4fb b9bd 6424 c13c bb2e c5bd
000000f0: 1e69 1fbc 7f8c 983b 494c 103d b671 cebc
00000100: e7ac e2bd 2b5b 80bd e32e c3bd 9acb 22bd
00000110: 54b8 e43c 52cd 0abe b34f fa3d a8d7 b3bd
00000120: a7a6 d1bc b877 4ebd 3c5c b03c 20ff 9dbb
00000130: b07f 613d 803e dc3d 3787 343e e40d 1d3c
00000140: 858f 58bc 0269 8f3d 5968 e2bc be93 9639
00000150: 0f0b a9bd 117e 77bd 1d55 2e3d d8ec f6bc
00000160: 5ee9 a6bd d970 b43d ebe4 553c bfa2 da3d
00000170: effb 76bd da4d c63d dde2 27bd 54d9 90bc
00000180: 5c08 8c3d f1ab cabd e421 f1bc 4867 663d
00000190: 7e29 2abd 2498 50bd 8a5c 22bc 9d3f 98bd
000001a0: c9b1 113e 7c4a 04bd 2070 9d3d 7606 a9bd
000001b0: 1f89 853d ee63 76bc adae 5cbc 0772 7fbd
000001c0: 41d4 c3bc 5528 313d b395 eb3d df31 3c3d
000001d0: 23c9 1a3d eb09 b7bd ee47 483d 5b14 82bd
000001e0: f591 02be 5423 62bc 3c82 fc3a 38ad 8bb9
000001f0: 9ce9 0dba 2b74 2dbd d590 64bc dbd2 713d
00000200: a51e 123d 8b7e 0b3e 6ad4 9cbc 4923 57bd
00000210: aad1 24bd 4558 80bd 7637 adbd 7ee4 263d
00000220: a7ec 9fbc 38f1 0b3e 0856 b0bc 6195 bfbc
00000230: 3723 c5bd a2ba 13bd 1145 f0bb c1dd 203b
00000240: 8ffa 063e 9e17 d6bc 7087 a63d 9607 693e
00000250: a44d 033e ce9f a1bd 86ae 093c c4e2 9e3d
00000260: 8947 a83d 1418 ca3d 8cf1 ac3d a695 0ebc
00000270: 69ab 8a3d d792 d93c e04c 4a3d a824 3b3e
00000280: 3e46 c43d f3c1 953c 5150 34bd 3f6e b63c
00000290: 0759 3d3c 4580 26bd 38cd dcba ebc1 c63d
000002a0: c5f8 0dbc 3a14 0b3d f931 65bd 978f 8b3d
000002b0: 854b 703b 400c cfbd 6579 a23d a315 05b8
000002c0: 9365 ecbc aee2 013e e317 133d 5703 e63c
000002d0: 2f55 be3d 997f b1bc 479f e83c 482f 41bb
000002e0: 7730 f6bd de02 c63c 956f 01bc 8b91 8abd
000002f0: 66f5 cabd b9e2 43bc 6447 693c f2d5 67bd
-0.022183612 0.17118508 0.026839033 0.068401314 -0.040147837 -0.0061995867 0.008607403 -0.061622646
-0.1467074 0.016980035 -0.017296346 -0.11840341 -0.007629835 0.0016567671 -0.04034515 0.012646004
0.12844285 -0.008815544 0.013735701 0.096219696 -0.04199295 -0.0048614186 -0.050517637 0.060284127
0.058155395 0.110160954 0.020973539 0.2054725 -0.00815876 -0.047528047 -0.092826806 -0.02995616
0.04697215 0.01717104 0.15858118 0.0130408 0.011180572 0.016826823 -0.07618139 0.019194309
-0.079888165 -0.108184814 0.086892 0.08232103 0.008818226 -0.061177455 -0.1260878 -0.06536755
0.09416483 -0.06021602 -0.01880084 0.09383658 0.031174354 -0.028533738 0.067627124 0.039760094
-0.042057462 -0.09081212 0.023576923 -0.09628054 -0.009729652 0.0046554203 0.035229 -0.025200706
-0.11068135 -0.06267389 -0.09530427 -0.03974495 0.027919926 -0.13554886 0.12222233 -0.087813675
-0.025592161 -0.05040714 0.021528356 -0.004821673 0.055053413 0.107541084 0.17629705 0.009585831
-0.0132178115 0.070024505 -0.027637647 0.00028720306 -0.082540624 -0.06042296 0.04256164 -0.030142233
-0.0814998 0.088105865 0.013055067 0.106755726 -0.060298856 0.09682818 -0.040987838 -0.017681755
0.06837532 -0.098960765 -0.029435106 0.05625084 -0.041543476 -0.050926343 -0.009909758 -0.07434008
0.14227976 -0.032297596 0.07687402 -0.082531855 0.065202944 -0.0150384735 -0.01346938 -0.062364604
-0.023904921 0.043251354 0.11503162 0.045946 0.037789475 -0.089374386 0.048896722 -0.06351539
-0.1275099 -0.013802368 0.0019264887 -0.00026641204 -0.00054135337 -0.042347115 -0.013950546 0.059038978
0.035673756 0.13622491 -0.019144256 -0.052523885 -0.040239014 -0.06266836 -0.08457844 0.04074525
-0.019522024 0.13666236 -0.021525398 -0.02338666 -0.09625857 -0.03606666 -0.007332452 0.0024546238
0.13181518 -0.026134308 0.081313014 0.227568 0.12822586 -0.078918085 0.008403426 0.07758096
0.08216769 0.09867874 0.08444509 -0.008702671 0.06770975 0.026559277 0.04938972 0.18275702
0.0958371 0.018280959 -0.04402191 0.022269366 0.01155687 -0.04064967 -0.0016845828 0.09704956
-0.008665268 0.033954836 -0.05595586 0.06814497 0.0036666107 -0.101097584 0.079333104 -3.172982e-05
-0.028857028 0.12684128 0.035911452 0.028077764 0.09293591 -0.021667289 0.028396262 -0.0029477645
-0.12020963 0.024171289 -0.007900138 -0.06766041 -0.09910087 -0.01195591 0.014238212 -0.05660052

exp_avg f4 [128, 142]
00000000: b322 ccbb a2c5 21bb 6b40 29bc 7cf5 27bc
00000010: 83de 88bb 9190 89bb 8ddd 0dbc 0c4a 0dbc
00000020: 4183 cbbb e89d 60bc 09a2 37bc e3b9 76bb
00000030: db91 72bb 18d9 79bb 2cea b9bb 12a3 4ebc
00000040: a510 09bc 5466 24bc f1bf b6b7 30eb 27bc
00000050: 888b 5abc 9ed3 47bb b1ee 1bbc 7b0f 13bc
00000060: 1e45 5fbc 2c7c 53bc e58c 51bc 2564 80bc
00000070: d01b 15bc f3d3 c0b9 adcf 87bb 8ea7 49bc
00000080: feda 25bc 0755 48bb e7f6 55bc ca92 4abc
00000090: 27f2 2dbc 7bdb a7bb b90f e5ba 37b1 a6ba
000000a0: 903f 8fbb ab2f 4fbb a720 bbbb bd64 bfbb
000000b0: ff6d 53bc 2ca0 2bbc caf1 e8ba f516 1d3b
000000c0: d852 8dbb cb2d 85bb 616d 8bbb 3083 36bc
000000d0: bc7a 30bc 8bf8 2fbc 206d ec3a 7242 9137
000000e0: e244 cdbb f090 77bb dd85 08bc 5b36 c0bb
000000f0: 616c b3bb 570e b3bb 0738 2abb 6ab5 8d37
00000100: 74cf 07bc ba91 debb 19f7 f9bb 6c6c e8bb
00000110: 5f6b e8bb 3b52 66b8 b7d5 19bb 953a 70bb
00000120: 0000 0000 0000 0000 e0c8 4a3b a698 093b
00000130: 574d 553b 0000 0000 0000 0000 043a 33b8
00000140: 0000 0000 0000 0000 0000 0000 0000 0000
00000150: 4fba 8d37 0000 0000 0000 0000 0000 0000
00000160: 0000 0000 868e 25bc 67b6 14bc db97 04bc
00000170: ba48 3339 f46b e3b9 1312 b4bb 3664 4cbb
00000180: e7f2 00bc 0000 0000 0000 0000 1468 75bb
00000190: 67f5 1bbb de78 e9bb 0000 0000 0000 0000
000001a0: 0bc5 02bb 0000 0000 0000 0000 0000 0000
000001b0: 0000 0000 eed7 a2b9 0000 0000 0000 0000
000001c0: 0000 0000 0000 0000 0170 54ba f00a 323b
000001d0: d1bb e739 846d 33b8 9fab feaf 8c0f 363b
000001e0: 255a 2b3b 5d54 113b 0000 0000 0000 0000
000001f0: e3dc d3b9 6003 213a 04e2 0537 0000 0000
00000200: 0000 0000 d4a3 e3b9 0000 0000 0000 0000
00000210: 0000 0000 0000 0000 75d3 e5b9 0000 0000
00000220: 0000 0000 0000 0000 0000 0000 0db0 14bd
00000230: be24 eeba c634 71bb debc 27b3 6ede 373a
00000240: 222b 62ba 6b56 6fb9 274c 8c38 e7aa 8b38
00000250: 3889 8b38 f2a7 8b38 00a1 ad34 adf2 373a
00000260: 832b 62ba 44f6 6eb9 c96b 9ab9 0100 6fb9
00000270: c40c 6fb9 4b27 9239 ff69 cbb9 b141 de39
00000280: acbc 8c38 8833 e6b9 d688 04ba 024d e6b9
00000290: 963d 433a 6e5e 8d38 646e 39b9 1ff6 38b9
000002a0: 4b98 2aba c2a6 6eb9 2a96 8b38 96d1 ac34
000002b0: 3c4b 693a a56a 9239 9a80 39b9 0e46 8d38
000002c0: 2399 2aba e2a6 6eb9 ec92 8b38 b43f d834
000002d0: 9d4b 693a aa3a 9239 2602 6fb9 a165 9134
000002e0: e221 62ba 92ef 3e35 aeb7 6eb9 4947 9ab9
000002f0: a943 693a 86bb 4b2c 8a0c 6fb9 6033 bc3a
00000300: cea0 043a fb89 9ab9 1b02 6fb9 81a8 9ab9
00000310: e1de 8534 e26a c334 9bac 6eb9 ba34 bc3a
00000320: e6af 043a 2d88 9ab9 ad03 6fb9 81a8 9ab9
00000330: 9c3c 2634 a298 4b2c 667b da39 2f57 3a35
00000340: e483 0bb1 dba0 312c 8637 f7a5 3171 da39
00000350: 36c1 2939 9874 5e39 0000 0000 0000 0000
00000360: 2408 5639 c1c7 8539 6c59 7c32 0000 0000
00000370: 0000 0000 4af6 812d 0000 0000 0000 0000
00000380: 0000 0000 0000 0000 42c8 8c2d 0000 0000
00000390: 0000 0000 0000 0000 0000 0000 c4b6 6eb9
000003a0: 7768 1234 9ce9 0634 650a 742c f913 d925
000003b0: 0fcf 6eb9 53d5 8c38 1834 3134 0000 0000
000003c0: 0000 0000 2b4a 9ab9 7935 8c38 ab72 aa34
000003d0: 0000 0000 0000 0000 ee95 9ab9 0000 0000
000003e0: 0000 0000 0000 0000 0000 0000 ef74 5e39
000003f0: 0000 0000 0000 0000 0000 0000 0000 0000
-0.0062297224 -0.0024684449 -0.0103303 -0.010251399 -0.004176916 -0.004198142 -0.008658779 -0.008623611
-0.006210715 -0.013709523 -0.011208066 -0.0037647418 -0.0037013206 -0.0038123783 -0.0056736674 -0.012612121
-0.008365785 -0.010034163 -2.178547e-05 -0.010248944 -0.013338931 -0.0030491124 -0.009517358 -0.008975859
-0.013627319 -0.012908023 -0.0127899395 -0.015672753 -0.009100869 -0.00036779008 -0.00414463 -0.012308015
-0.010123013 -0.0030568258 -0.013059354 -0.012364099 -0.010616816 -0.0051225997 -0.0017475999 -0.0012717609
-0.004371591 -0.0031614106 -0.0057106796 -0.0058408664 -0.012904643 -0.0104752 -0.0017772254 0.0023969982
-0.0043128543 -0.004064297 -0.0042549823 -0.011139676 -0.01077145 -0.01074041 0.0018037893 1.7316288e-05
-0.006264315 -0.0037775598 -0.008332697 -0.0058658547 -0.0054755663 -0.005464356 -0.0025973336 1.6892987e-05
-0.008289207 -0.0067922743 -0.0076283333 -0.007093003 -0.0070928778 -5.4912856e-05 -0.0023473331 -0.0036656011
0.0 0.0 0.0030942485 0.0020995527 0.003254732 0.0 0.0 -4.2730957e-05
0.0 0.0 0.0 0.0 1.6895267e-05 0.0 0.0 0.0
0.0 -0.010104781 -0.009076691 -0.008092846 0.00017097863 -0.00043377245 -0.0054953187 -0.003118766
-0.007870412 0.0 0.0 -0.0037446069 -0.0023797394 -0.007125004 0.0 0.0
-0.0019953873 0.0 0.0 0.0 0.0 -0.00031059928 0.0 0.0
0.0 0.0 -0.0008103848 0.0027167164 0.00044199688 -4.277892e-05 -4.6324275e-10 0.0027780263
0.002614626 0.0022175529 0.0 0.0 -0.0004040963 0.00061421655 7.980041e-06 0.0
0.0 -0.00043418875 0.0 0.0 0.0 0.0 -0.00043835831 0.0
0.0 0.0 0.0 -0.036300708 -0.0018168909 -0.0036805137 -3.905449e-08 0.00070140406
-0.0008627643 -0.0002282501 6.689905e-05 6.6598695e-05 6.6535955e-05 6.659319e-05 3.2340904e-07 0.00070170575
-0.00086276996 -0.0002278919 -0.00029453475 -0.00022792818 -0.00022797572 0.00027876566 -0.0003879815 0.00042392084
6.710863e-05 -0.00043907412 -0.00050557905 -0.00043926394 0.00074478367 6.740993e-05 -0.00017684099 -0.00017639295
-0.0006507679 -0.00022759571 6.656007e-05 3.218999e-07 0.00088994554 0.00027926746 -0.00017690883 6.7364526e-05
-0.00065078045 -0.00022759617 6.655403e-05 4.0279485e-07 0.0008899512 0.00027890998 -0.00022793617 2.70823e-07
-0.0008626265 7.1129136e-07 -0.00022765875 -0.0002942628 0.0008898327 2.8952131e-12 -0.00022797487 0.0014358573
0.0005059362 -0.00029475972 -0.000227936 -0.00029498714 2.4935346e-07 3.6399348e-07 -0.0002276175 0.0014358975
0.00050616113 -0.00029474628 -0.00022794185 -0.00029498714 1.5482004e-07 2.8932763e-12 0.0004167214 6.941727e-07
-2.0302133e-09 2.5242506e-12 -4.2885294e-16 0.00041664534 0.00016189073 0.00021215004 0.0 0.0
0.00020411663 0.00025516565 1.4688663e-08 0.0 0.0 1.4774976e-11 0.0 0.0
0.0 0.0 1.600509e-11 0.0 0.0 0.0 0.0 -0.00022765534
1.3635314e-07 1.2564709e-07 3.4680256e-12 3.7657033e-16 -0.00022774584 6.715455e-05 1.6503361e-07 0.0
0.0 -0.00029428428 6.68568e-05 3.17484e-07 0.0 0.0 -0.00029484875 0.0
0.0 0.0 0.0 0.00021215131 0.0 0.0 0.0 0.0

exp_avg_sq f4 [128, 142]
00000000: 38f8 263c 03a1 8e3c f227 903c 8b84 743c
00000010: a9a5 6c3c 9a76 f03b 6385 9d3b 9988 e43b
00000020: 141d 173c 595b 743c 314e 473c 298c 1e3c
00000030: 91cb 743c 4aa7 773c e3df 7a3c abae 303c
00000040: 2562 5d3c ff02 3d3c 249b 1d3c d951 1f3c
00000050: 610e 1d3c d49f 4a3c 61a4 673c 6ef7 183c
00000060: cdf8 2b3c f006 623c 0683 1e3c cfe1 903c
00000070: 80f8 883c 1951 7c3c 308c 273c 24af 073c
00000080: e633 633c 39f9 563c cdb4 523c a61e aa3c
00000090: 2932 713c 6b4e 6c3c 0f80 d63b 750d 143c
000000a0: 0d09 9d3c e3b8 8b3c eb81 9c3c ad33 573c
000000b0: 5ff4 7f3c 89da 2d3c 4536 2e3c 9996 e23b
000000c0: 9792 7d3c 1dbc 403c 5499 5b3c 7f37 d53b
000000d0: e196 513c 5b6e 113c f018 fb3b d4a9 cd3b
000000e0: d1a6 563c 4a2e 163c 9961 543c 8cc5 873b
000000f0: e1f8 2f3c 4bd9 e03b 7954 f43b 880f 993b
00000100: 66b3 833c 44bd 603c 18ff 0e3c f890 433b
00000110: dbcb 8c3a eeaf 823c df79 403c 21c4 063c
00000120: 0000 0000 0000 0000 bebf 213c 4698 b13b
00000130: f33c 8f3b 0000 0000 0000 0000 9175 3c3b
00000140: 0000 0000 0000 0000 0000 0000 0000 0000
00000150: db30 033b 0000 0000 0000 0000 0000 0000
00000160: 0000 0000 3552 913c dda9 5b3c e5ab 1e3c
00000170: 251d 7d3a 95f5 fa39 240e 733c 52b2 493c
00000180: 7c8d 033c 0000 0000 0000 0000 c16e 1c3c
00000190: f405 ef3b 0cfe 4c3b 0000 0000 0000 0000
000001a0: 259f 063b 0000 0000 0000 0000 0000 0000
000001b0: 0000 0000 2a21 e63a 0000 0000 0000 0000
000001c0: 0000 0000 0000 0000 7083 4a3c 50b1 fd3b
000001d0: 8f21 c13b b183 493a ac7c 243a ce5a 403c
000001e0: 5cfb 203c bc06 9e3b 0000 0000 0000 0000
000001f0: b25d 1d3c 9bf3 893b 7845 3c3b 0000 0000
00000200: 0000 0000 969b 3e3a 0000 0000 0000 0000
00000210: 0000 0000 0000 0000 02c4 193a 0000 0000
00000220: 0000 0000 0000 0000 0000 0000 f4a7 353e
00000230: 9433 823c 8f73 453f fdda 933b e542 f93b
00000240: 3f08 083c d6b8 e83b e143 c43b e27d 9c3b
00000250: 596d 803b 4ca5 1f3b 3fec 993b f685 ea3b
00000260: 47df e43b c3c3 d23b 2441 ce3b 9167 de3b
00000270: 7371 fe3b b7ca 973b 8ec1 fb3b ce4f de3b
00000280: 8bf5 e63b c77c f03b dd84 ce3b 9645 b53b
00000290: c210 d13b 4cfb 8a3b 8116 b83b 5fa9 ea3b
000002a0: 2488 c73b 1e12 163c 1c8c d13b 2c6d 003c
000002b0: d7a1 eb3b 4bfa e33b 260a fe3b 1220 fb3b
000002c0: 1242 c43b 29fa fb3b 81b2 e43b 870d f93b
000002d0: af68 c33b b1da 8b3b 2928 033c c38c 0f3c
000002e0: 96d8 003c 744b be3b 7572 d63b 8cc2 cd3b
000002f0: be33 d23b c9b2 863b 3703 f33b 921c e13b
00000300: b3a4 b33b d501 8a3b c569 bc3b c193 ae3b
00000310: 1d6c a73b 178e 9e3b 3c88 c13b ce6c 873b
00000320: 1d81 ac3b a601 593b 71d4 933b a145 913b
00000330: eb44 9c3b 4c32 423b 97e5 013c 92e0 b43b
00000340: 1dbd 6d3b c743 ab3a 7737 c339 5ad7 c73b
00000350: 6ea0 713b 3717 de3a 0000 0000 0000 0000
00000360: 864d 853b 722d d63a 2cc4 bf3a 0000 0000
00000370: 0000 0000 4656 a43a 0000 0000 0000 0000
00000380: 0000 0000 0000 0000 52d4 933a 0000 0000
00000390: 0000 0000 0000 0000 0000 0000 5db1 023c
000003a0: a36e b53b dd68 973b e0f7 dd39 832d 9a39
000003b0: 2071 d23b f235 b33b 0d0e 763b 0000 0000
000003c0: 0000 0000 91b1 973b 7ef2 233b dcb1 f83a
000003d0: 0000 0000 0000 0000 4ec2 b73a 0000 0000
000003e0: 0000 0000 0000 0000 0000 0000 f5f2 a33a
000003f0: 0000 0000 0000 0000 0000 0000 0000 0000
0.010191016 0.01741076 0.017597172 0.014924179 0.014443793 0.007338357 0.0048071607 0.0069742915
0.009223241 0.014914357 0.012164638 0.0096769715 0.014941112 0.015115568 0.015312168 0.010783832
0.013512169 0.011536359 0.009619508 0.009724104 0.009585948 0.012367208 0.014138312 0.009336336
0.01049633 0.013795599 0.009674793 0.017685799 0.016720057 0.015400195 0.010226294 0.008281503
0.013867354 0.013120943 0.012860489 0.020766567 0.014721432 0.014422993 0.0065460275 0.0090364115
0.019169355 0.017055934 0.019104918 0.013134879 0.015622227 0.010611185 0.010633056 0.0069149253
0.015476844 0.0117636 0.0134032555 0.00650686 0.01279232 0.008876408 0.007662885 0.0062763486
0.013101296 0.00916631 0.012962722 0.0041434225 0.01074049 0.006861841 0.007456359 0.004671041
0.016076755 0.013716999 0.008727811 0.0029841047 0.0010741906 0.01595303 0.011747806 0.008225472
0.0 0.0 0.009872375 0.0054197637 0.0043712794 0.0 0.0 0.0028756598
0.0 0.0 0.0 0.0 0.0020018134 0.0 0.0 0.0
0.0 0.017739395 0.013407198 0.009684538 0.0009655527 0.0004786669 0.014834914 0.012310581
0.008029338 0.0 0.0 0.00954789 0.007294411 0.0031279353 0.0 0.0
0.0020541635 0.0 0.0 0.0 0.0 0.0017557491 0.0 0.0
0.0 0.0 0.012360439 0.0077420846 0.005893893 0.0007687165 0.0006274681 0.0117403995
0.009825554 0.00482258 0.0 0.0 0.009604858 0.0042099482 0.002872793 0.0
0.0 0.0007271109 0.0 0.0 0.0 0.0 0.0005865694 0.0
0.0 0.0 0.0 0.1773985 0.015893735 0.77129453 0.0045121894 0.0076068514
0.008302747 0.0071021123 0.005989537 0.0047757486 0.0039192853 0.002436 0.004697352 0.0071570827
0.0069846245 0.006432028 0.0062943865 0.0067872484 0.007764989 0.00463232 0.0076829856 0.006784416
0.007048314 0.0073390934 0.0063024596 0.005531977 0.0063801715 0.0042413827 0.005617917 0.007161304
0.0060892273 0.009159593 0.006394876 0.007838529 0.0071909237 0.0069573275 0.0077526746 0.007663735
0.0059893215 0.0076897335 0.006979287 0.0076004895 0.005963407 0.0042680134 0.00800518 0.008761588
0.007864138 0.0058073346 0.006544406 0.0062792953 0.0064148596 0.0041106683 0.0074161547 0.006869861
0.00548228 0.004211644 0.0057499134 0.005327672 0.0051093237 0.004838716 0.005906133 0.0041328436
0.005264415 0.0033112555 0.004511409 0.0044333492 0.004768958 0.002963203 0.007928274 0.005519935
0.003627605 0.0013066464 0.00037234623 0.00609867 0.0036869305 0.0016944174 0.0 0.0
0.0040680794 0.0016340448 0.0014630607 0.0 0.0 0.0012537919 0.0 0.0
0.0 0.0 0.0011278486 0.0 0.0 0.0 0.0 0.007976857
0.0055368706 0.004620655 0.00042337086 0.00029407078 0.006422177 0.0054690773 0.0037544996 0.0
0.0 0.004629322 0.0025016363 0.0018973905 0.0 0.0 0.0014019699 0.0
0.0 0.0 0.0 0.001250832 0.0 0.0 0.0 0.0

exp_avg f4 [128]
00000000: 6077 21bc a1cb 6eb9 8c7e 163c 0f95 12b3
00000010: 0d53 30bd cb3c 15bc 7c95 c3bc 0400 0000
00000020: 053b 5ebc 26e1 c736 4613 5713 41cd 3d2f
00000030: 8b31 961a 0fbe cabc 0400 0000 4f08 6716
00000040: 0616 2000 1851 133c 89e2 87bb 8fcf 5c05
00000050: 6079 1f06 3c2d 05ba 464b 5fbc 958e febc
00000060: 0400 0080 e729 bd3a 1fe8 bdbb a2dd 763b
00000070: f37a 9b3b 428b fd3a 467c 1c3b 9d71 4bbd
00000080: e848 e0bc a933 eaaf 86fd 0bbd 9b9f a2bc
00000090: 1531 202b 5e1f 733a ab50 ea3b 9f27 363c
000000a0: adc0 7a3c 99d0 d234 1f15 4abb 8ea5 e7bc
000000b0: 34dd 8e13 1f7d f12a 5285 2102 4895 a13b
000000c0: e790 ee27 71c9 8ebc 8dff bbba 4950 88bc
000000d0: b45a 532f a0fa 2c3c f888 6531 7751 663b
000000e0: 0400 0000 07ff 31ba b3ae 2c3c d6f8 1ab5
000000f0: 0400 0000 c80f 6d39 2c2e cabc 43a5 fc08
00000100: 60e9 2626 6be1 d8bc 0400 0000 ef94 89bc
00000110: b493 aab7 545f 46bc b5a1 ad09 7c42 c0bc
00000120: c3b5 aebb f6a6 2abb 26f2 d9bc 0400 0000
00000130: 9276 3aa7 3521 e0bb 3c25 cfbb 5a61 f624
00000140: fa50 2a3c 5afb 0cbc 3901 0dbd ade2 d9bc
00000150: 08a7 d23a 872b 99b6 f0f4 6d34 0da7 f4ae
00000160: 88d3 843a de04 ecbb b31f 6fbc 0717 e43b
00000170: 6180 1aaa acdd 0124 e2af 72bc 0400 0000
00000180: 9d6e 0480 bf47 a336 8e63 c63a 0ec6 90bc
00000190: 42fc e322 5428 8c34 0400 0000 9881 5804
000001a0: d2ee 903c abe6 453c 08e9 8631 f3c1 0a35
000001b0: 0400 0000 0400 0000 0400 0080 3f34 babc
000001c0: 5c6b 97bc 47bc 8c3a 3cfc ba05 0e72 1512
000001d0: f091 233b 4f8e 2c3b 971a b5bc 8eb7 0db7
000001e0: eb0a 08bd 0400 0000 b9a0 d7b9 4bbf 14ba
000001f0: d55d 8710 0400 0000 a82f 9bb3 6ae7 2abc
-0.009855121 -0.00022773306 0.009185445 -3.4128842e-08 -0.043047953 -0.009108732 -0.02387499 6e-45
-0.013563876 5.956873e-06 2.7146318e-27 1.7262371e-10 6.211859e-23 -0.02474883 6e-45 1.8662653e-25
2.946636e-39 0.008991502 -0.004146878 1.0382473e-35 2.9993749e-35 -0.0005080288 -0.013628786 -0.031073848
-6e-45 0.0014432044 -0.0057954933 0.0037668725 0.0047448813 0.001934387 0.0023877784 -0.049668897
-0.027378514 -4.260106e-10 -0.034177326 -0.019851496 5.6911534e-13 0.00092743884 0.0071507297 0.011117845
0.015304727 3.9267323e-07 -0.0030835343 -0.028277185 3.6063963e-27 4.289702e-13 1.1866673e-37 0.004931126
6.6215373e-15 -0.01743004 -0.0014343128 -0.016639845 1.9222562e-10 0.0105578005 3.3401744e-09 0.0035143772
6e-45 -0.0006790016 0.010539698 -5.7731575e-07 6e-45 0.0002260796 -0.02468022 1.5205551e-33
5.79091e-16 -0.026474675 6e-45 -0.01679465 -2.0334359e-05 -0.012107689 4.1800304e-33 -0.023469202
-0.0053317263 -0.0026039458 -0.026604723 6e-45 -2.5876962e-15 -0.006839896 -0.0063215774 1.06850414e-16
0.010395283 -0.008604849 -0.034424994 -0.026597345 0.0016071508 -4.5648226e-06 2.2161453e-07 -1.11255095e-10
0.0010133842 -0.0072027287 -0.01459496 0.006960753 -1.3722488e-13 2.816018e-17 -0.014812442 6e-45
-4.07023e-40 4.866131e-06 0.0015135871 -0.017672565 6.179556e-18 2.6106375e-07 6e-45 2.5450185e-36
0.017692003 0.012078921 3.926406e-09 5.169124e-07 6e-45 6e-45 -6e-45 -0.022729991
-0.01848381 0.0010737263 1.7584012e-35 4.7156693e-28 0.0024958812 0.002632994 -0.022107406 -8.446992e-06
-0.033213537 6e-45 -0.00041127743 -0.0005674257 5.339268e-29 6e-45 -7.2264186e-08 -0.01043115

exp_avg_sq f4 [128]
00000000: 8e2b d93c 26f2 443c e0c1 6338 9853 0d3a
00000010: a14e b83c 6956 7c3c 8f22 a53c 285b 4c37
00000020: ff0b 103c 8c5c 0d3c b596 4a3a 68e8 e638
00000030: a644 a73a 6624 913c 4249 3c38 d3a8 3839
00000040: 76a8 1e38 ce5d 0a3a bd45 953c da21 8139
00000050: 425c 1538 561d 183b 1bdb aa3c 61d7 dc3c
00000060: e7a8 4d38 da88 b339 a4f8 a13c d9dd 193a
00000070: 2a59 9c3c ccc0 073d 54c3 333c a90c cf3c
00000080: e515 a13c fdb3 813a 6a69 ae3c 3c01 b53c
00000090: 06c5 0e3a 6272 8e39 f1d8 b93c 4432 f43c
000000a0: d00e 1b3c aa35 493a 3428 6a3c 5e2f c93c
000000b0: 4797 093a 04f9 4c39 a8f1 4738 9434 ef3c
000000c0: 7b7c 783a b442 ab3c 1712 fe3c 90b7 a03c
000000d0: 45e3 103a 30ae 503a 0709 023c 6a92 e53a
000000e0: 715e 5139 b24c 063b 9dfd 8f3c 3e5c 0f3b
000000f0: 1650 0937 e42f 4f39 1af5 bb3c 8a1c 4b38
00000100: 10ea 683a 3439 153b 3b41 ac37 bdd4 cf3c
00000110: c7d3 b639 19dd a03c 9646 8737 c158 ce3b
00000120: b6a1 6b39 5208 2b3c 601b c43c 6d3f 9837
00000130: d622 4c39 664d b83c 5b22 aa3c 026b 8c3b
00000140: ab07 8c3a a727 b83c bb31 c43c 0ca9 b73c
00000150: 0d7e 123b dc5b 7a3c 08d4 8538 c320 ff39
00000160: 5758 903c 5c75 ba3c ee3e 013d 559c d539
00000170: 5731 083a 41d9 9d39 108f 893c eb7d 023a
00000180: e6fe 5137 957a 653c c2c8 9b3c 7b02 833c
00000190: 1d8d 113a 41e1 6b39 7cc8 1f37 c6f2 2138
000001a0: b08c 8c3c bcb8 da3c f031 463a e70a 843a
000001b0: e523 f835 4611 ce38 926b 3f38 055f c83c
000001c0: 6c1a c53c 32ce 963c 9722 b639 c519 b137
000001d0: 92c4 053d ce90 063c 3ce5 103d 0ee5 1e3b
000001e0: b50a 563c c252 0337 d622 0e3c 6bc9 623b
000001f0: 8515 8a39 ff4c 1c38 c1ce 843a 36d4 7e3c
0.026510026 0.012020623 5.4301578e-05 0.00053911796 0.02249843 0.015401461 0.02015808 1.21805715e-05
0.008791923 0.008628022 0.00077281456 0.00011010544 0.0012761548 0.017717551 4.489092e-05 0.000176105
3.7827027e-05 0.000527826 0.01822173 0.0002463002 3.561029e-05 0.0023210845 0.02085643 0.02695817
4.903311e-05 0.00034243503 0.019771881 0.00058695447 0.019085485 0.03314285 0.010971863 0.025274592
0.01966376 0.000989556 0.0212905 0.022095315 0.0005446229 0.00027169572 0.022686454 0.029809125
0.009463981 0.0007675538 0.014291812 0.02455872 0.00052486773 0.00019547722 4.7670357e-05 0.029199876
0.0009478998 0.02090583 0.031014485 0.01961878 0.000552703 0.0007960526 0.007936723 0.0017514948
0.00019966975 0.0020492491 0.017576987 0.002187505 8.184483e-06 0.00019758899 0.022944022 4.842555e-05
0.00088849757 0.0022769691 2.0534373e-05 0.025369996 0.00034871532 0.019636678 1.6126123e-05 0.0062972014
0.00022471588 0.010438995 0.023938835 1.8149347e-05 0.00019467933 0.022497844 0.020768335 0.0042852173
0.0010683438 0.022479845 0.023949495 0.022419475 0.0022352964 0.01528069 6.381428e-05 0.000486618
0.017620249 0.02276104 0.031554155 0.00040743002 0.00051953405 0.0003010724 0.01679185 0.00049778697
1.2516719e-05 0.014006277 0.019016627 0.015992394 0.00055523386 0.0002249526 9.523817e-06 3.861149e-05
0.017156929 0.026699416 0.0007560542 0.001007405 1.8487887e-06 9.826063e-05 4.563813e-05 0.024459371
0.02406045 0.018408868 0.00034739517 2.1112044e-05 0.032658167 0.008213235 0.035374865 0.0024245414
0.013064076 7.827477e-06 0.008675298 0.0034604918 0.00026337444 3.7265007e-05 0.0010132418 0.015553525

exp_avg f4 [192, 128]
00000000: c427 3f38 9eb6 c930 6303 a736 2b11 f122
00000010: e372 4e38 b974 8c33 ff70 8538 0400 0000
00000020: d44e 0c38 6c3d 142d 9984 ee0c 78c8 a829
00000030: 793a 3c13 faa0 7838 0400 0000 0400 0080
00000040: e401 0000 48e5 6537 ed88 ba38 0400 0000
00000050: 9c67 0a00 009e 5134 8533 b337 e70c b338
00000060: 0400 0080 a0ee 8136 45b9 0b38 0945 b134
00000070: 3097 f336 1b9c cf37 e590 ed35 a8a7 1438
00000080: 4ccd e738 5ad6 392b 094d db38 5089 df37
00000090: 4a9a cb24 c1f4 9733 8680 0037 8dcb 8f38
000000a0: 0101 8d36 cacb d025 8e30 ed32 06fe a038
000000b0: d596 240f 2369 2125 0400 0000 d6ba 3939
000000c0: dc33 1021 2ca5 2537 b347 8e38 edfc 5336
000000d0: bb30 4029 d3ce a537 9f8a 6226 5606 3735
000000e0: 0400 0000 6e0f ad33 524c 8231 e935 8a29
000000f0: 0400 0000 2635 1e33 e0bf ca38 e906 5404
00000100: 3ba1 141b adc5 f136 0400 0000 3d7a 8438
00000110: a73d 8132 aed4 9038 d58d 5804 6f1d b337
00000120: b3f8 8636 7c5b 6037 e96e 8538 0400 0000
00000130: ea71 500a 9b07 1837 a3a6 0839 c2b8 8d18
00000140: ad4f 8337 9c57 e237 e38d e038 b565 e337
00000150: c77d 7824 65f2 c335 0000 0000 1254 9f2d
00000160: 656c 3e28 d0d0 2e38 0035 e638 2457 8e36
00000170: 5966 0224 0400 0000 f5e2 e738 0400 0000
00000180: 0400 0080 5be2 0528 47f6 1b37 0261 2a38
00000190: 1bc0 3319 8589 8a1f 0400 0080 1a6f 0000
000001a0: 5bdf c237 fab0 d638 f9c9 8021 8f52 2b24
000001b0: 0400 0080 0400 0000 0400 0080 0d6e 4c38
000001c0: 46fe 0337 07fc a630 0400 0000 5eb0 660f
000001d0: c466 0c39 eaa6 6134 fc7e 0d39 0400 0000
000001e0: 6862 6038 0400 0000 a4db 4a35 6f9a 5633
000001f0: bc3d 6809 0400 0000 4400 0000 7d22 e136
00000200: e2ae abbd 613b b2bb 9890 fdbb e42f c527
00000210: 8ded acbd 2c9b cbb8 938d f7bd 0400 0000
00000220: 3620 ecbc 0c41 0f31 7984 5f0f c34f 0d2d
00000230: 9950 1599 9732 c7bd 0400 0080 0400 0080
00000240: 1db5 0100 59bf 9cbc fe21 1ebe 0400 0080
00000250: 8613 7884 0338 1e39 d169 77bc a98f 05be
00000260: 0400 0000 8cf2 ffbb 3e98 65bd cabc 7a38
00000270: 19f5 9abc 8e1b 54bd 2050 403b 3365 75bd
00000280: 731e 25be e246 1c2f 57a2 16be 5b64 64bd
00000290: 364e 05aa ec0e 6b38 c670 e2bc 01a7 e8bd
000002a0: fb68 0a3c 70eb ffaa 5d8a 0f38 e1c2 f2bd
000002b0: 4286 a393 b952 cc28 0400 0080 990c 88be
000002c0: aa18 0929 8a91 adbc 1ef4 e5bd 08fc 17bb
000002d0: e1e8 a02c 35c9 a1bc 2d4e e628 c659 81ba
000002e0: 0400 0080 ddd8 0839 ee98 9dbb f0d6 bf2f
000002f0: 0400 0000 3bd7 3c38 8b2b 1abe 33ee e106
00000300: 596c d2a4 1d5f f6bb 0400 0000 d42d a9bd
00000310: b269 0236 1e31 d4bd 54f7 4d07 e4dc 98bc
00000320: 250a 06bc c0ac 99bc ad2a b2bd 0400 0000
00000330: 6080 590e d130 0fba c221 57be 0d66 8f9e
00000340: eed3 eebc aef3 d0bc ae7d 23be 3e91 1ebd
00000350: 90c9 8b27 c8c1 8d39 0000 0000 7d1e 9a31
00000360: 9c5f 61b1 c351 6fbd 2c22 34be 0769 07bc
00000370: c68c e527 0400 0000 1feb 33be 0400 0080
00000380: 0400 0080 0922 17b1 a766 dabc e1d1 8abd
00000390: 21bb f19d 0400 0000 0400 0000 2b7d 4300
000003a0: 5220 03bd 551a 30be 7aa1 6f24 85c0 7129
000003b0: 0400 0080 0400 0000 0400 0000 8a67 a8bd
000003c0: 95f8 44bc 317f 86b3 0400 0000 af53 0b12
000003d0: c398 4ebe f702 12ba fa5c 75be 0400 0000
000003e0: 0659 97bd 0400 0080 2e5f 463a f46f 8f38
000003f0: 26d1 618f 0400 0000 6f13 96b1 33e8 56bc
4.5574983e-05 1.4676578e-09 4.977382e-06 6.534136e-18 4.9221224e-05 6.54049e-08 6.3629814e-05 6e-45
3.3452015e-05 8.426464e-12 3.674951e-31 7.4954745e-14 2.3757765e-27 5.927773e-05 6e-45 -6e-45
6.78e-43 1.3702847e-05 8.8946756e-05 6e-45 9.55523e-40 1.9522122e-07 2.1362453e-05 8.5377884e-05
-6e-45 3.872279e-06 3.331273e-05 3.301905e-07 7.259565e-06 2.4749015e-05 1.7700046e-06 3.544209e-05
0.00011053178 6.6022676e-13 0.00010457083 2.6647613e-05 8.829859e-17 7.076006e-08 7.659319e-06 6.856686e-05
4.2022443e-06 3.622034e-16 2.7612511e-08 7.67671e-05 8.1148735e-30 1.4000146e-16 6e-45 0.00017712577
4.8857733e-19 9.8732235e-06 6.784443e-05 3.1588672e-06 4.267483e-14 1.9765843e-05 7.859737e-16 6.818203e-07
6e-45 8.058747e-08 3.7921746e-09 6.137783e-14 6e-45 3.683558e-08 9.66785e-05 2.4923653e-36
1.229437e-22 7.205372e-06 6e-45 6.317019e-05 1.5045613e-08 6.90607e-05 2.5455804e-36 2.1352169e-05
4.0224636e-06 1.3372741e-05 6.362593e-05 6e-45 1.00362606e-32 9.061677e-06 0.00013032048 3.6634203e-24
1.5653519e-05 2.6982096e-05 0.00010707581 2.710787e-05 5.3882965e-17 1.4599178e-06 0.0 1.8113542e-11
1.0570623e-14 4.1679305e-05 0.00010977127 4.2420743e-06 2.8275948e-17 6e-45 0.000110572124 6e-45
-6e-45 7.432066e-15 9.296061e-06 4.0621504e-05 9.2928785e-24 5.867278e-20 -6e-45 3.9856e-41
2.323061e-05 0.0001023728 8.727079e-19 3.7149644e-17 -6e-45 6e-45 -6e-45 4.8739883e-05
7.867411e-06 1.214972e-09 6e-45 1.13738426e-29 0.00013389724 2.1015481e-07 0.00013494113 6e-45
5.349741e-05 6e-45 7.5570483e-07 4.9966214e-08 2.7955012e-33 6e-45 9.5e-44 6.7095375e-06
-0.083829656 -0.0054392074 -0.007738184 5.4730407e-15 -0.08443747 -9.708697e-05 -0.1208755 6e-45
-0.028823953 2.0846214e-09 1.1020262e-29 8.032633e-12 -7.719396e-24 -0.09726446 -6e-45 -6e-45
1.56807e-40 -0.01913421 -0.15442654 -6e-45 -2.9161225e-36 0.0001508892 -0.015100912 -0.13043083
6e-45 -0.0078108963 -0.056053393 5.978047e-05 -0.0189157 -0.05178409 0.0029344633 -0.059910964
-0.16124897 1.42133e-10 -0.14710365 -0.05575977 -1.1839908e-13 5.6042263e-05 -0.027641665 -0.113599785
0.008447881 -4.5460467e-13 3.4222718e-05 -0.118535765 -4.1279373e-27 2.2684425e-14 -6e-45 -0.2657211
3.0441504e-14 -0.021187562 -0.11228202 -0.0023190994 4.5733283e-12 -0.019749263 2.5569033e-14 -0.0009868674
-6e-45 0.00013050759 -0.0048094904 3.489542e-10 6e-45 4.5023142e-05 -0.15055673 8.4985596e-35
-9.125653e-17 -0.0075186626 6e-45 -0.08260694 1.9433032e-06 -0.10360931 1.5495169e-34 -0.018660016
-0.00818113 -0.018759131 -0.08699546 6e-45 2.6809125e-30 -0.00054622913 -0.21008971 -1.5182921e-20
-0.02915379 -0.02550682 -0.15965912 -0.038712732 3.8798785e-15 0.00027037994 0.0 4.485456e-09
-3.2796157e-09 -0.058427583 -0.1759116 -0.008264787 6.3712895e-15 6e-45 -0.1757016 -6e-45
-6e-45 -2.1992739e-09 -0.026660277 -0.067783125 -6.3985656e-21 6e-45 6e-45 6.19788e-39
-0.032013245 -0.17197545 5.196164e-17 5.3679734e-14 -6e-45 6e-45 6e-45 -0.082228735
-0.012022157 -6.262997e-08 6e-45 4.3963814e-28 -0.20175461 -0.00055699 -0.23961249 6e-45
-0.07390027 -6e-45 0.00075672835 6.839624e-05 -1.1133637e-29 6e-45 -4.367784e-09 -0.013116884
