weights/policy_checkpoint3900.pt (torch, 522983 bytes, 12 tensors)

net.0.weight f4 [128, 142]
0.049789313 0.12820019 0.06359222 0.16803433 0.14037886 0.15205088 0.09228521 0.08273378
0.067214414 -0.025310693 0.11956168 0.07177322 0.1042797 0.068857 0.13531524 0.08077422
0.081116825 0.00068621576 -0.055697206 0.07929773 0.027343214 0.08674039 0.038077537 0.13541335
0.0005436422 -0.017316218 -0.028657254 -0.040045653 0.04153337 -0.07067962 0.17146738 -0.0076650516
0.12617546 0.07922444 0.027918514 0.076482646 0.03911091 0.11806306 0.05977554 0.028879203
0.15327114 0.0031958944 0.12102591 0.11294227 0.0988099 0.067497194 0.13248524 0.034648746
0.1362781 0.09375299 0.0005158853 0.024584379 0.006555473 0.23790064 0.14293893 0.12995757
0.07671998 0.07336556 0.24149187 0.08174537 0.03186555 0.015523181 0.13033327 0.03796024
0.03697769 -0.034229316 0.09316276 -0.04520561 -0.03434381 0.00313029 0.16183473 0.12763512
0.08075029 -0.06925565 -0.022116663 -0.0036657692 -0.009429943 0.033990216 0.03004906 0.09371831
-0.043337457 -0.057207987 0.04452513 -0.033920087 0.038543392 -0.019913828 0.04800503 -0.06520171
-0.042349268 0.117531575 0.07425845 0.03971949 0.07641756 0.062580906 0.029937223 -0.04042788
0.14082861 -0.028316708 -0.029750356 0.028637825 -0.030337596 0.06434891 -0.011076622 -0.060915
0.087173946 -0.05732293 -0.07119587 -0.046210583 -0.07344617 0.05693253 0.08388532 0.015850035
0.025860189 -0.07826913 -0.012979595 0.05572515 0.08246124 -0.0060587223 0.021312578 -0.09210528
0.0515199 0.0054002395 -0.0058151716 -0.056865424 -0.13905816 -0.06766131 -0.034105077 -0.06623498
0.07036283 -0.051246922 0.07220289 0.02614739 -0.071061626 0.058074307 0.0010595924 -0.03216801
-0.069657974 -0.083428115 0.024009872 0.10644967 0.12025599 0.04176977 0.028469138 -0.08556162
-0.07938112 -0.055615474 0.056744646 0.05300404 0.08070766 -0.11009322 0.029205257 -0.035573
0.0027090209 -0.09901655 0.13860546 -0.02057175 0.0874926 -0.016484916 0.056581464 -0.02136191
0.09859125 0.031382862 0.016772408 -0.059684563 0.10565481 0.0138669815 -0.015654648 0.10415689
0.101360776 -0.0050954386 -0.05028585 -0.06429843 0.1169951 0.024558268 -0.040740725 -0.024226796
-0.06035387 0.031133164 0.040242676 -0.15274675 0.101157054 0.079600014 -0.022225896 -0.07718576
0.050818227 0.08887796 0.013025493 -0.025452413 0.025602618 0.027063498 -0.07434572 -0.0039142887
0.0794615 0.10196982 0.02726943 0.023227256 0.028692292 -0.0976338 0.12348005 0.10145227
-0.010494388 0.07362464 0.14468144 0.005945445 -0.0065108836 -0.040864762 -0.061969128 -0.072596185
-0.054285675 -0.015212028 0.075308286 0.08470806 -0.096651375 -0.13145116 -0.01324368 0.08117817
0.09373294 -0.026923643 0.0087652 -0.03196287 -0.05431649 0.06606278 -0.038157728 -0.016822796
-0.083482124 0.056163948 0.056190718 0.030583814 -0.058513954 -0.08282216 -0.06815655 0.025261607
0.024794279 0.09191318 -0.0798268 -0.11697927 0.026027173 -0.033040844 -0.0560285 -0.078492716
0.034352895 -0.013575251 0.032469623 -0.05963736 -0.015291862 -0.059064515 -0.045425225 0.027836554
-0.024940168 0.051806293 -0.026921675 -0.075046726 -0.014806426 -0.0406791 -0.025674049 -0.0798897
00000000: e1ef 4b3d e946 033e a33c 823d 3111 2c3e
00000010: 7abf 0f3e 3ab3 1b3e 0700 bd3d 5470 a93d
00000020: b6a7 893d 5f58 cfbc c1dc f43d d7fd 923d
00000030: 9890 d53d e604 8d3d 1490 0a3e f46c a53d
00000040: 9420 a63d 29e3 333a c122 64bd d966 a23d
00000050: e0fe df3c f2a4 b13d 31f7 1b3d cca9 0a3e
00000060: 3683 0e3a beda 8dbc 9ec2 eabc e906 24bd
00000070: e51e 2a3d 7ac0 90bd 2595 2f3e 1d2b fbbb
00000080: 2434 013e 6c40 a23d 5eb5 e43c efa2 9c3d
00000090: c332 203d 0ccb f13d 32d7 743d 1494 ec3c
000000a0: 1cf3 1c3e 3672 513b 6fdc f73d 474e e73d
000000b0: d85c ca3d f83b 8a3d 36aa 073e d8eb 0d3d
000000c0: 7c8c 0b3e 9101 c03d 7a3c 073a 2e65 c93c
000000d0: 4bcf d63b 3a9c 733e 955e 123e 9913 053e
000000e0: 5d1f 9d3d af40 963d a549 773e 1e6a a73d
000000f0: 7385 023d f154 7e3c 1676 053e 327c 1b3d
00000100: eb75 173d 0a34 0cbd 1ecc be3d 8529 39bd
00000110: 18ac 0cbd 8d25 4d3b 01b8 253e c8b2 023e
00000120: 6860 a53d e8d5 8dbd 012e b5bc 673d 70bb
00000130: 0c80 1abc 5339 0b3d 7229 f63c 63ef bf3d
00000140: 9e82 31bd ec52 6abd fc5f 363d caef 0abd
00000150: addf 1d3d 5322 a3bc eca0 443d 7988 85bd
00000160: 6d76 2dbd 65b4 f03d d014 983d e7b0 223d
00000170: cf80 9c3d 6b2a 803d e83e f53c b497 25bd
00000180: 6035 103e 71f8 e7bc 05b7 f3bc df99 ea3c
00000190: 8d86 f8bc 5cc9 833d b87a 35bc 0282 79bd
000001a0: 4188 b23d 73cb 6abd 24cf 91bd 4f47 3dbd
000001b0: f26a 96bd 1632 693d 11cc ab3d efd7 813c
000001c0: bfd8 d33c 914b a0bd 5ea8 54bc 0e40 643d
000001d0: 70e1 a83d 3f88 c6bb b797 ae3c b1a1 bcbd
000001e0: 8806 533d 7ef4 b03b 328d bebb b8eb 68bd
000001f0: 4365 0ebe 0392 8abd c4b1 0bbd 35a6 87bd
00000200: 631a 903d 4be8 51bd 1cdf 933d 0d33 d63c
00000210: c288 91bd 53df 6d3d 05e2 8a3a 9ac2 03bd
00000220: d7a8 8ebd 5cdc aabd 5ab0 c43c 4902 da3d
00000230: c648 f63d c716 2b3d 1c38 e93c ee3a afbd
00000240: 9292 a2bd 0dcd 63bd 136d 683d c41a 593d
00000250: 0f4a a53d 8e78 e1bd dd3f ef3c feb4 11bd
00000260: d489 313b 30c9 cabd 97ee 0d3e 1686 a8bc
00000270: 522f b33d 600b 87bc f7c1 673d 2cff aebc
00000280: 36ea c93d 518b 003d 4a66 893c cd77 74bd
00000290: 8d61 d83d 5632 633c 2d3e 80bc 3550 d53d
000002a0: 3d96 cf3d a3f7 a6bb 89f8 4dbd e5ae 83bd
000002b0: 219b ef3d 6c2e c93c bfdf 26bd 4677 c6bc
000002c0: 9f35 77bd fa0a ff3c 81d5 243d a569 1cbe
000002d0: 6e2b cf3d 5505 a33d 1513 b6bc 9113 9ebd
000002e0: c626 503d a605 b63d e168 553c 9481 d0bc
000002f0: 95bc d13c 45b4 dd3c 9242 98bd 6f43 80bb
00000300: b6bc a23d 8ed5 d03d 2464 df3c 1647 be3c
00000310: 190c eb3c 3bf4 c7bd 1ce3 fc3d 35c6 cf3d
00000320: a7f0 2bbc 84c8 963d 5f27 143e 02d2 c23b
00000330: 4059 d5bb cf61 27bd 57d3 7dbd 4fad 94bd
00000340: a85a 5ebd df3b 79bc 3b3b 9a3d 6b7b ad3d
00000350: 28f1 c5bd 229b 06be 05fc 58bc be40 a63d
00000360: 0ef7 bf3d f98e dcbc ea9b 0f3c 80eb 02bd
00000370: f87a 5ebd ec4b 873d 474b 1cbd f6cf 89bc
00000380: adf8 aabd 2b0c 663d 3d28 663d e88a fa3c
00000390: 54ac 6fbd aa9e a9bd a995 8bbd 6ef1 ce3c
000003a0: 5f1d cb3c fa3c bc3d 3c7c a3bd d492 efbd
000003b0: f036 d53c d655 07bd 247e 65bd cac0 a0bd
000003c0: 9fb5 0c3d bb6a 5ebc defe 043d 4e46 74bd
000003d0: b88a 7abc a2ed 71bd cd0f 3abd 7c09 e43c
000003e0: 534f ccbc d632 543d d88a dcbc 19b2 99bd
000003f0: a796 72bc 219f 26bd 6252 d2bc 369d a3bd

net.0.bias f4 [128]
0.16618766 0.0030372979 0.0147936735 0.05285704 0.14340143 0.048721857 0.008667791 -0.08641405
0.05331383 0.07110945 -0.002002008 -0.014187992 -0.061484214 0.12590964 -0.073394656 -0.05510876
0.042287305 -0.073815994 -0.0070343567 -0.05850156 0.0017242751 -0.10660452 0.042690143 0.10546693
-0.012658035 0.03765986 0.035883754 -0.03917645 -0.071285665 0.09987489 -0.045431025 0.07884105
0.10184462 0.032066174 0.035209317 -0.025414148 -0.13105506 -0.01366366 0.09414242 0.105736375
0.07171739 -0.10957123 0.028935106 0.18617032 -0.038143132 -0.077161975 -0.09432258 0.13148758
-0.072594136 -0.023926822 0.015627833 0.03589333 -0.047119394 0.008155772 0.040145252 -0.09903102
-0.04535828 0.028695408 -0.0002507214 0.019019958 -0.11161473 0.050983828 0.08966745 -0.085532196
-0.014258157 0.0370679 -0.0114179645 0.061058633 -0.05068869 0.021688517 -0.11246651 0.07341075
-0.021561854 0.018108767 0.06373354 -0.10987286 -0.03755194 0.033832718 0.16237544 -0.05136053
0.0018803629 -0.002682097 0.07961844 0.120551616 -0.012763659 0.06484224 -0.11227405 -0.026560657
-0.032805968 0.08598042 0.15413389 -0.005572241 0.00649937 -0.094196275 0.11703003 0.024216175
-0.09125735 0.015650613 0.024167633 0.0034023086 -0.08717945 -0.09468614 -0.08295683 -0.06548754
0.032211192 0.15372576 1.9123105e-05 -0.04907196 -0.09059925 -0.1207554 0.0337296 0.030157171
0.10799053 -0.094522126 -0.07568342 -0.044447344 0.1325349 -0.10766138 0.036511306 -0.07278483
0.034432504 -0.04527408 -0.052649207 0.0021283887 -0.10251069 -0.04271467 -0.064658865 -0.02680183
00000000: 192d 2a3e 670d 473b 2a61 723c a080 583d
00000010: d3d7 123e 9290 473d 5a03 0e3c d9f9 b0bd
00000020: 9a5f 5a3d d5a1 913d 1f34 03bb c074 68bc
00000030: dfd6 7bbd 75ee 003e f04f 96bd b9b9 61bd
00000040: 7435 2d3d d72c 97bd 7680 e6bb 559f 6fbd
00000050: 1201 e23a 7853 dabd dcdb 2e3d 0cff d73d
00000060: a663 4fbc 3a41 1a3d d8fa 123d 7c77 20bd
00000070: 38fe 91bd 358b cc3d e215 3abd 6b77 a13d
00000080: ea93 d03d d257 033d a537 103d 5531 d0bc
00000090: 4c33 06be 8bdd 5fbc becd c03d 508c d83d
000000a0: 91e0 923d e266 e0bd 5109 ed3c 6fa3 3e3e
000000b0: f93b 1cbd 1907 9ebd 322c c1bd aea4 063e
000000c0: 3cac 94bd 2f02 c4bc f105 803c e204 133d
000000d0: 4400 41bd ca9f 053c 596f 243d c7d0 cabd
000000e0: 9bc9 39bd a212 eb3c 4273 83b9 becf 9b3c
000000f0: 4396 e4bd 6bd4 503d 91a3 b73d 812b afbd
00000100: 0c9b 69bc 83d4 173d 6a12 3bbc 9e18 7a3d
00000110: f29e 4fbd 1eac b13c d754 e6bd 6058 963d
00000120: 7ca2 b0bc d658 943c bb86 823d 0605 e1bd
00000130: 10d0 19bd 2d94 0a3d bf45 263e 6b5f 52bd
00000140: 8276 f63a 1fc6 2fbb fe0e a33d c4e3 f63d
00000150: aa1e 51bc 02cc 843d f0ef e5bd bc95 d9bc
00000160: 8d5f 06bd 8116 b03d 46d5 1d3e 5897 b6bb
00000170: abf8 d43b fae9 c0bd 71ad ef3d 0061 c63c
00000180: 22e5 babd b735 803c 33fb c53c 44f9 5e3b
00000190: 248b b2bd cfea c1bd 45e5 a9bd 551e 86bd
000001a0: e2ef 033d 496a 1d3e 8e6a a037 aeff 48bd
000001b0: 198c b9bd 9b4e f7bd 0d28 0a3d 2c0c f73c
000001c0: 242a dd3d d194 c1bd e9ff 9abd 6b0e 36bd
000001d0: 3bb7 073e 927d dcbd e18c 153d 3710 95bd
000001e0: 1909 0d3d 5071 39bd b2a6 57bd 707c 0b3b
000001f0: 20f1 d1bd 94f5 2ebd de6b 84bd 838f dbbc

net.2.weight f4 [192, 128]
-0.062367063 -0.07092394 0.12006157 -0.116776146 -0.015134588 -0.061975125 -0.11701142 0.08795472
0.03098515 0.0056410925 0.019039696 -0.022591148 0.011552602 -0.050444536 0.054018434 -0.003566105
0.09726321 0.026881991 -0.11207261 0.04527794 0.08931897 -0.050096113 -0.072566345 -0.16730437
0.029785587 -0.09686039 -0.10930618 0.01709489 -0.05441395 0.052556954 -0.18086144 -0.10635611
-0.08758523 0.0019445745 -0.120157905 -0.23365411 -0.067733616 -0.044648573 -0.04162592 -0.08238599
-0.09262669 -0.085253395 -0.0386304 -0.1110601 -0.10891105 0.08248733 -0.075386174 -0.056088865
-0.090467446 -0.1091227 -0.19389848 -0.12155578 -0.09475415 -0.12307537 -0.074232966 -0.097193874
0.043191522 -0.11491079 -0.07131832 0.010943412 -0.070633374 -0.03363644 -0.06619138 -0.066087544
0.029771695 0.055912334 0.0042516077 0.011058164 0.0071967007 -0.1437232 -0.079149336 -0.008489753
-0.097840324 0.04990278 -0.103523545 0.057815775 -0.03204633 -0.08053303 -0.12344358 0.08719292
-0.110343195 0.020124903 -0.053664908 -0.043211766 -0.056628775 -0.045656167 0.067452766 -0.08983327
-0.09488684 -0.004636527 -0.109429345 -0.071237765 -0.0052113743 0.057788953 -0.09692575 0.09834326
-0.086097255 -0.06441674 -0.13934425 -0.1291554 -0.06626314 -0.123630986 0.07018271 -0.04206317
0.12045603 -0.04623215 -0.00973876 -0.047212 -0.025061034 -0.04220884 0.07125747 -0.1204474
-0.05174095 -0.18130574 -0.03491284 0.07123221 -0.042506404 -0.11186958 -0.17715831 -0.044706013
-0.043578137 0.13918087 -0.108918816 -0.03005176 -0.13424551 0.13893706 -0.13889919 -0.10740191
0.11074221 0.07714578 -0.0006975966 -0.02223748 0.06460059 0.008037784 0.12973441 0.036424007
0.06145565 -0.02304161 0.072984524 -0.011293125 -0.025319235 0.13075367 -0.04910285 0.009967083
0.052804884 -0.005510919 0.08343011 -0.024865104 -0.050249532 0.009015001 0.11862408 0.16660509
-0.04426124 0.025603294 0.09341365 0.06695483 0.1660171 0.0032504154 0.13253981 0.2717113
0.14304075 -0.0044764644 0.07890123 0.04358193 -0.057854645 -0.043618813 0.14653984 0.021688092
0.12383415 -0.074262336 0.06695459 0.14196524 -0.048883293 0.009237412 0.04120185 0.070872515
0.013120128 0.157981 0.06925192 0.08050529 0.078313224 -0.041033123 -0.062565625 0.031791776
-0.06306623 0.063126296 0.027516551 0.04919716 -0.050978266 0.024076259 0.026113734 0.028271573
-0.059349477 0.18383458 0.04095428 0.05501244 0.08719687 0.17461155 -0.09744283 0.116558455
0.028576596 0.099066235 0.18834981 -0.019948814 -0.013969148 0.07022723 0.08340091 0.09851565
-0.048896573 0.09534236 0.08839402 0.080584615 0.014262546 -0.0040613213 -0.05218415 -0.04918052
-0.059398483 0.14179441 0.12362018 -0.096340716 0.060320754 0.08703541 0.08314055 0.060786948
0.0078053395 0.111054204 0.08995643 0.09418852 0.03876981 -0.121654235 0.021178998 -0.07669884
0.0038068627 0.14087127 -0.0044171633 -0.047351226 -0.022713212 -0.004350027 0.019748034 0.06036056
0.17717385 0.0732972 -0.0029487775 0.02408943 0.085168265 0.062935434 0.04438779 0.0018705231
0.052001372 -0.06989583 0.1408459 -0.055892795 -0.05887088 -0.06435876 -0.007430249 0.08903679
00000000: 9b74 7fbd 9240 91bd d7e2 f53d 5528 efbd
00000010: 10f7 77bc a1d9 7dbd afa3 efbd 9b21 b43d
00000020: 92d4 fd3c ead8 b83b 23f9 9b3c 1211 b9bc
00000030: 2047 3d3c ee9e 4ebd 6f42 5d3d 50b5 69bb
00000040: ef31 c73d 9f37 dc3c 5386 e5bd 5c75 393d
00000050: ddec b63d 9531 4dbd aa9d 94bd d651 2bbe
00000060: e700 f43c bd5e c6bd ebdb dfbd 950a 8c3c
00000070: 29e1 5ebd f645 573d be33 39be 3bd1 d9bd
00000080: e35f b3bd 18e1 fe3a 5915 f6bd 0643 6fbe
00000090: ecb7 8abd 6ce1 36bd f17f 2abd fcb9 a8bd
000000a0: 10b3 bdbd 5599 aebd e93a 1ebd 7a73 e3bd
000000b0: c20c dfbd 1eef a83d 1164 9abd 70bd 65bd
000000c0: ff46 b9bd b97b dfbd 538d 46be 3df2 f8bd
000000d0: 770e c2bd f10e fcbd 7407 98bd 950d c7bd
000000e0: 98e9 303d 5956 ebbd 570f 92bd ff4b 333c
000000f0: 3ba8 90bd 5dc6 09bd 598f 87bd e858 87bd
00000100: c5e3 f33c 5504 653d 1251 8b3b 4d2d 353c
00000110: 4dd2 eb3b 2d2c 13be 0c19 a2bd 9b18 0bbc
00000120: 8260 c8bd dc66 4c3d 2704 d4bd 3cd0 6c3d
00000130: 0343 03bd 80ee a4bd fdcf fcbd 3492 b23d
00000140: 9dfb e1bd fbdc a43c bccf 5bbd d2fe 30bd
00000150: 93f3 67bd f601 3bbd ad24 8a3d 81fa b7bd
00000160: 0854 c2bd 02ee 97bb 7e1c e0bd 1be5 91bd
00000170: 2dc4 aabb 1cb4 6c3d 0281 c6bd 3168 c93d
00000180: c253 b0bd ecec 83bd 42b0 0ebe 5041 04be
00000190: f8b4 87bd 3e32 fdbd f4bb 8f3d 6e4a 2cbd
000001a0: a7b1 f63d ec5d 3dbd 528f 1fbc 5f61 41bd
000001b0: cc4c cdbc 2de3 2cbd 70ef 913d 20ad f6bd
000001c0: 52ee 53bd 36a8 39be c400 0fbd 31e2 913d
000001d0: 321b 2ebd e11b e5bd fd68 35be a71d 37bd
000001e0: fd7e 32bd 6e85 0e3e d410 dfbd 1c2f f6bc
000001f0: a877 09be 8445 0e3e 973b 0ebe 88f5 dbbd
00000200: d0cc e23d 9bfe 9d3d eade 36ba 602b b6bc
00000210: 504d 843d e9b0 033c 19d9 043e 5731 153d
00000220: ebb8 7b3d c2c1 bcbc e978 953d cd06 39bc
00000230: 496a cfbc 4ae4 053e 1220 49bd fa4c 233c
00000240: ef49 583d f094 b4bb 68dd aa3d e7b1 cbbc
00000250: 74d2 4dbd a8b3 133c 2ff1 f23d 869a 2a3e
00000260: 464b 35bd 00be d13c a84f bf3d 9d1f 893d
00000270: 6300 2a3e ec04 553b 84b8 073e be1d 8b3e
00000280: 4679 123e 4eaf 92bb f896 a13d f782 323d
00000290: fef8 6cbd a4a9 32bd 8a0e 163e 3aab b13c
000002a0: c29c fd3d da16 98bd 7d1f 893d 565f 113e
000002b0: d939 48bd 8458 173c 45c3 283d 9c25 913d
000002c0: cef5 563c c5c5 213e f3d3 8d3d f5df a43d
000002d0: af62 a03d 5912 28bd 6822 80bd 1838 023d
000002e0: de28 81bd 5c48 813d 646a e13c f682 493d
000002f0: 96ce 50bd 933b c53c 78ec d53c c999 e73c
00000300: 7018 73bd 223f 3c3e adbf 273d b954 613d
00000310: 4694 b23d 5fcd 323e 1b90 c7bd 33b6 ee3d
00000320: 7719 ea3c 3de3 ca3d c6de 403e b26b a3bc
00000330: dade 64bc 4bd3 8f3d 19ce aa3d 93c2 c93d
00000340: c647 48bd db42 c33d ed07 b53d 8c09 a53d
00000350: 74ad 693c d514 85bb 0cbf 55bd 8371 49bd
00000360: d34b 73bd 8e32 113e 942c fd3d 484e c5bd
00000370: e512 773d 9f3f b23d 9845 aa3d bcfb 783d
00000380: efc3 ff3b 6370 e33d 143b b83d e9e5 c03d
00000390: 18cd 1e3d db25 f9bd 947f ad3c 4814 9dbd
000003a0: 8f7c 793b 8f40 103e dabd 90bb 5cf3 41bd
000003b0: 0f11 babc ac8a 8ebb a1c6 a13c a23c 773d
000003c0: 106d 353e d81c 963d 4740 41bb 3257 c53c
000003d0: b36c ae3d 4be4 803d f9cf 353d 572c f53a
000003e0: 64ff 543d 8b25 8fbd e839 103e d8ef 64bd
000003f0: 9822 71bd 87ce 83bd 7279 f3bb ec58 b63d

net.2.bias f4 [192]
-0.012345861 0.15717773 0.027862981 0.06323258 -0.038806263 -0.0069326297 0.009871945 -0.038634095
-0.13073693 0.02854298 -0.017311556 -0.11931261 -0.007461506 0.02051194 -0.038407724 0.01271623
0.09776598 -0.008749103 -0.010928618 0.10142096 -0.04019027 0.0005274866 -0.0504098 0.06029445
0.058513667 0.13372163 0.041595943 0.18931776 -0.007074979 -0.04730378 -0.08030116 -0.029955931
0.050586846 -0.0063163447 0.15944089 0.0134624615 0.011487605 0.01642053 -0.09778962 0.01963746
-0.0798147 -0.08517487 0.066146776 0.10125406 0.0012772374 -0.06082421 -0.12590401 -0.06536755
0.08552555 -0.060895782 -0.01814863 0.09562472 0.0128777055 -0.028409705 0.08400954 0.039760094
-0.04195361 -0.087253824 0.019856505 -0.0956505 -0.009729652 0.0046554203 0.035229 -0.025200706
-0.109826624 -0.059428778 -0.09121677 -0.019318629 0.037951764 -0.1329987 0.10252217 -0.08733058
-0.03513009 -0.049635585 0.034861412 -0.0030402679 0.03182281 0.08815748 0.20307465 0.014176818
-0.012971827 0.074668914 -0.027440669 0.00087094 -0.082469344 -0.06004816 0.030644033 -0.017158058
-0.08369995 0.07613739 0.013436907 0.10783775 -0.05997055 0.08638996 -0.040148653 -0.017568208
0.087194696 -0.09690755 -0.046256755 0.039659496 -0.04144653 -0.06918171 0.024142578 -0.07321637
0.15771724 -0.005500067 0.08119608 -0.08204268 0.06702154 -0.014562192 -0.012495749 -0.062364604
-0.040065933 0.06452389 0.11050792 0.0464937 0.037794918 -0.08929746 0.049296897 -0.06351539
-0.12739997 -0.013726875 -0.008360093 0.0003231534 0.00022927955 -0.042079363 -0.013950546 0.059038978
0.02566261 0.10420911 -0.035146832 -0.046660714 -0.04009671 -0.062478743 -0.09620657 0.040747564
-0.01946321 0.12221688 -0.02142189 -0.015214269 -0.09619829 -0.0105679445 -0.0073009096 0.0024555814
0.13859862 -0.025749968 0.08327472 0.2302254 0.13030477 -0.080538444 0.011014796 0.077584825
0.06929744 0.08775098 0.08452819 -0.008692401 0.0848311 0.06592437 0.04942876 0.17230418
0.08926301 0.018307876 -0.0422572 0.023294816 0.011819312 -0.03965705 -0.0016102921 0.09705079
-0.008631487 0.03398507 -0.05586457 0.07082854 -0.009031323 -0.085204996 0.066328354 2.745113e-05
-0.031611495 0.12863411 0.0361233 0.031208597 0.09965278 0.0016327528 0.028820397 -0.0029477645
-0.12008504 0.024254123 -0.007862755 -0.0674235 -0.09910087 -0.01195591 0.014238212 -0.05660052
00000000: 4b46 4abc 33f3 203e e840 e43c 1580 813d
00000010: 51f3 1ebd 1d2b e3bb f0bd 213c c93e 1ebd
00000020: e7df 05be f8d2 e93c f7d0 8dbc 2b5a f4bd
00000030: a67f f4bb a808 a83c 6b51 1dbd bc57 503c
00000040: 8839 c83d 6658 0fbc f20d 33bc cbb5 cf3d
00000050: 8d9e 24bd 0747 0a3a 827a 4ebd 50f7 763d
00000060: 07ac 6f3d 53ee 083e 8260 2a3d 84dc 413e
00000070: 3ad5 e7bb 9cc1 41bd ef74 a4bd 2466 f5bc
00000080: 2734 4f3d 57f9 cebb 7944 233e a891 5c3c
00000090: 8236 3c3c 5984 863c ed45 c8bd bdde a03c
000000a0: e475 a3bd 2a70 aebd f677 873d 4a5e cf3d
000000b0: fa68 a73a cf22 79bd fbec 00be 6cdf 85bd
000000c0: 0528 af3d db6d 79bd 70ac 94bc e5d6 c33d
000000d0: 03fd 523c 78bb e8bc 320d ac3d 7bdb 223d
000000e0: 8cd7 2bbd 22b2 b2bd 1caa a23c 69e4 c3bd
000000f0: 1e69 1fbc 7f8c 983b 494c 103d b671 cebc
00000100: c8ec e0bd 976b 73bd dccf babd 1a42 9ebc
00000110: 4f73 1b3d d030 08be 25f7 d13d 60da b2bd
00000120: 92e4 0fbd af4e 4bbd d7ca 0e3d 3b3f 47bb
00000130: a358 023d e98b b43d cdf2 4f3e e245 683c
00000140: c987 54bc 04ec 983d 41cb e0bc cb4f 643a
00000150: b0e5 a8bd 0ff5 75bd 3209 fb3c 0e8f 8cbc
00000160: e16a abbd eced 9b3d 7926 5c3c 0ada dc3d
00000170: aea3 75bd 38ed b03d ea72 24bd 34eb 8fbc
00000180: 2293 b23d 7777 c6bd b977 3dbd ff71 223d
00000190: d6c3 29bd 24af 8dbd a8c6 c53c 77f2 95bd
000001a0: a180 213e e839 b4bb 214a a63d fe05 a8bd
000001b0: 9742 893d 4396 6ebc f8ba 4cbc 0772 7fbd
000001c0: 2d1c 24bd 1a25 843d fa51 e23d 2e70 3e3d
000001d0: d8ce 1a3d 96e1 b6bd 8beb 493d 5b14 82bd
000001e0: 2375 02be b0e6 60bc c6f8 08bc ea6c a939
000001f0: c36a 7039 695b 2cbd d590 64bc dbd2 713d
00000200: 653a d23c 966b d53d 20f6 0fbd 4e1f 3fbd
00000210: 733c 24bd b6e9 7fbd f307 c5bd ebe6 263d
00000220: 4f71 9fbc d84c fa3d f67c afbc 4545 79bc
00000230: 9c03 c5bd 2c25 2dbc 783c efbb d2ed 203b
00000240: ccec 0d3e 99f1 d2bc f08b aa3d 35c0 6b3e
00000250: 9d6e 053e 57f1 a4bd 6777 343c cbe4 9e3d
00000260: d1eb 8d3d c9b6 b33d 1e1d ad3d 936a 0ebc
00000270: eebb ad3d 5b03 873d d075 4a3d 8270 303e
00000280: 86cf b63d 66fa 953c e315 2dbd c5d4 be3c
00000290: caa5 413c 6e6f 22bd 7010 d3ba 91c2 c63d
000002a0: 156b 0dbc ee33 0b3d 3fd2 64bd 8e0e 913d
000002b0: 1df8 13bc f57f aebd 29d7 873d da46 e637
000002c0: 0e7b 01bd a9b8 033e 07f6 133d 2ca9 ff3c
000002d0: c216 cc3d 1802 d63a c118 ec3c 482f 41bb
000002e0: 25ef f5bd 95b0 c63c c9d2 00bc 5515 8abd
000002f0: 66f5 cabd b9e2 43bc 6447 693c f2d5 67bd

exp_avg f4 [128, 142]
0.028407037 0.02614901 0.028373053 0.03705241 0.034249976 -0.003198756 -0.000791973 -2.7567794e-05
-0.005069663 -0.0073107043 -0.0053956346 0.0016031276 -0.0028248355 0.0405883 0.036196142 0.03855535
0.036014907 0.033815034 0.035300635 -0.005458585 -0.0050367927 0.040006317 0.033590414 0.033942576
-0.0012945975 -0.0038050981 -0.0021133898 -0.0053840857 -0.0069398447 0.031638626 -0.005575354 -0.007578236
0.0325854 0.03535472 0.032585945 0.02993846 0.029736608 0.03051027 6.762049e-05 0.039475884
0.023598777 0.023914449 0.02338574 -0.0028001396 0.038828623 0.038004294 0.039388817 0.039466362
0.025887934 0.02370001 0.026177451 -0.002549148 0.039432615 0.038033225 0.039418824 0.039469074
0.026543617 0.026533952 0.026650509 8.481796e-05 0.03952925 0.038125582 0.039390836 0.039389186
-0.009977771 0.029815825 -0.00980534 -0.0017280307 -0.0017280064 0.031461522 0.0282626 -0.009935535
0.0 0.0 -0.002140193 -0.0065579815 -0.0051327758 0.0 0.0 0.0031889146
0.0 0.0 0.0 0.0 -1.0571764e-05 0.0 0.0 0.0
0.0 0.028607707 0.02779075 0.030579668 0.03563894 3.3030094e-06 -0.0065957746 -0.008215196
-0.005169644 0.0 0.0 0.00033460124 -0.0002885101 0.0027618993 0.0 0.0
-0.00021061325 0.0 0.0 0.0 0.0 -0.0001696187 0.0 0.0
0.0 0.0 0.039379317 0.039989024 0.036421686 0.03651581 0.03651587 0.0028535612
0.0030660692 -0.000109414555 0.0 0.0 -0.0006050583 9.731536e-06 -1.253885e-05 0.0
0.0 -0.00024311684 0.0 0.0 0.0 0.0 -0.00024314193 0.0
0.0 0.0 0.0 0.010295589 0.0065295952 0.0055655143 -0.0010650287 -0.0018413527
-0.0010505129 -0.0011058078 -0.0016313166 -0.0063460087 -0.0012837049 -1.6622293e-05 5.3553827e-06 -0.00082015427
-0.0015637332 0.0006830508 -0.00061894173 0.0028386107 0.001501958 0.0003091426 0.0036617669 0.0028848131
0.002300835 -0.00088496384 -0.00044170127 0.0022131684 0.001507708 0.0010516435 0.0021418727 0.0030329297
0.002582361 -0.0025691884 -0.0017807167 0.0013457553 -0.008195295 -0.0074563 0.0030570063 0.0023090092
0.0031142398 -0.0026395523 -0.00010164993 0.0010134546 1.1227635e-05 0.0041051228 -0.00034457643 -0.0020952981
-0.0018960353 0.00079860573 0.0031444952 0.006199981 0.0041022995 0.0041037346 -0.00094981067 -0.00033788406
-0.0027079363 -0.0010162916 0.0029540162 0.005046798 0.0029520278 0.004104214 -0.0010708146 -0.0010650383
-0.0021118876 -0.00106823 0.0030603777 0.005147733 0.004100235 0.0041009877 -0.0026251564 0.0042706435
-9.4140605e-06 -6.265285e-07 -6.078648e-07 0.0017169527 0.0057030525 0.0004066044 0.0 0.0
-0.0029493775 -0.00018005699 -8.0298344e-07 0.0 0.0 -0.0017428992 0.0 0.0
0.0 0.0 6.322622e-07 0.0 0.0 0.0 0.0 -0.0017738858
-0.00031076808 -0.00055080425 0.004915647 5.337583e-07 -0.00591439 -0.004336737 -0.0055108066 0.0
0.0 -0.0034446374 -0.0020643151 -0.0031935526 0.0 0.0 -0.0012975055 0.0
0.0 0.0 0.0 -0.0012973701 0.0 0.0 0.0 0.0
00000000: e0b5 e83c 7336 d63c 9b6e e83c 45c4 173d
00000010: b449 0c3d 38a2 51bb 699c 4fba 6341 e7b7
00000020: 6a1f a6bb a28e efbb ddcd b0bb 0920 d23a
00000030: e020 39bb eb3f 263d 6842 143d 37ec 1d3d
00000040: 5e84 133d a281 0a3d 6697 103d eedd b2bb
00000050: ae0b a5bb aadd 233d 1a96 093d 5f07 0b3d
00000060: 7caf a9ba f45e 79bb cc80 0abb fc6c b0bb
00000070: a367 e3bb 8197 013d 76b1 b6bb da52 f8bb
00000080: 4578 053d 1cd0 103d d778 053d 8041 f53c
00000090: 309a f33c acf0 f93c 79cf 8d38 77b1 213d
000000a0: 3952 c13c 3ce8 c33c 7493 bf3c 8c82 37bb
000000b0: c30a 1f3d 64aa 1b3d 2b56 213d 7ba7 213d
000000c0: ef12 d43c 8626 c23c 1872 d63c 9b0f 27bb
000000d0: 1884 213d bac8 1b3d a275 213d 53aa 213d
000000e0: 0072 d93c bb5d d93c 2b52 da3c 4ce0 b138
000000f0: 6ce9 213d 9229 1c3d 4958 213d 8e56 213d
00000100: ce79 23bc 5140 f43c 94a6 20bc 177f e2ba
00000110: 467e e2ba ccdd 003d f886 e73c a7c8 22bc
00000120: 0000 0000 0000 0000 7b42 0cbb 56e4 d6bb
00000130: d830 a8bb 0000 0000 0000 0000 1cfd 503b
00000140: 0000 0000 0000 0000 0000 0000 0000 0000
00000150: 615d 31b7 0000 0000 0000 0000 0000 0000
00000160: 0000 0000 b65a ea3c 6da9 e33c 3682 fa3c
00000170: 23fa 113d 45a9 5d36 5e21 d8bb 0899 06bc
00000180: 1e66 a9bb 0000 0000 0000 0000 6b6d af39
00000190: 2c43 97b9 fb00 353b 0000 0000 0000 0000
000001a0: 10d8 5cb9 0000 0000 0000 0000 0000 0000
000001b0: 0000 0000 acdb 31b9 0000 0000 0000 0000
000001c0: 0000 0000 0000 0000 354c 213d 88cb 233d
000001d0: e82e 153d 9a91 153d aa91 153d d002 3b3b
000001e0: 1bf0 483b 7e75 e5b8 0000 0000 0000 0000
000001f0: c69c 1eba a144 2337 f35d 52b7 0000 0000
00000200: 0000 0000 2eed 7eb9 0000 0000 0000 0000
00000210: 0000 0000 0000 0000 eaf3 7eb9 0000 0000
00000220: 0000 0000 0000 0000 0000 0000 d5ae 283c
00000230: 37f6 d53b eb5e b63b 6f98 8bba 8b59 f1ba
00000240: 5db1 89ba c1f0 90ba e7d1 d5ba 2ef2 cfbb
00000250: fd41 a8ba 1a70 8bb7 63b2 b336 9fff 56ba
00000260: 2ef6 ccba c30e 333a 7a40 22ba fc07 3a3b
00000270: 59dd c43a 6b14 a239 41fa 6f3b 220f 3d3b
00000280: 9bc9 163b ebfc 67ba 2494 e7b9 ce0a 113b
00000290: 499e c53a 4dd7 893a a95e 0c3b 1ec4 463b
000002a0: d43c 293b d45f 28bb f066 e9ba 0e64 b03a
000002b0: 8f45 06bc fa53 f4bb 0e58 483b bf52 173b
000002c0: 4618 4c3b 57fc 2cbb e42c d5b8 e5d5 843a
000002d0: 535e 3c37 4484 863b 44a8 b4b9 4551 09bb
000002e0: 6384 f8ba 8659 513a e013 4e3b 3629 cb3b
000002f0: 956c 863b 9f78 863b b7fc 78ba 0826 b1b9
00000300: a277 31bb 1635 85ba 2b98 413b 9c5f a53b
00000310: cf76 413b a47c 863b 935a 8cba c198 8bba
00000320: 9867 0abb da03 8cba 9e90 483b 50ae a83b
00000330: 445b 863b 9461 863b d10a 2cbb c1f0 8b3b
00000340: 15f1 1db7 b62e 28b5 272c 23b5 5f0b e13a
00000350: ace0 ba3b 852d d539 0000 0000 0000 0000
00000360: 584a 41bb aecd 3cb9 9a8c 57b5 0000 0000
00000370: 0000 0000 fe71 e4ba 0000 0000 0000 0000
00000380: 0000 0000 0000 0000 bab8 2935 0000 0000
00000390: 0000 0000 0000 0000 0000 0000 bb81 e8ba
000003a0: 96ee a2b9 d963 10ba 7013 a13b 9747 0f35
000003b0: 80cd c1bb 301b 8ebb ff93 b4bb 0000 0000
000003c0: 0000 0000 6dbf 61bb 7649 07bb ec4a 51bb
000003d0: 0000 0000 0000 0000 0f11 aaba 0000 0000
000003e0: 0000 0000 0000 0000 0000 0000 840c aaba
000003f0: 0000 0000 0000 0000 0000 0000 0000 0000

exp_avg_sq f4 [128, 142]
0.008756446 0.015039487 0.012134143 0.011985839 0.011447714 0.008239603 0.0053498005 0.00379821
0.0066857473 0.012309414 0.010458571 0.010892222 0.01287709 0.013410104 0.013590295 0.009145789
0.011382811 0.011475529 0.010773794 0.010270154 0.010090343 0.010092223 0.012280715 0.007613546
0.008093701 0.013885885 0.0108293 0.016187303 0.011327784 0.013766822 0.011404342 0.009742853
0.011786884 0.012980269 0.010431655 0.015433001 0.013690709 0.012510626 0.0065107094 0.0062836558
0.014460077 0.014664067 0.014676276 0.009720019 0.01275548 0.010963112 0.01094502 0.00820053
0.009981256 0.010077883 0.007957542 0.006598469 0.009389513 0.009580258 0.007890146 0.006847003
0.008596006 0.007797773 0.008648599 0.0047515705 0.007503371 0.008192721 0.008592384 0.0051432103
0.013837871 0.0092794085 0.007146495 0.0035727837 0.0012404108 0.0101270145 0.0068104714 0.0031281253
0.0 0.0 0.0067929863 0.003204464 0.0019959738 0.0 0.0 0.0016915313
0.0 0.0 0.0 0.0 0.0008901574 0.0 0.0 0.0
0.0 0.015419834 0.011265533 0.010101365 0.0009810687 0.00047301626 0.012079378 0.009228781
0.007728365 0.0 0.0 0.007647185 0.0052429 0.0035201113 0.0 0.0
0.0021839503 0.0 0.0 0.0 0.0 0.0018652879 0.0 0.0
0.0 0.0 0.010524328 0.007857597 0.0061706733 0.00093677366 0.00076558493 0.01022568
0.007608494 0.004669922 0.0 0.0 0.0077046724 0.0045488356 0.002624765 0.0
0.0 0.0008808432 0.0 0.0 0.0 0.0 0.00071635057 0.0
0.0 0.0 0.0 0.17186676 0.0111651225 0.41794962 0.005511727 0.008978215
0.008859823 0.008341853 0.0060411952 0.005544019 0.004662086 0.0029302274 0.0048343916 0.0076949135
0.007494821 0.00686495 0.0066713467 0.007239895 0.008423785 0.005405504 0.008104664 0.0071073323
0.0073401043 0.007614175 0.006339203 0.0054254257 0.007453947 0.005134813 0.0056371265 0.007454098
0.0061694486 0.00978982 0.0074717104 0.0083505465 0.007867447 0.0075489804 0.008408168 0.008338211
0.006247357 0.008036903 0.008480116 0.008303995 0.0061233216 0.0051612626 0.008471892 0.010384131
0.008355149 0.0057652155 0.006594596 0.0063641216 0.006587686 0.005021272 0.007752408 0.008136943
0.006467436 0.00510758 0.005722717 0.0064754793 0.0050058244 0.005007044 0.0059123803 0.0047776415
0.0052285003 0.0040190397 0.004454547 0.0053830445 0.0048347437 0.0036196173 0.008699646 0.0055910293
0.0043876753 0.0015960601 0.00045482913 0.0062785763 0.0033024342 0.0020583593 0.0 0.0
0.0048557892 0.0019326227 0.0017814572 0.0 0.0 0.0015307982 0.0 0.0
0.0 0.0 0.0013769544 0.0 0.0 0.0 0.0 0.00852367
0.0065920027 0.0054787095 0.00051715656 0.00035921388 0.0066909217 0.0056009474 0.0045237825 0.0
0.0 0.0046098833 0.0028802697 0.0022557504 0.0 0.0 0.0016755653 0.0
0.0 0.0 0.0 0.0015165232 0.0 0.0 0.0 0.0
00000000: 3277 0f3c 2e68 763c 49ce 463c 4160 443c
00000010: 318f 3b3c 66ff 063c 614d af3b 64eb 783b
00000020: 1d14 db3b 6dad 493c 6d5a 2b3c 4a75 323c
00000030: 6efa 523c 0eb6 5b3c d4a9 5e3c 38d8 153c
00000040: f87e 3a3c db03 3c3c 9184 303c 2644 283c
00000050: f751 253c da59 253c 0d35 493c 0e7b f93b
00000060: 719b 043c 9f81 633c 606d 313c 3c9b 843c
00000070: 2b98 393c 3d8e 613c 47d9 3a3c 7da0 1f3c
00000080: c61d 413c 32ab 543c 88e9 2a3c b3da 7c3c
00000090: ff4e 603c 5ef9 4c3c ca57 d53b 20e7 cd3b
000000a0: f5e9 6c3c 8e41 703c c374 703c b740 1f3c
000000b0: 5cfc 503c a09e 333c be52 333c 845b 063c
000000c0: 6c88 233c b41d 253c 5a60 023c f837 d83b
000000d0: 79d6 193c 84f6 1c3c ac45 013c d35c e03b
000000e0: 43d6 0c3c 7684 ff3b dab2 0d3c 10b3 9b3b
000000f0: d7de f53b c33a 063c 12c7 0c3c 6088 a83b
00000100: 3db8 623c a908 183c 252d ea3b 5d25 6a3b
00000110: 4895 a23a c7eb 253c 602a df3b 3c01 4d3b
00000120: 0000 0000 0000 0000 b397 de3b fc01 523b
00000130: e2ce 023b 0000 0000 0000 0000 5fb6 dd3a
00000140: 0000 0000 0000 0000 0000 0000 0000 0000
00000150: 7459 693a 0000 0000 0000 0000 0000 0000
00000160: 0000 0000 79a3 7c3c 1293 383c 3280 253c
00000170: 3497 803a 2bff f739 95e8 453c 5034 173c
00000180: 393e fd3b 0000 0000 0000 0000 3d95 fa3b
00000190: a2cc ab3b abb1 663b 0000 0000 0000 0000
000001a0: 9b20 0f3b 0000 0000 0000 0000 0000 0000
000001b0: 0000 0000 ad7c f43a 0000 0000 0000 0000
000001c0: 0000 0000 0000 0000 3b6e 2c3c 27bd 003c
000001d0: 5c33 ca3b d191 753a 89b1 483a 9c89 273c
000001e0: ac50 f93b 2506 993b 0000 0000 0000 0000
000001f0: 7a77 fc3b 660e 953b 4004 2c3b 0000 0000
00000200: 0000 0000 63e8 663a 0000 0000 0000 0000
00000210: 0000 0000 0000 0000 79c9 3b3a 0000 0000
00000220: 0000 0000 0000 0000 0000 0000 d7fd 2f3e
00000230: ebed 363c 7efd d53e b89b b43b 5d19 133c
00000240: cb28 113c 44ac 083c 38f5 c53b 9aaa b53b
00000250: 69c4 983b 0f09 403b d169 9e3b 9d25 fc3b
00000260: 1e97 f53b 60f3 e03b 509b da3b a43c ed3b
00000270: ea03 0a3c a720 b13b 6dc9 043c a0e4 e83b
00000280: 4285 f03b 5480 f93b 17b9 cf3b c5c7 b13b
00000290: 3d40 f43b ef41 a83b a5b7 b83b 8241 f43b
000002a0: 1629 ca3b 7b65 203c 40d5 f43b bbd0 083c
000002b0: 77e6 003c 705d f73b 6ac2 093c fe9c 083c
000002c0: a1b6 cc3b 37ad 033c 2ff0 0a3c 7b0d 083c
000002d0: 25a6 c83b cf1f a93b b1cd 0a3c 3422 2a3c
000002e0: 09e4 083c 22ea bc3b 7b17 d83b 1f8a d03b
000002f0: 84dd d73b 7c89 a43b e907 fe3b d050 053c
00000300: c9ec d33b 7d5d a73b a185 bb3b 4230 d43b
00000310: e607 a43b 2112 a43b a4bc c13b c38d 9c3b
00000320: d753 ab3b 26b2 833b 73f7 913b 4064 b03b
00000330: c56c 9e3b 1a37 6d3b f688 0e3c f434 b73b
00000340: 7dc6 8f3b e432 d13a 2276 ee39 84bc cd3b
00000350: a76d 583b 8ae5 063b 0000 0000 0000 0000
00000360: 501d 9f3b 0f50 fd3a c97f e93a 0000 0000
00000370: 0000 0000 10a5 c83a 0000 0000 0000 0000
00000380: 0000 0000 0000 0000 ec7a b43a 0000 0000
00000390: 0000 0000 0000 0000 0000 0000 dda6 0b3c
000003a0: ba01 d83b bf86 b33b ca91 073a df54 bc39
000003b0: 853f db3b 2788 b73b 3d3c 943b 0000 0000
000003c0: 0000 0000 810e 973b e8c2 3c3b 36d5 133b
000003d0: 0000 0000 0000 0000 a49e db3a 0000 0000
000003e0: 0000 0000 0000 0000 0000 0000 13c6 c63a
000003f0: 0000 0000 0000 0000 0000 0000 0000 0000

exp_avg f4 [128]
0.024391849 -0.0019580335 7.555087e-18 7.767069e-05 -0.005521663 0.08789356 0.026582595 6e-45
-0.007972706 0.00011222152 3.8477733e-18 1.8882403e-28 8.804813e-14 -0.043595538 6e-45 2.6452797e-16
4.1766183e-30 1.1990208e-12 0.0021180192 1.4716322e-26 4.2513733e-26 -0.0021316302 -0.04997833 0.008935389
-6e-45 -1.0719332e-21 -0.0073219375 4.5398406e-20 -0.07621011 0.016157962 0.010950769 -0.03328172
0.023336805 1.4857566e-05 0.023418264 0.055863045 0.00080667506 3.699789e-36 0.021595288 -0.017747588
-0.03285664 0.0016318675 0.0045282436 0.018669676 5.1117756e-18 0.0006080308 1.6820055e-28 -0.023512091
9.385496e-06 -0.10746583 0.018474154 -0.030745031 -4.9623566e-07 -1.2993042e-05 -6.210411e-05 0.0005386292
6e-45 0.00011570061 -0.003688531 -0.000977631 6e-45 -9.662444e-05 0.049126364 2.155265e-24
8.2081544e-07 0.0058840765 6e-45 0.03882012 8.419513e-12 0.0026282566 5.924855e-24 -2.7293514e-05
2.5682246e-07 -0.00092027715 -0.03709817 6e-45 -3.66785e-06 0.020298775 0.023554305 1.5145187e-07
0.00024610505 -0.040531345 -0.0046864813 0.062278926 -0.00040667542 0.03470585 1.1191325e-24 -4.9822775e-05
-0.0011357936 -0.057590418 -0.022625554 0.053531315 -0.00019450525 3.99148e-08 0.03578897 6e-45
-5.769214e-31 0.00036845947 -0.011931333 0.0076421183 8.759023e-09 -6.7062206e-07 6e-45 3.607358e-27
-0.023540605 -0.031066952 3.354742e-07 -1.699812e-05 6e-45 6e-45 -4.00897e-40 0.021171737
-0.021977356 0.024832416 2.4923919e-26 6.684082e-19 0.028680637 -0.0003435616 0.05825084 -2.6797154e-06
-0.05308332 6e-45 -0.0011736712 -0.005210859 7.567981e-20 5.737737e-39 -1.416638e-29 0.019869259
00000000: 6ad1 c73c 5a52 00bb e45d 0b23 22e3 a238
00000010: 11ef b4bb 8a01 b43d bec3 d93c 0400 0000
00000020: f49f 02bc 7858 eb38 31f5 8d22 e75c 6f11
00000030: 4b44 c629 3c91 32bd 0400 0000 707d 9825
00000040: 7c6c a90e 47bf a82b 77ce 0a3b 4fbe 9114
00000050: 8f84 5215 d2b2 0bbb 14b6 4cbd bd65 123c
00000060: 0400 0080 68fc a19c ddec efbb 4e63 561f
00000070: 0c14 9cbd b45d 843c db6a 333c 6a52 08bd
00000080: d42c bf3c c344 7937 a9d7 bf3c a6d0 643d
00000090: 0c77 533a 225f 9d04 9ae8 b03c 6463 91bc
000000a0: af94 06bd 63e4 d53a a961 943b 26f1 983c
000000b0: 5b97 bc22 4264 1f3a 3338 5511 6e9c c0bc
000000c0: 6676 1d37 0c17 dcbd 1c57 973c 01dd fbbc
000000d0: 0e35 05b5 b1fc 59b7 e43d 82b8 cb32 0d3a
000000e0: 0400 0000 4ba4 f238 48bb 71bb da23 80ba
000000f0: 0400 0000 daa2 cab8 ba38 493d 6cc1 2618
00000100: 0256 5c35 36cf c03b 0400 0000 d901 1f3d
00000110: 1e1e 142d d43e 2c3b ec34 e518 60f4 e4b7
00000120: 69e1 8934 c13e 71ba 40f4 17bd 0400 0000
00000130: 2f25 76b6 9e49 a63c f5f4 c03c c69e 2234
00000140: a907 8139 3204 26bd 0e91 99bb 3018 7f3d
00000150: 0d37 d5b9 b927 0e3d 682d ad17 ccf8 50b8
00000160: e9de 94ba eee3 6bbd 3a59 b9bc a743 5b3d
00000170: 1bf4 4bb9 c96e 2b33 7497 123d 0400 0000
00000180: c138 3b8d cb2d c139 a37b 43bc bc6a fa3b
00000190: 977a 1632 cc04 34b5 0400 0000 f5e6 8e13
000001a0: 3ad8 c0bc 1f80 febc 391b b434 2f97 8eb7
000001b0: 0400 0000 0400 0000 8a5d 0480 5a70 ad3c
000001c0: db09 b4bc 5a6d cb3c a4d5 f614 7f47 4521
000001d0: a8f3 ea3c 0f20 b4b9 6f98 6e3d 29d5 33b6
000001e0: e56d 59bd 0400 0000 dfd5 99ba dabf aabb
000001f0: a3b1 b21f 7a7a 3e00 06aa 8f8f dbc4 a23c

exp_avg_sq f4 [128]
0.022049498 0.0132718505 6.0638886e-05 0.00065756787 0.017070511 0.01391406 0.016058259 1.4878834e-05
0.006144908 0.009038465 0.00094400975 0.00013339236 0.0015588508 0.01615684 5.4835244e-05 0.0002151161
4.620652e-05 0.0006254873 0.016976679 0.00030086108 4.349874e-05 0.0027499667 0.015777698 0.020764356
5.9895e-05 0.00040841667 0.015510481 0.00071483443 0.01851795 0.019068608 0.012176587 0.022308588
0.018592324 0.00120417 0.017763061 0.01794881 0.0006652687 0.00018309361 0.02119505 0.022010162
0.0054967795 0.0008922676 0.008200627 0.023720752 0.00064113765 0.0002387797 5.823037e-05 0.027801309
0.00115788 0.0093364045 0.024710093 0.01958247 0.00067376974 0.0008353723 0.0028104654 0.002036934
0.00024390097 0.0024823656 0.017757187 0.0026509808 9.997527e-06 0.00021113633 0.017501542 5.9152862e-05
0.0010853186 0.0024463586 2.5083174e-05 0.024792744 0.00040415535 0.016456248 1.9698404e-05 0.0056185992
0.00027102293 0.010845788 0.0209212 2.2169826e-05 0.00023780503 0.018411363 0.021505982 0.005234483
0.0012735042 0.023004519 0.024441477 0.021608632 0.0025537477 0.016382 7.743645e-05 0.0005944147
0.014301429 0.02131683 0.029489575 0.00047624265 0.0006346221 0.00036776677 0.015908536 0.00060805795
1.5289444e-05 0.014487447 0.016687695 0.015632309 0.00067823025 0.0002500807 1.1633559e-05 4.7164798e-05
0.015031397 0.025732668 0.000923537 0.0011692067 2.258336e-06 0.00012002754 5.5747954e-05 0.024543278
0.024111515 0.019038416 0.00042435076 2.5788828e-05 0.024121182 0.00994148 0.026320593 0.0028724724
0.012318828 9.561438e-06 0.010368366 0.0041132504 0.00032171787 4.552e-05 0.0012273577 0.016398229
00000000: 26a1 b43c 2d72 593c 8256 7e38 a260 2c3a
00000010: 75d7 8b3c ccf7 633c 9c8c 833c 1ba0 7937
00000020: 395b c93b 1216 143c 6c77 773a 3ddf 0b39
00000030: 5a52 cc3a 595b 843c e5fe 6538 ca90 6139
00000040: e0cd 4138 bef7 233a ad12 8b3c e4bc 9d39
00000050: 6b72 3638 c938 343b 3b40 813c 031a aa3c
00000060: c437 7b38 c220 d639 ac1f 7e3c ba63 3b3a
00000070: f5b2 973c c535 9c3c 4f80 473c 80c0 b63c
00000080: ee4e 983c 3ed5 9d3a d783 913c 6209 933c
00000090: 6d65 2e3a d1fc 3f39 3ea1 ad3c a84e b43c
000000a0: 541e b43b 11e7 693a ec5b 063c 0652 c23c
000000b0: 0512 283a f060 7a39 623c 7438 92bf e33c
000000c0: 01c4 973a b8f7 183c d26c ca3c 6b6b a03c
000000d0: ec9f 303a e3fc 5a3a c92f 383b 157e 053b
000000e0: abbf 7f39 2faf 223b 8577 913c 14bc 2d3b
000000f0: 0dbb 2737 7a64 5d39 655f 8f3c e71a 7838
00000100: 4041 8e3a 1653 203b b569 d237 271a cb3c
00000110: d0e4 d339 41cf 863c 003e a537 3a1c b83b
00000120: 1518 8e39 88b2 313c f062 ab3c 57f9 b937
00000130: 4d5b 7939 6dd3 963c 502d b03c 0786 ab3b
00000140: b6eb a63a f973 bc3c 7e39 c83c 9604 b13c
00000150: c75c 273b 8b33 863c 6165 a238 7fd2 1b3a
00000160: 8a50 6a3c a2a0 ae3c 1f94 f13c 35b0 f939
00000170: c55c 263a d2d0 c039 9e52 823c 1466 1f3a
00000180: d541 8037 c25c 6d3c a2b4 883c 540f 803c
00000190: 43cb 313a 431d 8339 c12d 4337 d1d2 4538
000001a0: 4046 763c 51cd d23c 8519 723a 1140 993a
000001b0: eb8d 1736 4bb7 fb38 e9d2 6938 fc0e c93c
000001c0: 8385 c53c 74f6 9b3c 657b de39 1655 d837
000001d0: c999 c53c 97e1 223c 499e d73c 1740 3c3b
000001e0: e9d4 493c 106a 2037 14e0 293c 72c8 863b
000001f0: 3eac a839 baec 3e38 4adf a03a 9455 863c

exp_avg f4 [192, 128]
2.021398e-05 1.1753281e-06 3.1195695e-20 9.2616155e-09 2.0533478e-05 4.041463e-06 1.8244464e-05 6e-45
2.095506e-06 6.9370475e-11 5.208947e-22 6e-45 3.3674703e-18 1.4166445e-05 6e-45 -6e-45
9.613129e-34 6e-45 2.0968497e-05 6e-45 1.3543781e-30 1.3044767e-06 2.0402306e-06 3.662522e-05
-6e-45 4.8111763e-24 1.6711903e-06 8.6132015e-24 4.6767946e-06 6.501925e-06 1.0526303e-06 1.9291658e-05
2.4889172e-05 6.7044015e-09 2.060121e-05 4.254507e-06 1.2515605e-07 5.19852e-40 2.5312097e-06 7.193816e-06
4.247399e-06 5.1339424e-07 1.2063109e-07 2.1844886e-05 1.1502184e-20 1.9844082e-07 6e-45 4.6741105e-05
6.925191e-10 1.0987757e-06 1.057389e-05 5.1342463e-06 1.9143567e-10 4.407748e-09 2.50817e-08 -2.777786e-20
6e-45 4.1112564e-08 3.2752512e-06 1.1101715e-07 6e-45 3.3956916e-08 1.4253848e-05 3.5327267e-27
1.7426279e-13 1.5126403e-06 6e-45 1.9141831e-05 1.6613802e-14 1.934902e-05 3.608156e-27 4.088533e-06
1.2574501e-10 1.3384422e-07 2.9618659e-05 6e-45 1.4225597e-23 3.6019208e-07 2.6249121e-05 5.192608e-15
1.2866874e-07 7.537579e-06 2.5711583e-05 6.4365404e-06 7.637478e-08 1.02200275e-07 0.0 8.4471054e-08
8.8542375e-11 7.194725e-06 3.0375113e-05 7.15603e-08 4.0078895e-08 6e-45 2.8289403e-05 6e-45
-6e-45 1.5695167e-09 1.8742924e-06 2.081958e-05 1.3171905e-14 8.3164024e-11 -6e-45 5.649114e-32
1.3191323e-06 2.4305546e-05 1.2369933e-09 5.265666e-08 -6e-45 6e-45 -6e-45 1.34557995e-05
3.0890817e-06 2.2687634e-06 6e-45 1.6121513e-20 2.1975447e-05 2.5679512e-07 2.284192e-05 6e-45
1.379071e-05 6e-45 3.5452074e-06 6.808305e-07 3.9623982e-24 1.07e-42 1.3573246e-34 2.51325e-07
-1.0254953 0.0008129605 -1.6163435e-17 7.757592e-06 -0.4345901 -0.22195964 -0.50406593 6e-45
0.0062783207 1.1158191e-08 1.5620341e-20 -1.082322e-39 -1.0941613e-14 -0.8180991 -6e-45 -6e-45
2.2226163e-31 4.6e-43 -0.8628794 -6e-45 -4.1333677e-27 0.00089398155 -0.21106607 -1.1835728
6e-45 1.823994e-21 -0.15479065 4.998983e-22 -0.30981898 -0.40516883 0.0007127897 -0.8051858
-0.544828 3.9982254e-07 -0.24284156 -0.8360424 -0.00016782121 -4.295132e-37 -0.54649454 -0.6999388
-0.057084225 -0.0006443652 3.895648e-05 -0.9425621 -5.851018e-18 3.215335e-05 -6e-45 -1.5105767
4.314837e-05 -0.27143955 -0.7510232 -0.4468355 3.941683e-08 6.050346e-07 3.6242032e-05 -5.4271294e-19
-6e-45 5.3754393e-05 -0.22001797 0.00019170278 6e-45 -4.5457436e-05 -0.13404627 1.2046026e-25
-1.2934878e-07 0.0009380476 6e-45 -0.65634376 7.1233633e-13 -0.3924859 2.196316e-25 0.0048276535
2.589106e-08 0.0028777285 -0.6168822 6e-45 3.7999773e-21 -0.33733413 -1.2425312 -2.1520574e-11
2.2670678e-05 -0.023420904 -0.6274131 -0.21179098 5.499414e-06 -0.43319148 0.0 6.0823872e-06
-5.3170284e-06 -0.27600893 -1.1383613 -0.12702176 9.030789e-06 6e-45 -1.2106841 -6e-45
-6e-45 4.9731923e-08 -0.19611095 -0.853277 -9.069452e-12 6e-45 6e-45 8.784995e-30
0.0024342071 -0.9855124 7.365147e-08 7.608669e-05 -6e-45 6e-45 6e-45 0.0071245665
-0.3084038 -0.22626163 6e-45 6.231514e-19 -0.7553089 0.00027466065 -0.81778973 6e-45
-0.15294065 -6e-45 0.002497879 0.0019833546 -1.5781036e-20 2.43086e-40 7.605371e-32 -0.2762281
00000000: 3191 a937 f7bf 9d35 4851 131f 041d 1f32
00000010: 4f3f ac37 e79b 8736 b00b 9937 0400 0000
00000020: 85a0 0c36 1b8c 982e 466e 1d1c 0400 0000
00000030: b779 7822 6bac 6d37 0400 0000 0400 0080
00000040: bbb9 9f08 0400 0000 81e5 af37 0400 0000
00000050: aac2 db0d 7a15 af35 e5ea 0836 089e 1938
00000060: 0400 0080 951f ba18 a94d e035 829a 2619
00000070: 5ced 9c36 1c2b da36 1a48 8d35 85d4 a137
00000080: 17c9 d037 8a5c e631 c3d0 ac37 f0c1 8e36
00000090: a262 0634 23a9 0500 dadd 2936 6962 f136
000000a0: e184 8e36 2fd0 0935 d286 0134 893f b737
000000b0: 2645 591e ff12 5534 0400 0000 e10b 4438
000000c0: b35b 3e30 a579 9335 8366 3137 d746 ac36
000000d0: 5a7c 522f f672 9731 3e73 d732 5f2d 039f
000000e0: 0400 0000 be93 3033 63cc 5b36 5368 ee33
000000f0: 0400 0000 06d8 1133 d023 6f37 1bf2 8b13
00000100: d433 442a ed05 cb35 0400 0000 c592 a037
00000110: d2a4 9528 b44f a237 0def 8e13 3b30 8936
00000120: 1342 0a2f d2b6 0f34 9675 f837 0400 0000
00000130: df94 8919 6c60 c134 8f31 dc37 5b15 bb27
00000140: 3228 0a34 50eb fc36 34af d737 76f9 d736
00000150: 7b03 a433 3279 db33 0000 0000 7466 b533
00000160: edb4 c22e 386a f136 0fce fe37 b1ac 9933
00000170: 3623 2c33 0400 0000 084f ed37 0400 0000
00000180: 0400 0080 76b6 d730 3290 fb35 b5a5 ae37
00000190: b148 6d28 2fe1 b62e 0400 0080 cda8 920b
000001a0: 0a0d b135 c3e3 cb37 d502 aa30 9c28 6233
000001b0: 0400 0080 0400 0000 0400 0080 38c0 6137
000001c0: 054e 4f36 0f41 1836 0400 0000 6d43 981e
000001d0: ea57 b837 a7dd 8934 a69c bf37 0400 0000
000001e0: a65e 6737 0400 0000 33ea 6d36 51c2 3635
000001f0: b149 9918 fc02 0000 5d6b 3407 d8ed 8634
00000200: 6e43 83bf db1c 553a d514 95a3 9b26 0237
00000210: 9882 debe 6349 63be 770a 01bf 0400 0000
00000220: 5fba cd3b 3eb2 3f32 ab87 931e 13c9 0b80
00000230: 491b 45a8 f16e 51bf 0400 0080 0400 0080
00000240: 8c41 900c 4801 0000 aae5 5cbf 0400 0080
00000250: 54bd a393 165a 6a3a b421 58be 507f 97bf
00000260: 0400 0000 2dd1 091d 7181 1ebe c215 171c
00000270: 98a0 9ebe 4a72 cfbe 82da 3a3a a820 4ebf
00000280: d979 0bbf 31a7 d634 75ab 78be e006 56bf
00000290: 2af9 2fb9 e027 1283 11e7 0bbf 302f 33bf
000002a0: 26d1 69bd 9eea 28ba 3465 2338 c04b 71bf
000002b0: 4ddd d7a2 66dc 0638 0400 0080 945a c1bf
000002c0: 36fa 3438 20fa 8abe 0e43 40bf 9fc7 e4be
000002d0: 434b 2933 a969 2235 9602 1838 3b2e 20a1
000002e0: 0400 0080 5776 6138 644c 61be d303 4939
000002f0: 0400 0000 8da9 3eb8 6d43 09be 611f 1516
00000300: 1fe3 0ab4 4fe7 753a 0400 0000 2506 28bf
00000310: 3e81 482b e9f3 c8be 04f2 8716 4b31 9e3b
00000320: 0b67 de32 4698 3c3b feeb 1dbf 0400 0000
00000330: 208f 8f1d 0fb7 acbe 430b 9fbf 064c bdad
00000340: e92c be37 32dd bfbc 259e 20bf bcdf 58be
00000350: 9b87 b836 46cb ddbe 0000 0000 4f17 cc36
00000360: ed68 b2b6 0b51 8dbe d3b5 91bf fe11 02be
00000370: f282 1737 0400 0000 b2f7 9abf 0400 0080
00000380: 0400 0080 d498 5533 4fd1 48be 5d70 5abf
00000390: 2e8d 1fad 0400 0000 0400 0000 4d2e 320f
000003a0: 3887 1f3b 8a4a 7cbf 532a 9e33 bb90 9f38
000003b0: 0400 0080 0400 0000 0400 0000 3275 e93b
000003c0: 1ae7 9dbe 21b1 67be 0400 0000 fdeb 3721
000003d0: ed5b 41bf 5400 9039 ab5a 51bf 0400 0000
000003e0: 799c 1cbe 0400 0080 75b3 233b 2bfb 013b
000003f0: 340c 959e a0a5 0200 5c72 c50b c56d 8dbe
