weights/policy_checkpoint1300.pt (torch, 522983 bytes, 12 tensors)

net.0.weight f4 [128, 142]
0	0x3dad456c	0.08460507
1	0x3dfb361c	0.1226618
2	0x3c4ce396	0.012505433
3	0x3e025062	0.12725976
4	0x3d3d80bc	0.04626535
5	0x3dca60bb	0.09881731
6	0x3d7dc807	0.06195834
7	0x3dd71b00	0.10503197
8	0x3d9cd85d	0.076584555
9	0xbb088fb2	-0.0020837602
10	0x3db7ac4d	0.08968411
11	0x3d5cac5e	0.05387532
12	0x3d8ee0fe	0.069765076
13	0x3d1ac755	0.037787754
14	0x3dd54eb6	0.104154035
15	0x3d8cb6d8	0.06870812
16	0x3d77e3a4	0.06051983
17	0x3d38d781	0.045127396
18	0xbd342b09	-0.043986354
19	0x3cbedbcb	0.023298165
20	0xbcd396eb	-0.0258288
21	0x3d714dda	0.058912136
22	0x3cf974e5	0.030451247
23	0x3e113a19	0.14182319
24	0xbd608775	-0.054816682
25	0xbd072ae1	-0.032999877
26	0x3c64dd45	0.01396877
27	0xbd5595ea	-0.052144922
28	0x3cd5d9f2	0.026104901
29	0xbdaf2d21	-0.085535295
30	0x3e046e01	0.12932588
31	0xbc21a99b	-0.009867097
32	0x3dd4eca8	0.10396701
33	0x3d6131c6	0.05497911
34	0x3bab9820	0.0052366406
35	0x3d9b3db7	0.075801305
36	0x3cc6a9d4	0.024250902
37	0x3dd29829	0.102829285
38	0x3c8a3e9a	0.016875554
39	0x3cf36bdc	0.029714517
40	0x3dfaa520	0.12238526
41	0x3b3a0890	0.0028386451
42	0x3decf39b	0.115699016
43	0x3de8a0c8	0.113587916
44	0x3deb92c2	0.11502601
45	0x3d048a78	0.032358617
46	0x3e04e7e3	0.12979083
47	0x3d8bac74	0.06820002
48	0x3db51e31	0.08843649
49	0x3ce0a960	0.027424514
50	0xbcc33add	-0.02383178
51	0x3d1975ab	0.037465733
52	0x3c41c7ef	0.011827453
53	0x3e36ee64	0.17864376
54	0x3dc32674	0.09528819
55	0x3dda0151	0.10644782
56	0x3d03edf2	0.032209344
57	0x3d2928f6	0.04129883
58	0x3e2ef605	0.17086037
59	0x3d20f9aa	0.0393006
60	0x3d4ed442	0.050495394
61	0xbc7bfe49	-0.0153804505
62	0x3ddc522f	0.10757863
63	0x3d200b6e	0.0390734
64	0x3d0cbb8a	0.03435854
65	0xbd1ef836	-0.03881093
66	0x3d29f9ab	0.041497868
67	0xbd8b8eca	-0.06814344
68	0xbd8ea56b	-0.06965145
69	0x3aaac264	0.0013027904
70	0x3defa261	0.11700893
71	0x3d4ecaab	0.050486248
72	0x3da56068	0.08075029
73	0xbd8dd5e8	-0.06925565
74	0xbd750699	-0.059820745
75	0xbd9af082	-0.075654045
76	0xbdaee66a	-0.08540042
77	0x3d0b3953	0.033990216
78	0x3cf62972	0.03004906
79	0x3dece492	0.11567034
80	0xbd31829e	-0.043337457
81	0xbd6a52ec	-0.057207987
82	0x3d365ffc	0.04452513
83	0xbd0aefca	-0.033920087
84	0x3c498b0c	0.012301218
85	0xbca32253	-0.019913828
86	0x3d44a0ec	0.04800503
87	0xbd858879	-0.06520171
88	0xbd2d766d	-0.042349268
89	0x3e12c2ec	0.1433217
90	0x3dd52bcf	0.104087465
91	0x3d5628e1	0.05228508
92	0x3df3308b	0.11874493
93	0x3de4eabb	0.11177584
94	0xbb1db5bd	-0.0024064623
95	0xbd0a5025	-0.033767838
96	0x3e07a25f	0.13245533
97	0xbce7f871	-0.028316708
98	0xbcf3b705	-0.029750356
99	0x3c249fa0	0.010047823
100	0x3c7a3041	0.015270294
101	0x3db7c78c	0.089736074
102	0xbc357ab8	-0.011076622
103	0xbd798202	-0.060915
104	0x3da7c2de	0.08191465
105	0xbd6acb73	-0.05732293
106	0xbd91cf24	-0.07119587
107	0xbd3d474f	-0.046210583
108	0xbd966af2	-0.07344617
109	0x3d8c5dce	0.06853829
110	0x3dabcc11	0.08388532
111	0x3c81d7ef	0.015850035
112	0x3cd3d8bf	0.025860189
113	0xbda04b91	-0.07826913
114	0xbc5419d4	-0.012945611
115	0x3cd3976a	0.025829036
116	0x3d413073	0.047165345
117	0xbcb8318c	-0.022484563
118	0x3c54413f	0.012955009
119	0xbd8e8f62	-0.06960942
120	0x3ca7fa28	0.020505026
121	0xbd36e668	-0.044653326
122	0xbbbe8d32	-0.0058151716
123	0xbd68ebb8	-0.056865424
124	0xbdbfe1e9	-0.09369261
125	0xbd85cfb6	-0.06533758
126	0xbd931fe9	-0.07183821
127	0xbd87a635	-0.06623498
128	0x3d901a63	0.07036283
129	0xbd3f1b1b	-0.04665671
130	0x3d93df1c	0.07220289
131	0x3cd6330d	0.02614739
132	0xbd9188c2	-0.071061626
133	0x3d6ddf53	0.058074307
134	0xbc5f6b4c	-0.013636421
135	0xbd03c29a	-0.03216801
136	0xbd8ea8d7	-0.069657974
137	0xbdaadc5c	-0.083428115
138	0x3cc4b05a	0.024009872
139	0x3d245384	0.04011871
140	0x3dd2cc10	0.10292828
141	0xbc1f3324	-0.009716783
142	0x3d640228	0.05566612
143	0xbdb6427b	-0.08899399
144	0xbd5c24c8	-0.053746015
145	0xbb988939	-0.00465503
146	0x3d04a65a	0.032385208
147	0x3d82b34b	0.06381854
148	0x3d9d94c7	0.07694393
149	0xbd53fc26	-0.05175414
150	0x3cac59d9	0.021038936
151	0xbd8558fa	-0.065111116
152	0x3c16e133	0.009208965
153	0xbd967dd6	-0.0734822
154	0x3d9669e1	0.073444135
155	0xbd4ead29	-0.050458107
156	0x3d8cf17a	0.068819955
157	0x3c41f300	0.011837721
158	0x3da11782	0.07865812
159	0x3bfe3482	0.0077577243
160	0x3e058812	0.13040188
161	0x3d6ff9ad	0.05858772
162	0x3d3dec1b	0.046367746
163	0xbd074644	-0.033025995
164	0x3d9f4b3b	0.07778021
165	0x39cba47f	0.00038841736
166	0xbbb146b7	-0.005410041
167	0x3dd6b0aa	0.10482915
168	0x3d61ad7c	0.05509709
169	0x3c4f5aa2	0.012655886
170	0xbc40383f	-0.01173216
171	0xbc38db41	-0.011282743
172	0x3d9d31c3	0.07675507
173	0xbc87b5d8	-0.016566202
174	0xbd10561f	-0.03523838
175	0xbd3bda38	-0.045862406
176	0xbd7eec29	-0.06223694
177	0x3d48b8f3	0.049004506
178	0x3d8a8cf6	0.067651674
179	0xbdc82581	-0.09772778
180	0x3d346c4a	0.044048585
181	0x3d966641	0.07343722
182	0x3d70322d	0.0586416
183	0xbcde0209	-0.02710058
184	0x3d97d8d2	0.07414402
185	0x3def4abf	0.116841786
186	0x3d5df9f5	0.054193456
187	0x3c8f00cc	0.017456435
188	0x3d09b69a	0.033621408
189	0x3d59029f	0.052981015
190	0xbb4c406c	-0.0031166328
191	0xbb030565	-0.001999223
192	0x3da2de2c	0.07952532
193	0x3dcabd7e	0.09899424
194	0xbcb7d94a	-0.022442479
195	0xbca48bf9	-0.020086275
196	0xbc86721c	-0.016411833
197	0xbd7429a1	-0.059610013
198	0x3d5fe7f4	0.054664567
199	0x3d03a040	0.03213525
200	0xbd1ff374	-0.039050534
201	0x3b5f6848	0.0034089256
202	0x3dd6162d	0.104534484
203	0x3c96d776	0.018413287
204	0xbd07a4a7	-0.03311601
205	0xbd0e0389	-0.03467134
206	0xbcf813d5	-0.030282894
207	0xbd6a506a	-0.057205595
208	0xbd0aa126	-0.03384509
209	0x3d6c8be7	0.05775061
210	0x3de3d303	0.11124232
211	0x3d440f87	0.04786637
212	0xbdca12d5	-0.09866873
213	0xbdb95c37	-0.09050792
214	0xbc58fc05	-0.01324368
215	0x3da640be	0.08117817
216	0x3d6afde0	0.05737102
217	0xbd289702	-0.041159637
218	0x3cd2531a	0.025674392
219	0xbd02eb80	-0.03196287
220	0xbd5e7af8	-0.05431649
221	0x3d37957b	0.04482029
222	0xbd1c4b47	-0.038157728
223	0xbc89cff6	-0.016822796
224	0xbdaaf8ad	-0.083482124
225	0x3d660c2b	0.056163948
226	0x3cb25b72	0.02177212
227	0x3cfa8ae8	0.030583814
228	0xbd6fac54	-0.058513954
229	0xbda99eaa	-0.08282216
230	0xbd8b95a9	-0.06815655
231	0x3cc351d9	0.023842739
232	0x3d234818	0.039863676
233	0x3d975c2d	0.07390628
234	0x3d238973	0.039926004
235	0xbb3811fc	-0.0028086891
236	0xbd1e67da	-0.03867326
237	0xbd947d30	-0.0725044
238	0xbd9ce8e8	-0.07661611
239	0xbda0c0ca	-0.078492716
240	0x3d0cb59f	0.034352895
241	0xbd9498b6	-0.0725569
242	0xbbb6172b	-0.005556961
243	0xbda022ee	-0.07819162
244	0xbc7a8ab8	-0.015291862
245	0xbd71eda2	-0.059064515
246	0xbdd84b85	-0.10561279
247	0x3ce4097c	0.027836554
248	0xbccc4f53	-0.024940168
249	0x3d5432d6	0.051806293
250	0xbcdc8ad8	-0.026921675
251	0xbdfb7826	-0.12278776
252	0xbc7296a7	-0.014806426
253	0xbd269f21	-0.0406791
254	0xbcd25262	-0.025674049
255	0xbda39d36	-0.0798897

net.0.bias f4 [128]
0	0x3e059382	0.13044551
1	0x3cc7e155	0.024399439
2	0x3c956964	0.01823873
3	0x3d904a5f	0.07045435
4	0x3d480920	0.048836827
5	0x3d350bf4	0.044200853
6	0xbd15c561	-0.03656519
7	0xbd9a29e6	-0.07527523
8	0x3cfd7461	0.030939283
9	0x3db85971	0.090014346
10	0x3cb1d833	0.021709537
11	0x3c4766ea	0.012170533
12	0xbca3daca	-0.020001788
13	0x3da2f967	0.07957726
14	0xbd964ff0	-0.073394656
15	0xbd4b7839	-0.0496752
16	0x3d67d007	0.056594875
17	0xbd93ff7f	-0.072264664
18	0xbd51950e	-0.05116754
19	0xbd1e703c	-0.038681254
20	0x3cbcc683	0.023043877
21	0xbdb8aa82	-0.09016897
22	0x3dbaf661	0.09129024
23	0x3d0f9f70	0.03506416
24	0xbc8487e2	-0.016178075
25	0x3d100a05	0.035165805
26	0x3d99f034	0.07516518
27	0xbd27e639	-0.04099104
28	0xbd403d5b	-0.046933513
29	0x3d580bc0	0.05274558
30	0xbcfb675c	-0.030688934
31	0xbd2920c5	-0.041291017
32	0x3c7bfa10	0.015379444
33	0x3d2bd625	0.04195227
34	0x3ccda50d	0.025103116
35	0xbc89359e	-0.0167492
36	0xbddafa2a	-0.10692246
37	0xbb39d0a4	-0.002835312
38	0x3ddf0642	0.108898655
39	0x3d14d9dd	0.036340583
40	0x3db48b52	0.08815636
41	0xbdb22a9a	-0.08699532
42	0x3d075566	0.033040427
43	0x3d6b0e70	0.057386816
44	0xbce6651c	-0.028124385
45	0xbcb8f0eb	-0.022575816
46	0xbdab115c	-0.083529204
47	0xbccfbf7e	-0.025359865
48	0xbd403124	-0.046921864
49	0xbd6e53ab	-0.05818526
50	0xbd7d6ccf	-0.061871346
51	0x3d6bde32	0.05758495
52	0xbd489976	-0.048974477
53	0x3c98f4e5	0.018671462
54	0x3cfa86c8	0.030581847
55	0xbd9acdac	-0.0755876
56	0xbd1aa620	-0.037756085
57	0x3db95120	0.090486765
58	0x3d032b2c	0.032023594
59	0x3d98c38f	0.07459175
60	0xbdc73dc5	-0.097285785
61	0x3d7cdba5	0.061732907
62	0x3c3ed596	0.011647603
63	0xbdaa6fa7	-0.08322077
64	0x3c9dd558	0.01926677
65	0x3cb8b80f	0.022548703
66	0x3c891f13	0.01673845
67	0x3d9dd402	0.07706453
68	0xbd3abaa4	-0.04558815
69	0xbc99426c	-0.01870843
70	0xbd9f48c8	-0.07777554
71	0x3d58a29f	0.052889463
72	0x3ba59fe3	0.0050544604
73	0x3cc15c9e	0.023603734
74	0xbc8f1873	-0.017467713
75	0xbdbb24ca	-0.09137876
76	0xbc870044	-0.016479619
77	0x3d9e155a	0.07718916
78	0x3d91b04a	0.071137026
79	0xbb6824e3	-0.0035422377
80	0x3c979cd1	0.018507393
81	0x3d17a7e7	0.03702536
82	0xbcf89edf	-0.030349193
83	0x3e104f4e	0.14092752
84	0x3d5562d5	0.052096207
85	0x3dda5cdb	0.10662242
86	0xbdf25fee	-0.118347034
87	0xbccdf1cf	-0.025139717
88	0xbc8368f1	-0.01604125
89	0x3dcb60f1	0.099305995
90	0x3d3d9ebc	0.04629396
91	0xbc89a4d9	-0.016802238
92	0x3ce56add	0.028005058
93	0xbd658807	-0.05603793
94	0x3d7bae34	0.06144543
95	0x3d8500f4	0.064943224
96	0xbd9e897a	-0.07741065
97	0x3d4de3af	0.050265964
98	0x3b2cbe61	0.0026358592
99	0xbd60a7fb	-0.0548477
100	0xbd83f142	-0.06442501
101	0xbdb86d9a	-0.0900528
102	0xbda42aa4	-0.080159456
103	0xbd54b43e	-0.051929705
104	0x3d441777	0.04787394
105	0x3d0ab805	0.0338669
106	0x3c82832c	0.015931688
107	0xbc131806	-0.008977896
108	0xbdb98c19	-0.09059925
109	0xbdcf7399	-0.101294704
110	0x3d46d221	0.04854024
111	0x3cf2ffa6	0.029662918
112	0x3e04d616	0.12972292
113	0xbd5ce555	-0.053929646
114	0xbd976dbc	-0.07393977
115	0xbd14ac91	-0.036297385
116	0x3dba8ad9	0.09108514
117	0xbd280b5e	-0.041026466
118	0xbd5f9bf9	-0.054592106
119	0xbd937715	-0.072004475
120	0x3d483a95	0.048883993
121	0xbd0f5351	-0.034991566
122	0xbd002b44	-0.03129126
123	0x3d82472e	0.06361233
124	0xbdbbf9d8	-0.09178513
125	0xbd155846	-0.036461137
126	0xbd759615	-0.059957583
127	0xbca4e489	-0.020128505

net.2.weight f4 [192, 128]
0	0xbd857011	-0.065155156
1	0xbd870069	-0.06591875
2	0x3e24a391	0.1607802
3	0xbdee8da4	-0.116481096
4	0xbd3b1f93	-0.04568441
5	0xbd7a6432	-0.06113071
6	0xbdcc6201	-0.0997963
7	0x3db446fd	0.088026024
8	0x3d09c007	0.033630397
9	0x3ad37ba1	0.0016134867
10	0x3c9e7995	0.019345084
11	0xbca12dac	-0.019675098
12	0x3bb63ec6	0.0055616824
13	0xbd6200d0	-0.055176556
14	0x3d5d426f	0.054018434
15	0xbb69b550	-0.003566105
16	0x3dcc1920	0.0996573
17	0x3cea8f40	0.02863276
18	0xbdd11a0d	-0.10210047
19	0x3d39755c	0.04527794
20	0x3db6efc9	0.08932454
21	0xbd026e17	-0.03184327
22	0xbd5b42d6	-0.053530537
23	0xbe1e66b0	-0.1546886
24	0x3cf400e7	0.029785587
25	0xbdc60f51	-0.0967089
26	0xbde3f0da	-0.11129923
27	0x3c91a15a	0.017777134
28	0xbd7f51ce	-0.062333874
29	0x3d3f0b10	0.04664141
30	0xbde90f86	-0.11379914
31	0xbdc79a20	-0.09746194
32	0xbda1460e	-0.0787469
33	0x3b37aaf3	0.0028025478
34	0xbde1dd1d	-0.11028502
35	0xbe61c21c	-0.22046703
36	0xbd8aa7e4	-0.06770304
37	0xbd3115ee	-0.043233804
38	0xbd0ac269	-0.03387681
39	0xbc7c136d	-0.015385491
40	0xbdfbb531	-0.12290419
41	0xbda2d9f0	-0.079517245
42	0x3cae120f	0.021248845
43	0xbd989715	-0.074506916
44	0xbdde6e8b	-0.10860928
45	0x3db0d9d9	0.08635301
46	0xbd98dc3d	-0.07463882
47	0x3b33ca4a	0.0027433806
48	0xbdb926db	-0.09040614
49	0xbdc7e597	-0.09760588
50	0xbe0256cb	-0.12728421
51	0xbdef7c6f	-0.11693656
52	0xbdc1d2be	-0.09464024
53	0xbdf40643	-0.11915257
54	0xbd97f7b5	-0.07420293
55	0xbe0cd7dd	-0.1375422
56	0x3d3131cb	0.043260377
57	0xbdecea31	-0.11568106
58	0xbdaf9312	-0.08572973
59	0x3bfc3c6f	0.007697634
60	0xbd904fed	-0.07046495
61	0xbd03ebb4	-0.032207206
62	0xbd957713	-0.07298102
63	0xbd8517cc	-0.064986795
64	0x3ca8d8e2	0.02061123
65	0x3d90000d	0.0703126
66	0x3b8d6fe5	0.0043163174
67	0x3bdb4a98	0.006692242
68	0x3c027143	0.007961574
69	0xbe01e5a2	-0.12685254
70	0xbda1c7ca	-0.07899435
71	0xbaf26f31	-0.0018496272
72	0xbdc83e43	-0.097775005
73	0x3e1be233	0.15223007
74	0xbd951b21	-0.07280565
75	0x3d6cd0f1	0.05781645
76	0xbcf1b5ec	-0.029505692
77	0xbd83d50b	-0.06437119
78	0xbdda570b	-0.106611334
79	0x3d850155	0.06494395
80	0xbde13e02	-0.10998155
81	0x3c88c187	0.016693844
82	0xbd425e2e	-0.047453098
83	0xbd50511b	-0.0508586
84	0xbd87ef31	-0.06637419
85	0xbcfccf52	-0.030860577
86	0x3d8a24ad	0.067452766
87	0xbdb77473	-0.08957758
88	0xbe044626	-0.12917385
89	0xbc8994dc	-0.016794614
90	0xbd9c3d88	-0.07628924
91	0xbd91385f	-0.0709083
92	0xbb9b06fa	-0.0047310563
93	0x3d6f3045	0.058395643
94	0xbdc1f7e0	-0.094711065
95	0x3d6cb43a	0.057789065
96	0xbdb053c2	-0.086097255
97	0xbd892ed2	-0.066983834
98	0xbd8dd0df	-0.069246046
99	0xbdd47a5e	-0.10374902
100	0xbd874298	-0.066044986
101	0xbdfb9689	-0.12284572
102	0x3d8fbbf4	0.07018271
103	0xbd25f81b	-0.040519815
104	0x3e139726	0.14413127
105	0x3cad839d	0.021180922
106	0xbbb98f58	-0.00566284
107	0xbb3d7dd8	-0.002891412
108	0xbccd4ccc	-0.025061034
109	0xbd2c50c5	-0.042069215
110	0x3d91ef12	0.07125677
111	0xbd2f25e2	-0.042760737
112	0xbd6c438b	-0.0576816
113	0xbe3653de	-0.1780543
114	0xbd0ec92a	-0.034859814
115	0x3d93a5a2	0.07209326
116	0xbcf39ed0	-0.029738814
117	0xbdff6d4e	-0.1247202
118	0xbdd3578c	-0.103194326
119	0xbcfe4181	-0.031037094
120	0xbd532c57	-0.051555958
121	0x3e12f559	0.14351405
122	0xbe0bcd22	-0.1365247
123	0xbd296e71	-0.04136509
124	0xbe097d6f	-0.13426755
125	0x3e0d6304	0.13807303
126	0xbe0e17d7	-0.13876282
127	0xbdaaca0f	-0.08339321
128	0x3c3f84fe	0.011689423
129	0x3ce4470f	0.027865915
130	0xbcb1a415	-0.021684686
131	0xbcd870c6	-0.026420962
132	0x3d61ff6e	0.055175237
133	0xbd30e95c	-0.0431913
134	0x3d32a023	0.04360975
135	0x3d23986d	0.039940286
136	0x3cb538a6	0.022121739
137	0xbd31a160	-0.04336679
138	0x3dad5f1d	0.08465407
139	0xbbe8b781	-0.0071019535
140	0xbd2e9e4c	-0.042631432
141	0x3cf0b1d8	0.029381678
142	0xbd492012	-0.04910285
143	0x3c234cfa	0.009967083
144	0x3d93f62c	0.07224688
145	0x3bd7157f	0.006563842
146	0x3a91ea95	0.0011132533
147	0xbccbb1e7	-0.024865104
148	0xbd9260cd	-0.071473695
149	0xbcbcef28	-0.023063257
150	0x3da3ce22	0.07998301
151	0x3d744f9d	0.059646238
152	0xbd354b46	-0.04426124
153	0x3ce4300a	0.027854938
154	0x3c8a5ae6	0.016889047
155	0x3d7ff927	0.06249347
156	0x3d8f2187	0.06988817
157	0xbc91ce74	-0.01779864
158	0x3c808484	0.015688188
159	0x3e0baae1	0.13639404
160	0x3cbc66d3	0.02299825
161	0xbd6104ba	-0.05493615
162	0xbce54856	-0.027988594
163	0xbd2ac69c	-0.041693315
164	0xbd97af9e	-0.07406543
165	0xbd266542	-0.04062391
166	0x3d4d5b9a	0.050136186
167	0xb95b770b	-0.00020929814
168	0x3d835450	0.06412566
169	0xbd8b5554	-0.068033844
170	0x3d065056	0.032791458
171	0x3d08510e	0.033280425
172	0xbd8312fa	-0.06400104
173	0xbc64cd69	-0.013964989
174	0x3ca0ad6d	0.019613946
175	0xbd67b9eb	-0.05657379
176	0x3c494f95	0.01228704
177	0x3da44348	0.080206454
178	0xbd20cf1e	-0.039260022
179	0xbc548ae8	-0.012972571
180	0x3d9b936b	0.07596477
181	0xbd13ef8f	-0.036117133
182	0xbda1af63	-0.078947805
183	0x3cc8d679	0.024516331
184	0xbd8520ae	-0.06500374
185	0x3d9474a6	0.072488114
186	0xbd27b5ad	-0.040944744
187	0x3d312e5a	0.043257095
188	0xbc1674b7	-0.0091831
189	0xbcebd222	-0.028786723
190	0xbcd115eb	-0.025523147
191	0x3d7d643b	0.061863165
192	0xbd60ee61	-0.054914836
193	0x3d91d5a2	0.07120825
194	0x3d288841	0.041145567
195	0xbd428d9c	-0.04749833
196	0x3d9e1461	0.07718731
197	0x3d82e5ab	0.06391462
198	0xbd5ed855	-0.05440553
199	0x3c928d59	0.017889665
200	0x3d136296	0.03598269
201	0xbbd74bab	-0.0065702996
202	0x3db5b6b3	0.08872738
203	0xbca2f389	-0.019891517
204	0xbcf56c88	-0.029958978
205	0x3b7ea114	0.0038853334
206	0xbbd0c66a	-0.006371309
207	0x3dc1b1ae	0.09457718
208	0xbd3db7e8	-0.046317965
209	0xbb9ca2ec	-0.004780164
210	0xbd48ae08	-0.048994094
211	0x3c6c6657	0.014428697
212	0xbcd420f0	-0.025894612
213	0xbd560641	-0.052252058
214	0xbd55bf0c	-0.05218415
215	0xbd084a08	-0.033273727
216	0xbdd34766	-0.103163525
217	0x3d3b3b34	0.045710757
218	0x3c690a16	0.014223596
219	0xbd20a50a	-0.039219894
220	0x3dbf6138	0.09344715
221	0x3db4430e	0.08801852
222	0xbca79978	-0.020458922
223	0x3d89416b	0.067019306
224	0x3bffc3ef	0.0078053395
225	0x3d9cf2df	0.076635115
226	0xbc858910	-0.016300708
227	0xbc9c520c	-0.019082092
228	0x3d1ef175	0.03880449
229	0xbdf8a134	-0.12140122
230	0x3cad7f94	0.021178998
231	0xbd948230	-0.07251394
232	0xbc30ee88	-0.010799058
233	0x3c947060	0.01811999
234	0xbd4303d6	-0.04761108
235	0xbd05fc1d	-0.032711137
236	0xbcba110f	-0.022713212
237	0xbb89aebb	-0.0042017377
238	0x3ca6bd47	0.020353926
239	0xbd5b9805	-0.053611774
240	0x3db5fb30	0.08885801
241	0xbc859b47	-0.016309394
242	0xbb414047	-0.0029487775
243	0x3cdd3a34	0.027005292
244	0xbd0f8cca	-0.035046376
245	0x3c96d917	0.018414063
246	0xbdb2c90b	-0.08729752
247	0xba6e4963	-0.0009089915
248	0xbbab76f4	-0.005232686
249	0xbd9bd53b	-0.0760903
250	0x3ce3c5cd	0.02780428
251	0xbd92de31	-0.07171286
252	0xbd7aba0c	-0.061212584
253	0xbd7dca7f	-0.061960693
254	0xbbc93d84	-0.0061413664
255	0xbab118ea	-0.0013511453

net.2.bias f4 [192]
0	0xbc719462	-0.01474485
1	0x3d5b587a	0.053551175
2	0x3d5940ae	0.0530402
3	0x3bdce7eb	0.006741514
4	0x3ce50c1f	0.027959881
5	0xbbe39399	-0.0069450852
6	0x3c95da96	0.018292706
7	0x3c4911be	0.0122722965
8	0xbde416a6	-0.11137132
9	0xbbe7b790	-0.007071443
10	0x3c9a42b7	0.01883064
11	0xbcd4bef7	-0.025969965
12	0x3bb59e7f	0.005542576
13	0xbae1963d	-0.0017210912
14	0x3c58514f	0.013202979
15	0x3d762619	0.060094927
16	0x3d953801	0.072860725
17	0x3ce81d3c	0.028334253
18	0x3c868a76	0.016423445
19	0x3e05c6e8	0.13064158
20	0xbcbe6af1	-0.023244353
21	0x3c04b3e7	0.008099533
22	0xbd070e09	-0.03297237
23	0x3de54190	0.11194146
24	0x3d8251e4	0.06363276
25	0x3d8f53bb	0.06998392
26	0x3cd4f258	0.025994465
27	0x3e20c207	0.15699016
28	0x3cccc04d	0.02499404
29	0x3d2c2cec	0.04203503
30	0xbcb0f39f	-0.021600543
31	0x3d313691	0.04326493
32	0x3d521b08	0.05129531
33	0x3ac08b5e	0.0014689972
34	0x3d6504db	0.055912834
35	0x3d423d45	0.047421712
36	0x3cf5ebbf	0.030019639
37	0x3d8cb9c9	0.06871373
38	0xbd8aae32	-0.06771506
39	0xbb11fe0f	-0.0022276675
40	0xbd9fb80c	-0.07798776
41	0xbc8e84a1	-0.017397227
42	0x3d89e309	0.06732757
43	0x3deb288d	0.11482344
44	0xbb413344	-0.002948002
45	0xbcc41392	-0.023935113
46	0xbdfb84e8	-0.12281209
47	0x3b0da08d	0.0021610588
48	0x3dc25312	0.09488501
49	0xbd37d72d	-0.044882942
50	0x3d310b9a	0.043223955
51	0x3db13512	0.086527005
52	0x3cedda89	0.02903487
53	0xba3ed489	-0.0007279595
54	0x3dbc833b	0.09204718
55	0xbcaa942b	-0.020822605
56	0x3c7be9f1	0.0153756
57	0xbdad9853	-0.08476319
58	0xbad354a7	-0.0016123251
59	0xbd0993ee	-0.033588342
60	0x3d005369	0.031329546
61	0x3c309e22	0.010779889
62	0x3d8d98d0	0.06913912
63	0xbcce71b6	-0.025200706
64	0xbdb255fe	-0.08707808
65	0xbd545f4b	-0.05184869
66	0xbdab3b9b	-0.08360978
67	0xbd242034	-0.040069774
68	0xbcef5a63	-0.029217904
69	0xbdb6271c	-0.08894178
70	0x3de78d2b	0.113062225
71	0xbd9a2094	-0.07525745
72	0xbcbd4e3c	-0.023108594
73	0xbb102554	-0.0021994906
74	0x3b92ee17	0.004483949
75	0x3d331f9c	0.043731317
76	0x3d24012e	0.040040188
77	0x3d3e4dda	0.046460964
78	0x3db70fe3	0.08938577
79	0x3cfa16db	0.030528476
80	0x3cc0e68b	0.023547431
81	0x3c0c87d3	0.008577305
82	0xbc244875	-0.010027041
83	0xbba59f0d	-0.0050543607
84	0xbd0292f1	-0.031878415
85	0xbc7ca101	-0.015419246
86	0x3cf6dc62	0.030134384
87	0x3d4554d2	0.048176594
88	0xbd89a484	-0.06720832
89	0x3da7f03f	0.0820012
90	0x3d0b489d	0.034004796
91	0x3dbe25a7	0.09284525
92	0xbcf4dd01	-0.02989054
93	0x3d8efc36	0.06981699
94	0x3c221d3e	0.009894667
95	0x3dd5b645	0.10435156
96	0xbc8dc269	-0.017304616
97	0xbd9dfa59	-0.07713766
98	0xbd9fc15e	-0.07800554
99	0xbccfa90a	-0.025349159
100	0x3b9a6f09	0.0047129435
101	0xbcf9bbaf	-0.030485002
102	0xbc761ad2	-0.015021043
103	0xbd651735	-0.055930335
104	0x3e02219f	0.12708138
105	0x39db8667	0.00041871073
106	0x3d89a4e4	0.067209035
107	0xbd2b3c89	-0.041805778
108	0x3d87d683	0.06632712
109	0x3d03f628	0.032217175
110	0x3c7fee03	0.015620711
111	0xbd6fdaa4	-0.05855812
112	0xbd61b196	-0.055101
113	0x3d9cfcff	0.07665443
114	0x3d9dabf1	0.07698811
115	0x3d720017	0.059082117
116	0x3de692b1	0.11258448
117	0xbde4c89a	-0.11171074
118	0x3d118ed9	0.03553662
119	0xbd6f653f	-0.058446165
120	0xbdc0921d	-0.09402869
121	0x3d4c5564	0.049886122
122	0x3d42052c	0.047368214
123	0x3cba14eb	0.022715053
124	0x3cdec102	0.027191643
125	0xbd0cfa39	-0.03441832
126	0x3cc90ea8	0.024543121
127	0x3d71d2db	0.059038978
128	0xbcb8456c	-0.02249404
129	0x3dc8255c	0.09772751
130	0xbd688266	-0.056764983
131	0xbc30480a	-0.010759363
132	0xbd0c6fd2	-0.034286328
133	0xbc42ab00	-0.01188159
134	0xbde0ec6b	-0.10982593
135	0x3cd9b8ef	0.026577441
136	0x3c07ccd4	0.008288581
137	0x3de440e0	0.111451864
138	0xbb7f07f9	-0.0038914664
139	0x3d2e2a14	0.042520598
140	0xbdac390e	-0.0840932
141	0xbcc62a7e	-0.024190184
142	0x3b81c2ce	0.00395999
143	0x3c442b33	0.01197319
144	0x3d8dc60e	0.069225416
145	0xbcb3093a	-0.021854986
146	0xbcd90f15	-0.02649645
147	0x3dfea9c1	0.12434722
148	0x3e08aad9	0.13346423
149	0xbd0b51f3	-0.0340137
150	0x3cd783c1	0.026307942
151	0x3de55340	0.11197519
152	0x3da181e0	0.078861
153	0x3d040a83	0.032236587
154	0x3de3559e	0.111003146
155	0x3d660518	0.0561572
156	0x3d076637	0.033056464
157	0x3c691cd0	0.014228061
158	0x3d84f05e	0.06491159
159	0x3e0c3cde	0.13695094
160	0xbc61dea0	-0.013785988
161	0x3d929b23	0.07158496
162	0xbd53e9e0	-0.051736712
163	0xbc060138	-0.0081790015
164	0x3ccf798e	0.025326516
165	0xbd70473d	-0.058661688
166	0x3d7e59ed	0.06209748
167	0x3dd4a6fd	0.10383413
168	0x3d021e8e	0.03176742
169	0x3db8439d	0.08997271
170	0xbd35e079	-0.044403527
171	0x3de7ab11	0.11311925
172	0xbd546dd0	-0.051862538
173	0xbd7d4d53	-0.06184132
174	0x3c2d0e62	0.010562511
175	0x3bacab70	0.0052694604
176	0xbd247a8a	-0.040155925
177	0x3dc0d79a	0.09416123
178	0x3d83f8fc	0.064439744
179	0x3c2ab464	0.010418985
180	0x3dc88cd2	0.09792484
181	0x3c62f2bb	0.013851817
182	0x3d5c228e	0.05374389
183	0xbb1ccb56	-0.0023924909
184	0xbdc27ebf	-0.09496831
185	0x3d381bed	0.044948507
186	0x3d448dbd	0.047986735
187	0xbd8aa314	-0.06769386
188	0xbd94332b	-0.07236322
189	0x3d27ef7e	0.040999882
190	0x3d44cb35	0.048045356
191	0xbd67d5f2	-0.05660052

exp_avg f4 [128, 142]
0	0xb9a5a0e8	-0.00031591137
1	0x39e32690	0.00043325545
2	0x3cd5ea98	0.02611284
3	0x3cdb2fb8	0.026756153
4	0x3cb9961f	0.022654591
5	0x3caf9e9c	0.021437936
6	0x38f4dcfc	0.00011675988
7	0xb9f84488	-0.00047353306
8	0xb9a5a0e8	-0.00031591137
9	0x3cd4ab93	0.02596072
10	0x3cd001c6	0.02539147
11	0x3d15e1c2	0.036592253
12	0x3d0d3f40	0.034484148
13	0x3d0467af	0.032325443
14	0x3ce6f11f	0.028191147
15	0xb9baca7a	-0.0003562754
16	0xb999143b	-0.00029197507
17	0x3cd151ab	0.025551638
18	0x3cbf3920	0.023342669
19	0x3d184908	0.037179023
20	0x3d170fe8	0.036880404
21	0x3d2581cb	0.040406983
22	0x3cf1d403	0.02952004
23	0x3ce39e06	0.027785312
24	0x38e3a2e3	0.000108545435
25	0x3ccd2fbe	0.02504718
26	0x3ce26898	0.027637765
27	0x3d2086ea	0.039191164
28	0x3d1ea2c5	0.038729448
29	0x3d2bc9d2	0.041940518
30	0x3cee0102	0.029053215
31	0x3ce01480	0.027353525
32	0xbab3fa09	-0.0013731132
33	0xbb6708a4	-0.0035252953
34	0x3cd78399	0.026307868
35	0x3cbc860f	0.023013143
36	0x3cd4d4b2	0.025980327
37	0x3cc9ae32	0.024619196
38	0x3cede7dd	0.029041225
39	0x3cea3dca	0.028593916
40	0x3cda9c97	0.026685996
41	0x3cdf16cc	0.02723255
42	0x3cdbfb72	0.026853297
43	0x3a0dae56	0.0005404701
44	0x3cc4398e	0.023953225
45	0xba39f773	-0.0007094063
46	0xba1655c6	-0.0005734827
47	0x3cdcb6bf	0.026942609
48	0x3cd86237	0.02641402
49	0x3cdc70b1	0.026909204
50	0x3ab232b4	0.0013595433
51	0x3bb165b9	0.0054137376
52	0x3cc14510	0.023592502
53	0x3cb64053	0.022247469
54	0x3cd96725	0.026538441
55	0x3a02c7e0	0.000498889
56	0x3cd86129	0.026413517
57	0x3cd6ca6e	0.026219573
58	0x3b525889	0.0032096228
59	0x3bede9de	0.007260545
60	0x3b8bf57b	0.004271207
61	0x3cd567cf	0.026050476
62	0x3ce50d3b	0.02796041
63	0x3ce50fc9	0.027961629
64	0x3d01f93a	0.03173182
65	0x3c2b453c	0.0104535185
66	0x3c2d5b5a	0.010580862
67	0x38dd9f5e	0.00010567786
68	0xb5661d24	-8.572408e-07
69	0x3cfb68bd	0.030689592
70	0x3c15f80f	0.00915338
71	0x3c26f3bf	0.01018995
72	0x00000000	0.0
73	0x00000000	0.0
74	0x3cb6ad41	0.02229941
75	0x3cc3cd3e	0.023901578
76	0xbb17ea44	-0.0023180405
77	0x00000000	0.0
78	0x00000000	0.0
79	0xbad4f64f	-0.0016247722
80	0x00000000	0.0
81	0x00000000	0.0
82	0x00000000	0.0
83	0x00000000	0.0
84	0xbad4e750	-0.0016243253
85	0x00000000	0.0
86	0x00000000	0.0
87	0x00000000	0.0
88	0x00000000	0.0
89	0x3cc6124c	0.024178647
90	0x3caaa2f7	0.02082966
91	0x3cb29b94	0.021802701
92	0xb50dc59e	-5.2814164e-07
93	0xb50d8b00	-5.2728865e-07
94	0x3cc9c28e	0.024628904
95	0x3ca2de38	0.019881353
96	0x3cb1c616	0.0217009
97	0x00000000	0.0
98	0x00000000	0.0
99	0x3cbeded6	0.023299616
100	0x3cc90d68	0.024542525
101	0x3cb25c3f	0.021772502
102	0x00000000	0.0
103	0x00000000	0.0
104	0xba4903de	-0.0007668118
105	0x00000000	0.0
106	0x00000000	0.0
107	0x00000000	0.0
108	0x00000000	0.0
109	0xba4903de	-0.0007668118
110	0x00000000	0.0
111	0x00000000	0.0
112	0x00000000	0.0
113	0x00000000	0.0
114	0x3d07f9e8	0.033197314
115	0x3cdd4ef9	0.027015196
116	0x3be63521	0.0070253764
117	0x3bf3c3b5	0.0074391016
118	0xb347604d	-4.6420883e-08
119	0x3c9b5293	0.018960273
120	0x3cc419a1	0.023938002
121	0x3a61e5d7	0.00086173177
122	0x00000000	0.0
123	0x00000000	0.0
124	0x3cab0f44	0.020881303
125	0x3cabeeda	0.020987917
126	0x3b9ef709	0.004851226
127	0x00000000	0.0
128	0x00000000	0.0
129	0x3a1e5d74	0.0006041147
130	0x00000000	0.0
131	0x00000000	0.0
132	0x00000000	0.0
133	0x00000000	0.0
134	0x3845e6a2	4.7183254e-05
135	0x00000000	0.0
136	0x00000000	0.0
137	0x00000000	0.0
138	0x00000000	0.0
139	0x3d787a23	0.060663354
140	0xbb9fba0f	-0.004874475
141	0x3c7cbf98	0.015426539
142	0x38819538	6.1789935e-05
143	0x399b4bcb	0.00029620374
144	0xbc6e671a	-0.0145509485
145	0xbc73231f	-0.0148399165
146	0xbc7478bc	-0.014921363
147	0xbc82e337	-0.015977485
148	0x39db7eda	0.00041865447
149	0x393098f4	0.00016841647
150	0x38819538	6.1789935e-05
151	0xbc8a6d03	-0.016897684
152	0xbc89c718	-0.016818568
153	0xbc8c2566	-0.017107677
154	0xbc719995	-0.0147460895
155	0xbc83debc	-0.016097419
156	0xbc80684c	-0.015674733
157	0x39709769	0.00022944588
158	0x389a6d3c	7.363639e-05
159	0xbc8a6f6d	-0.016898835
160	0xbc6be295	-0.014397283
161	0xbc8aa8d8	-0.016926214
162	0xbc878f65	-0.016547868
163	0xbc88516f	-0.016640393
164	0xbce65a96	-0.028119367
165	0xbced9a97	-0.029004378
166	0x38a97dee	8.082004e-05
167	0xbc8cc19e	-0.017182168
168	0xbc83127c	-0.016000025
169	0xbc8528b6	-0.016254764
170	0xbc7f4526	-0.015580451
171	0xbc81b8f7	-0.015835268
172	0xbce73db2	-0.02822766
173	0xbcee49c5	-0.02908791
174	0xba475e0b	-0.0007605261
175	0x3c3cc7fa	0.0115222875
176	0xbc8c1a2c	-0.017102323
177	0xbc7e037d	-0.015503761
178	0xbc8c808a	-0.017151136
179	0xbc7e859a	-0.015534783
180	0xbcef4ae5	-0.029210517
181	0xbced4efc	-0.028968327
182	0xbc8965a0	-0.016772091
183	0xbc894e39	-0.016760932
184	0xbc8b3714	-0.016994037
185	0x396854df	0.00022156861
186	0xbc8ec436	-0.017427545
187	0xba659e6d	-0.0008759264
188	0xba80ae3a	-0.0009817549
189	0xbc8a1cf5	-0.01685951
190	0xbc8d0603	-0.01721478
191	0xbc8b0d0f	-0.016974
192	0x3a0afcd0	0.0005301954
193	0xbaa4899a	-0.0012553215
194	0xbc897efa	-0.01678418
195	0xbc818934	-0.015812494
196	0xbc8be36d	-0.017076219
197	0x39072b5d	0.00012890757
198	0xbc8d0629	-0.017214851
199	0xbc8c9102	-0.017158989
200	0x39b4f465	0.00034514364
201	0xbab8e357	-0.0014105838
202	0xba8bf84c	-0.0010678857
203	0xbc6be651	-0.014398173
204	0xbc8417c2	-0.01612461
205	0xbc841701	-0.01612425
206	0xbc8bcc88	-0.017065302
207	0xba970d07	-0.0011524268
208	0xba8f0331	-0.0010910985
209	0xb91fd8f8	-0.00015244249
210	0xb6705bc9	-3.5816213e-06
211	0xbc80026d	-0.015626157
212	0x39620a14	0.00021556794
213	0xba83b0d1	-0.0010047202
214	0x00000000	0.0
215	0x00000000	0.0
216	0xbc7bd5c0	-0.015370786
217	0xbc6d15a7	-0.014470494
218	0x3c4e9611	0.012609021
219	0x00000000	0.0
220	0x00000000	0.0
221	0xba6c4855	-0.0009013464
222	0x00000000	0.0
223	0x00000000	0.0
224	0x00000000	0.0
225	0x00000000	0.0
226	0xba6c4489	-0.0009012898
227	0x00000000	0.0
228	0x00000000	0.0
229	0x00000000	0.0
230	0x00000000	0.0
231	0xbc80ec9c	-0.015737824
232	0xbc6af8ea	-0.014341572
233	0xbce5927c	-0.02802395
234	0xb4aab159	-3.1794005e-07
235	0xb4aa65bb	-3.1738986e-07
236	0xbc82f037	-0.015983684
237	0xbc69d929	-0.014272966
238	0xbce5c591	-0.028048309
239	0x00000000	0.0
240	0x00000000	0.0
241	0xbc8a20a5	-0.01686127
242	0xbc8866fb	-0.016650667
243	0xbce59d2d	-0.028029049
244	0x00000000	0.0
245	0x00000000	0.0
246	0x2ef9c04f	1.135737e-10
247	0x00000000	0.0
248	0x00000000	0.0
249	0x00000000	0.0
250	0x00000000	0.0
251	0x2ef9c04f	1.135737e-10
252	0x00000000	0.0
253	0x00000000	0.0
254	0x00000000	0.0
255	0x00000000	0.0

exp_avg_sq f4 [128, 142]
0	0x3c1bc809	0.009508141
1	0x3c177128	0.009243287
2	0x3c0f2591	0.008736984
3	0x3c174fce	0.0092353355
4	0x3c1db1b4	0.009624887
5	0x3c0801fd	0.008301255
6	0x3c0e6611	0.008691327
7	0x3c356077	0.011070362
8	0x3c0382d9	0.008026802
9	0x3c15f412	0.009152429
10	0x3c13fd4c	0.009032559
11	0x3c4d6778	0.012536876
12	0x3c2e43f0	0.010636315
13	0x3bece81e	0.007229819
14	0x3c40b4ff	0.011761903
15	0x3c07ccfd	0.008288619
16	0x3c150a99	0.009096765
17	0x3c4be4ee	0.012444718
18	0x3c440189	0.011963257
19	0x3c1fd6a7	0.009755767
20	0x3c4f0b4f	0.0126369735
21	0x3c43af2e	0.011943622
22	0x3c755bc7	0.014975495
23	0x3c4fe953	0.012689906
24	0x3bd22c34	0.006413961
25	0x3c33a5fe	0.010964869
26	0x3c5441e1	0.01295516
27	0x3c41ec18	0.011836074
28	0x3c609da7	0.013709462
29	0x3c3d1d19	0.011542582
30	0x3c37688a	0.011194358
31	0x3c47e728	0.012201108
32	0x3c4006c7	0.011720366
33	0x3c419929	0.011816301
34	0x3c3addc8	0.011405416
35	0x3c5d81fd	0.013519761
36	0x3c14b3d3	0.009076077
37	0x3c4784c2	0.012177648
38	0x3c438389	0.011933216
39	0x3c133f01	0.008987189
40	0x3c39b17d	0.01133382
41	0x3c2fb984	0.010725383
42	0x3c3da846	0.011575764
43	0x3c329a50	0.010901049
44	0x3c536a2d	0.012903732
45	0x3c484b90	0.012225047
46	0x3c294a07	0.010332591
47	0x3c25a86b	0.010110955
48	0x3c3a4afd	0.011370418
49	0x3c093bd7	0.008376083
50	0x3c1edc09	0.009696015
51	0x3c0d0cc9	0.008609005
52	0x3c287c0d	0.010283482
53	0x3c263ac7	0.01014585
54	0x3c62f538	0.01385241
55	0x3c1a91c3	0.009434166
56	0x3c246301	0.01003337
57	0x3bffbc27	0.007804412
58	0x3c4e5fec	0.012596112
59	0x3c41fa78	0.011839502
60	0x3c34ae40	0.011027873
61	0x3c0f995a	0.008764589
62	0x3c4378c9	0.011930653
63	0x3c001e37	0.007819704
64	0x3c289f23	0.010291847
65	0x3c1370f4	0.008999098
66	0x3bbd48e9	0.005776514
67	0x3a68f4fb	0.00088866026
68	0x3a0549f8	0.00050845696
69	0x3c2e08e2	0.010622235
70	0x3be325c8	0.006931994
71	0x3b923739	0.0044621495
72	0x00000000	0.0
73	0x00000000	0.0
74	0x3b9f1bd1	0.004855611
75	0x3b828259	0.003982824
76	0x3b09e20f	0.0021039282
77	0x00000000	0.0
78	0x00000000	0.0
79	0x3a572f6e	0.00082086667
80	0x00000000	0.0
81	0x00000000	0.0
82	0x00000000	0.0
83	0x00000000	0.0
84	0x3a1a5e58	0.0005888692
85	0x00000000	0.0
86	0x00000000	0.0
87	0x00000000	0.0
88	0x00000000	0.0
89	0x3c56450f	0.013077988
90	0x3c4421b6	0.011970928
91	0x3c152e9f	0.009105354
92	0x3a783943	0.0009468982
93	0x39f65907	0.00046987107
94	0x3c4d891c	0.012544896
95	0x3c14bf05	0.009078746
96	0x3bbe727c	0.0058119874
97	0x00000000	0.0
98	0x00000000	0.0
99	0x3c255af4	0.010092486
100	0x3c004169	0.007828095
101	0x3b973145	0.0046140277
102	0x00000000	0.0
103	0x00000000	0.0
104	0x3ace69cf	0.0015748086
105	0x00000000	0.0
106	0x00000000	0.0
107	0x00000000	0.0
108	0x00000000	0.0
109	0x3a964c82	0.0011466893
110	0x00000000	0.0
111	0x00000000	0.0
112	0x00000000	0.0
113	0x00000000	0.0
114	0x3c5aca61	0.013353915
115	0x3c32c024	0.010910068
116	0x3be03eb7	0.0068434137
117	0x3a26a832	0.00063574605
118	0x3a08a1e8	0.0005212114
119	0x3c3ef74d	0.011655641
120	0x3c305268	0.010761835
121	0x3bdef74e	0.0068043834
122	0x00000000	0.0
123	0x00000000	0.0
124	0x3bf8e847	0.007596049
125	0x3bcaf261	0.0061934446
126	0x3b8c861e	0.004288449
127	0x00000000	0.0
128	0x00000000	0.0
129	0x3aa93f87	0.0012912609
130	0x00000000	0.0
131	0x00000000	0.0
132	0x00000000	0.0
133	0x00000000	0.0
134	0x3a86164f	0.0010230037
135	0x00000000	0.0
136	0x00000000	0.0
137	0x00000000	0.0
138	0x00000000	0.0
139	0x3d9da4d8	0.07697457
140	0x3cc6a9e7	0.024250938
141	0x3eb419c8	0.3517592
142	0x3bdb0c95	0.0066848495
143	0x3bdfab18	0.006825816
144	0x3bdfdbf2	0.0068316394
145	0x3bd98bc6	0.0066389767
146	0x3be9440f	0.007118709
147	0x3bf3cea3	0.0074404045
148	0x3baa4e1e	0.0051973006
149	0x3bcadade	0.006190642
150	0x3bcb234c	0.006199276
151	0x3c00954a	0.007848093
152	0x3bfa3b3d	0.0076364563
153	0x3c03cad1	0.008043961
154	0x3c0ba923	0.008524212
155	0x3beb4c0a	0.0071806954
156	0x3c0c9eeb	0.008582811
157	0x3be2bb6b	0.0069193146
158	0x3b995509	0.0046793264
159	0x3c0736ef	0.008252843
160	0x3bddb94c	0.006766474
161	0x3bc89d60	0.006122276
162	0x3beb75f6	0.007185693
163	0x3bdfc703	0.006829144
164	0x3c00a1b8	0.007851057
165	0x3be6eedb	0.0070475168
166	0x3ba6ebc0	0.0050940216
167	0x3c12d99a	0.008963013
168	0x3c0fa949	0.008768388
169	0x3c14007b	0.009033318
170	0x3c241593	0.010014909
171	0x3c1047c1	0.00880617
172	0x3be0d31d	0.006861104
173	0x3c0f875c	0.0087602995
174	0x3bd7ab50	0.0065817013
175	0x3c02f340	0.007992566
176	0x3c183c9d	0.009291795
177	0x3c1a1674	0.009404767
178	0x3bec2d36	0.007207538
179	0x3c103ddf	0.008803814
180	0x3c0693a5	0.008213912
181	0x3bc2c43b	0.0059438027
182	0x3be49818	0.006976139
183	0x3bfa7201	0.007642985
184	0x3c1464a5	0.009057199
185	0x3c168486	0.0091868695
186	0x3c0a7ae9	0.008452156
187	0x3c1b5f92	0.009483235
188	0x3be5c5ab	0.0070120892
189	0x3bba6368	0.0056881197
190	0x3c0a9224	0.008457694
191	0x3c0c31c7	0.00855679
192	0x3bf4da90	0.0074723437
193	0x3c02356f	0.00794731
194	0x3bc47da6	0.005996424
195	0x3bc9c39e	0.0061573526
196	0x3be1445b	0.0068746037
197	0x3b86c6ae	0.00411304
198	0x3ba38c56	0.0049910946
199	0x3bfbdcb3	0.0076862215
200	0x3bd3ba52	0.00646142
201	0x3be91e4e	0.0071142083
202	0x3b9a1d83	0.004703225
203	0x3bcbb119	0.00621618
204	0x3ba508c3	0.005036445
205	0x3b4c9f1b	0.0031222764
206	0x3bdef80f	0.006804473
207	0x3be11344	0.0068687517
208	0x3b6e531e	0.003636546
209	0x3a6fe0a1	0.0009150599
210	0x39b61824	0.0003473173
211	0x3bdf9d71	0.0068241884
212	0x3b883d90	0.0041577294
213	0x3b2aeff3	0.0026082962
214	0x00000000	0.0
215	0x00000000	0.0
216	0x3b81e830	0.0039644465
217	0x3b3cff91	0.0028838853
218	0x3ae15669	0.001719189
219	0x00000000	0.0
220	0x00000000	0.0
221	0x39f7e36f	0.00047280962
222	0x00000000	0.0
223	0x00000000	0.0
224	0x00000000	0.0
225	0x00000000	0.0
226	0x39608716	0.00021412628
227	0x00000000	0.0
228	0x00000000	0.0
229	0x00000000	0.0
230	0x00000000	0.0
231	0x3c0d2b2e	0.008616252
232	0x3c187e3b	0.009307439
233	0x3be0f213	0.006864795
234	0x3a172649	0.0005765898
235	0x39cf8ac7	0.00039585514
236	0x3c192f89	0.009349712
237	0x3bec66d9	0.007214409
238	0x3b8e45b3	0.004341805
239	0x00000000	0.0
240	0x00000000	0.0
241	0x3bb2b82c	0.005454084
242	0x3ba81d80	0.00513047
243	0x3b5a3391	0.0033294896
244	0x00000000	0.0
245	0x00000000	0.0
246	0x39b7abe9	0.00035032563
247	0x00000000	0.0
248	0x00000000	0.0
249	0x00000000	0.0
250	0x00000000	0.0
251	0x3993d837	0.00028199118
252	0x00000000	0.0
253	0x00000000	0.0
254	0x00000000	0.0
255	0x00000000	0.0

exp_avg f4 [128]
0	0x3d0ea1d0	0.034822285
1	0xbc8785ae	-0.016543236
2	0x37da23be	2.6004269e-05
3	0xbb59ee42	-0.0033253585
4	0x3b00c8b8	0.0019650888
5	0xbc2c7c24	-0.010527644
6	0x3b07e10c	0.0020733504
7	0x3497c9a8	2.8272666e-07
8	0x339d085b	7.312402e-08
9	0x3d091724	0.033469334
10	0x3bd2d6c9	0.006434296
11	0x2d8dfbfb	1.6141746e-11
12	0xbc91185a	-0.017711807
13	0x3cf4e4a7	0.029894186
14	0x0000232a	1.2614e-41
15	0x12528140	6.642363e-28
16	0x395522a3	0.00020326166
17	0xb9dc462b	-0.0004201395
18	0xbc623a39	-0.013807827
19	0x2f196bbd	1.3953545e-10
20	0xb78b52e9	-1.66087e-05
21	0x3902719a	0.00012440086
22	0xbc1090fd	-0.00882363
23	0xba498406	-0.00076872145
24	0x1b028290	1.0795535e-22
25	0x3b0c8c37	0.002144588
26	0xbd38134b	-0.044940274
27	0x38a7cc94	8.001286e-05
28	0x3ab4da54	0.0013797977
29	0xbb4e3c7a	-0.0031469152
30	0x3a318134	0.0006771267
31	0xbbbae6fd	-0.0057038055
32	0x38fdb9a6	0.0001209856
33	0xba937a7d	-0.0011251714
34	0xbc0d2fbc	-0.008617338
35	0xbc83517f	-0.016030071
36	0xb3f01f66	-1.1181582e-07
37	0xbae2cbc1	-0.0017303155
38	0xbc86bba2	-0.016446892
39	0x3c0856a3	0.008321437
40	0x3cdcf94f	0.026974348
41	0x35da9a9a	1.6287261e-06
42	0xbb094c48	-0.0020950008
43	0xbb991cd7	-0.0046726274
44	0x3adc4128	0.0016804086
45	0xbabc00a9	-0.0014343458
46	0x1532a84e	3.6079583e-26
47	0xb79bee47	-1.8588396e-05
48	0xbb004672	-0.0019573239
49	0x3d88a72b	0.0667251
50	0xbb4a8bc3	-0.0030906058
51	0x3c69cad2	0.014269548
52	0x27807f61	3.566524e-15
53	0xb8613ec7	-5.3702646e-05
54	0x2cdbf39a	6.2513996e-12
55	0x3cfa95cb	0.030589005
56	0xb810ddb4	-3.4538753e-05
57	0x3d43a4eb	0.0477647
58	0xbc358463	-0.011078927
59	0x3d172b12	0.03690631
60	0x80000004	-6e-45
61	0xb6cb1ac5	-6.052988e-06
62	0x39e3b53b	0.0004343184
63	0x11aad0ad	2.6949877e-28
64	0x3b313148	0.002703743
65	0x3bc8634f	0.006115354
66	0x34386ffb	1.7177074e-07
67	0x3b9f0d35	0.0048538693
68	0xba3f1b24	-0.0007290116
69	0x3a81fd80	0.0009917468
70	0x3b606f7a	0.0034246133
71	0x3c6e9ba0	0.014563471
72	0xb923f517	-0.00015636194
73	0xbb1483e8	-0.002266163
74	0x3d0b14f8	0.033955544
75	0xb885454c	-6.354842e-05
76	0x38f67565	0.000117520605
77	0xbcf78d3e	-0.030218717
78	0x3c038718	0.008027814
79	0xbcac6716	-0.021045249
80	0x3d2943b5	0.041324336
81	0x3cdf7a80	0.027280092
82	0xbb224e43	-0.0024765886
83	0xbcf4d2d0	-0.02988568
84	0x3bd0ccfc	0.0063720923
85	0xbd101e4b	-0.03518514
86	0xb16af3d8	-3.419009e-09
87	0x2b621aa0	8.032828e-13
88	0xbd00963d	-0.03139328
89	0x3d31c410	0.04339987
90	0x3d2b1cb8	0.041775435
91	0x345aef33	2.0389852e-07
92	0xb83654d0	-4.347117e-05
93	0x3a9d130e	0.0011983828
94	0xbd5d2c40	-0.05399728
95	0xba89f902	-0.0010526481
96	0xb3534799	-4.9192383e-08
97	0xbd08c77f	-0.03339338
98	0x3d03ec73	0.032207917
99	0xbcbde2e8	-0.023179486
100	0xb9e26344	-0.00043180038
101	0x27deffb3	6.1894608e-15
102	0x21292b64	5.7316854e-19
103	0xb6ac9e00	-5.144393e-06
104	0x3a3561cd	0.00069191755
105	0xbb542adc	-0.003237418
106	0x2d0d3cf9	8.028461e-12
107	0x3cd86c9f	0.026418982
108	0x00000004	6e-45
109	0x3aa45675	0.0012537973
110	0x368722e0	4.0273735e-06
111	0xbb680064	-0.0035400623
112	0x3cb880f1	0.022522422
113	0xbb8785e6	-0.004135835
114	0x0e2894fc	2.0779332e-30
115	0xa609f9c4	-4.786992e-16
116	0xbc5cbc08	-0.0134725645
117	0xbd6031fe	-0.054735176
118	0x3983aae9	0.00025113605
119	0x389efc9d	7.58108e-05
120	0xbd5c0dae	-0.053723983
121	0xa6a7be12	-1.1639471e-15
122	0xba01c90b	-0.0004950917
123	0x3d3b4989	0.045724425
124	0x39466cd6	0.00018923296
125	0x3a68d901	0.0008882434
126	0x289d7396	1.7480629e-14
127	0xbb98301a	-0.004644406

exp_avg_sq f4 [128]
0	0x3ca66877	0.020313485
1	0x3c5e210d	0.013557685
2	0x39d4e511	0.0004060646
3	0x3bd27a7a	0.0064232918
4	0x3a97cccd	0.0011581421
5	0x3c811b8f	0.015760211
6	0x3c85e8f4	0.016346432
7	0x3940fbf2	0.00018404404
8	0x3b94d0c9	0.0045414907
9	0x3c75f053	0.015010911
10	0x3c285965	0.01027522
11	0x3ab8c167	0.0014095724
12	0x3c232a38	0.009958796
13	0x3ca1c29a	0.019746114
14	0x3a41c884	0.0007392245
15	0x3b25e0eb	0.0025311064
16	0x39d388fc	0.00040347117
17	0x3a492ece	0.0007674516
18	0x3c9a7b76	0.018857699
19	0x3ada158d	0.0016638503
20	0x39ff2e75	0.00048672003
21	0x3ac4a7be	0.0015003604
22	0x3c5dd5aa	0.013539711
23	0x3c958c21	0.018255295
24	0x3a4f8be1	0.0007917267
25	0x3b9d7815	0.0048055747
26	0x3b6d7959	0.003623566
27	0x3c0935b1	0.008374617
28	0x3c94e5cc	0.018175982
29	0x3b9aa6aa	0.004719575
30	0x3c19a998	0.009378813
31	0x3c12c4ec	0.008958083
32	0x3c727e8e	0.014800681
33	0x3b83d966	0.0040237186
34	0x3cc5c036	0.024139505
35	0x3ca0fb9e	0.01965123
36	0x3bc4f0d1	0.006010153
37	0x3ae2273e	0.0017254127
38	0x3c8bd6f8	0.017070279
39	0x3c1afbf1	0.009459482
40	0x3c8eb63d	0.017420882
41	0x3a838aee	0.0010035911
42	0x3b7839aa	0.0037876167
43	0x3affc966	0.0019514977
44	0x3bec770f	0.0072163413
45	0x39e7d46a	0.00044218014
46	0x3a2e7211	0.00066545705
47	0x3b486e26	0.0030583232
48	0x3c4e60e3	0.012596342
49	0x3c161dbb	0.009162362
50	0x3c601790	0.013677493
51	0x3cae1a20	0.021252692
52	0x3c12c50e	0.008958114
53	0x3c08fe11	0.008361355
54	0x3c22dc5f	0.009940236
55	0x3c91e8e7	0.017811252
56	0x3b4adab7	0.0030953118
57	0x3c5a07e2	0.0133075435
58	0x3cb79993	0.022412097
59	0x3c8734cb	0.016504666
60	0x38cb6856	9.6992284e-05
61	0x3aade58d	0.0013267264
62	0x39b109c1	0.00033767338
63	0x3a4d0c70	0.0007821983
64	0x3b95b85d	0.004569097
65	0x3b4ba4fa	0.0031073675
66	0x39608701	0.00021412598
67	0x3ce1b85c	0.02755373
68	0x3b1196e4	0.0022215182
69	0x3c897757	0.016780538
70	0x380b607c	3.323004e-05
71	0x3bf2b0d7	0.007406335
72	0x3b16807e	0.002296477
73	0x3a13dfe0	0.0005640965
74	0x3c913faa	0.017730553
75	0x394251fc	0.00018531823
76	0x3a00a432	0.00049072795
77	0x3c2dd61b	0.010610129
78	0x3ba5fd15	0.00506557
79	0x3c38a3a8	0.011269487
80	0x3c2a9a57	0.010412774
81	0x3c617970	0.013761863
82	0x3bb39e38	0.0054815076
83	0x3cac7daf	0.021056024
84	0x3c3fe249	0.011711665
85	0x3c632c45	0.013865535
86	0x3a82cbb1	0.0009978918
87	0x3a67a4ae	0.000883649
88	0x3c64639a	0.0139397625
89	0x3cc62e8a	0.024192113
90	0x3ca54b7e	0.020177599
91	0x3aec388a	0.0018022221
92	0x3b67d05e	0.0035372
93	0x3abbe5e7	0.0014335484
94	0x3ce7783c	0.028255574
95	0x396b025b	0.00022412224
96	0x393e033b	0.00018121015
97	0x3cabddec	0.020979844
98	0x3c60183c	0.013677653
99	0x3c87fda6	0.016600441
100	0x3bb5f7f7	0.0055532414
101	0x3b2d4c1a	0.0026443065
102	0x39225d22	0.00015484219
103	0x3a1806c9	0.0005799351
104	0x3c0185d4	0.007905442
105	0x3b896c47	0.004193816
106	0x3b1c0d6f	0.0023811718
107	0x3abb1f18	0.0014276234
108	0x37ff6278	3.0444222e-05
109	0x3aa9d9b4	0.0012958557
110	0x3a06c8e1	0.00051416276
111	0x3b8ce4ba	0.0042997273
112	0x3ca7947c	0.020456545
113	0x3ca71d0f	0.020399598
114	0x37c4b670	2.3449975e-05
115	0x39a83615	0.0003208375
116	0x3c1a0d88	0.00940264
117	0x3c6b517a	0.014362687
118	0x3b3012a9	0.002686659
119	0x3bd59489	0.006517951
120	0x3c76617c	0.0150378905
121	0x38907a93	6.889286e-05
122	0x3c30fdfb	0.010802741
123	0x3cbe3202	0.023217205
124	0x3b77c5b9	0.003780706
125	0x39d5937e	0.00040736416
126	0x3c655d19	0.013999247
127	0x3c6f411b	0.014602925

exp_avg f4 [192, 128]
0	0xb9b0cb8f	-0.00033721
1	0x37b5852d	2.1638896e-05
2	0xb4d47854	-3.9575627e-07
3	0xb827e023	-4.0024646e-05
4	0xb3e5165e	-1.0667712e-07
5	0xb886f68f	-6.435543e-05
6	0xb9b8ea46	-0.00035269762
7	0xaee5a454	-1.0442905e-10
8	0x28062e8c	7.4485875e-15
9	0xb919d5d2	-0.00014670871
10	0xb7502924	-1.2407345e-05
11	0x2ab443d3	3.2021486e-13
12	0xb7a7237b	-1.9924473e-05
13	0xb93cfd7a	-0.00018023505
14	0x00000004	6e-45
15	0x829a3e82	-2.2664144e-37
16	0xae1e2f35	-3.596697e-11
17	0xb482b63b	-2.4346977e-07
18	0xb88b5368	-6.643572e-05
19	0x0000000d	1.8e-44
20	0xb41b488b	-1.4461891e-07
21	0xb5229521	-6.0566714e-07
22	0xb9701381	-0.0002289545
23	0xb9da09d9	-0.00041587537
24	0x80000004	-6e-45
25	0xb7ae7479	-2.0796653e-05
26	0xb9960770	-0.0002861577
27	0xa793ad65	-4.098869e-15
28	0xb962b3de	-0.00021620045
29	0xb1028856	-1.8994988e-09
30	0x36ccf662	6.1083565e-06
31	0x3748333f	1.1932861e-05
32	0xb3fda731	-1.18116425e-07
33	0xb77eb9d5	-1.5182847e-05
34	0xb9555235	-0.00020343887
35	0x384deecd	4.909821e-05
36	0xb1898d6b	-4.003302e-09
37	0xb6d818e9	-6.4402016e-06
38	0xb92a8f02	-0.00016265738
39	0xb87cb4d4	-6.024989e-05
40	0xb92f4d14	-0.00016718014
41	0xb2c1d399	-2.256438e-08
42	0xb80afa03	-3.3134605e-05
43	0xb60fdd11	-2.1437338e-06
44	0xb49e6431	-2.9502692e-07
45	0xb8744875	-5.8241614e-05
46	0x918559f1	-2.103913e-28
47	0xb4d27ce5	-3.920642e-07
48	0xb49d17bd	-2.92608e-07
49	0xb833a34c	-4.2829008e-05
50	0xb14c8061	-2.9758882e-09
51	0xb97ba805	-0.00023999817
52	0x880005a2	-3.852522e-34
53	0xb42d413f	-1.6135617e-07
54	0x11175755	1.1938711e-28
55	0x37eeb60b	2.8456581e-05
56	0xb51e9ff5	-5.9092355e-07
57	0xb9999157	-0.0002929072
58	0xb982e939	-0.00024969297
59	0xb96cf476	-0.00022597783
60	0x80000004	-6e-45
61	0xadb5c424	-2.0664422e-11
62	0xb53d0370	-7.041299e-07
63	0x023dc03b	1.3940694e-37
64	0xb6df0e6a	-6.647596e-06
65	0xb615be37	-2.231345e-06
66	0x00000004	6e-45
67	0xb9ed1e39	-0.0004522668
68	0xb75467a0	-1.2660312e-05
69	0x385cca9e	5.264079e-05
70	0xb78a17d7	-1.6461983e-05
71	0xb808b8c6	-3.259701e-05
72	0xb3e34409	-1.0582887e-07
73	0xb8b81217	-8.777173e-05
74	0xb98898d4	-0.00026053807
75	0x80000b90	-4.148e-42
76	0xb22e2fbf	-1.0138989e-08
77	0xba117479	-0.0005548667
78	0xb9243dad	-0.00015663235
79	0xb8ca3d3c	-9.6435164e-05
80	0xb629de71	-2.531244e-06
81	0xb9beb152	-0.00036371738
82	0xb8272c5d	-3.985722e-05
83	0xba37c604	-0.00070104026
84	0xb98596f7	-0.00025480214
85	0xb77ac8ea	-1.494794e-05
86	0x00000000	0.0
87	0x9c784b63	-8.215375e-22
88	0x37a9b906	2.0232528e-05
89	0xb9fac20e	-0.00047828298
90	0xb807acaa	-3.2347314e-05
91	0xaf54056c	-1.9283214e-10
92	0xb4919b71	-2.7121453e-07
93	0xb7722780	-1.4433521e-05
94	0xba1e9ce6	-0.00060506014
95	0x37a64c05	1.9824141e-05
96	0x80000004	-6e-45
97	0xb9497f4e	-0.00019216278
98	0x373beb57	1.1200863e-05
99	0x37d83fa5	2.5778843e-05
100	0xb149784d	-2.9317733e-09
101	0xa1805507	-8.696124e-19
102	0x83234ee1	-4.7991943e-37
103	0xb2e99900	-2.7194346e-08
104	0xb93deca9	-0.00018112607
105	0xb7a862b8	-2.007313e-05
106	0xa59ff5a1	-2.7748548e-16
107	0xb7cce31a	-2.4424447e-05
108	0x80000004	-6e-45
109	0xb773c884	-1.4530615e-05
110	0xb2b79c61	-2.1375117e-08
111	0xb98e836c	-0.00027182268
112	0xb9d10861	-0.0003986983
113	0xb94b2648	-0.0001937385
114	0x80000004	-6e-45
115	0x9aeb7ba7	-9.739349e-23
116	0xb94d26e3	-0.0001956481
117	0xb9993b1f	-0.00029226483
118	0xb3805352	-5.97562e-08
119	0x915b1822	-1.728349e-28
120	0xb95d039c	-0.00021077547
121	0xa1efa0dc	-1.6237849e-18
122	0xb93259c3	-0.00017008842
123	0xba03514a	-0.00050093664
124	0xb867d60d	-5.5274042e-05
125	0xb5b12cc1	-1.3200553e-06
126	0x10d1770b	8.261938e-29
127	0xb3811d81	-6.012397e-08
128	0x3c040681	0.008058191
129	0x3b058d73	0.00203785
130	0xb114e9b3	-2.1669677e-09
131	0xb5a89dd5	-1.2562911e-06
132	0x34979da5	2.8240643e-07
133	0xb532c5f9	-6.6598255e-07
134	0x3bc6d05a	0.006067318
135	0xaf6729e2	-2.1024207e-10
136	0x29d6cd59	9.539131e-14
137	0x3a8fe355	0.0010977784
138	0xb81fb6cd	-3.80788e-05
139	0x2737ac2a	2.5489682e-15
140	0x3b3f3aaf	0.0029179265
141	0x3c09bb1e	0.008406429
142	0x80000004	-6e-45
143	0x83d1fa07	-1.2341319e-36
144	0xaec2037d	-8.822718e-11
145	0x1a822775	5.3830486e-23
146	0x3bd6bdcf	0.0065533887
147	0x8000033e	-1.163e-42
148	0x80002d55	-1.6262e-41
149	0xb53dfbd2	-7.0774433e-07
150	0x3b72b35a	0.0037033171
151	0x3bd1b5b3	0.006399834
152	0x00000004	6e-45
153	0xb358ea41	-5.050447e-08
154	0x3b04aea5	0.0020245698
155	0xa80add79	-7.708563e-15
156	0x3ba3edd6	0.0050027175
157	0xb176ac61	-3.5895698e-09
158	0x3ae494a9	0.0017439324
159	0x3a8d55fc	0.0010783072
160	0xb686474d	-4.0018117e-06
161	0xb83cb638	-4.4992397e-05
162	0x3b6c98f6	0.0036101914
163	0x3ba406b3	0.0050056814
164	0xa34953d2	-1.09139815e-17
165	0xb79d1788	-1.8726816e-05
166	0x3c37a34e	0.011208368
167	0xb918c57d	-0.0001456942
168	0x3ba0ba15	0.004904995
169	0x30e1e7b7	1.6436762e-09
170	0xb8cf2f0c	-9.879292e-05
171	0xadf714cd	-2.8089886e-11
172	0xb55fe911	-8.341313e-07
173	0xb9369316	-0.00017411666
174	0x9211de2c	-4.602778e-28
175	0xb50c58aa	-5.228309e-07
176	0xb6009453	-1.9159822e-06
177	0x3ac8953c	0.0015303264
178	0xb228ef4e	-9.833299e-09
179	0x3bf5b463	0.0074983104
180	0x89b70b96	-4.4066543e-33
181	0xb4e6489b	-4.2893666e-07
182	0x18227a4a	2.099975e-24
183	0x3ade0b96	0.0016940709
184	0x261898dc	5.2942757e-16
185	0x3bc53f18	0.0060194843
186	0x3bc3e62c	0.0059783664
187	0x3b3c9859	0.002877733
188	0x80000004	-6e-45
189	0xad5e0734	-1.2620838e-11
190	0xb5aeb1db	-1.3015773e-06
191	0x0401ba3d	1.5249394e-36
192	0xb7c98b31	-2.4025883e-05
193	0xb6c1c702	-5.775016e-06
194	0x80000004	-6e-45
195	0x3c086221	0.008324177
196	0xb822d163	-3.8818816e-05
197	0x3b9938f2	0.004675978
198	0xb137491b	-2.667156e-09
199	0xb8cb3f1a	-9.691548e-05
200	0xb04ca705	-7.4452117e-10
201	0xb8366607	-4.34872e-05
202	0x3b952668	0.0045516975
203	0x80001900	-8.968e-42
204	0xacf4a6e0	-6.953424e-12
205	0x3bfbd5c0	0.007685393
206	0xb8a56666	-7.886886e-05
207	0xb992cd7c	-0.00028000388
208	0xb70f712f	-8.549817e-06
209	0x3c0c4402	0.008561136
210	0xb8f93850	-0.00011883734
211	0x3bbd21e6	0.0057718633
212	0x3b864acb	0.0040982715
213	0x3bc5f835	0.0060415515
214	0x00000000	0.0
215	0x9cd79c2d	-1.4267877e-21
216	0x3ac1612e	0.0014753693
217	0x3b8ff7ee	0.004393569
218	0x39b71cdf	0.0003492599
219	0xafd67e2f	-3.9016032e-10
220	0xaacab35e	-3.600687e-13
221	0xb83201ef	-4.2440308e-05
222	0x3c325a29	0.010885754
223	0x3ae1dd11	0.0017232021
224	0x80000004	-6e-45
225	0x3a847bfb	0.001010775
226	0x3a2815c0	0.00064119324
227	0x3b405a62	0.0029350747
228	0x31e0bc9c	6.5407004e-09
229	0xa221cf45	-2.1929296e-18
230	0x04f97b43	5.8652817e-36
231	0xb3981337	-7.081547e-08
232	0x3ab3db0f	0.0013721901
233	0xb87bc6e4	-6.0028295e-05
234	0x2966f6a0	5.1284172e-14
235	0x3a1e21a3	0.0006032234
236	0x80000004	-6e-45
237	0xb519d674	-5.730901e-07
238	0x97d239e8	-1.358555e-24
239	0x3a813f99	0.0009860873
240	0x3c13b15e	0.009014456
241	0x3bbf697b	0.0058414317
242	0x0dbc27ac	1.1595945e-30
243	0x9b4c7c3a	-1.6914624e-22
244	0x3b228ec8	0.0024804343
245	0x3be53466	0.006994772
246	0xb494fbfe	-2.7750497e-07
247	0x2736cbf6	2.5368141e-15
248	0x3b2e85c6	0.0026630028
249	0xa2900830	-3.9039947e-18
250	0x3b0cffcc	0.0021514772
251	0x3b9a9c64	0.0047183502
252	0xadd33477	-2.4011222e-11
253	0xb6944944	-4.419273e-06
254	0x9352b9e6	-2.6597381e-27
255	0x321d15d5	9.143567e-09
