weights/policy_checkpoint4600.pt (torch, 522983 bytes, 12 tensors)

net.0.weight f4 [128, 142]
0.018796677 0.09617286 0.015237519 0.12961721 0.085484974 0.16396601 0.111810565 0.0629921
0.052670933 -0.041010022 0.11716252 0.07181412 0.06496219 0.059663486 0.11864107 0.06865554
0.047579866 -0.023593223 -0.07149915 0.059208278 0.014917879 0.066239774 0.036628313 0.13289438
-0.02977678 -0.036899216 -0.013475684 -0.049595617 0.0074104234 -0.08541655 0.1855312 0.011585321
0.11593685 0.07014688 0.00273894 0.039800975 0.03637555 0.09955676 0.049716793 -0.017292444
0.10905092 -0.021246938 0.07991705 0.06503154 0.06965563 0.062282592 0.113904245 0.011314838
0.09029696 0.07722979 -0.04945744 0.012474856 -0.030123891 0.24502406 0.12084526 0.122817725
0.031748403 0.04945529 0.19195141 0.083326206 0.0031300448 0.037064493 0.14169988 0.028154943
0.018155722 -0.06824339 0.07721488 -0.038007427 -0.020277724 -0.04868884 0.12441525 0.08695956
0.08075029 -0.06925565 -0.07367594 -0.036287945 -0.05328464 0.033990216 0.03004906 0.040971708
-0.043337457 -0.057207987 0.04452513 -0.033920087 0.0008602061 -0.019913828 0.04800503 -0.06520171
-0.042349268 0.09372714 0.0586949 0.056754775 0.069485776 0.09042684 -0.008533988 -0.067027256
0.14287293 -0.028316708 -0.029750356 0.003868644 -0.03824901 0.086679146 -0.011076622 -0.060915
0.084395275 -0.05732293 -0.07119587 -0.046210583 -0.07344617 0.05892151 0.08388532 0.015850035
0.025860189 -0.07826913 -0.02947332 0.03996664 0.07301482 -0.0033339302 0.023605427 -0.10343528
0.041315 0.005853826 -0.0058151716 -0.056865424 -0.15347318 -0.055578697 -0.026229622 -0.06623498
0.07036283 -0.055289067 0.07220289 0.02614739 -0.071061626 0.058074307 0.017970087 -0.03216801
-0.069657974 -0.083428115 0.024009872 0.10783528 0.091246106 -0.0051775025 0.022485621 -0.0949387
-0.09424225 -0.06309739 0.04332354 0.047559656 0.08094127 -0.11667867 0.009337744 -0.049155038
-0.0047791586 -0.11467226 0.13260137 -0.031770322 0.078563295 -0.027456153 0.03445737 -0.042531896
0.08418583 0.012173854 0.002807179 -0.07840809 0.0992303 0.009059491 -0.03834335 0.082322784
0.075691774 -0.02449414 -0.057480264 -0.078857996 0.10681407 0.011988157 -0.04634224 -0.03631965
-0.07945827 0.011040913 0.03660881 -0.16088587 0.08222372 0.07289794 -0.035393592 -0.08494257
0.028711483 0.06968773 -0.010998236 -0.04305487 0.008630146 0.026424637 -0.08760524 -0.015134222
0.068086654 0.10297917 0.0090069305 0.02033317 0.011155485 -0.11158523 0.10247111 0.08389155
-0.031529937 0.07380184 0.1274199 0.0010552042 -0.02066387 -0.042855907 -0.07585678 -0.0948999
-0.05243021 -0.017538369 0.07127924 0.06369928 -0.118818425 -0.12925409 -0.01324368 0.08117817
0.090777926 -0.033962313 0.0105887335 -0.03196287 -0.05431649 0.07084869 -0.038157728 -0.016822796
-0.083482124 0.056163948 0.057855804 0.030583814 -0.058513954 -0.08282216 -0.06815655 0.010461838
0.016633155 0.08154284 -0.081762336 -0.116979495 0.012164292 -0.046417747 -0.06605025 -0.078492716
0.034352895 -0.028524667 0.028026775 -0.07385791 -0.015291862 -0.059064515 -0.04098697 0.027836554
-0.024940168 0.051806293 -0.026921675 -0.07219063 -0.014806426 -0.0406791 -0.025674049 -0.0798897
00000000: 7dfb 993c 47f6 c43d c9a6 793c 60ba 043e
00000010: bf12 af3d b5e6 273e f0fc e43d 0102 813d
00000020: 7abd 573d 20fa 27bd e7f2 ef3d 4813 933d
00000030: e60a 853d b361 743d 17fa f23d 479b 8c3d
00000040: 1be3 423d 9346 c1bc 256e 92bd 6184 723d
00000050: 1f6a 743c b8a8 873d 9207 163d 7715 083e
00000060: 6fee f3bc a223 17bd 1ec9 5cbc c624 4bbd
00000070: 23d3 f23b dfee aebd e4fb 3d3e 5cd0 3d3c
00000080: 4d70 ed3d 2ba9 8f3d ca7f 333b 5906 233d
00000090: 87fe 143d 6ae4 cb3d d6a3 4b3d e2a8 8dbc
000000a0: 1756 df3d 0f0e aebc 8dab a33d 422f 853d
000000b0: 9ca7 8e3d 081c 7f3d a146 e93d df61 393c
000000c0: 9ded b83d a72a 9e3d e293 4abd 5763 4c3c
000000d0: 61c6 f6bc 96e7 7a3e b87d f73d dc87 fb3d
000000e0: 9d0a 023d a191 4a3d e98e 443e eea6 aa3d
000000f0: 7021 4d3b f0d0 173d c619 113e 32a5 e63c
00000100: 4fbb 943c 31c3 8bbd d622 9e3d adad 1bbd
00000110: 781d a6bc f36d 47bd 6ccd fe3d db17 b23d
00000120: 6860 a53d e8d5 8dbd 69e3 96bd aba2 14bd
00000130: ff40 5abd 5339 0b3d 7229 f63c f3d1 273d
00000140: 9e82 31bd ec52 6abd fc5f 363d caef 0abd
00000150: 747f 613a 5322 a3bc eca0 443d 7988 85bd
00000160: 6d76 2dbd 04f4 bf3d 106a 703d b277 683d
00000170: 8f4e 8e3d b531 b93d 24d2 0bbc 9645 89bd
00000180: 484d 123e 71f8 e7bc 05b7 f3bc 1389 7d3b
00000190: feaa 1cbd d684 b13d b87a 35bc 0282 79bd
000001a0: 6ed7 ac3d 73cb 6abd 24cf 91bd 4f47 3dbd
000001b0: f26a 96bd ae57 713d 11cc ab3d efd7 813c
000001c0: bfd8 d33c 914b a0bd 0872 f1bc 0fb4 233d
000001d0: cb88 953d 117e 5abb 2b60 c13c e0d5 d3bd
000001e0: eb39 293d 74d1 bf3b 328d bebb b8eb 68bd
000001f0: 1328 1dbe 7da6 63bd 81df d6bc 35a6 87bd
00000200: 631a 903d ca76 62bd 1cdf 933d 0d33 d63c
00000210: c288 91bd 53df 6d3d 0136 933c 9ac2 03bd
00000220: d7a8 8ebd 5cdc aabd 5ab0 c43c bed8 dc3d
00000230: 3ddf ba3d 0aa8 a9bb c433 b83c 396f c2bd
00000240: 1502 c1bd 3439 81bd 0674 313d eacd 423d
00000250: 89c4 a53d 3af5 eebd 56fd 183c cb56 49bd
00000260: 7d9a 9cbb 4ad9 eabd a7c8 073e 9921 02bd
00000270: cbe5 a03d baeb e0bc 2c23 0d3d ed35 2ebd
00000280: 9f69 ac3d d874 473c a6f8 373b 6c94 a0bd
00000290: 4139 cb3d 426e 143c eb0d 1dbd d998 a83d
000002a0: 4a04 9b3d efa7 c8bc 6d70 6bbd 4d80 a1bd
000002b0: 56c1 da3d fa69 443c 5cd1 3dbd eac3 14bd
000002c0: 04bb a2bd f2e4 343c 1ff3 153d 44bf 24be
000002d0: e964 a83d 844b 953d dff8 10bd 5ff6 adbd
000002e0: 5834 eb3c 71b8 8e3d f231 34bc 4e5a 30bd
000002f0: 7565 0d3c 7b78 d83c 606a b3bd 87f5 77bc
00000300: 0471 8b3d bee6 d23d ce91 133c c091 a63c
00000310: 7fc5 363c cc86 e4bd 60dc d13d 55cf ab3d
00000320: 8925 01bd 6b25 973d 5d7a 023e c74e 8a3a
00000330: 4747 a9bc ad89 2fbd cd5a 9bbd e15a c2bd
00000340: 0fc1 56bd a0ac 8fbc dafa 913d c574 823d
00000350: 1357 f3bd 2f5b 04be 05fc 58bc be40 a63d
00000360: c7e9 b93d 111c 0bbd 5e7c 2d3c 80eb 02bd
00000370: f87a 5ebd 1e19 913d 474b 1cbd f6cf 89bc
00000380: adf8 aabd 2b0c 663d 35fa 6c3d e88a fa3c
00000390: 54ac 6fbd aa9e a9bd a995 8bbd 2168 2b3c
000003a0: 4142 883c efff a63d 0373 a7bd f292 efbd
000003b0: bd4c 473c 8920 3ebd 5a45 87bd cac0 a0bd
000003c0: 9fb5 0c3d 90ac e9bc 6898 e53c d142 97bd
000003d0: b88a 7abc a2ed 71bd f4e1 27bd 7c09 e43c
000003e0: 534f ccbc d632 543d d88a dcbc aed8 93bd
000003f0: a796 72bc 219f 26bd 6252 d2bc 369d a3bd

net.0.bias f4 [128]
0.13598119 -0.013182038 0.001749005 0.056016102 0.11391297 0.030721368 -0.0001090758 -0.08641405
0.10250741 0.05458375 -0.0059933956 -0.017037952 -0.058184177 0.11182047 -0.073394656 -0.05298463
0.05322697 -0.086724006 0.019617092 -0.05850156 0.0017242751 -0.09415088 0.094534226 0.108790286
-0.012658035 0.03723223 0.098376945 -0.040425323 -0.043117475 0.06622498 -0.057780564 0.06358251
0.10650503 0.03624055 0.062011328 0.023360452 -0.13245809 -0.0015782687 0.096632265 0.12244787
0.12408111 -0.117006324 0.0029053604 0.21196339 -0.034942936 -0.07751431 -0.09432258 0.12828685
-0.07154291 -0.008001383 0.022967096 0.038241822 -0.039970126 0.022492321 0.0049716374 -0.05645243
-0.04535828 0.02865298 -0.013147477 0.010933195 -0.11161473 0.021122217 0.11829874 -0.085532196
-0.014258375 0.100926846 -0.0114179645 0.080508 -0.057283137 0.02235853 -0.11246651 0.08313293
-0.0070359027 0.06559188 0.022489306 -0.10987286 -0.032092933 0.08356302 0.17086826 -0.054552134
-0.016565103 -0.011829095 0.069139436 0.14404488 -0.023953082 0.054692928 -0.045101915 -0.027420782
-0.04796156 0.093843885 0.14939862 -0.022601893 0.00050877454 -0.091414444 0.14438027 0.024216175
-0.09125735 0.0006293985 0.024697132 -0.03237897 -0.08717945 -0.104123324 -0.08295683 -0.06548754
0.026672265 0.17370105 1.8463643e-05 -0.0588762 -0.09059925 -0.1207554 0.0337296 0.027400274
0.089931816 -0.12110193 -0.06073764 -0.044447344 0.1480278 -0.10988288 0.05083826 -0.07222831
0.01984541 -0.04527408 -0.049688764 -0.0009436133 -0.10251069 -0.04271467 -0.059924502 -0.054693285
00000000: a73e 0b3e 7af9 57bc df3e e53a 2471 653d
00000010: 344b e93d 61ab fb3c a0bf e4b8 d9f9 b0bd
00000020: 68ef d13d 3693 5f3d 3f64 c4bb 2d93 8bbc
00000030: 8852 6ebd 2102 e53d f04f 96bd 6906 59bd
00000040: 8604 5a3d 5b9c b1bd 06b4 a03c 559f 6fbd
00000050: 1201 e23a 2dd2 c0bd 299b c13d 71cd de3d
00000060: a663 4fbc d380 183d da79 c93d 0695 25bd
00000070: f39b 30bd f6a0 873d 50ab 6cbd 8c37 823d
00000080: 4f1f da3d f970 143d 97ff 7d3d 6b5e bf3c
00000090: 18a3 07be e9dd ceba 23e7 c53d f3c5 fa3d
000000a0: 3d1e fe3d 03a1 efbd dc67 3e3b ee0c 593e
000000b0: 5320 0fbd d3bf 9ebd 322c c1bd a15d 033e
000000c0: 1785 92bd 3c18 03bc 7e25 bc3c 75a3 1c3d
000000d0: b7b7 23bd d141 b83c 1ee9 a23b aa3a 67bd
000000e0: 9bc9 39bd a8b9 ea3c 8468 57bc 2521 333c
000000f0: 4396 e4bd 8008 ad3c 9c46 f23d 812b afbd
00000100: f69b 69bc bcb2 ce3d 6a12 3bbc 61e1 a43d
00000110: b9a1 6abd 3c29 b73c d754 e6bd 9941 aa3d
00000120: 6e8d e6bb 0955 863d 7e3b b83c 0605 e1bd
00000130: e173 03bd 1723 ab3d 17f8 2e3e 0f72 5fbd
00000140: 8ab3 87bc d2ce 41bc fa98 8d3d 8080 133e
00000150: 4139 c4bc b105 603d c9bc 38bd 8ca1 e0bc
00000160: 5773 44bd 3931 c03d f4fb 183e 9b27 b9bc
00000170: 485f 053a 7f37 bbbd 6cd8 133e 0061 c63c
00000180: 22e5 babd 38fe 243a a451 ca3c d09f 04bd
00000190: 248b b2bd 9c3e d5bd 45e5 a9bd 551e 86bd
000001a0: cb7f da3c b0de 313e 5fe2 9a37 2c28 71bd
000001b0: 198c b9bd 9b4e f7bd 0d28 0a3d 8a76 e03c
000001c0: 2c2e b83d 4a04 f8bd 08c8 78bd 6b0e 36bd
000001d0: 9994 173e 460a e1bd c83b 503d 70ec 93bd
000001e0: d792 a23c 5071 39bd 7286 4bbd d15c 77ba
000001f0: 20f1 d1bd 94f5 2ebd 6573 75bd 1106 60bd

net.2.weight f4 [192, 128]
-0.074757665 -0.07310836 0.11867947 -0.11678046 -0.042061705 -0.06585335 -0.12480136 0.08795472
0.0010698789 0.0056392127 0.019038297 -0.02266364 0.011552602 -0.06533971 0.054018434 -0.003566105
0.09641661 0.026205417 -0.123391636 0.04527794 0.08931897 -0.05168409 -0.08967308 -0.17921895
0.029785587 -0.09687398 -0.11212225 0.016957333 -0.06154671 0.04156231 -0.18047036 -0.114935294
-0.09748135 0.0019218905 -0.12704767 -0.24995595 -0.06773587 -0.04479822 -0.056522503 -0.112381905
-0.10022687 -0.085254855 -0.038638234 -0.12257847 -0.10892027 0.082482494 -0.075386174 -0.06715794
-0.090467446 -0.12526731 -0.22486189 -0.12995853 -0.094790526 -0.12379228 -0.07423323 -0.09730103
0.043191522 -0.114933126 -0.08161174 0.010943005 -0.070633374 -0.033711154 -0.09615498 -0.066087544
0.029771695 0.04982677 0.0042516077 -0.00022952465 0.0071255 -0.15159988 -0.079149336 -0.00879653
-0.097849846 0.04842455 -0.11396551 0.057815775 -0.03205585 -0.081176184 -0.14387845 0.087192446
-0.110375024 0.015501445 -0.06600517 -0.05290424 -0.05662887 -0.060968664 -0.10390312 -0.08993971
-0.09488796 -0.009044508 -0.12553522 -0.071389005 -0.0052121743 0.057788953 -0.11129603 0.09834326
-0.086097255 -0.06441752 -0.15518917 -0.14069328 -0.06626314 -0.123630986 0.07018271 -0.04206317
0.11913278 -0.06250096 -0.009738778 -0.047215346 -0.025061034 -0.04220884 0.07125747 -0.12609324
-0.07257271 -0.18944645 -0.03491284 0.07123221 -0.06544978 -0.111882664 -0.19109464 -0.044706013
-0.061290648 0.13918087 -0.10893767 -0.030113518 -0.13424551 0.13893706 -0.13889919 -0.11931559
0.12639193 0.08261185 0.0073853685 -0.023514181 0.115400106 -0.0008407056 0.14718293 0.036424007
0.12976302 -0.023069894 0.07233984 -0.012913937 -0.017663872 0.1615413 -0.04910285 0.009967083
0.054621067 0.012105805 0.12257369 -0.024865104 -0.050249532 0.045280002 0.16003312 0.1926189
-0.04426124 0.002942922 0.13821162 0.06323725 0.17956498 0.036298823 0.12902465 0.29693383
0.18060331 -0.005999539 0.1176535 0.068601 -0.05338273 -0.029419938 0.16032633 0.063453436
0.11548253 -0.073779404 0.06671154 0.18168631 -0.037046384 0.009196062 0.04120185 0.104582995
0.013096305 0.21412902 0.10964512 0.08180827 0.050368633 -0.033293355 -0.06260238 0.04370243
-0.06306623 0.056506354 0.027177865 0.048355553 -0.050978266 0.011886453 0.077964276 0.028271573
-0.059349403 0.20055534 0.04095428 0.077793404 0.08355098 0.1986216 -0.09744283 0.1686466
0.013809906 0.08821293 0.21537755 -0.019948814 -0.014250826 0.08537551 0.12397941 0.098136224
-0.042338263 0.11347315 0.13249871 0.103837505 0.014261421 0.014521461 -0.016459856 -0.051762197
-0.059185013 0.17435883 0.16057813 -0.067175455 0.05189866 0.08703541 0.117172025 0.060786948
0.0078053395 0.11124739 0.0967111 0.12379858 0.03876981 -0.121654235 0.021178998 -0.07669884
0.013466809 0.17536479 -0.004417203 -0.04663321 -0.022713212 -0.004350027 0.019748034 0.072459765
0.18942265 0.07688386 -0.0029487775 0.02408943 0.12571993 0.062201187 0.07528519 0.0018705231
0.10311707 -0.06989583 0.14086843 -0.043590628 -0.05887088 -0.06435876 -0.0063374 0.106389806
00000000: 8c1a 99bd d6b9 95bd 390e f33d 982a efbd
00000010: e548 2cbd 1fde 86bd db97 ffbd 9b21 b43d
00000020: 2e3b 8c3a 25c9 b83b 34f6 9b3c 19a9 b9bc
00000030: 2047 3d3c d3d0 85bd 6f42 5d3d 50b5 69bb
00000040: 1276 c53d beac d63c c1b4 fcbd 5c75 393d
00000050: ddec b63d b2b2 53bd 85a6 b7bd 2c85 37be
00000060: e700 f43c dd65 c6bd 5aa0 e5bd 1bea 8a3c
00000070: 6718 7cbd 3e3d 2a3d 39cd 38be 3263 ebbd
00000080: 4da4 c7bd f2e7 fb3a c918 02be 74f4 7fbe
00000090: 1bb9 8abd 577e 37bd 2484 67bd 7c28 e6bd
000000a0: bf43 cdbd 199a aebd 2043 1ebd 6c0a fbbd
000000b0: 9711 dfbd 95ec a83d 1164 9abd 1a8a 89bd
000000c0: ff46 b9bd 1346 00be 3242 66be d913 05be
000000d0: 8921 c2bd cf86 fdbd 9707 98bd c345 c7bd
000000e0: 98e9 303d 0f62 ebbd 0e24 a7bd 4a4a 333c
000000f0: 3ba8 90bd b514 0abd e7ec c4bd e858 87bd
00000100: c5e3 f33c 2817 4c3d 1251 8b3b 8eac 70b9
00000110: 077d e93b 003d 1bbe 0c19 a2bd 521f 10bc
00000120: 8065 c8bd d258 463d c066 e9bd 3cd0 6c3d
00000130: ff4c 03bd b33f a6bd df54 13be f491 b23d
00000140: 4d0c e2bd c6f9 7d3c b82d 87bd 1eb2 58bd
00000150: adf3 67bd 47ba 79bd 29cb d4bd 5032 b8bd
00000160: 9e54 c2bd 6b2f 14bc 4e8c 00be 6634 92bd
00000170: e3ca aabb 1cb4 6c3d 2cef e3bd 3168 c93d
00000180: c253 b0bd 55ed 83bd e9e9 1ebe e611 10be
00000190: f8b4 87bd 3e32 fdbd f4bb 8f3d 6e4a 2cbd
000001a0: e3fb f33d 8100 80bd 658f 1fbc e164 41bd
000001b0: cc4c cdbc 2de3 2cbd 70ef 913d 961e 01be
000001c0: 00a1 94bd 40fe 41be c400 0fbd 31e2 913d
000001d0: 890a 86bd bd22 e5bd 50ae 43be a71d 37bd
000001e0: e70b 7bbd 6e85 0e3e b71a dfbd a0b0 f6bc
000001f0: a877 09be 8445 0e3e 973b 0ebe bb5b f4bd
00000200: e36c 013e 6730 a93d f600 f23b d0a0 c0bc
00000210: e456 ec3d cc62 5cba 1fb7 163e 5731 153d
00000220: 99e0 043e 13fd bcbc e926 943d fa94 53bc
00000230: d3b3 90bc 156b 253e 1220 49bd fa4c 233c
00000240: 57ba 5f3d 6d57 463c ea07 fb3d e7b1 cbbc
00000250: 74d2 4dbd 8677 393d b9df 233e e43d 453e
00000260: 464b 35bd 0ade 403b 5987 0d3e 8882 813d
00000270: e2df 373e 13ae 143d 0a1f 043e b607 983e
00000280: 13f0 383e c897 c4bb 51f4 f03d ae7e 8c3d
00000290: d9a7 5abd 1502 f1bc 962c 243e e0f3 813d
000002a0: 1b82 ec3d a819 97bd 0fa0 883d fa0b 3a3e
000002b0: f3bd 17bd 14ab 163c 45c3 283d 9c2f d63d
000002c0: e291 563c a344 5b3e 9f8d e03d 188b a73d
000002d0: 574f 4e3d 9d5e 08bd ad35 80bd 5201 333d
000002e0: de28 81bd 3573 673d 1da4 de3c 7910 463d
000002f0: 96ce 50bd 66bf 423c bcab 9f3d c999 e73c
00000300: 5c18 73bd 615e 4d3e adbf 273d 2652 9f3d
00000310: c71c ab3d 7663 4b3e 1b90 c7bd b2b1 2c3e
00000320: f242 623c fba8 b43d ef8b 5c3e b26b a3bc
00000330: 4c7c 69bc 5bd9 ae3d ebe8 fd3d a5fb c83d
00000340: e36a 2dbd 9c64 e83d bead 073e c2a8 d43d
00000350: bca8 693c 6ceb 6d3c d2d6 86bc 9904 54bd
00000360: fc6b 72bd 1f8b 323e 986e 243e 4993 89bd
00000370: b093 543d 9f3f b23d e3f7 ef3d bcfb 783d
00000380: efc3 ff3b acd5 e33d 7810 c63d 1c8a fd3d
00000390: 18cd 1e3d db25 f9bd 947f ad3c 4814 9dbd
000003a0: e4a3 5c3c d492 333e 2fbe 90bb 7702 3fbd
000003b0: 0f11 babc ac8a 8ebb a1c6 a13c c965 943d
000003c0: 03f8 413e 4975 9d3d 4740 41bb 3257 c53c
000003d0: babc 003e acc6 7e3d 1f2f 9a3d 572c f53a
000003e0: 0b2f d33d 8b25 8fbd d03f 103e 168c 32bd
000003f0: 9822 71bd 87ce 83bd f7a9 cfbb e6e2 d93d

net.2.bias f4 [192]
-0.021688394 0.1886171 0.026400542 0.07130117 -0.012409876 -0.0100910235 0.008444547 -0.05042616
-0.14590773 0.015959019 -0.017333409 -0.11852455 -0.008055495 -0.0028144561 -0.04733009 0.011285646
0.14312063 -0.009022242 0.010045433 0.1041622 -0.07273138 -0.0071866177 -0.08356833 0.07056416
0.07846307 0.11348478 0.02063878 0.20976141 0.00046714483 -0.047583736 -0.09582834 -0.034854487
0.04327279 0.021755224 0.18375249 0.012797239 0.010540621 0.026957048 -0.07980214 0.017670078
-0.08000135 -0.080519594 0.07512038 0.091866694 9.892433e-05 -0.058436673 -0.14575174 -0.06536824
0.09173865 -0.07667972 -0.018582588 0.08866268 0.02178838 -0.02868312 0.06762463 0.023907559
-0.042208295 -0.09345878 0.0152577665 -0.12370912 -0.00031535313 0.0046545286 0.035229 -0.025200706
-0.11551988 -0.0873472 -0.11159051 -0.026568472 0.05292292 -0.11597105 0.12884708 -0.08982037
-0.026299134 -0.05126824 0.038062807 -0.0058913967 0.06046647 0.07967385 0.17879938 -0.017423935
-0.013432088 0.07305216 -0.028178187 -0.016706398 -0.0828153 -0.061440155 0.040108543 -0.044964403
-0.082247086 0.09364106 0.012230452 0.09833722 -0.06227732 0.09015389 -0.060227085 -0.018289357
0.055076316 -0.10160903 -0.027093127 0.025578555 -0.04193125 0.036260746 -0.016594129 -0.07645113
0.11062959 -0.028912634 0.076231696 -0.08412831 0.085414 -0.0105946185 -0.012118782 -0.08632926
-0.023062358 0.03401708 0.10398053 0.044400617 0.03769627 -0.08438345 0.03831069 -0.064107664
-0.12943512 -0.016075017 -0.018032528 -0.0062384247 -0.00111927 -0.042392682 -0.013950546 0.059038978
0.040322043 0.12665024 0.016712673 -0.053096127 -0.08627984 -0.063355476 -0.07720379 0.08630177
-0.019680742 0.13688318 -0.021733187 -0.02347223 -0.12184391 -0.03749398 -0.011084708 0.013611921
0.12093289 -0.0028563892 0.0745897 0.22367933 0.13942562 -0.10067943 0.0068889493 0.077446595
0.08292148 0.0969956 0.08431125 -0.0087152915 0.079289034 0.022971531 0.04802898 0.17007098
0.107904516 0.01823702 -0.0444058 0.01104992 0.0048294314 -0.069442675 -0.0062545193 0.09702343
-0.008735786 0.033910494 -0.05621907 0.07754049 -0.028825495 -0.1011394 0.094456546 -4.229455e-05
-0.0046199854 0.15044835 0.035763606 0.020017749 0.12533382 -0.019736927 0.028393695 -0.0029477645
-0.12028634 0.014262308 0.0028409814 -0.09858739 -0.099111184 -0.012005158 0.014238212 -0.05660052
00000000: dcab b1bc d724 413e f345 d83c 5906 923d
00000010: cb52 4bbc d254 25bc ff5a 0a3c a98b 4ebd
00000020: d668 15be 7dbc 823c cbfe 8dbc 00bd f2bd
00000030: 32fb 03bc bd72 38bb 32dd 41bd 6ee7 383c
00000040: 378e 123e 07d2 13bc 9a95 243c fe52 d53d
00000050: 31f4 94bd b87d ebbb df25 abbd f183 903d
00000060: 3fb1 a03d b56a e83d a912 a93c b2cb 563e
00000070: 1eeb f439 2ae7 42bd a641 c4bd 94c3 0ebd
00000080: cf3e 313d 0338 b23c 9d29 3c3e 83ab 513c
00000090: 92b2 2c3c 07d5 dc3c 4e6f a3bd d7c0 903c
000000a0: bfd7 a3bd 75e7 a4bd b7d8 993d 9b24 bc3d
000000b0: 9875 cf38 4b5b 6fbd f23f 15be c9df 85bd
000000c0: 79e1 bb3d 420a 9dbd 833a 98bc c794 b53d
000000d0: 8b7d b23c ddf8 eabc c87e 8a3d c9d9 c33c
000000e0: 9be2 2cbd 5167 bfbd b6fb 793c 355b fdbd
000000f0: fb55 a5b9 0485 983b 494c 103d b671 cebc
00000100: b095 ecbd 17e3 b2bd 9189 e4bd 20a6 d9bc
00000110: b4c5 583d 3b82 edbd 7df0 033e bef3 b7bd
00000120: 4871 d7bc a5fe 51bd bfe7 1b3d 9e0c c1bb
00000130: b0ab 773d 0b2c a33d 2f17 373e a4bc 8ebc
00000140: 4312 5cbc 5f9c 953d f1d5 e6bc dbdb 88bc
00000150: 119b a9bd aca8 7bbd db48 243d 982c 38bd
00000160: 2971 a8bd e2c6 bf3d 3c62 483c 0665 c93d
00000170: 8116 7fbd 9aa2 b83d adb0 76bd 90d3 95bc
00000180: b497 613d 6518 d0bd 68f2 ddbc 1e8a d13c
00000190: 1ac0 2bbd 2686 143d 69f0 87bc 6992 9cbd
000001a0: c491 e23d 30da ecbc 5d1f 9c3d 774b acbd
000001b0: 89ed ae3d 0d95 2dbc db8d 46bc 65cd b0bd
000001c0: 45ed bcbc 7e55 0b3d bef3 d43d 6cdd 353d
000001d0: 6767 1a3d 3bd1 acbd aceb 1c3d e14a 83bd
000001e0: a48a 04be c1af 83bc f4b8 93bc b36b ccbb
000001f0: 78b4 92ba f3a3 2dbd d590 64bc dbd2 713d
00000200: ba28 253d 9ab0 013e 04e9 883c 537b 59bd
00000210: 7cb3 b0bd 84c0 81bd 051d 9ebd fbbe b03d
00000220: 8239 a1bc 1b2b 0c3e cc09 b2bc d648 c0bc
00000230: 4d89 f9bd 4a93 19bd a39c 35bc 8904 5f3c
00000240: aaab f73d 4232 3bbb 7cc2 983d 320c 653e
00000250: 97c5 0e3e 0431 cebd b2bc e13b 529c 9e3d
00000260: bdd2 a93d a1a5 c63d 60ab ac3d 95ca 0ebc
00000270: 4a62 a23d cb2e bc3c 09ba 443d 1627 2e3e
00000280: 0bfd dc3d ce65 953c dbe2 35bd b90a 353c
00000290: 3540 9e3b f637 8ebd b6f2 ccbb 38b4 c63d
000002a0: 8b20 0fbc bbe5 0a3d f845 66bd 8ccd 9e3d
000002b0: 7223 ecbc 2c22 cfbd 6f72 c13d 6d65 31b8
000002c0: 3f63 97bb 220f 1a3e dc7c 123d 43fc a33c
000002d0: 8257 003e 56af a1bc e599 e83c 482f 41bb
000002e0: af58 f6bd 75ac 693c c22f 3a3b 2fe8 c9bd
000002f0: cefa cabd 48b1 44bc 6447 693c f2d5 67bd

exp_avg f4 [128, 142]
0.0006353786 0.002289556 -0.0012102016 -0.0011536793 -0.014304769 -0.019295018 -0.018543663 0.00075019035
-4.731581e-05 0.0021889005 -0.0013108859 -0.0012853402 -0.018508434 -0.019306857 -0.018556023 -0.0033335856
-0.0021907287 0.0006358818 5.945286e-06 -0.016335318 -0.0005106019 -0.0012810784 -0.0033523683 -0.0033499773
-0.0021988584 0.00065686327 0.0006739873 -0.017673103 -0.016989602 -0.016381882 -0.0041016308 -0.0041016364
-0.0014501013 0.0018480739 -0.0039346805 -0.0021689716 -0.0019021304 -0.0026317756 -0.0026300077 -0.0026008887
4.4535427e-06 0.001755012 -0.002345085 -0.0022965046 -0.004873635 -0.0028347229 -0.0028671336 -0.0028585244
-0.014860211 -0.013488772 -0.014144409 -0.014591271 -0.0020380835 -0.01830094 -0.018283362 -0.01828357
-0.018314263 0.00062840275 -0.0022576603 -1.5189925e-06 -0.0021572474 -0.0021571834 -4.8804493e-05 -1.4653105e-07
-0.015478048 0.001250749 -0.0010697368 -0.0038131843 -9.508324e-07 -0.01128543 0.00516464 0.0028225991
0.0 0.0 -0.013573719 -0.013236414 -0.016358357 0.0 0.0 2.235443e-05
0.0 0.0 0.0 0.0 -1.5837907e-11 0.0 0.0 0.0
0.0 -0.01943606 -0.016642174 -0.01763212 8.258548e-05 8.258548e-05 -0.016630769 -0.012688305
-0.014714894 0.0 0.0 -0.017444411 -0.01340364 -0.013442157 0.0 0.0
1.4707707e-05 0.0 0.0 0.0 0.0 1.4707719e-05 0.0 0.0
0.0 0.0 -0.017736357 -0.017520722 -0.019180814 -0.00405703 -0.00405703 -0.0142287705
-0.015209741 -0.015810097 0.0 0.0 -0.014700807 -0.014921622 -0.0150501635 0.0
0.0 0.000354212 0.0 0.0 0.0 0.0 2.207725e-05 0.0
0.0 0.0 0.0 -0.002705921 -0.028895695 -0.00012583233 -1.7515553e-20 3.8730785e-14
-1.2063255e-08 -7.731286e-09 -7.104085e-05 -7.104858e-05 -7.104426e-05 3.8453074e-21 1.0752873e-20 1.0698005e-15
-7.731323e-09 -7.731286e-09 -7.104858e-05 -7.104858e-05 -7.104426e-05 -1.2047165e-08 4.418679e-14 6.5257294e-15
-4.315796e-09 -7.104858e-05 -1.2047126e-08 -1.2047204e-08 -1.169133e-08 -1.2047165e-08 -7.731363e-09 -1.2047165e-08
1.60937e-11 -7.104424e-05 -7.104425e-05 -7.103651e-05 -7.3594e-09 -7.715234e-09 -7.237127e-05 -1.2120836e-08
-7.104865e-05 -7.235949e-05 -7.1036884e-05 -7.104462e-05 -7.104859e-05 -7.104426e-05 -7.2363175e-05 -4.3158e-09
-7.104085e-05 -7.2359144e-05 -7.104858e-05 -7.104426e-05 -7.104859e-05 -7.104426e-05 -7.2363175e-05 -1.3346637e-06
-1.3346637e-06 -1.3303439e-06 -1.3346637e-06 -7.237119e-05 -7.104086e-05 -7.104086e-05 -7.104858e-05 -4.3158774e-09
-1.2047199e-08 3.7602772e-12 -7.731363e-09 -1.2047165e-08 2.9681903e-16 -4.3158384e-09 -7.236651e-05 -7.359479e-09
3.934311e-18 3.934311e-18 3.934311e-18 -7.236651e-05 -7.731325e-09 2.8047695e-27 0.0 0.0
-7.2366885e-05 -7.2366885e-05 -7.235915e-05 0.0 0.0 -3.4408628e-12 0.0 0.0
0.0 0.0 -3.4408628e-12 0.0 0.0 0.0 0.0 -4.3155217e-09
-1.2062976e-08 -1.2062976e-08 4.58497e-35 4.978522e-39 -7.715194e-09 -7.731046e-09 -4.3319286e-09 0.0
0.0 1.613104e-11 1.609231e-11 9.974861e-21 0.0 0.0 3.8730836e-14 0.0
0.0 0.0 0.0 2.8047853e-27 0.0 0.0 0.0 0.0
00000000: 898f 263a 600c 163b a19f 9eba 0e37 97ba
00000010: 8d5e 6abc 9610 9ebc e1e8 97bc 6ca8 443a
00000020: f774 46b8 a873 0f3b 08d2 abba dc78 a8ba
00000030: 009f 97bc 6a29 9ebc cd02 98bc 4978 5abb
00000040: 5492 0fbb 4eb1 263a 9e7d c736 a5d1 85bc
00000050: ead9 05ba dce9 a7ba 68b3 5bbb 4b8b 5bbb
00000060: b91a 10bb 5931 2c3a 86ae 303a 2fc7 90bc
00000070: c72d 8bbc 4c33 86bc f966 86bb 0567 86bb
00000080: 5311 beba 123b f23a 7eee 80bb 4e25 0ebb
00000090: e850 f9ba de79 2cbb 355c 2cbb ac73 2abb
000000a0: a46f 9536 6e08 e63a ffaf 19bb f480 16bb
000000b0: 03b3 9fbb c2c6 39bb 85e6 3bbb 1556 3bbb
000000c0: 3e78 73bc 0300 5dbc f4bd 67bc 3a10 6fbc
000000d0: 5e91 05bb daeb 95bc fdc6 95bc 6dc7 95bc
000000e0: cb07 96bc 65bb 243a 41f5 13bb 2fe0 cbb5
000000f0: 9b60 0dbb 885f 0dbb 6db3 4cb8 2656 1db4
00000100: a397 7dbc 2cf0 a33a 6936 8cba 9ee6 79bb
00000110: b43c 7fb5 86e6 38bc 243c a93b 5bfb 383b
00000120: 0000 0000 0000 0000 4e64 5ebc 8bdd 58bc
00000130: f601 86bc 0000 0000 0000 0000 c685 bb37
00000140: 0000 0000 0000 0000 0000 0000 0000 0000
00000150: cc4f 8bad 0000 0000 0000 0000 0000 0000
00000160: 0000 0000 5f38 9fbc 2b55 88bc 3c71 90bc
00000170: be31 ad38 be31 ad38 403d 88bc 9ce2 4fbc
00000180: bd16 71bc 0000 0000 0000 0000 95e7 8ebc
00000190: f19a 5bbc 7e3c 5cbc 0000 0000 0000 0000
000001a0: 1fc1 7637 0000 0000 0000 0000 0000 0000
000001b0: 0000 0000 2cc1 7637 0000 0000 0000 0000
000001c0: 0000 0000 0000 0000 d64b 91bc 9e87 8fbc
000001d0: 1521 9dbc d6f0 84bb d6f0 84bb ca1f 69bc
000001e0: 4732 79bc 2d84 81bc 0000 0000 0000 0000
000001f0: a7db 70bc d279 74bc f694 76bc 0000 0000
00000200: 0000 0000 88b5 b939 0000 0000 0000 0000
00000210: 0000 0000 0000 0000 8932 b937 0000 0000
00000220: 0000 0000 0000 0000 0000 0000 d255 31bb
00000230: aab6 ecbc dcf1 03b9 026e a59e 8e6d 2e29
00000240: c23e 4fb2 8ed2 04b2 c4fb 94b8 eaff 94b8
00000250: 99fd 94b8 8845 911d b41d 4b1e ac2c 9a26
00000260: b8d2 04b2 8ed2 04b2 eaff 94b8 eaff 94b8
00000270: 99fd 94b8 fef7 4eb2 e7ff 4629 3b1d eb27
00000280: 254a 94b1 eaff 94b8 d2f7 4eb2 2af8 4eb2
00000290: 03db 48b2 fef7 4eb2 e5d2 04b2 fef7 4eb2
000002a0: ca8f 8d2d 96fd 94b8 97fd 94b8 70f9 94b8
000002b0: f8dd fcb1 f58b 04b2 08c6 97b8 003c 50b2
000002c0: f4ff 94b8 b5bf 97b8 a3f9 94b8 cafd 94b8
000002d0: ecff 94b8 99fd 94b8 afc1 97b8 2e4a 94b1
000002e0: c4fb 94b8 85bf 97b8 eaff 94b8 99fd 94b8
000002f0: ecff 94b8 99fd 94b8 afc1 97b8 b222 b3b5
00000300: b222 b3b5 458e b2b5 b222 b3b5 fdc5 97b8
00000310: c5fb 94b8 c5fb 94b8 eaff 94b8 dc4a 94b1
00000320: 24f8 4eb2 914d 842c e5d2 04b2 fef7 4eb2
00000330: c21a ab25 844a 94b1 79c3 97b8 a9de fcb1
00000340: 8426 9122 8426 9122 8426 9122 79c3 97b8
00000350: bad2 04b2 7c37 5e13 0000 0000 0000 0000
00000360: adc3 97b8 adc3 97b8 86bf 97b8 0000 0000
00000370: 0000 0000 1321 72ac 0000 0000 0000 0000
00000380: 0000 0000 0000 0000 1321 72ac 0000 0000
00000390: 0000 0000 0000 0000 0000 0000 bb47 94b1
000003a0: 883d 4fb2 883d 4fb2 61c7 7306 1836 3600
000003b0: c88b 04b2 80d1 04b2 0cd8 94b1 0000 0000
000003c0: 0000 0000 dfe3 8d2d a98c 8d2d 786b 3c1e
000003d0: 0000 0000 0000 0000 9d6d 2e29 0000 0000
000003e0: 0000 0000 0000 0000 0000 0000 ce37 5e13
000003f0: 0000 0000 0000 0000 0000 0000 0000 0000

exp_avg_sq f4 [128, 142]
0.0068271924 0.012838543 0.012523414 0.011225556 0.01059077 0.006523871 0.0050765565 0.005536535
0.0070979297 0.011452006 0.009656747 0.0069221053 0.009813555 0.010693093 0.010926119 0.007541861
0.009236274 0.008229526 0.0065105297 0.0074312487 0.0074534086 0.009189298 0.010840747 0.007170314
0.0077967565 0.0096334135 0.0078788465 0.013747528 0.012813638 0.011016872 0.0075049084 0.0056535066
0.009822879 0.0103854565 0.010450758 0.014960884 0.011291005 0.010067447 0.0057173176 0.006090972
0.013636465 0.013004941 0.013421929 0.00844094 0.011435321 0.008006937 0.007477999 0.005315468
0.01159059 0.009255804 0.010104857 0.004293395 0.008768706 0.006918935 0.0054646907 0.004464395
0.009208919 0.0062685017 0.008897413 0.002820262 0.008435368 0.006062674 0.0055609588 0.0032205672
0.011077354 0.009090645 0.005988222 0.0019721123 0.00068281894 0.010901869 0.007737372 0.0054729315
0.0 0.0 0.006659286 0.003688048 0.0029838136 0.0 0.0 0.0019025435
0.0 0.0 0.0 0.0 0.0012728565 0.0 0.0 0.0
0.0 0.0138319945 0.010732642 0.007898142 0.0006444253 0.00032780238 0.011189235 0.008926434
0.0060081286 0.0 0.0 0.0077822087 0.0056871953 0.002908109 0.0 0.0
0.0013764165 0.0 0.0 0.0 0.0 0.0010900351 0.0 0.0
0.0 0.0 0.009761107 0.0063889422 0.005098793 0.00052005413 0.00042291344 0.00905472
0.0076824506 0.0044626007 0.0 0.0 0.0073770736 0.0037965802 0.0028592797 0.0
0.0 0.0006284359 0.0 0.0 0.0 0.0 0.00039714872 0.0
0.0 0.0 0.0 0.17054774 0.011064846 0.49551466 0.002855927 0.004732573
0.0051559154 0.0044198683 0.0036480436 0.0029100524 0.002399688 0.0014856769 0.0029620943 0.004453726
0.0042362856 0.004006393 0.0038257558 0.00413315 0.0047325087 0.0028190447 0.0047795586 0.004234782
0.0042826007 0.004564151 0.0038377962 0.0033781782 0.003892521 0.0025819843 0.003527376 0.0044713146
0.0038215516 0.0056784605 0.0038858603 0.0047678133 0.0043615224 0.004226272 0.004716121 0.004662694
0.0036553328 0.004793766 0.0042542852 0.004629998 0.0036326777 0.0026045595 0.0049736327 0.00543355
0.004898164 0.003547847 0.0040976303 0.003918914 0.0040025134 0.0025071197 0.0046162144 0.0042790216
0.0034455413 0.0025728657 0.003606497 0.0033424487 0.0032189514 0.0029431246 0.0037099991 0.002627577
0.0033148725 0.0020198189 0.0028563766 0.002808672 0.003013609 0.0018058683 0.0049383235 0.0033626012
0.0022071651 0.00079974614 0.00023320205 0.0038214668 0.0022439964 0.0010274651 0.0 0.0
0.0025901743 0.0009988387 0.0008871773 0.0 0.0 0.0007701868 0.0 0.0
0.0 0.0 0.00068770046 0.0 0.0 0.0 0.0 0.00496622
0.00347958 0.002923534 0.0002567249 0.00017831953 0.0039099585 0.0033397365 0.0023919821 0.0
0.0 0.0028218045 0.0015259662 0.0012642136 0.0 0.0 0.00085013034 0.0
0.0 0.0 0.0 0.00075848255 0.0 0.0 0.0 0.0
00000000: a4b6 df3b c158 523c 012f 4d3c 65eb 373c
00000010: e984 2d3c 32c6 d53b 3e59 a63b d26b b53b
00000020: c095 e83b 32a1 3b3c 5537 1e3c d4d2 e23b
00000030: 08c9 203c 1532 2f3c 7703 333c b721 f73b
00000040: be53 173c 22d5 063c 4856 d53b d581 f33b
00000050: b93b f43b b68e 163c 639d 313c f4f4 ea3b
00000060: ef7b ff3b 77d5 1d3c 4716 013c 503d 613c
00000070: 4bf0 513c 1c80 343c bceb f53b 0d41 b93b
00000080: 24f0 203c c327 2a3c a839 2b3c 7f1e 753c
00000090: e8fd 383c eff1 243c 5658 bb3b c796 c73b
000000a0: 7b6b 5f3c ad12 553c a7e7 5b3c de4b 0a3c
000000b0: 365b 3b3c 872f 033c 010a f53b 612d ae3b
000000c0: 75e6 3d3c a8a5 173c d88e 253c 9caf 8c3b
000000d0: 9eaa 0f3c 3cb8 e23b 2611 b33b 0f4a 923b
000000e0: 01e1 163c 0168 cd3b 74c6 113c 25d4 383b
000000f0: 7f34 0a3c 65a9 c63b b438 b63b 2710 533b
00000100: ca7d 353c eef0 143c d938 c43b 8e3e 013b
00000110: 34ff 323a c19d 323c c889 fd3b 4756 b33b
00000120: 0000 0000 0000 0000 2436 da3b 2eb3 713b
00000130: 168c 433b 0000 0000 0000 0000 c45e f93a
00000140: 0000 0000 0000 0000 0000 0000 0000 0000
00000150: fad5 a63a 0000 0000 0000 0000 0000 0000
00000160: 0000 0000 979f 623c f7d7 2f3c 3567 013c
00000170: a6ee 283a e4dc ab39 0e53 373c 2e40 123c
00000180: d6df c43b 0000 0000 0000 0000 e601 ff3b
00000190: a75b ba3b f995 3e3b 0000 0000 0000 0000
000001a0: e068 b43a 0000 0000 0000 0000 0000 0000
000001b0: 0000 0000 82df 8e3a 0000 0000 0000 0000
000001c0: 0000 0000 0000 0000 0ded 1f3c 555a d13b
000001d0: c713 a73b 3e54 083a 7bba dd39 405a 143c
000001e0: 11bd fb3b 023b 923b 0000 0000 0000 0000
000001f0: 61bb f13b 0cd0 783b c162 3b3b 0000 0000
00000200: 0000 0000 9fbd 243a 0000 0000 0000 0000
00000210: 0000 0000 0000 0000 6638 d039 0000 0000
00000220: 0000 0000 0000 0000 0000 0000 11a4 2e3e
00000230: 5449 353c 19b4 fd3e 812a 3b3b b313 9b3b
00000240: f4f2 a83b 8bd4 903b 0414 6f3b 94b6 3e3b
00000250: 1544 1d3b 0bbb c23a b21f 423b 90f0 913b
00000260: 8ad0 8a3b 0f48 833b 88b9 7a3b 606f 873b
00000270: 2913 9b3b b9bf 383b d89d 9c3b edc3 8a3b
00000280: 0f55 8c3b e08e 953b 8983 7b3b 6d64 5d3b
00000290: aa19 7f3b 8236 293b 8d2b 673b 1b84 923b
000002a0: ff72 7a3b 6112 ba3b eba9 7e3b 513b 9c3b
000002b0: 1aeb 8e3b 8a7c 8a3b b189 9a3b 83c9 983b
000002c0: 4f8e 6f3b 0615 9d3b 8867 8b3b 3db7 973b
000002d0: 3812 6e3b 42b1 2a3b dbf9 a23b ec0b b23b
000002e0: c780 a03b ff82 683b 6a45 863b 3c6a 803b
000002f0: 8427 833b 7d4e 243b 9d43 973b 0937 8c3b
00000300: 97ce 613b 869d 283b fb5a 6c3b fc0c 5b3b
00000310: 0bf5 523b 70e1 403b 7523 733b 6d33 2c3b
00000320: 553e 593b f05e 043b 0c32 3b3b b211 383b
00000330: f87f 453b e3b2 ec3a a9d1 a13b 165f 5c3b
00000340: 16a6 103b 0ea6 513a b387 7439 9371 7a3b
00000350: 0310 133b 02ac 863a 0000 0000 0000 0000
00000360: eabf 293b 77eb 823a 7691 683a 0000 0000
00000370: 0000 0000 5ce6 493a 0000 0000 0000 0000
00000380: 0000 0000 0000 0000 cc46 343a 0000 0000
00000390: 0000 0000 0000 0000 0000 0000 acbb a23b
000003a0: aa09 643b c398 3f3b 0899 8639 49fb 3a39
000003b0: 1c1f 803b 7bdf 5a3b cdc2 1c3b 0000 0000
000003c0: 0000 0000 06ee 383b ee02 c83a f8b3 a53a
000003d0: 0000 0000 0000 0000 48db 5e3a 0000 0000
000003e0: 0000 0000 0000 0000 0000 0000 e7d4 463a
000003f0: 0000 0000 0000 0000 0000 0000 0000 0000

exp_avg f4 [128]
-0.016179329 -7.237119e-05 1.214378e-25 -4.7376787e-11 -0.013045103 0.016536167 -0.038178872 6e-45
-0.021016078 -5.034795e-15 -3.3349936e-15 2.2822034e-33 7.5101685e-05 -0.02136364 6e-45 -9.757876e-14
-3.7665104e-06 4.1758e-07 -0.0105172945 6e-45 6e-45 0.0062785377 0.06143136 -0.0073402394
-6e-45 6.458325e-08 0.05550272 -7.0122674e-08 0.0072231204 0.0012544699 -0.0027030054 -0.06531876
-0.029547822 4.5420576e-05 -0.027651973 0.03205674 1.4063582e-17 2.991621e-10 0.047979943 -0.025470268
0.009642512 9.884162e-06 0.010614866 0.016592797 -9.3705644e-08 5.6712842e-36 6e-45 -0.064003274
-3.151159e-06 -0.041262653 -0.06513035 -0.030500337 2.2505782e-08 0.04790857 4.41594e-32 -0.027721783
6e-45 -9.184727e-13 0.017612657 0.00013433688 6e-45 2.733546e-16 -0.035275165 6e-45
7.655975e-39 -0.028056568 6e-45 -0.015566058 5.0504864e-13 -0.011319385 6e-45 -0.080403686
-5.468735e-08 -0.024787206 -0.017580206 6e-45 -1.784307e-07 0.11260979 0.02636398 2.4366395e-07
0.000351046 0.012900666 -0.044022247 -0.007951886 -9.715442e-07 0.00043848596 -0.022384852 1.0588288e-14
0.00033178087 -0.014383707 0.04832248 -3.780575e-05 4.901827e-05 -3.2453834e-14 0.027650127 6e-45
-6e-45 5.8050475e-14 0.01574288 0.017142838 8.1697e-41 3.451442e-30 6e-45 6e-45
0.07385268 -0.01143942 5.190983e-32 -1.1543073e-06 6e-45 6e-45 -6e-45 0.07567527
0.007623118 0.05258734 -5.122072e-07 6e-45 0.018548742 -0.0012644521 0.008994538 5.0441745e-10
0.031072527 6e-45 0.0029388547 0.0054146755 6e-45 6e-45 -6.0841605e-12 -3.9816227e-06
00000000: 838a 84bc fdc5 97b8 2d55 1616 855d 50ae
00000010: 21bb 55bc db76 873c 7361 1cbd 0400 0000
00000020: e929 acbc ca65 b5a7 c64f 70a7 1999 3d09
00000030: e97f 9d38 cd02 afbc 0400 0000 53ba dba9
00000040: 28c4 7cb6 c22f e034 bb50 2cbc 0400 0000
00000050: 0400 0000 31bc cd3b 739f 7b3d 6486 f0bb
00000060: 0400 0080 04b1 8a33 d256 633d 5996 96b3
00000070: edaf ec3b 066d a43a e824 31bb d8c5 85bd
00000080: 460e f2bc f981 3e38 6486 e2bc ee4d 033d
00000090: b2b6 8123 5377 a42f 9e86 443d 06a7 d0bc
000000a0: a0fb 1d3c 27d4 2537 fae9 2d3c 9eed 873c
000000b0: 393b c9b3 d13a f104 0400 0000 2614 83bd
000000c0: 8078 53b6 0703 29bd 1063 85bd d8db f9bc
000000d0: bd52 c132 c73b 443d e949 650b cb18 e3bc
000000e0: 0400 0000 7743 81ab 6b48 903c c8dc 0c39
000000f0: 0400 0000 0594 9d25 b17c 10bd 0400 0000
00000100: be5d 5300 e3d6 e5bc 0400 0000 c808 7fbc
00000110: 9728 0e2b f174 39bc 0400 0000 b0aa a4bd
00000120: 61e1 6ab3 8a0e cbbc 5d04 90bc 0400 0000
00000130: a896 3fb4 f69f e63d 46f9 d73c ebd0 8234
00000140: 990c b839 515d 533c ac50 34bd a148 02bc
00000150: 0166 82b5 97e4 e539 7060 b7bc dcbd 3e28
00000160: e0f2 ad39 a4a9 6bbc cbed 453d 9d91 1eb8
00000170: f798 4d38 b928 12a9 8582 e23c 0400 0000
00000180: 0400 0080 d2b7 8229 36f7 803c 236f 8c3c
00000190: bde3 0000 d301 8c0e 0400 0000 0400 0000
000001a0: 1340 973d 686c 3bbc 00c4 860b b2ed 9ab5
000001b0: 0400 0000 0400 0000 0400 0080 a3fb 9a3d
000001c0: 59cb f93b d365 573d 9c7e 09b5 0400 0000
000001d0: 88f3 973c f9bb a5ba d45d 133c 39a7 0a30
000001e0: d08b fe3c 0400 0000 cd99 403b 976d b13b
000001f0: 0400 0000 0400 0000 3f11 d6ac e199 85b6

exp_avg_sq f4 [128]
0.01987949 0.007426467 3.2927586e-05 0.00032819452 0.020939544 0.010377997 0.016201477 7.3860824e-06
0.0115305325 0.005232263 0.00048099147 6.6765984e-05 0.00086165866 0.014394486 2.7221075e-05 0.00011135528
4.978766e-05 0.00032190012 0.013981096 0.00014935218 2.1593465e-05 0.0019189847 0.022134548 0.021301918
2.973285e-05 0.00022956429 0.020987028 0.00036274776 0.0154343285 0.024131568 0.008967735 0.027410224
0.015417295 0.00060532516 0.015601745 0.017160943 0.000330669 0.00017192277 0.017506585 0.027479323
0.010361138 0.00046543186 0.008680773 0.022465847 0.00033514353 0.00011853398 2.8906474e-05 0.023005249
0.00057501666 0.017235707 0.02516698 0.016065422 0.00035263936 0.0009543188 0.0048126956 0.003496136
0.00012107632 0.0012614842 0.012657624 0.0013681733 4.9629266e-06 0.00014938372 0.020633955 2.936437e-05
0.0005387697 0.0028773018 1.2451693e-05 0.019705247 0.00024526217 0.014684599 9.778599e-06 0.0060248785
0.00021238525 0.011045451 0.019133797 1.100544e-05 0.00013158246 0.02076679 0.02027124 0.0026252829
0.0007070446 0.01890948 0.01922687 0.017771173 0.001362683 0.010642759 0.007734239 0.00029530845
0.01119786 0.018791962 0.02351139 0.00024885207 0.0003217799 0.0001839943 0.014765785 0.00030184913
7.5899293e-06 0.008503857 0.016223356 0.012246285 0.00033668423 0.00013640725 5.7750826e-06 2.3413351e-05
0.013971856 0.020934794 0.0004584584 0.00064594485 1.1210741e-06 5.958351e-05 2.7674201e-05 0.02094755
0.017025439 0.011822542 0.00025657212 1.2801981e-05 0.02472485 0.004995556 0.026771016 0.0015235642
0.012263862 4.746448e-06 0.005487587 0.0021390943 0.00015970573 2.259688e-05 0.0006258343 0.010406966
00000000: 50da a23c b859 f33b ba1b 0a38 8611 ac39
00000010: 6889 ab3c 7908 2a3c f6b8 843c f7d5 f736
00000020: 8fea 3c3c 6773 ab3b 952d fc39 b704 8c38
00000030: efe0 613a dad6 6b3c d058 e437 6987 e938
00000040: 18d3 5038 b4c4 a839 f810 653c 6c9b 1c39
00000050: 9d23 b537 7186 fb3a 8353 b53c 5c81 ae3c
00000060: cf6a f937 32b7 7039 fdec ab3c 2e2f be39
00000070: 44e0 7c3c 91af c53c 68ed 123c 688b e03c
00000080: d298 7c3c afae 1e3a 769e 7f3c 1b95 8c3c
00000090: a45d ad39 2b46 3439 f869 8f3c 511c e13c
000000a0: c3c1 293c 3505 f439 cd39 0e3c 4c0a b83c
000000b0: 34b6 af39 7295 f838 2e7c f237 8175 bc3c
000000c0: b7bc 163a e631 8d3c fc2a ce3c a29b 833c
000000d0: 74e2 b839 402b 7a3a d1b3 9d3b 6e1f 653b
000000e0: 5bea fd38 6358 a53a ec61 4f3c 4754 b33a
000000f0: 3787 a636 e3a3 1c39 8a08 a93c 8153 f637
00000100: 393c 0d3a 1d91 3c3b 9de7 5037 e66c a13c
00000110: 8896 8039 ac97 703c c30e 2437 586c c53b
00000120: bbb3 5e39 fbf7 343c 7bbe 9c3c 01a4 3837
00000130: 66f9 0939 1d1f aa3c df0f a63c f00c 2c3b
00000140: f658 393a 0ee8 9a3c ab81 9d3c da94 913c
00000150: 0e9c b23a f75e 2e3c 806f fd3b a1d3 9a39
00000160: 3b77 373c 9af1 993c f59a c03c 5c78 8239
00000170: 91b4 a839 98ee 4039 31ec 713c 8141 9e39
00000180: ffac fe36 c353 0b3c d8e6 843c a4a4 483c
00000190: fe84 b039 8b08 0f39 95c7 c136 ca67 c437
000001a0: 36ea 643c 727f ab3c 3f5d f039 a054 293a
000001b0: d077 9635 4fe9 7938 e525 e837 329a ab3c
000001c0: ef78 8b3c 56b3 413c 8784 8639 17c8 5637
000001d0: c58b ca3c c3b1 a33b e44e db3c 55b2 c73a
000001e0: 5eee 483c ae43 9f36 37d1 b33b 0c30 0c3b
000001f0: ae76 2739 6e8e bd37 070f 243a fb81 2a3c

exp_avg f4 [192, 128]
0.00011447771 5.4314125e-07 6.5804416e-29 3.8666915e-14 1.6694672e-05 1.9660585e-05 9.9417164e-05 6e-45
3.2516895e-05 1.1140361e-34 2.0117836e-21 9.909532e-37 4.4331897e-19 9.213941e-05 6e-45 -6e-45
6.891702e-10 1.811608e-28 0.00018376717 6e-45 6e-45 5.3211824e-07 8.522138e-05 0.00015137513
-6e-45 3.792334e-11 7.530759e-05 2.694515e-11 7.233457e-05 1.0234092e-05 2.24329e-17 0.00013869547
0.0001195189 5.54195e-10 0.00012186792 0.00014564316 9.198357e-21 4.0714996e-19 7.7444776e-05 9.527164e-05
5.648425e-05 1.0797818e-08 -9.581481e-10 0.00015271993 3.0686144e-12 1.850913e-39 6e-45 0.00024226196
1.169406e-19 8.08036e-05 9.132605e-05 5.194881e-05 8.0557574e-11 9.06361e-09 1.0391109e-38 5.2201118e-05
6e-45 1.5443399e-16 1.1823291e-07 8.114564e-37 6e-45 1.9635885e-20 7.110372e-05 6e-45
6e-45 3.6058067e-05 6e-45 7.9155245e-05 9.59148e-17 0.00011611881 6e-45 1.5825684e-05
5.1596146e-13 4.7061683e-05 6.7993264e-05 6e-45 2.186577e-12 3.3450815e-05 0.00012357272 4.716565e-12
2.9520338e-14 3.394533e-05 0.00011145264 2.6977272e-05 7.1237e-40 9.3127416e-11 7.199976e-05 1.2950598e-19
1.397509e-37 4.3785625e-05 0.0001416081 4.7767967e-09 2.7272613e-09 6e-45 0.00020107206 6e-45
-6e-45 9.825708e-38 3.3187596e-05 5.9861733e-05 6e-45 7.75e-43 -6e-45 6e-45
2.2927972e-05 0.0001695653 1.1537e-41 3.2785434e-09 -6e-45 6e-45 -6e-45 6.2008636e-05
3.8652242e-08 -2.1208302e-10 6e-45 6e-45 0.00013103476 2.7891794e-08 0.0001921357 6e-45
2.7854123e-05 6e-45 1.0289732e-06 1.7055564e-08 6e-45 6e-45 6e-45 2.5481106e-09
0.04975175 -6.3696984e-06 -1.0230407e-25 2.1523928e-11 0.02563535 8.01258e-05 0.032178476 6e-45
0.052290052 2.7560115e-32 2.1995266e-18 1.0619691e-34 -7.2786655e-12 0.043770935 -6e-45 -6e-45
-1.5573689e-06 -2.5296743e-25 0.082755715 -6e-45 -6e-45 0.015687091 0.052068442 0.07697935
6e-45 1.292158e-07 0.043357886 4.7071538e-08 0.03416019 -3.6868827e-05 -8.9702745e-10 0.05234623
0.07161816 1.1286381e-06 0.048869424 0.067128025 -2.365052e-17 1.972028e-16 0.010017837 0.043258224
0.043717686 -6.010177e-36 3.3933277e-18 0.06499722 1.2015184e-08 2.9990343e-37 -6e-45 0.115545474
3.6759345e-16 0.010130968 0.04092971 0.01834907 2.3638266e-07 9.8093566e-05 3.380402e-37 0.014539957
-6e-45 2.946943e-13 -0.00013571668 4.6134127e-33 6e-45 4.8000497e-17 0.06776274 6e-45
-1.206475e-39 0.045111988 6e-45 0.06345454 5.5007285e-14 0.056901228 6e-45 0.037922774
6.356936e-10 -0.0009067458 0.041831464 6e-45 9.65646e-13 0.015974361 0.04780003 1.6069894e-08
-1.898089e-08 0.028106704 0.07623918 0.016509525 5.129465e-38 9.71238e-05 0.034393262 4.0709232e-16
-4.335876e-32 0.013541877 0.06470641 3.756906e-05 2.144966e-05 6e-45 0.10567713 -6e-45
-6e-45 -2.9075912e-32 0.009785699 0.015345959 -8.5e-44 6e-45 6e-45 6e-45
0.0066812756 0.07005436 6.86968e-40 -7.4087716e-06 -6e-45 6e-45 6e-45 0.021673044
0.00020124743 2.0080788e-06 6e-45 6e-45 0.06697787 0.00037821336 0.06651835 6e-45
0.021060979 -6e-45 0.006571964 -0.0008829038 -6e-45 6e-45 7.67545e-13 -5.72598e-06
00000000: c113 f038 62cc 1135 82d5 a610 eb23 2e29
00000010: 890b 8c37 c9ec a437 2f7e d038 0400 0000
00000020: c062 0838 af14 1407 8e01 181d 199a a803
00000030: 3cd8 0221 f83a c138 0400 0000 0400 0080
00000040: 0b70 3d30 0aa6 6511 a0b1 4039 0400 0000
00000050: 0400 0000 e3d6 0e35 e1b8 b238 74ba 1e39
00000060: 0400 0080 e3c9 262e 74ee 9d38 1503 ed2d
00000070: 54b2 9738 17b3 2b37 30e8 ce23 c86e 1139
00000080: 39a6 fa38 0256 1830 5793 ff38 cab7 1839
00000090: 86c0 2d1e c356 f020 d969 a238 92cc c738
000000a0: 80e9 6c38 4e81 3932 d7af 83b0 7223 2039
000000b0: 3eef 572c 9827 1400 0400 0000 b307 7e39
000000c0: 210f 0a20 1a75 a938 4d86 bf38 9ce3 5938
000000d0: e225 b12e 2eb6 1b32 2f26 7100 86f2 5a38
000000e0: 0400 0000 de0c 3225 3be7 fd33 e90f 8a03
000000f0: 0400 0000 a874 b91e 851d 9538 0400 0000
00000100: 0400 0000 0e3d 1738 0400 0000 2600 a638
00000110: 1b2a dd24 d084 f338 0400 0000 66c1 8437
00000120: f13a 112b 1964 4538 9b97 8e38 0400 0000
00000130: dfdd 192c 8a4d 0c38 4d93 0139 0af3 a52c
00000140: a2f2 0429 8560 0e38 aebb e938 404d e237
00000150: ccc1 0700 13ca cc2e 94fe 9638 c8e4 1820
00000160: 1538 3e02 75a6 3738 a37c 1439 2621 a431
00000170: 7d6a 3b31 0400 0000 dfd6 5239 0400 0000
00000180: 0400 0080 98bd 0502 e932 0b38 0c14 7b38
00000190: 0400 0000 2902 0000 0400 0080 0400 0000
000001a0: 7255 c037 57cd 3139 2920 0000 bf4c 6131
000001b0: 0400 0080 0400 0000 0400 0080 a20a 8238
000001c0: 9702 2633 1030 69af 0400 0000 0400 0000
000001d0: 6066 0939 b496 ef32 0978 4939 0400 0000
000001e0: 46a8 e937 0400 0000 401b 8a35 9581 9232
000001f0: 0400 0000 0400 0000 0400 0000 d61a 2f31
00000200: 7ec8 4b3d 4bbb d5b6 e84a fd95 9453 bd2d
00000210: 3a01 d23c 3609 a838 94cd 033d 0400 0000
00000220: 182e 563d ad19 0f0b e24b 2222 f028 0d07
00000230: 320c 00ad 2749 333d 0400 0080 0400 0080
00000240: ca06 d1b5 4a94 9c96 d47b a93d 0400 0080
00000250: 0400 0080 3782 803c b845 553d 59a7 9d3d
00000260: 0400 0000 92be 0a34 0a98 313d b42b 4a33
00000270: 8eeb 0b3d 9aa3 1ab8 b292 76b0 0069 563d
00000280: 8bac 923d b67b 9735 4e2b 483d 6b7a 893d
00000290: 3623 daa3 fe5b 6325 db21 243c 892f 313d
000002a0: 5111 333d 08a5 ff84 2662 7a22 431d 853d
000002b0: 576b 4e32 8c1a cc02 0400 0080 1ba3 ec3d
000002c0: 38e7 d325 5cfc 253c e9a5 273d ca50 963c
000002d0: 5fd0 7d34 95b7 cd38 e90e e602 0039 6e3c
000002e0: 0400 0080 ede5 a52a 2b4f 0eb9 38a2 bf09
000002f0: 0400 0000 fc5c 5d24 31c7 8a3d 0400 0000
00000300: 2923 0d80 59c7 383d 0400 0000 74f4 813d
00000310: 15bb 7729 4311 693d 0400 0000 e954 1b3d
00000320: f6bc 2e30 aeb2 6dba 7857 2b3d 0400 0000
00000330: 10e7 872b aadc 823c f7c9 433d 120a 8a32
00000340: 6b0b a3b2 0840 e63c 4a23 9c3d fc3e 873c
00000350: 27a3 8b01 f1ae cb38 f3df 0c3d 39ac ea25
00000360: ad21 618b c0de 5d3c cb84 843d 7993 1d38
00000370: cbee b337 0400 0000 406d d83d 0400 0080
00000380: 0400 0080 84f8 168b 3254 203c 9e6d 7b3c
00000390: 3d00 0080 0400 0000 0400 0000 0400 0000
000003a0: 9aee da3b a978 8f3d fd7a 0700 dd98 f8b6
000003b0: 0400 0080 0400 0000 0400 0000 ab8b b13c
000003c0: f205 5339 88c2 0636 0400 0000 0400 0000
000003d0: b22b 893d f04a c639 c63a 883d 0400 0000
000003e0: 1388 ac3c 0400 0080 a159 d73b ac72 67ba
000003f0: 0400 0080 0400 0000 720b 582b cb21 c0b6
