weights/policy_checkpoint500.pt (torch, 522961 bytes, 12 tensors)

net.0.weight f4 [128, 142]
000000 f9 8b ac 3d 94 fc 23 3e 95 24 ef 3c cd e6 16 3e
       0.08425135 0.1601432 0.029192248 0.14736481
000010 cd a2 5b 3d a2 d3 e4 3d be 6f b6 3d 35 23 e7 3d
       0.053622056 0.11173178 0.08908032 0.11286012
000020 13 a6 89 3d cc 48 b2 3c 20 9c d0 3d cc af 9c 3d
       0.06721129 0.021763228 0.101860285 0.07650718
000030 8e 8d e7 3d e7 f1 94 3d e3 4f 12 3e 14 a3 d9 3d
       0.11306296 0.07272702 0.14288287 0.10626808
000040 fd 0c 5e 3d 46 1d 8d 3d 4b 4e 39 bb 5e 7d 40 3d
       0.054211605 0.06890349 -0.0028275426 0.04699456
000050 20 0c aa 3c 2a a1 c2 3d f9 2a 4e 3d 92 73 30 3e
       0.020757735 0.09503396 0.05033395 0.17231587
000060 13 ec 14 bd 92 85 0e bb 54 79 f9 3c 40 4c e1 bc
       -0.03635795 -0.0021747095 0.030453362 -0.02750218
000070 bf f0 8b 3d 0c 9f 8e bd 1b 5b 1d 3e c9 62 0e 3c
       0.06833028 -0.069639295 0.15366785 0.008690544
000080 e0 a8 e3 3d 88 ac a7 3d 93 7f a4 3c d0 8c a3 3d
       0.11116195 0.081872046 0.020080363 0.07985842
000090 c3 bb 8b 3d eb 64 05 3e 93 89 42 3d 9c a3 96 3d
       0.06822922 0.13026778 0.047494482 0.07355425
0000a0 bd 96 fb 3d c0 96 ca 3c 4f 63 11 3e 08 83 02 3e
       0.122846104 0.024730086 0.1419804 0.12745297
0000b0 88 d3 13 3e 8d 42 85 3d 26 be 1f 3e 00 bc d1 3d
       0.14436162 0.06506834 0.1559988 0.10240936
0000c0 e7 91 94 3d 2d 54 1c 3d 38 6a 34 bb 1b ad 84 3d
       0.07254391 0.038166214 -0.0027529132 0.0647833
0000d0 84 73 b2 3c 19 bb 55 3e cc 08 e6 3d 8a 3d 08 3e
       0.021783598 0.20872153 0.112321466 0.13304725
0000e0 f1 ef 94 3c 47 23 81 3d 4c dc 3e 3e e3 ce 82 3d
       0.01818082 0.06305557 0.18638724 0.06387117
0000f0 f2 02 74 3d c2 22 ac bb 47 7a dc 3d e0 73 50 3d
       0.05957312 -0.005253167 0.1076551 0.050891757
000100 b5 6d 94 3d 03 ba e6 bb 1f 0d 9d 3d eb c2 02 bd
       0.072474875 -0.0070412173 0.07668518 -0.03192417
000110 a7 17 28 bd b9 dc ca 3c dd 55 03 3e 0c 3f 8a 3d
       -0.04103818 0.024763452 0.12825723 0.067503065
000120 68 60 a5 3d e8 d5 8d bd 1b e2 ba bc 31 08 8a bd
       0.08075029 -0.06925565 -0.022812894 -0.06739844
000130 13 27 9c bd 53 39 0b 3d 72 29 f6 3c c6 bd 27 3e
       -0.0762464 0.033990216 0.03004906 0.16380987
000140 9e 82 31 bd ec 52 6a bd fc 5f 36 3d ca ef 0a bd
       -0.043337457 -0.057207987 0.04452513 -0.033920087
000150 56 04 8b 3d 53 22 a3 bc ec a0 44 3d 79 88 85 bd
       0.067879364 -0.019913828 0.04800503 -0.06520171
000160 6d 76 2d bd b8 f4 1f 3e 60 18 ec 3d 25 19 a0 3d
       -0.042349268 0.15620697 0.11528087 0.07817296
000170 5d cf eb 3d 67 60 df 3d 8b 74 df 3c 26 c6 89 bc
       0.11514161 0.10907059 0.027277252 -0.016818117
000180 d1 19 24 3e 71 f8 e7 bc 05 b7 f3 bc 9a 94 1e 3d
       0.16025473 -0.028316708 -0.029750356 0.038715936
000190 7a e2 21 3d 8d 1e f0 3d b8 7a 35 bc 02 82 79 bd
       0.039522626 0.11724577 -0.011076622 -0.060915
0001a0 26 ef d4 3d 73 cb 6a bd 24 cf 91 bd 4f 47 3d bd
       0.103971764 -0.05732293 -0.07119587 -0.046210583
0001b0 f2 6a 96 bd 92 54 82 3d 11 cc ab 3d ef d7 81 3c
       -0.07344617 0.06363787 0.08388532 0.015850035
0001c0 bf d8 d3 3c 91 4b a0 bd 38 7d 9e 3a 69 34 89 3c
       0.025860189 -0.07826913 0.0012091761 0.016748624
0001d0 9c e8 07 3d a3 7c a6 bd f2 de bb bc 4b fa d6 bc
       0.033180818 -0.08129241 -0.022933457 -0.026242396
0001e0 f2 88 4c 3d 79 8c a2 bc 32 8d be bb b8 eb 68 bd
       0.04993529 -0.019842373 -0.0058151716 -0.056865424
0001f0 62 b6 6e bd d5 e5 24 bd d3 61 10 bd 35 a6 87 bd
       -0.058279403 -0.040258247 -0.035249542 -0.06623498
000200 63 1a 90 3d d6 ec 83 bc 1c df 93 3d 0d 33 d6 3c
       0.07036283 -0.016104143 0.07220289 0.02614739
000210 c2 88 91 bd 53 df 6d 3d 89 27 94 3c 9a c2 03 bd
       -0.071061626 0.058074307 0.018085258 -0.03216801
000220 d7 a8 8e bd 5c dc aa bd 5a b0 c4 3c e4 0a 9d 3d
       -0.069657974 -0.083428115 0.024009872 0.07668093
000230 0a 2f bb 3d 19 0c 2d 3c 16 13 7b 3d eb 20 a2 bd
       0.09139831 0.010561966 0.0612975 -0.07916435
000240 0b 1d 85 bd f7 69 ca 3a 8d 1c 2d 3d 16 54 84 3d
       -0.0649968 0.0015442957 0.042263556 0.064613506
000250 87 b1 bf 3d a7 fd 13 bd 38 ca de 3c 4f b3 74 bd
       0.093600325 -0.036130574 0.027196035 -0.059741315
000260 94 27 26 3c 94 c5 1d bd f4 39 ca 3d 7e 4e 6d bd
       0.010141272 -0.038518503 0.09874335 -0.057936184
000270 26 28 aa 3d 5a 74 cc 3c 76 fd b4 3d b3 94 03 3c
       0.08308439 0.024957824 0.08837406 0.008031058
000280 1f 21 ff 3d 05 5c 9a 3d b8 52 59 3d b7 a2 03 bd
       0.12457489 0.075370826 0.053057402 -0.0321376
000290 cd a6 85 3d 09 29 8c 3a 47 0b c0 3b a4 4d e8 3d
       0.06525955 0.0010693382 0.0058607194 0.11342934
0002a0 b7 af 86 3d 1c a2 b4 3c 8f 50 3b bc a5 8a 07 3b
       0.06576484 0.022049956 -0.011432781 0.0020682004
0002b0 53 9a b0 3d 44 f5 50 3b 62 e4 eb bc 6a 73 15 bd
       0.08623185 0.003188447 -0.028795425 -0.03648702
0002c0 1f 2d 82 bd 73 30 68 3d 72 c0 ca 3d 61 c4 76 bd
       -0.063562624 0.05668683 0.09899987 -0.060245875
0002d0 59 52 37 3d 02 c7 89 3d 95 25 95 3d 4b 17 dd bc
       0.044756267 0.06727411 0.07282559 -0.026988646
0002e0 d6 3a af 3d 1e 16 f4 3d e5 0a 80 3d ce 2d 23 3d
       0.08556144 0.11918281 0.06252078 0.039838605
0002f0 a1 20 80 3d 27 7a cb 3d ec ee b6 3c 86 8e 42 3d
       0.062562235 0.09935408 0.022330724 0.047499202
000300 3e 33 dd 3d c0 37 dd 3d a2 c1 0a bc 72 a8 a1 3b
       0.10800789 0.10801649 -0.008469017 0.0049334103
000310 cb d5 22 bc c0 08 cb bc 69 d8 52 3d 30 33 8c 3d
       -0.0099386675 -0.024784446 0.051475916 0.06845701
000320 87 18 fd bc 53 a4 a2 3c eb 90 03 3e 56 57 fd 3c
       -0.030895485 0.019853747 0.1284825 0.030925434
000330 6a 21 b4 bc 4c 33 83 3c ae 59 d5 bc 78 2a 0d bd
       -0.02198859 0.016015671 -0.02604374 -0.03446433
000340 9d a6 c9 bc f5 7a 56 3d da 41 0a 3e 4d 22 8c 3d
       -0.02461558 0.052363355 0.13501683 0.0684248
000350 8f 06 ad bd 6b 7d 8e bd 05 fc 58 bc be 40 a6 3d
       -0.084485166 -0.06957515 -0.01324368 0.08117817
000360 39 60 61 3d fd 65 63 bd db 54 ce 3c 80 eb 02 bd
       0.055023406 -0.055517185 0.025186947 -0.03196287
000370 f8 7a 5e bd c3 1c fa 3c 47 4b 1c bd f6 cf 89 bc
       -0.05431649 0.030531293 -0.038157728 -0.016822796
000380 ad f8 aa bd 2b 0c 66 3d d4 53 01 3c e8 8a fa 3c
       -0.083482124 0.056163948 0.007893521 0.030583814
000390 54 ac 6f bd aa 9e a9 bd a9 95 8b bd 73 59 21 3d
       -0.058513954 -0.08282216 -0.06815655 0.039391946
0003a0 57 37 5b 3d 1c 62 be 3d 99 1b 87 3d e5 b7 d9 3c
       0.053519573 0.09296057 0.06597061 0.026576946
0003b0 9c 8f d6 bc 40 61 83 bd b2 fe 89 bd ca c0 a0 bd
       -0.026191525 -0.06415033 -0.067380324 -0.078492716
0003c0 9f b5 0c 3d a6 37 39 bd 60 bd 84 3c 8d 35 87 bd
       0.034352895 -0.045219086 0.016203582 -0.06602011
0003d0 b8 8a 7a bc a2 ed 71 bd 37 e0 ad bd 7c 09 e4 3c
       -0.015291862 -0.059064515 -0.08490031 0.027836554
0003e0 53 4f cc bc d6 32 54 3d d8 8a dc bc 89 cf 9a bd
       -0.024940168 0.051806293 -0.026921675 -0.075591154
0003f0 a7 96 72 bc 21 9f 26 bd 62 52 d2 bc 36 9d a3 bd
       -0.014806426 -0.0406791 -0.025674049 -0.0798897

net.0.bias f4 [128]
000000 0f b7 28 3e 6c 70 2d 3d be 06 8d 3c 7d b9 7c 3d
       0.16476081 0.042343542 0.017215129 0.061700333
000010 04 a4 41 3d cf a8 94 3d 58 18 a8 bc 26 5d 97 bd
       0.047275558 0.0725876 -0.02051942 -0.073908135
000020 0f d5 f7 3c 61 ee bc 3d ea 20 09 3d 29 1a 81 3b
       0.030252961 0.09225155 0.033478655 0.003939886
000030 b6 d4 b8 bc da f9 8f 3d f0 4f 96 bd 39 78 4b bd
       -0.022562366 0.07030077 -0.073394656 -0.0496752
000040 a1 8e 53 3d bc fc 86 bd e5 40 94 bd 48 5c 20 bd
       0.051649693 -0.06591174 -0.0723894 -0.039150506
000050 b1 12 c9 3c 3a e5 b7 bd e2 2d 36 3d 39 a0 a7 3d
       0.024545046 -0.08979268 0.04447735 0.08184857
000060 f9 4a 88 bc b5 7d 04 3d 30 03 13 3d 55 7d 29 bd
       -0.016637312 0.032346446 0.03589171 -0.04137929
000070 39 b8 3f bd 13 ab 7f 3d e6 1d bf bc 4c d4 f4 bc
       -0.046806548 0.06241901 -0.023329686 -0.029886387
000080 ac 08 4d 3d ce c7 32 3d 06 6b ef 3c ba 70 01 3d
       0.0500571 0.04364758 0.029225837 0.031601645
000090 be e2 de bd e6 fd 0e bc 2c e1 05 3e 8e 0f 77 3d
       -0.108830914 -0.008727526 0.13074178 0.06031757
0000a0 58 67 bc 3d 15 d5 bd bd f9 66 0b 3e ca b3 7b 3d
       0.09199399 -0.09269158 0.136135 0.061450757
0000b0 b3 ac fc bc 13 3f ff 3b f6 60 ac bd 3a c7 b9 bc
       -0.030844068 0.0077895015 -0.08416931 -0.022678006
0000c0 81 de 7c bd b6 11 9a bd b2 ee 69 bd d6 86 b7 3d
       -0.061735634 -0.07522909 -0.057112403 0.08961265
0000d0 af 59 48 bd 3b 95 a1 3c d9 e8 05 3d d5 8d c1 bd
       -0.048913654 0.019724479 0.032692764 -0.094508804
0000e0 0b 0e 19 bd 76 64 53 3d 9c b8 2d 3d 3d 43 99 3d
       -0.037366908 0.05160948 0.042412385 0.07483528
0000f0 0b 8a cd bd e6 77 4f 3d 6a 0a 84 3b a7 6f aa bd
       -0.10036095 0.050651453 0.0040295618 -0.08322077
000100 22 c6 81 ba 57 d2 c6 3c 62 36 85 3c 50 cf 28 3d
       -0.0009900967 0.02427022 0.016261283 0.041213334
000110 29 28 60 bd 54 cc 08 bc c3 ba a9 bd 65 77 56 3d
       -0.0547258 -0.008349497 -0.08287575 0.052359957
000120 3e d4 07 3a 85 97 b3 3d be 6f d9 bc 61 70 c3 bd
       0.0005181468 0.087691344 -0.02654254 -0.09542919
000130 cf 2e 56 bc 3d 44 c4 3d a1 2e 56 3d b7 49 ff 3c
       -0.0130726835 0.09583328 0.052290563 0.03116308
000140 a1 be 94 3c f2 18 61 3d ac 32 1b bd 63 00 11 3e
       0.018157305 0.05495543 -0.03789012 0.14160304
000150 18 46 84 3c 30 09 0b 3e ee 5f f2 bd 8b cd c7 bc
       0.016146705 0.13577724 -0.118347034 -0.024390003
000160 6a ad a5 bc d7 47 77 3d d2 ae 90 3d af ae 9f 3c
       -0.020224292 0.060371246 0.07064594 0.019492475
000170 6e 69 ba 3c 1f 17 94 bd 80 46 96 3d d0 b6 ee 3c
       0.02275535 -0.072309725 0.073376656 0.029139906
000180 3f 9f a9 bd b4 0d 8d 3d 1f 38 66 3c 52 54 58 bd
       -0.08282327 0.06887379 0.014051466 -0.05281479
000190 dc 93 91 bd 3c c6 ab bd a4 2a a4 bd a4 29 59 bd
       -0.0710828 -0.083874196 -0.080159456 -0.053018227
0001a0 2a 8b 55 3d a9 59 f5 3c ac 9b 87 3c 8b 08 c2 bc
       0.05213467 0.02994998 0.016553722 -0.023685714
0001b0 19 8c b9 bd bf 17 d2 bd c1 8d 33 3d f6 7d 3f 3d
       -0.09059925 -0.102584355 0.04383636 0.046750985
0001c0 a6 13 01 3e a8 f3 17 bd bc 6d 97 bd 59 d3 12 bd
       0.12605152 -0.037097603 -0.07393977 -0.035846088
0001d0 73 b3 b2 3d 9a e4 74 bd e2 70 72 bd 9e 95 94 bd
       0.087256335 -0.059788324 -0.059189685 -0.072551
0001e0 51 5e 43 3d 24 64 26 bd 19 ff 46 bd e8 2e 3a 3d
       0.04769737 -0.040622845 -0.048583124 0.04545489
0001f0 4b b9 c2 bd 78 83 23 bd 87 16 5b bd 3c c9 c1 bb
       -0.09507998 -0.0399203 -0.05348828 -0.0059138816

net.2.weight f4 [192, 128]
000000 fb 6e 8c bd 88 85 bc bd 55 98 24 3e 40 67 ee bd
       -0.06857105 -0.092051566 0.16073735 -0.11640787
000010 38 65 38 bd 7d 3a 86 bd 0e b6 f8 bd f1 19 b4 3d
       -0.045018405 -0.065541245 -0.12144099 0.087940104
000020 69 b6 09 3d 97 ea 29 3c d5 20 a4 3c ac 2d a1 bc
       0.033621226 0.010370872 0.020035187 -0.019675098
000030 1b d3 0b 3b 71 99 72 bd 6f 42 5d 3d 50 b5 69 bb
       0.0021335545 -0.059228364 0.054018434 -0.003566105
000040 2f c6 ca 3d ba 02 e9 3c eb 3e e7 bd 5c 75 39 3d
       0.09901082 0.028443683 -0.112912975 0.04527794
000050 32 d3 b6 3d d5 05 04 bd 05 95 0d bd b8 4c 2e be
       0.08927001 -0.032232124 -0.034565944 -0.17021453
000060 e7 00 f4 3c 2c 62 c6 bd 3e e8 e9 bd f0 56 92 3c
       0.029785587 -0.096866935 -0.1142125 0.01786372
000070 5a c9 66 bd b4 dc 24 3d e9 98 1f be 6c e2 cc bd
       -0.056344368 0.04024954 -0.15585674 -0.10004124
000080 e6 49 bd bd fc 0a 38 3b 03 6a 02 be 6f f5 6f be
       -0.09242611 0.002808272 -0.12735753 -0.23433469
000090 c7 0d 8b bd ff b0 2d bd c7 a8 32 bd 56 e4 8c bd
       -0.06789737 -0.042405125 -0.04361799 -0.06879489
0000a0 08 a1 04 be 59 ce a2 bd 5e f4 60 bd d8 fd 98 bd
       -0.12952054 -0.07949514 -0.054920547 -0.07470292
0000b0 7a 6d de bd 46 00 80 3d 44 e3 98 bd 16 ac 39 3b
       -0.10860725 0.06250052 -0.074652225 0.002833133
0000c0 82 9a bd bd be 5f e7 bd 89 9a 02 be 33 f7 f4 bd
       -0.09257986 -0.11297558 -0.12754263 -0.11961212
0000d0 5b db c1 bd 1b 23 f4 bd b5 f7 97 bd 19 7d fc bd
       -0.09465667 -0.11920758 -0.07420293 -0.12328548
0000e0 1a 32 31 3d 4b 0e ee bd 94 b5 bf bd dc a8 1b 3c
       0.04326067 -0.1162382 -0.09360805 0.009500708
0000f0 f8 50 90 bd f1 72 04 bd 9d 8d 95 bd cc 17 85 bd
       -0.070466936 -0.03233618 -0.07302401 -0.064986795
000100 52 07 a9 3c fd 99 95 3d 56 6a 8d 3b b4 79 a3 3b
       0.020633373 0.073047616 0.0043156547 0.0049888734
000110 11 ca 08 3c 3a 6c 18 be 1f ac a1 bd bb b5 33 bb
       0.008348958 -0.14885035 -0.078941576 -0.0027421552
000120 00 47 c8 bd 34 c3 27 3d 67 43 e0 bd f1 d0 6c 3d
       -0.09779167 0.040957645 -0.10950356 0.05781645
000130 c8 14 f2 bc 2a 07 88 bd dd f8 aa bd 19 68 bb 3d
       -0.029550925 -0.066419914 -0.08348248 0.091507144
000140 06 4a e1 bd 56 c6 77 3c 87 d9 41 bd 00 87 36 bd
       -0.11000447 0.015122971 -0.04732659 -0.04456234
000150 17 38 65 bd 43 b6 0f bd ad 24 8a 3d 02 e1 b6 bd
       -0.055961695 -0.035085928 0.067452766 -0.089296356
000160 6d 87 19 be c0 38 30 bc ad 9d d7 bd 34 55 d3 bd
       -0.14993067 -0.010755718 -0.10528121 -0.103189856
000170 e6 78 9b bb e9 97 6f 3d 5e e8 c9 bd 71 7d b9 3d
       -0.004744637 0.058494482 -0.09858774 0.09057129
000180 d1 56 b1 bd fb 12 90 bd f1 a3 e2 bd 09 8a f1 bd
       -0.08659137 -0.0703487 -0.110664256 -0.11793906
000190 9d a3 88 bd c5 36 fc bd f4 bb 8f 3d c4 82 35 bd
       -0.06671832 -0.12315134 0.07018271 -0.04431416
0001a0 5d 31 0b 3e cc 78 8b 3c 07 e0 b6 bb d2 77 02 bb
       0.1359305 0.017025374 -0.0055809054 -0.0019907844
0001b0 cc 4c cd bc 60 5f 2c bd b6 7e 91 3d bd 0a c2 bd
       -0.025061034 -0.042083144 0.07104246 -0.094747044
0001c0 d8 be 61 bd a2 e0 31 be 2a c9 0e bd b7 a0 93 3d
       -0.055113643 -0.17370847 -0.034859814 0.07208388
0001d0 c5 9b b6 bc 5d aa eb bd 5f fc fc bd a5 4a fe bc
       -0.022291074 -0.115071036 -0.123528235 -0.031041453
0001e0 6b ca 5e bd ce b1 12 3e 5f 03 1b be 7c 32 99 bc
       -0.05439226 0.1432564 -0.15138005 -0.01870083
0001f0 cd 72 09 be 35 ab 0f 3e e5 35 0e be b0 d7 b2 bd
       -0.134227 0.14030154 -0.13887747 -0.087325454
000200 32 90 47 3c 58 b5 fa 3c b9 95 bb bc eb de d7 bc
       0.012180375 0.03060405 -0.022898542 -0.026351413
000210 74 dc 1f 3d 34 c8 3a bd 8d 78 3e 3d 7b 80 1b 3d
       0.0390286 -0.045601085 0.046501685 0.037964325
000220 fa 27 b5 3c f1 b3 29 bd 65 45 ad 3d 81 b7 e8 bb
       0.022113789 -0.04143137 0.084605016 -0.0071019535
000230 17 02 08 bd cc 54 ec 3c 12 20 49 bd fa 4c 23 3c
       -0.033205118 0.028849028 -0.04910285 0.009967083
000240 63 8b 92 3d 4f 8b c0 3b 6b 38 39 3b e7 b1 cb bc
       0.07155492 0.005875982 0.0028262387 -0.024865104
000250 cd 60 92 bd a2 08 be bc a3 ff a3 3d 00 c6 7d 3d
       -0.071473695 -0.023197476 0.08007743 0.061956406
000260 46 4b 35 bd 99 1e ef 3c ef d2 b4 3c 58 00 80 3d
       -0.04426124 0.029189395 0.022073237 0.062500656
000270 9b 9e 98 3d 23 0e 85 bc d2 36 98 3c 47 4c 0c 3e
       0.074521266 -0.016242092 0.018580828 0.13700972
000280 a3 8d b6 3c 8f 03 63 bd 33 de b5 bc 76 c3 23 bd
       0.022284335 -0.055423316 -0.02220068 -0.039981328
000290 4c 74 97 bd e7 d4 25 bd 64 c3 6b 3d f4 17 2d 3c
       -0.07395229 -0.040486243 0.057559386 0.010564793
0002a0 37 53 97 3d 95 6d 88 bd 59 4e 7c 3d 54 e7 03 3d
       0.07388919 -0.06661526 0.061598156 0.032203034
0002b0 39 17 83 bd f4 5d ee bb cb 5c 97 3c 08 c6 66 bd
       -0.06400914 -0.0072743837 0.018476864 -0.0563412
0002c0 9c 21 46 3c 69 4a a3 3d 61 5f 21 bd 06 0c 4d bc
       0.012092974 0.07973177 -0.0393976 -0.012515074
0002d0 f0 7a 9b 3d 49 05 14 bd 63 af a1 bd 70 b6 28 3c
       0.07591808 -0.036137853 -0.078947805 0.010297403
0002e0 ae 20 85 bd 81 b4 a0 3d 82 0b 23 bd 71 3f 33 3d
       -0.06500374 0.078469284 -0.039805897 0.043761674
0002f0 33 63 18 bc f2 0b ec bc 42 d4 8f bc 3b 64 7d 3d
       -0.009300995 -0.02881429 -0.017557267 0.061863165
000300 ba 46 3d bd 70 ec 92 3d 29 7f 28 3d 0e 81 3a bd
       -0.04621003 0.07174003 0.041136894 -0.045533232
000310 9f 7b a0 3d 02 2e 8a 3d 1f 36 5f bd 29 b8 8e 3c
       0.07836079 0.067470565 -0.054494973 0.017421799
000320 4d ec 10 3d cb 01 8a bc 9d 2e bb 3d 89 f3 a2 bc
       0.035381604 -0.016846558 0.0913975 -0.019891517
000330 8b 03 02 bd 62 9e 68 3c 5c 70 05 bc f6 05 c0 3d
       -0.03174166 0.014197918 -0.008144464 0.09376137
000340 65 9e 3d bd d0 26 30 3c a6 5f 48 bd c2 eb 88 3c
       -0.046293635 0.010751441 -0.048919342 0.01671398
000350 b7 3d 80 bc f1 45 4a bd 0c bf 55 bd 9c 45 08 bd
       -0.015654428 -0.049383108 -0.05218415 -0.03326951
000360 16 6e d7 bd b6 19 3e 3d 66 e5 25 3d b0 f6 55 bd
       -0.10519044 0.04641124 0.040501975 -0.052237213
000370 24 58 bf 3d de 60 b4 3d 88 25 8b bc 6f 12 45 3d
       0.09342983 0.088075384 -0.01698567 0.048113283
000380 e6 ea f5 3b f6 39 99 3d 91 0d ec bb 97 b7 9a bc
       0.0075048087 0.07481758 -0.0072037657 -0.01888637
000390 49 f5 20 3d 23 79 fa bd 94 7f ad 3c 43 53 89 bd
       0.039296422 -0.12230136 0.021178998 -0.06705334
0003a0 bf 22 fc bb e9 60 bb 3c bd 4a 43 bd b5 2f 0d bd
       -0.0076945717 0.022873359 -0.047678698 -0.034469325
0003b0 0f 11 ba bc e4 19 8a bb bc b4 a6 3c f4 c2 c1 bc
       -0.022713212 -0.004214512 0.020349853 -0.023652531
0003c0 b4 24 b8 3d 6d 73 6c bc 47 40 41 bb 24 28 dd 3c
       0.089913756 -0.0144318165 -0.0029487775 0.02699668
0003d0 e2 b9 09 bd 0a 71 ea 3c 24 24 c7 bd 1c a9 6e ba
       -0.033624537 0.028618354 -0.0972369 -0.0009104179
0003e0 8a 38 fb bb 56 d6 9b bd c7 56 38 3d 81 36 6f bd
       -0.007666652 -0.07609241 0.045004632 -0.05840159
0003f0 3f 93 7c bd d8 f7 7c bd 34 44 c9 bb 26 6a 8b ba
       -0.061663862 -0.0617598 -0.0061421636 -0.0010636493

net.2.bias f4 [192]
000000 52 ab 90 bc 46 a9 70 3d b9 9e 6f 3d f4 a2 bf 3b
       -0.017659817 0.05875518 0.05850098 0.005848283
000010 4a b4 27 3d 5c f7 1a bc bb 38 60 3c fe 7b 96 3c
       0.04094342 -0.009458389 0.013685401 0.018369671
000020 d9 f4 0b be ae a3 10 bb b8 80 87 3c 0e 01 18 bd
       -0.1366762 -0.0022070217 0.01654087 -0.03711038
000030 53 c9 08 3c a0 28 cc bb 9d bb c1 3a 05 08 8d 3d
       0.008348781 -0.006230429 0.0014780645 0.06886295
000040 46 5b a6 3d db 1d 3d 3b f3 31 a6 3c 77 d7 24 3e
       0.08122878 0.0028856907 0.02028749 0.16097818
000050 3d ef 98 b9 1c 18 9c 3c 70 f9 24 bd 27 03 e3 3d
       -0.00029169946 0.019054465 -0.040276945 0.11084586
000060 b1 44 73 3d 19 ba 9b 3d f4 e8 d1 3c 6d b9 3e 3e
       0.05939168 0.07603855 0.025623776 0.18625422
000070 f6 41 b4 3c 52 38 cc 3c 3f d0 42 bd 82 34 03 3d
       0.022004109 0.0249292 -0.04756188 0.032032497
000080 75 a5 78 3d 4f 23 53 bb 5b 6e d8 3d 30 ea 33 3d
       0.060704667 -0.003221709 0.10567924 0.04392451
000090 94 db 5e 3d 8d 23 73 3d 34 74 af bd c1 90 1b bb
       0.054408625 0.059360076 -0.08567086 -0.0023737403
0000a0 3b 4d 9f bd 66 20 28 bc 7a a0 82 3d f2 69 de 3d
       -0.077784024 -0.010261631 0.06378265 0.10860051
0000b0 a0 5f e5 bb e6 3e c8 bc 10 71 fb bd 59 d0 39 3b
       -0.006999925 -0.024444055 -0.12277424 0.0028352945
0000c0 0b ac 9e 3d b2 ea 42 bd 7b d7 bf 3d d9 05 de 3d
       0.07747658 -0.047587104 0.093672715 0.10840959
0000d0 49 49 f9 3b 20 6d c8 bb 44 cc c6 3d 1f 8e e6 bc
       0.007607613 -0.0061165243 0.09706929 -0.02814394
0000e0 19 2e 9a bc 98 79 bf bd 34 17 4c 3d 51 aa 30 bd
       -0.01882081 -0.09349364 0.049826816 -0.043131176
0000f0 ca cf 1b 3c 11 bd 2d 3c d0 98 8d 3d b6 71 ce bc
       0.00950999 0.010604159 0.06913912 -0.025200706
000100 22 04 cf bd 24 e9 57 bd be 76 ce bd 36 09 13 bc
       -0.1010821 -0.052712575 -0.10081242 -0.008974364
000110 32 43 82 3c 07 0e b0 bd cf 7e 05 3e 9a 35 a5 bd
       0.015901182 -0.085964255 0.13036655 -0.08066864
000120 9f 5a 98 3a 2c 95 a5 bb 3b b3 1b bc 25 b8 57 3c
       0.0011623687 -0.005053183 -0.009503181 0.013166462
000130 ce 36 ad 3d 4b fe 21 3d 31 57 dc 3d d3 82 93 3c
       0.08457719 0.039549153 0.10758818 0.018006718
000140 3a 56 4b 3c 3f 96 98 3c e0 21 e4 ba b8 67 e8 bc
       0.012410695 0.01862633 -0.0017405115 -0.02836977
000150 0e a3 e5 bc bc e1 9a bc 66 0a ab 3c ae 79 92 3c
       -0.028031852 -0.018906467 0.020878982 0.017880287
000160 e3 69 9a bd cb ee bd 3d cb 08 07 3d 48 b5 b7 3d
       -0.075397275 0.09274062 0.03296737 0.089701235
000170 0d 6b c3 bc 28 03 88 3d 26 4d 3d 3b 03 e7 b0 3d
       -0.023854757 0.06641227 0.0028885095 0.08637812
000180 3b a1 e0 bb a7 d5 95 bd 2e 0b ac bd 16 e0 13 bc
       -0.0068551577 -0.073161416 -0.0840057 -0.009025594
000190 3d 20 0f bd 83 71 29 bd 9d 90 78 bc f8 57 8e bd
       -0.034942854 -0.04136802 -0.015171197 -0.069503725
0001a0 2d e8 f5 3d bf a3 d3 3c 3c e8 f8 3c e3 67 a1 bd
       0.12007175 0.025834916 0.030384175 -0.07881143
0001b0 46 10 93 3d 94 ba 28 3d 5e f5 82 3c 9b 99 88 bd
       0.07180838 0.04119356 0.01598614 -0.06669923
0001c0 02 63 55 bd b6 db 8a 3d bc 37 b0 3d 6b 86 33 3d
       -0.052096374 0.06780188 0.086043805 0.043829363
0001d0 9c 33 0a 3e d4 8f e2 bd ca 82 04 bd 3f 65 6f bd
       0.1349625 -0.11062589 -0.032351293 -0.058446165
0001e0 7d 6d c2 bd ef 18 88 3d d4 7f 46 3d 99 03 bb 3c
       -0.094935395 0.06645381 0.04846175 0.022828864
0001f0 65 3f de 3c b7 60 10 bd cb 21 2e bc db d2 71 3d
       0.027129838 -0.035248484 -0.010628174 0.059038978
000200 b9 1a bf bc bc 26 8f 3d 2d 9f 2e bd 96 fe 68 3b
       -0.023328172 0.0698981 -0.04263227 0.0035552136
000210 3a 06 0b bd 9e 06 ba bc 49 96 dd bd 70 58 a6 3c
       -0.033941485 -0.022708233 -0.1081968 0.020305842
000220 89 a1 38 3d 61 ae cc 3d cc 37 84 3c 18 b7 0b 3d
       0.045075927 0.09994198 0.016139887 0.03411016
000230 0e f2 df bd 6c 6e 19 bd 4e d9 b0 bb 25 af fb 3b
       -0.1093484 -0.037458822 -0.0053969985 0.007680791
000240 a2 9c 9b 3d 5e 3d a7 bc 2c 42 75 bc ac 80 e9 3d
       0.07598235 -0.020415004 -0.01496939 0.11401495
000250 00 f6 0a 3e d9 48 37 bd ff bb c1 3c a7 22 b3 3d
       0.13570404 -0.044747207 0.023649214 0.08746844
000260 e3 43 59 3d 09 7b 53 3d 39 3f 06 3e f8 7a 19 3d
       0.053043257 0.051631007 0.13110055 0.037470788
000270 c3 3e 4c 3d f4 e4 be 3c e6 dc 83 3d 81 15 12 3e
       0.04986454 0.023302533 0.064386174 0.14266016
000280 f4 31 cf bc 29 d4 68 3d 4b 20 56 bd c6 5a fa bc
       -0.025292374 0.056842957 -0.05227689 -0.030560862
000290 8b 5b 98 3c a5 1a 75 bd ec 04 82 3d 80 1c d5 3d
       0.018598339 -0.059839863 0.06348595 0.104058266
0002a0 7e d3 75 3c 5e 84 05 3e 80 f7 32 bd f7 56 d7 3d
       0.015004037 0.13038775 -0.043693066 0.10514634
0002b0 3d 5b a5 bd 0e 97 8d bb 4c 73 d1 39 70 ab ac 3b
       -0.08074043 -0.0043209856 0.0003994949 0.0052694604
0002c0 5b 7d be bc 28 e1 af 3d 49 e9 44 3d e9 0d c6 3c
       -0.023253134 0.08587867 0.04807404 0.024176555
0002d0 c4 3f f4 3d 46 4c 4b 3c 99 9a 52 3d f5 4f a0 bb
       0.11926225 0.012408322 0.051416967 -0.004892344
0002e0 5f 0f af bd ad ee a4 3d f7 07 9a bc 09 03 6b bd
       -0.08547854 0.08053336 -0.018802626 -0.05737594
0002f0 04 6d 80 bd 77 29 31 3b fc 97 a9 3c f2 d5 67 bd
       -0.06270793 0.0027032772 0.020702355 -0.05660052

exp_avg f4 [128, 142]
000000 67 de 9c b8 0e 63 15 3b f1 4c 15 3b aa 7f 08 3c
       -7.480085e-05 0.0022794637 0.0022781456 0.008331219
000010 0d 3f 72 3a 25 6d 7f 3a 57 2b cf 3a 76 88 0c 3b
       0.00092409627 0.0009743742 0.0015805763 0.0021443642
000020 9f 9d e5 b9 f3 fd 74 3a ee ea 0b 3b a2 b5 e8 3b
       -0.0004379572 0.0009345703 0.0021349746 0.0071017304
000030 c5 25 44 bb 53 34 a5 b9 bc 44 f6 3a b0 e9 0a 3b
       -0.002992974 -0.00031510237 0.0018788795 0.0021196418
000040 18 d6 c1 bb 91 3c 97 bb bc 46 97 bb 7f a3 65 3b
       -0.0059154145 -0.0046153744 -0.0046165865 0.0035040078
000050 3e 33 a0 bb 2b e9 e5 ba 39 73 32 bb 64 a7 26 bb
       -0.004888921 -0.0017540803 -0.0027229323 -0.0025429362
000060 73 f2 4f bb 89 8f 94 bb 42 fb 90 bb 64 80 b7 bb
       -0.0031730204 -0.0045337123 -0.0044244835 -0.005600022
000070 e4 50 84 ba 0e 10 d7 ba 97 fa b5 bb 2c 96 ae bb
       -0.0010094908 -0.0016407983 -0.0055535543 -0.0053279605
000080 34 9e 83 3b 82 4a 09 3a 5a 86 36 bb 72 ae 67 3a
       0.004016662 0.0005237238 -0.0027851076 0.0008837945
000090 64 a7 b5 3a 01 ab 9a ba 3a f3 be b9 d7 03 f7 36
       0.001385909 -0.0011800231 -0.00036420842 7.3616206e-06
0000a0 e7 f3 45 3a 90 5a 0a 3b d4 0d 37 3a 6d f1 1e bb
       0.0007551298 0.0021111108 0.00069829565 -0.0024252788
0000b0 e5 18 c5 b9 dc 1e 48 bb 13 42 cd 3a c0 36 63 ba
       -0.00037593316 -0.0030535972 0.001565995 -0.0008667521
0000c0 f7 47 a0 3a 5f 85 2a 3b 23 90 2d bb 06 b7 ab bb
       0.0012228478 0.0026019437 -0.0026483617 -0.005240324
0000d0 23 c2 f9 ba 1f 98 52 bb dc 6d 8f 3a 2b 74 46 bb
       -0.001905505 -0.0032134128 0.0010942775 -0.0030281644
0000e0 29 9e aa ba 80 55 83 b9 19 ca 84 b9 aa c8 81 3a
       -0.0013017106 -0.0002504997 -0.00025327576 0.0009901721
0000f0 83 45 d8 3a d0 16 ae ba bb 6a 90 3a ca fd a3 ba
       0.0016500208 -0.0013281945 0.0011018136 -0.0012511548
000100 0d ef 14 bb fa 3a 37 3a 1d d6 91 3a da 92 02 bb
       -0.0022725493 0.0006989684 0.0011126433 -0.0019923956
000110 b8 b2 02 bb 24 1f d5 39 28 47 5f 3b 5b 65 4d 3b
       -0.001994295 0.00040649727 0.0034069512 0.003134093
000120 00 00 00 00 00 00 00 00 1a a4 1c 3b 8e 3f 1d 3b
       0.0 0.0 0.0023901523 0.002399418
000130 3c fc 95 ba 00 00 00 00 00 00 00 00 ac 09 1a b7
       -0.001144297 0.0 0.0 -9.181367e-06
000140 00 00 00 00 00 00 00 00 00 00 00 00 00 00 00 00
       0.0 0.0 0.0 0.0
000150 3f 02 20 b7 00 00 00 00 00 00 00 00 00 00 00 00
       -9.537266e-06 0.0 0.0 0.0
000160 00 00 00 00 a4 52 8a bb 08 3c 30 bb 98 40 31 bb
       0.0 -0.0042212773 -0.002689125 -0.0027046558
000170 41 fe d3 ba 75 90 7d ba 92 33 0d bb b1 1e 7e bb
       -0.0016173796 -0.000967271 -0.002154563 -0.0038775618
000180 f7 e2 8a bb 00 00 00 00 00 00 00 00 40 e8 bf bb
       -0.004238482 0.0 0.0 -0.005856544
000190 05 09 8a bb 9e eb 8e bb 00 00 00 00 00 00 00 00
       -0.004212501 -0.004361584 0.0 0.0
0001a0 fa d7 5e 34 00 00 00 00 00 00 00 00 00 00 00 00
       2.0753933e-07 0.0 0.0 0.0
0001b0 00 00 00 00 72 c3 e3 ab 00 00 00 00 00 00 00 00
       0.0 -1.6183567e-12 0.0 0.0
0001c0 00 00 00 00 00 00 00 00 74 ec c3 3b 50 40 8c 3b
       0.0 0.0 0.005979115 0.0042801276
0001d0 e9 aa ee 3b 72 8e 31 37 82 0b 30 37 a6 ed 02 bb
       0.0072835577 1.0583188e-05 1.0493097e-05 -0.0019978075
0001e0 29 56 01 bb 09 27 69 3b 00 00 00 00 00 00 00 00
       -0.0019735193 0.0035576245 0.0 0.0
0001f0 c2 cf 48 ba 63 c8 81 3a cf e2 73 3a 00 00 00 00
       -0.0007660353 0.0009901639 0.00093035115 0.0
000200 00 00 00 00 81 0b eb b4 00 00 00 00 00 00 00 00
       0.0 -4.378053e-07 0.0 0.0
000210 00 00 00 00 00 00 00 00 81 0b eb b4 00 00 00 00
       0.0 0.0 -4.378053e-07 0.0
000220 00 00 00 00 00 00 00 00 00 00 00 00 81 8f 1b bc
       0.0 0.0 0.0 -0.009494663
000230 53 6a e8 bb 0b 47 5b 3c c1 76 cd 38 0f 6f 2d 3b
       -0.007092753 0.013383637 9.7972814e-05 0.00264639
000240 88 27 2f 3b 31 d1 72 3c a8 e8 33 3c 2d f4 33 3c
       0.0026726443 0.014820383 0.010980763 0.010983509
000250 a8 f0 04 3c 15 04 83 3b b8 5e a1 3b ef 3e b7 3b
       0.008114018 0.0039982894 0.0049246214 0.005592219
000260 5d 4a 0a 3c f3 fe 44 3c c3 d1 fd 3b ad cf 2b 3c
       0.008440581 0.012023675 0.007745953 0.0104865255
000270 70 80 91 3b 8a bb 85 3b 0a 13 b9 3a 33 6c 0a 3b
       0.00444036 0.0040811943 0.0014120054 0.002112162
000280 dd ed 0b 3b 6c b7 81 3c 19 8c f4 3b 7b 3f 7e 3b
       0.0021351494 0.015834533 0.00746299 0.0038795162
000290 f4 8d 51 ba f5 b7 94 ba d8 56 57 3b 6b 99 ee 39
       -0.000799387 -0.0011346327 0.003285816 0.00045509203
0002a0 6c ac 09 3a 22 69 fe 39 93 19 0b 3b 19 df 7c 3c
       0.0005251828 0.00048524985 0.002122496 0.01543405
0002b0 cc b4 2c 3b ae 57 16 3b c3 a7 37 3c 47 69 6b 3b
       0.002635288 0.0022940445 0.011209431 0.0035920904
0002c0 45 7b fd 3b eb 66 f7 3b 8f 8f 0e 3c be 86 60 3c
       0.007735642 0.0075501106 0.008701219 0.013704
0002d0 5b 72 20 3c 55 89 84 3c 10 42 82 3c e0 e8 87 3c
       0.0097928895 0.016178766 0.015900642 0.016590536
0002e0 55 b0 84 3c 18 18 49 ba 32 87 e7 39 03 b2 b8 3b
       0.016197363 -0.0007671132 0.00044160482 0.005636455
0002f0 57 7d 88 3c f5 58 46 3c 9c 07 eb 3a c7 db 21 3b
       0.01666133 0.01210617 0.0017931345 0.0024697648
000300 00 04 f4 3b 83 c8 11 3c 87 94 53 3c fd 8c 26 3c
       0.007446766 0.008897903 0.01291383 0.01016545
000310 26 41 5e 3c bb f0 0d 3b 9f 9a 1f 3c 0c 75 32 3c
       0.013565337 0.002165838 0.009741454 0.010892164
000320 74 df 32 3c 46 d3 11 3b 93 60 54 3b fd 97 a9 3b
       0.010917533 0.0022251173 0.0032406196 0.005175589
000330 2d f8 f3 3a fb b1 36 bb 26 93 a9 3b bb 1f 95 3b
       0.0018613391 -0.002787708 0.005175012 0.0045509017
000340 36 18 69 3b ce aa 7d 39 b1 09 5c 39 8e a2 64 3b
       0.003556741 0.0002419159 0.00020984445 0.003488693
000350 8a fe 3a 3b d6 82 58 3b 00 00 00 00 00 00 00 00
       0.0028533065 0.0033036969 0.0 0.0
000360 80 e6 36 3c fa e7 36 3c 84 02 bd 3b 00 00 00 00
       0.011163354 0.011163706 0.005768122 0.0
000370 00 00 00 00 9a dd 0e b5 00 00 00 00 00 00 00 00
       0.0 -5.3221595e-07 0.0 0.0
000380 00 00 00 00 00 00 00 00 ca d5 20 32 00 00 00 00
       0.0 0.0 9.361836e-09 0.0
000390 00 00 00 00 00 00 00 00 00 00 00 00 11 a5 69 3b
       0.0 0.0 0.0 0.0035651366
0003a0 76 2e bd 3b 1c 99 81 3b 41 43 ca ba 0d e6 52 bb
       0.005773361 0.0039550196 -0.001543142 -0.0032180578
0003b0 9b 9e 6c 3b 9a 58 c5 b8 fc 06 b3 b9 00 00 00 00
       0.0036105278 -9.410195e-05 -0.00034146744 0.0
0003c0 00 00 00 00 db 37 a6 ba 3c be 64 3a e3 f8 80 3a
       0.0 -0.0012681441 0.0008725857 0.0009839799
0003d0 00 00 00 00 00 00 00 00 6c 01 5e 35 00 00 00 00
       0.0 0.0 8.2703514e-07 0.0
0003e0 00 00 00 00 00 00 00 00 00 00 00 00 12 3b 19 ac
       0.0 0.0 0.0 -2.1775398e-12
0003f0 00 00 00 00 00 00 00 00 00 00 00 00 00 00 00 00
       0.0 0.0 0.0 0.0

exp_avg_sq f4 [128, 142]
000000 ee 73 0a 3c 9a 27 02 3c c1 66 eb 3b 18 2e 0f 3c
       0.008450491 0.007944012 0.00718388 0.008739017
000010 03 ce 31 3c 60 37 c9 3b 21 00 d9 3b 13 ff 2b 3c
       0.01085234 0.0061406344 0.00662233 0.010497826
000020 e5 68 ae 3b 88 4e 22 3c ea 29 cf 3b c2 f4 2a 3c
       0.005322563 0.009906419 0.006322135 0.010434331
000030 fa fe 55 3c b1 75 19 3c 44 cb 4b 3c f7 e4 18 3c
       0.013061279 0.009366439 0.012438599 0.009331933
000040 9f 08 31 3c 9a ef 66 3c f7 3b 3e 3c 78 4a 1f 3c
       0.010805278 0.014095211 0.011610976 0.009722345
000050 ab 6e 87 3c 5f fb 79 3c 7c ed 72 3c 9c 51 37 3c
       0.016532263 0.015257685 0.0148271285 0.011188891
000060 a8 3e 0f 3c 87 d5 65 3c d3 6c 42 3c 64 bc 5d 3c
       0.008742966 0.01402796 0.011866766 0.013533685
000070 fd 77 8c 3c 4e 2b 6b 3c 0b 23 5e 3c 16 96 2d 3c
       0.017147059 0.014353586 0.01355816 0.010594865
000080 34 17 12 3c b6 63 22 3c 70 ec 18 3c 58 0e 59 3c
       0.008916665 0.009911468 0.009333715 0.013248049
000090 8a d7 15 3c ea 58 2a 3c fe b0 1c 3c cd 26 28 3c
       0.009145627 0.010397175 0.009563683 0.010263157
0000a0 a6 e6 1e 3c 87 31 1c 3c e6 44 45 3c d5 5c 59 3c
       0.009698546 0.009533293 0.012040352 0.013266762
0000b0 7e 0e 2c 3c 4f 73 2b 3c e1 69 0f 3c 7c 8f 03 3c
       0.010501502 0.010464503 0.008753271 0.008029815
0000c0 33 f9 2e 3c dd ee e9 3b 4c f7 32 3c 3c 0e 12 3c
       0.010679531 0.0071390704 0.010923218 0.008914527
0000d0 74 a2 1f 3c 5a 19 31 3c 1e 32 4e 3c ec 6f f7 3b
       0.009743322 0.010809267 0.012585191 0.007551184
0000e0 0b 71 17 3c b7 19 d8 3b 77 b7 28 3c 10 df 21 3c
       0.00924326 0.0065948623 0.010297648 0.009879842
0000f0 ac 6f 38 3c 8e 99 12 3c c0 8b 2a 3c 85 90 a5 3b
       0.011257093 0.008947743 0.010409296 0.0050526285
000100 62 a2 54 3c cc db 11 3c c6 b8 e3 3b c9 4e 33 3b
       0.012978168 0.008902501 0.006949517 0.0027360192
000110 be c0 ff 3a 20 f9 33 3c 2d 52 b3 3b 1c 64 85 3b
       0.0019512398 0.010984689 0.0054724426 0.004070772
000120 00 00 00 00 00 00 00 00 79 51 dc 3b 1f d5 a6 3b
       0.0 0.0 0.0067235795 0.005091324
000130 2f 2e 80 3b 00 00 00 00 00 00 00 00 36 ea b3 3a
       0.0039117555 0.0 0.0 0.0013726417
000140 00 00 00 00 00 00 00 00 00 00 00 00 00 00 00 00
       0.0 0.0 0.0 0.0
000150 3d 8d a4 3a 00 00 00 00 00 00 00 00 00 00 00 00
       0.0012554299 0.0 0.0 0.0
000160 00 00 00 00 9e 1f 5c 3c 05 77 42 3c bb ba 4c 3c
       0.0 0.0134352725 0.011869197 0.012495692
000170 63 88 5a 3a 5f cb 16 3a fc b2 54 3c ee aa 34 3c
       0.0008336363 0.00057523506 0.012982126 0.011027081
000180 f4 45 31 3c 00 00 00 00 00 00 00 00 6a 8b 27 3c
       0.010819901 0.0 0.0 0.01022611
000190 a9 18 09 3c 73 ca d9 3b 00 00 00 00 00 00 00 00
       0.008367696 0.0066464483 0.0 0.0
0001a0 35 f4 a4 3a 00 00 00 00 00 00 00 00 00 00 00 00
       0.0012584986 0.0 0.0 0.0
0001b0 00 00 00 00 62 aa 1b 3a 00 00 00 00 00 00 00 00
       0.0 0.000593817 0.0 0.0
0001c0 00 00 00 00 00 00 00 00 bd 9b 73 3c a7 5a 5a 3c
       0.0 0.0 0.014868674 0.013327277
0001d0 75 64 28 3c 0a 90 24 3b c1 0c 0e 3b a7 2d 44 3c
       0.010277857 0.0025110268 0.0021675082 0.011973775
0001e0 e4 30 38 3c cb 42 fb 3b 00 00 00 00 00 00 00 00
       0.011242125 0.0076678745 0.0 0.0
0001f0 57 df 0a 3c 74 79 f4 3b 49 2d c3 3b 00 00 00 00
       0.0084761 0.0074607674 0.005956326 0.0
000200 00 00 00 00 c0 47 6d 3a 00 00 00 00 00 00 00 00
       0.0 0.0009051524 0.0 0.0
000210 00 00 00 00 00 00 00 00 4c 7b 49 3a 00 00 00 00
       0.0 0.0 0.0007685914 0.0
000220 00 00 00 00 00 00 00 00 00 00 00 00 0e b3 1e 3e
       0.0 0.0 0.0 0.15497991
000230 f3 bb a9 3c 30 dd ab 3e 67 a5 dd 3b 4f 8b c9 3b
       0.020719504 0.3356719 0.0067641023 0.00615064
000240 83 c6 d4 3b 8c f8 bd 3b b0 9d 01 3c 3c d4 9e 3b
       0.006493391 0.0057974514 0.007911131 0.0048470777
000250 c2 a0 b2 3b cb c6 e1 3b f3 a4 9e 3b 01 1f 0d 3c
       0.0054512927 0.006890153 0.004841441 0.008613349
000260 17 5c ca 3b 50 db 05 3c d5 6f 0e 3c f3 b3 ce 3b
       0.0061755287 0.008169964 0.008693655 0.0063080727
000270 e1 9c f7 3b a3 ae cd 3b d5 d2 be 3b 20 e3 fc 3b
       0.007556543 0.006276922 0.005823473 0.007717505
000280 4e 70 c1 3b 7c d3 bc 3b 2e a2 0b 3c eb 61 02 3c
       0.0059032803 0.0057625156 0.008522553 0.007957916
000290 8b b4 d7 3b db d4 9f 3b 6d a5 9d 3b 47 13 13 3c
       0.0065828017 0.0048776693 0.00481098 0.008976764
0002a0 ec 41 e0 3b 8a 94 1f 3c 0f 57 30 3c 9a 28 28 3c
       0.006843796 0.009740004 0.010762944 0.010263586
0002b0 60 5d 0c 3c 5c 68 f2 3b a7 ed b4 3b bf 30 f2 3b
       0.008567184 0.0073976945 0.0055214944 0.007391065
0002c0 69 94 f0 3b b1 25 0c 3c 19 08 de 3b f5 c7 f9 3b
       0.0073419106 0.008553908 0.0067758677 0.0076227137
0002d0 60 bd e4 3b c8 7a a9 3b 62 20 e3 3b 88 6a f0 3b
       0.006980583 0.0051721074 0.0069313506 0.0073369183
0002e0 e9 06 01 3c 1c da 0e 3c aa 65 ca 3b ea e0 03 3c
       0.007875183 0.0087189935 0.00617667 0.008049229
0002f0 94 ff c9 3b e7 1c a7 3b f4 af 15 3c 26 32 fe 3b
       0.0061645005 0.005099881 0.009136189 0.007757443
000300 9c e0 d8 3b 50 6e d8 3b af 40 db 3b d0 6a 09 3c
       0.0066185724 0.006604947 0.0066910605 0.0083872825
000310 c3 29 00 3c b6 40 b0 3b 03 65 b2 3b 06 fb d0 3b
       0.007822457 0.005378808 0.0054441704 0.0063775806
000320 26 aa cc 3b 7e 16 e8 3b 2e 07 f9 3b e8 f9 fe 3b
       0.006245869 0.0070827594 0.007599733 0.007781256
000330 99 9f ee 3b f7 b1 87 3b 77 06 0a 3c 77 5c db 3b
       0.007282209 0.004141088 0.008424393 0.0066943723
000340 90 59 7c 3b 71 13 b5 3a 50 a5 7a 3a cb bc 09 3c
       0.0038505532 0.0013814998 0.00095613766 0.008406828
000350 31 53 64 3b 14 76 1f 3b 00 00 00 00 00 00 00 00
       0.0034839625 0.0024331855 0.0 0.0
000360 da a4 b0 3b 31 fc 93 3b da 2c 71 3b 00 00 00 00
       0.0053907456 0.0045161475 0.0036800415 0.0
000370 00 00 00 00 84 a0 12 3a 00 00 00 00 00 00 00 00
       0.0 0.00055933767 0.0 0.0
000380 00 00 00 00 00 00 00 00 3e 03 e0 39 00 00 00 00
       0.0 0.0 0.00042727025 0.0
000390 00 00 00 00 00 00 00 00 00 00 00 00 ba b1 24 3c
       0.0 0.0 0.0 0.010052139
0003a0 34 1f 25 3c 32 56 04 3c a5 d6 cc 3a 17 86 bf 3a
       0.01007824 0.008077191 0.0015627934 0.0014612105
0003b0 d9 7d 16 3c e1 be 02 3c 7e 5c b8 3b 00 00 00 00
       0.009185278 0.007980079 0.0056262603 0.0
0003c0 00 00 00 00 82 c2 8c 3b e4 5c 83 3b 4d 79 23 3b
       0.0 0.004295648 0.004008876 0.0024944127
0003d0 00 00 00 00 00 00 00 00 56 ce 99 39 00 00 00 00
       0.0 0.0 0.00029336166 0.0
0003e0 00 00 00 00 00 00 00 00 00 00 00 00 58 30 61 39
       0.0 0.0 0.0 0.00021475682
0003f0 00 00 00 00 00 00 00 00 00 00 00 00 00 00 00 00
       0.0 0.0 0.0 0.0

exp_avg f4 [128]
000000 d3 3c ee ba 02 a2 47 3c 6d 79 86 33 2a 64 e4 b7
       -0.0018176086 0.012184622 6.2619485e-08 -2.722636e-05
000010 d5 9b 04 39 f2 20 08 3c 5d 62 f6 3b 9f dc 03 a7
       0.00012646553 0.008308636 0.00751905 -1.82995e-15
000020 09 64 6c ba d9 aa 11 bc d5 42 af bb 06 07 e0 29
       -0.0009017592 -0.008890831 -0.005348543 9.948817e-14
000030 bf c1 ec 3b ed c6 a5 39 04 00 00 00 04 00 00 00
       0.007225245 0.00031619464 6e-45 6e-45
000040 c4 3d ef 28 c4 f3 f3 b8 03 50 83 3c c8 f8 74 18
       2.6561117e-14 -0.00011632548 0.016029363 3.1661863e-24
000050 37 b1 4f a7 66 66 84 39 d4 5c 58 ba 24 2d d2 ba
       -2.882309e-15 0.00025253295 -0.00082535786 -0.0016035181
000060 88 bb d7 07 51 4f 6d b1 f4 e8 26 3a 41 5f 95 0a
       3.2459825e-34 -3.4533125e-09 0.000636711 1.4384009e-32
000070 b4 40 a9 3a 10 2f 9a 3b 30 fe 94 3b 88 13 23 ba
       0.001291296 0.0047053173 0.004546903 -0.0006220867
000080 58 8c 38 bc 1b ed e5 ba cd da 77 39 9b c5 89 3b
       -0.011263929 -0.0017541976 0.00023637265 0.0042044646
000090 53 4f 54 b3 0f d7 cf ba 92 8b d7 ba 10 99 84 3c
       -4.943224e-08 -0.0015856939 -0.0016444793 0.016186267
0000a0 e8 93 e8 bb a5 dc 86 2f ae 45 2b bc 02 47 ea ba
       -0.00709771 2.4531235e-10 -0.010453625 -0.0017873945
0000b0 bf 59 85 b7 8e 59 91 ba cc 6d b8 36 69 f6 19 34
       -1.5896627e-05 -0.0011089311 5.4964094e-06 1.4338879e-07
0000c0 7b 53 55 39 e7 89 c3 3b a9 4b 1a bb f5 71 9f bb
       0.00020344362 0.005967367 -0.0023543632 -0.0048658797
0000d0 b6 08 15 aa da 1b 1e 33 bd 54 9e 36 28 bf a8 b6
       -1.323688e-13 3.6812573e-08 4.7186318e-06 -5.0290437e-06
0000e0 15 8f 78 98 66 e3 d2 b8 ad 30 84 bb 6a 58 2e 3c
       -3.2125487e-24 -0.000100559366 -0.004034123 0.010641197
0000f0 86 7a c3 ac 09 8e 9c 3a 20 03 a8 39 04 00 00 00
       -5.555836e-12 0.0011944185 0.00032045785 6e-45
000100 a2 45 b6 38 a2 e8 0a b8 9a 22 0f b5 11 c1 59 3c
       8.6914064e-05 -3.311842e-05 -5.3322003e-07 0.0132906595
000110 f7 5f 01 ba 3c 95 2f bb e6 7f 89 14 76 cc ca 3a
       -0.00049352593 -0.0026791831 1.3883912e-26 0.0015472311
000120 7d 58 22 35 b9 92 a9 3c 94 76 38 3a 21 5b 17 2a
       6.047847e-07 0.020699846 0.00070367125 1.3443111e-13
000130 40 75 35 38 23 c2 38 bc 4e 97 ba ba d6 c9 d8 3b
       4.326296e-05 -0.011276755 -0.0014235766 0.0066158576
000140 ac 55 8d b9 c9 8e b0 3b 2b 21 7f b8 81 c4 97 3c
       -0.00026957446 0.005388115 -6.0827628e-05 0.018526318
000150 cf f5 04 36 7c a0 cb 3a e4 58 00 80 95 bf b4 22
       1.9812612e-06 0.0015535499 -3.1888e-41 4.8991943e-18
000160 81 da 26 bb ab a0 25 bb 84 cf 1a 3a 1d 23 77 3c
       -0.0025459828 -0.0025272768 0.0005905556 0.015084055
000170 1c ba 87 ad 51 db e6 b2 f5 b4 ef 3a 65 fb 8b 25
       -1.5430372e-11 -2.6875258e-08 0.0018288182 2.4283008e-16
000180 6d d7 47 30 38 e6 e4 b9 db 40 37 3b 00 5e dd bb
       7.2701917e-10 -0.00043659075 0.002796224 -0.0067555904
000190 12 fe 00 b8 b5 e9 df 3a 04 00 00 00 26 66 82 b4
       -3.07542e-05 0.00170832 6e-45 -2.428871e-07
0001a0 c2 f3 7f bb 27 14 5b 3a 90 7f 2e b7 bf 17 37 ba
       -0.0039055203 0.000835719 -1.0400909e-05 -0.00069844344
0001b0 04 00 00 00 1e 06 a1 2e a1 9c 36 34 92 d0 8f 3c
       6e-45 7.322519e-11 1.7007052e-07 0.017555509
0001c0 e9 f0 9a 3b 22 8d 3a bb 04 00 00 00 fb b7 a2 b0
       0.0047284258 -0.002846547 6e-45 -1.1839342e-09
0001d0 71 06 1d 3c d6 07 e7 3b 4e 00 60 af 08 00 4b ba
       0.009584055 0.0070504947 -2.037279e-10 -0.000774384
0001e0 f4 d0 1c 3b a1 28 45 96 5a d7 62 3b 4b cb 5c bb
       0.0023928257 -1.5926353e-25 0.0034613223 -0.0033690508
0001f0 cc 16 b0 2e 6c dc 1a 31 ef b6 b8 b5 bc e0 70 3b
       8.007603e-11 2.2535245e-09 -1.3762309e-06 0.0036755046

exp_avg_sq f4 [128]
000000 7b d7 af 3c e9 f7 62 3c b9 1c 54 39 52 22 63 3b
       0.021465054 0.013853052 0.00020228596 0.0034657908
000010 cf 8d 33 3a 09 1a 33 3c 63 65 82 3c fd f8 bf 38
       0.0006849439 0.0109315 0.015917486 9.1539674e-05
000020 19 b3 14 3b 82 b0 49 3c 32 f9 d3 3b fa e8 45 3a
       0.0022689758 0.012310149 0.0064689154 0.000754967
000030 a9 9a 0e 3c 85 d9 94 3c df 64 c0 39 86 b0 a4 3a
       0.008703866 0.018170128 0.0003669625 0.0012564815
000040 7e c1 53 39 be 99 68 3a 1f 77 85 3c 1c 9d 58 3a
       0.0002019461 0.0008873007 0.016292153 0.0008263157
000050 c0 19 80 39 83 84 4a 3a ac 6f 47 3c 95 00 a6 3c
       0.00024433248 0.0007725434 0.012172621 0.02026395
000060 ff 1d ce 39 29 ec 1c 3b 31 b8 f5 3b 75 5a 88 3b
       0.0003931373 0.0023944473 0.007498764 0.004161174
000070 d7 4e 84 3c ff 73 03 3c 52 ac 3a 3c f6 4b ca 3b
       0.016150875 0.008023261 0.011393623 0.006173606
000080 cf 4d 29 3c 4a e4 03 3b 83 37 a4 3c f3 cf b1 3c
       0.010333492 0.0020125085 0.020046001 0.021705603
000090 8c 52 4a 3b 00 56 a4 3a 27 54 a6 3c 51 ff 2e 3c
       0.0030871956 0.0012537837 0.020303799 0.010680989
0000a0 15 f0 68 3c a3 18 06 3a b2 77 8d 3c 03 01 80 3a
       0.014217396 0.00051153655 0.01726899 0.0009765927
0000b0 f5 c6 6b 3b ad 83 93 3b 75 f5 ad 39 9e c0 da 3a
       0.0035976742 0.004501781 0.0003318001 0.0016689484
0000c0 24 7e fd 3b 58 4c e4 3b 83 ee 0b 3c 58 4c a0 3c
       0.0077359844 0.0069671087 0.008540752 0.019567654
0000d0 b8 b9 91 3b 4a a4 88 3b 69 2d a3 3b 74 7e 2e 3c
       0.004447188 0.0041699754 0.0049797785 0.010650266
0000e0 06 70 c9 3a e1 3a 2e 3c 51 29 92 3c 59 bf 4e 3c
       0.0015368469 0.010634155 0.017841967 0.012618863
0000f0 68 1a 4e 38 3e 76 54 3a 55 c8 3f 39 2e 94 cb 39
       4.913882e-05 0.00081047777 0.00018289809 0.0003882958
000100 b3 b9 58 3b 96 ed cb 3a 87 3e e9 38 77 e4 b6 3c
       0.003306967 0.0015558477 0.000111219524 0.022325737
000110 c4 7d 97 3a c8 e3 53 3c 56 6c 8a 37 a4 b2 73 3b
       0.0011557867 0.012932725 1.650133e-05 0.0037185336
000120 85 2f 9c 3a c2 26 c7 3b d8 d1 a0 3c b1 c3 c8 38
       0.0011916017 0.0060776183 0.019631311 9.5731935e-05
000130 2c f8 80 39 56 de 7f 3c be dc 1d 3c a1 d2 39 3c
       0.00024598965 0.015616974 0.009635149 0.011341722
000140 f4 cc ab 3b 8f 46 62 3c 95 36 40 3b 27 03 93 3c
       0.005242938 0.013810768 0.0029329408 0.01794584
000150 56 65 09 3c 8a 8e 76 3c a2 db 01 3a e2 5f e6 39
       0.008385977 0.015048632 0.00049536873 0.00043940457
000160 f5 e4 58 3c e1 bc 93 3c 9a db a6 3c e6 e8 84 3b
       0.013238181 0.0180344 0.020368386 0.004056084
000170 a0 fd f0 3a 10 5e 98 3a 92 10 af 3c b7 e6 84 39
       0.0018386133 0.0011624712 0.021370206 0.00025348898
000180 fb 80 c6 38 c3 c1 9a 3c 98 f0 74 3c c1 42 81 3c
       9.4654e-05 0.01889122 0.01494994 0.015778901
000190 77 95 42 3b 26 da fd 3a 27 33 a1 38 36 53 97 39
       0.0029691139 0.0019367381 7.686606e-05 0.0002886296
0001a0 2f 95 64 3c a7 f5 3c 3b 65 23 9b 3a 1a f3 56 3a
       0.013951584 0.0028832944 0.001183611 0.0008199677
0001b0 c2 8d 7d 37 90 f8 28 3a ea af 87 39 dd 07 31 3c
       1.5112981e-05 0.000644573 0.00025880273 0.010805097
0001c0 fd 77 90 3c 23 9a 8c 3c 67 4d 43 37 fb 1d 27 39
       0.01763534 0.017163342 1.1640927e-05 0.0001593753
0001d0 e1 7c 48 3c 04 c7 5e 3c 54 e7 05 3b 5c 85 80 3b
       0.012236805 0.013597254 0.0020432072 0.0039221477
0001e0 6a aa 55 3c 56 a6 18 38 ee 7c ba 3b 35 19 69 3c
       0.013041118 3.6394536e-05 0.0056911623 0.014227201
0001f0 bd 8a fc 3a 98 9b 5f 39 d7 18 ec 3b f5 d0 34 3c
       0.0019267421 0.000213249 0.0072051096 0.011036147
