weights/policy_checkpoint3800.pt (torch, 522983 bytes, 12 tensors)

net.0.weight f4 [128, 142]
0.04875203 0.118174255 0.056444354 0.16621722 0.12892656 0.15063527 0.090175346 0.08172346
0.064719714 -0.032444686 0.11505077 0.061102584 0.09275067 0.05997814 0.12474225 0.08012782
0.0798817 -0.009718483 -0.056906402 0.07884328 0.022625454 0.09397305 0.03301269 0.12750755
0.00044027512 -0.028041465 -0.02962499 -0.043126464 0.038994413 -0.07324373 0.16789283 -0.020718371
0.12036315 0.08064991 0.014754965 0.07629204 0.0386094 0.11562562 0.059989102 0.027953602
0.1398207 -0.009663611 0.10750154 0.10145239 0.10133448 0.06138106 0.1298936 0.03240263
0.13533314 0.082705855 -0.0037722902 0.011126293 0.0068451082 0.23104188 0.13953607 0.12931132
0.08017708 0.07870959 0.23971282 0.08128032 0.034194343 0.008140721 0.12663943 0.03646811
0.024949655 -0.035607107 0.09099887 -0.04601253 -0.035494275 -0.008172621 0.15717474 0.12081188
0.08075029 -0.06925565 -0.03378143 -0.014685435 -0.016050657 0.033990216 0.03004906 0.088937566
-0.043337457 -0.057207987 0.04452513 -0.033920087 0.037051976 -0.019913828 0.04800503 -0.06520171
-0.042349268 0.113159135 0.07091994 0.035020627 0.08921812 0.07524937 0.026329193 -0.052025758
0.13103753 -0.028316708 -0.029750356 0.030257512 -0.033884753 0.07091392 -0.011076622 -0.060915
0.08614043 -0.05732293 -0.07119587 -0.046210583 -0.07344617 0.06240751 0.08388532 0.015850035
0.025860189 -0.07826913 -0.02308135 0.051346466 0.08201163 -0.0013084915 0.027412321 -0.10273428
0.043292698 0.0022318217 -0.0058151716 -0.056865424 -0.14865738 -0.071444884 -0.037410595 -0.06623498
0.07036283 -0.058574174 0.07220289 0.02614739 -0.071061626 0.058074307 -0.0073759607 -0.03216801
-0.069657974 -0.083428115 0.024009872 0.09065884 0.1185117 0.03875548 0.027816556 -0.08045747
-0.07659851 -0.054381154 0.059521277 0.052065313 0.08164543 -0.10905915 0.03067361 -0.030856237
0.0030431482 -0.093987584 0.14427519 -0.016041562 0.08962204 -0.017778736 0.060825724 -0.0136970375
0.09822865 0.03703577 0.027622657 -0.05454004 0.11069334 0.015233189 -0.013847014 0.10948495
0.101073876 -0.005085947 -0.046881463 -0.056803897 0.11775522 0.028558077 -0.037858516 -0.02423172
-0.053835128 0.030507298 0.047187798 -0.14580934 0.10339148 0.085224465 -0.020396646 -0.072835736
0.056400787 0.09487921 0.020402366 -0.015130883 0.032066695 0.032491434 -0.07136445 0.0012432623
0.076051444 0.10566494 0.032410644 0.028841428 0.028998496 -0.09445729 0.122673914 0.103646725
-0.01103973 0.07134714 0.14795785 0.014476859 -0.0029315343 -0.036112525 -0.052285504 -0.072966285
-0.05321882 -0.01625403 0.07363652 0.09263893 -0.08936699 -0.122902334 -0.01324368 0.08117817
0.09834036 -0.026435219 0.01305096 -0.03196287 -0.05431649 0.06705598 -0.038157728 -0.016822796
-0.083482124 0.056163948 0.056392156 0.030583814 -0.058513954 -0.08282216 -0.06815655 0.029190253
0.031294633 0.098289005 -0.07448578 -0.10938466 0.028245687 -0.027620815 -0.05117844 -0.078492716
0.034352895 -0.01612149 0.028996449 -0.06348618 -0.015291862 -0.059064515 -0.046484064 0.027836554
-0.024940168 0.051806293 -0.026921675 -0.075656936 -0.014806426 -0.0406791 -0.025674049 -0.0798897
00000000: 35b0 473d 5805 f23d 3232 673d d934 2a3e
00000010: 5305 043e 2240 1a3e daad b83d a15e a73d
00000020: c58b 843d b8e4 04bd bd9f eb3d b446 7a3d
00000030: 10f4 bd3d a3ab 753d dd78 ff3d 0e1a a43d
00000040: 0499 a33d 463a 1fbc b016 69bd 9678 a13d
00000050: 0459 b93c f174 c03d 5038 073d 5791 023e
00000060: bad4 e639 37b7 e5bc 1bb0 f2bc 60a5 30bd
00000070: 9bb8 1f3d cf00 96bd 19ec 2b3e 93b9 a9bc
00000080: f580 f63d c82b a53d cfbe 713c 003f 9c3d
00000090: e424 1e3d 20cd ec3d 22b7 753d f4fe e43c
000000a0: 282d 0f3e 1f54 1ebc c429 dc3d 45c6 cf3d
000000b0: 7488 cf3d b56a 7b3d d402 053e 9fb8 043d
000000c0: c594 0a3e b061 a93d 8738 77bb 0e4b 363c
000000d0: ee4c e03b 3e96 6c3e 8be2 0e3e 306a 043e
000000e0: e233 a43d 7e32 a13d 4777 753e 4c76 a63d
000000f0: 5e0f 0c3d a960 053c c4ad 013e 965f 153d
00000100: 3863 cc3c c2d8 11bd 9e5d ba3d a277 3cbd
00000110: 7262 11bd 75e6 05bc 6af2 203e 386c f73d
00000120: 6860 a53d e8d5 8dbd 665e 0abd 2e9b 70bc
00000130: ab7c 83bc 5339 0b3d 7229 f63c e624 b63d
00000140: 9e82 31bd ec52 6abd fc5f 363d caef 0abd
00000150: d0c3 173d 5322 a3bc eca0 443d 7988 85bd
00000160: 6d76 2dbd fabf e73d 793e 913d ca71 0f3d
00000170: fdb7 b63d 571c 9a3d 52b0 d73c f618 55bd
00000180: b42e 063e 71f8 e7bc 05b7 f3bc 9ade f73c
00000190: bdca 0abd 513b 913d b87a 35bc 0282 79bd
000001a0: 656a b03d 73cb 6abd 24cf 91bd 4f47 3dbd
000001b0: f26a 96bd 049f 7f3d 11cc ab3d efd7 813c
000001c0: bfd8 d33c 914b a0bd 1915 bdbc ac50 523d
000001d0: b7f5 a73d b081 abba ce8f e03c 5a66 d2bd
000001e0: af53 313d c143 123b 328d bebb b8eb 68bd
000001f0: a439 18be b251 92bd da3b 19bd 35a6 87bd
00000200: 631a 903d 79eb 6fbd 1cdf 933d 0d33 d63c
00000210: c288 91bd 53df 6d3d 0bb2 f1bb 9ac2 03bd
00000220: d7a8 8ebd 5cdc aabd 5ab0 c43c 58ab b93d
00000230: 43b6 f23d 11be 1e3d 8cdf e33c e3c6 a4bd
00000240: aedf 9cbd c6be 5ebd 95cc 733d 7042 553d
00000250: b835 a73d 675a dfbd 3947 fb3c 38c6 fcbc
00000260: 8e6f 473b 907c c0bd e0bc 133e 9869 83bc
00000270: c38b b73d b6a4 91bc 6524 793d 8a69 60bc
00000280: 1a2c c93d d2b2 173d e948 e23c 6165 5fbd
00000290: 31b3 e23d a094 793c 96de 62bc a539 e03d
000002a0: d2ff ce3d 04a8 a6bb c706 40bd 34ab 68bd
000002b0: a629 f13d a1f2 e93c 8811 1bbd 9a81 c6bc
000002c0: 3982 5cbd 71ea f93c fe47 413d 0b4f 15be
000002d0: eabe d33d 2a8a ae3d de16 a7bc e72a 95bd
000002e0: 8304 673d 0850 c23d dd22 a73c 86e7 77bc
000002f0: 5e58 033d bd15 053d 8627 92bd f6f4 a23a
00000300: dcc0 9b3d dc66 d83d 06c1 043d dc44 ec3c
00000310: 418e ed3c d372 c1bd 763c fb3d bc44 d43d
00000320: fcdf 34bc 731e 923d 4382 173e 5930 6d3c
00000330: fc1e 40bb baea 13bd 5329 56bd 596f 95bd
00000340: fafb 59bd 2c27 85bc bece 963d 7bb9 bd3d
00000350: 0a06 b7bd 38b4 fbbd 05fc 58bc be40 a63d
00000360: ac66 c93d ac8e d8bc b2d3 553c 80eb 02bd
00000370: f87a 5ebd a554 893d 474b 1cbd f6cf 89bc
00000380: adf8 aabd 2b0c 663d 76fb 663d e88a fa3c
00000390: 54ac 6fbd aa9e a9bd a995 8bbd 6620 ef3c
000003a0: cd2e 003d bf4b c93d 008c 98bd 1105 e0bd
000003b0: 8063 e73c 0c45 e2bc 7ca0 51bd cac0 a0bd
000003c0: 9fb5 0c3d 3711 84bc f689 ed3c 0b05 82bd
000003d0: b88a 7abc a2ed 71bd 1366 3ebd 7c09 e43c
000003e0: 534f ccbc d632 543d d88a dcbc 06f2 9abd
000003f0: a796 72bc 219f 26bd 6252 d2bc 369d a3bd

net.0.bias f4 [128]
0.15691116 0.008507686 0.0147936735 0.057911314 0.13438135 0.05418947 0.012682211 -0.08641405
0.058916636 0.07193589 -0.002002008 -0.014187992 -0.061484214 0.114827834 -0.073394656 -0.05510876
0.042287305 -0.073815994 -0.0015680736 -0.05850156 0.0017242751 -0.101405255 0.039269604 0.10620194
-0.012658035 0.03765986 0.038612675 -0.03917645 -0.069794595 0.08810982 -0.0465251 0.085043035
0.1042838 0.03591621 0.035875577 -0.019503156 -0.12659043 -0.01366366 0.08371863 0.09615781
0.08242174 -0.10226884 0.030105801 0.196896 -0.038143132 -0.07153812 -0.09432258 0.11752792
-0.07241478 -0.041258954 0.012061112 0.03677184 -0.049051795 0.009756954 0.038003877 -0.09900609
-0.04535828 0.03513012 0.00017986877 0.031752393 -0.11161473 0.059020825 0.09801246 -0.085532196
-0.0062773963 0.06433841 -0.0114179645 0.054943323 -0.05068857 0.023518296 -0.11246651 0.081330694
-0.019984998 0.019072622 0.066504 -0.10987286 -0.039298106 0.031864528 0.14272004 -0.05069002
-8.3448016e-05 -0.011452568 0.07122035 0.12606809 -0.014703825 0.06733443 -0.11227405 -0.026887037
-0.02963971 0.085909024 0.1337671 -0.00060726434 0.0019452474 -0.09352961 0.11325867 0.024216175
-0.09125735 0.0161159 0.028104559 -0.009948994 -0.08707175 -0.09802212 -0.08295683 -0.06548754
0.029500898 0.13198891 0.00279414 -0.05015964 -0.09059925 -0.1207554 0.0337296 0.028065534
0.10232691 -0.08610381 -0.07568342 -0.044447344 0.12184707 -0.106390156 0.019867955 -0.073151864
0.04004553 -0.04527408 -0.04713416 -0.004122433 -0.10251069 -0.04271467 -0.064658865 -0.02680686
00000000: 52ad 203e d263 0b3c 2a61 723c 6a34 6d3d
00000010: 449b 093e c7f5 5d3d 0cc9 4f3c d9f9 b0bd
00000020: 9252 713d 2053 933d 1f34 03bb c074 68bc
00000030: dfd6 7bbd db2a eb3d f04f 96bd b9b9 61bd
00000040: 7435 2d3d d72c 97bd d287 cdba 559f 6fbd
00000050: 1201 e23a 8fad cfbd 2ad9 203d 6780 d93d
00000060: a663 4fbc 3a41 1a3d 5328 1e3d 7c77 20bd
00000070: 78f0 8ebd ec72 b43d 1a91 3ebd 0b2b ae3d
00000080: bf92 d53d e01c 133d 45f2 123d 15c5 9fbc
00000090: eca0 01be 8bdd 5fbc ac74 ab3d 63ee c43d
000000a0: bbcc a83d 5372 d1bd 71a0 f63c 1b9f 493e
000000b0: f93b 1cbd 9482 92bd 322c c1bd 7ab2 f03d
000000c0: 334e 94bd 26ff 28bd f89b 453c 129e 163d
000000d0: 89ea 48bd a2db 1f3c f4a9 1b3d b4c3 cabd
000000e0: 9bc9 39bd 9ae4 0f3d 289b 3c39 cc0e 023d
000000f0: 4396 e4bd d2bf 713d c2ba c83d 812b afbd
00000100: 9eb2 cdbb dbc3 833d 6a12 3bbc 400c 613d
00000110: d19e 4fbd 71a9 c03c d754 e6bd b590 a63d
00000120: 94b7 a3bc 303e 9c3c 4033 883d 0605 e1bd
00000130: 0df7 20bd 6184 023d 3425 123e 57a0 4fbd
00000140: d000 afb8 8da3 3bbc fadb 913d fe17 013e
00000150: 50e8 70bc a2e6 893d f0ef e5bd 3442 dcbc
00000160: face f2bc 12f1 af3d 3efa 083e d230 1fba
00000170: acf7 fe3a 748c bfbd 29f4 e73d 0061 c63c
00000180: 22e5 babd 7e05 843c 883b e63c 1b01 23bc
00000190: ac52 b2bd d2bf c8bd 45e5 a9bd 551e 86bd
000001a0: deab f13c 1a28 073e e41d 373b 3274 4dbd
000001b0: 198c b9bd 9b4e f7bd 0d28 0a3d b1e9 e53c
000001c0: c590 d13d 3257 b0bd e9ff 9abd 6b0e 36bd
000001d0: f58a f93d 15e3 d9bd 1fc2 a23c a5d0 95bd
000001e0: c806 243d 5071 39bd c00f 41bd 7915 87bb
000001f0: 20f1 d1bd 94f5 2ebd de6b 84bd 0f9a dbbc

net.2.weight f4 [192, 128]
-0.062344573 -0.070919685 0.12006157 -0.11677135 -0.014997118 -0.06196166 -0.116989166 0.08795472
0.031811073 0.0056421775 0.019039696 -0.022591148 0.011552602 -0.05041471 0.054018434 -0.003566105
0.09726321 0.026881991 -0.11204403 0.04527794 0.08931897 -0.048878383 -0.072514124 -0.16726424
0.029785587 -0.09686039 -0.109287634 0.01709489 -0.05440312 0.052578412 -0.18085608 -0.1063357
-0.08754103 0.001951242 -0.12011177 -0.2336397 -0.06773176 -0.044648573 -0.0416204 -0.08227909
-0.09258991 -0.08523564 -0.038584515 -0.111024454 -0.10891105 0.082564995 -0.075386174 -0.056053918
-0.090467416 -0.10911197 -0.19372281 -0.12154668 -0.094749175 -0.12304183 -0.07422108 -0.097193874
0.043191522 -0.11490562 -0.07130214 0.010954983 -0.070633374 -0.03361653 -0.065791346 -0.066087544
0.029771695 0.061624285 0.0042516077 0.011095885 0.007196701 -0.14369829 -0.079149336 -0.007613623
-0.097837634 0.049906597 -0.10348418 0.057815775 -0.03204633 -0.08052689 -0.12338837 0.08719292
-0.11033284 0.020158777 -0.053627573 -0.04317842 -0.056626845 -0.04565568 0.067452766 -0.08976607
-0.094886586 -0.0046079867 -0.109387845 -0.071120374 -0.005205835 0.057788953 -0.09689276 0.09834326
-0.086097255 -0.06440338 -0.13932407 -0.12912516 -0.06626314 -0.123594195 0.07018271 -0.04206317
0.12048876 -0.046190713 -0.009506543 -0.04715369 -0.025061034 -0.04220884 0.07125747 -0.12036783
-0.051720466 -0.18129598 -0.03491284 0.07123221 -0.042407054 -0.11186744 -0.17713098 -0.044706013
-0.043477133 0.13918087 -0.1088954 -0.030038157 -0.13424551 0.13893706 -0.13889919 -0.10739966
0.10255116 0.071932316 -0.0006975966 -0.021416804 0.04509212 -0.0048708096 0.1204534 0.036424007
0.07730406 -0.023025729 0.072984524 -0.011293125 -0.025319235 0.12301261 -0.04910285 0.009967083
0.052804884 -0.005510919 0.07275841 -0.024865104 -0.050249532 0.014830392 0.11114692 0.15805162
-0.04426124 0.025603294 0.09480982 0.06695483 0.16136016 -0.008449317 0.13210239 0.26052347
0.13402817 -0.004332888 0.07661828 0.037426353 -0.0597813 -0.043618813 0.13980258 0.0088002235
0.11684119 -0.08114962 0.067466065 0.12873246 -0.048883293 0.0098975515 0.04120185 0.06161271
0.013709437 0.14403781 0.056358613 0.07284567 0.07909892 -0.04068808 -0.05564313 0.031791776
-0.06306623 0.06481062 0.027383374 0.04562872 -0.050978266 0.022933537 0.012017835 0.028271573
-0.062494826 0.15739839 0.04095428 0.05258158 0.08719687 0.16708943 -0.09744283 0.12628415
0.029041942 0.09933799 0.17865409 -0.019948814 -0.013969148 0.06831016 0.075096495 0.0985155
-0.048528604 0.09756073 0.07943198 0.07722409 0.014282732 -0.007154814 -0.05218415 -0.04875622
-0.06566109 0.14012085 0.11532667 -0.067964785 0.061297126 0.08703541 0.0753428 0.060786948
0.0078053395 0.111127585 0.08323933 0.08541736 0.038769677 -0.121654235 0.021178998 -0.07669884
0.007272414 0.13165766 -0.003910706 -0.03797931 -0.022713212 -0.004350027 0.019748034 0.060069654
0.17434986 0.07173454 -0.0029487775 0.02408943 0.08008766 0.059288476 0.038443577 0.0018705231
0.046516575 -0.06989583 0.14000021 -0.05293062 -0.05887088 -0.06435876 -0.007430249 0.087971196
00000000: 065d 7fbd 573e 91bd d7e2 f53d d125 efbd
00000010: 79b6 75bc 82cb 7dbd 0498 efbd 9b21 b43d
00000020: 544c 023d 04e2 b83b 23f9 9b3c 1211 b9bc
00000030: 2047 3d3c a87f 4ebd 6f42 5d3d 50b5 69bb
00000040: ef31 c73d 9f37 dc3c 5777 e5bd 5c75 393d
00000050: ddec b63d b334 48bd 4982 94bd 5147 2bbe
00000060: e700 f43c bd5e c6bd 32d2 dfbd 950a 8c3c
00000070: ced5 5ebd 765c 573d 5632 39be 88c6 d9bd
00000080: b648 b3bd d1c0 ff3a 29fd f5bd 3f3f 6fbe
00000090: f3b6 8abd 6ce1 36bd 277a 2abd f181 a8bd
000000a0: c79f bdbd 0690 aebd cc0a 1ebd ca60 e3bd
000000b0: c20c dfbd d617 a93d 1164 9abd cb98 65bd
000000c0: fb46 b9bd 1976 dfbd 465f 46be 77ed f8bd
000000d0: db0b c2bd 5bfd fbbd 3901 98bd 950d c7bd
000000e0: 98e9 303d a353 ebbd db06 92bd 877c 333c
000000f0: 3ba8 90bd 7db1 09bd 9dbd 86bd e858 87bd
00000100: c5e3 f33c bf69 7c3d 1251 8b3b 84cb 353c
00000110: 4ed2 eb3b a525 13be 0c19 a2bd b37b f9bb
00000120: 195f c8bd dc6a 4c3d 84ef d3bd 3cd0 6c3d
00000130: 0343 03bd 48eb a4bd 0bb3 fcbd 3492 b23d
00000140: 2ff6 e1bd 0524 a53c 96a8 5bbd dbdb 30bd
00000150: 8df1 67bd 7301 3bbd ad24 8a3d 46d7 b7bd
00000160: e653 c2bd 98fe 96bb bc06 e0bd 8fa7 91bd
00000170: b695 aabb 1cb4 6c3d b66f c6bd 3168 c93d
00000180: c253 b0bd ebe5 83bd f8aa 0ebe 6339 04be
00000190: f8b4 87bd f41e fdbd f4bb 8f3d 6e4a 2cbd
000001a0: d0c2 f63d 7932 3dbd 55c1 1bbc 3a24 41bd
000001b0: cc4c cdbc 2de3 2cbd 70ef 913d 6983 f6bd
000001c0: d7d8 53bd a7a5 39be c400 0fbd 31e2 913d
000001d0: 05b3 2dbd c21a e5bd d361 35be a71d 37bd
000001e0: 1415 32bd 6e85 0e3e 8d04 dfbd 9512 f6bc
000001f0: a877 09be 8445 0e3e 973b 0ebe 5af4 dbbd
00000200: 5806 d23d 4051 933d eade 36ba 4b72 afbc
00000210: 84b2 383d 509b 9fbb 46b0 f63d 5731 153d
00000220: 9751 9e3d 74a0 bcbc e978 953d cd06 39bc
00000230: 496a cfbc 09ee fb3d 1220 49bd fa4c 233c
00000240: ef49 583d f094 b4bb 5c02 953d e7b1 cbbc
00000250: 74d2 4dbd 2cfb 723c ffa0 e33d 49d8 213e
00000260: 464b 35bd 00be d13c a72b c23d 9d1f 893d
00000270: 993b 253e 016f 0abc d945 073e 5563 853e
00000280: ae3e 093e e6fa 8dbb 0bea 9c3d 604c 193d
00000290: 3ddd 74bd a4a9 32bd 6828 0f3e d02e 103c
000002a0: 6f4a ef3d c631 a6bd a62b 8a3d 71d2 033e
000002b0: d939 48bd 5729 223c 45c3 283d 9c5d 7c3d
000002c0: 8c9d 603c a67e 133e 4ad8 663d 1c30 953d
000002d0: 9dfe a13d 8ba8 26bd 0dea 63bd 1838 023d
000002e0: de28 81bd 6ebb 843d 1953 e03c 2ee5 3a3d
000002f0: 96ce 50bd 1ddf bb3c 74e6 443c c999 e73c
00000300: 93fa 7fbd 0b2d 213e adbf 273d c85f 573d
00000310: 4694 b23d 7e19 2b3e 1b90 c7bd a250 013e
00000320: 5ee9 ed3c b771 cb3d 19f1 363e b26b a3bc
00000330: dade 64bc 32e6 8b3d 31cc 993d 7fc2 c93d
00000340: eec5 46bd eccd c73d 3cad a23d aa27 9e3d
00000350: 1f02 6a3c ee72 eabb 0cbf 55bd 9ab4 47bd
00000360: 5279 86bd d77b 0f3e 6430 ec3d 1f31 8bbd
00000370: b212 7b3d 9f3f b23d 534d 9a3d bcfb 783d
00000380: efc3 ff3b dc96 e33d 6279 aa3d 4cef ae3d
00000390: f4cc 1e3d db25 f9bd 947f ad3c 4814 9dbd
000003a0: 6e4d ee3b 44d1 063e 6125 80bb 3190 1bbd
000003b0: 0f11 babc ac8a 8ebb a1c6 a13c 990b 763d
000003c0: c588 323e 8fe9 923d 4740 41bb 3257 c53c
000003d0: 0005 a43d 79d8 723d 0377 1d3d 572c f53a
000003e0: 2a88 3e3d 8b25 8fbd 375c 0f3e c7cd 58bd
000003f0: 9822 71bd 87ce 83bd 7279 f3bb 3e2a b43d

net.2.bias f4 [192]
-0.01225477 0.15063246 0.02791902 0.049655177 -0.031839967 -0.0105096465 0.010792123 -0.03684331
-0.13059312 0.023838542 -0.017418295 -0.11870453 -0.0073026163 0.024272192 -0.03742875 0.013271781
0.1055334 -0.008656166 -0.010032165 0.10348112 -0.03984836 0.0025509372 -0.050067447 0.060843807
0.061757784 0.14213024 0.041996084 0.18540378 -0.0069003655 -0.047278073 -0.07910985 -0.029915955
0.049009442 -0.0060061663 0.1584894 0.013571918 0.011863332 0.019180384 -0.09758505 0.021805344
-0.07971645 -0.08492668 0.06215786 0.102938086 0.0030227473 -0.060732234 -0.12572983 -0.06536755
0.06101877 -0.06085042 0.012445944 0.09822623 -0.008462972 -0.012304348 0.080338396 0.039760094
-0.04194502 -0.08636838 0.018590078 -0.09563283 -0.009729652 0.004655457 0.035229 -0.025200706
-0.10617508 -0.056770388 -0.089861766 -0.019142702 0.031862024 -0.114636585 0.10682848 -0.08718982
-0.046005636 -0.04932821 0.024259651 -0.0026454146 0.034758985 0.08576221 0.18053633 0.013869971
-0.012884961 0.056223616 -0.026757682 0.0056502977 -0.08241161 -0.05978099 0.031249177 -0.017125415
-0.11040557 0.08508867 0.013748385 0.10908884 -0.053908955 0.08366713 -0.038208406 -0.017331075
0.07406603 -0.09619214 -0.045829296 0.048416484 -0.041263886 -0.05992899 0.018186387 -0.07102422
0.16748065 -0.0053384765 0.07822094 -0.08169784 0.070001714 -0.014325478 -0.011756307 -0.062364575
-0.03742924 0.06496544 0.11147514 0.046956655 0.038868368 -0.09030382 0.05301056 -0.06351539
-0.12717603 -0.013453325 -0.0057908627 0.0014155857 0.0019594044 -0.04207935 -0.013950546 0.059038978
0.02296821 0.10551994 -0.03510594 -0.046620872 -0.04004248 -0.062421933 -0.10478252 0.040747564
-0.019400327 0.12252565 -0.021340588 -0.01334027 -0.09614884 -0.010369654 -0.0072195577 0.0024556068
0.14877401 -0.02545788 0.07855637 0.22350366 0.13445635 -0.0803561 0.011267622 0.077584825
0.06307442 0.08611436 0.08464804 0.000116120034 0.097618006 0.0593741 0.049512036 0.17230418
0.08400557 0.018337803 -0.04201729 0.02346831 0.011987485 -0.039426364 -0.0015168797 0.09705079
-0.008601095 0.034988336 -0.05573358 0.07168174 -0.008862241 -0.08513734 0.06684298 2.745113e-05
-0.031552583 0.12875383 0.036153905 0.031281777 0.099678874 0.0016810084 0.028820539 -0.0029477645
-0.11979492 0.024428388 -0.00777846 -0.06692672 -0.09907303 -0.01195591 0.014238212 -0.05660052
00000000: 3bc8 48bc 653f 1a3e 6eb6 e43c 3a63 4b3d
00000010: a06a 02bd a730 2cbc 72d1 303c 03e9 16bd
00000020: 34ba 05be 0c49 c33c d0b0 8ebc 5c1b f3bd
00000030: c94a efbb 7ad6 c63c e44e 19bd e271 593c
00000040: e521 d83d 97d2 0dbc f35d 24bc e9ed d33d
00000050: 0938 23bd a02d 273b 8613 4dbd 5b37 793d
00000060: bbf5 7c3d 978a 113e 1604 2c3d 7dda 3d3e
00000070: 761c e2bb a7a6 41bd 5804 a2bd 4e12 f5bc
00000080: 20be 483d 60cf c4bb 0c4b 223e c05c 5e3c
00000090: 6c5e 423c 2e20 9d3c acda c7bd 1fa1 b23c
000000a0: 6142 a3bd 0aee adbd 3d99 7e3d 34d1 d23d
000000b0: 4919 463b 5dc2 78bd 52bf 00be 6cdf 85bd
000000c0: d1ee 793d 4a3e 79bd 13ea 4b3c d52a c93d
000000d0: 47a8 0abc 2d98 49bc 7588 a43d 7bdb 223d
000000e0: 8bce 2bbd e8e1 b0bd 384a 983c 25db c3bd
000000f0: 1e69 1fbc ce8c 983b 494c 103d b671 cebc
00000100: 5272 d9bd 1188 68bd 7209 b8bd 28d1 9cbc
00000110: c181 023d 96c6 eabd e4c8 da3d 9490 b2bd
00000120: 6870 3cbd 610c 4abd 2dbc c63c b15e 2dbb
00000130: 705f 0e3d 19a4 af3d 84de 383e e03e 633c
00000140: 721b 53bc bc4a 663d ed32 dbbc 2226 b93b
00000150: 6bc7 a8bd e9dc 74bd 46fe ff3c 994a 8cbc
00000160: 511c e2bd f842 ae3d e840 613c f869 df3d
00000170: a3cf 5cbd ac59 ab3d 6b80 1cbd e6f9 8dbc
00000180: eeaf 973d 6200 c5bd 80b7 3bbd 5d50 463d
00000190: 5204 29bd 1a78 75bd 9efb 943c 2575 91bd
000001a0: 0c80 2b3e 63ee aebb 4d32 a03d 3251 a7bd
000001b0: 0f5d 8f3d 69b5 6abc 879d 40bc ff71 7fbd
000001c0: 674f 19bd 9a0c 853d 144d e43d 9f55 403d
000001d0: 7034 1f3d 36f1 b8bd 9a21 593d 5b14 82bd
000001e0: 6f3a 02be 566b 5cbc 47c1 bdbb 2d8b b93a
000001f0: 5a69 003b 665b 2cbd d590 64bc dbd2 713d
00000200: d427 bc3c d71a d83d 3fcb 0fbd 87f5 3ebd
00000210: 9503 24bd 24ae 7fbd 3898 d6bd ebe6 263d
00000220: 6fed 9ebc baee fa3d 75d2 aebc 2691 5abc
00000230: afe9 c4bd 7be5 29bc 0a92 ecbb 3fee 203b
00000240: 3758 183e 0b8d d0bc 2ae2 a03d 25de 643e
00000250: edae 093e bd91 a4bd d59b 383c cbe4 9e3d
00000260: 292d 813d ba5c b03d f45b ad3d 7885 f338
00000270: f3eb c73d 4232 733d 22cd 4a3d 8270 303e
00000280: 1d0b ac3d 2939 963c 521a 2cbd 9d40 c03c
00000290: 2867 443c 8a7d 21bd 09d2 c6ba 91c2 c63d
000002a0: 9beb 0cbc ee4f 0f3d e548 64bd e0cd 923d
000002b0: ef32 11bc 7c5c aebd f9e4 883d da46 e637
000002c0: 483d 01bd 0bd8 033e 1e16 143d 5221 003d
000002d0: 7024 cc3d 4855 dc3a 0d19 ec3c 482f 41bb
000002e0: 0a57 f5bd 0b1e c83c 74e2 febb e010 89bd
000002f0: cde6 cabd b9e2 43bc 6447 693c f2d5 67bd

exp_avg f4 [128, 142]
-0.0033139163 -0.02166566 -0.017063044 -0.02218269 -0.0050135073 -1.1391007e-05 0.0003737269 0.002514027
-0.0015529838 0.00091576675 0.005515003 -0.015486479 -0.023430776 -0.018573819 -0.0060441657 3.1052237e-05
-0.008530688 -0.008420067 0.015006698 0.015294795 -0.007855935 -0.0029289231 0.011224083 -1.0762114e-05
-0.007619374 -0.00872196 0.013950174 -0.0029026428 -7.314443e-05 -0.0194436 -0.023234542 -0.018152835
-0.022310833 -0.022270743 -0.0025594889 -0.0038352918 -0.026651645 -0.02176708 0.00021859024 -0.018665066
-0.0011618349 -0.0048428294 -0.0037183363 0.020671135 -0.020548083 -0.019382998 -0.024150347 -0.01903566
-0.002330708 -0.0011726732 -0.0017080229 0.020679515 -0.020550512 0.003651027 -0.00011276631 -0.020707076
-0.0011534705 0.019013958 0.00043599855 0.004733576 -0.018193197 -0.013290081 -0.022756003 -0.020703409
-0.0032875077 0.02149353 0.0044132164 -0.0009093185 -1.7927266e-06 -0.008402897 0.014645932 0.0012096527
0.0 0.0 -0.023049762 -0.024804305 -0.022446074 0.0 0.0 -2.81329e-05
0.0 0.0 0.0 0.0 -1.7580476e-05 0.0 0.0 0.0
0.0 0.014241651 0.018418869 0.018229678 0.0022548493 0.0022554668 0.005593163 0.006054906
0.010058909 0.0 0.0 0.0169151 0.016082793 0.019208204 0.0 0.0
-0.0013799486 0.0 0.0 0.0 0.0 -0.0012939384 0.0 0.0
0.0 0.0 -0.020887729 -0.019683678 0.004483569 -0.0022501037 -3.2454896e-11 -0.019312752
-0.0001307067 0.0060167057 0.0 0.0 -0.02019712 -0.0013838211 0.0026644499 0.0
0.0 0.00094614376 0.0 0.0 0.0 0.0 -2.7375602e-08 0.0
0.0 0.0 0.0 0.06687535 -0.0033631516 -0.10343713 0.0025822148 0.03654744
0.03885065 0.039956953 0.0026717416 0.0051932214 0.011000866 0.012250278 0.0056410437 0.015532667
0.017816663 0.038346563 0.03854028 0.030778194 0.0014730658 0.010993367 0.042779583 0.04266586
0.016632555 0.026769085 0.049534332 0.041767444 0.021431206 -1.3602498e-05 0.0331373 0.036870982
0.011230255 0.005453449 7.734674e-06 0.044010002 0.042343616 0.041165296 0.026763156 0.026776794
0.047118194 0.015028917 0.037864305 0.053614896 0.023670338 0.05189242 0.003843261 0.04961871
0.05086945 0.023904223 0.045055162 0.044060715 0.051936273 0.050787628 0.05130492 0.04746751
0.004111238 0.023911789 0.04503487 0.011106486 2.5456336e-06 0.026768247 0.0038509024 0.020230416
0.004794769 0.005055022 0.027853394 0.035138387 0.025545493 0.026755096 0.05337528 0.028781993
0.019243257 -0.0007085837 -5.931246e-06 0.034519307 0.0117811235 0.014049465 0.0 0.0
0.022700412 0.024578247 0.023841461 0.0 0.0 -1.4476433e-05 0.0 0.0
0.0 0.0 -1.7509936e-05 0.0 0.0 0.0 0.0 0.018320387
0.012411829 0.01395985 0.013614502 0.013614961 0.008365663 0.008839067 0.008472771 0.0
0.0 -0.0048418706 -0.0011832116 -0.0022484509 0.0 0.0 -0.0018669826 0.0
0.0 0.0 0.0 -0.0018799173 0.0 0.0 0.0 0.0
00000000: 4a2e 59bb 2f7c b1bc ccc7 8bbc 79b8 b5bc
00000010: 5948 a4bb 011c 3fb7 c7f0 c339 60c2 243b
00000020: 7d8d cbba 1110 703a 33b7 b43b 00bb 7dbc
00000030: e6f1 bfbc 1f28 98bc 230e c6bb 163e 0238
00000040: 4cc4 0bbc 52f4 09bc a7de 753c 0597 7a3c
00000050: 2eb6 00bc 2df3 3fbb 37e5 373c ed8e 34b7
00000060: f1ab f9bb 8de6 0ebc 458f 643c 443a 3ebb
00000070: 1e65 99b8 2f48 9fbc 5e56 bebc 41b5 94bc
00000080: 35c5 b6bc 2271 b6bc 19bd 27bb 8559 7bbb
00000090: 8d54 dabc e050 b2bc 5f35 6539 7be7 98bc
000000a0: b648 98ba 99b0 9ebb 55af 73bb 8356 a93c
000000b0: 7454 a8bc 18c9 9ebc f3d6 c5bc acf0 9bbc
000000c0: cbbe 18bb 62b4 99ba bddf dfba 1668 a93c
000000d0: 8c59 a8bc 1246 6f3b f47c ecb8 e3a1 a9bc
000000e0: 0c30 97ba 29c3 9b3c bc96 e439 1d1c 9b3b
000000f0: e609 95bc a4be 59bc cc6a babc 329a a9bc
00000100: 3a73 57bb 3313 b03c be9c 903b 555f 6eba
00000110: 9e9d f0b5 4eac 09bc 7ef5 6f3c 368d 9e3a
00000120: 0000 0000 0000 0000 dbd2 bcbc 6632 cbbc
00000130: d4e0 b7bc 0000 0000 0000 0000 f1fe ebb7
00000140: 0000 0000 0000 0000 0000 0000 0000 0000
00000150: c979 93b7 0000 0000 0000 0000 0000 0000
00000160: 0000 0000 d055 693c 2be3 963c 6856 953c
00000170: 18c6 133b 74d0 133b da46 b73b 3c68 c63b
00000180: 1fce 243c 0000 0000 0000 0000 8991 8a3c
00000190: 10c0 833c 865a 9d3c 0000 0000 0000 0000
000001a0: 64df b4ba 0000 0000 0000 0000 0000 0000
000001b0: 0000 0000 5e99 a9ba 0000 0000 0000 0000
000001c0: 0000 0000 0000 0000 be1c abbc aa3f a1bc
000001d0: e7ea 923b 7a76 13bb f7bc 0eae c735 9ebc
000001e0: 500e 09b9 c927 c53b 0000 0000 0000 0000
000001f0: 6e74 a5bc 5561 b5ba 0d9e 2e3b 0000 0000
00000200: 0000 0000 a206 783a 0000 0000 0000 0000
00000210: 0000 0000 0000 0000 9627 ebb2 0000 0000
00000220: 0000 0000 0000 0000 0000 0000 f2f5 883d
00000230: 5268 5cbb d9d6 d3bd 603a 293b c5b2 153d
00000240: dc21 1f3d e7a9 233d 6318 2f3b e62b aa3b
00000250: fa3c 343c 64b5 483c 81d8 b83b ba7c 7e3c
00000260: 40f4 913c 4911 1d3d 6adc 1d3d 8d22 fc3c
00000270: e313 c13a 861d 343c a539 2f3d 66c2 2e3d
00000280: ff40 883c d74a db3c 83e4 4a3d 5714 2b3d
00000290: 7f90 af3c 4936 64b7 faba 073d 0706 173d
000002a0: 1aff 373c d9b2 b23b 2cc4 0137 d543 343d
000002b0: 8070 2d3d f19c 283d 683e db3c 025b db3c
000002c0: 02ff 403d d93b 763c 9a17 1b3d 4b9b 5b3d
000002d0: 4ce8 c13c 258d 543d 38df 7b3b fd3c 4b3d
000002e0: 7c5c 503d cad2 c33c c38b 383d 0279 343d
000002f0: 21bb 543d b006 503d 1c25 523d 4b6d 423d
00000300: 90b7 863b a8e2 c33c 7c76 383d fbf7 353c
00000310: a7d5 2a36 1549 db3c 6c5f 7c3b 42ba a53c
00000320: 701d 9d3b 99a4 a53b cd2c e43c 45ed 0f3d
00000330: c844 d13c 812d db3c 0aa0 5a3d 37c8 eb3c
00000340: 09a4 9d3c 3fc0 39ba 0405 c7b6 1e64 0d3d
00000350: 9d05 413c ba2f 663c 0000 0000 0000 0000
00000360: 37f6 b93c 5258 c93c 2b4f c33c 0000 0000
00000370: 0000 0000 cedf 72b7 0000 0000 0000 0000
00000380: 0000 0000 0000 0000 4de2 92b7 0000 0000
00000390: 0000 0000 0000 0000 0000 0000 a314 963c
000003a0: fc5a 4b3c dbb7 643c 5c0f 5f3c 4911 5f3c
000003b0: 2210 093c bcd1 103c 61d1 0a3c 0000 0000
000003c0: 0000 0000 8ea8 9ebb fe15 9bba bf5a 13bb
000003d0: 0000 0000 0000 0000 8ab5 f4ba 0000 0000
000003e0: 0000 0000 0000 0000 0000 0000 8f67 f6ba
000003f0: 0000 0000 0000 0000 0000 0000 0000 0000

exp_avg_sq f4 [128, 142]
0.009395377 0.015247396 0.012845632 0.012792393 0.011573726 0.008973158 0.0058897035 0.004194725
0.0073063276 0.012734055 0.011210599 0.011146526 0.013510377 0.013773742 0.014046681 0.009838416
0.012287508 0.0118567245 0.011283715 0.0102310125 0.010023497 0.010421441 0.012132105 0.007314436
0.008915481 0.014755474 0.011941941 0.017449278 0.011360247 0.013991951 0.012367354 0.00996384
0.011870628 0.013568712 0.010593313 0.01611508 0.0138338925 0.012642065 0.007009343 0.006520556
0.014736521 0.014824552 0.015074484 0.010104376 0.013636679 0.011261469 0.011683037 0.008664314
0.01029502 0.009824418 0.008274151 0.006673185 0.010043351 0.009802054 0.008375922 0.0073343073
0.008958111 0.008020199 0.009210508 0.005199427 0.007932055 0.008241857 0.009125213 0.0053942627
0.014445335 0.009737458 0.0076186936 0.0039437525 0.0013659567 0.010064118 0.0065239226 0.0027557374
0.0 0.0 0.0073318244 0.0034616317 0.0021797202 0.0 0.0 0.001834938
0.0 0.0 0.0 0.0 0.0009827191 0.0 0.0 0.0
0.0 0.015571204 0.011098348 0.01011151 0.0007748231 0.00044549574 0.012260789 0.009134742
0.007910078 0.0 0.0 0.008216105 0.005643018 0.0038058618 0.0 0.0
0.0022865054 0.0 0.0 0.0 0.0 0.0019923071 0.0 0.0
0.0 0.0 0.011160074 0.008279522 0.0063908407 0.00078817684 0.0005989751 0.0110435635
0.0081908535 0.00497846 0.0 0.0 0.008198289 0.0048467675 0.0027228966 0.0
0.0 0.0009327439 0.0 0.0 0.0 0.0 0.00075094274 0.0
0.0 0.0 0.0 0.16024664 0.0116028935 0.45986745 0.006078395 0.009743998
0.009751404 0.00919872 0.0064897644 0.0061056325 0.005139349 0.0032355546 0.005320084 0.008338658
0.008248459 0.007441567 0.007215943 0.007839171 0.009152454 0.0059581916 0.008926064 0.007684815
0.008044351 0.008220311 0.006779234 0.005919938 0.008034451 0.005525565 0.0062172017 0.008079366
0.00679818 0.010760603 0.008047091 0.009044593 0.00867559 0.008191258 0.009123286 0.009198472
0.006738951 0.008831822 0.0092009045 0.009031309 0.006765671 0.0056989095 0.009166759 0.011285737
0.009015277 0.0061986116 0.0072103036 0.0068753883 0.00725359 0.005543691 0.008540165 0.008821864
0.007123003 0.0054695923 0.006291852 0.0069925827 0.005500097 0.005529216 0.0065210266 0.0052440963
0.0057371217 0.0044317283 0.0048895464 0.005784566 0.0053150924 0.0039729862 0.0094439695 0.006156854
0.0048471172 0.0017630287 0.0005017123 0.006753671 0.0034755087 0.0021413027 0.0 0.0
0.0053242664 0.0021234292 0.0019683691 0.0 0.0 0.0016816712 0.0 0.0
0.0 0.0 0.0015208684 0.0 0.0 0.0 0.0 0.009191024
0.00707171 0.0058482336 0.0005431174 0.00037361612 0.007215597 0.0059959497 0.004830691 0.0
0.0 0.005090993 0.0031591298 0.002484627 0.0 0.0 0.0018511211 0.0
0.0 0.0 0.0 0.0016755624 0.0 0.0 0.0 0.0
00000000: 11ef 193c 37d0 793c 7c76 523c 2f97 513c
00000010: ba9f 3d3c 2704 133c 6afe c03b e773 893b
00000020: eb69 ef3b 7fa2 503c a9ac 373c eb9f 363c
00000030: a15a 5d3c 43ab 613c 0d24 663c 4f31 213c
00000040: 8b51 493c b542 423c 55df 383c fa9f 273c
00000050: 9839 243c b1be 2a3c bdc5 463c f0ad ef3b
00000060: 3d12 123c f2c0 713c 22a8 433c caf1 8e3c
00000070: 5420 3a3c 7f3e 653c 71a0 4a3c 603f 233c
00000080: 067d 423c 4e4f 5e3c 938f 2d3c c603 843c
00000090: 8da7 623c aa20 4f3c a1ae e53b 63aa d53b
000000a0: 7371 713c aee2 723c f8fa 763c d38c 253c
000000b0: 616c 5f3c 0682 383c 356a 3f3c c4f4 0d3c
000000c0: 72ac 283c 99f6 203c 4e90 073c bcaa da3b
000000d0: de8c 243c cb98 203c 2a3b 093c a154 f03b
000000e0: 0ac5 123c 2767 033c ace7 163c f45f aa3b
000000f0: 73f5 013c db08 073c eb81 153c 5bc2 b03b
00000100: 20ac 6c3c dc89 1f3c 3ca6 f93b 983a 813b
00000110: e709 b33a f8e3 243c a1c6 d53b 9a99 343b
00000120: 0000 0000 0000 0000 cd3f f03b 8bdc 623b
00000130: a3d9 0e3b 0000 0000 0000 0000 4d82 f03a
00000140: 0000 0000 0000 0000 0000 0000 0000 0000
00000150: 95ce 803a 0000 0000 0000 0000 0000 0000
00000160: 0000 0000 5d1e 7f3c d8d5 353c bfaa 253c
00000170: 7f1d 4b3a 6d91 e939 7ae1 483c e3a9 153c
00000180: 4699 013c 0000 0000 0000 0000 d89c 063c
00000190: 11e9 b83b c46b 793b 0000 0000 0000 0000
000001a0: 32d9 153b 0000 0000 0000 0000 0000 0000
000001b0: 0000 0000 5e91 023b 0000 0000 0000 0000
000001c0: 0000 0000 0000 0000 bed8 363c d5a6 073c
000001d0: 426a d13b a79d 4e3a 8a04 1d3a 10f0 343c
000001e0: ee32 063c 5922 a33b 0000 0000 0000 0000
000001f0: 1e52 063c a2d1 9e3b a072 323b 0000 0000
00000200: 0000 0000 6283 743a 0000 0000 0000 0000
00000210: 0000 0000 0000 0000 eada 443a 0000 0000
00000220: 0000 0000 0000 0000 0000 0000 b217 243e
00000230: 101a 3e3c bf73 eb3e 462d c73b 4aa5 1f3c
00000240: 5ac4 1f3c 3ab6 163c 17a8 d43b c211 c83b
00000250: fc67 a83b 990b 543b 1954 ae3b de9e 083c
00000260: 8b24 073c 63d8 f33b b873 ec3b de6f 003c
00000270: 2df4 153c ef3c c33b a03e 123c e7d0 fb3b
00000280: 74cc 033c 7cae 063c 5624 de3b 0afc c13b
00000290: eea2 033c cc0f b53b abb9 cb3b 515f 043c
000002a0: 44c3 de3b 3d4d 303c f2d7 033c c62f 143c
000002b0: 1024 0e3c a034 063c d679 153c 30b5 163c
000002c0: 6bd2 dc3b 59b3 103c 64bf 163c 0ef8 133c
000002d0: 90b2 dd3b ebbd ba3b 2d30 163c d0e7 383c
000002e0: d0b4 133c b91d cb3b 6944 ec3b f04a e13b
000002f0: 86af ed3b daa7 b53b 0cec 0b3c 9489 103c
00000300: 1468 e93b 443a b33b e12b ce3b 0922 e53b
00000310: 283a b43b 6d2e b53b 56ae d53b abd6 ab3b
00000320: 77fe bb3b 0838 913b 7d38 a03b 758c bd3b
00000330: 3a2a ae3b d32f 823b e1ba 1a3c 6fbf c93b
00000340: 91d4 9e3b 6d15 e73a 5885 033a e64d dd3b
00000350: 5cc5 633b 1955 0c3b 0000 0000 0000 0000
00000360: 2f77 ae3b 3b29 0b3b c1ff 003b 0000 0000
00000370: 0000 0000 866b dc3a 0000 0000 0000 0000
00000380: 0000 0000 0000 0000 e057 c73a 0000 0000
00000390: 0000 0000 0000 0000 0000 0000 f395 163c
000003a0: ceb9 e73b 8aa2 bf3b fe5f 0e3a e8e1 c339
000003b0: d170 ec3b ac79 c43b c64a 9e3b 0000 0000
000003c0: 0000 0000 58d2 a63b 6709 4f3b 20d5 223b
000003d0: 0000 0000 0000 0000 51a1 f23a 0000 0000
000003e0: 0000 0000 0000 0000 0000 0000 8b9e db3a
000003f0: 0000 0000 0000 0000 0000 0000 0000 0000

exp_avg f4 [128]
-0.008059581 0.0507336 2.844387e-13 2.6204685e-07 -0.0023099424 0.020120969 0.004416613 6e-45
0.010197382 0.0023728001 1.4486338e-13 7.10897e-24 3.3148928e-09 -0.025552753 6e-45 9.959118e-12
1.5724399e-25 4.5141498e-08 -0.009872984 5.540495e-22 1.600584e-21 0.0041393754 -0.0150015615 -0.0458376
-6e-45 -4.0356825e-17 0.00052156317 1.7091877e-15 0.017748365 -0.00032986837 -0.018144863 -0.032106515
-0.060333375 -0.000114727205 -0.03416825 -0.010546212 0.0014046326 1.3929203e-31 0.015296775 0.002822301
-0.009797338 2.9046388e-15 0.0168981 -0.052452788 1.9245135e-13 4.0536676e-12 6.33252e-24 0.027791684
2.7393874e-16 -0.052145835 -0.06398923 0.015208031 2.3153921e-37 1.3626267e-10 -0.0010493096 4.29676e-09
6e-45 2.9977332e-07 0.03855029 -0.0093599055 6e-45 -1.2252573e-08 -0.035237364 8.114276e-20
0.030902578 -0.02439375 6e-45 0.053676687 3.1698312e-07 -0.023115506 2.2306275e-19 -0.010734682
4.859174e-14 -5.6827084e-05 -0.015429728 6e-45 1.6581055e-15 0.01111341 -0.007896442 0.0057019554
-0.012105693 0.019929864 -0.048501793 0.0706784 -1.910849e-06 0.020439688 4.213383e-20 3.917704e-12
0.028114012 -0.0031280518 -0.013837749 -0.00023748349 4.8839995e-12 0.0015027378 -0.010950368 4.5e-44
-2.1720302e-26 0.00048481178 0.011430789 0.009575997 0.00032976526 -6e-45 1.31785e-40 1.3581207e-22
0.0005677689 -0.015937224 0.007878885 4.337477e-14 6e-45 6e-45 -1.5093302e-35 0.01833947
0.017853921 0.0059496546 9.383515e-22 2.5164646e-14 0.00045427 0.026965087 -0.0415101 1.7054767e-17
-0.002810545 6e-45 0.0100843 0.0039268145 2.8492418e-15 2.1601798e-34 -5.333448e-25 0.0119733615
00000000: 550c 04bc 09ce 4f3d f01f a02a 72af 8c34
00000010: 6762 17bb bbd4 a43c 3cb9 903b 0400 0000
00000020: ec12 273c fb80 1b3b 071a 232a ea81 0919
00000030: 36cc 6331 0254 d1bc 0400 0000 e133 2f2d
00000040: 9ca8 4216 9ae1 4133 4cc2 21bc 8173 271c
00000050: 98df f11c 99a3 873b 1cc9 75bc 35c0 3bbd
00000060: 0400 0080 ee1c 3aa4 83b9 083a e551 f626
00000070: 0565 913c 2ff2 acb9 89a4 94bc 1f82 03bd
00000080: 2120 77bd b399 f0b8 02f4 0bbd 05ca 2cbc
00000090: a61b b83a b7cf 340c 539f 7a3c 5af6 383b
000000a0: 0485 20bc 214d 5127 e26d 8a3c bcd8 56bd
000000b0: 53ae 582a 31a0 8e2c 3efa f418 63ab e33c
000000c0: 39ea 9d25 df96 55bd c90c 83bd 1b2b 793c
000000d0: d293 9d02 88d2 152f fd88 89ba b3a2 9331
000000e0: 0400 0000 88f0 a034 e9e6 1d3d 4a5a 19bc
000000f0: 0400 0000 637f 52b2 0e55 10bd ca97 bf1f
00000100: 6727 fd3c 67d5 c7bc 0400 0000 16dc 5b3d
00000110: d42d aa34 bb5c bdbc 4aac 8320 85e0 2fbc
00000120: 76d6 5a29 9e59 6eb8 f8cc 7cbc 0400 0000
00000130: 4cf5 ee26 0515 363c 1460 01bc 78d7 ba3b
00000140: f556 46bc f443 a33c d1a9 46bd d6bf 903d
00000150: 233c 00b6 2271 a73c adf8 461f 8ad7 892c
00000160: 5b4f e63c 0000 4dbb bab7 62bc fd04 79b9
00000170: 28d7 ab2c 83f7 c43a 2c69 33bc 2000 0000
00000180: 821b d794 562e fe39 3448 3b3c a4e4 1c3c
00000190: 58e4 ac39 0400 0080 5d6f 0100 cd2f 241b
000001a0: 53d6 143a c88e 82bc 7016 013c b557 4329
000001b0: 0400 0000 0400 0000 e07f a085 a83c 963c
000001c0: 6342 923c 52f5 c23b b7cc 8d1c b9a9 e228
000001d0: 162b ee39 e3e5 dc3c 7f06 2abd 6e4d 9d23
000001e0: 1f31 38bb 0400 0000 9f38 253c 82ac 803b
000001f0: 3c4f 4d27 8e91 8f07 ee0f 2597 eb2b 443c

exp_avg_sq f4 [128]
0.022735655 0.014415359 6.701962e-05 0.0007073145 0.01674686 0.014538613 0.016689196 1.6444455e-05
0.0064710425 0.009984219 0.0010433426 0.0001474285 0.0017228805 0.01614531 6.060528e-05 0.00023775158
5.1068593e-05 0.000691304 0.018022634 0.00033251903 4.8075886e-05 0.0028798264 0.016461886 0.021758229
6.619745e-05 0.0004513923 0.016704451 0.0007900526 0.019319884 0.020059807 0.013207075 0.021822894
0.019306011 0.0013105673 0.018486096 0.018757263 0.0007216624 0.00020235956 0.022107141 0.02227769
0.004552382 0.00095488504 0.008729436 0.024943044 0.0007086011 0.00025436867 6.435765e-05 0.024742145
0.0012796746 0.008359654 0.025939187 0.021073107 0.0007418494 0.0009160863 0.003093829 0.0022512302
0.00026956532 0.0027012967 0.019175444 0.002728092 1.1049513e-05 0.00021444018 0.017094944 6.537721e-05
0.0011995211 0.0010808852 2.7722539e-05 0.0229098 0.00044668253 0.016990889 2.1771166e-05 0.005570083
0.00029878653 0.011939643 0.020668607 2.4502644e-05 0.00026201457 0.019963888 0.021762885 0.00578528
0.0013897563 0.02383642 0.025739806 0.02252864 0.002813658 0.017763302 8.558467e-05 0.0006568828
0.01572274 0.022609647 0.024710868 0.00017626808 0.0006927517 0.00040646488 0.016555548 0.0006720405
1.689827e-05 0.015958285 0.017344406 0.015007263 0.000749597 0.0002696077 1.28576985e-05 5.2127707e-05
0.015974812 0.021177977 0.0010152826 0.001273892 2.4959693e-06 0.00013265734 6.161402e-05 0.026072456
0.024800362 0.019481674 0.00046900302 2.8502447e-05 0.02204561 0.010979679 0.017626034 0.003174294
0.012590576 1.0567534e-05 0.010993596 0.0044370894 0.00035557046 5.0309816e-05 0.0013565057 0.017689968
00000000: 2040 ba3c 662e 6c3c e28c 8c38 136b 393a
00000010: b630 893c 5d33 6e3c c8b7 883c 33f2 8937
00000020: 0a0b d43b da94 233c c5c0 883a 0997 1a39
00000030: 47d2 e13a 2b43 843c 6d32 7e38 f44c 7939
00000040: 7c32 5638 a038 353a 34a4 933c f355 ae39
00000050: 17a5 4938 78bb 3c3b 14db 863c 503e b23c
00000060: 7cd3 8a38 d9a8 ec39 c6d7 883c 881b 4f3a
00000070: bc44 9e3c 7754 a43c 7d62 583c edc5 b23c
00000080: a427 9e3c 57c7 ab3a 2770 973c d5a8 993c
00000090: f22d 3d3a 7b30 5439 091a b53c b47f b63c
000000a0: 262c 953b 4051 7a3a e905 0f3c 5b55 cc3c
000000b0: 6ac1 393a c95c 8539 c0f7 8638 0ab0 ca3c
000000c0: c1ba a73a eef6 083c 6b7e d43c 82a1 ac3c
000000d0: ac78 423a 8325 703a d6c1 4a3b 6089 133b
000000e0: 7254 8d39 3d08 313b d215 9d3c cac9 323b
000000f0: 4c61 3937 59db 6039 b20a 8c3c 1f1b 8938
00000100: 4039 9d3a 7dac 8d3a b38d e837 55ad bb3c
00000110: b730 ea39 7a30 8b3c 39a1 b637 3e85 b63b
00000120: 73a6 9c39 7e9e 433c 3651 a93c 078b cd37
00000130: 005f 8939 4f8b a33c 1448 b23c 7292 bd3b
00000140: 7c28 b63a 9944 c33c 49dc d23c fc8d b83c
00000150: 5965 383b 5884 913c eb7b b338 a932 2c3a
00000160: facc 803c de37 b93c 726e ca3c 9ad4 3839
00000170: c899 353a cb1a d539 809f 873c e02b 303a
00000180: c2c0 8d37 f3ba 823c db15 8e3c 06e1 753c
00000190: 9a80 443a 225a 8d39 65b7 5737 b3a3 5a38
000001a0: 9cdd 823c 707d ad3c 3b13 853a b9f8 a63a
000001b0: 6d80 2736 ef19 0b39 c636 8138 e795 d53c
000001c0: 212a cb3c 0898 9f3c 85e4 f539 8a18 ef37
000001d0: ff98 b43c 1de4 333c 7964 903c d107 503b
000001e0: b448 4e3c 374b 3137 7c1e 343c 0165 913b
000001f0: dc6b ba39 c103 5338 c7cc b13a 8dea 903c

exp_avg f4 [192, 128]
2.5592111e-05 4.7843278e-06 1.1744752e-15 1.1965724e-09 3.047969e-05 2.2202833e-08 2.6502676e-05 6e-45
3.995698e-06 7.2850304e-07 1.961097e-17 6e-45 1.2678069e-13 2.129712e-05 6e-45 -6e-45
3.619212e-29 6e-45 2.2027574e-05 6e-45 5.0990474e-26 5.5182004e-06 1.0011585e-05 6.478169e-05
-6e-45 1.8113411e-19 1.2384388e-06 3.2427538e-19 1.2303335e-05 5.26896e-06 5.3817878e-08 2.1713178e-05
5.0470335e-05 1.4567263e-09 3.3135413e-05 7.1907234e-06 3.299325e-16 1.9571773e-35 6.302897e-07 1.4647993e-05
4.9091536e-06 2.0678467e-18 3.670086e-07 4.473877e-05 4.330415e-16 7.1433544e-16 6e-45 7.896705e-05
3.1584728e-19 1.4414226e-08 1.9274414e-05 5.829816e-06 1.0504e-41 9.041764e-16 1.866945e-27 -1.0457983e-15
6e-45 1.0277961e-09 7.98643e-06 3.1899835e-06 6e-45 1.3859449e-19 2.4544894e-05 1.3300239e-22
6.560755e-09 3.9076394e-06 6e-45 2.7645727e-05 6.254872e-10 3.395479e-05 1.3584213e-22 8.6815835e-06
3.5640334e-30 1.6918408e-08 5.7713463e-05 6e-45 5.355742e-19 4.976299e-06 3.159047e-05 1.9549468e-10
8.496578e-22 1.4251804e-05 4.120604e-05 1.3712256e-05 1.343856e-09 3.5684995e-08 0.0 4.258874e-22
3.091449e-08 2.4965517e-05 4.767296e-05 4.5902127e-10 3.659431e-20 6e-45 4.4812088e-05 6e-45
-6e-45 1.6151566e-16 9.608609e-07 2.6217596e-05 4.959043e-10 6e-45 -6e-45 2.1268137e-27
7.025012e-06 2.8517301e-05 8.7694445e-07 9.988781e-19 -6e-45 6e-45 -6e-45 3.8519513e-05
1.3768873e-07 7.385965e-07 5.036e-42 6.069528e-16 4.573762e-05 1.6800216e-08 1.7574117e-05 6e-45
2.911152e-05 6e-45 2.9698092e-06 2.51687e-06 1.491789e-19 4.0377224e-38 5.110143e-30 2.1397721e-08
-0.28338763 -0.08433073 -6.085314e-13 5.2802957e-08 -0.23795153 -0.028832566 -0.3253204 6e-45
-0.025906576 3.2337433e-05 5.8808455e-16 -4.0748073e-35 -4.1193682e-10 -0.27142692 -6e-45 -6e-45
8.367847e-27 1.735943e-38 -0.3537416 -6e-45 -1.556156e-22 0.00024564454 -0.05284038 -0.44199547
6e-45 6.86709e-17 0.00024842873 1.8820481e-17 -0.1290588 -0.050735973 -0.012915048 -0.4725432
-0.2625025 6.460846e-08 -0.17210823 -0.16410859 -8.2498266e-13 -1.617059e-32 -0.15370433 -0.12528858
-0.08541159 -5.4758478e-15 0.0018366913 -0.38286445 -2.2028283e-13 7.04132e-14 -6e-45 -0.6319958
1.0073263e-16 -0.035068333 -0.15278794 -0.123009846 2.579632e-39 -4.479636e-11 -6e-45 -2.0432403e-14
-6e-45 -5.495229e-07 -0.04957697 -0.015704421 6e-45 -5.519797e-16 -0.17052118 4.535165e-21
-0.004869804 -0.01904292 6e-45 -0.2080757 2.6818494e-08 -0.4144412 8.2688294e-21 -0.055364545
3.533894e-27 -1.4830674e-06 -0.45430452 6e-45 1.43064e-16 -0.006986824 -0.2649296 -8.102206e-07
4.6983678e-20 -0.12742056 -0.31048587 -0.1512296 1.7522491e-07 -0.033790193 0.0 2.2115788e-20
-0.04436793 -0.10724557 -0.34424233 6.5515155e-06 7.343785e-18 6e-45 -0.4150538 -6e-45
-6e-45 4.846519e-10 -0.075409085 -0.32059494 -3.4145242e-07 6e-45 6e-45 3.30743e-25
-0.012138548 -0.30085504 0.00010456691 -3.6160184e-15 -6e-45 6e-45 6e-45 -0.14341594
-0.07862223 -0.0691388 6e-45 2.3460805e-14 -0.22919859 -0.020968517 -0.25185642 1.3e-44
-0.114243865 -6e-45 -0.016753566 0.00027262056 -5.941343e-16 9.151872e-36 2.8633176e-27 -0.013222101
00000000: a4ae d637 1089 a036 7d42 a926 a674 a430
00000010: a3ae ff37 8cb8 be32 1052 de37 0400 0000
00000020: c912 8636 598e 4335 18e1 b423 0400 0000
00000030: 0cbe 0e2a 38a7 b237 0400 0000 0400 0080
00000040: 0f84 3710 0400 0000 dbc7 b837 0400 0000
00000050: 1b7e 7c15 fb28 b936 6ef7 2737 68db 8738
00000060: 0400 0080 6dd8 5520 6f38 a635 1c6b bf20
00000070: 6c6a 4e37 06cc b036 6225 6733 b224 b637
00000080: 1cb0 5338 0036 c830 e1fa 0a38 d847 f136
00000090: 7131 be25 6f1f d005 2e31 2935 a7c0 7537
000000a0: 4fb9 a436 8594 1822 4709 c534 e3a5 3b38
000000b0: a5a1 f925 a7e4 4d26 0400 0000 1d9b a538
000000c0: 7e71 ba20 70a2 7732 7daf a137 bd9d c336
000000d0: 481d 0000 394e 8226 25ea 1313 26b7 96a6
000000e0: 0400 0000 5c42 8d30 75fd 0537 8013 5636
000000f0: 0400 0000 9d9f 2320 c2e5 cd37 3fca 201b
00000100: 036d e131 5e1e 8336 0400 0000 bfe8 e737
00000110: c0ee 2b30 ae6a 0e38 1a39 241b 1ea7 1137
00000120: 0a93 900e f953 9132 5c11 7238 0400 0000
00000130: d812 1e21 15fa a636 0280 0438 dcf2 562f
00000140: 8b65 801c 081b 6f37 a6d4 2c38 b10d 6637
00000150: bbb2 b830 1144 1933 0000 0000 71b7 001c
00000160: d7c6 0433 0a6d d137 73f4 4738 8059 fc2f
00000170: cecf 2c1f 0400 0000 9df4 3b38 0400 0000
00000180: 0400 0080 0237 3a25 eef6 8035 dced db37
00000190: 2a50 0830 0400 0000 0400 0080 e880 2813
000001a0: 65b8 eb36 7038 ef37 2a67 6b35 8c68 9321
000001b0: 0400 0080 0400 0000 0400 0080 0390 2138
000001c0: 97d7 1334 f743 4635 0a0e 0000 36f1 2e26
000001d0: 65d6 3f38 1150 9032 216c 9337 0400 0000
000001e0: 8334 f437 0400 0000 ef4c 4736 7fe7 2836
000001f0: 8e1e 3020 a3d5 5b01 c24a cf0e 16ce b732
00000200: 2f18 91be 97b5 acbd 4f49 2bab 77c9 6233
00000210: 91a9 73be 4632 ecbc 6590 a6be 0400 0000
00000220: 073a d4bc 0ea2 0738 fb80 2926 67a7 5886
00000230: f476 e2af 78f8 8abe 0400 0080 0400 0080
00000240: 06be 2514 0707 bd00 9e1d b5be 0400 0080
00000250: b220 3c9b dac9 8039 286f 58bd 3b4d e2be
00000260: 0400 0000 2558 9e24 8a3f 8239 9b96 ad23
00000270: fd27 04be 86d0 4fbd a399 53bc 2ff1 f1be
00000280: ba66 86be e0be 8a33 243d 30be 150c 28be
00000290: 4436 68ab cdec a78a ab64 1dbe a64b 00be
000002a0: 46ec aebd c849 c5a7 22bd f03a cf06 c4be
000002b0: 3404 78aa 728e 9e29 0400 0080 7aca 21bf
000002c0: 0d46 e824 d0a3 0fbd 7174 1cbe 96ec fbbd
000002d0: f716 1c00 3804 45ae 0400 0080 ea09 b8a8
000002e0: 0400 0080 ed82 13b5 3911 4bbd 8fa6 80bc
000002f0: 0400 0000 ea18 1fa6 1b9d 2ebe 6d55 ab1d
00000300: e092 9fbb e6ff 9bbc 0400 0000 cc11 55be
00000310: 7e5e e632 a331 d4be 9b31 1c1e efc5 62bd
00000320: f1fd 8b13 cf0d c7b5 9a9a e8be 0400 0000
00000330: 0af1 2425 baf1 e4bb daa4 87be f07d 59b5
00000340: c8df 5d1f 897a 02be 01f8 9ebe efdb 1abe
00000350: 7525 3c34 9667 0abd 0000 0000 b2e0 d01e
00000360: 26bb 35bd 91a3 dbbd 8840 b0be 17d5 db36
00000370: 0b78 0723 0400 0000 ef81 d4be 0400 0080
00000380: 0400 0080 5838 0530 1470 9abd 0525 a4be
00000390: dd50 b7b4 0400 0000 0400 0000 52b8 cc16
000003a0: c3e0 46bc ac09 9abe ef4a db38 e247 82a7
000003b0: 0400 0080 0400 0000 0400 0000 a1db 12be
000003c0: b104 a1bd a598 8dbd 0400 0000 ef50 d328
000003d0: 09b3 6abe 2bc6 abbc 53f3 80be 0900 0000
000003e0: b0f8 e9bd 0400 0080 c63e 89bc 83ee 8e39
000003f0: 603f 2ba6 88a3 4205 fbda 6213 83a1 58bc
