weights/policy_checkpoint4800.pt (torch, 522983 bytes, 12 tensors)

net.0.weight f4 [128, 142]
0	0x3c897754	0.016780533
1	0x3da341c1	0.07971526
2	0x3c4ca956	0.012491545
3	0x3e066ec3	0.1312819
4	0x3d9e1a0c	0.07719812
5	0x3e208bcf	0.15678333
6	0x3dcb417a	0.09924598
7	0x3d297f32	0.04138107
8	0x3d57b9c2	0.052667387
9	0xbd74faf7	-0.05980965
10	0x3ddfd7b1	0.10929812
11	0x3d8be2df	0.068303816
12	0x3d765e0a	0.060148276
13	0x3d76e486	0.06027653
14	0x3ddc1ce9	0.10747702
15	0x3d433e88	0.047667056
16	0x3d0fd762	0.035117514
17	0xbd23f0ac	-0.040024444
18	0xbdafd575	-0.085856356
19	0x3d37823a	0.044801928
20	0xbba40f33	-0.0050066947
21	0x3d67393d	0.05645107
22	0x3cd01d33	0.025404548
23	0x3def276a	0.116774395
24	0xbd362351	-0.044467274
25	0xbd644e18	-0.05573854
26	0xbcfde7e9	-0.030994372
27	0xbd836b95	-0.06417004
28	0xbb52c764	-0.0032162303
29	0xbdc918b6	-0.09819166
30	0x3e3a1b35	0.18174441
31	0xbb99fa12	-0.004699
32	0x3ddd4382	0.10803892
33	0x3d92dea2	0.0717137
34	0xbc2f3fec	-0.0106963925
35	0x3d136c5a	0.035992004
36	0x3d07c4d8	0.03314671
37	0x3da51225	0.080601014
38	0x3d170cae	0.036877327
39	0xbcd99cf9	-0.026564108
40	0x3dc91616	0.09818666
41	0xbcdfc754	-0.027316727
42	0x3d87fa85	0.0663958
43	0x3d5b7961	0.053582553
44	0x3d7cfc82	0.061764248
45	0x3d4d0e1e	0.05006229
46	0x3de6a580	0.11262035
47	0x3b953c5c	0.0045543145
48	0x3da30640	0.079601765
49	0x3d9dd190	0.077059865
50	0xbd76586c	-0.06014292
51	0x3c0f7a76	0.008757224
52	0xbd0b9aa5	-0.034083027
53	0x3e732144	0.23743159
54	0x3dec48e7	0.115373425
55	0x3df89ce4	0.121392995
56	0x3d200a19	0.03907213
57	0x3d56c86f	0.052437242
58	0x3e4528c5	0.19253834
59	0x3da2419d	0.07922671
60	0xbb2cbbe9	-0.002635712
61	0x3d1957e9	0.037437353
62	0x3e138f46	0.14410123
63	0x3ce8bafe	0.028409477
64	0x3c9224ff	0.017839907
65	0xbd851795	-0.064986385
66	0x3d94c6d0	0.07264483
67	0xbd1503c8	-0.03638056
68	0xbc8068df	-0.015675006
69	0xbd54cf1b	-0.051955324
70	0x3df0babb	0.11754366
71	0x3daa0c69	0.08303148
72	0x3da56068	0.08075029
73	0xbd8dd5e8	-0.06925565
74	0xbd8dddf1	-0.069270976
75	0xbceeabc4	-0.029134639
76	0xbd73fabe	-0.0595653
77	0x3d0b3953	0.033990216
78	0x3cf62972	0.03004906
79	0x3d2a9513	0.041646075
80	0xbd31829e	-0.043337457
81	0xbd6a52ec	-0.057207987
82	0x3d365ffc	0.04452513
83	0xbd0aefca	-0.033920087
84	0x3b9fc15f	0.0048753466
85	0xbca32253	-0.019913828
86	0x3d44a0ec	0.04800503
87	0xbd858879	-0.06520171
88	0xbd2d766d	-0.042349268
89	0x3db239b1	0.0870241
90	0x3d6c74b1	0.057728473
91	0x3d5353c1	0.051593546
92	0x3d9aae1c	0.0755274
93	0x3de3e29c	0.11127207
94	0xbc1040dc	-0.008804526
95	0xbd868d2c	-0.06569895
96	0x3e0b0849	0.1357738
97	0xbce7f871	-0.028316708
98	0xbcf3b705	-0.029750356
99	0xbbe2fa3c	-0.006926803
100	0xbd4d0fe6	-0.05006399
101	0x3d9ebd49	0.07750947
102	0xbc357ab8	-0.011076622
103	0xbd798202	-0.060915
104	0x3d8b0d01	0.0678959
105	0xbd6acb73	-0.05732293
106	0xbd91cf24	-0.07119587
107	0xbd3d474f	-0.046210583
108	0xbd966af2	-0.07344617
109	0x3d20cefd	0.0392599
110	0x3dabcc11	0.08388532
111	0x3c81d7ef	0.015850035
112	0x3cd3d8bf	0.025860189
113	0xbda04b91	-0.07826913
114	0xbd580e59	-0.052748058
115	0x3d069afd	0.032862652
116	0x3d7ffff1	0.062499944
117	0xbbab0bf7	-0.005219932
118	0x3cb630f3	0.022240138
119	0xbde0c207	-0.10974508
120	0x3d06e74b	0.032935422
121	0x3c108386	0.00882042
122	0xbbbe8d32	-0.0058151716
123	0xbd68ebb8	-0.056865424
124	0xbe1c14e7	-0.15242349
125	0xbd531edb	-0.051543098
126	0xbd325799	-0.04354057
127	0xbd87a635	-0.06623498
128	0x3d901a63	0.07036283
129	0xbd74a48c	-0.059727237
130	0x3d93df1c	0.07220289
131	0x3cd6330d	0.02614739
132	0xbd9188c2	-0.071061626
133	0x3d6ddf53	0.058074307
134	0x3c4e07f1	0.012575136
135	0xbd03c29a	-0.03216801
136	0xbd8ea8d7	-0.069657974
137	0xbdaadc5c	-0.083428115
138	0x3cc4b05a	0.024009872
139	0x3ddc9636	0.10770838
140	0x3db7e899	0.08979911
141	0xbbf51b67	-0.0074800733
142	0x3cddd83c	0.027080648
143	0xbda40f0c	-0.080106825
144	0xbdb23edf	-0.08703398
145	0xbd700e99	-0.05860767
146	0x3d69e696	0.05710467
147	0x3d52fcf4	0.051510766
148	0x3db9fefc	0.090818375
149	0xbde39dc6	-0.11114077
150	0x3c1e3143	0.0096553
151	0xbd179c9c	-0.03701459
152	0x3bf4453d	0.007454543
153	0xbde8977b	-0.113570176
154	0x3e10add2	0.14128807
155	0xbd03fe87	-0.032225158
156	0x3da5a647	0.080883555
157	0xbcbba74d	-0.022906924
158	0x3d2b07b9	0.04175541
159	0xbd2c74e3	-0.04210366
160	0x3dbcfb52	0.09227623
161	0x3c446eaa	0.011989275
162	0x3c74be67	0.014937974
163	0xbd8a2004	-0.06744388
164	0x3de48f34	0.11160126
165	0x3c9eb3aa	0.01937278
166	0xbd1e644d	-0.038669873
167	0x3dbb3785	0.09141449
168	0x3dad8e1c	0.08474371
169	0xbc810b40	-0.015752435
170	0xbd66cead	-0.056349445
171	0xbda4d457	-0.08048313
172	0x3ddab26c	0.106785625
173	0x3c94a039	0.018142806
174	0xbd27f1c7	-0.04100206
175	0xbd079a68	-0.033106238
176	0xbd92f799	-0.07176132
177	0x3c7402e0	0.014893264
178	0x3d316a53	0.04331429
179	0xbe20ccc3	-0.1570311
180	0x3db8317a	0.08993812
181	0x3db22638	0.08698696
182	0xbce1a743	-0.027545577
183	0xbda51002	-0.08059694
184	0x3d0c602e	0.03427141
185	0x3dab9a76	0.083790705
186	0xbb87e6fa	-0.0041474076
187	0xbd23408f	-0.03985649
188	0x3c8ae8f1	0.016956778
189	0x3d23a0f0	0.039948404
190	0xbda7fdf0	-0.082027316
191	0xbb5abb04	-0.003337563
192	0x3d9e8e24	0.07741955
193	0x3dedf985	0.11619858
194	0x3c684ac5	0.014177983
195	0x3cc5d498	0.024149224
196	0x3ccabf85	0.024749527
197	0xbdd2927f	-0.10281848
198	0x3dd7f79d	0.10545275
199	0x3dcbe473	0.099556826
200	0xbc983a1d	-0.018582398
201	0x3db8f2dc	0.09030697
202	0x3e11175c	0.14169067
203	0x3a5344e2	0.00080592756
204	0xbca04280	-0.01956296
205	0xbd30cfa3	-0.043166768
206	0xbd922ee4	-0.0713785
207	0xbdbec3c7	-0.09314685
208	0xbd4afa2e	-0.049554996
209	0xbc8fd740	-0.017558694
210	0x3d91e71e	0.0712416
211	0x3d8b3109	0.06796462
212	0xbdf392fd	-0.1189327
213	0xbe045b2f	-0.12925409
214	0xbc58fc05	-0.01324368
215	0x3da640be	0.08117817
216	0x3dc67678	0.09690565
217	0xbcd2a836	-0.025714975
218	0x3c9f8f3b	0.019477477
219	0xbd02eb80	-0.03196287
220	0xbd5e7af8	-0.05431649
221	0x3d9cc14f	0.07654058
222	0xbd1c4b47	-0.038157728
223	0xbc89cff6	-0.016822796
224	0xbdaaf8ad	-0.083482124
225	0x3d660c2b	0.056163948
226	0x3d6aed14	0.057355
227	0x3cfa8ae8	0.030583814
228	0xbd6fac54	-0.058513954
229	0xbda99eaa	-0.08282216
230	0xbd8b95a9	-0.06815655
231	0x3cb738b0	0.022365898
232	0x3cfaef65	0.03063173
233	0x3db6c154	0.08923593
234	0xbd8b6d46	-0.06807952
235	0xbdef92f2	-0.116979495
236	0x3c5931bd	0.013256487
237	0xbd19dc8f	-0.037563857
238	0xbd836d50	-0.06417334
239	0xbda0c0ca	-0.078492716
240	0x3d0cb59f	0.034352895
241	0xbce3a54c	-0.02778878
242	0x3d17c076	0.03704878
243	0xbd957526	-0.07297735
244	0xbc7a8ab8	-0.015291862
245	0xbd71eda2	-0.059064515
246	0xbd16ce66	-0.03681793
247	0x3ce4097c	0.027836554
248	0xbccc4f53	-0.024940168
249	0x3d5432d6	0.051806293
250	0xbcdc8ad8	-0.026921675
251	0xbd93d708	-0.07218748
252	0xbc7296a7	-0.014806426
253	0xbd269f21	-0.0406791
254	0xbcd25262	-0.025674049
255	0xbda39d36	-0.0798897

net.0.bias f4 [128]
0	0x3e00eaa8	0.12589514
1	0xbb305655	-0.0026906927
2	0xbbb5d6a3	-0.0055492683
3	0x3d6c1be0	0.05764377
4	0x3de57231	0.11203421
5	0x3d20f50f	0.039296206
6	0x3c837df0	0.016051263
7	0xbdb0f9d9	-0.08641405
8	0x3dd8758b	0.105692945
9	0x3d5fa7cc	0.054603383
10	0xbbc4643f	-0.0059933956
11	0xbcafca2d	-0.02145871
12	0xbd6e6cb9	-0.058209155
13	0x3debd86e	0.1151589
14	0xbd964ff0	-0.073394656
15	0xbd40db41	-0.047084097
16	0x3d914797	0.07093733
17	0xbdb19c74	-0.08672419
18	0x3cf0c03e	0.029388543
19	0xbd6f9f55	-0.05850156
20	0x3ae20112	0.0017242751
21	0xbdbc3794	-0.09190288
22	0x3dc9ab5c	0.09847137
23	0x3df74116	0.12072961
24	0xbc4f63a6	-0.012658035
25	0x3d29b9cb	0.04143695
26	0x3de76689	0.11298854
27	0xbd259500	-0.0404253
28	0xbcf77ffa	-0.030212391
29	0x3d8d7d0b	0.06908616
30	0xbd7b4784	-0.0613475
31	0x3d7da7a8	0.061927468
32	0x3dd2507f	0.1026926
33	0x3d29f942	0.041497476
34	0x3d9d1dca	0.076716974
35	0x3ccb83f4	0.024843194
36	0xbe0797fc	-0.13241571
37	0xbb1caf38	-0.002390815
38	0x3da4e3c4	0.08051255
39	0x3e0f0bf7	0.13969408
40	0x3dede407	0.116157584
41	0xbdefa327	-0.11701041
42	0xbab3708b	-0.0013690157
43	0x3e63fe85	0.2226506
44	0xbd2cb58e	-0.04216533
45	0xbd9ebfd3	-0.07751431
46	0xbdc12c32	-0.09432258
47	0x3e081723	0.13290076
48	0xbd92847c	-0.07154176
49	0x3b647479	0.0034859462
50	0x3c8c49c9	0.017125027
51	0x3d1c6161	0.038178805
52	0xbcc85548	-0.024454728
53	0x3c16fed6	0.009216031
54	0x3ba2e91e	0.0049716374
55	0xbceb39a3	-0.028714007
56	0xbd39c99b	-0.04535828
57	0x3cee384d	0.02907958
58	0xbc5fc778	-0.013658397
59	0x3c6e51f9	0.014545911
60	0xbde49643	-0.11161473
61	0x3cad0880	0.021122217
62	0x3dd518a4	0.104050905
63	0xbdaf2b81	-0.085532196
64	0xbc699bf6	-0.014258375
65	0x3ddbe48c	0.10736951
66	0xbc3b126a	-0.0114179645
67	0x3db9372e	0.09043728
68	0xbd5616a9	-0.052267704
69	0x3d01e5e8	0.031713396
70	0xbde654d7	-0.11246651
71	0x3dc21a8a	0.09477718
72	0xba23f2ce	-0.0006254137
73	0x3da12c9f	0.07869839
74	0x3c938eab	0.018012365
75	0xbde10506	-0.10987286
76	0xbd08e6af	-0.033423122
77	0x3da85656	0.08219592
78	0x3e386f37	0.18011175
79	0xbd5c3a44	-0.053766504
80	0xbc713081	-0.014721037
81	0xbc232297	-0.009956977
82	0x3d9e882a	0.07740815
83	0x3e14edcd	0.14543839
84	0xbcc438c7	-0.023952855
85	0x3d55a2f4	0.052157357
86	0xbcd163f3	-0.025560355
87	0xbce0a18c	-0.027420782
88	0xbd4fdbed	-0.050746847
89	0x3dd54f5e	0.10415529
90	0x3e178233	0.14795761
91	0xbcbdd945	-0.023174891
92	0x389d9be5	7.515381e-05
93	0xbdbb377f	-0.091414444
94	0x3e0be401	0.13661195
95	0x3cc66100	0.024216175
96	0xbdbae522	-0.09125735
97	0x3a24fe38	0.0006293985
98	0x3cb33ca0	0.021879494
99	0xbd0c5539	-0.034260962
100	0xbdb8dd4b	-0.09026583
101	0xbdd53e9c	-0.104123324
102	0xbda9e545	-0.08295683
103	0xbd861e55	-0.06548754
104	0x3c987c61	0.018613996
105	0x3e3e8c9a	0.18608323
106	0x3b430933	0.0029760122
107	0xbd7b8d5a	-0.0614141
108	0xbdb98c19	-0.09059925
109	0xbdf74e9b	-0.1207554
110	0x3d0a280d	0.0337296
111	0x3c0e234c	0.008675408
112	0x3db2bfe4	0.087280065
113	0xbdf92e8c	-0.12167081
114	0xbda247e8	-0.07923871
115	0xbd834c64	-0.06411055
116	0x3e28e06b	0.16491859
117	0xbdb811aa	-0.08987744
118	0x3d24ee49	0.04026631
119	0xbd92ab3f	-0.07161569
120	0x3d140e5f	0.036146518
121	0xbd397150	-0.04527408
122	0xbd6437a8	-0.05571714
123	0xbb02e512	-0.0019972962
124	0xbdd1f120	-0.10251069
125	0xbd2ef594	-0.04271467
126	0xbd7727c8	-0.060340673
127	0xbd604407	-0.054752376

net.2.weight f4 [192, 128]
0	0xbd992821	-0.07478357
1	0xbd95b9dc	-0.073108405
2	0x3df2530d	0.11832247
3	0xbdef2d06	-0.116785094
4	0xbd2c5e3b	-0.042082053
5	0xbd86ee9f	-0.06588482
6	0xbdffa3f6	-0.12482445
7	0x3db4219b	0.08795472
8	0x376d1356	1.4130803e-05
9	0x3bb8c925	0.0056392127
10	0x3c9bf634	0.019038297
11	0xbcb9c4b6	-0.022676807
12	0x3c3d4720	0.011552602
13	0xbd85e885	-0.0653849
14	0x3d5d426f	0.054018434
15	0xbb6a1f40	-0.0035724193
16	0x3dc1827f	0.09448718
17	0x3cd6acbe	0.026205417
18	0xbdfcce42	-0.12344028
19	0x3d39755c	0.04527794
20	0x3db6ecdd	0.08931897
21	0xbd562b9a	-0.052287675
22	0xbdb81321	-0.089880235
23	0xbe378ea7	-0.17925511
24	0x3cf400e7	0.029785587
25	0xbdc665fb	-0.0968742
26	0xbde6260e	-0.11237727
27	0x3c8aea1b	0.016957333
28	0xbd7c4181	-0.061585907
29	0x3d2a3be8	0.041561037
30	0xbe38cd68	-0.18047106
31	0xbdeb6d28	-0.11495429
32	0xbdc7b9f2	-0.09752263
33	0x3afa7aec	0.001911012
34	0xbe0227dc	-0.12710518
35	0xbe800315	-0.2500235
36	0xbd8ab91b	-0.06773587
37	0xbd377e57	-0.04479822
38	0xbd679d53	-0.05654652
39	0xbde66781	-0.112502106
40	0xbdcd664e	-0.10029279
41	0xbdae9a19	-0.085254855
42	0xbd1e4bc3	-0.03864647
43	0xbdfb21a9	-0.122622795
44	0xbddf11d3	-0.108920716
45	0x3da8ec95	0.082482494
46	0xbd9a6411	-0.075386174
47	0xbd899f5f	-0.06719851
48	0xbdb946ff	-0.090467446
49	0xbe005b4f	-0.12534831
50	0xbe6659a1	-0.22495128
51	0xbe051b65	-0.12998731
52	0xbdc2288f	-0.09480392
53	0xbdfd92e4	-0.12381533
54	0xbd980797	-0.07423323
55	0xbdc7de02	-0.097591415
56	0x3d30e998	0.043191522
57	0xbdeb620f	-0.114933126
58	0xbda731c9	-0.08163793
59	0x3c3335e7	0.010938144
60	0xbd90a83b	-0.070633374
61	0xbd0a14b5	-0.033711154
62	0xbdc517cb	-0.09623679
63	0xbd8758e8	-0.066087544
64	0x3cf3e3c5	0.029771695
65	0x3d369d40	0.04458356
66	0x3b8b5112	0.0042516077
67	0xb991011a	-0.00027657376
68	0x3be94c10	0.007119663
69	0xbe1b445a	-0.15162793
70	0xbda2190c	-0.079149336
71	0xbc1f2d82	-0.00971544
72	0xbdc86580	-0.097849846
73	0x3d45058d	0.048100997
74	0xbde9711e	-0.113985285
75	0x3d6cd03c	0.057815775
76	0xbd034f4e	-0.032058053
77	0xbda680f1	-0.08130062
78	0xbe136554	-0.14394122
79	0x3db291c1	0.087192066
80	0xbde20cb6	-0.11037581
81	0x3c7d8e9a	0.015475893
82	0xbd873f3c	-0.06603858
83	0xbd58e3dc	-0.05295168
84	0xbd67f3ad	-0.05662887
85	0xbd79cfab	-0.060989063
86	0xbdd6ac5a	-0.10482092
87	0xbdb83250	-0.08993971
88	0xbdc2549e	-0.09488796
89	0xbc14b723	-0.009076866
90	0xbe009775	-0.12557776
91	0xbd923474	-0.07138911
92	0xbbaacaec	-0.0052121785
93	0x3d6cb41c	0.057788953
94	0xbde4080e	-0.11134349
95	0x3dc96831	0.09834326
96	0xbdb053c2	-0.086097255
97	0xbd83ed55	-0.06441752
98	0xbe1eecbb	-0.15519993
99	0xbe101677	-0.1407107
100	0xbd87b4f8	-0.06626314
101	0xbdfd323e	-0.123630986
102	0x3d8fbbf4	0.07018271
103	0xbd2c4a6e	-0.04206317
104	0x3df3f593	0.11912074
105	0xbd802329	-0.06256706
106	0xbc1fb9d7	-0.0097488975
107	0xbd4164e5	-0.04721536
108	0xbccd4ccc	-0.025061034
109	0xbd2ce32d	-0.04220884
110	0x3d91ef70	0.07125747
111	0xbe012b61	-0.12614204
112	0xbd94a112	-0.07257284
113	0xbe41fe49	-0.18944658
114	0xbd0f00c4	-0.03491284
115	0x3d91e0f6	0.07122986
116	0xbd863f3f	-0.06555032
117	0xbde52763	-0.11189153
118	0xbe43b89f	-0.19113396
119	0xbd37493d	-0.04474758
120	0xbd7b4ed1	-0.061354462
121	0x3e0e856e	0.13918087
122	0xbddf1df6	-0.108943865
123	0xbcf6b0aa	-0.030113537
124	0xbe0977a8	-0.13424551
125	0x3e0e4584	0.13893706
126	0xbe0e3c9b	-0.13890307
127	0xbdf45bbb	-0.11931559
128	0x3e09d506	0.13460168
129	0x3da9acd0	0.082849145
130	0x3cb5abbb	0.022176614
131	0xbcceb6cd	-0.02523365
132	0x3dfbddcc	0.12298164
133	0x3a2c3003	0.00065684336
134	0x3e1e178e	0.15438673
135	0x3d153157	0.036424007
136	0x3e11f787	0.1425458
137	0xbcbcfd13	-0.023069894
138	0x3d9426e9	0.07233984
139	0x3c244846	0.010026997
140	0xbc90b3d3	-0.017663872
141	0x3e2f6577	0.1712855
142	0xbd492012	-0.04910285
143	0x3b7410f3	0.0037241548
144	0x3d029b28	0.03188625
145	0x3c46576d	0.012105805
146	0x3e08d8c0	0.13363934
147	0xbccbb1e7	-0.024865104
148	0xbd4dd274	-0.050249532
149	0x3d7d8b37	0.061900344
150	0x3e2d40e5	0.16919287
151	0x3e4e42ea	0.20142713
152	0xbd354b46	-0.04426124
153	0x3b2b4d3a	0.002613856
154	0x3e1e3a11	0.15451838
155	0x3d818287	0.06323724
156	0x3e4485ce	0.19191667
157	0x3d1d5bf2	0.038417764
158	0x3e078ba3	0.13236861
159	0x3e9d847d	0.30765143
160	0x3e430f85	0.19048889
161	0xbc4187ff	-0.011812209
162	0x3e0324ce	0.12807009
163	0x3d9f803c	0.07788131
164	0xbd5aa7d9	-0.05338273
165	0xbcf10215	-0.029419938
166	0x3e29b844	0.16574198
167	0x3da2f783	0.07957365
168	0x3e07bca3	0.13255553
169	0xbd9719a8	-0.073779404
170	0x3d8b1b2a	0.067922905
171	0x3e44a2cf	0.19202732
172	0xbcf7271c	-0.030170016
173	0x3c16ab14	0.009196062
174	0x3d28c345	0.04120185
175	0x3decddd2	0.11565746
176	0x3c5691e2	0.013096305
177	0x3e673b9d	0.22581334
178	0x3df43e1d	0.1192591
179	0x3db04bb4	0.08608189
180	0x3dafdb1f	0.08586716
181	0xbd0bd921	-0.034142617
182	0xbd8035ad	-0.06260238
183	0x3d7c13ce	0.061542325
184	0xbd8128de	-0.06306623
185	0x3d677335	0.056506354
186	0x3d03ee3c	0.03220962
187	0x3d3dbbdc	0.046321735
188	0xbd50ce96	-0.050978266
189	0x3c42bf66	0.011886453
190	0x3db6d353	0.08927026
191	0x3ce799c9	0.028271573
192	0xbd73185c	-0.059349403
193	0x3e69fd63	0.22850566
194	0x3d27bfad	0.04095428
195	0x3db1093e	0.08644341
196	0x3dc9aa04	0.09846881
197	0x3e5517ee	0.2080991
198	0xbdc7901b	-0.09744283
199	0x3e430fbe	0.19048974
200	0x3c6242f2	0.013809906
201	0x3de6f04a	0.112763
202	0x3e643f13	0.22289686
203	0xbca36bb2	-0.019948814
204	0xbc763883	-0.015028122
205	0x3db79cef	0.089654796
206	0x3e099c30	0.13438487
207	0x3dc8cdb5	0.098048605
208	0xbd2dee6c	-0.042463705
209	0x3dfb884b	0.12281855
210	0x3e12a897	0.14322124
211	0x3de9cf32	0.114164725
212	0x3c69a8bc	0.014261421
213	0x3c6dd69e	0.014516501
214	0xba02a8c2	-0.00049842533
215	0xbd540499	-0.051762197
216	0xbd726bfc	-0.059185013
217	0x3e3ba85c	0.18325943
218	0x3e2e1eea	0.1700398
219	0xbd899966	-0.067187116
220	0x3d546dc1	0.051862482
221	0x3db23f9f	0.08703541
222	0x3e016f40	0.12640095
223	0x3d78fbbc	0.060786948
224	0x3bffc3ef	0.0078053395
225	0x3de3d5ac	0.11124739
226	0x3dd08afe	0.10182761
227	0x3e03cf03	0.12871937
228	0x3d1ecd18	0.03876981
229	0xbdf925db	-0.121654235
230	0x3cad7f94	0.021178998
231	0xbd9d1448	-0.07669884
232	0x3c59a995	0.01328506
233	0x3e3fef38	0.18743598
234	0xbb9b685c	-0.004742665
235	0xbd3ee610	-0.046606123
236	0xbcba110f	-0.022713212
237	0xbb8e8aac	-0.004350027
238	0x3ca1c6a1	0.019748034
239	0x3d9ed7ee	0.07756029
240	0x3e42b688	0.19014943
241	0x3d9dde02	0.0770836
242	0xbb414047	-0.0029487775
243	0x3cefbd1e	0.029264983
244	0x3e0afe73	0.13573627
245	0x3d8ab2a9	0.06772358
246	0x3da80910	0.082048535
247	0x3c4b316f	0.012401923
248	0x3dead836	0.1146702
249	0xbd8f258b	-0.06989583
250	0x3e1a270d	0.15053959
251	0xbd3129ad	-0.043252636
252	0xbd712298	-0.05887088
253	0xbd83ce87	-0.06435876
254	0xbb316f6f	-0.0027074476
255	0x3dd9e30f	0.10639011

net.2.bias f4 [192]
0	0xbcb21bd3	-0.021741783
1	0x3e4efd4b	0.20213811
2	0x3cd7ee24	0.026358671
3	0x3dabef58	0.083952606
4	0xbc580309	-0.013184317
5	0xbc267494	-0.01015963
6	0x3c0a33c9	0.008435198
7	0xbd4cbc3a	-0.049984194
8	0xbe028669	-0.12746586
9	0x3c346992	0.011011498
10	0xbc8e1b6d	-0.017347062
11	0xbe07e5f4	-0.13271314
12	0xbc0fb5f8	-0.008771412
13	0xb9a2d3df	-0.00031056904
14	0xbd422b4c	-0.047404572
15	0x3c37c6fe	0.011216877
16	0x3e089ba9	0.1334063
17	0xbcd7b009	-0.026329057
18	0x3c229d0f	0.009925141
19	0x3de5bc31	0.11217535
20	0xbd950b43	-0.072775386
21	0xbbee5c9f	-0.007274225
22	0xbdab26a4	-0.083569795
23	0x3d90717c	0.070528954
24	0x3d9cc8ee	0.07655512
25	0x3e02d0ec	0.1277501
26	0x3ca88eb0	0.020575851
27	0x3e63af1a	0.22234765
28	0xbbcac82d	-0.0061884136
29	0xbd42f2d0	-0.047594845
30	0xbdbf9a9f	-0.093556635
31	0xbd0ecc38	-0.034862727
32	0x3d2d8ceb	0.042370718
33	0x3cb1897f	0.021672009
34	0x3e2e74e1	0.17036773
35	0x3c5091c4	0.012730066
36	0x3bd386c3	0.006455274
37	0x3cd51f08	0.026015773
38	0xbda3754b	-0.07981356
39	0x3c8ec88f	0.017429618
40	0xbda71fd8	-0.081603706
41	0xbda58038	-0.080810964
42	0x3d8c44c1	0.06849051
43	0x3db1880f	0.08668529
44	0x3b7304e8	0.0037081782
45	0xbd7d5d5a	-0.061856605
46	0xbe154081	-0.14575388
47	0xbd85dfc9	-0.06536824
48	0x3dbd5dd8	0.09246415
49	0xbd9d1789	-0.076705046
50	0xbc9846f8	-0.018588528
51	0x3db8180a	0.0898896
52	0x3cc52690	0.02406624
53	0xbceb5913	-0.028728997
54	0x3d8a7e93	0.06762423
55	0x3cc201a8	0.02368243
56	0xbd2cfa59	-0.042230938
57	0xbdbce70a	-0.09223755
58	0x3c251b7e	0.010077355
59	0xbdfd6ae3	-0.12373903
60	0xbb9487af	-0.0045327763
61	0xbc1e5803	-0.009664538
62	0x3d104c49	0.035229
63	0xbcce71b6	-0.025200706
64	0xbdf1d02e	-0.11807285
65	0xbdb317de	-0.08744787
66	0xbdb4c5fc	-0.08826825
67	0xbd2018a0	-0.039085984
68	0x3d88d3e1	0.06681038
69	0xbdeef493	-0.116677426
70	0x3df6fec9	0.12060315
71	0xbdd38ed7	-0.10329979
72	0xbcda1d6f	-0.026625363
73	0xbd52be9b	-0.051451307
74	0x3d166f8e	0.03672748
75	0xbbcaea24	-0.0061924625
76	0x3d8b3ffb	0.06799313
77	0x3da102a9	0.078618355
78	0x3e393086	0.18084916
79	0xbc8f0a37	-0.017460926
80	0xbc5df9d6	-0.013548335
81	0x3d8a6745	0.06757978
82	0xbce8edb0	-0.02843365
83	0xbc89e2a2	-0.0168317
84	0xbda9c0e3	-0.08288743
85	0xbd7cedbe	-0.061750166
86	0x3d213acb	0.03936271
87	0xbd382d75	-0.044965226
88	0xbdfafdd2	-0.12255444
89	0x3dbd93ba	0.09256692
90	0x3c457517	0.012051842
91	0x3dc73b37	0.09728091
92	0xbd831420	-0.06400323
93	0x3db4f68d	0.08836088
94	0xbd76aad6	-0.060221516
95	0xbc95d391	-0.01828936
96	0x3d5fec2a	0.054668583
97	0xbdd2188f	-0.102585904
98	0xbd23ad81	-0.039960388
99	0x3c9c1503	0.019052988
100	0xbd2c2706	-0.042029403
101	0x3d3be8ab	0.045876186
102	0xbc886ac3	-0.01665247
103	0xbd9c9273	-0.076451205
104	0x3dc6d0ac	0.0970777
105	0xbceb8712	-0.02875093
106	0x3d99177e	0.07475184
107	0xbdacb9ef	-0.084339015
108	0x3daf918c	0.08572683
109	0xbc304f89	-0.01076115
110	0xbc4a155b	-0.012334193
111	0xbdb0cdfa	-0.08633037
112	0xbbcfae5d	-0.0063379244
113	0x3d0b2ede	0.033980243
114	0x3dd0f14d	0.102022745
115	0x3d340b24	0.043955937
116	0x3d1a33b0	0.03764695
117	0xbdae1748	-0.08500534
118	0x3d1ad739	0.03780291
119	0xbd834ae1	-0.064107664
120	0xbe04f861	-0.12985374
121	0xbc86f173	-0.016472554
122	0xbc913aae	-0.017728176
123	0xbbe35198	-0.006937217
124	0xba92b741	-0.001119353
125	0xbd2da406	-0.042392753
126	0xbc6490d5	-0.013950546
127	0x3d71d2db	0.059038978
128	0x3d34615f	0.044038173
129	0x3e0165e6	0.12636527
130	0x3d212ae8	0.03934756
131	0xbd70102c	-0.058609173
132	0xbda72966	-0.08162193
133	0xbd8373af	-0.06418549
134	0xbdb3fd9d	-0.08788607
135	0x3db0bb8d	0.086295225
136	0xbca1914e	-0.019722607
137	0x3e1637fa	0.14669791
138	0xbcafb011	-0.02144626
139	0xbccd8fbb	-0.02509295
140	0xbe0771fd	-0.13227077
141	0xbd257172	-0.040391393
142	0xbc3600b9	-0.011108571
143	0x3c5ecda1	0.01359883
144	0x3ddba2a0	0.10724378
145	0xbb31bd3c	-0.002712085
146	0x3d97d0d0	0.07412875
147	0x3e51b7ed	0.20480318
148	0x3e007b5e	0.12547061
149	0xbdcda84c	-0.10041866
150	0x3c14fae2	0.009093018
151	0x3d9e97b2	0.07743777
152	0x3dce1580	0.100626945
153	0x3dc95426	0.09830503
154	0x3dac8c62	0.084252134
155	0xbc0ee393	-0.00872125
156	0x3da1dc7f	0.079033844
157	0x3cbbae3d	0.022910232
158	0x3d447d1f	0.047970887
159	0x3e2462db	0.16053335
160	0x3df6fcde	0.12059949
161	0x3c953845	0.018215308
162	0xbd364e69	-0.04450837
163	0x3c124f2b	0.008930008
164	0x3ba1a141	0.004932553
165	0xbd8df7a3	-0.069319986
166	0xbbcea646	-0.0063064424
167	0x3dc6b2e3	0.09702089
168	0xbbcd9b52	-0.006274619
169	0x3cc2d24e	0.023781922
170	0xbd9215e6	-0.07133083
171	0x3d80bf08	0.06286436
172	0xbce86042	-0.028366212
173	0xbdb781c2	-0.08960296
174	0x3da6e1b3	0.081485175
175	0xb8351cba	-4.3180517e-05
176	0x3bbb4ce5	0.0057159537
177	0x3e3867e3	0.1800838
178	0x3d12348e	0.03569465
179	0xbbe591c3	-0.0070059015
180	0x3e296f9d	0.16546483
181	0xbc96a3f9	-0.018388735
182	0x3ce89aa9	0.02839406
183	0xbb412f48	-0.0029477645
184	0xbdf6425e	-0.12024377
185	0x3c6a0d8d	0.014285457
186	0xbc9a96e5	-0.01887078
187	0xbdc9d6c8	-0.098554194
188	0xbdcaa579	-0.09894843
189	0xbc29b35b	-0.010357703
190	0x3c694764	0.014238212
191	0xbd67d5f2	-0.05660052

exp_avg f4 [128, 142]
0	0x3b044c88	0.0020187218
1	0x3c4e9d4e	0.012610747
2	0x3c4e7435	0.012600948
3	0x3a9fe2bf	0.0012198313
4	0xb865e6c1	-5.481276e-05
5	0x3be71474	0.0070519987
6	0xbb6b9367	-0.0035946013
7	0xbb9f8445	-0.0048680627
8	0xade098f0	-2.553377e-11
9	0x3c583ea2	0.013198527
10	0x3c582db9	0.013194495
11	0x3aedaa5b	0.0018132435
12	0xbc00694a	-0.007837603
13	0x397fb669	0.00024386648
14	0xbc2a7892	-0.010404723
15	0xbb23cdc2	-0.0024994467
16	0x3b04ad2e	0.0020244825
17	0x36c2b212	5.8023807e-06
18	0xbb82f4d2	-0.00399647
19	0xb7d6811a	-2.5570906e-05
20	0x3ac72a09	0.0015195023
21	0x3bee9ded	0.00728201
22	0xbb5d0609	-0.003372552
23	0xbb3340f2	-0.0027351943
24	0xbb830bc1	-0.003999204
25	0xbae24923	-0.0017264228
26	0xbae2ca62	-0.0017302746
27	0x3c497b80	0.012297511
28	0x3c441283	0.011967304
29	0x3c23c789	0.009996303
30	0x3933c987	0.00017145845
31	0x3b08dfd5	0.0020885367
32	0xba7769af	-0.00094380503
33	0x3bfa9495	0.007647107
34	0x3b3784ac	0.0028002663
35	0x3af6b872	0.001882328
36	0x3b00ea6e	0.001967098
37	0x3c2101dc	0.0098271035
38	0x3c40fe46	0.0117793735
39	0x3ad1fc9d	0.0016020719
40	0xbc1cd93c	-0.009573277
41	0xbaf412dd	-0.0018621344
42	0xbb08eaf1	-0.002089199
43	0xb88c2aac	-6.6836685e-05
44	0x3b0b93e0	0.0021297857
45	0x3c48980c	0.012243282
46	0x3c434f68	0.011920787
47	0x3ac61c1b	0.0015114577
48	0x3aa7017d	0.0012741532
49	0x3c0965f5	0.008386125
50	0x3b2b26c8	0.0026115645
51	0xb74d66f0	-1.2242919e-05
52	0x3a3884e7	0.0007038847
53	0x3c2ff019	0.010738396
54	0x3b18b180	0.0023299158
55	0x3b154d19	0.002278155
56	0xb6b724fd	-5.458131e-06
57	0x3c0814a4	0.008305702
58	0x3c0804d0	0.008301929
59	0x3c080b2d	0.008303446
60	0xbacab11c	-0.001546416
61	0xb5f298a0	-1.8074825e-06
62	0xb44e3aee	-1.9206684e-07
63	0x32b43476	2.0978614e-08
64	0xbc813a23	-0.015774792
65	0xbb97dd48	-0.004634533
66	0x3ba4bf23	0.005027668
67	0xb69e7022	-4.721821e-06
68	0xb212b76c	-8.540024e-09
69	0x3b691d02	0.0035570269
70	0xbab59fcc	-0.0013856827
71	0xbb40ecb1	-0.0029437954
72	0x00000000	0.0
73	0x00000000	0.0
74	0x38f810bd	0.00011828679
75	0xbb03973a	-0.0020079152
76	0x363e4889	2.8354427e-06
77	0x00000000	0.0
78	0x00000000	0.0
79	0x3946da04	0.00018963969
80	0x00000000	0.0
81	0x00000000	0.0
82	0x00000000	0.0
83	0x00000000	0.0
84	0xb6574dbb	-3.2082742e-06
85	0x00000000	0.0
86	0x00000000	0.0
87	0x00000000	0.0
88	0x00000000	0.0
89	0x3c672e7d	0.014110205
90	0x3c3be2b9	0.011467629
91	0x3a327748	0.00068079354
92	0x3832b418	4.2606232e-05
93	0xb834e1f8	-4.3125794e-05
94	0x3b08ba48	0.0020862985
95	0x3c1715f9	0.009221547
96	0xba94423d	-0.0011311244
97	0x00000000	0.0
98	0x00000000	0.0
99	0x3b8eff58	0.0043639354
100	0x3c7bfd20	0.015380174
101	0x399c510e	0.0002981503
102	0x00000000	0.0
103	0x00000000	0.0
104	0xba112b15	-0.0005537731
105	0x00000000	0.0
106	0x00000000	0.0
107	0x00000000	0.0
108	0x00000000	0.0
109	0xb5181072	-5.6648344e-07
110	0x00000000	0.0
111	0x00000000	0.0
112	0x00000000	0.0
113	0x00000000	0.0
114	0x3c177209	0.009243497
115	0xb9adb7e2	-0.00033134135
116	0x3b092cff	0.002093136
117	0xb96f2808	-0.00022807729
118	0xb96fb371	-0.00022859663
119	0x3c49086d	0.012270075
120	0x3c48b15a	0.012249315
121	0x3bbfd8b9	0.005854693
122	0x00000000	0.0
123	0x00000000	0.0
124	0xb9fbab4d	-0.0004800208
125	0x3bae1b5a	0.005313319
126	0xb9d586f4	-0.00040727074
127	0x00000000	0.0
128	0x00000000	0.0
129	0x2d89c61d	1.5663077e-11
130	0x00000000	0.0
131	0x00000000	0.0
132	0x00000000	0.0
133	0x00000000	0.0
134	0x2d8cfaac	1.6027478e-11
135	0x00000000	0.0
136	0x00000000	0.0
137	0x00000000	0.0
138	0x00000000	0.0
139	0x3cbe17c5	0.023204694
140	0xba14162a	-0.00056490547
141	0xbaf2c7c9	-0.0018522675
142	0xbb259421	-0.0025265294
143	0xbb2c84e1	-0.002632432
144	0xbb2ca273	-0.0026341944
145	0xbb258b6f	-0.002526011
146	0xbb270c68	-0.0025489572
147	0xbb258a9a	-0.0025259615
148	0xbb258abe	-0.0025259699
149	0x3353bba8	4.9297938e-08
150	0x3271001e	1.4028073e-08
151	0xbabb4967	-0.0014288843
152	0xbabb83d7	-0.0014306259
153	0xbaad55c9	-0.0013224419
154	0xb7bc7023	-2.2463564e-05
155	0xbaad748f	-0.001323359
156	0xbaad74d9	-0.0013233676
157	0xbaad7497	-0.0013233599
158	0xbb2593c6	-0.0025265082
159	0xb2314ab3	-1.0319741e-08
160	0x3387be0e	6.320998e-08
161	0x32bc7990	2.194136e-08
162	0xbb2ca2cc	-0.0026342152
163	0xbb2ca1f5	-0.002634165
164	0xbb2ca219	-0.0026341735
165	0xbb2ca251	-0.0026341865
166	0xb61abb3a	-2.3056768e-06
167	0xbb2c858e	-0.0026324722
168	0xbb2ca2cb	-0.002634215
169	0xbb2ca2ef	-0.0026342233
170	0xbaad55c9	-0.0013224419
171	0x35092505	5.109035e-07
172	0xb7bc9da8	-2.248476e-05
173	0xbb270d3d	-0.0025490068
174	0xbb2593ca	-0.002526509
175	0xbb25766e	-0.0025247592
176	0xbab06a88	-0.0013459483
177	0xbb258b34	-0.0025259973
178	0xbaad55cf	-0.0013224425
179	0xb7cad03f	-2.4177249e-05
180	0xbb258a9a	-0.0025259615
181	0xbb270c68	-0.0025489572
182	0xbaabde32	-0.0013112484
183	0xb8e2d4fa	-0.0001081619
184	0xb7c04d31	-2.2924129e-05
185	0xbb2e47d1	-0.00265931
186	0xbab0a0c2	-0.0013475644
187	0xbb28b184	-0.0025740573
188	0xbb2712a3	-0.0025493286
189	0xbb271222	-0.0025492986
190	0xbb258b93	-0.0025260195
191	0xbb26ee96	-0.0025471798
192	0xbaad66ed	-0.0013229527
193	0xbb2592cd	-0.0025264502
194	0xbab89118	-0.0014081327
195	0xb8e2d080	-0.00010815356
196	0xbb2cab7f	-0.0026347337
197	0xbb2cab5c	-0.0026347255
198	0x32699ef1	1.3598524e-08
199	0xbb26eef5	-0.002547202
200	0xbb270c0b	-0.0025489356
201	0xbb270c68	-0.0025489572
202	0xb8e2d0e6	-0.0001081543
203	0x32bc80de	2.1944683e-08
204	0xb20b5502	-8.110193e-09
205	0x32bc80de	2.1944683e-08
206	0xbaa0def6	-0.0012273479
207	0xbb270bfd	-0.0025489323
208	0xba9da0a1	-0.001202602
209	0x2ae577d3	4.0761716e-13
210	0x2ae577d3	4.0761716e-13
211	0xbab3b5ae	-0.0013710761
212	0x2c452c42	2.8019952e-12
213	0x04285621	1.9787854e-36
214	0x00000000	0.0
215	0x00000000	0.0
216	0xb7cf94bf	-2.4745588e-05
217	0xafc89ff6	-3.6493447e-10
218	0xafca2a4a	-3.6773634e-10
219	0x00000000	0.0
220	0x00000000	0.0
221	0xb7cf94cc	-2.4745612e-05
222	0x00000000	0.0
223	0x00000000	0.0
224	0x00000000	0.0
225	0x00000000	0.0
226	0xb5e9c8d2	-1.7418299e-06
227	0x00000000	0.0
228	0x00000000	0.0
229	0x00000000	0.0
230	0x00000000	0.0
231	0xbb2cce53	-0.0026368096
232	0xbabbcbf3	-0.0014327749
233	0xbabecf89	-0.00145577
234	0xb8b2bd7b	-8.522995e-05
235	0x00000004	6e-45
236	0xba9de843	-0.0012047369
237	0xb5a95614	-1.2616533e-06
238	0xb7cfc386	-2.476737e-05
239	0x00000000	0.0
240	0x00000000	0.0
241	0xbaa0c189	-0.0012264709
242	0xb7c0e6f9	-2.2995739e-05
243	0xb7c0e66c	-2.2995482e-05
244	0x00000000	0.0
245	0x00000000	0.0
246	0xba9dbf99	-0.001203525
247	0x00000000	0.0
248	0x00000000	0.0
249	0x00000000	0.0
250	0x00000000	0.0
251	0xaba4873f	-1.1690439e-12
252	0x00000000	0.0
253	0x00000000	0.0
254	0x00000000	0.0
255	0x00000000	0.0

exp_avg_sq f4 [128, 142]
0	0x3bb9e334	0.0056728367
1	0x3c47b386	0.012188798
2	0x3c33d459	0.010975921
3	0x3c1dddb5	0.009635379
4	0x3c1f7e61	0.009734721
5	0x3bd11ada	0.006381375
6	0x3bb28292	0.005447694
7	0x3bbb3ef0	0.00571429
8	0x3bc010f9	0.0058613983
9	0x3c341405	0.010991101
10	0x3c120cbb	0.008914168
11	0x3bd1dcf5	0.006404514
12	0x3c131291	0.008976595
13	0x3c16a894	0.009195466
14	0x3c23b3b2	0.009991573
15	0x3bf24c6f	0.0073943655
16	0x3c0520da	0.008125508
17	0x3bfbfbc3	0.0076899244
18	0x3bd46dc2	0.0064828107
19	0x3beb36c9	0.0071781618
20	0x3bf439e7	0.0074531916
21	0x3c081b05	0.008307223
22	0x3c22baac	0.009932201
23	0x3be22c3b	0.0069022453
24	0x3bee4422	0.0072713057
25	0x3c14282c	0.009042781
26	0x3bf8c124	0.0075913835
27	0x3c4e3a49	0.012587138
28	0x3c3eafaa	0.011638561
29	0x3c249f8d	0.0100478055
30	0x3bd0fb32	0.006377601
31	0x3bb21ca5	0.0054355436
32	0x3c1bd43b	0.009511049
33	0x3c161966	0.009161329
34	0x3c24fd3b	0.0100701405
35	0x3c555729	0.013021269
36	0x3c1cf824	0.009580646
37	0x3c209438	0.009800963
38	0x3bbd5ef7	0.005779143
39	0x3bbecce3	0.0058227642
40	0x3c503f52	0.012710409
41	0x3c398c1f	0.011324911
42	0x3c4a9a2b	0.012365858
43	0x3bf20e5a	0.0073869647
44	0x3c229548	0.009923287
45	0x3bf60e64	0.0075090397
46	0x3bda9e2c	0.0066716876
47	0x3ba7ab45	0.0051168525
48	0x3c2e9c4f	0.010657384
49	0x3c099a33	0.00839858
50	0x3c1b5334	0.009480286
51	0x3b7b8966	0.0038381456
52	0x3beda5a1	0.0072524105
53	0x3bce9a33	0.006305003
54	0x3ba76659	0.0051086363
55	0x3b849ce1	0.0040470217
56	0x3bf87075	0.0075817653
57	0x3baf685e	0.0053530177
58	0x3bf6e998	0.0075351708
59	0x3b295c62	0.0025842418
60	0x3be83f18	0.0070875995
61	0x3ba2acd2	0.0049644494
62	0x3b95a9b5	0.00456735
63	0x3b2cdce2	0.0026376774
64	0x3c222279	0.009895914
65	0x3c02a456	0.007973751
66	0x3baee157	0.005336921
67	0x3ad793e6	0.0016447275
68	0x3a14c11a	0.00056745263
69	0x3c1ca7bd	0.009561476
70	0x3be548e0	0.006997213
71	0x3ba0ad29	0.004903455
72	0x00000000	0.0
73	0x00000000	0.0
74	0x3bb9b38e	0.0056671565
75	0x3b4affb6	0.003097517
76	0x3b2cab8d	0.002634737
77	0x00000000	0.0
78	0x00000000	0.0
79	0x3addcc51	0.0016921853
80	0x00000000	0.0
81	0x00000000	0.0
82	0x00000000	0.0
83	0x00000000	0.0
84	0x3a895513	0.0010477625
85	0x00000000	0.0
86	0x00000000	0.0
87	0x00000000	0.0
88	0x00000000	0.0
89	0x3c4d274d	0.012521577
90	0x3c1aa747	0.009439296
91	0x3bdee5d0	0.006802298
92	0x3a20e9dc	0.00061383634
93	0x39a67fc4	0.0003175718
94	0x3c235e2b	0.009971182
95	0x3c003b78	0.007826678
96	0x3ba89b59	0.005145472
97	0x00000000	0.0
98	0x00000000	0.0
99	0x3bed3b6a	0.0072397487
100	0x3baad8b9	0.0052138236
101	0x3b28a0c2	0.0025730585
102	0x00000000	0.0
103	0x00000000	0.0
104	0x3adfa7cc	0.0017063557
105	0x00000000	0.0
106	0x00000000	0.0
107	0x00000000	0.0
108	0x00000000	0.0
109	0x3ac02435	0.0014659228
110	0x00000000	0.0
111	0x00000000	0.0
112	0x00000000	0.0
113	0x00000000	0.0
114	0x3c1b2c21	0.00947097
115	0x3bbcbfe9	0.005760182
116	0x3b9a8053	0.0047150045
117	0x39eb23f3	0.00044849477
118	0x39c159d4	0.00036878756
119	0x3c031fb6	0.008003166
120	0x3bed6fcf	0.0072459946
121	0x3b817926	0.0039512096
122	0x00000000	0.0
123	0x00000000	0.0
124	0x3bced80b	0.0063123754
125	0x3b6031ec	0.0034209443
126	0x3b4fbc3a	0.0031697885
127	0x00000000	0.0
128	0x00000000	0.0
129	0x3a096e07	0.00052425306
130	0x00000000	0.0
131	0x00000000	0.0
132	0x00000000	0.0
133	0x00000000	0.0
134	0x39af95a6	0.00033490098
135	0x00000000	0.0
136	0x00000000	0.0
137	0x00000000	0.0
138	0x00000000	0.0
139	0x3e19b69a	0.15011063
140	0x3c1a8916	0.009432098
141	0x3ed10bd4	0.40829337
142	0x3b1c054c	0.0023806868
143	0x3b88d497	0.0041757333
144	0x3b8d5559	0.0043131527
145	0x3b6f0da5	0.0036476639
146	0x3b5366d5	0.0032257338
147	0x3b1dd391	0.0024082402
148	0x3b0841d5	0.0020791192
149	0x3aaaa61d	0.0013019476
150	0x3b200740	0.0024418384
151	0x3b80a5e7	0.003926027
152	0x3b75a3b5	0.003748161
153	0x3b577995	0.0032878865
154	0x3b5b057e	0.0033420022
155	0x3b5ef1d4	0.0034018653
156	0x3b7ea511	0.0038855711
157	0x3b1d2dbc	0.0023983559
158	0x3b83c427	0.004021186
159	0x3b644ceb	0.0034835886
160	0x3b7494f6	0.0037320233
161	0x3b74e197	0.0037365907
162	0x3b572729	0.0032829738
163	0x3b3f2c22	0.0029170592
164	0x3b5b30be	0.00334458
165	0x3b15914f	0.0022822206
166	0x3b3d4276	0.0028878725
167	0x3b7ef545	0.0038903516
168	0x3b5d02a9	0.003372351
169	0x3b9ff6c3	0.004881711
170	0x3b510215	0.003189211
171	0x3b803d0a	0.0039135264
172	0x3b6af481	0.0035851302
173	0x3b6e9b27	0.0036408396
174	0x3b829cb0	0.0039859638
175	0x3b7bdb24	0.0038430179
176	0x3b54028a	0.0032350146
177	0x3b818bff	0.0039534564
178	0x3b7417d8	0.0037245657
179	0x3b7dabf5	0.003870723
180	0x3b49ccb5	0.003079218
181	0x3b1c182d	0.002381812
182	0x3b8ae2bc	0.0042384546
183	0x3b937c47	0.004500899
184	0x3b8b15e8	0.004244555
185	0x3b529c72	0.0032136706
186	0x3b6bb046	0.0035963221
187	0x3b54eaad	0.003248851
188	0x3b5dd66b	0.0033849727
189	0x3b16d321	0.0023014026
190	0x3b7fdac4	0.0039040307
191	0x3b762368	0.0037557725
192	0x3b47fea9	0.003051678
193	0x3b1a5a9b	0.002355254
194	0x3b4537e0	0.0030093119
195	0x3b377d74	0.002799836
196	0x3b370f32	0.002793264
197	0x3b22dba7	0.0024850161
198	0x3b4ca4cf	0.0031226163
199	0x3b1c9fa1	0.0023898857
200	0x3b414f30	0.0029496662
201	0x3af7a34b	0.001889327
202	0x3b2a362d	0.0025972233
203	0x3b16b2a1	0.0022994655
204	0x3b21e135	0.0024700884
205	0x3ac1cad7	0.0014785182
206	0x3b8856dd	0.0041607455
207	0x3b36c8cc	0.002789068
208	0x3aef3133	0.0018248915
209	0x3a2ba108	0.0006547128
210	0x39482f61	0.00019091136
211	0x3b5418b8	0.0032363366
212	0x3af0c9fb	0.0018370742
213	0x3a5c7fa1	0.0008411352
214	0x00000000	0.0
215	0x00000000	0.0
216	0x3b106cc9	0.0022037497
217	0x3a678d39	0.00088329945
218	0x3a4f9513	0.0007918637
219	0x00000000	0.0
220	0x00000000	0.0
221	0x3a273669	0.0006378652
222	0x00000000	0.0
223	0x00000000	0.0
224	0x00000000	0.0
225	0x00000000	0.0
226	0x3a139f00	0.0005631298
227	0x00000000	0.0
228	0x00000000	0.0
229	0x00000000	0.0
230	0x00000000	0.0
231	0x3b8f6ac1	0.0043767397
232	0x3b4d2d48	0.0031307507
233	0x3b20d073	0.0024538308
234	0x3987c68c	0.00025897135
235	0x39191298	0.00014598144
236	0x3b53ddea	0.0032328316
237	0x3b41f53c	0.0029595634
238	0x3b009467	0.0019619705
239	0x00000000	0.0
240	0x00000000	0.0
241	0x3b195749	0.0023397973
242	0x3ac26bcc	0.0014833151
243	0x3a87c151	0.0010357295
244	0x00000000	0.0
245	0x00000000	0.0
246	0x3a3b3224	0.00071409554
247	0x00000000	0.0
248	0x00000000	0.0
249	0x00000000	0.0
250	0x00000000	0.0
251	0x3a22c617	0.0006209327
252	0x00000000	0.0
253	0x00000000	0.0
254	0x00000000	0.0
255	0x00000000	0.0

exp_avg f4 [128]
0	0xba21d06c	-0.000617272
1	0xbb2ca219	-0.0026341735
2	0x350a7644	5.1581105e-07
3	0xbb548915	-0.003243034
4	0x3bd93b08	0.0066293515
5	0xbc551dae	-0.0130075645
6	0xbc8b849e	-0.01703101
7	0x00000004	6e-45
8	0x3c504bc2	0.012713375
9	0x37ca414c	2.4110683e-05
10	0x98360b44	-2.3528636e-24
11	0x34d6cdac	4.0010252e-07
12	0x2cdeb953	6.3301946e-12
13	0x38af64fb	8.363459e-05
14	0x00000004	6e-45
15	0xad99cbe2	-1.7484628e-11
16	0xba4e3b66	-0.00078671274
17	0x25a9d429	2.9460592e-16
18	0xbbaddec9	-0.005306099
19	0x00000004	6e-45
20	0x00000004	6e-45
21	0x3cbd554d	0.023111964
22	0xbd30ab48	-0.043132097
23	0xbc3b9cf1	-0.011450992
24	0x80000004	-6e-45
25	0xb1dbfe48	-6.4026473e-09
26	0xbcafb8fe	-0.021450516
27	0xa464264d	-4.947206e-17
28	0xbc893add	-0.016751701
29	0x3b3777e8	0.0027995054
30	0x3c093515	0.008374472
31	0x3ca563d3	0.020189201
32	0xbcf279cb	-0.029599091
33	0x3a78158a	0.0009463659
34	0x3b16673f	0.0022949723
35	0xbc63f550	-0.0139134675
36	0xaa8509e0	-2.3632398e-13
37	0x39ded547	0.00042502044
38	0x3c57c1ea	0.013168791
39	0x3b60c46c	0.0034296764
40	0xbcf5c150	-0.029999405
41	0x27fb3dc3	6.9733457e-15
42	0x378597a3	1.5925447e-05
43	0xbb4a6d87	-0.0030888037
44	0x33bca5b5	8.784574e-08
45	0x00000004	6e-45
46	0x00000004	6e-45
47	0x3a80fdc1	0.000984125
48	0xa720322f	-2.2231665e-15
49	0xbc054d09	-0.008136042
50	0x3d07552e	0.033040218
51	0xbc9b037d	-0.018922562
52	0x3b0ecc25	0.002178916
53	0xb09a0af3	-1.1208087e-09
54	0x000056d8	3.1154e-41
55	0xbce236ce	-0.027614024
56	0x00000004	6e-45
57	0xabb9a6f8	-1.3191384e-12
58	0x3c9302b2	0.017945621
59	0xb509c047	-5.131628e-07
60	0x00000004	6e-45
61	0x166ebdc5	1.9285368e-25
62	0xbd370ffb	-0.044692975
63	0x00000004	6e-45
64	0x00000004	6e-45
65	0x3c800b6e	0.01563045
66	0x00000004	6e-45
67	0xbc9a67fa	-0.018848408
68	0xb56a3600	-8.7250373e-07
69	0xbca1525d	-0.019692594
70	0x00000004	6e-45
71	0x3cc0443d	0.023470039
72	0x3afb0ccc	0.0019153594
73	0xbd3a2958	-0.045449585
74	0x3c816c63	0.015798753
75	0x00000004	6e-45
76	0x3bd4b424	0.006491201
77	0xbd188852	-0.03723938
78	0xbbf1208c	-0.007358616
79	0xaf28008a	-1.5279703e-10
80	0xaf59e850	-1.9818569e-10
81	0xbd069a48	-0.032861978
82	0xbce91ca5	-0.028456042
83	0xbb7d7ba7	-0.003867844
84	0xa6458ff2	-6.8543187e-16
85	0xba84a1f8	-0.0010119071
86	0xbc2c4a1c	-0.010515716
87	0x19107e31	7.47011e-24
88	0x38e11697	0.00010733044
89	0x3bcce53b	0.0062529123
90	0xbb2533e0	-0.0025207922
91	0x354aa32d	7.5488316e-07
92	0x33d527ab	9.925801e-08
93	0x99dd70cd	-2.2896424e-23
94	0xbc0f7842	-0.008756699
95	0x00000004	6e-45
96	0x80000004	-6e-45
97	0x1a460be3	4.0955042e-23
98	0x3aa59153	0.0012631811
99	0xbb0aff90	-0.0021209456
100	0x328891cc	1.5898785e-08
101	0x001a83d7	2.435018e-39
102	0x00000004	6e-45
103	0x00000004	6e-45
104	0xba1f7c7b	-0.00060839177
105	0xbbf905c5	-0.0075995647
106	0xaf84af24	-2.4135105e-10
107	0x2f9cacd7	2.8499045e-10
108	0x00000004	6e-45
109	0x00000004	6e-45
110	0x80000004	-6e-45
111	0xbc6b041c	-0.0143442415
112	0x3b1b1bc1	0.0023667666
113	0x3844b7bd	4.690116e-05
114	0x30024be0	4.740155e-10
115	0x34e3d81e	4.243929e-07
116	0xbd05860b	-0.032598536
117	0xbc5af04c	-0.013362955
118	0xbc5b6a3e	-0.013392029
119	0xb48cd4a5	-2.623175e-07
120	0xbc79dc8e	-0.015250338
121	0x00000004	6e-45
122	0x3c0bfdea	0.008544425
123	0x2c866854	3.820092e-12
124	0x00000004	6e-45
125	0x00000004	6e-45
126	0xb19d1d1f	-4.572612e-09
127	0x357ce212	9.420629e-07

exp_avg_sq f4 [128]
0	0x3c93de9d	0.018050486
1	0x3bd17461	0.0063920473
2	0x37ec4fdd	2.8170582e-05
3	0x398e4923	0.00027138842
4	0x3cb13089	0.021629589
5	0x3c2375ee	0.009976847
6	0x3c75e334	0.015007783
7	0x36cae414	6.046621e-06
8	0x3c5d229c	0.013497021
9	0x3b8c5bd3	0.0042834072
10	0x39ce721d	0.00039376403
11	0x3869d295	5.574765e-05
12	0x3a38ea6f	0.00070539763
13	0x3c51f016	0.012813589
14	0x37baefb6	2.2284552e-05
15	0x38c614ba	9.445236e-05
16	0x3876465f	5.871651e-05
17	0x398a2994	0.0002635239
18	0x3c52b2fe	0.012860058
19	0x390034da	0.0001222672
20	0x37944a2c	1.7677514e-05
21	0x3af79ae5	0.0018890767
22	0x3cafea7d	0.021474117
23	0x3ca21ba5	0.019788573
24	0x37cc2f84	2.4340821e-05
25	0x3947b90e	0.00019047057
26	0x3cba4523	0.022738045
27	0x399bb1ca	0.00029696367
28	0x3c6ab92a	0.014326373
29	0x3ca471c0	0.020073771
30	0x3bffe38b	0.0078091077
31	0x3cd3db5d	0.025861437
32	0x3c786f2e	0.015163226
33	0x3a05470a	0.0005084133
34	0x3c6924a6	0.014229929
35	0x3c7d5aad	0.015463513
36	0x398ded1f	0.00027070285
37	0x3913c59a	0.00014092625
38	0x3c8ac831	0.016941162
39	0x3ccd766f	0.025080888
40	0x3c41f1ee	0.011837466
41	0x39c7c47c	0.0003810263
42	0x3bea15a7	0.0071436944
43	0x3cb4e74f	0.022082953
44	0x3997534a	0.0002886302
45	0x38cb80da	9.703795e-05
46	0x37c682bb	2.3664315e-05
47	0x3cb2a72d	0.021808231
48	0x39f6cd62	0.00047073798
49	0x3c878626	0.01654346
50	0x3ccba582	0.024859194
51	0x3c6ce68d	0.014459264
52	0x39a6e69f	0.00031833813
53	0x3a4cef0c	0.0007817603
54	0x3b811a71	0.0039399196
55	0x3baa3ad5	0.0051950016
56	0x38cfde3a	9.911922e-05
57	0x3a87627c	0.0010329033
58	0x3c3ec3b8	0.011643343
59	0x3a938692	0.0011255315
60	0x36885415	4.0629043e-06
61	0x39003bd1	0.00012229315
62	0x3cab09f3	0.020878768
63	0x37c9a7be	2.4039178e-05
64	0x39e73eb0	0.0004410646
65	0x3bca8daa	0.0061814385
66	0x372b051f	1.0193587e-05
67	0x3c91c523	0.017794197
68	0x3957f877	0.00020596558
69	0x3c51b8ef	0.012800439
70	0x37064e53	8.005259e-06
71	0x3bfe9314	0.007768998
72	0x3952dcb1	0.00020109375
73	0x3c40d5d5	0.0117697315
74	0x3c92e505	0.01793147
75	0x371727fd	9.009612e-06
76	0x38eccde5	0.00011291708
77	0x3cc24dd3	0.02371875
78	0x3c9b47b4	0.01895509
79	0x3b0cefb5	0.0021505181
80	0x3a185275	0.0005810627
81	0x3c9cd146	0.019142758
82	0x3c99d2d9	0.018777298
83	0x3c801a76	0.015637618
84	0x3a92380b	0.0011155618
85	0x3c158dab	0.009128015
86	0x3c69f942	0.014280619
87	0x397d7f7c	0.00024175452
88	0x3c28db04	0.010306124
89	0x3c9fc8e1	0.019504966
90	0x3cb38468	0.021913722
91	0x3955b1d6	0.00020379512
92	0x398a2243	0.00026346938
93	0x391df1a9	0.00015062712
94	0x3c62cc0d	0.013842595
95	0x39818e6a	0.00024710904
96	0x36d07d8e	6.2134995e-06
97	0x3be41ee6	0.006961691
98	0x3c69b027	0.014263189
99	0x3c374eb1	0.011188195
100	0x3991e5da	0.00027827808
101	0x38ea305a	0.00011166996
102	0x369ea34d	4.7277777e-06
103	0x37a0c996	1.9167357e-05
104	0x3c3d6f9a	0.011562252
105	0x3c9fad70	0.019491881
106	0x39c68307	0.00037863126
107	0x3a0b9e66	0.00053260324
108	0x35765c8e	9.1776826e-07
109	0x384c9715	4.8778096e-05
110	0x37be0c56	2.265551e-05
111	0x3c9dcd35	0.01926289
112	0x3c6dee05	0.01452208
113	0x3c213526	0.009839332
114	0x39a47c1f	0.00031372995
115	0x37ccc329	2.4409574e-05
116	0x3cc36ef9	0.023856627
117	0x3b97a8a6	0.0046282588
118	0x3cc52751	0.0240666
119	0x3aa38b14	0.0012477362
120	0x3c4cc19e	0.012497334
121	0x368261c7	3.8856847e-06
122	0x3b966a0b	0.004590278
123	0x3ae58793	0.0017511718
124	0x3909181d	0.00013074321
125	0x379b2e36	1.8498959e-05
126	0x3a079a38	0.00051728217
127	0x3c0b96b1	0.008519814

exp_avg f4 [192, 128]
0	0x370e3797	8.476803e-06
1	0x30dbb5d3	1.5986025e-09
2	0x2ef654b9	1.12018346e-10
3	0x3576ce0f	9.1941996e-07
4	0x369d402b	4.6864347e-06
5	0x34c66c87	3.6959338e-07
6	0x37415bd5	1.1525078e-05
7	0x00000004	6e-45
8	0x37673bcd	1.3782596e-05
9	0x00000037	7.7e-44
10	0x0de64c97	1.4193283e-30
11	0x2db13213	2.0144808e-11
12	0x11c63d09	3.1276508e-28
13	0x375ee5cf	1.3285738e-05
14	0x00000004	6e-45
15	0x2693517d	1.0222261e-15
16	0x35b99c09	1.3828986e-06
17	0x022df75d	1.2781022e-37
18	0x37927601	1.7459506e-05
19	0x00000004	6e-45
20	0x00000004	6e-45
21	0x360c1bd2	2.087782e-06
22	0x3731bc10	1.0593809e-05
23	0x37a25cb8	1.935508e-05
24	0x80000004	-6e-45
25	0x2a472dd9	1.7690657e-13
26	0x37363aa7	1.0861701e-05
27	0x1eb38b57	1.9009992e-20
28	0x3721901e	9.629903e-06
29	0x3597edbd	1.1319568e-06
30	0x3050a439	7.5903334e-10
31	0x36e91753	6.9466564e-06
32	0x377416e1	1.454886e-05
33	0x35a5165b	1.2299964e-06
34	0x37a5d70b	1.976967e-05
35	0x372bfb8e	1.0250964e-05
36	0x0f039f73	6.4895075e-30
37	0x11b6108d	2.8724737e-28
38	0x34eb7e77	4.3864176e-07
39	0x377243b3	1.44400865e-05
40	0x36c96bc2	6.0028115e-06
41	0x230c86b3	7.617939e-18
42	0x2d63a012	1.2938999e-11
43	0x37ab48e0	2.0418724e-05
44	0x2be238cf	1.6074033e-12
45	0x00000004	6e-45
46	0x00000004	6e-45
47	0x37fa1671	2.9812772e-05
48	0x10d12b28	8.250246e-29
49	0x36852b7c	3.968771e-06
50	0x371a5ac2	9.2002465e-06
51	0x35d7d278	1.6080003e-06
52	0x35209072	5.981484e-07
53	0x2944dad0	4.3710532e-14
54	0x00000004	6e-45
55	0x36e5b809	6.8461563e-06
56	0x00000004	6e-45
57	0x1606e0fc	1.0895426e-25
58	0x35def9e8	1.6613021e-06
59	0x2832c514	9.9237194e-15
60	0x00000004	6e-45
61	0x0f8c7d24	1.3853268e-29
62	0x37403e8e	1.1458656e-05
63	0x00000004	6e-45
64	0x00000004	6e-45
65	0x3702eb87	7.803442e-06
66	0x00000004	6e-45
67	0x3797d46b	1.8099518e-05
68	0x2ed2847a	9.573227e-11
69	0x37628a33	1.3502827e-05
70	0x00000004	6e-45
71	0x3746ddd0	1.1853364e-05
72	0x1bdc0886	3.6401455e-22
73	0x36fef6c2	7.5985163e-06
74	0x3714e994	8.875872e-06
75	0x00000004	6e-45
76	0x348c2451	2.6103456e-07
77	0x368462ac	3.9453935e-06
78	0x3782e2a5	1.5602747e-05
79	0x282e0c07	9.661548e-15
80	0x289cde23	1.7415816e-14
81	0x365f2366	3.3250194e-06
82	0x378becce	1.6680362e-05
83	0x3721ceea	9.644524e-06
84	0x00000004	6e-45
85	0x2dc25e3b	2.2097093e-11
86	0x372268f1	9.680386e-06
87	0x10e7a4d8	9.1367417e-29
88	0x00000004	6e-45
89	0x3738a198	1.1004879e-05
90	0x379c1021	1.860416e-05
91	0x2278aac2	3.3700666e-18
92	0x220df94a	1.9241036e-18
93	0x00000004	6e-45
94	0x379f497d	1.8988498e-05
95	0x00000004	6e-45
96	0x80000004	-6e-45
97	0x00000004	6e-45
98	0x35e38ad9	1.6953228e-06
99	0x368ead38	4.252095e-06
100	0x00000004	6e-45
101	0x00000004	6e-45
102	0x80000004	-6e-45
103	0x00000004	6e-45
104	0x32f00db0	2.7945902e-08
105	0x37ab97de	2.0455507e-05
106	0x287ed9e1	1.4147077e-14
107	0x2458b971	4.699461e-17
108	0x80000004	-6e-45
109	0x00000004	6e-45
110	0x80000004	-6e-45
111	0x351a3546	5.7446994e-07
112	0x3467af16	2.1577247e-07
113	0x290e0621	3.153565e-14
114	0x00000004	6e-45
115	0x2c1af4b7	2.202056e-12
116	0x3782fb04	1.5614096e-05
117	0x3134a3dd	2.6286593e-09
118	0x37453848	1.1755219e-05
119	0x2eae570f	7.9280686e-11
120	0x35d8b10d	1.6144783e-06
121	0x00000004	6e-45
122	0x360ca4c0	2.0957523e-06
123	0x235df762	1.2032819e-17
124	0x00000004	6e-45
125	0x00000004	6e-45
126	0x2b11c5fa	5.1789096e-13
127	0x2204a5ca	1.7977104e-18
128	0x3d566771	0.052344743
129	0xb86bd6cc	-5.622841e-05
130	0xb5b66b4c	-1.3591284e-06
131	0x3b0dd501	0.0021641853
132	0x3ca9723a	0.02068435
133	0x3be8c4af	0.0071035246
134	0x3d6d0960	0.05787027
135	0x00000004	6e-45
136	0x3cce8b6d	0.025212968
137	0x00003633	1.9443e-41
138	0x12f5e3c0	1.5517818e-27
139	0xb48338a5	-2.4441866e-07
140	0x9dc20023	-5.1351514e-21
141	0x3d77eada	0.060526706
142	0x80000004	-6e-45
143	0x2b8d3774	1.0034044e-12
144	0x3c070c91	0.008242742
145	0x876d3a5b	-1.7847047e-34
146	0x3d971937	0.07377856
147	0x80000004	-6e-45
148	0x80000004	-6e-45
149	0x3a36e1d3	0.00069763995
150	0x3cf3d7f0	0.029766053
151	0x3d5eef1d	0.054427255
152	0x00000004	6e-45
153	0x2fa2a1cf	2.95826e-10
154	0x3ccada12	0.024762187
155	0x241926a2	3.320931e-17
156	0x3d1e2141	0.038605932
157	0x3c55d950	0.0130523
158	0xbb3f0c91	-0.0029151777
159	0x3cec1733	0.028819656
160	0x3d290075	0.0412602
161	0x3b33974a	0.0027403408
162	0x3d86496a	0.06556971
163	0x3c69ec30	0.014277503
164	0x94a53f0f	-1.6685615e-26
165	0x162c3b70	1.3912805e-25
166	0x3c05e740	0.00817281
167	0x3d0eda37	0.034876075
168	0xb9f8a512	-0.00047425233
169	0x80000004	-6e-45
170	0xb48a206f	-2.5728102e-07
171	0x3dc044db	0.09388133
172	0xb37751a3	-5.7583417e-08
173	0x00000004	6e-45
174	0x80000004	-6e-45
175	0x3dcb646e	0.09931265
176	0x16a08611	2.5934002e-25
177	0x3d0ed6c4	0.034872785
178	0x3cfdf720	0.031001627
179	0xbbcb861e	-0.0062110564
180	0x3ab60a3a	0.0013888546
181	0x2e3d770f	4.307937e-11
182	0x00000004	6e-45
183	0x3c9a2c7f	0.018820046
184	0x80000004	-6e-45
185	0x1b7b58b3	2.0790894e-22
186	0xbb1f7859	-0.0024333207
187	0x2d2b5d98	9.741007e-12
188	0x00000004	6e-45
189	0x1527b09a	3.3864695e-26
190	0x3ce2f73e	0.027705785
191	0x00000004	6e-45
192	0x80000004	-6e-45
193	0xba126886	-0.0005585033
194	0x00000004	6e-45
195	0x3d594de7	0.05305281
196	0xb59be5cd	-1.1615281e-06
197	0x3d3ca135	0.046052177
198	0x00000004	6e-45
199	0x3cbed4d7	0.02329485
200	0x21045eb2	4.484867e-19
201	0x3d83e685	0.064404525
202	0x3d0924a5	0.033482213
203	0x00000004	6e-45
204	0x3a64e97b	0.0008732301
205	0x3bc5e2c2	0.0060389945
206	0x3d469e42	0.04849077
207	0x2d263f58	9.450073e-12
208	0x2d95d67c	1.7034589e-11
209	0x3b1c88be	0.0023885216
210	0x3d345745	0.04402854
211	0x3cf57fcf	0.02996817
212	0x00000004	6e-45
213	0x299a4c00	6.852158e-14
214	0x3cc44b18	0.023961589
215	0x16b1c5b6	2.8720665e-25
216	0x80005545	-3.0589e-41
217	0x3d5903dc	0.052982196
218	0x3d4b61b1	0.049653713
219	0x28eebcff	2.6505272e-14
220	0x28884e12	1.513289e-14
221	0x00000004	6e-45
222	0x3d994f80	0.074858665
223	0x80000004	-6e-45
224	0x80000004	-6e-45
225	0x8000392e	-2.0512e-41
226	0x3b28a778	0.0025734585
227	0x3c25d041	0.010120452
228	0x80000004	-6e-45
229	0x00000004	6e-45
230	0x00000004	6e-45
231	0x00000004	6e-45
232	0x38007c0c	3.0633106e-05
233	0x3da2acb1	0.079430945
234	0x2d736e2c	1.3837414e-11
235	0xab685989	-8.254721e-13
236	0x80000004	-6e-45
237	0x00000004	6e-45
238	0x00000004	6e-45
239	0x3bdf8cf9	0.006822225
240	0x3b7b2135	0.0038319353
241	0xafb196c5	-3.230324e-10
242	0x00000004	6e-45
243	0xb33eb618	-4.4403436e-08
244	0x3d6be934	0.057595447
245	0xb984b681	-0.00025312978
246	0x3dab2709	0.08357055
247	0xb5811b4c	-9.619193e-07
248	0x3ae3d9a2	0.0017383585
249	0x80000004	-6e-45
250	0x3c818f57	0.01581542
251	0xab2f544b	-6.228947e-13
252	0x80000004	-6e-45
253	0x00000004	6e-45
254	0x301cdc3d	5.7065447e-10
255	0xa7918bdb	-4.0397216e-15
