weights/policy_checkpoint1400.pt (torch, 522983 bytes, 12 tensors)

net.0.weight f4 [128, 142]
0	0x3db49890	0.088181615
1	0x3dfc82fd	0.123296715
2	0x3c4da2be	0.012551008
3	0x3dff6a6c	0.1247147
4	0x3d582dd2	0.052778073
5	0x3dd3b45b	0.103371345
6	0x3d89a674	0.067212015
7	0x3ddfdbb6	0.109305784
8	0x3d9862a5	0.0744069
9	0x3b3e92fc	0.0029079309
10	0x3dc4a8ed	0.096025325
11	0x3d8536d3	0.065045975
12	0x3da2303f	0.079193585
13	0x3d2f43f1	0.042789403
14	0x3ddc4541	0.10755397
15	0x3d95f7df	0.07322668
16	0x3d76ee7c	0.06028603
17	0x3d3c9400	0.04603958
18	0xbd2fb865	-0.04290046
19	0x3ccc8f79	0.024970757
20	0xbc9bc85f	-0.019016443
21	0x3d89c1f9	0.067264505
22	0x3d1adebb	0.03781007
23	0x3e0f331a	0.13984337
24	0xbd67c09d	-0.056580175
25	0xbccb2eed	-0.02480265
26	0x3cb48477	0.02203582
27	0xbd389b77	-0.045070138
28	0x3d012ca2	0.031536706
29	0xbdaaeb8c	-0.08345708
30	0x3e11bc83	0.14232068
31	0xbbf68ea9	-0.0075243306
32	0x3dd78592	0.105235234
33	0x3d6edbdb	0.05831514
34	0x3bcc2a45	0.006230625
35	0x3dab640d	0.083686925
36	0x3d12bbdb	0.035823684
37	0x3de8a358	0.1135928
38	0x3ca45bdd	0.020063335
39	0x3cd160f2	0.025558922
40	0x3dfc0763	0.123060964
41	0x3c0817ec	0.008306485
42	0x3e02360c	0.1271593
43	0x3dfdcf20	0.123930216
44	0x3df579dd	0.11986134
45	0x3d38fc45	0.045162458
46	0x3e0c7ba2	0.13719037
47	0x3d978403	0.07398226
48	0x3dad3afe	0.084585175
49	0x3d103281	0.035204414
50	0xbc8eaba3	-0.017415827
51	0x3d27938c	0.040912196
52	0x3c7d9c7d	0.015479204
53	0x3e41924c	0.18903464
54	0x3dc9ebe1	0.098594435
55	0x3de4075c	0.11134216
56	0x3ccfe075	0.025375584
57	0x3d4e6381	0.050387863
58	0x3e3838c6	0.17990407
59	0x3d54c2c5	0.05194356
60	0x3d7cc6d5	0.06171306
61	0xbc217d8d	-0.009856594
62	0x3de0e3c1	0.109809406
63	0x3d341624	0.043966427
64	0x3d3cef79	0.046126816
65	0xbccc9647	-0.024974002
66	0x3d5061a4	0.050874367
67	0xbd825fde	-0.063659415
68	0xbd88f0e8	-0.06686574
69	0x3c43b3d5	0.011944731
70	0x3e000c7f	0.12504767
71	0x3d76986f	0.060203966
72	0x3da56068	0.08075029
73	0xbd8dd5e8	-0.06925565
74	0xbd6ae423	-0.057346474
75	0xbd956a6c	-0.07295689
76	0xbda5cd22	-0.080957666
77	0x3d0b3953	0.033990216
78	0x3cf62972	0.03004906
79	0x3dfb8a2b	0.12282213
80	0xbd31829e	-0.043337457
81	0xbd6a52ec	-0.057207987
82	0x3d365ffc	0.04452513
83	0xbd0aefca	-0.033920087
84	0x3ca9361c	0.020655684
85	0xbca32253	-0.019913828
86	0x3d44a0ec	0.04800503
87	0xbd858879	-0.06520171
88	0xbd2d766d	-0.042349268
89	0x3e1f7afa	0.15574256
90	0x3deaf2a0	0.11472058
91	0x3d808ef4	0.06277266
92	0x3df405bb	0.119151555
93	0x3de4ead1	0.111776
94	0x3c0a0dcb	0.00842614
95	0xbcafaf12	-0.021445785
96	0x3e170aea	0.14750257
97	0xbce7f871	-0.028316708
98	0xbcf3b705	-0.029750356
99	0x3c7b6e82	0.015346171
100	0x3cb1476b	0.0216405
101	0x3dc774bf	0.097390644
102	0xbc357ab8	-0.011076622
103	0xbd798202	-0.060915
104	0x3da7bf8f	0.08190834
105	0xbd6acb73	-0.05732293
106	0xbd91cf24	-0.07119587
107	0xbd3d474f	-0.046210583
108	0xbd966af2	-0.07344617
109	0x3d8cca73	0.068745516
110	0x3dabcc11	0.08388532
111	0x3c81d7ef	0.015850035
112	0x3cd3d8bf	0.025860189
113	0xbda04b91	-0.07826913
114	0xbc31e117	-0.010856888
115	0x3cd69bd1	0.026197346
116	0x3d44020a	0.047853507
117	0xbccea484	-0.025224932
118	0x3c546e87	0.012965805
119	0xbd8ada02	-0.06779863
120	0x3cd01c72	0.025404189
121	0xbd1795e6	-0.03700819
122	0xbbbe8d32	-0.0058151716
123	0xbd68ebb8	-0.056865424
124	0xbdb9c673	-0.09071054
125	0xbd6fa2e2	-0.058504947
126	0xbd815a47	-0.06316047
127	0xbd87a635	-0.06623498
128	0x3d901a63	0.07036283
129	0xbd376613	-0.04477508
130	0x3d93df1c	0.07220289
131	0x3cd6330d	0.02614739
132	0xbd9188c2	-0.071061626
133	0x3d6ddf53	0.058074307
134	0xbc293b42	-0.01032907
135	0xbd03c29a	-0.03216801
136	0xbd8ea8d7	-0.069657974
137	0xbdaadc5c	-0.083428115
138	0x3cc4b05a	0.024009872
139	0x3d2f41fc	0.042787537
140	0x3de53ab9	0.11192841
141	0xbbca0575	-0.0061652013
142	0x3d84be0c	0.06481561
143	0xbdc326f4	-0.09528914
144	0xbd757455	-0.059925396
145	0xbbe92298	-0.0071147196
146	0x3d519188	0.05116418
147	0x3d963582	0.073344246
148	0x3db0ab11	0.08626378
149	0xbd20ff3e	-0.039305918
150	0x3c931c49	0.017957823
151	0xbd5b9a61	-0.053614024
152	0x3c8e9d34	0.017408945
153	0xbd722fdb	-0.05912767
154	0x3db5b9bc	0.08873317
155	0xbd35b0c8	-0.044358045
156	0x3d9d0e63	0.0766876
157	0x3ca10f70	0.019660681
158	0x3d993da9	0.07482464
159	0x3b44b51f	0.0030015183
160	0x3dffd536	0.12491839
161	0x3d5a9f55	0.053374607
162	0x3d5da22b	0.054109734
163	0xbce269c0	-0.027638316
164	0x3daccffd	0.08438108
165	0xbb498de0	-0.003075473
166	0xbbd7be69	-0.006583978
167	0x3deac04b	0.11462458
168	0x3d825187	0.06363206
169	0x3c5e565c	0.013570394
170	0xbc16568f	-0.009175911
171	0xbb69803c	-0.0035629412
172	0x3dcec005	0.100952186
173	0xbafc8d41	-0.0019268171
174	0xbd1ed622	-0.03877843
175	0xbd4d2736	-0.050086223
176	0xbd81cf4e	-0.06338368
177	0x3d6187dd	0.05506121
178	0x3dab308b	0.08358868
179	0xbda59968	-0.080859005
180	0x3d5f9dd0	0.05459386
181	0x3d953d21	0.0728705
182	0x3d8730d5	0.06601111
183	0xbc9014f1	-0.01758811
184	0x3db9c291	0.09070314
185	0x3e07a4c1	0.13246442
186	0x3d7634fa	0.060109116
187	0x3cfffb08	0.03124763
188	0x3d310dd7	0.04322609
189	0x3d7f3385	0.062304992
190	0x3bd67789	0.0065450114
191	0x3c85a496	0.016313832
192	0x3dae9fd8	0.085265815
193	0x3dd6c408	0.10486609
194	0xbbfa5110	-0.007639058
195	0xba2371c3	-0.00062349084
196	0xbc1f773b	-0.009733017
197	0xbd4b03b9	-0.049564097
198	0x3d556860	0.052101493
199	0x3d50826c	0.05090563
200	0xbca79cef	-0.020460574
201	0x3c9e5706	0.019328605
202	0x3dfe3aec	0.12413582
203	0x3cfdae76	0.030966979
204	0xbca5fb2a	-0.020261366
205	0xbc8ba853	-0.017048037
206	0xbcd698e3	-0.026195949
207	0xbd2add85	-0.041715164
208	0xbccfca52	-0.025365029
209	0x3d4ff5b6	0.050771438
210	0x3dd21e95	0.10259739
211	0x3d885055	0.06655947
212	0xbdbc0437	-0.091804914
213	0xbd9d7a2a	-0.076893166
214	0xbc58fc05	-0.01324368
215	0x3da640be	0.08117817
216	0x3d5c3aab	0.053766888
217	0xbd3c9e8f	-0.04604965
218	0x3cc0ff95	0.023559371
219	0xbd02eb80	-0.03196287
220	0xbd5e7af8	-0.05431649
221	0x3d2b4d56	0.0418218
222	0xbd1c4b47	-0.038157728
223	0xbc89cff6	-0.016822796
224	0xbdaaf8ad	-0.083482124
225	0x3d660c2b	0.056163948
226	0x3c8e0236	0.017335039
227	0x3cfa8ae8	0.030583814
228	0xbd6fac54	-0.058513954
229	0xbda99eaa	-0.08282216
230	0xbd8b95a9	-0.06815655
231	0x3d20872e	0.039191417
232	0x3d5e2632	0.054235645
233	0x3dbe77d6	0.09300201
234	0x3d21b941	0.039483313
235	0xbb380fef	-0.002808567
236	0xbcc7dcf3	-0.024397349
237	0xbd6da79f	-0.058021184
238	0xbd61377b	-0.05498455
239	0xbda0c0ca	-0.078492716
240	0x3d0cb59f	0.034352895
241	0xbd840236	-0.06445734
242	0x3b2a069c	0.002594388
243	0xbd864d5d	-0.065577246
244	0xbc7a8ab8	-0.015291862
245	0xbd71eda2	-0.059064515
246	0xbdd5c7e1	-0.104385145
247	0x3ce4097c	0.027836554
248	0xbccc4f53	-0.024940168
249	0x3d5432d6	0.051806293
250	0xbcdc8ad8	-0.026921675
251	0xbdf72ab3	-0.12068691
252	0xbc7296a7	-0.014806426
253	0xbd269f21	-0.0406791
254	0xbcd25262	-0.025674049
255	0xbda39d36	-0.0798897

net.0.bias f4 [128]
0	0x3e0fde10	0.14049554
1	0x3d12dfa9	0.03585783
2	0x3c965766	0.018352222
3	0x3d8f6398	0.07001418
4	0x3d52679f	0.051368352
5	0x3d3feb34	0.046855167
6	0xbd0acd7e	-0.03388738
7	0xbd9a29f8	-0.07527536
8	0x3cf2da82	0.029645208
9	0x3dbf5c35	0.09343759
10	0x3cc9d4b7	0.024637563
11	0x3c677ae9	0.014128425
12	0xbd3356f0	-0.043784082
13	0x3da4a0e5	0.08038501
14	0xbd964ff0	-0.073394656
15	0xbd4b7839	-0.0496752
16	0x3d5fb67d	0.054617394
17	0xbd93cf16	-0.07217233
18	0xbd64109c	-0.055679902
19	0xbd1e02b7	-0.038576808
20	0x3cbcd2b2	0.023049686
21	0xbdb6cca5	-0.089257516
22	0x3dac7fcf	0.08422815
23	0x3d504f40	0.05085683
24	0xbc884a69	-0.016637044
25	0x3d0d90f4	0.034562066
26	0x3dceeed6	0.10104148
27	0xbd297978	-0.041375607
28	0xbd67aac2	-0.05655933
29	0x3d4f14bc	0.050556883
30	0xbcea7299	-0.028619098
31	0xbd3755e9	-0.044759665
32	0x3c9b3cf7	0.018949969
33	0x3d2d5604	0.04231836
34	0x3cc43d1f	0.023954926
35	0xbb96ffa9	-0.004608114
36	0xbddab94f	-0.10679876
37	0x3a009dd9	0.00049063336
38	0x3dcef17b	0.101046525
39	0x3d28b427	0.04118743
40	0x3da400e3	0.08007982
41	0xbdafa8c5	-0.08577112
42	0x3d35e156	0.04440435
43	0x3d6ef5ad	0.058339763
44	0xbceef418	-0.029169127
45	0xbd0951f9	-0.03352544
46	0xbdab115c	-0.083529204
47	0xbcb94557	-0.022616072
48	0xbd4d8d69	-0.050183687
49	0xbd7fffc1	-0.062499765
50	0xbd767ab3	-0.06017561
51	0x3d67e8cb	0.056618493
52	0xbd48e660	-0.049047828
53	0x3c9e8ac1	0.019353272
54	0x3cfa86c8	0.030581847
55	0xbdaed5ee	-0.085368976
56	0xbd1aa11b	-0.0377513
57	0x3db5dc69	0.088799305
58	0x3d0e3262	0.034716018
59	0x3d9650c1	0.07339621
60	0xbdc73dc5	-0.097285785
61	0x3d7ceaa0	0.061747193
62	0x3b8af4f0	0.0042406246
63	0xbdaa6fa7	-0.08322077
64	0x3c57c313	0.013169068
65	0x3cbd3980	0.023098707
66	0x3c8e7b69	0.01739283
67	0x3d9c5b44	0.07634595
68	0xbd4ce15d	-0.05001961
69	0xbcb54968	-0.02212973
70	0xbda8b066	-0.0823677
71	0x3d4dcbe9	0.050243292
72	0x3b506ac3	0.0031801916
73	0x3d09ca6b	0.033640306
74	0xbc340bc0	-0.01098913
75	0xbdc04d49	-0.09389741
76	0xbc875643	-0.016520625
77	0x3daa0e18	0.083034694
78	0x3d7bfee2	0.061522372
79	0xbb8ce728	-0.004300017
80	0x3c731ab3	0.014837909
81	0x3d0ff31a	0.03514395
82	0xbd15852d	-0.03650396
83	0x3e0aebc7	0.13566504
84	0x3cf32235	0.029679397
85	0x3dea405e	0.11438058
86	0xbdf25fee	-0.118347034
87	0xbccdf1cf	-0.025139717
88	0xbc6e92ab	-0.014561336
89	0x3daac109	0.083376
90	0x3d5cbcec	0.053891107
91	0xbc7b9896	-0.015356204
92	0x3cf4176b	0.029796323
93	0xbd7b64d7	-0.061375465
94	0x3d8939e4	0.06700495
95	0x3d35bacb	0.044367593
96	0xbda5419b	-0.08069154
97	0x3d1bba0f	0.038019236
98	0x3a8a8a36	0.0010569755
99	0xbd44f6ba	-0.04808686
100	0xbd89ca43	-0.067280315
101	0xbdb8734a	-0.09006365
102	0xbda42aa4	-0.080159456
103	0xbd590674	-0.05298467
104	0x3d89741b	0.067115985
105	0x3cfb8a99	0.030705737
106	0x3c7a2172	0.015266763
107	0xbca36018	-0.019943282
108	0xbdb98c19	-0.09059925
109	0xbdd000be	-0.101563916
110	0x3d46d0b1	0.048538867
111	0x3d0a6f0f	0.03379732
112	0x3e07e338	0.13270271
113	0xbd454f73	-0.04817147
114	0xbd976dbc	-0.07393977
115	0xbd14ac91	-0.036297385
116	0x3da7d2bc	0.08194491
117	0xbd2d23b8	-0.042270392
118	0xbd634146	-0.05548217
119	0xbd92ec08	-0.07173926
120	0x3d5e059a	0.05420456
121	0xbd0f5351	-0.034991566
122	0xbd28a118	-0.041169256
123	0x3d61da5e	0.05513989
124	0xbdc136b1	-0.0943426
125	0xbd1ff04a	-0.039047517
126	0xbd759615	-0.059957583
127	0xbca4160a	-0.02003004

net.2.weight f4 [192, 128]
0	0xbd1f2ef1	-0.038863126
1	0xbd7e6376	-0.062106572
2	0x3e256915	0.16153367
3	0xbdee739b	-0.11643144
4	0xbd38d136	-0.045121394
5	0xbd79e19c	-0.061006173
6	0xbdcbb622	-0.099468485
7	0x3db446fd	0.088026024
8	0x3d09c007	0.033630397
9	0x3ce5d7a2	0.028056923
10	0x3ca01058	0.019539043
11	0xbca12dac	-0.019675098
12	0x3c3d4097	0.011551044
13	0xbd0f25d2	-0.034948178
14	0x3d5d426f	0.054018434
15	0xbb69b550	-0.003566105
16	0x3dcc1920	0.0996573
17	0x3cea93e8	0.02863498
18	0xbdbe54ce	-0.09293519
19	0x3d39755c	0.04527794
20	0x3db6f070	0.089325786
21	0xbd023f06	-0.031798385
22	0xbcca88fd	-0.024723524
23	0xbe055001	-0.130188
24	0x3cf400e7	0.029785587
25	0xbdc60b07	-0.09670072
26	0xbda8b336	-0.08237307
27	0x3c9256f0	0.01786372
28	0xbd152cf8	-0.03641984
29	0x3d40de58	0.047087044
30	0xbde78765	-0.11305121
31	0xbdc79645	-0.097454585
32	0xbda12a38	-0.07869381
33	0x3b3a9130	0.0028467886
34	0xbdb6a754	-0.08918634
35	0xbe476f0c	-0.19475955
36	0xbd8aa7e4	-0.06770304
37	0xbd2efc6d	-0.0427212
38	0xbbb22122	-0.0054360786
39	0xbc5d0a70	-0.013491258
40	0xbde74344	-0.11292127
41	0xbda2d19b	-0.07950135
42	0x3cbd1941	0.023083331
43	0xbd9866d1	-0.07441486
44	0xbdde685e	-0.1085975
45	0x3db53aef	0.08849131
46	0xbd98dc3d	-0.07463882
47	0x3b3bd152	0.00286587
48	0xbdb917d3	-0.09037747
49	0xbdc77e41	-0.09740878
50	0xbe01d250	-0.12677884
51	0xbdcd6ce0	-0.10030532
52	0xbdc1d283	-0.0946398
53	0xbdf3e63a	-0.119091466
54	0xbd97f7b5	-0.07420293
55	0xbdef8be5	-0.11696605
56	0x3d31321a	0.04326067
57	0xbdcdb2e9	-0.1004389
58	0xbd88212f	-0.06646954
59	0x3c66421e	0.0140538495
60	0xbd904fed	-0.07046495
61	0xbd03d30a	-0.032183684
62	0xbd955437	-0.07291453
63	0xbd8517cc	-0.064986795
64	0x3ca9aa2c	0.020711027
65	0x3d957a29	0.07298691
66	0x3b8d6fe5	0.0043163174
67	0x3cce0faf	0.025153963
68	0x3c062de4	0.008189652
69	0xbdf230fa	-0.11825748
70	0xbda1a1fe	-0.07892226
71	0xbac4162e	-0.0014960223
72	0xbdc83e40	-0.09777498
73	0x3e2062c3	0.15662675
74	0xbd80c5b2	-0.062877074
75	0x3d6cd0f1	0.05781645
76	0xbcf1b5d2	-0.029505644
77	0xbd0f2318	-0.034945577
78	0xbd9b484a	-0.075821474
79	0x3dbee157	0.09320324
80	0xbde12f9f	-0.10995411
81	0x3d2edadd	0.042689193
82	0xbd41cf87	-0.047317054
83	0xbcce3054	-0.025169529
84	0xbd62224c	-0.05520849
85	0xbbd92701	-0.006626964
86	0x3d8a24ad	0.067452766
87	0xbdb77473	-0.08957758
88	0xbdd82cfb	-0.10555454
89	0x3c19689c	0.00936332
90	0xbd497948	-0.04918793
91	0xbd91385f	-0.0709083
92	0xbb9ad515	-0.0047251084
93	0x3d716b5f	0.058940288
94	0xbd8e1db1	-0.06939257
95	0x3dc977e7	0.09837323
96	0xbdb053c2	-0.086097255
97	0xbd27b4cd	-0.04094391
98	0xbd8d87a3	-0.06910636
99	0xbdb9edde	-0.09078573
100	0xbd872d7d	-0.06600473
101	0xbdfb9689	-0.12284572
102	0x3d8fbbf4	0.07018271
103	0xbd25f69e	-0.040518396
104	0x3e32468a	0.17409721
105	0x3cadfdfe	0.021239277
106	0xbbb7547b	-0.0055947877
107	0xbb007faa	-0.0019607344
108	0xbccd4ccc	-0.025061034
109	0xbd2c2b27	-0.04203334
110	0x3d91ef70	0.07125747
111	0xbcfc5368	-0.03080149
112	0xbcf58c19	-0.02997403
113	0xbe1b2e87	-0.15154468
114	0xbd0ec92a	-0.034859814
115	0x3d93a5a2	0.07209326
116	0xbaa763fa	-0.0012770884
117	0xbdce45d8	-0.100719154
118	0xbdd35766	-0.10319404
119	0xbcfe4181	-0.031037094
120	0xbd06b314	-0.032885626
121	0x3e12f559	0.14351405
122	0xbe0b2be0	-0.13590956
123	0xbc6e2201	-0.014534474
124	0xbe0972eb	-0.13422744
125	0x3e1003ee	0.14063999
126	0xbe0e17d7	-0.13876282
127	0xbdaa5562	-0.08317067
128	0x3c33ad9a	0.010966683
129	0x3cdf3648	0.027247563
130	0xbcad8c2c	-0.021185003
131	0xbcd809c0	-0.026371837
132	0x3d3aa4da	0.04556737
133	0xbd35441f	-0.04425442
134	0x3d3061e8	0.04306212
135	0x3d239870	0.039940298
136	0x3cb538a6	0.022121739
137	0xbd326a4e	-0.04355841
138	0x3dada849	0.084793635
139	0xbbe8b781	-0.0071019535
140	0xbd2fd984	-0.04293205
141	0x3cea28b3	0.02858386
142	0xbd492012	-0.04910285
143	0x3c234cfa	0.009967083
144	0x3d93f62c	0.07224688
145	0x3bd7157f	0.006563842
146	0x3a19da7d	0.0005869044
147	0xbccbb1e7	-0.024865104
148	0xbd9260cd	-0.071473695
149	0xbcbce24d	-0.023057127
150	0x3da1f956	0.07908885
151	0x3d71be6f	0.059019502
152	0xbd354b46	-0.04426124
153	0x3ce43ecf	0.02786198
154	0x3b4eaf2d	0.0031537518
155	0x3d800058	0.062500656
156	0x3d8e4ffc	0.069488496
157	0xbc90175c	-0.017589264
158	0x3c7efb73	0.01556288
159	0x3e0b96ae	0.13631698
160	0x3cbb3f8a	0.022857446
161	0xbd60bae9	-0.05486575
162	0xbceb2eb9	-0.028708803
163	0xbd2be354	-0.041964844
164	0xbd97af9e	-0.07406543
165	0xbd257d07	-0.04040244
166	0x3d458aa6	0.04822793
167	0xb8c877d6	-9.559064e-05
168	0x3d8079fb	0.06273266
169	0xbd8afc0d	-0.06786356
170	0x3d1786b2	0.03699369
171	0x3d092b12	0.03348834
172	0xbd8300cf	-0.063966386
173	0xbc3bfe09	-0.011474141
174	0x3ca0ad6d	0.019613946
175	0xbd6731bf	-0.056443926
176	0x3c49b1ae	0.012310429
177	0x3da29b24	0.07939747
178	0xbd20c96d	-0.039254595
179	0xbc616920	-0.013757974
180	0x3d9b93dd	0.07596562
181	0xbd13e5d8	-0.036107868
182	0xbda1af63	-0.078947805
183	0x3cc6a16b	0.024246892
184	0xbd8520ae	-0.06500374
185	0x3d91419c	0.07092592
186	0xbd2a8309	-0.04162887
187	0x3d2b6878	0.041847676
188	0xbc1674b7	-0.0091831
189	0xbceaf530	-0.028681368
190	0xbcc8c085	-0.024505863
191	0x3d7d643b	0.061863165
192	0xbd5f2d15	-0.054486353
193	0x3d931f83	0.07183745
194	0x3d288841	0.041145567
195	0xbd45661c	-0.048193082
196	0x3d9fc5bf	0.07801389
197	0x3d816bd5	0.063193955
198	0xbd5ed852	-0.054405518
199	0x3c9ae2d6	0.018906992
200	0x3d136296	0.03598269
201	0xbbced15d	-0.006311579
202	0x3db4bcba	0.08825059
203	0xbca2f389	-0.019891517
204	0xbcf56c88	-0.029958978
205	0xbc0d8347	-0.008637256
206	0xbbbff2b6	-0.005857791
207	0x3dc204fa	0.094736055
208	0xbd3d9431	-0.046283904
209	0xbbeebe4f	-0.00728587
210	0xbd47e92e	-0.04880636
211	0x3c66a738	0.014077954
212	0xbce38726	-0.027774405
213	0xbd578f1c	-0.052626714
214	0xbd55bf0c	-0.05218415
215	0xbd084a08	-0.033273727
216	0xbdd42a7a	-0.10359664
217	0x3d39049c	0.04517041
218	0x3c6a6850	0.014307097
219	0xbd20a50a	-0.039219894
220	0x3dbf73b0	0.093482375
221	0x3db4a982	0.088213935
222	0xbcb174cf	-0.021662144
223	0x3d78f858	0.060783714
224	0x3bffc3ef	0.0078053395
225	0x3d9c90ff	0.07644843
226	0xbc8608a5	-0.016361544
227	0xbc9d73fe	-0.019220348
228	0x3d1dadde	0.03849589
229	0xbdf8a134	-0.12140122
230	0x3cad7f94	0.021178998
231	0xbd948226	-0.07251386
232	0xbc9aae5c	-0.01888197
233	0x3c94cfab	0.01816543
234	0xbd42c586	-0.047551654
235	0xbd4959ee	-0.04915803
236	0xbcba110f	-0.022713212
237	0xbb89ad08	-0.004201535
238	0x3ca6bd47	0.020353926
239	0xbd621273	-0.055193376
240	0x3db4725f	0.08810877
241	0xbc872e3e	-0.016501542
242	0xbb414047	-0.0029487775
243	0x3cdd3a34	0.027005292
244	0xbd16b400	-0.036792755
245	0x3c7680ab	0.015045325
246	0xbdb2d774	-0.08732501
247	0xba6e4963	-0.0009089915
248	0xbbc721c7	-0.0060770246
249	0xbd9bd53b	-0.0760903
250	0x3cc0bdc2	0.023527984
251	0xbd9464f4	-0.07245818
252	0xbd7c543b	-0.061603766
253	0xbd7cbdc8	-0.061704427
254	0xbbc93d84	-0.0061413664
255	0xbab0a54e	-0.0013476999

net.2.bias f4 [192]
0	0x3b87efb3	0.0041484474
1	0x3d58a68f	0.052893218
2	0x3d5db7c1	0.05413032
3	0x3c5789ab	0.013155381
4	0x3cd2fe8b	0.025756141
5	0xbbe574a2	-0.007002429
6	0x3c96b659	0.018397497
7	0x3ca0d37f	0.0196321
8	0xbe0bc3fb	-0.1364898
9	0xbbde06ea	-0.0067757266
10	0x3ca08388	0.019593969
11	0xbd0e81f7	-0.034791913
12	0x3bc35041	0.0059604947
13	0xbb993ad1	-0.004676201
14	0x3c368840	0.011140883
15	0x3d7647e9	0.060127173
16	0x3dadd8c4	0.084886104
17	0x3b9ad6d1	0.004725315
18	0x3c8cf0d9	0.017204689
19	0x3e1080ac	0.14111584
20	0xbcb25f2d	-0.021773899
21	0x3c086924	0.008325849
22	0xbd04a632	-0.03238506
23	0x3de5503b	0.11196943
24	0x3d7ffa10	0.062494338
25	0x3d92c780	0.07166958
26	0x3cde0370	0.027101249
27	0x3e29f04f	0.16595577
28	0x3cd25924	0.025677271
29	0x3d328491	0.043583456
30	0xbcaa60b0	-0.020798057
31	0x3d316dc5	0.043317575
32	0x3d5330e9	0.051560316
33	0x3add69f1	0.0016892535
34	0x3d896d94	0.067103535
35	0x3d2be26b	0.041963976
36	0x3d071cd1	0.032986466
37	0x3d906ded	0.07052217
38	0xbd88c494	-0.06678119
39	0xbb11fe0e	-0.0022276673
40	0xbd9fb4dd	-0.07798169
41	0xbc847852	-0.016170654
42	0x3d8ac0fe	0.067750916
43	0x3dda07e0	0.10646033
44	0xba423270	-0.00074080285
45	0xbcd28e6f	-0.025702683
46	0xbdfb2209	-0.12262351
47	0x3b0da08d	0.0021610588
48	0x3dc74957	0.09730785
49	0xbd36edd3	-0.0446604
50	0x3d30d761	0.04317415
51	0x3db189e9	0.086688824
52	0x3c9e7a4b	0.019345423
53	0xb9e788ed	-0.0004416177
54	0x3dbcdb9f	0.09221577
55	0xbcaa942b	-0.020822605
56	0x3c7f4cdf	0.015582292
57	0xbdac7412	-0.08420576
58	0xbaaa8ea0	-0.0013012476
59	0xbd085f45	-0.03329398
60	0x3d0354fd	0.032063473
61	0x3c309e22	0.010779889
62	0x3d8d98d0	0.06913912
63	0xbcce71b6	-0.025200706
64	0xbd94e2be	-0.0726981
65	0xbd526cf5	-0.05137344
66	0xbdaa4df8	-0.083156526
67	0xbd1bee60	-0.03806913
68	0xbc0ae3e8	-0.008477189
69	0xbdb56dc1	-0.088588245
70	0x3de59871	0.112107165
71	0xbd9c269a	-0.0762455
72	0xbcb2a671	-0.021807881
73	0xbbc06aa1	-0.005872086
74	0x3b8b00be	0.004242032
75	0x3d259751	0.04042751
76	0x3d2a5c52	0.04159195
77	0x3d39e1da	0.045381404
78	0x3db90332	0.090338126
79	0x3ce86aa3	0.02837116
80	0x3cac28f8	0.02101563
81	0x3bb8987b	0.0056334115
82	0xbc3189ee	-0.010836108
83	0xbb90121e	-0.004396691
84	0xbcfbf27c	-0.030755274
85	0xbc8ddbac	-0.017316662
86	0x3d0be945	0.03415801
87	0x3d0514a7	0.0324904
88	0xbd91c522	-0.07117678
89	0x3da86dd6	0.082240745
90	0x3d0d6a43	0.034525167
91	0x3dbc8ac9	0.09206159
92	0xbceef794	-0.029170789
93	0x3d89946d	0.06717763
94	0x3c2f5bd4	0.010703046
95	0x3d9a056b	0.07520565
96	0xbc15b1cf	-0.009136631
97	0xbd9ff11b	-0.07809659
98	0xbd9e8113	-0.07739463
99	0xbce23575	-0.02761338
100	0x3c16472e	0.009172244
101	0xbce4b084	-0.0279162
102	0xbc7292e1	-0.0148055265
103	0xbd6800d8	-0.05664143
104	0x3dff669b	0.12470742
105	0x3c0d0502	0.008607151
106	0x3d8d0e6f	0.068875186
107	0xbd2403eb	-0.0400428
108	0x3d8ca174	0.06866732
109	0x3d0658d2	0.03279955
110	0x3c81c493	0.015840804
111	0xbd7b7485	-0.06139042
112	0xbd8102f0	-0.062993884
113	0x3d9d1dd3	0.07671704
114	0x3d963b2c	0.07335505
115	0x3d7257ac	0.05916564
116	0x3de72b70	0.11287582
117	0xbde0deff	-0.10980033
118	0x3d12550d	0.035725642
119	0xbd6f653f	-0.058446165
120	0xbdbff27a	-0.093724206
121	0x3d5ccb07	0.05390456
122	0x3d3d5677	0.046225037
123	0x3cbe9703	0.023265367
124	0x3ce65012	0.028114352
125	0xbd0cfa39	-0.03441832
126	0x3cc90ea8	0.024543121
127	0x3d71d2db	0.059038978
128	0xbd1e9d04	-0.03872396
129	0x3da12b73	0.078696154
130	0xbd68cd62	-0.056836493
131	0xbbea8ad9	-0.007157665
132	0xbcd651e5	-0.026162097
133	0xbc489c30	-0.012244269
134	0xbde113f4	-0.10990134
135	0x3cd06ed1	0.025443466
136	0x3c496c6b	0.012293915
137	0x3de119b0	0.109912276
138	0xbb8244d9	-0.0039754924
139	0x3d3653a7	0.04451337
140	0xbdabeca2	-0.083947435
141	0xbcc85047	-0.024452342
142	0x3bd68758	0.006546896
143	0x3c470ff8	0.012149803
144	0x3d873252	0.06601395
145	0xbc5bbd82	-0.013411881
146	0xbc2bbe67	-0.010482407
147	0x3e0089fc	0.12552637
148	0x3e0a0190	0.13477159
149	0xbd08e404	-0.033420578
150	0x3c8ece94	0.017432489
151	0x3de0921b	0.109653674
152	0x3dac641d	0.084175326
153	0x3ce8f6d4	0.02843801
154	0x3e0153c1	0.12629606
155	0x3d6a4d06	0.05720236
156	0x3d09e168	0.03366223
157	0x3cc4c581	0.024019958
158	0x3d87ddf4	0.06634131
159	0x3e0cbd28	0.13744032
160	0xbcbe9148	-0.023262635
161	0x3db6de4a	0.08929117
162	0xbd511508	-0.051045448
163	0xbbb4255e	-0.0054976186
164	0x3cc3dbaf	0.023908464
165	0xbd640920	-0.055672765
166	0x3d68923e	0.056780092
167	0x3dd52e09	0.10409171
168	0x3cfeed4a	0.031119008
169	0x3db176b5	0.0866522
170	0xbd214393	-0.039371084
171	0x3deb7e48	0.114986956
172	0xbd5605e8	-0.052251726
173	0xbd7a1643	-0.061056387
174	0x3c3cdef4	0.011527766
175	0x3bacab70	0.0052694604
176	0xbd29956a	-0.041402258
177	0x3dba5da7	0.09099894
178	0x3d88a181	0.066714294
179	0x3c0c70e2	0.008571835
180	0x3dca38b6	0.09874098
181	0x3c66c4a1	0.014084966
182	0x3d57f6f4	0.052725747
183	0xbb1ccb56	-0.0023924909
184	0xbdbd13ab	-0.09232267
185	0x3d2f25eb	0.04276077
186	0x3d280c7f	0.041027542
187	0xbd856dab	-0.06515058
188	0xbd93b804	-0.072128326
189	0x3b6d8b95	0.0036246527
190	0x3caa033f	0.020753501
191	0xbd67d5f2	-0.05660052

exp_avg f4 [128, 142]
0	0xbb75abc1	-0.0037486407
1	0xbb85c236	-0.0040819896
2	0xbb85c2a9	-0.004082043
3	0xbcd0a526	-0.025469374
4	0x3c81261e	0.015765246
5	0x3c9fb8f1	0.019497367
6	0xbb9543f4	-0.00455522
7	0xbb63d286	-0.0034762933
8	0x38a1f9d0	7.7236095e-05
9	0xbb9f4aa0	-0.004861191
10	0xbb9f4a5b	-0.004861159
11	0xbc35a435	-0.011086513
12	0x3c6d81e4	0.0144963
13	0xbbf75915	-0.007548461
14	0xbbfa53f0	-0.0076394007
15	0xbb988cb3	-0.0046554445
16	0xbb526853	-0.003210564
17	0xbb8cf9cc	-0.004302239
18	0xbb8cfa49	-0.0043022973
19	0xbcdce00f	-0.026962308
20	0xbb87c319	-0.0041431305
21	0xbb8c6dd0	-0.0042855516
22	0xbb71b2a6	-0.0036880164
23	0xba897430	-0.0010486897
24	0xbb82720a	-0.0039808797
25	0xba8b6f10	-0.0010637958
26	0xba36dba7	-0.000697548
27	0xbcdee196	-0.027207177
28	0xbb8eb772	-0.0043553645
29	0xbbb2255f	-0.005436584
30	0xbbfdf8a4	-0.0077505875
31	0xbb8499e2	-0.0040466646
32	0xba3cddda	-0.00072046893
33	0xbb046229	-0.002020011
34	0x3cb49538	0.02204381
35	0xbcd2b483	-0.02572084
36	0xbbfef0f3	-0.007780188
37	0xbc089fdd	-0.008338896
38	0xbb05153e	-0.002030685
39	0x3af7e263	0.0018912073
40	0xbcedb179	-0.02901529
41	0xbcf16940	-0.029469132
42	0xbb50fe59	-0.0031889884
43	0xbce2c2e9	-0.027680831
44	0xbcc53cd0	-0.02407685
45	0xbcf70a7e	-0.03015637
46	0xbcdc7616	-0.026911777
47	0xbcf64f27	-0.03006704
48	0xbb5d238c	-0.0033743111
49	0xbb73a717	-0.003717845
50	0x3cb51ec7	0.022109402
51	0xbb8f7b5d	-0.0043787197
52	0xbba1e720	-0.0049408823
53	0xbbbf3b95	-0.00583596
54	0xb97f73a5	-0.00024361776
55	0xbb672783	-0.0035271354
56	0x38b774ef	8.7479006e-05
57	0xbb7309d8	-0.0037084725
58	0xbbf0847d	-0.0073400126
59	0xbcfe5859	-0.031047987
60	0xbbb0cfbb	-0.005395857
61	0xbbf4fa59	-0.007476133
62	0xbb7ba2ad	-0.0038396523
63	0xbb67684e	-0.0035309973
64	0xbcdd60e6	-0.027023744
65	0xbb832331	-0.004001998
66	0xba8441aa	-0.001009037
67	0xba858bbe	-0.0010188741
68	0xba855470	-0.0010172259
69	0xbcf31b1b	-0.02967601
70	0x3964c4a2	0.00021817026
71	0xba04a4f4	-0.00050599803
72	0x00000000	0.0
73	0x00000000	0.0
74	0xbcccb06d	-0.02498647
75	0xbcc91225	-0.024544785
76	0xb735720a	-1.08149925e-05
77	0x00000000	0.0
78	0x00000000	0.0
79	0xb83b2978	-4.4622895e-05
80	0x00000000	0.0
81	0x00000000	0.0
82	0x00000000	0.0
83	0x00000000	0.0
84	0xb83b2978	-4.4622895e-05
85	0x00000000	0.0
86	0x00000000	0.0
87	0x00000000	0.0
88	0x00000000	0.0
89	0xbbae5dc4	-0.0053212363
90	0xbb1f1c2d	-0.0024278269
91	0xbb4d9ae4	-0.003137284
92	0x3b0e63be	0.0021726931
93	0xad766341	-1.400552e-11
94	0xbc0073a7	-0.007840074
95	0xbc1186af	-0.008882209
96	0xbc00c3b2	-0.007859157
97	0x00000000	0.0
98	0x00000000	0.0
99	0x397c80eb	0.00024080618
100	0xba811bd8	-0.0009850217
101	0xba6577d8	-0.0008753515
102	0x00000000	0.0
103	0x00000000	0.0
104	0x3a77e586	0.0009456504
105	0x00000000	0.0
106	0x00000000	0.0
107	0x00000000	0.0
108	0x00000000	0.0
109	0x3a76a976	0.0009409407
110	0x00000000	0.0
111	0x00000000	0.0
112	0x00000000	0.0
113	0x00000000	0.0
114	0xbbd60207	-0.0065310034
115	0xbceb39b1	-0.028714033
116	0xbcd0d0d6	-0.025490206
117	0x3a1affaf	0.00059127336
118	0xb41b280a	-1.4450066e-07
119	0xbcef2e1c	-0.029196791
120	0xbce67606	-0.02813245
121	0xbb63f9bf	-0.0034786311
122	0x00000000	0.0
123	0x00000000	0.0
124	0xbb2d9df4	-0.0026491852
125	0xbb926bbc	-0.0044684093
126	0xbb7ca11a	-0.0038548172
127	0x00000000	0.0
128	0x00000000	0.0
129	0x37313d66	1.0564318e-05
130	0x00000000	0.0
131	0x00000000	0.0
132	0x00000000	0.0
133	0x00000000	0.0
134	0xb6b9b6a0	-5.53469e-06
135	0x00000000	0.0
136	0x00000000	0.0
137	0x00000000	0.0
138	0x00000000	0.0
139	0xbc20e967	-0.009821272
140	0x3b252eec	0.002520497
141	0x3d074072	0.033020444
142	0xbc0c8c2e	-0.008578343
143	0x3b6fd754	0.0036596851
144	0x3b6fdc10	0.0036599673
145	0x3c51a056	0.012794575
146	0xbcb89eb5	-0.022536615
147	0xbc5ec7ec	-0.01359747
148	0xbba4cdc6	-0.005029413
149	0xbc0c785c	-0.008573618
150	0x378ae1cd	1.6556029e-05
151	0xbbc269fa	-0.0059330435
152	0xbbc24dbc	-0.005929677
153	0xbbcce951	-0.0062533994
154	0xbc9e2339	-0.019303905
155	0xbb9f3691	-0.0048587997
156	0xbb8e16c5	-0.0043362104
157	0xbba988fc	-0.0051738005
158	0x3a97e405	0.0011588341
159	0x3b7acc5e	0.0038268785
160	0x3b7acd80	0.003826946
161	0x3c8394e3	0.016062206
162	0xbb39428f	-0.0028268432
163	0xbb3dc8c2	-0.0028958772
164	0x39ef8661	0.00045685752
165	0x3b65cbd7	0.0035064125
166	0xbbdd9e78	-0.0067632757
167	0xbc051a9f	-0.008124023
168	0xb9a5b1aa	-0.00031603622
169	0x3c81a017	0.015823407
170	0xbb37feb7	-0.0028075406
171	0xbc6240d7	-0.013809404
172	0xbc85897f	-0.016300915
173	0xbc88d280	-0.016701937
174	0xbc9d0f16	-0.019172233
175	0xbb93a2b5	-0.00450548
176	0xbc42abd1	-0.011881785
177	0x3c4d813b	0.012543018
178	0xbc34fa78	-0.0110460445
179	0xbc4ff871	-0.01269351
180	0xbcaf1991	-0.021374496
181	0xbc504d49	-0.012713739
182	0xbc74c6f1	-0.014940009
183	0xbc764259	-0.015030467
184	0xbcc181b5	-0.02362142
185	0xbb4f7618	-0.0031656083
186	0x3bb23a42	0.005439074
187	0xba4a60e9	-0.0007720129
188	0xbc0c61f2	-0.008568274
189	0xba3607f9	-0.0006943937
190	0xbc0e4f38	-0.008685879
191	0xbc119a23	-0.008886847
192	0xbc4589de	-0.012056796
193	0xbbcbae84	-0.0062158722
194	0xbc72f8c4	-0.014829818
195	0xbc3db51c	-0.011578824
196	0xb9847408	-0.00025263452
197	0xbc0bf860	-0.008543104
198	0x37bc81f6	2.2471864e-05
199	0xbc1017c7	-0.008794731
200	0xbc7c4539	-0.015397363
201	0xbaa3258b	-0.0012447102
202	0xbc6bae06	-0.014384752
203	0xbc79dc4b	-0.015250276
204	0xbc0c196f	-0.008550986
205	0xbc0ca0ae	-0.008583231
206	0x3c896a8f	0.016774444
207	0xbca19a8a	-0.01972701
208	0x3b121f9b	0.002229667
209	0x3b2f83bf	0.0026781408
210	0x3b2f6993	0.0026765808
211	0x3badd26b	0.005304625
212	0xbc5ea2c6	-0.013588613
213	0xb9802f89	-0.0002444948
214	0x00000000	0.0
215	0x00000000	0.0
216	0xb9d35269	-0.00040306457
217	0xb967bbc3	-0.00022099823
218	0xb6efead4	-7.1500926e-06
219	0x00000000	0.0
220	0x00000000	0.0
221	0x383a1b95	4.4371543e-05
222	0x00000000	0.0
223	0x00000000	0.0
224	0x00000000	0.0
225	0x00000000	0.0
226	0x383a1b96	4.4371547e-05
227	0x00000000	0.0
228	0x00000000	0.0
229	0x00000000	0.0
230	0x00000000	0.0
231	0xbbd309b0	-0.006440364
232	0xbba0bbac	-0.0049051847
233	0xbb986826	-0.0046510873
234	0x39d83133	0.00041235387
235	0xad144ec5	-8.430316e-12
236	0xbb868e0a	-0.004106288
237	0x3c354289	0.0110632265
238	0x3c093602	0.008374693
239	0x00000000	0.0
240	0x00000000	0.0
241	0xbc6832d2	-0.014172273
242	0x3a7ce5d1	0.00096472824
243	0x3a6ee0d0	0.0009112479
244	0x00000000	0.0
245	0x00000000	0.0
246	0xbc715ca3	-0.014731559
247	0x00000000	0.0
248	0x00000000	0.0
249	0x00000000	0.0
250	0x00000000	0.0
251	0xbc717e83	-0.014739635
252	0x00000000	0.0
253	0x00000000	0.0
254	0x00000000	0.0
255	0x00000000	0.0

exp_avg_sq f4 [128, 142]
0	0x3c16b24d	0.009197784
1	0x3c0ec52d	0.008714003
2	0x3c0778d1	0.008268551
3	0x3c0d3b59	0.008620107
4	0x3c31593b	0.010824497
5	0x3c17b9e1	0.009260626
6	0x3c05920b	0.008152495
7	0x3c28c4e2	0.010300847
8	0x3bf785a3	0.0075537725
9	0x3c0ccd32	0.008593844
10	0x3c0b92f8	0.008518927
11	0x3c60c01a	0.013717676
12	0x3c41640a	0.011803636
13	0x3bebc4be	0.0071950844
14	0x3c387df0	0.011260495
15	0x3c0106b8	0.007875137
16	0x3c0f9c79	0.008765333
17	0x3c3e3cd3	0.011611181
18	0x3c3719b1	0.011175559
19	0x3c15845a	0.009125793
20	0x3c5d3ce7	0.01350329
21	0x3c53c3e9	0.012925127
22	0x3c802467	0.015642358
23	0x3c3daabc	0.011576351
24	0x3bc83e0d	0.0061109127
25	0x3c3b808c	0.011444222
26	0x3c597833	0.013273287
27	0x3c50c518	0.012742303
28	0x3c6d38a7	0.014478839
29	0x3c31bf1c	0.010848787
30	0x3c4b67c7	0.012414879
31	0x3c398a42	0.011324467
32	0x3c2e9572	0.010655748
33	0x3c30af31	0.010783956
34	0x3c2bc572	0.010484086
35	0x3c6806a0	0.014161736
36	0x3c2d7ed9	0.010589325
37	0x3c5a4e65	0.013324355
38	0x3c375c9d	0.011191514
39	0x3c0680c9	0.008209416
40	0x3c358bff	0.011080741
41	0x3c27bf4a	0.010238478
42	0x3c4d5ce1	0.012534351
43	0x3c4696a3	0.0121208755
44	0x3c5fabb8	0.013651781
45	0x3c5ad69f	0.013356834
46	0x3c2261c1	0.009911002
47	0x3c1fda43	0.0097566275
48	0x3c322322	0.010872634
49	0x3c1c8d27	0.009555138
50	0x3c2d3c9c	0.010573532
51	0x3c059d19	0.008155131
52	0x3c217fb9	0.009857112
53	0x3c3c2237	0.011482767
54	0x3c6ad171	0.014332161
55	0x3c1294c0	0.008946598
56	0x3c1a3a69	0.00941334
57	0x3c13fe80	0.0090328455
58	0x3c604611	0.01368858
59	0x3c551689	0.013005861
60	0x3c462345	0.01209337
61	0x3c0be18f	0.008537664
62	0x3c360ff5	0.011112203
63	0x3bf2a952	0.0074054385
64	0x3c38e315	0.011284609
65	0x3c271a9b	0.010199214
66	0x3be34afc	0.006936429
67	0x3a57e0cb	0.0008235096
68	0x39f3071b	0.00046353866
69	0x3c418b8e	0.011813058
70	0x3c032f08	0.008006819
71	0x3bbc0628	0.0057380386
72	0x00000000	0.0
73	0x00000000	0.0
74	0x3b98993e	0.00465694
75	0x3b7ae445	0.0038283032
76	0x3afb404e	0.0019168945
77	0x00000000	0.0
78	0x00000000	0.0
79	0x3a4ebe1c	0.0007886605
80	0x00000000	0.0
81	0x00000000	0.0
82	0x00000000	0.0
83	0x00000000	0.0
84	0x3a17b74e	0.00057875074
85	0x00000000	0.0
86	0x00000000	0.0
87	0x00000000	0.0
88	0x00000000	0.0
89	0x3c692335	0.014229585
90	0x3c545021	0.012958557
91	0x3c28fa84	0.010313634
92	0x3a661c18	0.000877799
93	0x39dee4d1	0.0004251362
94	0x3c601780	0.013677478
95	0x3c2d62b2	0.010582613
96	0x3bf8f939	0.007598069
97	0x00000000	0.0
98	0x00000000	0.0
99	0x3c326bb6	0.010889938
100	0x3c110067	0.008850194
101	0x3bc2431f	0.0059284116
102	0x00000000	0.0
103	0x00000000	0.0
104	0x3abb1a4b	0.0014274804
105	0x00000000	0.0
106	0x00000000	0.0
107	0x00000000	0.0
108	0x00000000	0.0
109	0x3a88527f	0.0010400562
110	0x00000000	0.0
111	0x00000000	0.0
112	0x00000000	0.0
113	0x00000000	0.0
114	0x3c503f2c	0.012710374
115	0x3c2fa3d0	0.010720208
116	0x3be2c3f2	0.006920331
117	0x3a193618	0.00058445474
118	0x39fbf4a0	0.0004805671
119	0x3c3a5b2c	0.011374276
120	0x3c28bdac	0.010299128
121	0x3bd3da9b	0.006465269
122	0x00000000	0.0
123	0x00000000	0.0
124	0x3bed9a89	0.007251088
125	0x3bc209d2	0.005921581
126	0x3b8935ca	0.0041873204
127	0x00000000	0.0
128	0x00000000	0.0
129	0x3a9b41c9	0.0011845167
130	0x00000000	0.0
131	0x00000000	0.0
132	0x00000000	0.0
133	0x00000000	0.0
134	0x3a769b4f	0.0009407298
135	0x00000000	0.0
136	0x00000000	0.0
137	0x00000000	0.0
138	0x00000000	0.0
139	0x3d9489f1	0.07252873
140	0x3cc20df5	0.023688296
141	0x3ea65a94	0.3249098
142	0x3c004c27	0.007830656
143	0x3bce5930	0.006297253
144	0x3bce9d08	0.0063053407
145	0x3bc72b44	0.0060781557
146	0x3c13423e	0.008987961
147	0x3bf70f02	0.007539631
148	0x3bd39135	0.006456519
149	0x3beff4ba	0.007322875
150	0x3bb9c8ab	0.0056696734
151	0x3c10f902	0.008848431
152	0x3c0e3282	0.008679034
153	0x3c22d64c	0.009938788
154	0x3c290fee	0.010318739
155	0x3c08ca43	0.008349004
156	0x3c1d4431	0.009598778
157	0x3c03a3b4	0.008034635
158	0x3b8ed928	0.004359383
159	0x3bf8c1d0	0.0075914636
160	0x3bccb055	0.0062466064
161	0x3bb8b934	0.0056373123
162	0x3bf5d90d	0.007502681
163	0x3bec1c04	0.007205488
164	0x3c035d1a	0.008017803
165	0x3bd2db98	0.006434869
166	0x3b9c90ca	0.0047780024
167	0x3c132a68	0.008982278
168	0x3c0efa20	0.008726627
169	0x3c151dc7	0.009101338
170	0x3c254cb9	0.010089093
171	0x3c212393	0.009835142
172	0x3c11bdc2	0.008895339
173	0x3c1f77b6	0.009733131
174	0x3bc8024b	0.006103789
175	0x3bf193a3	0.007372336
176	0x3c0a887b	0.008455391
177	0x3c19ba98	0.009382866
178	0x3c17d4ae	0.009267015
179	0x3c2f4ad9	0.010698997
180	0x3c187e52	0.009307461
181	0x3bb5205b	0.0055275387
182	0x3c07a93c	0.008280095
183	0x3c10ca01	0.008837224
184	0x3c3077f3	0.010770786
185	0x3c34657e	0.011010526
186	0x3c0d583e	0.008626996
187	0x3c393d36	0.011306098
188	0x3c071af7	0.008246175
189	0x3be75eef	0.0070608775
190	0x3c1a03d5	0.009400328
191	0x3c282971	0.010263787
192	0x3bf97c21	0.0076136743
193	0x3c132156	0.008980116
194	0x3bef55ee	0.007303945
195	0x3c07f1c9	0.008297392
196	0x3be738f0	0.007056348
197	0x3bb31170	0.005464725
198	0x3b960b91	0.0045790155
199	0x3c1b3460	0.009472936
200	0x3c0b76bd	0.008512196
201	0x3c162284	0.009163503
202	0x3be32fc1	0.006933183
203	0x3bf669ab	0.007519921
204	0x3bce33e3	0.0062928065
205	0x3b95000f	0.004547126
206	0x3be6603e	0.007030516
207	0x3c0fe918	0.008783601
208	0x3b866099	0.004100871
209	0x3a61159e	0.000858629
210	0x39b29b27	0.00034066403
211	0x3c0efb66	0.00872693
212	0x3b95e1c8	0.0045740344
213	0x3b4dc24c	0.0031396328
214	0x00000000	0.0
215	0x00000000	0.0
216	0x3b70714c	0.0036688624
217	0x3b30b372	0.0026962426
218	0x3acc97ba	0.0015609183
219	0x00000000	0.0
220	0x00000000	0.0
221	0x39e1ec84	0.00043091562
222	0x00000000	0.0
223	0x00000000	0.0
224	0x00000000	0.0
225	0x00000000	0.0
226	0x394e6c65	0.00019686071
227	0x00000000	0.0
228	0x00000000	0.0
229	0x00000000	0.0
230	0x00000000	0.0
231	0x3c2afc9f	0.010436206
232	0x3c346eeb	0.011012773
233	0x3c0f8f18	0.008762144
234	0x3a0a0845	0.00052655145
235	0x39bbc85b	0.00035816696
236	0x3c359156	0.011082014
237	0x3c16308c	0.009166848
238	0x3bd63b39	0.0065378216
239	0x00000000	0.0
240	0x00000000	0.0
241	0x3bbbfdda	0.0057370486
242	0x3bb1f2de	0.0054305634
243	0x3b78d9cf	0.003797162
244	0x00000000	0.0
245	0x00000000	0.0
246	0x39ae0ea5	0.00033198777
247	0x00000000	0.0
248	0x00000000	0.0
249	0x00000000	0.0
250	0x00000000	0.0
251	0x398d8ab6	0.00026996963
252	0x00000000	0.0
253	0x00000000	0.0
254	0x00000000	0.0
255	0x00000000	0.0

exp_avg f4 [128]
0	0xbbdd7b10	-0.006759055
1	0xbc3cd57a	-0.011525506
2	0xb2293717	-9.849621e-09
3	0x3b2342b9	0.0024911596
4	0x3b2da5a9	0.0026496446
5	0x3ab81671	0.0014044774
6	0xbcc5be61	-0.024138631
7	0x2d041c4f	7.509617e-12
8	0x3b1282a7	0.0022355707
9	0x3c8e1aec	0.017346822
10	0xbc979a35	-0.018506149
11	0xb898a554	-7.2787196e-05
12	0x3cd433fb	0.025903692
13	0x3d119a08	0.035547286
14	0x00000004	6e-45
15	0x0ab7373b	1.7643034e-32
16	0x37888910	1.6276288e-05
17	0x35be49b7	1.4177557e-06
18	0x3d27985f	0.040916797
19	0xb2bf2c67	-2.2255518e-08
20	0xaff28661	-4.4115026e-10
21	0xb9a1e8eb	-0.0003088185
22	0x3d916d00	0.07100868
23	0xbc459d3e	-0.012061415
24	0x357821a6	9.2436164e-07
25	0x36ee3a3c	7.099732e-06
26	0xbba8a3df	-0.005146488
27	0x382bcdf6	4.0961393e-05
28	0x3d8b949e	0.06815456
29	0xbb59fdfb	-0.0033262956
30	0xbb5d60ea	-0.003377969
31	0x3bd11d3e	0.00638166
32	0xbd879d33	-0.0662178
33	0x398a7704	0.00026410085
34	0xbc6905f4	-0.014222611
35	0x3c8bc6d2	0.017062578
36	0x3ab31fbb	0.0013666073
37	0xb76ee440	-1.4239049e-05
38	0xbd132923	-0.035927903
39	0x3d0c010f	0.034180697
40	0xbc044ac1	-0.008074463
41	0xba4a64a6	-0.0007720686
42	0xbcb58c2d	-0.022161568
43	0xb76d9b8a	-1.4162515e-05
44	0xba6067d2	-0.00085603923
45	0x3a19a34e	0.0005860821
46	0x0d9b7f38	9.583239e-31
47	0x38d45813	0.00010125353
48	0x398321f3	0.0002501156
49	0xbb1d33ef	-0.0023987254
50	0x3b3c48d9	0.0028729944
51	0x3d5a2690	0.053259432
52	0x391db2ba	0.00015039268
53	0x3abb04fe	0.0014268456
54	0x253f7014	1.6604583e-16
55	0x3b779295	0.0037776579
56	0xb07c2c14	-9.1739705e-10
57	0x3cb1d4b4	0.02170787
58	0x3dbc7de1	0.09203697
59	0xbc749992	-0.014929192
60	0x80000004	-6e-45
61	0xb571f75d	-9.0139457e-07
62	0x3b04e20c	0.0020276336
63	0x0a14abd5	7.158259e-33
64	0x3aa444e4	0.0012532738
65	0x3a0b4ead	0.0005314153
66	0x3984a847	0.00025302378
67	0x3bdf8487	0.0068212184
68	0x3afe7c8c	0.001941578
69	0x3ce7cc88	0.02829577
70	0x33c3572c	9.0962516e-08
71	0x3b2308f1	0.0024877156
72	0x3a5396ce	0.0008071483
73	0xbdb7509d	-0.08950923
74	0xbd25981a	-0.04042826
75	0x3810b26c	3.4498444e-05
76	0x3156822e	3.1215097e-09
77	0xbc9cdfb6	-0.019149642
78	0x39a4f695	0.00031464236
79	0x3b0b2364	0.0021230811
80	0x3823be3e	3.9039405e-05
81	0xbbe72a6b	-0.007054617
82	0x3b449efc	0.0030001989
83	0x3d8695c2	0.06571533
84	0xba89dec0	-0.0010518655
85	0xbc8bec06	-0.017080318
86	0xa9cc7e80	-9.081364e-14
87	0x23c4caeb	2.1336302e-17
88	0x3c843238	0.016137227
89	0x3d709e2e	0.058744602
90	0xbceb00a9	-0.028686838
91	0xb49b4045	-2.8917762e-07
92	0xba69f260	-0.00089243613
93	0xba59bdf4	-0.0008306198
94	0x3cfe6d3a	0.031057943
95	0x3bf3803b	0.0074310577
96	0x3a06ef00	0.0005147308
97	0x3d2d32f6	0.04228493
98	0xbbc1f9c6	-0.005919668
99	0x3c581ad7	0.013189993
100	0x3bf6d3fb	0.0075325943
101	0x383d7926	4.517394e-05
102	0x19933d2d	1.5224152e-23
103	0x356a2776	8.7229216e-07
104	0xba4537a7	-0.00075232465
105	0x3a582e6c	0.00082466635
106	0x35fcd5e2	1.8837711e-06
107	0x3b814c82	0.003945888
108	0x00000004	6e-45
109	0x330f0894	3.3302584e-08
110	0x2eeb3c39	1.06972604e-10
111	0xbc2074c6	-0.009793466
112	0x3d0f1ce8	0.034939677
113	0x3c13d510	0.009022966
114	0x0692ba47	5.5192806e-35
115	0x9e702d98	-1.2714923e-20
116	0x3d534fcb	0.05158977
117	0x3cbb2117	0.022842927
118	0x370f7129	8.549811e-06
119	0xbb7d8810	-0.0038685836
120	0x3d545704	0.051840797
121	0x9f11ff3c	-3.091607e-20
122	0x3c8b32f2	0.016992066
123	0x3d8bdc01	0.06829072
124	0x3aad1ec1	0.0013208018
125	0x3881f13f	6.196135e-05
126	0x21090a41	4.6430976e-19
127	0xbc9e3323	-0.019311493

exp_avg_sq f4 [128]
0	0x3caa9ba1	0.020826163
1	0x3c764bd9	0.015032732
2	0x39c0a137	0.00036741208
3	0x3bbfa551	0.0058485647
4	0x3a8b3087	0.0010619321
5	0x3c6e3000	0.014537811
6	0x3c966b28	0.018361643
7	0x392e9c5c	0.00016652182
8	0x3b86e458	0.004116576
9	0x3c708a1e	0.014681367
10	0x3c1b3a7c	0.009474393
11	0x3aa80977	0.0012820204
12	0x3c29c711	0.010362403
13	0x3c990814	0.01868061
14	0x3a2f5571	0.0006688452
15	0x3b1615f6	0.0022901273
16	0x39c053ff	0.00036683676
17	0x3a360773	0.0006943859
18	0x3c9f0348	0.019410744
19	0x3ac552f1	0.0015054626
20	0x39e6e2f5	0.00044038115
21	0x3ab22b41	0.0013593213
22	0x3c62ccff	0.01384282
23	0x3cb6c78b	0.022311946
24	0x3a3bd6fb	0.00071655185
25	0x3b8e7e8b	0.004348581
26	0x3b9a3713	0.0047062724
27	0x3bf88657	0.007584374
28	0x3c97d779	0.018535363
29	0x3b8d5e39	0.0043142107
30	0x3c1a06d2	0.00940104
31	0x3c05d543	0.008168521
32	0x3c72937a	0.014805669
33	0x3b6edb6f	0.003644671
34	0x3cc376e2	0.023860399
35	0x3cacaffb	0.021080008
36	0x3bb28639	0.0054481295
37	0x3acd90a0	0.001568336
38	0x3c9b68da	0.018970896
39	0x3c1bebd2	0.009516673
40	0x3c860d53	0.016363775
41	0x3a6eb38b	0.00091057335
42	0x3b8d0519	0.004303586
43	0x3ae79168	0.0017667236
44	0x3bd63ddd	0.0065381364
45	0x3a001d51	0.0004887181
46	0x3a1dd653	0.00060210115
47	0x3b3641f4	0.0027810307
48	0x3c3bc63a	0.011460835
49	0x3c0b745b	0.008511628
50	0x3c5490d1	0.01297398
51	0x3ca6c67f	0.020358322
52	0x3c04cc2f	0.008105322
53	0x3bf86a50	0.007581033
54	0x3c135afe	0.008993862
55	0x3c895aa2	0.01676685
56	0x3b378a8b	0.0028006162
57	0x3c5a838c	0.013337027
58	0x3cbc7be9	0.023008304
59	0x3c8994cd	0.016794587
60	0x38b80ab5	8.775798e-05
61	0x3a9d5738	0.0012004143
62	0x39aa5cf2	0.00032494176
63	0x3a3986cf	0.0007077278
64	0x3b8a37c0	0.0042180717
65	0x3b395f8b	0.0028285708
66	0x394ddc80	0.00019632466
67	0x3cd7ef56	0.026359241
68	0x3b04d7f4	0.002027032
69	0x3c86cf00	0.016456127
70	0x37fc36f2	3.0066327e-05
71	0x3bdc55a2	0.0067240754
72	0x3b092693	0.0020927533
73	0x3ae897a1	0.0017745384
74	0x3c9a6e17	0.018851323
75	0x393162cd	0.00016916842
76	0x39e8c9a8	0.00044400734
77	0x3c2c4a87	0.010515816
78	0x3badd3ce	0.00530479
79	0x3c2dacf2	0.010600315
80	0x3c1ab476	0.009442439
81	0x3c6a61b3	0.01430552
82	0x3ba90c58	0.005158942
83	0x3cac17d6	0.02100746
84	0x3c4ef765	0.012632226
85	0x3c797167	0.015224791
86	0x3a6cafa6	0.0009028859
87	0x3a5196db	0.00079951965
88	0x3c639530	0.01389055
89	0x3cc4d68a	0.024028081
90	0x3ca5be52	0.020232353
91	0x3ad656ab	0.0016352733
92	0x3b521da4	0.0032061124
93	0x3aacd8f0	0.0013187211
94	0x3ce093b2	0.027414177
95	0x39c2afc1	0.0003713351
96	0x392f6799	0.00016727894
97	0x3ca639bb	0.0202912
98	0x3c4d4d56	0.012530645
99	0x3c866988	0.016407743
100	0x3ba6dd67	0.005092311
101	0x3b1ccc5e	0.0023925523
102	0x3912e7d5	0.00014010009
103	0x3a09a805	0.0005251172
104	0x3c15914d	0.009128881
105	0x3b80d41f	0.003931537
106	0x3b0d477e	0.0021557505
107	0x3ab984f6	0.0014154005
108	0x37e71200	2.7545728e-05
109	0x3a99adf5	0.0011724817
110	0x39f3e794	0.0004652111
111	0x3b8b8ffb	0.004259107
112	0x3ca0d4d0	0.019632727
113	0x3cb11fe5	0.021621654
114	0x37b1fbf7	2.1217375e-05
115	0x39983249	0.00029029165
116	0x3c1e490e	0.009660972
117	0x3c7a0300	0.015259504
118	0x3b1fa408	0.0024359245
119	0x3bc15c05	0.005900862
120	0x3c75b994	0.014997859
121	0x3882b934	6.23338e-05
122	0x3c268be1	0.010165186
123	0x3cb54e77	0.022132142
124	0x3b660de6	0.00351035
125	0x39c993ac	0.00038447732
126	0x3c4f86d5	0.012666424
127	0x3c5d5b8f	0.013510599

exp_avg f4 [192, 128]
0	0xbaa33d4f	-0.0012454184
1	0xb909a7a9	-0.00013127796
2	0xafe151ba	-4.0985332e-10
3	0xb714c496	-8.867259e-06
4	0xb7a85548	-2.0066873e-05
5	0xb872f24a	-5.7922945e-05
6	0xb966c45e	-0.00022007662
7	0xa747df3b	-2.7737811e-15
8	0x206992ee	1.9784483e-19
9	0xb9b54b85	-0.00034579277
10	0xb6f73495	-7.367295e-06
11	0x231ce566	8.505354e-18
12	0xb87696cf	-5.8791422e-05
13	0xba4a6df2	-0.00077220716
14	0x00000004	6e-45
15	0x800010c8	-6.02e-42
16	0xa689ad90	-9.553329e-16
17	0xace3889b	-6.4668943e-12
18	0xb9d65a52	-0.00040884555
19	0x00000004	6e-45
20	0xac87272a	-3.841279e-12
21	0xb522d7b2	-6.066358e-07
22	0xba17f574	-0.0005796768
23	0xba511d3e	-0.0007977075
24	0x80000004	-6e-45
25	0xb33fc554	-4.4650122e-08
26	0xba4a5b92	-0.00077193335
27	0xb059202e	-7.898987e-10
28	0xba2c97c6	-0.00065838953
29	0xb69e292e	-4.713561e-06
30	0xb80d3be1	-3.3672786e-05
31	0xb6438b29	-2.9138266e-06
32	0xb72ce976	-1.0306356e-05
33	0xb63ab454	-2.7821125e-06
34	0xb9b0909c	-0.00033677078
35	0xba455a70	-0.000752843
36	0xa9ef70f2	-1.0633325e-13
37	0xb4fa6214	-4.663749e-07
38	0xba4bc5f7	-0.00077733345
39	0xb88746f9	-6.450521e-05
40	0xb9c40030	-0.00037384173
41	0xb4ec2af6	-4.3989684e-07
42	0xb80e6f8c	-3.3959324e-05
43	0xb46ec809	-2.223825e-07
44	0xb69ca747	-4.668636e-06
45	0xb6a56ff8	-4.930418e-06
46	0x89e820db	-5.5882866e-33
47	0xb685494c	-3.9722418e-06
48	0xb6b6bfdd	-5.4463585e-06
49	0xb7ebf7f7	-2.812965e-05
50	0xb7cc176b	-2.43296e-05
51	0xba464220	-0.0007562954
52	0xb413667a	-1.3727723e-07
53	0xb396ba52	-7.018811e-08
54	0x0983b8ca	3.1710878e-33
55	0xb8d79a15	-0.00010280699
56	0xad8a0fb3	-1.5695755e-11
57	0xb9d39933	-0.00040359198
58	0xba4fb9be	-0.0007924101
59	0xb90b8629	-0.00013306052
60	0x80000004	-6e-45
61	0xb356a297	-4.9973632e-08
62	0xb45308bf	-1.9654088e-07
63	0x00000a52	3.702e-42
64	0xb5ca7391	-1.5083807e-06
65	0xb740162b	-1.1449253e-05
66	0x00000004	6e-45
67	0xba944012	-0.0011310598
68	0xb729c7aa	-1.0119673e-05
69	0xb986acac	-0.00025687122
70	0xaff061f0	-4.3725334e-10
71	0xb61eaec5	-2.3645564e-06
72	0xac45cdc2	-2.8109602e-12
73	0xb51c9d81	-5.8343727e-07
74	0xb984abeb	-0.0002530509
75	0x80000004	-6e-45
76	0xaa979b09	-2.6930566e-13
77	0xba622a75	-0.00086275424
78	0xb8f92df6	-0.00011881806
79	0xb9a192f8	-0.00030817813
80	0xb706ed9c	-8.042345e-06
81	0xba5feaab	-0.0008541743
82	0xb718c7de	-9.106441e-06
83	0xba561a35	-0.00081673573
84	0xb9072b6a	-0.00012890776
85	0xba2d8bf7	-0.00066202827
86	0x00000000	0.0
87	0x94d81b3f	-2.1821173e-26
88	0xb95713b3	-0.00020511336
89	0xb9d5ec7d	-0.00040802723
90	0xb959541f	-0.0002072607
91	0xa7b88916	-5.121889e-15
92	0xb54ea7bd	-7.698507e-07
93	0xb5ec5b63	-1.7609967e-06
94	0xbabbfb90	-0.0014341939
95	0xb74fe08d	-1.2390444e-05
96	0x80000004	-6e-45
97	0xb9a5fc8e	-0.0003165942
98	0xb74608c1	-1.1803758e-05
99	0xb95abeed	-0.00020861225
100	0xb70b6546	-8.308625e-06
101	0x99df642d	-2.309812e-23
102	0x80002388	-1.2746e-41
103	0xab4b509d	-7.223196e-13
104	0xb9f6442c	-0.00046971568
105	0xb65e0528	-3.308358e-06
106	0xb2022ca3	-7.577145e-09
107	0xb79fb739	-1.9039597e-05
108	0x80000004	-6e-45
109	0xafd42e18	-3.8595327e-10
110	0xab1fcee9	-5.6775293e-13
111	0xb894bc78	-7.092295e-05
112	0xba9a6131	-0.0011778233
113	0xba5ee75b	-0.00085031026
114	0x80000004	-6e-45
115	0x934cf4b3	-2.5869066e-27
116	0xb9ff523c	-0.0004869866
117	0xba34d367	-0.00068979565
118	0xabdf6131	-1.5872079e-12
119	0x89beb114	-4.590736e-33
120	0xb9e8a852	-0.00044375897
121	0x9a509054	-4.312998e-23
122	0xb8a873fa	-8.0324666e-05
123	0xb9b114cd	-0.0003377557
124	0xb6604e57	-3.34242e-06
125	0xb4353132	-1.6874836e-07
126	0x09364f8d	2.1944858e-33
127	0xb788ec62	-1.6322538e-05
128	0x3bb34355	0.005470673
129	0x3ae20dfb	0.0017246598
130	0xb0607d05	-8.166839e-10
131	0xb7a35b13	-1.9473524e-05
132	0x39dba009	0.0004189017
133	0x3b0a5bd7	0.002111187
134	0x3bbdef9c	0.005796386
135	0xa7c93248	-5.584322e-15
136	0x223af4b9	2.5337256e-18
137	0x3a0d61c5	0.0005393292
138	0xb6cfa47d	-6.1882297e-06
139	0x1f9fdca9	6.770417e-20
140	0xb7c5b8ab	-2.3570223e-05
141	0x3b448c47	0.0029990838
142	0x80000004	-6e-45
143	0x80005b60	-3.2779e-41
144	0xa728dcc0	-2.3434352e-15
145	0x12e29013	1.4298122e-27
146	0x3b85320f	0.0040648053
147	0x80000004	-6e-45
148	0x80000004	-6e-45
149	0xb58d8697	-1.054449e-06
150	0x3a9eb79b	0.0012109162
151	0x3b98e304	0.0046657342
152	0x00000004	6e-45
153	0xb3f1f7fa	-1.1267544e-07
154	0x3b8e68bc	0.0043459814
155	0xb0de00f2	-1.6152895e-09
156	0x3ae24a69	0.0017264608
157	0xb709ceae	-8.213958e-06
158	0x3982b3a0	0.00024929363
159	0x38e9668d	0.00011129407
160	0x39cf865b	0.0003958222
161	0xb6a2a0d8	-4.846701e-06
162	0x3b133d4a	0.002246695
163	0x3b36d02d	0.0027895079
164	0x9baf3a5f	-2.8989043e-22
165	0xb562e358	-8.452239e-07
166	0x3b8c38ac	0.0042792168
167	0xb906dc38	-0.00012861274
168	0x3b836bc5	0.00401065
169	0xb6a0476e	-4.776687e-06
170	0xb82af6c0	-4.0760962e-05
171	0xb52121c2	-6.00263e-07
172	0xb75909ed	-1.2936519e-05
173	0xb8103f06	-3.439097e-05
174	0x8a7dea89	-1.2225618e-32
175	0xb6f6f3d5	-7.359757e-06
176	0xb83e7b6c	-4.5414476e-05
177	0x3a6646c8	0.0008784351
178	0xb188727a	-3.9711354e-09
179	0x3b8d03f7	0.004303451
180	0xb4b69a18	-3.401226e-07
181	0xb4409017	-1.7933813e-07
182	0x108d6a2a	5.5778265e-29
183	0x38ec2285	0.00011259787
184	0x1e84d0a1	1.406233e-20
185	0x3b790f5c	0.003800354
186	0x3b623e13	0.0034521862
187	0x3ac60e2f	0.0015110428
188	0x80000004	-6e-45
189	0xb52a43a2	-6.3428354e-07
190	0xb5b2fd17	-1.3335692e-06
191	0x000070e8	4.0503e-41
192	0xb72e07b1	-1.0372999e-05
193	0xb7cf3636	-2.4701567e-05
194	0x80000004	-6e-45
195	0x3ba929a9	0.005162437
196	0xb7cdd024	-2.4534827e-05
197	0x3b51c5ac	0.003200869
198	0xa99f866e	-7.084338e-14
199	0xb7830a93	-1.5621341e-05
200	0xa8b21f3b	-1.9775514e-14
201	0xb5aecffb	-1.302454e-06
202	0x3b81c8fd	0.0039607272
203	0x80000004	-6e-45
204	0xa554efa8	-1.8469268e-16
205	0x3b86d7df	0.0041150893
206	0xb6c08357	-5.737336e-06
207	0xb8d13f75	-9.9777164e-05
208	0xb896c9f5	-7.190175e-05
209	0x3b5e99d7	0.0033966207
210	0xb805f404	-3.193693e-05
211	0x3b182b3b	0.0023219127
212	0x3a920cd8	0.0011142744
213	0x3b037dfa	0.0020064102
214	0x00000000	0.0
215	0x953ba8be	-3.7897463e-26
216	0x3a92a9c4	0.001118951
217	0x3b27fed6	0.0025634072
218	0xb8900076	-6.866541e-05
219	0xa83aafd5	-1.0363202e-14
220	0xb6ecea4a	-7.060623e-06
221	0xb69273f2	-4.364637e-06
222	0x3bf8c255	0.0075915256
223	0xb579987a	-9.298161e-07
224	0x80000004	-6e-45
225	0x399bbeef	0.0002970616
226	0x395bec79	0.0002097356
227	0x390adcb3	0.00013242922
228	0x39b82253	0.00035120788
229	0x9a8cd552	-5.824728e-23
230	0x0001b246	1.55788e-40
231	0xac045c50	-1.8809572e-12
232	0x3b1f6a2c	0.0024324758
233	0xb74fb139	-1.2379424e-05
234	0xb295d882	-1.744434e-08
235	0x3a434f76	0.00074505
236	0x80000004	-6e-45
237	0xad85e50e	-1.522207e-11
238	0x9036f924	-3.6085102e-29
239	0x3a29c775	0.000647656
240	0x3b6f4406	0.003650905
241	0x3a83b9ae	0.0010049844
242	0x0623c363	3.080044e-35
243	0x93b1f9f8	-4.492757e-27
244	0x3b380e47	0.0028084682
245	0x3acd10e2	0.001564529
246	0x33a6b538	7.762941e-08
247	0x1f9f1980	6.7381306e-20
248	0x3b16437d	0.002292841
249	0x9afab86e	-1.0369554e-22
250	0x3b28ca1e	0.0025755237
251	0x3a1f08dd	0.00060666894
252	0x3919563e	0.00014623345
253	0xb4c6d8fb	-3.7038248e-07
254	0x8bb76889	-7.0646323e-32
255	0xb72c6679	-1.0275858e-05
