weights/policy_checkpoint4700.pt (torch, 522983 bytes, 12 tensors)

net.0.weight f4 [128, 142]
0	0x3c921c20	0.017835677
1	0x3db328ef	0.08748042
2	0x3c689344	0.014195267
3	0x3e009e14	0.12560302
4	0x3da17a1e	0.0788462
5	0x3e24d382	0.16096309
6	0x3dd0eb77	0.10201161
7	0x3d452628	0.04813209
8	0x3d577298	0.05259952
9	0xbd4a9e44	-0.04946734
10	0x3df52a2b	0.119709335
11	0x3d90fb10	0.07079136
12	0x3d79d135	0.06099053
13	0x3d84beff	0.06481742
14	0x3de1064e	0.10987531
15	0x3d5ea9ad	0.054361034
16	0x3d2b8a04	0.04187967
17	0xbd0ab884	-0.033867374
18	0xbda3d8f5	-0.08000366
19	0x3d480934	0.0488369
20	0x3b6b06b4	0.003586215
21	0x3d847c1e	0.06468986
22	0x3cce326f	0.025170533
23	0x3df8d9fc	0.12150952
24	0xbd1dff07	-0.03857329
25	0xbd34ddf8	-0.044157
26	0xbc9a5a99	-0.018842028
27	0xbd5b6724	-0.05356516
28	0x3ade1347	0.0016943001
29	0xbdbd1517	-0.09232538
30	0x3e3a87db	0.18215887
31	0xb9bbcb1f	-0.00035818756
32	0x3de03367	0.10947304
33	0x3d9734e0	0.07383132
34	0xbba8f3ef	-0.0051560323
35	0x3d0b5707	0.034018543
36	0x3d03bb99	0.03216133
37	0x3db1af83	0.08676054
38	0x3d0f82ef	0.035036977
39	0xbca9a5dc	-0.02070897
40	0x3dd4d924	0.10392979
41	0xbc8d5000	-0.017250061
42	0x3d937307	0.07199674
43	0x3d75da5e	0.060022704
44	0x3d88210e	0.0664693
45	0x3d6e4fdf	0.05818164
46	0x3de25a6e	0.11052404
47	0x3bd4dc75	0.006496007
48	0x3da79934	0.08183518
49	0x3dabd604	0.083904296
50	0xbd5e7732	-0.054312892
51	0x3c2ab4c1	0.010419072
52	0xbcf3e6d3	-0.029773152
53	0x3e79760a	0.24361435
54	0x3df7466d	0.120739795
55	0x3e02c897	0.12771831
56	0x3d1a9519	0.037739847
57	0x3d6169c5	0.05503251
58	0x3e472b56	0.19450125
59	0x3dad8ba1	0.08473898
60	0x3b996f4b	0.0046824566
61	0x3d19876c	0.037482664
62	0x3e1328d5	0.14371045
63	0x3ce964c3	0.02849043
64	0x3ca6ba4a	0.020352501
65	0xbd8332ea	-0.064061955
66	0x3da08e4c	0.07839641
67	0xbd1728f2	-0.036904283
68	0xbc815b49	-0.015790598
69	0xbd2f3b18	-0.042780966
70	0x3dfc5df7	0.1232261
71	0x3db6c57e	0.089243874
72	0x3da56068	0.08075029
73	0xbd8dd5e8	-0.06925565
74	0xbd8d2804	-0.06892398
75	0xbd0a6963	-0.03379191
76	0xbd740133	-0.059571456
77	0x3d0b3953	0.033990216
78	0x3cf62972	0.03004906
79	0x3d4193c9	0.04726008
80	0xbd31829e	-0.043337457
81	0xbd6a52ec	-0.057207987
82	0x3d365ffc	0.04452513
83	0xbd0aefca	-0.033920087
84	0x3b814164	0.0039445627
85	0xbca32253	-0.019913828
86	0x3d44a0ec	0.04800503
87	0xbd858879	-0.06520171
88	0xbd2d766d	-0.042349268
89	0x3db556bd	0.08854435
90	0x3d768e40	0.060194254
91	0x3d78d4b9	0.060749743
92	0x3da7d1e4	0.0819433
93	0x3ddbdee2	0.10735871
94	0xbc55bd73	-0.0130456565
95	0xbd88ad69	-0.066737
96	0x3e129955	0.14316304
97	0xbce7f871	-0.028316708
98	0xbcf3b705	-0.029750356
99	0xbb913164	-0.0044309366
100	0xbd322fa9	-0.043502484
101	0x3dafa1eb	0.08575805
102	0xbc357ab8	-0.011076622
103	0xbd798202	-0.060915
104	0x3d87f3af	0.06638276
105	0xbd6acb73	-0.05732293
106	0xbd91cf24	-0.07119587
107	0xbd3d474f	-0.046210583
108	0xbd966af2	-0.07344617
109	0x3d20c6c7	0.03925207
110	0x3dabcc11	0.08388532
111	0x3c81d7ef	0.015850035
112	0x3cd3d8bf	0.025860189
113	0xbda04b91	-0.07826913
114	0xbd2c4cd2	-0.04206545
115	0x3d1c024b	0.038088124
116	0x3d958297	0.07300299
117	0xbbaa98cd	-0.0052062036
118	0x3cb08be6	0.021551084
119	0xbdd70a1d	-0.10499976
120	0x3d1aed46	0.037823938
121	0x3c74c474	0.014939416
122	0xbbbe8d32	-0.0058151716
123	0xbd68ebb8	-0.056865424
124	0xbe1f70d0	-0.15570378
125	0xbd6793f1	-0.056537572
126	0xbd299db7	-0.041410174
127	0xbd87a635	-0.06623498
128	0x3d901a63	0.07036283
129	0xbd74a454	-0.059727028
130	0x3d93df1c	0.07220289
131	0x3cd6330d	0.02614739
132	0xbd9188c2	-0.071061626
133	0x3d6ddf53	0.058074307
134	0x3c4e091e	0.012575416
135	0xbd03c29a	-0.03216801
136	0xbd8ea8d7	-0.069657974
137	0xbdaadc5c	-0.083428115
138	0x3cc4b05a	0.024009872
139	0x3dde9e07	0.10869985
140	0x3dbcff14	0.0922834
141	0xbbf54e91	-0.0074861725
142	0x3cbc0a64	0.022954173
143	0xbdb2570e	-0.087080106
144	0xbdc04b17	-0.09389322
145	0xbd7d888e	-0.061897807
146	0x3d59815a	0.053101875
147	0x3d4267a4	0.04746212
148	0x3db0f27e	0.08640002
149	0xbde39fbf	-0.111144535
150	0x3c1fb138	0.009746842
151	0xbd2cf59c	-0.04222642
152	0x3b128367	0.0022356154
153	0xbdeb05f0	-0.11475742
154	0x3e104d02	0.14091876
155	0xbd09450d	-0.033513118
156	0x3da3173b	0.07963415
157	0xbcc84189	-0.024445312
158	0x3d1e7a89	0.038691077
159	0xbd2ca22d	-0.04214685
160	0x3dbd20a1	0.09234739
161	0x3c465421	0.012105019
162	0x3bed370c	0.007239228
163	0xbd9ad9fc	-0.075611085
164	0x3dd4d8fe	0.103929505
165	0x3c238fcc	0.009983014
166	0xbd1de7b3	-0.038551044
167	0x3dac820c	0.08423242
168	0x3d9e0123	0.077150606
169	0xbcb506f3	-0.02209804
170	0xbd6bbea6	-0.057554863
171	0xbda4d28e	-0.080479726
172	0x3dd9bba3	0.10631492
173	0x3c6b9b04	0.01438022
174	0xbd34954f	-0.044087704
175	0xbd14c3ea	-0.03631965
176	0xbd96725e	-0.073460326
177	0x3c416a36	0.011805108
178	0x3d2cd6fc	0.042197213
179	0xbe21267e	-0.1573734
180	0x3db0dbf0	0.086357
181	0x3da89ca0	0.08232999
182	0xbd07f939	-0.03319666
183	0xbdac8343	-0.08423474
184	0x3d0b0865	0.033943553
185	0x3d9b59af	0.07585465
186	0xbbae0981	-0.0053111915
187	0xbd332c49	-0.043743405
188	0x3c5caf88	0.013469584
189	0x3d132160	0.0359205
190	0xbdae96ee	-0.08524881
191	0xbbe4693d	-0.006970553
192	0x3d9c062a	0.07618363
193	0x3de5e1bf	0.11224698
194	0x3c121a24	0.008917365
195	0x3ca07762	0.019588176
196	0x3c85ef24	0.016349383
197	0xbde4b4bc	-0.11167285
198	0x3dd820c0	0.105531216
199	0x3dc242d2	0.09485401
200	0xbcb97083	-0.022636658
201	0x3dae3bef	0.08507525
202	0x3e0c3cb2	0.13695028
203	0x3a79f3e9	0.00095349416
204	0xbca0b0d4	-0.019615568
205	0xbd300eae	-0.04298275
206	0xbd96dc93	-0.0736629
207	0xbdc68643	-0.09693577
208	0xbd56cde0	-0.05244243
209	0xbc8fd740	-0.017558694
210	0x3d91e71e	0.0712416
211	0x3d879036	0.06619303
212	0xbdf392fd	-0.1189327
213	0xbe045b2f	-0.12925409
214	0xbc58fc05	-0.01324368
215	0x3da640be	0.08117817
216	0x3dc56a6f	0.09639441
217	0xbcd2b080	-0.025718927
218	0x3c9f8668	0.01947327
219	0xbd02eb80	-0.03196287
220	0xbd5e7af8	-0.05431649
221	0x3d9acf03	0.075590156
222	0xbd1c4b47	-0.038157728
223	0xbc89cff6	-0.016822796
224	0xbdaaf8ad	-0.083482124
225	0x3d660c2b	0.056163948
226	0x3d6c22b0	0.057650268
227	0x3cfa8ae8	0.030583814
228	0xbd6fac54	-0.058513954
229	0xbda99eaa	-0.08282216
230	0xbd8b95a9	-0.06815655
231	0x3c839d96	0.016066354
232	0x3ccf043f	0.02527058
233	0x3da92df3	0.08260717
234	0xbda77303	-0.081762336
235	0xbdef92f2	-0.116979495
236	0x3c36ecb7	0.011164836
237	0xbd1a1053	-0.037613224
238	0xbd84dc89	-0.06487376
239	0xbda0c0ca	-0.078492716
240	0x3d0cb59f	0.034352895
241	0xbcfc2944	-0.030781396
242	0x3d14bab0	0.03631085
243	0xbd9742d1	-0.07385791
244	0xbc7a8ab8	-0.015291862
245	0xbd71eda2	-0.059064515
246	0xbd28a0aa	-0.041168846
247	0x3ce4097c	0.027836554
248	0xbccc4f53	-0.024940168
249	0x3d5432d6	0.051806293
250	0xbcdc8ad8	-0.026921675
251	0xbd93d708	-0.07218748
252	0xbc7296a7	-0.014806426
253	0xbd269f21	-0.0406791
254	0xbcd25262	-0.025674049
255	0xbda39d36	-0.0798897

net.0.bias f4 [128]
0	0x3e07821b	0.13233225
1	0xbc06ebce	-0.008234931
2	0x3ae53edf	0.001749005
3	0x3d652efc	0.05595301
4	0x3de06a6d	0.10957799
5	0x3d26c46b	0.040714663
6	0x3c0c2fed	0.008556348
7	0xbdb0f9d9	-0.08641405
8	0x3dce6502	0.100778595
9	0x3d5fc0a5	0.05462708
10	0xbbc4643f	-0.0059933956
11	0xbc8b932d	-0.017037952
12	0xbd6e6ca8	-0.05820909
13	0x3deff4c8	0.1171661
14	0xbd964ff0	-0.073394656
15	0xbd40dbd9	-0.047084663
16	0x3d895550	0.06705725
17	0xbdb19c74	-0.08672419
18	0x3ccd8579	0.025088059
19	0xbd6f9f55	-0.05850156
20	0x3ae20112	0.0017242751
21	0xbdbb065d	-0.09132073
22	0x3dca475c	0.09876892
23	0x3de41def	0.11138522
24	0xbc4f63a6	-0.012658035
25	0x3d291cf1	0.041287366
26	0x3dcd7b33	0.10033264
27	0xbd259500	-0.0404253
28	0xbd0d43cc	-0.034488484
29	0x3d902690	0.07038605
30	0xbd6c14e9	-0.05763713
31	0x3d819f84	0.06329253
32	0x3dd4236b	0.10358318
33	0x3d19823a	0.03747771
34	0x3d89ff8d	0.067381956
35	0x3c9ac8b4	0.01889453
36	0xbe0797fc	-0.13241571
37	0xbacedde9	-0.0015782687
38	0x3dc2aefa	0.095060304
39	0x3e0c8f15	0.13726456
40	0x3de752a6	0.11295061
41	0xbdefa327	-0.11701041
42	0x3a72f0dd	0.0009267459
43	0x3e51fddd	0.20506997
44	0xbd25e139	-0.040497992
45	0xbd9ebfd3	-0.07751431
46	0xbdc12c32	-0.09432258
47	0x3e0cd7d3	0.13754205
48	0xbd92847c	-0.07154176
49	0xbbc236e6	-0.0059269546
50	0x3ce09da3	0.027418917
51	0x3d36c230	0.044618785
52	0xbd170a4a	-0.036875047
53	0x3c16c8a2	0.009203108
54	0x3ba2e91e	0.0049716374
55	0xbd29f902	-0.041497238
56	0xbd39c99b	-0.04535828
57	0x3cee3849	0.029079573
58	0xbb4cd13b	-0.003125264
59	0x3c5d8dcb	0.013522576
60	0xbde49643	-0.11161473
61	0x3cad0880	0.021122217
62	0x3debb01f	0.11508202
63	0xbdaf2b81	-0.085532196
64	0xbc699bf6	-0.014258375
65	0x3db5b4b2	0.088723555
66	0xbc3b126a	-0.0114179645
67	0x3da95064	0.082672864
68	0xbd6aa1b9	-0.057283137
69	0x3cd5a5f2	0.026080105
70	0xbde654d7	-0.11246651
71	0x3db4decc	0.08831558
72	0x3b24d188	0.0025149304
73	0x3da9ebae	0.082969055
74	0x3cd18ee1	0.025580825
75	0xbde10506	-0.10987286
76	0xbd0373bf	-0.032092806
77	0x3d9e995f	0.07744097
78	0x3e3a24f9	0.18178166
79	0xbd5c3b5f	-0.05376756
80	0xbc713b9d	-0.014723686
81	0xbc156dab	-0.009120385
82	0x3d9734a9	0.07383091
83	0x3e144629	0.14479889
84	0xbcc438c7	-0.023952855
85	0x3d60782a	0.054802097
86	0xbd2b3438	-0.041797847
87	0xbce0a18c	-0.027420782
88	0xbd450975	-0.048104722
89	0x3dc53a98	0.096303165
90	0x3e157ec9	0.14599146
91	0xbcb8fa64	-0.022580333
92	0x39fdd9b1	0.00048418113
93	0xbdbb377f	-0.091414444
94	0x3e13a837	0.14419638
95	0x3cc66100	0.024216175
96	0xbdbae522	-0.09125735
97	0x3a24fe38	0.0006293985
98	0x3cb41e3f	0.021987079
99	0xbcfe2783	-0.0310247
100	0xbdb83c29	-0.0899585
101	0xbdd53e9c	-0.104123324
102	0xbda9e545	-0.08295683
103	0xbd861e55	-0.06548754
104	0x3c9c3593	0.019068515
105	0x3e3b9da4	0.18321854
106	0x3b42c619	0.0029720126
107	0xbd7b892e	-0.06141012
108	0xbdb98c19	-0.09059925
109	0xbdf74e9b	-0.1207554
110	0x3d0a280d	0.0337296
111	0x3cd5e5df	0.026110588
112	0x3db49782	0.0881796
113	0xbdfa65ce	-0.12226449
114	0xbda24367	-0.07923012
115	0xbd360e6b	-0.044447344
116	0x3e1aa0b2	0.15100363
117	0xbdd8d870	-0.10588157
118	0x3d38ada4	0.04508747
119	0xbd93ec70	-0.07222831
120	0x3d098f42	0.033583887
121	0xbd397150	-0.04527408
122	0xbd64855c	-0.055791244
123	0xbb02e498	-0.0019972678
124	0xbdd1f120	-0.10251069
125	0xbd2ef594	-0.04271467
126	0xbd776bbe	-0.060405485
127	0xbd5fcbb3	-0.054637622

net.2.weight f4 [192, 128]
0	0xbd99277a	-0.07478233
1	0xbd95b9dc	-0.073108405
2	0x3df30e39	0.11867947
3	0xbdef2c40	-0.11678362
4	0xbd2c5abf	-0.04207873
5	0xbd86ee62	-0.06588437
6	0xbdffa31f	-0.12482285
7	0x3db4219b	0.08795472
8	0x39885927	0.00026006365
9	0x3bb8c925	0.0056392127
10	0x3c9bf634	0.019038297
11	0xbcb9a919	-0.02266364
12	0x3c3d4720	0.011552602
13	0xbd85e6be	-0.06538151
14	0x3d5d426f	0.054018434
15	0xbb6a1f40	-0.0035724193
16	0x3dc575e6	0.09641628
17	0x3cd6acbe	0.026205417
18	0xbdfcccc3	-0.12343743
19	0x3d39755c	0.04527794
20	0x3db6ecdd	0.08931897
21	0xbd5503af	-0.052005466
22	0xbdb80b7b	-0.08986565
23	0xbe378dee	-0.17925236
24	0x3cf400e7	0.029785587
25	0xbdc665fb	-0.0968742
26	0xbde61760	-0.11234927
27	0x3c8aea1b	0.016957333
28	0xbd7c3e03	-0.061582576
29	0x3d2a3bf0	0.041561067
30	0xbe38cd68	-0.18047106
31	0xbdeb6c92	-0.114953175
32	0xbdc7b85c	-0.09751961
33	0x3afb59cb	0.0019176541
34	0xbe02263a	-0.12709895
35	0xbe8002a2	-0.2500201
36	0xbd8ab91b	-0.06773587
37	0xbd377e57	-0.04479822
38	0xbd679cd0	-0.056546032
39	0xbde662d0	-0.11249316
40	0xbdcd62e4	-0.100286275
41	0xbdae9a19	-0.085254855
42	0xbd1e49fc	-0.038644776
43	0xbdfb1fe6	-0.122619435
44	0xbddf11cb	-0.108920656
45	0x3da8ec95	0.082482494
46	0xbd9a6411	-0.075386174
47	0xbd899dc2	-0.06719543
48	0xbdb946ff	-0.090467446
49	0xbe005a9b	-0.12534563
50	0xbe6657b7	-0.22494398
51	0xbe051b33	-0.12998657
52	0xbdc22189	-0.094790526
53	0xbdfd92e4	-0.12381533
54	0xbd980797	-0.07423323
55	0xbdc7ca7e	-0.09755419
56	0x3d30e998	0.043191522
57	0xbdeb620f	-0.114933126
58	0xbda73110	-0.08163655
59	0x3c3335e7	0.010938144
60	0xbd90a83b	-0.070633374
61	0xbd0a14b5	-0.033711154
62	0xbdc512da	-0.09622736
63	0xbd8758e8	-0.066087544
64	0x3cf3e3c5	0.029771695
65	0x3d3c395b	0.045953136
66	0x3b8b5112	0.0042516077
67	0xb98ecd31	-0.0002723723
68	0x3be97d07	0.0071255
69	0xbe1b43d7	-0.15162598
70	0xbda2190c	-0.079149336
71	0xbc1aab61	-0.009440274
72	0xbdc86580	-0.097849846
73	0x3d451092	0.048111506
74	0xbde97031	-0.11398352
75	0x3d6cd03c	0.057815775
76	0xbd034cff	-0.03205585
77	0xbda67dea	-0.08129485
78	0xbe136423	-0.14393668
79	0x3db291c1	0.087192066
80	0xbde20cb6	-0.11037581
81	0x3c7d9ee1	0.015479774
82	0xbd873d84	-0.0660353
83	0xbd58def5	-0.052947003
84	0xbd67f3ad	-0.05662887
85	0xbd79cf64	-0.0609888
86	0xbdd677fc	-0.10472104
87	0xbdb83250	-0.08993971
88	0xbdc2549e	-0.09488796
89	0xbc14a982	-0.009073617
90	0xbe0096a2	-0.12557462
91	0xbd923474	-0.07138911
92	0xbbaacaec	-0.0052121785
93	0x3d6cb41c	0.057788953
94	0xbde40687	-0.111340575
95	0x3dc96831	0.09834326
96	0xbdb053c2	-0.086097255
97	0xbd83ed55	-0.06441752
98	0xbe1eec72	-0.15519884
99	0xbe101654	-0.14071018
100	0xbd87b4f8	-0.06626314
101	0xbdfd323e	-0.123630986
102	0x3d8fbbf4	0.07018271
103	0xbd2c4a6e	-0.04206317
104	0x3df3f598	0.11912078
105	0xbd8020bc	-0.062562436
106	0xbc1fb9cc	-0.009748887
107	0xbd4164e5	-0.04721536
108	0xbccd4ccc	-0.025061034
109	0xbd2ce32d	-0.04220884
110	0x3d91ef70	0.07125747
111	0xbe012ad6	-0.12613997
112	0xbd94a111	-0.072572835
113	0xbe41fe49	-0.18944658
114	0xbd0f00c4	-0.03491284
115	0x3d91e231	0.07123221
116	0xbd863b87	-0.06554323
117	0xbde526a6	-0.11189012
118	0xbe43b841	-0.19113256
119	0xbd371da7	-0.044706013
120	0xbd7b4b16	-0.061350904
121	0x3e0e856e	0.13918087
122	0xbddf1d2f	-0.10894238
123	0xbcf6b0aa	-0.030113537
124	0xbe0977a8	-0.13424551
125	0x3e0e4584	0.13893706
126	0xbe0e3c96	-0.13890299
127	0xbdf45bbb	-0.11931559
128	0x3e03fe76	0.12890038
129	0x3da960c2	0.08270408
130	0x3bf200f6	0.0073853685
131	0xbcc79daf	-0.024367182
132	0x3dea914a	0.11453493
133	0xb8867552	-6.4114705e-05
134	0x3e181401	0.14851381
135	0x3d153157	0.036424007
136	0x3dfeb08a	0.12436016
137	0xbcbcfd13	-0.023069894
138	0x3d9426e9	0.07233984
139	0xbc5394fa	-0.012913937
140	0xbc90b3d3	-0.017663872
141	0x3e26eda5	0.16301592
142	0xbd492012	-0.04910285
143	0x3b741b3a	0.0037247674
144	0x3d5fc212	0.05462844
145	0x3c46576d	0.012105805
146	0x3dfd1067	0.12356644
147	0xbccbb1e7	-0.024865104
148	0xbd4dd274	-0.050249532
149	0x3cf8e339	0.030381786
150	0x3e230b09	0.15922178
151	0x3e44d449	0.19221605
152	0xbd354b46	-0.04426124
153	0x3b2bf6a8	0.0026239548
154	0x3e0d34eb	0.13789718
155	0x3d818287	0.06323724
156	0x3e3ad18d	0.18244
157	0x3d1c7eb0	0.038206756
158	0x3e069747	0.13143645
159	0x3e998827	0.29986688
160	0x3e37a749	0.17934908
161	0xbbde52a4	-0.006784754
162	0x3ded63d4	0.11591306
163	0x3d912249	0.070866175
164	0xbd5aa7d9	-0.05338273
165	0xbcf10215	-0.029419938
166	0x3e26e287	0.16297351
167	0x3d8887d0	0.06666529
168	0x3df562e3	0.11981752
169	0xbd9719a8	-0.073779404
170	0x3d8806bd	0.0664191
171	0x3e3a7c7b	0.18211548
172	0xbd0219c8	-0.03176287
173	0x3c16ab14	0.009196062
174	0x3d28c345	0.04120185
175	0x3dd8da61	0.105885275
176	0x3c5691e2	0.013096305
177	0x3e606465	0.21913297
178	0x3de262ca	0.11053999
179	0x3daa4035	0.08313028
180	0x3d52eb86	0.051494144
181	0xbd0bd868	-0.034141928
182	0xbd8035ad	-0.06260238
183	0x3d39b141	0.045335058
184	0xbd8128de	-0.06306623
185	0x3d677335	0.056506354
186	0x3ce638a0	0.028103173
187	0x3d3dbc0f	0.046321925
188	0xbd50ce96	-0.050978266
189	0x3c42bf66	0.011886453
190	0x3da028ba	0.07820268
191	0x3ce799c9	0.028271573
192	0xbd73185c	-0.059349403
193	0x3e485a09	0.19565596
194	0x3d27bfad	0.04095428
195	0x3d9eb8a9	0.07750065
196	0x3dab1cc7	0.08355098
197	0x3e4c5ff9	0.19958486
198	0xbdc7901b	-0.09744283
199	0x3e234ce1	0.15947296
200	0x3c6242f2	0.013809906
201	0x3dc760b7	0.09735244
202	0x3e5d4ae0	0.21610594
203	0xbca36bb2	-0.019948814
204	0xbc697c4c	-0.014250826
205	0x3dac68ea	0.08418448
206	0x3dffdcea	0.12493308
207	0x3dc8cdc1	0.098048694
208	0xbd2dee41	-0.042463545
209	0x3de8a67d	0.1135988
210	0x3e076caf	0.13225053
211	0x3dd805c4	0.10547975
212	0x3c69a8bc	0.014261421
213	0x3c6dd69e	0.014516501
214	0xbc9aad07	-0.018881334
215	0xbd540499	-0.051762197
216	0xbd726bfc	-0.059185013
217	0x3e3354fe	0.1751289
218	0x3e25ee67	0.16204225
219	0xbd899966	-0.067187116
220	0x3d546dc1	0.051862482
221	0x3db23f9f	0.08703541
222	0x3df0c3ac	0.117560714
223	0x3d78fbbc	0.060786948
224	0x3bffc3ef	0.0078053395
225	0x3de3d5ac	0.11124739
226	0x3dc9c4e7	0.09852009
227	0x3e00ded1	0.12584998
228	0x3d1ecd18	0.03876981
229	0xbdf925db	-0.121654235
230	0x3cad7f94	0.021178998
231	0xbd9d1448	-0.07669884
232	0x3c5a0fba	0.013309414
233	0x3e35170c	0.17684573
234	0xbb9b64ac	-0.0047422256
235	0xbd3ee615	-0.046606142
236	0xbcba110f	-0.022713212
237	0xbb8e8aac	-0.004350027
238	0x3ca1c6a1	0.019748034
239	0x3d93bc87	0.07213693
240	0x3e42400d	0.18969746
241	0x3d9ddddd	0.07708333
242	0xbb414047	-0.0029487775
243	0x3cc55732	0.02408943
244	0x3e000926	0.1250349
245	0x3d7e8655	0.062139828
246	0x3d9bdaa5	0.076100625
247	0x3af52c57	0.0018705231
248	0x3dd3dee4	0.103452474
249	0xbd8f258b	-0.06989583
250	0x3e147e90	0.14501405
251	0xbd3129ad	-0.043252636
252	0xbd712298	-0.05887088
253	0xbd83ce87	-0.06435876
254	0xbb309fec	-0.002695079
255	0x3dd9e30f	0.10639011

net.2.bias f4 [192]
0	0xbcb20bdc	-0.02173417
1	0x3e41a063	0.18908839
2	0x3cd80a84	0.026372202
3	0x3db68b9b	0.089133464
4	0xbc4c55ff	-0.012471675
5	0xbc256291	-0.010094301
6	0x3c0a34e3	0.008435461
7	0xbd4cbca9	-0.049984608
8	0xbe026f8c	-0.12737864
9	0x3c81f9f1	0.015866252
10	0xbc8e115e	-0.017342266
11	0xbe07e1e5	-0.13269766
12	0xbc04f95f	-0.008116095
13	0xbb49e4ff	-0.0030806658
14	0xbd42183b	-0.04738639
15	0x3c37cd3c	0.011218365
16	0x3e07a96d	0.13248225
17	0xbcd79007	-0.026313795
18	0x3c239026	0.009983098
19	0x3de5bd8a	0.11217792
20	0xbd9504c6	-0.07276301
21	0xbbed9e27	-0.0072515192
22	0xbdab26a4	-0.083569795
23	0x3d907398	0.07053298
24	0x3d9d7ae5	0.07689456
25	0x3de882fa	0.11353107
26	0x3ca8d118	0.020607516
27	0x3e6583c8	0.22413552
28	0xbbcd9e8c	-0.006275004
29	0xbd42f007	-0.04759219
30	0xbdc4438d	-0.09583197
31	0xbd0ecbe9	-0.034862433
32	0x3d3b7864	0.04576911
33	0x3cb21112	0.021736655
34	0x3e3cf49a	0.18452683
35	0x3c50f05a	0.012752617
36	0x3bd59a87	0.0065186652
37	0x3cd60606	0.02612592
38	0xbda37546	-0.079813525
39	0x3c8ecc72	0.017431471
40	0xbda3e167	-0.080019765
41	0xbda50edb	-0.08059474
42	0x3d98afc7	0.07455402
43	0x3dbb2c94	0.09139362
44	0x3b6c64f9	0.0036070927
45	0xbd7d26b6	-0.061804496
46	0xbe154081	-0.14575388
47	0xbd85dfc9	-0.06536824
48	0x3dbdf347	0.09274917
49	0xbd9d11dd	-0.07669423
50	0xbc98423a	-0.018586267
51	0x3db650b6	0.08902113
52	0x3cad9fc2	0.021194343
53	0xbceb415d	-0.028717691
54	0x3d8a7eb3	0.06762447
55	0x3cc201d3	0.02368251
56	0xbd2cf656	-0.04222711
57	0xbdbfdba3	-0.09368064
58	0x3c43d16d	0.0119517865
59	0xbdfd6838	-0.12373394
60	0xbb0f2641	-0.002184287
61	0xbc1732a7	-0.009228385
62	0x3d104c49	0.035229
63	0xbcce71b6	-0.025200706
64	0xbdecb0d9	-0.115571685
65	0xbdb3245d	-0.0874717
66	0xbdb48de5	-0.08816127
67	0xbd33189b	-0.043724637
68	0x3d83a786	0.06428437
69	0xbdee381a	-0.11631794
70	0x3e03b9f0	0.12863898
71	0xbdb7f3ff	-0.089820854
72	0xbcd90b2e	-0.026494589
73	0xbd525512	-0.05135066
74	0x3d1956b3	0.0374362
75	0xbbc619ab	-0.0060455403
76	0x3d899d3f	0.067194454
77	0x3da20b92	0.07912363
78	0x3e3cdc13	0.18443327
79	0xbc8ed85a	-0.017437149
80	0xbc5d3c04	-0.013503078
81	0x3d8d2401	0.06891633
82	0xbce77341	-0.0282532
83	0xbc894204	-0.016755112
84	0xbda9a8bc	-0.08284137
85	0xbd7c5d98	-0.061612695
86	0x3d223cc5	0.039608736
87	0xbd382d75	-0.044965226
88	0xbdfae94e	-0.122515306
89	0x3dbf476a	0.09339793
90	0x3c4723b7	0.012154511
91	0x3dc890bf	0.09793233
92	0xbd807aa1	-0.062733896
93	0x3db5b9a0	0.08873296
94	0xbd76e3d2	-0.06027586
95	0xbc95d391	-0.01828936
96	0x3d60cedb	0.054884773
97	0xbdd1191c	-0.10209867
98	0xbcdec559	-0.027193712
99	0x3cc45071	0.023964139
100	0xbd2bea52	-0.041971512
101	0x3cec3709	0.028834837
102	0xbc884d1b	-0.01663833
103	0xbd9c9273	-0.076451205
104	0x3dd9668a	0.10615261
105	0xbcec35ae	-0.02883419
106	0x3d9a51a2	0.075351015
107	0xbdac8771	-0.08424271
108	0x3db0783e	0.086166844
109	0xbc2df523	-0.010617527
110	0xbc492384	-0.012276534
111	0xbdb0cdfa	-0.08633037
112	0xbc868128	-0.016419008
113	0x3d0b3590	0.033986628
114	0x3dd200e2	0.10254075
115	0x3d3485b1	0.04407281
116	0x3d1a6020	0.03768933
117	0xbdace14c	-0.084414095
118	0x3d1b358b	0.03789286
119	0xbd834ae1	-0.064107664
120	0xbe04f46d	-0.12983866
121	0xbc86e1fc	-0.01646518
122	0xbc9142ad	-0.017731989
123	0xbbe1dc14	-0.0068926904
124	0xba92b478	-0.00111927
125	0xbd2da3f3	-0.042392682
126	0xbc6490d5	-0.013950546
127	0x3d71d2db	0.059038978
128	0x3d46d32b	0.04854123
129	0x3e017e87	0.12645923
130	0x3ccb0b47	0.02478565
131	0xbd5942f3	-0.053042363
132	0xbdb0b5cd	-0.08628426
133	0xbd81e3ca	-0.063422754
134	0xbd9e21c3	-0.07721283
135	0x3db0bb8d	0.086295225
136	0xbca16210	-0.01970008
137	0x3e185a13	0.1487811
138	0xbcaf6c6b	-0.021414002
139	0xbcc469da	-0.023976255
140	0xbdf98cbb	-0.12185045
141	0xbd28c2d7	-0.04120144
142	0xbc35b4b9	-0.011090451
143	0x3c5ecda1	0.01359883
144	0x3de195ed	0.11014924
145	0xbb42a631	-0.0029701109
146	0x3d985248	0.07437569
147	0x3e56871a	0.20949975
148	0x3e107c32	0.14109877
149	0xbdcd951a	-0.100382045
150	0x3bb7e6fe	0.005612253
151	0x3d9e97b2	0.07743777
152	0x3da99e5f	0.0828216
153	0x3dce636f	0.10077559
154	0x3dac9eb0	0.08428705
155	0xbc0ed345	-0.008717363
156	0x3da226b0	0.07917535
157	0x3cbbfe44	0.022948392
158	0x3d44b8e3	0.048027884
159	0x3e246326	0.16053447
160	0x3df491e5	0.1194189
161	0x3c954d54	0.01822535
162	0xbd36105d	-0.0444492
163	0x3c34a14e	0.011024786
164	0x3ba2e0f6	0.004970665
165	0xbd8df1e3	-0.06930902
166	0xbbcd0d25	-0.0062576705
167	0x3dc6b2e3	0.09702089
168	0xbc0d6917	-0.008631012
169	0x3cc3345a	0.023828674
170	0xbd91edfd	-0.07125471
171	0x3d5babb6	0.053630553
172	0xbcff850e	-0.031191375
173	0xbdb78cf0	-0.089624286
174	0x3daf02d0	0.08545458
175	0xb8351afb	-4.317889e-05
176	0x3bfb1cdb	0.007663352
177	0x3e23aaf1	0.15983178
178	0x3d124d74	0.035718396
179	0x3ca308af	0.019901602
180	0x3e129f18	0.14318502
181	0xbc9715dc	-0.01844304
182	0x3ce89ae9	0.02839418
183	0xbb412f48	-0.0029477645
184	0xbdf67eb7	-0.12035888
185	0x3c695364	0.014241073
186	0xbca9df2b	-0.020736298
187	0xbdc9ff6d	-0.09863172
188	0xbdcafaca	-0.099111155
189	0xbc44ae32	-0.012004422
190	0x3c694764	0.014238212
191	0xbd67d5f2	-0.05660052

exp_avg f4 [128, 142]
0	0xba9201af	-0.0011139418
1	0xbbb5b353	-0.0055450588
2	0xbbb9a32d	-0.005665204
3	0xba3d623e	-0.0007224417
4	0xb99783e4	-0.0002889923
5	0xba30c9d0	-0.00067439396
6	0xbb527674	-0.003211406
7	0xbaec677f	-0.0018036215
8	0xbb5dbe16	-0.0033835224
9	0xbabb1783	-0.0014273975
10	0xbc220874	-0.009889711
11	0xbc1cfd2a	-0.009581843
12	0xbb8dc188	-0.0043260492
13	0xbab0427d	-0.001344755
14	0x3a50164a	0.00079378916
15	0x3ab16bd1	0.001353616
16	0xbb5b7513	-0.003348653
17	0xba84edaf	-0.0010141636
18	0xbb4b6673	-0.0031036406
19	0xbb319793	-0.0027098402
20	0xbb5682df	-0.0032731814
21	0xbb84b69f	-0.0040500904
22	0xbb41b717	-0.0029558593
23	0xb8b44079	-8.595078e-05
24	0xbaf001fa	-0.0018311136
25	0xbbc483f4	-0.0059971754
26	0xbbfbbea7	-0.0076826396
27	0xbc01a66e	-0.007913215
28	0xbbc88b13	-0.0061200946
29	0x3ac15011	0.0014748593
30	0x3acaa8ed	0.0015461721
31	0x3a14ad63	0.00056715886
32	0xbb42bdf9	-0.0029715283
33	0xbb86fff2	-0.0041198665
34	0xbc064737	-0.00819569
35	0xbbd8fdc3	-0.0066220476
36	0xbbe01514	-0.00683845
37	0xbba7bb31	-0.0051187505
38	0x3846142e	4.7225672e-05
39	0xb9cf0598	-0.00039486284
40	0xbbe95a8f	-0.007121391
41	0xbbde4d26	-0.006784099
42	0xbbbe0286	-0.0057986407
43	0x3a98dc76	0.0011662382
44	0xbb06bc96	-0.0020559183
45	0xba5309d3	-0.0008050475
46	0x3a025559	0.0004971824
47	0xba332dc5	-0.00068351283
48	0xba3212ee	-0.0006792982
49	0xbc31b572	-0.010846483
50	0xbb2b4e2c	-0.0026139123
51	0xba7c4f58	-0.000962486
52	0xbb08fd79	-0.0020903035
53	0xbb369ce5	-0.0027864513
54	0xbb75ccdb	-0.0037506137
55	0xbb310e53	-0.0027016595
56	0xbc28889e	-0.010286478
57	0xbc03718a	-0.008022675
58	0xbc1fc433	-0.009751367
59	0x3a60f8b1	0.000858198
60	0xbb080bcf	-0.0020758992
61	0xbb19c244	-0.0023461739
62	0xba89172a	-0.0010459174
63	0xbb149d78	-0.0022676867
64	0xbb9b7ddd	-0.0047452287
65	0xbb533d12	-0.0032232446
66	0xba36e566	-0.0006976932
67	0xb9a853cc	-0.0003210589
68	0xb9a891b8	-0.00032152026
69	0xbbb2c9ad	-0.0054561705
70	0xbb37cad3	-0.0028044477
71	0xbb50d503	-0.0031865246
72	0x00000000	0.0
73	0x00000000	0.0
74	0xbb3958b5	-0.0028281633
75	0x3a90fce7	0.0011061699
76	0xb7454249	-1.1757548e-05
77	0x00000000	0.0
78	0x00000000	0.0
79	0xbb81186a	-0.003939678
80	0x00000000	0.0
81	0x00000000	0.0
82	0x00000000	0.0
83	0x00000000	0.0
84	0xbb6599b5	-0.0035034243
85	0x00000000	0.0
86	0x00000000	0.0
87	0x00000000	0.0
88	0x00000000	0.0
89	0xbc03c7ec	-0.008043271
90	0xbba50fb9	-0.0050372747
91	0xbbb398ad	-0.005480847
92	0xbbb3b2fa	-0.005483982
93	0xbbb3b2fa	-0.005483982
94	0xbb0277e0	-0.0019907877
95	0xbae6b685	-0.0017602002
96	0xba87491e	-0.0010321473
97	0x00000000	0.0
98	0x00000000	0.0
99	0xb7df192e	-2.6595397e-05
100	0x3a99c8f6	0.0011732865
101	0x3a8b8a45	0.0010646066
102	0x00000000	0.0
103	0x00000000	0.0
104	0xbabed1e8	-0.0014558407
105	0x00000000	0.0
106	0x00000000	0.0
107	0x00000000	0.0
108	0x00000000	0.0
109	0x39f4e7b0	0.00046711927
110	0x00000000	0.0
111	0x00000000	0.0
112	0x00000000	0.0
113	0x00000000	0.0
114	0xb9923fa5	-0.0002789471
115	0xbba64b33	-0.0050748824
116	0xbae56d87	-0.0017503955
117	0xbacc7c5e	-0.0015601029
118	0xbacc7c5e	-0.0015601029
119	0xbb5b7eda	-0.0033492357
120	0xbba90824	-0.005158441
121	0xbb828395	-0.003982971
122	0x00000000	0.0
123	0x00000000	0.0
124	0xba442fe1	-0.0007483941
125	0xbb1a3f9d	-0.0023536452
126	0xb9c2dcb3	-0.00037166997
127	0x00000000	0.0
128	0x00000000	0.0
129	0x351e4b6d	5.8969346e-07
130	0x00000000	0.0
131	0x00000000	0.0
132	0x00000000	0.0
133	0x00000000	0.0
134	0x3521fa32	6.0341256e-07
135	0x00000000	0.0
136	0x00000000	0.0
137	0x00000000	0.0
138	0x00000000	0.0
139	0xbcf57485	-0.029962787
140	0xbaae0a0c	-0.0013278141
141	0x3a74c0d2	0.0009336594
142	0xb99c1f24	-0.0002977784
143	0xb9a6e1cb	-0.00031830216
144	0xb99c1f24	-0.0002977784
145	0xb6e7965e	-6.9018415e-06
146	0xb7e6729f	-2.7471511e-05
147	0x33a0ed72	7.493772e-08
148	0xb9a85f94	-0.00032114668
149	0xb7859d17	-1.5927986e-05
150	0x3a0a72b7	0.0005281376
151	0xb9a34372	-0.00031140033
152	0x3a06f2ca	0.0005147873
153	0x3a589484	0.00082618766
154	0x3a532907	0.0008055125
155	0x3772d799	1.4474522e-05
156	0xb9a11951	-0.00030727175
157	0xb73923de	-1.103521e-05
158	0x3a06e3f6	0.0005145663
159	0xb99c1f24	-0.0002977784
160	0x3a0520a8	0.00050784135
161	0x3a588c19	0.0008260622
162	0x3a54d5f6	0.0008119041
163	0x3a58a468	0.00082642445
164	0x3a06d3d4	0.0005143259
165	0x367821fe	3.6974666e-06
166	0x3a58a6d6	0.00082646066
167	0xb6a9133b	-5.038831e-06
168	0x3a593ab3	0.000828664
169	0x3a07346c	0.0005157653
170	0x3a588c19	0.0008260622
171	0x37721a96	1.4430514e-05
172	0x36fe2912	7.574571e-06
173	0x36d0627f	6.2103495e-06
174	0x3a082dc3	0.00051948073
175	0xaab53d57	-3.2194622e-13
176	0x3a558450	0.0008145021
177	0x3a088691	0.000520804
178	0x3a558743	0.0008145461
179	0x3a56dc37	0.0008196267
180	0xb6dfaf79	-6.6663456e-06
181	0xb75b4f81	-1.3071928e-05
182	0x3a082dc3	0.00051948073
183	0x3a0889a3	0.0005208498
184	0x3a558450	0.0008145021
185	0xb7435011	-1.1641548e-05
186	0x3a558743	0.0008145461
187	0x3a5a97c8	0.0008338657
188	0xb9a38e8d	-0.0003119599
189	0x3a552745	0.0008131157
190	0xb9a0cd7f	-0.00030670685
191	0x3a05239d	0.0005078854
192	0x3a552b84	0.00081317895
193	0x3a552e78	0.00081322296
194	0x3a589484	0.00082618766
195	0x3a5a97c6	0.0008338656
196	0x3a06d44f	0.0005143331
197	0x3a589461	0.0008261856
198	0x3a06356e	0.0005119656
199	0xb9aad860	-0.0003258614
200	0x3a532b14	0.00080554304
201	0xb7ad2dfd	-2.0644622e-05
202	0x3a532b14	0.00080554304
203	0x3a589484	0.00082618766
204	0xb9a015bc	-0.00030533771
205	0x3a589484	0.00082618766
206	0x3a082f2f	0.0005195019
207	0x3774a4d0	1.4581907e-05
208	0x3283d2b6	1.5346227e-08
209	0x3283d2b6	1.5346227e-08
210	0x3283d2b6	1.5346227e-08
211	0x3a082e28	0.0005194866
212	0x33e28a79	1.0549133e-07
213	0x0bc168ca	7.4498565e-32
214	0x00000000	0.0
215	0x00000000	0.0
216	0x3a06e7f4	0.0005146258
217	0xb76681c9	-1.3739286e-05
218	0xb76846d5	-1.38447695e-05
219	0x00000000	0.0
220	0x00000000	0.0
221	0x3a06b786	0.00051390415
222	0x00000000	0.0
223	0x00000000	0.0
224	0x00000000	0.0
225	0x00000000	0.0
226	0x3a589484	0.00082618766
227	0x00000000	0.0
228	0x00000000	0.0
229	0x00000000	0.0
230	0x00000000	0.0
231	0x3a0605cf	0.000511256
232	0xb9a5c952	-0.00031621248
233	0xb9a015bc	-0.00030533771
234	0x000d42d1	1.21783e-39
235	0x0000005e	1.32e-43
236	0x3a08df9d	0.0005221309
237	0xb9a5c952	-0.00031621248
238	0xb9a015bc	-0.00030533771
239	0x00000000	0.0
240	0x00000000	0.0
241	0x3a58ea79	0.0008274685
242	0xb72038f2	-9.550002e-06
243	0x16a3fe68	2.6494623e-25
244	0x00000000	0.0
245	0x00000000	0.0
246	0x3a58918f	0.0008261436
247	0x00000000	0.0
248	0x00000000	0.0
249	0x00000000	0.0
250	0x00000000	0.0
251	0xb33d08bc	-4.4012936e-08
252	0x00000000	0.0
253	0x00000000	0.0
254	0x00000000	0.0
255	0x00000000	0.0

exp_avg_sq f4 [128, 142]
0	0x3bcc1dc2	0.0062291333
1	0x3c50ece2	0.01275179
2	0x3c40b71e	0.011762409
3	0x3c2c8de0	0.0105318725
4	0x3c2cd46f	0.010548695
5	0x3bd8f8b3	0.006621444
6	0x3bb7ac02	0.0056052217
7	0x3bc45ba9	0.005992372
8	0x3bd4419f	0.006477549
9	0x3c3b640e	0.011437429
10	0x3c15ca9a	0.009142542
11	0x3bd8eb7b	0.0066198683
12	0x3c20ad16	0.009806892
13	0x3c1f7215	0.009731789
14	0x3c2e03ed	0.010621053
15	0x3bffe6e9	0.007809509
16	0x3c0d3bc4	0.008620206
17	0x3c0602ed	0.0081794085
18	0x3be03209	0.006841902
19	0x3bf8e590	0.0075957254
20	0x3bfc4e40	0.007699758
21	0x3c0cc5ab	0.00859205
22	0x3c2f95f0	0.0107169
23	0x3bf32570	0.0074202344
24	0x3bfcbb0a	0.0077127265
25	0x3c1aa9f6	0.009439936
26	0x3c006449	0.00783641
27	0x3c59e0b3	0.013298201
28	0x3c4b9a34	0.012426902
29	0x3c2f978b	0.010717283
30	0x3be299f7	0.0069153267
31	0x3bc07b5f	0.005874082
32	0x3c23b8b0	0.009992763
33	0x3c1dbece	0.009628011
34	0x3c2dd263	0.010609242
35	0x3c6a6a48	0.014307566
36	0x3c2ca479	0.01053726
37	0x3c27acfc	0.010234114
38	0x3bcb82af	0.006210647
39	0x3bc1bc89	0.0059123677
40	0x3c5cd6d4	0.013478953
41	0x3c42bf9c	0.011886504
42	0x3c57390d	0.013136161
43	0x3c01d3b7	0.007924012
44	0x3c2d9eec	0.010596972
45	0x3bfb233d	0.007664113
46	0x3bebf52e	0.0072008586
47	0x3bab46a4	0.005226927
48	0x3c3ac1ab	0.011398713
49	0x3c0f665f	0.0087524345
50	0x3c25c502	0.010117771
51	0x3b898b0b	0.0041974834
52	0x3c01ffa5	0.007934486
53	0x3bda5ff1	0.006664269
54	0x3bafcbe2	0.005364881
55	0x3b895fcd	0.0041923285
56	0x3c0942c9	0.008377739
57	0x3bbb741f	0.00572063
58	0x3c053dac	0.0081323795
59	0x3b2e53ab	0.0026600163
60	0x3bfa7dc1	0.0076443856
61	0x3bb3c5bd	0.0054862187
62	0x3ba56245	0.005047115
63	0x3b3f0312	0.0029146117
64	0x3c2a418a	0.010391602
65	0x3c088607	0.008332736
66	0x3bb2b107	0.005453232
67	0x3aec865c	0.0018045413
68	0x3a246834	0.0006271631
69	0x3c23e34c	0.010002922
70	0x3bef174a	0.0072964774
71	0x3ba340ff	0.0049821134
72	0x00000000	0.0
73	0x00000000	0.0
74	0x3bc8d4cb	0.0061288825
75	0x3b5da58c	0.0033820597
76	0x3b3ec623	0.0029109798
77	0x00000000	0.0
78	0x00000000	0.0
79	0x3ae9166b	0.001778317
80	0x00000000	0.0
81	0x00000000	0.0
82	0x00000000	0.0
83	0x00000000	0.0
84	0x3a97c877	0.0011580129
85	0x00000000	0.0
86	0x00000000	0.0
87	0x00000000	0.0
88	0x00000000	0.0
89	0x3c5f88d4	0.013643462
90	0x3c278be8	0.010226227
91	0x3beebe11	0.0072858413
92	0x3a26f409	0.00063687615
93	0x39b7b59a	0.00035039784
94	0x3c326599	0.010888481
95	0x3c0ba288	0.008522637
96	0x3bb5ae35	0.0055444487
97	0x00000000	0.0
98	0x00000000	0.0
99	0x3bfe4759	0.00775997
100	0x3bb546d5	0.0055321255
101	0x3b30581d	0.0026907988
102	0x00000000	0.0
103	0x00000000	0.0
104	0x3af664ab	0.0018798312
105	0x00000000	0.0
106	0x00000000	0.0
107	0x00000000	0.0
108	0x00000000	0.0
109	0x3ad45b45	0.0016201517
110	0x00000000	0.0
111	0x00000000	0.0
112	0x00000000	0.0
113	0x00000000	0.0
114	0x3c218a66	0.009859657
115	0x3bc393d4	0.00596855
116	0x3b9d9595	0.0048090913
117	0x3a01a90d	0.000494615
118	0x39d53d67	0.00040672274
119	0x3c0c182a	0.008550683
120	0x3bfcc11e	0.007713451
121	0x3b8a2aec	0.0042165425
122	0x00000000	0.0
123	0x00000000	0.0
124	0x3be2f20c	0.006925827
125	0x3b70f91c	0.0036769575
126	0x3b62d5af	0.0034612229
127	0x00000000	0.0
128	0x00000000	0.0
129	0x3a17e40d	0.0005794175
130	0x00000000	0.0
131	0x00000000	0.0
132	0x00000000	0.0
133	0x00000000	0.0
134	0x39c20f76	0.00037014083
135	0x00000000	0.0
136	0x00000000	0.0
137	0x00000000	0.0
138	0x00000000	0.0
139	0x3e234d24	0.15947396
140	0x3c291427	0.010319746
141	0x3ee6ee74	0.451038
142	0x3b2a8fe2	0.0026025702
143	0x3b947ea7	0.0045316997
144	0x3b9978bd	0.0046835826
145	0x3b832a73	0.004002863
146	0x3b67b6d0	0.0035356767
147	0x3b2c8ecb	0.0026330228
148	0x3b14b80b	0.0022692706
149	0x3abc9afb	0.001438945
150	0x3b30de05	0.0026987803
151	0x3b8c1a5d	0.0042756037
152	0x3b85a954	0.0040790234
153	0x3b6d9359	0.0036251156
154	0x3b7202f2	0.0036928025
155	0x3b75d4cf	0.0037510877
156	0x3b8c6efd	0.004285692
157	0x3b2d2529	0.0026419854
158	0x3b90b185	0.004415693
159	0x3b7c52c3	0.0038501478
160	0x3b8728b4	0.0041247252
161	0x3b87530c	0.004129773
162	0x3b68533d	0.0035450005
163	0x3b4dd23b	0.0031405825
164	0x3b6cc98f	0.003613088
165	0x3b1fd6a8	0.002438942
166	0x3b512ca6	0.0031917482
167	0x3b8a28ca	0.004216288
168	0x3b6ecc87	0.0036437826
169	0x3bae1003	0.0053119673
170	0x3b666daa	0.003516058
171	0x3b8dbb7b	0.004325328
172	0x3b81cf97	0.003961514
173	0x3b82e3f9	0.0039944616
174	0x3b8f6aef	0.004376761
175	0x3b8a3da6	0.004218775
176	0x3b69b086	0.0035658195
177	0x3b8e3d8f	0.0043408344
178	0x3b869a45	0.004107746
179	0x3b8c2764	0.0042771567
180	0x3b5d2876	0.003374604
181	0x3b2a964e	0.002602953
182	0x3b970d74	0.004609758
183	0x3ba1357a	0.004919705
184	0x3b99b14d	0.0046903254
185	0x3b634e3e	0.0034684087
186	0x3b81f54c	0.0039660092
187	0x3b696383	0.0035612292
188	0x3b734e05	0.003712536
189	0x3b24d1d7	0.0025149488
190	0x3b8c7354	0.004286209
191	0x3b870d8e	0.004121489
192	0x3b5c776f	0.0033640524
193	0x3b28b84e	0.002574462
194	0x3b55dcf1	0.0032632912
195	0x3b4734d4	0.0030396478
196	0x3b44dabb	0.00300376
197	0x3b2e8704	0.0026630769
198	0x3b622d6a	0.0034511932
199	0x3b2b2c05	0.0026118767
200	0x3b53b7ca	0.0032305592
201	0x3b06ea58	0.0020586457
202	0x3b3887de	0.0028157155
203	0x3b268e0e	0.002541426
204	0x3b32e9d6	0.0027300022
205	0x3ad62f26	0.0016340956
206	0x3b960179	0.0045778123
207	0x3b482466	0.0030539273
208	0x3b02e097	0.0019970292
209	0x3a3db052	0.00072360516
210	0x395d3fe3	0.00021100002
211	0x3b69c91c	0.003567285
212	0x3b05101d	0.0020303794
213	0x3a73b34f	0.00092964334
214	0x00000000	0.0
215	0x00000000	0.0
216	0x3b1f90cc	0.002434778
217	0x3a7feaa6	0.00097624434
218	0x3a656cd2	0.0008751872
219	0x00000000	0.0
220	0x00000000	0.0
221	0x3a3894de	0.0007041226
222	0x00000000	0.0
223	0x00000000	0.0
224	0x00000000	0.0
225	0x00000000	0.0
226	0x3a23278a	0.00062238483
227	0x00000000	0.0
228	0x00000000	0.0
229	0x00000000	0.0
230	0x00000000	0.0
231	0x3b9bcd7f	0.0047547217
232	0x3b5ea8c9	0.0033975116
233	0x3b2d927a	0.0026485012
234	0x39739100	0.00023228303
235	0x39292e02	0.00016134235
236	0x3b68db71	0.0035531188
237	0x3b565dfa	0.0032709823
238	0x3b0e0d91	0.0021675567
239	0x00000000	0.0
240	0x00000000	0.0
241	0x3b281dd9	0.0025652556
242	0x3ad6c426	0.0016385361
243	0x3a95ed4d	0.0011438519
244	0x00000000	0.0
245	0x00000000	0.0
246	0x3a49ae36	0.0007693501
247	0x00000000	0.0
248	0x00000000	0.0
249	0x00000000	0.0
250	0x00000000	0.0
251	0x3a33e6d1	0.00068627024
252	0x00000000	0.0
253	0x00000000	0.0
254	0x00000000	0.0
255	0x00000000	0.0

exp_avg f4 [128]
0	0xbc225def	-0.009910091
1	0x3a057971	0.00050916435
2	0x0e82d81c	3.225558e-30
3	0xb82119f0	-3.8409547e-05
4	0xb93fb24d	-0.00018281602
5	0xbc0d5bc2	-0.008627834
6	0xbb7488af	-0.0037312915
7	0x00000004	6e-45
8	0xbc291946	-0.010320967
9	0xb2b7eaa5	-2.1410708e-08
10	0x9fd12895	-8.858208e-20
11	0x01a504ed	6.0618496e-38
12	0x347fe5ca	2.3832322e-07
13	0xba1c0d4a	-0.0005952908
14	0x00000004	6e-45
15	0xb530b423	-6.582724e-07
16	0xbb53f478	-0.003234176
17	0x2d431fb2	1.10915045e-11
18	0x3c5a5523	0.013325962
19	0x00000004	6e-45
20	0x00000004	6e-45
21	0xbaf0f962	-0.0018384869
22	0x3ca7dd52	0.020491276
23	0xbca4ed82	-0.020132784
24	0x80000004	-6e-45
25	0xb97cc290	-0.00024105073
26	0xbc37d7a6	-0.011220848
27	0xac0310d1	-1.8625555e-12
28	0xbc943dfb	-0.01809596
29	0xbbb7af23	-0.0056055947
30	0xbc45f260	-0.0120817125
31	0xbb898809	-0.004197125
32	0x399ac7d9	0.00029522067
33	0xba7818c3	-0.0009464139
34	0x3be0b5e7	0.006857622
35	0x3b1f8fe1	0.0024347233
36	0xb218daa1	-8.897275e-09
37	0x280f2534	7.946162e-15
38	0xbc904c41	-0.017614486
39	0x3b453eeb	0.0030097316
40	0xbc30c537	-0.010789207
41	0x2f9054cb	2.6253696e-10
42	0x39db0ed1	0.00041781974
43	0xbc7bf038	-0.015377097
44	0x3b58bed6	0.0033072731
45	0x0001a3eb	1.50638e-40
46	0x00000004	6e-45
47	0x3c848b52	0.016179714
48	0xaeb80e72	-8.369917e-11
49	0xbc0ce36c	-0.0085991435
50	0x3c8fe2aa	0.017564137
51	0x3c3c9727	0.011510647
52	0xbaf2e1e6	-0.0018530458
53	0xb830fc98	-4.2196916e-05
54	0x03c79084	1.1729348e-36
55	0x3b544776	0.0032391227
56	0x00000004	6e-45
57	0xb3554de4	-4.9663768e-08
58	0xbc27b33a	-0.010235602
59	0xb58bfc2b	-1.0429698e-06
60	0x00000004	6e-45
61	0x1e09267c	7.260678e-21
62	0x3b2ccb1d	0.0026366182
63	0x00000004	6e-45
64	0x00000091	2.03e-43
65	0xbcfbf853	-0.030758059
66	0x00000004	6e-45
67	0x3cab50d6	0.020912569
68	0x23777591	1.34147925e-17
69	0xbc1ce814	-0.009576816
70	0x00000004	6e-45
71	0x3b9cb7c4	0.0047826488
72	0xbb819770	-0.0039548203
73	0xbbced998	-0.0063125603
74	0xbc2a270e	-0.010385288
75	0x00000004	6e-45
76	0xaca6c068	-4.739365e-12
77	0xbc078df1	-0.008273588
78	0xbd06f855	-0.03295167
79	0xb6c10673	-5.752599e-06
80	0xb6fa5d22	-7.4614227e-06
81	0x3c446fb0	0.011989519
82	0x3c0449cb	0.008074234
83	0xb9b4e9a4	-0.0003450635
84	0xade2fcf9	-2.5805568e-11
85	0x3a067776	0.00051294954
86	0x3c54f1ad	0.012997073
87	0x20a603b4	2.8123944e-19
88	0xba8b4d47	-0.0010627889
89	0xbb8c6107	-0.0042840275
90	0xbc6d0242	-0.01446587
91	0xb08a0335	-1.0041733e-09
92	0x30b2f1cd	1.3019928e-09
93	0xa17e6c4a	-8.6201867e-19
94	0x3b9c9c91	0.0047794064
95	0x00000004	6e-45
96	0x80000004	-6e-45
97	0x21e38b61	1.5419012e-18
98	0x3b8e2b17	0.004338633
99	0xbc24d739	-0.010061079
100	0x3a1ce92f	0.0005985675
101	0x06f3b6d4	9.167508e-35
102	0x00000004	6e-45
103	0x00000004	6e-45
104	0xbb0a91e0	-0.0021144077
105	0xbc869638	-0.016429052
106	0xb718725f	-9.086535e-06
107	0x373402e1	1.0729506e-05
108	0x00000004	6e-45
109	0x00000004	6e-45
110	0x80000004	-6e-45
111	0xbc81cd61	-0.015845003
112	0xbc9ea9a3	-0.019367998
113	0xba0fe378	-0.00054889126
114	0x3795b411	1.7846034e-05
115	0x00000004	6e-45
116	0xb92b6141	-0.0001634406
117	0xb8a2f419	-7.770229e-05
118	0xbb853882	-0.004065574
119	0x28715b83	1.3398031e-14
120	0xbaddc4c7	-0.0016919606
121	0x00000004	6e-45
122	0x3b6a021a	0.003570682
123	0x341a6d4c	1.438213e-07
124	0x00000004	6e-45
125	0x00000004	6e-45
126	0xb93483dd	-0.0001721526
127	0xb325f400	-3.8638973e-08

exp_avg_sq f4 [128]
0	0x3c9d2c47	0.019186152
1	0x3be4c2c4	0.0069812257
2	0x37f9eb39	2.9792647e-05
3	0x399c60b2	0.00029826682
4	0x3cbdcc96	0.023168843
5	0x3c25a497	0.010110042
6	0x3c774207	0.015091426
7	0x36e03d7d	6.6828784e-06
8	0x3c508053	0.012725907
9	0x3b9b20b7	0.0047341245
10	0x39e42b45	0.00043519787
11	0x387d6022	6.040943e-05
12	0x3a4c5fa0	0.00077962317
13	0x3c5f39fa	0.0136246625
14	0x37ce9b51	2.4629438e-05
15	0x38daec89	0.00010439108
16	0x3887cda5	6.475606e-05
17	0x3998b355	0.00029125312
18	0x3c5e55d7	0.0135702705
19	0x390db273	0.00013513285
20	0x37a3e4ba	1.9537623e-05
21	0x3af63da5	0.0018786682
22	0x3cb205ea	0.021731336
23	0x3ca9fc5c	0.020750217
24	0x37e1abc8	2.6902082e-05
25	0x395cbd17	0.00021051276
26	0x3cb1b32d	0.021691883
27	0x39ac13d4	0.0003282117
28	0x3c75263d	0.01496273
29	0x3cb502c7	0.02209605
30	0x3c09bedd	0.008407322
31	0x3cd2ce82	0.025733236
32	0x3c82c254	0.015961803
33	0x3a109795	0.00055157515
34	0x3c6d986a	0.01450167
35	0x3c86c9e8	0.016453698
36	0x399cdc43	0.00029918746
37	0x39231c61	0.00015555463
38	0x3c892b95	0.016744414
39	0x3cd59a7c	0.02607464
40	0x3c4448c3	0.011980238
41	0x39dcc9bb	0.0004211197
42	0x3c00bfbb	0.007858212
43	0x3cb5cc21	0.022192063
44	0x39a73fa2	0.00031900132
45	0x38e0eabd	0.00010724876
46	0x37db661e	2.6154386e-05
47	0x3cbbbeee	0.02291819
48	0x3a0862cf	0.0005202712
49	0x3c8f857f	0.01751971
50	0x3cd60a3f	0.026127933
51	0x3c765a6a	0.015036205
52	0x39aa085d	0.00032431158
53	0x3a627f79	0.0008640211
54	0x3b8eb027	0.004354495
55	0x3b8063bc	0.0039181393
56	0x38e5bdb1	0.00010954904
57	0x3a95a16e	0.0011415908
58	0x3c48504c	0.0122261755
59	0x3aa2e0dc	0.0012426632
60	0x3696ac6e	4.490422e-06
61	0x390dba1e	0.00013516142
62	0x3ca8120f	0.020516424
63	0x37dedfd5	2.6568692e-05
64	0x39ff93d7	0.0004874754
65	0x3bc1edb6	0.00591823
66	0x373d03fa	1.1266204e-05
67	0x3c990373	0.018678403
68	0x3968b0ea	0.0002219115
69	0x3c636e5c	0.013881292
70	0x37147035	8.847613e-06
71	0x3bf76ed1	0.007551052
72	0x39636fcc	0.00021690055
73	0x3c3d9dc7	0.011573262
74	0x3c9e1a91	0.019299777
75	0x37270fca	9.957652e-06
76	0x38f9ad27	0.000119054974
77	0x3ca6c994	0.020359792
78	0x3ca58905	0.020206938
79	0x3b1bc431	0.0023768062
80	0x3a2859a9	0.0006422052
81	0x3c97a0e2	0.018509332
82	0x3ca097c5	0.01960362
83	0x3c8a6239	0.01689254
84	0x3aa19ad5	0.0012329469
85	0x3c20ed53	0.0098222075
86	0x3c479e59	0.012183749
87	0x398c160e	0.00026719313
88	0x3c39389e	0.0113050025
89	0x3c95e0fd	0.01829576
90	0x3cba93a7	0.022775484
91	0x396c18da	0.00022515972
92	0x3998a4ba	0.0002911443
93	0x392e9047	0.0001664768
94	0x3c6ff7a1	0.014646442
95	0x398f3058	0.00027311104
96	0x36e66dcc	6.867316e-06
97	0x3bfc1fea	0.007694234
98	0x3c77f25e	0.015133468
99	0x3c428a1f	0.011873751
100	0x39a13ffe	0.0003075599
101	0x39016a68	0.00012342038
102	0x36af549d	5.2252567e-06
103	0x37b1b4d1	2.1184243e-05
104	0x3c50c93f	0.012743293
105	0x3ca57826	0.020198893
106	0x39db6672	0.00041847263
107	0x3a1a4f63	0.00058864633
108	0x35882475	1.01434e-06
109	0x38621e3c	5.3910757e-05
110	0x37d20bc2	2.5039426e-05
111	0x3ca41f0f	0.020034341
112	0x3c81cf97	0.015846057
113	0x3c3217b3	0.010869908
114	0x39b5caef	0.00034674208
115	0x37425538	1.1583143e-05
116	0x3cc465ce	0.023974326
117	0x3b95b6d7	0.0045689153
118	0x3ccc75bf	0.02495849
119	0x3ab4af27	0.001378511
120	0x3c45415d	0.01203951
121	0x369019f1	4.2945544e-06
122	0x3ba5aedb	0.005056245
123	0x3afdae8a	0.0019354385
124	0x39178517	0.00014450062
125	0x37ab8263	2.0445505e-05
126	0x3a15df01	0.0005717129
127	0x3c1a4657	0.009416184

exp_avg f4 [192, 128]
0	0x36b4667d	5.3763492e-06
1	0x2d80d2a1	1.4645453e-11
2	0x091134ce	1.7478569e-33
3	0x34f2d181	4.5228447e-07
4	0x3590a50a	1.0776869e-06
5	0x35f3e337	1.8171039e-06
6	0x369e03f7	4.7092285e-06
7	0x00000004	6e-45
8	0x3634f47c	2.6964399e-06
9	0x00203897	2.959036e-39
10	0x15844cf1	5.343577e-26
11	0x0000495f	2.632e-41
12	0x1963c3d6	1.1775174e-23
13	0x36c07fb0	5.7369107e-06
14	0x00000004	6e-45
15	0x2e2942ba	3.8485416e-11
16	0x28a4e132	1.830532e-14
17	0x09c7e0b2	4.811881e-33
18	0x3728b6ab	1.0056111e-05
19	0x00000004	6e-45
20	0x00000004	6e-45
21	0x351abfd7	5.7648634e-07
22	0x36c1be91	5.774033e-06
23	0x3710a80e	8.622197e-06
24	0x80000004	-6e-45
25	0x31e4d88a	6.660291e-09
26	0x3678fac1	3.7100838e-06
27	0x264e495b	7.157002e-16
28	0x369dd640	4.7039066e-06
29	0x33366884	4.2470234e-08
30	0x32d6dd68	2.5013563e-08
31	0x368537a4	3.9701863e-06
32	0x36ed1f54	7.0667975e-06
33	0x351be74c	5.807858e-07
34	0x36b7f748	5.4826123e-06
35	0x37086b78	8.131254e-06
36	0x16973a3d	2.443212e-25
37	0x19512ea8	1.0814469e-23
38	0x3626b9d0	2.4844085e-06
39	0x37172689	9.0092735e-06
40	0x36257aac	2.465832e-06
41	0x2aa174f8	2.8680508e-13
42	0x31d91afd	6.3185994e-09
43	0x370cab53	8.38454e-06
44	0x3381f553	6.051655e-08
45	0x00000024	5e-44
46	0x00000004	6e-45
47	0x3779e13d	1.4893999e-05
48	0x187052be	3.1061047e-24
49	0x3607f435	2.0258715e-06
50	0x36b98e60	5.5300043e-06
51	0x367e27f0	3.7872196e-06
52	0x2de1d2a3	2.567308e-11
53	0x30e22ce0	1.6456418e-09
54	0x000000c5	2.76e-43
55	0x35c85077	1.492458e-06
56	0x00000004	6e-45
57	0x1d9af7ea	4.1019798e-21
58	0x35d0ac2f	1.554732e-06
59	0x2fcd658d	3.736144e-10
60	0x00000004	6e-45
61	0x172169f5	5.215564e-25
62	0x369f72f9	4.751954e-06
63	0x00000004	6e-45
64	0x00000004	6e-45
65	0x357fe5d2	9.5329335e-07
66	0x00000004	6e-45
67	0x36e803cf	6.914582e-06
68	0x1d407e56	2.5476303e-21
69	0x36dce2b7	6.582904e-06
70	0x00000004	6e-45
71	0x35bcb172	1.4058735e-06
72	0x237cce62	1.3704651e-17
73	0x36a5bc62	4.939314e-06
74	0x36807952	3.828821e-06
75	0x00000004	6e-45
76	0x2485eb84	5.8078535e-17
77	0x364a9029	3.0184258e-06
78	0x371bbb2b	9.282298e-06
79	0x2fc7f86a	3.6374398e-10
80	0x30343b7b	6.5568145e-10
81	0x35c0f76b	1.4377123e-06
82	0x36e3f2af	6.7933793e-06
83	0x36810224	3.844749e-06
84	0x0000000d	1.8e-44
85	0x3501d7d3	4.837031e-07
86	0x36726767	3.6120998e-06
87	0x188512b4	3.439858e-24
88	0x00000a58	3.71e-42
89	0x364dbcb9	3.0657231e-06
90	0x3711836a	8.673271e-06
91	0x2a0eda35	1.268784e-13
92	0x29a31ebd	7.2439864e-14
93	0x00000004	6e-45
94	0x374ab8db	1.2083178e-05
95	0x00000004	6e-45
96	0x80000004	-6e-45
97	0x00000746	2.609e-42
98	0x33d0d23a	9.723995e-08
99	0x367d3df0	3.773599e-06
100	0x00000004	6e-45
101	0x00000004	6e-45
102	0x80000004	-6e-45
103	0x00000004	6e-45
104	0x3317e878	3.5368856e-08
105	0x37351d7b	1.0795305e-05
106	0x301267ab	5.326181e-10
107	0x2bf90123	1.769283e-12
108	0x80000004	-6e-45
109	0x00000004	6e-45
110	0x80000004	-6e-45
111	0x359b4cb6	1.1570726e-06
112	0x30f32909	1.769224e-09
113	0x30a32d82	1.1872745e-09
114	0x00000004	6e-45
115	0x00000004	6e-45
116	0x3701bab8	7.732473e-06
117	0x342096c6	1.4956012e-07
118	0x36e58ff4	6.84149e-06
119	0x00000004	6e-45
120	0x362883f0	2.5110749e-06
121	0x00000004	6e-45
122	0x3476641f	2.2946959e-07
123	0x2aff06fc	4.5301946e-13
124	0x00000004	6e-45
125	0x00000004	6e-45
126	0x32a77c4c	1.9497882e-08
127	0x299867a5	6.7681354e-14
128	0xbe629b77	-0.22129618
129	0xbb060cfc	-0.0020454517
130	0x8e5c74e8	-2.7173382e-30
131	0x3974014f	0.00023270141
132	0xbdda6667	-0.10664063
133	0xbc0d5a19	-0.008627438
134	0xbe4d2558	-0.20033777
135	0x00000004	6e-45
136	0xbd2ecc60	-0.042675376
137	0x0379193f	7.3203504e-37
138	0x1a8d41c3	5.842248e-23
139	0x001eb711	2.820737e-39
140	0xa55ee560	-1.9333146e-16
141	0xbe80f411	-0.25186208
142	0x80000004	-6e-45
143	0x3322400a	3.7776807e-08
144	0xae35edd4	-4.136587e-11
145	0x8f0847eb	-6.7191686e-30
146	0xbecf474d	-0.40484086
147	0x80000004	-6e-45
148	0x80000004	-6e-45
149	0x3a9087f9	0.0011026851
150	0xbe556b2c	-0.20841664
151	0xbeae6db8	-0.34068084
152	0x00000004	6e-45
153	0x373adafe	1.1137452e-05
154	0xbe72cb24	-0.23710304
155	0x2baff648	1.2502855e-12
156	0xbe5f433b	-0.2180299
157	0xbbb06360	-0.00538294
158	0xbc971947	-0.01844467
159	0xbea17ef1	-0.3154216
160	0xbe7a3404	-0.24433905
161	0x399caa5f	0.00029881575
162	0xbe981f98	-0.29711604
163	0xbe923e5c	-0.285632
164	0x9c3ddbe6	-6.2819066e-22
165	0x1dc5e2a6	5.2379815e-21
166	0xbe0a6407	-0.1351472
167	0xbea3dd81	-0.32004932
168	0xbda89b47	-0.08232742
169	0x8001bd02	-1.59639e-40
170	0x3719fe63	9.17874e-06
171	0xbea82cb5	-0.3284661
172	0xbb0e13f0	-0.0021679364
173	0x00001633	7.964e-42
174	0x80000004	-6e-45
175	0xbf2961b3	-0.661647
176	0x1e386ecf	9.7637936e-21
177	0xbe39a560	-0.18129492
178	0xbe71cb8a	-0.236128
179	0xbdae53d1	-0.085120805
180	0xb96a229a	-0.00022328869
181	0x35d9af56	1.6218789e-06
182	0x00001906	8.977e-42
183	0xbde99d89	-0.114070006
184	0x80000004	-6e-45
185	0x23106447	7.82749e-18
186	0xbd8e448e	-0.069466695
187	0x34c4e3bd	3.6673546e-07
188	0x00000004	6e-45
189	0x1cc0aa9e	1.2749598e-21
190	0xbe5169fa	-0.20450583
191	0x00000004	6e-45
192	0x80000016	-3.1e-44
193	0xbdf524fc	-0.11969945
194	0x00000004	6e-45
195	0xbe881fe0	-0.2658682
196	0x21d79da4	1.4610694e-18
197	0xbe984a2f	-0.29744098
198	0x00000004	6e-45
199	0xbd23148f	-0.039814528
200	0x289815f4	1.688491e-14
201	0xbe4d8f94	-0.20074302
202	0xbe77d569	-0.24202503
203	0x00000004	6e-45
204	0x23ec91bf	2.5648897e-17
205	0xbd75c7df	-0.060005065
206	0xbed4288b	-0.41437182
207	0x34bf025a	3.5578233e-07
208	0x352c27cb	6.41329e-07
209	0xbdedd457	-0.11612766
210	0xbea3eeea	-0.32018214
211	0xbe3983a8	-0.18116629
212	0x000003cb	1.36e-42
213	0x31314754	2.5797435e-09
214	0xbdb699eb	-0.08916076
215	0x1e4c4027	1.08129365e-20
216	0x83c3f240	-1.1516688e-36
217	0xbe0a513a	-0.13507548
218	0xbeb48662	-0.35258776
219	0x30892605	9.978868e-10
220	0x301c9b63	5.6973287e-10
221	0x00000004	6e-45
222	0xbf041ef4	-0.5160973
223	0x80000004	-6e-45
224	0x80000004	-6e-45
225	0x83836641	-7.722964e-37
226	0xbd9eb771	-0.077498324
227	0xbe154bb2	-0.14579657
228	0x80000004	-6e-45
229	0x00000004	6e-45
230	0x00000004	6e-45
231	0x00000004	6e-45
232	0x39aad37f	0.00032582504
233	0xbee9302c	-0.45544565
234	0x350bd815	5.2095976e-07
235	0xb3057a83	-3.10779e-08
236	0x80000004	-6e-45
237	0x00000004	6e-45
238	0x00000004	6e-45
239	0xbe0849d4	-0.13309413
240	0xbc8aafd0	-0.016929537
241	0xb74c0a3b	-1.21617295e-05
242	0x00000004	6e-45
243	0x00000004	6e-45
244	0xbe89a1fe	-0.26881403
245	0x322c9637	1.0045873e-08
246	0xbeb2ddc1	-0.3493481
247	0x00000004	6e-45
248	0xbddca594	-0.10773769
249	0x80000004	-6e-45
250	0xbc8855f3	-0.016642546
251	0xb2c971a0	-2.345115e-08
252	0x80000004	-6e-45
253	0x00000004	6e-45
254	0x37b43951	2.1484362e-05
255	0xaf273986	-1.5208998e-10
