weights/policy_checkpoint800.pt (torch, 522961 bytes, 12 tensors)

net.0.weight f4 [128, 142]
00000000: 8369 733d 20c7 e83d 0ff1 c0ba 4674 033e
00000010: 4ed3 b93c fbf2 c33d 70fd fb3c 741b 9e3d
00000020: 2423 6f3d 9194 c3bc 0d86 b63d c0f4 0c3d
00000030: 4d04 1c3d 347e 1d3d 5c8e 753d e623 c03c
00000040: 85fa 233d 36ee e03c 95fd 2abd c3ae ba3c
00000050: 1a88 fcbc 3bb4 473d 97e1 333c 0ba2 fb3d
00000060: f59f 49bd 407e 3fbd b94a 1abc 7c9e 5cbd
00000070: 1fa1 c93b 0519 c2bd c998 d43d 1e60 11bd
00000080: 8f6b 953d bc9d 653c ee3e cabc d18d 5c3d
00000090: 9ccb 203c 101f a23d d7ae 143c 4b83 ab3c
000000a0: 2fd2 bf3d 5085 173c d71c c83d cc2f b33d
000000b0: 6e19 973d 87cd 933b f3de e43d effa 7c3d
000000c0: 82fa ad3d 4ae3 213d f977 2fbd 227f a83c
000000d0: e98b 6fbc 74c3 223e 9a2e b23d be39 ea3d
000000e0: d84d dc3c 281b 573d 8467 1d3e 8232 743c
000000f0: 4b7c 453c 3437 fbbc 3dfa b63d 2dba d13c
00000100: fe4d dc3c f895 51bd 7a46 493d 484a 54bd
00000110: d081 71bd a343 05bd 25a2 b53d dca3 c23c
00000120: 6860 a53d e8d5 8dbd ef16 79bd 66d7 77bd
00000130: c197 a9bd 5339 0b3d 7229 f63c 902c d33d
00000140: 9e82 31bd ec52 6abd fc5f 363d caef 0abd
00000150: 8bbf 843b 5322 a3bc eca0 443d 7988 85bd
00000160: 6d76 2dbd 0ca9 cc3d def9 c23d 6ba1 0d3d
00000170: aa80 d13d 14ea d03d f00e b7bc 6d9a 1dbb
00000180: f565 f53d 71f8 e7bc 05b7 f3bc e9a9 23bc
00000190: 7289 d73c b011 a93d b87a 35bc 0282 79bd
000001a0: 7bd4 0f3d 73cb 6abd 24cf 91bd 4f47 3dbd
000001b0: f26a 96bd 216c b23b 11cc ab3d efd7 813c
000001c0: bfd8 d33c 914b a0bd ecf4 c9bc dbb5 d3bb
000001d0: c3a4 073d f4ee 16bd d515 e5bb 918c 7ebd
000001e0: 7a21 873c 464a d7bc 328d bebb b8eb 68bd
000001f0: 5986 b2bd 6011 b1bd ebc2 a4bd 35a6 87bd
00000200: 631a 903d fbd2 a8bc 1cdf 933d 0d33 d63c
00000210: c288 91bd 53df 6d3d bbea 493c 9ac2 03bd
00000220: d7a8 8ebd 5cdc aabd 5ab0 c43c 4cf7 363c
00000230: 196d ae3d 0bfc 11bd 547b 513d dc25 b0bd
00000240: 05e1 5dbd cf23 2b3b 9877 203d 40e7 873d
00000250: 3e51 aa3d f93d 1ebd 2aa4 063c 82af 9dbd
00000260: c34c bcbb 55a8 9dbd ed76 823d 476c 5bbd
00000270: 5f93 8f3d fd76 863c e9ab 753d 133d 983b
00000280: fd3f 0b3e ca59 8b3d 82a4 413d acc0 e9bc
00000290: 9ba3 a23d f68b ed3b 3779 93bc 5554 c43d
000002a0: 9599 833d a2e8 973c af71 80bb 94cc 98bb
000002b0: 55ef a53d 12fe 58bc caa0 c0bc 8e71 45bd
000002c0: 3a66 4ebd 1823 3e3d cbc9 6c3d 9a7c d7bd
000002d0: 9131 1f3d 3044 a33d 15d4 9f3d 4000 85bc
000002e0: 703c 9a3d e5de db3d 616c 2b3d b579 9c3c
000002f0: e028 233d 3e50 703d e1e0 87bb dc19 d43a
00000300: 0a0c 983d 2882 a43d 8228 f9bc f259 92bc
00000310: ebc5 aebc f0a4 55bd ba15 273d 9c18 da3c
00000320: d271 59bd f15e ebba 1bdf d33d 5ff4 e23c
00000330: ba1f 68bc def1 eabc a883 b9bc 8e88 67bd
00000340: 475c 89bc 744b 4e3d 9a28 ca3d ede8 3f3d
00000350: 1bb0 d2bd 1bfa 84bd 05fc 58bc be40 a63d
00000360: 7786 753d bf1f eabc 6de1 413d 80eb 02bd
00000370: f87a 5ebd 00c3 673d 474b 1cbd f6cf 89bc
00000380: adf8 aabd 2b0c 663d f5ed 373d e88a fa3c
00000390: 54ac 6fbd aa9e a9bd a995 8bbd c330 c43c
000003a0: d8bd 003d 2a9b 8c3d ee6f b53c f02a ccbb
000003b0: f735 03bd 29b7 98bd 191a 9cbd cac0 a0bd
000003c0: 9fb5 0c3d 403a 77bd 07bc f1ba a301 9bbd
000003d0: b88a 7abc a2ed 71bd c5fc b7bd 7c09 e43c
000003e0: 534f ccbc d632 543d d88a dcbc 652c e8bd
000003f0: a796 72bc 219f 26bd 6252 d2bc 369d a3bd
0.059426796 0.11366105 -0.0014720279 0.12837324 0.022683766 0.09567829 0.030760497 0.0772008
0.058383122 -0.023874553 0.08912287 0.0344131 0.03809004 0.038450435 0.059950218 0.023454618
0.040033836 0.027457338 -0.04174574 0.022788411 -0.030826617 0.048755866 0.010979078 0.122867666
-0.049224813 -0.04675126 -0.009417229 -0.05386208 0.0061532403 -0.09477428 0.10380704 -0.035492055
0.07295906 0.014014658 -0.02468821 0.053846184 0.009814169 0.07916081 0.009074888 0.020936629
0.09366261 0.009248093 0.09771126 0.08749351 0.07377897 0.0045105848 0.11175337 0.061762746
0.08495046 0.0395234 -0.042839024 0.020568434 -0.0146207595 0.15894872 0.08700295 0.11436795
0.026892588 0.052516133 0.1537152 0.01490462 0.0120535595 -0.030665971 0.08934448 0.02560147
0.026892658 -0.051168412 0.049139477 -0.051828653 -0.05896169 -0.032535207 0.08868817 0.023759775
0.08075029 -0.06925565 -0.060812887 -0.060508154 -0.08280898 0.033990216 0.03004906 0.10311234
-0.043337457 -0.057207987 0.04452513 -0.033920087 0.004051154 -0.019913828 0.04800503 -0.06520171
-0.042349268 0.09993181 0.09520315 0.03457777 0.10229619 0.10200897 -0.02234599 -0.0024048344
0.119823374 -0.028316708 -0.029750356 -0.00998924 0.026310656 0.08255327 -0.011076622 -0.060915
0.035114747 -0.05732293 -0.07119587 -0.046210583 -0.07344617 0.005445019 0.08388532 0.015850035
0.025860189 -0.07826913 -0.02465292 -0.006460888 0.033116113 -0.036848977 -0.006991128 -0.062145773
0.016495455 -0.026280534 -0.0058151716 -0.056865424 -0.08717031 -0.08645892 -0.0804499 -0.06623498
0.07036283 -0.020608416 0.07220289 0.02614739 -0.071061626 0.058074307 0.0123240305 -0.03216801
-0.069657974 -0.083428115 0.024009872 0.011167359 0.085169025 -0.035640758 0.051143005 -0.08600971
-0.054169673 0.0026113873 0.039176553 0.06635904 0.08316277 -0.03863332 0.008217851 -0.07699491
-0.0057464554 -0.076981224 0.063703395 -0.05357006 0.07010531 0.01641416 0.0599784 0.0046459525
0.13598628 0.06804235 0.047276028 -0.028534256 0.079413615 0.0072493507 -0.018002136 0.095863976
0.06425778 0.018543545 -0.003919802 -0.0046630595 0.081022896 -0.013244169 -0.02351417 -0.048203997
-0.05039046 0.046420187 0.057809632 -0.10521813 0.03886563 0.0797199 0.07804123 -0.01623547
0.07531059 0.10735873 0.041851405 0.019101003 0.039833903 0.058670275 -0.0041466807 0.0016182023
0.07424171 0.08032638 -0.030414823 -0.017865155 -0.021334609 -0.05215925 0.040792204 0.026623063
-0.053087063 -0.0017957372 0.10345288 0.027704416 -0.01416772 -0.028679784 -0.022645786 -0.056526713
-0.016767634 0.050364926 0.098710254 0.046852995 -0.10287496 -0.06493016 -0.01324368 0.08117817
0.05994269 -0.02857959 0.047334123 -0.03196287 -0.05431649 0.05658245 -0.038157728 -0.016822796
-0.083482124 0.056163948 0.044904668 0.030583814 -0.058513954 -0.08282216 -0.06815655 0.023949033
0.03143105 0.06865533 0.022148099 -0.0062307045 -0.032033887 -0.0745681 -0.07622165 -0.078492716
0.034352895 -0.060358286 -0.0018442877 -0.075686716 -0.015291862 -0.059064515 -0.08983759 0.027836554
-0.024940168 0.051806293 -0.026921675 -0.113365926 -0.014806426 -0.0406791 -0.025674049 -0.0798897

net.0.bias f4 [128]
00000000: b58a de3d 97ec d43c 6dad 9d3c 4b64 983d
00000010: 5eac 4c3d fc6d 733d 3650 d8ba e2de 87bd
00000020: c100 2e3d 1c12 a03d 0f1f b33c da7d c93c
00000030: bcee 15bd e766 8f3d f04f 96bd be72 4bbd
00000040: bba1 823d 5c46 83bd 9806 ddbc 47f5 07bd
00000050: 94c6 9a3c f814 b3bd b385 9d3d 7e92 1f3d
00000060: 1239 72bc fc2b 143d f9fd e73c 1a4f 20bd
00000070: 1f4c 1abd f8b9 733d fb30 f0bc 467a b0bc
00000080: 4234 313d 8dd6 513d e0f6 2d3c e692 4f3c
00000090: fa8d dbbd 5df5 333c 1a4d 803d fce1 133d
000000a0: 78da b73d 50ac 98bd 7140 8d3c 8d54 723d
000000b0: 3303 4bbc b1bb 1abd d89d a7bd 5aad a6bc
000000c0: 8c5a 10bd 313a 85bd b3e2 75bd 1292 2f3d
000000d0: 9adf 47bd 5d3f 253d e1da 463d 15b6 a3bd
000000e0: d34a 0fbd bfbb 873d c54e 393c 5a6a 5e3d
000000f0: c53d c7bd 867e 7a3d 45f1 443c a76d aabd
00000100: c451 d83c e4c1 0a3d 32f6 983c 6b6d 823d
00000110: eb5e d2bc f8dc 79bc 018e a8bd d347 7d3d
00000120: 2c16 393c 11cd 5e3c 87a6 1d3c 26f7 bbbd
00000130: 6e07 95bc e079 043d 631e 4e3d 51e6 083c
00000140: fe4d 363d 0041 24bc 2228 d4bc d532 233e
00000150: c0f7 0a3d 2f13 ec3d caa3 f2bd d118 9fbc
00000160: 4cfb e6bc 1ce6 cf3d 1e58 c63c d5a2 26bc
00000170: 1682 073d 619a 69bd eaae 0f3d 4b0c ed3c
00000180: 408b 98bd fff1 093d 6869 043d 7cd6 7abd
00000190: 6768 31bd 5836 b2bd ba9f a0bd d8a1 59bd
000001a0: b595 c33c 177a 263d f3c4 bc3c fbb5 76bc
000001b0: 198c b9bd b6c6 ccbd 0cd1 5e3d 18a4 5c3c
000001c0: 150f d13d 46a7 3cbd a96d 97bd f9b1 09bd
000001d0: 0972 823d a608 abbd f9cd 70bd 73e0 8ebd
000001e0: d09e 363d cfd4 02bd b863 02bd 2a9c 6d3d
000001f0: 2ed5 aabd 5cd9 ffbc 75eb 4ebd 90d6 a8bb
0.108663 0.025991721 0.019247735 0.07441004 0.04996907 0.05943106 -0.0016503397 -0.066343084
0.042481188 0.07815954 0.021865396 0.024596144 -0.036604628 0.07002049 -0.073394656 -0.049669974
0.06378504 -0.06409904 -0.026980683 -0.0331929 0.018893518 -0.08744234 0.07691517 0.038958065
-0.014784114 0.03617476 0.028319346 -0.039137937 -0.03767025 0.059503525 -0.02932023 -0.02154268
0.043262728 0.051230002 0.010617942 0.012669301 -0.10720439 0.010983792 0.06264706 0.036104187
0.089772165 -0.07454741 0.017242642 0.059162665 -0.0123908995 -0.037776653 -0.08184403 -0.020346332
-0.035242602 -0.0650524 -0.06003065 0.042863913 -0.048797227 0.04034363 0.048548583 -0.07993714
-0.034983467 0.066276066 0.011310284 0.054300644 -0.097285785 0.06115582 0.012020414 -0.08321696
0.026406176 0.033876315 0.018672083 0.06368526 -0.025680026 -0.015250437 -0.0823021 0.061836075
0.01129679 0.013598696 0.009622223 -0.09177999 -0.01819202 0.03234279 0.050321948 0.008355693
0.044507973 -0.010025263 -0.025898043 0.1593736 0.03392768 0.115270965 -0.118476465 -0.019421013
-0.028196 0.10151312 0.02421194 -0.010170658 0.033083044 -0.057031993 0.03507892 0.028936526
-0.07448435 0.03367805 0.032327086 -0.061239704 -0.043312456 -0.087017715 -0.078429654 -0.05313286
0.023875097 0.040643778 0.023043131 -0.015058036 -0.09059925 -0.099988386 0.05439858 0.013466857
0.10207955 -0.046057962 -0.07393963 -0.033616994 0.06369407 -0.08351259 -0.05879018 -0.06976404
0.04458505 -0.03194123 -0.03183338 0.058010258 -0.08341442 -0.031231575 -0.050517518 -0.005152531

net.2.weight f4 [192, 128]
00000000: e72a 63bd ff76 86bd bb59 1d3e 1916 f0bd
00000010: 84c5 3dbd 3935 7cbd 83ab c8bd 672a b33d
00000020: 4f62 0c3d 8a46 943c 4ca4 9a3c d00f 7d3b
00000030: 09cf 423c c419 4bbd 6f42 5d3d 50b5 69bb
00000040: b577 cb3d 7056 1e3d aebf ccbd 5c75 393d
00000050: 3595 b63d 49e9 08bd c19d f0bc d104 11be
00000060: e700 f43c cd1d c6bd 9bf7 e4bd 4447 903c
00000070: e287 61bd 2f74 423d 1053 f1bd b750 c8bd
00000080: 9ff2 a2bd 61f6 223b ed09 debd 6f22 57be
00000090: ebb4 8abd 9052 45bd 0edc b7bb 7313 863c
000000a0: c382 f7bd 0f10 a3bd bb56 b13c 7245 9abd
000000b0: de0e dfbd 0e07 a63d b613 99bd 95bf 133b
000000c0: 12d2 b2bd ac16 ccbd 2e84 02be 6eee e7bd
000000d0: bed2 c1bd 65f5 cfbd d2f5 97bd cb97 f7bd
000000e0: 2607 313d 1c50 e9bd fba5 a5bd 2057 003c
000000f0: ed4f 90bd a177 02bd b312 98bd cc17 85bd
00000100: b56a a33c 359d 703d e56f 8d3b 3d1e 383c
00000110: b8a8 bf3b 7c3d 00be a81e a2bd 0544 7fbb
00000120: be60 c8bd f58d 0b3e 28b8 75bd f1d0 6c3d
00000130: 107f f7bc c98d 0bbd 7596 e2bd e666 5a3d
00000140: d3cb dcbd 0ac6 c23c f664 45bd 9f53 28bd
00000150: 3b81 82bd f179 b2bc ad24 8a3d f4d0 b7bd
00000160: 9b2b e9bd 3019 b73b ecd3 14bd b440 92bd
00000170: d77d 9cbb 2e50 693d e62f afbd c2c9 4a3d
00000180: c253 b0bd cdf1 72bd 08e4 71bd 8265 d0bd
00000190: 26c8 87bd eb99 fbbd f4bb 8f3d 36e1 27bd
000001a0: c342 173e 4727 b83c 9c4a 01bc 1533 4dbc
000001b0: cc4c cdbc 0e1c 2dbd c793 903d b7d0 3cbd
000001c0: 6542 09bd f4e5 29be 2ac9 0ebd e59f 933d
000001d0: 32d7 acba c82e f5bd 0f82 d2bd e3ef febc
000001e0: 20e0 40bd 3579 113e b13b 0cbe c19c cebc
000001f0: 96b6 09be e2ca e23d c716 0ebe 03f6 a7bd
00000200: fefa 813c ceca 143d aa77 c9bc 1e40 d9bc
00000210: 53a9 623d 49c9 31bd f764 593d 3926 103d
00000220: 6882 b53c f8ce 3fbd 5473 ac3d 947c be3b
00000230: 0d4d d0bc b5e4 1d3d 1220 49bd fa4c 233c
00000240: 2447 933d 9c9e d53b 2610 393c e7b1 cbbc
00000250: cd60 92bd 3e65 bfbc 2c8d cb3d 68b1 8e3d
00000260: 464b 35bd c611 e33c 16f6 a43c 09f9 7f3d
00000270: 4a1f 9e3d 3cbd 80bc a89a 7e3c 61ca 123e
00000280: 2764 0f3d 5048 41bd b337 04bd 051f 01bd
00000290: d4c4 97bd a190 2fbd 69db 793d bd62 183c
000002a0: 0b06 903d faa2 8abd 01e2 943d 8345 ff3c
000002b0: 48cb 8abd bf8c 9fbc c753 9f3c 3755 69bd
000002c0: 3617 023d 7ec0 a53d 034a 20bd 1d0c 97bb
000002d0: 6b93 9b3d 6196 f7bc 1863 7bbd 30e3 e73c
000002e0: ea81 84bd 361a 953d 9217 fdbc e6cf 0c3d
000002f0: b774 16bc e143 e1bc a935 07bd 3b64 7d3d
00000300: 1a9d 65bd 1a31 8c3d 4188 283d 55b2 18bd
00000310: 3c87 8d3d dc2f 8c3d ef76 61bd 75c9 203c
00000320: 0c22 123d 52df fbbb f079 c33d 89f3 a2bc
00000330: d5e2 11bd 19d8 093d 4c28 a2bb 97b0 d23d
00000340: d563 6ebd 189a 97bc ea3f 0bbd c894 d93c
00000350: a940 f9bb 2d48 2bbd 0cbf 55bd 3e67 08bd
00000360: 44a2 c5bd cf27 5f3d a92b 3c3d 8125 21bd
00000370: 7137 bf3d 0f53 b43d f3e1 53bc e518 2c3d
00000380: efc3 ff3b 5c24 b13d 0c55 053a 27ef 4fbc
00000390: 93de 803d c5a1 f8bd 947f ad3c d18a 94bd
000003a0: 75c3 e53a 70bb a23c 8a2f 96bd 002b ecbc
000003b0: 0f11 babc 7c32 8bbb 997e a63c 9700 64bd
000003c0: 75b3 c43d e19a 0dbc 8d2d 41bb cd35 dd3c
000003d0: 2ded 15bd f80c 6d3c b1a5 b6bd 79e4 aab9
000003e0: f31a daba c2da 9bbd 671d a53c 5894 94bd
000003f0: 3117 7cbd d718 84bd f8a5 c9bb f3f3 143c
-0.055460837 -0.065656655 0.1536626 -0.11722965 -0.046330944 -0.061574195 -0.09798338 0.08748322
0.034273442 0.018100042 0.018877171 0.0038614161 0.011890181 -0.04958512 0.054018434 -0.003566105
0.09934942 0.038656652 -0.099974975 0.04527794 0.08915178 -0.033425603 -0.029372098 -0.14161994
0.029785587 -0.09673653 -0.111800395 0.017612107 -0.05506123 0.047474083 -0.11783421 -0.0978102
-0.079564326 0.0024866092 -0.10841737 -0.21009229 -0.067727886 -0.04817444 -0.0056109494 0.016366696
-0.12085488 -0.07962047 0.021647802 -0.07532777 -0.108915076 0.08106814 -0.07474463 0.0022544612
-0.08731474 -0.09965262 -0.12745735 -0.11324774 -0.09464024 -0.10154227 -0.074199334 -0.12089499
0.043219708 -0.11392233 -0.08088299 0.007833272 -0.07046495 -0.03185237 -0.074254416 -0.064986795
0.019948343 0.058743674 0.0043163174 0.011237678 0.0058489703 -0.12523454 -0.079160035 -0.0038950455
-0.09784077 0.13628371 -0.05999008 0.05781645 -0.030211955 -0.034070764 -0.11063854 0.053320788
-0.10781064 0.023776073 -0.048191987 -0.041095372 -0.06372305 -0.021786662 0.067452766 -0.089754015
-0.1138527 0.0055877194 -0.036334917 -0.071412474 -0.0047757435 0.05696123 -0.08554058 0.049508817
-0.086097255 -0.05931263 -0.05905536 -0.10175611 -0.06629972 -0.12285217 0.07018271 -0.040986262
0.14771561 0.022479666 -0.007891323 -0.012524386 -0.025061034 -0.042263083 0.07059436 -0.046097483
-0.033510584 -0.16591626 -0.034859814 0.07208232 -0.0013186692 -0.119718134 -0.10278713 -0.031120246
-0.047088742 0.14206393 -0.13694645 -0.02522123 -0.13448557 0.11073853 -0.13875876 -0.0820122
0.015866753 0.036326222 -0.024593193 -0.026519831 0.05533726 -0.04340485 0.053074803 0.035192702
0.02215691 -0.04682824 0.084204346 0.0058131907 -0.025427366 0.03854819 -0.04910285 0.009967083
0.07191303 0.006519152 0.011295354 -0.024865104 -0.071473695 -0.023363706 0.09939036 0.06967431
-0.04426124 0.027718436 0.020136874 0.062493358 0.07720812 -0.015715234 0.015539803 0.14335014
0.035007622 -0.047188103 -0.03227968 -0.031523723 -0.07410589 -0.04286254 0.06100026 0.009300885
0.070324026 -0.067693666 0.07269669 0.031161075 -0.06777054 -0.019476293 0.019449128 -0.056966033
0.031760417 0.080933556 -0.039133083 -0.0046095983 0.07596477 -0.030223073 -0.0613738 0.028306574
-0.06470092 0.0728039 -0.030895028 0.034377955 -0.0091831 -0.027498187 -0.03301016 0.061863165
-0.056058027 0.06845303 0.041145567 -0.037279446 0.069105595 0.06845066 -0.055045065 0.009813656
0.035677 -0.007686534 0.09544742 -0.019891517 -0.035616715 0.033653352 -0.0049486514 0.10287588
-0.058200676 -0.018506095 -0.0339965 0.026560202 -0.007606585 -0.04181688 -0.05218415 -0.033301584
-0.0965009 0.054481324 0.045940075 -0.039342407 0.093367465 0.08804905 -0.012932288 0.04201593
0.0078053395 0.08649513 0.00050862203 -0.012691296 0.06292453 -0.1214023 0.021178998 -0.0725304
0.0017529564 0.019864768 -0.07333286 -0.028829098 -0.022713212 -0.0042479616 0.020324038 -0.055664625
0.09604541 -0.008642883 -0.0029476613 0.027003193 -0.03660314 0.014468424 -0.08918322 -0.00032595152
-0.0016640112 -0.07610084 0.020155622 -0.07254857 -0.061545555 -0.0645005 -0.006153818 0.009091365

net.2.bias f4 [192]
00000000: c43e 44bc 28e1 803d 6e66 403d 51f9 a13c
00000010: 018e ab3c 93b6 933b f6e1 ce3c 4fd9 543b
00000020: 5dd4 cabd 6b10 35bb 9411 ec3c 2844 50bd
00000030: 3258 9d3b bd38 5cbb 55ec 99bc 6688 753d
00000040: 85b3 6a3d 0c49 243c 065c 083d ed4e fe3d
00000050: da60 9dbc 0f1d cc3c 1c34 9abb d090 ea3d
00000060: 8538 523d 3073 993d fcac 193d 1cde 153e
00000070: c546 cb3c 8b03 283c 9412 1cbd 8d43 263d
00000080: e8d7 5a3c b8f9 833b 2272 8d3d beff 323d
00000090: be9e d83c 1315 6e3d 8b97 8bbd 6cfc 13bb
000000a0: a2ae 4cbd ae49 47bd fe76 a33d cd96 eb3d
000000b0: f697 08bd 490b d4bc c1a6 5bbd 11a1 0d3b
000000c0: 2a79 853d 2aad 1bbd 6782 fe3c cc47 d73d
000000d0: 983a fe3c 057b 86bc 4540 a63d 1d94 aabc
000000e0: a60f a83c 4388 adbd 495c 133b c496 dfbc
000000f0: 0d0d 913b 1aa3 3d3c d098 8d3d b671 cebc
00000100: 055f 6fbd af4f 45bd 5329 5ebd 0ad0 1abd
00000110: 9f64 1cbd 85e0 6dbd 43eb 7a3d a499 9bbd
00000120: ae27 b4bc aec3 763c c39e a63c 8983 7c3d
00000130: 958a 653b 4c17 803d ccfa 573d 1099 f93c
00000140: eb41 d33c c39a a33c ad09 723c 48fa 9fbb
00000150: a0b9 b5bc 7c17 05bd d966 393d 77ee 523d
00000160: cfe9 75bd f451 aa3d 659a 403d 4a92 cd3d
00000170: 105f 05bd 3d7c ae3d ec27 d13b 1fdd e03d
00000180: aa52 413b 0795 a9bd b3e7 a1bd 4825 a6bc
00000190: 2a0a a73c 6452 1ebd a555 40bc 56f9 69bd
000001a0: d680 e33d 2b31 cabc 7464 913d 843a b8bc
000001b0: 8400 a53d 3f0a 283d 0594 253d c4e4 66bd
000001c0: 3344 0bbd 6142 9e3d c3d5 be3d 6d61 813d
000001d0: 51d0 c73d 7fbb e0bd 6352 f03c 6a33 0cbd
000001e0: c74b bfbd b969 733d 963e 44bc 5b2b a53c
000001f0: 38f2 bd3c 47d1 0dbd a80e c93c dbd2 713d
00000200: 1ce5 bdbc b6b6 8b3d eef2 71bd 6c26 90bc
00000210: 2390 94bc 6379 14bc f380 acbd bf05 443d
00000220: 6459 ee3a d4b5 df3d 86a8 e9bb 6fb1 e43c
00000230: df87 4cbd 7676 49bd 9ad6 1eba 3f96 393c
00000240: 6682 de3d 5fdd b9bc 309b 2cbd 5e5f e13d
00000250: 4360 153e 1529 c8bc 6998 a93c 9c2a 023e
00000260: c899 883d b78f 6b3d b13c e53d f03a 633d
00000270: beae 1a3d 0e36 413d d119 ae3d 563f 153e
00000280: 1ff2 94bc a847 143d 0994 bbbd ce5d b4bc
00000290: 9a24 e83c d162 e0bd 6ffa 233d 6bb2 d33d
000002a0: 97b3 323d e0a2 c13d 1af4 40bd 310b b33d
000002b0: 06f3 4bbd 4780 11bd 11b5 023c 70ab ac3b
000002c0: cd9e 8fbc 96f0 e13d 411e 473d 53d9 6d3c
000002d0: f34d a53d c9e0 49bd 1d45 503d 56cb 1cbb
000002e0: fa24 95bd 79af 343d 7a7a bf3c 1d79 24bd
000002f0: 3780 07bc 7eef 273d 37cb 443d f2d5 67bd
-0.011977855 0.06292945 0.046972685 0.019772204 0.020941736 0.0045078485 0.025254231 0.0032478159
-0.09903786 -0.0027628194 0.028816976 -0.05084625 0.0048017735 -0.0033603155 -0.01878945 0.059944533
0.05730011 0.010027181 0.033290885 0.12417398 -0.019211221 0.0249162 -0.004705919 0.11453402
0.051323432 0.074926734 0.037518486 0.14635509 0.024814019 0.010254751 -0.038103655 0.040591765
0.01335714 0.0040275715 0.06906535 0.043700926 0.026442882 0.058125567 -0.06816014 -0.0022580875
-0.04997123 -0.04865425 0.0798168 0.11503372 -0.033348046 -0.025884287 -0.053625826 0.0021610896
0.06517251 -0.03800694 0.03106804 0.10511741 0.031033799 -0.016416082 0.08117727 -0.020822579
0.020515274 -0.084732555 0.0022485426 -0.02729357 0.0044266046 0.011574531 0.06913912 -0.025200706
-0.058440227 -0.048171695 -0.05423863 -0.037796058 -0.038181897 -0.058075447 0.06125952 -0.07597664
-0.021991577 0.015061302 0.020339375 0.06164888 0.0035025228 0.062544435 0.052729413 0.030468494
0.025788268 0.019971257 0.014772815 -0.004882131 -0.02218324 -0.0324931 0.0452641 0.05149695
-0.06003743 0.083164126 0.047022242 0.10037668 -0.03256136 0.0851979 0.006382933 0.109796755
0.0029498735 -0.08280378 -0.07905521 -0.020281449 0.020390589 -0.038652793 -0.011739169 -0.05712255
0.11108558 -0.024681648 0.07099238 -0.02248884 0.08056739 0.041025396 0.040424366 -0.05637051
-0.034000587 0.077275045 0.093181156 0.063174106 0.0975653 -0.10973262 0.02933616 -0.03422872
-0.09340625 0.059426997 -0.011977812 0.020162275 0.023186788 -0.03462341 0.024543121 0.059038978
-0.023180537 0.06821959 -0.059069566 -0.017596446 -0.018135136 -0.009062144 -0.084230326 0.047857042
0.00181846 0.10923353 -0.0071306853 0.027916638 -0.049934264 -0.04918524 -0.00060592 0.011327325
0.10864715 -0.022688566 -0.042140186 0.11004518 0.14587502 -0.024433652 0.020702558 0.12711567
0.066699564 0.057510104 0.111932166 0.05547613 0.037764303 0.04717069 0.08501018 0.14574942
-0.018181859 0.03620115 -0.09159095 -0.022017386 0.028337765 -0.10956348 0.040033754 0.10336765
0.0436283 0.09454894 -0.047107793 0.08742369 -0.049792312 -0.035522725 0.00797774 0.0052694604
-0.017531777 0.11032216 0.048612837 0.014517146 0.08071508 -0.049286637 0.05084716 -0.0023924909
-0.07282443 0.044112656 0.023373831 -0.040154565 -0.008270315 0.040999882 0.048045363 -0.05660052

exp_avg f4 [128, 142]
00000000: 6184 133b 8cdc 0e3b 5315 2b3b 459d d93c
00000010: c5ae 603a dabc 333b 2aea d038 6089 393b
00000020: 923f 0c3b 68af 0d3b 951d 1f3a d3a0 dc3c
00000030: 5362 543b 298a 063b a3de 323b 5afd 333b
00000040: 725e 97b9 f19c ae3c d7e3 bb3c aa7b cd3c
00000050: 93dc e23c 77c4 db3c 58c5 cc3c bb92 4a3b
00000060: ad4f e8ba d9ea e43c 77d6 4a3b 7955 a83b
00000070: 1ade 043d 1976 033d 44a9 9f3c ac4f f33c
00000080: 40f4 03bc 2093 97bb 4d94 adbb 2c04 afba
00000090: b498 b83c 919e 053d 062d c73c a0bb cc3c
000000a0: c121 5cbc e1ef cd3c 7a3c fc3c 8ef0 c23c
000000b0: 2904 df3c 3951 c73c 29f6 0bbc d5ea 32bb
000000c0: dc75 aeba fb04 a23c d84b 31b8 460e 043b
000000d0: ee20 02b9 127e 2e3b 0be2 953b 00c9 b8bb
000000e0: 8cac feba 9ff6 ec3c 2e8b bd3c 7a94 ce3c
000000f0: f1d1 bd3c 6d8c 2f3b 9893 0c3b 6ec2 1739
00000100: e117 893c 0970 8a3c 32cc dd3c 335c f33c
00000110: 395c f33c 7132 0fbc 70fc 77bc b659 d6ba
00000120: 0000 0000 0000 0000 fe93 083b 4678 2bbb
00000130: 0a17 b73a 0000 0000 0000 0000 49b9 413b
00000140: 0000 0000 0000 0000 0000 0000 0000 0000
00000150: 1595 423b 0000 0000 0000 0000 0000 0000
00000160: 0000 0000 c66d 96bb e294 e33c 6cfc b73c
00000170: 5163 f338 ed61 f438 d872 0f3d 7af8 e23c
00000180: e303 58bc 0000 0000 0000 0000 681e d0bb
00000190: 23e9 5ebb 48b0 efbb 0000 0000 0000 0000
000001a0: e5da 833a 0000 0000 0000 0000 0000 0000
000001b0: 0000 0000 d5c6 9eb2 0000 0000 0000 0000
000001c0: 0000 0000 0000 0000 1394 d5bb 977d 4bbc
000001d0: c767 38bc eddf 2738 e25b 39b5 ac33 fcbb
000001e0: 1d74 1ebc 2b76 efbb 0000 0000 0000 0000
000001f0: e8eb 383a e92d 753b b7bc 673b 0000 0000
00000200: 0000 0000 814b 753a 0000 0000 0000 0000
00000210: 0000 0000 0000 0000 9469 133a 0000 0000
00000220: 0000 0000 0000 0000 0000 0000 6782 1139
00000230: 62ce 7eba ab6a aa3b 200a b73a 75a3 b13a
00000240: 0613 823b ebdf dcbc 2102 213b 8655 823b
00000250: fb0d 3bb8 2bc1 113b 44d8 d03a 3895 bd3a
00000260: 028a 463b 5021 00bd 79ac f8b8 1e13 4cbb
00000270: d405 0c3b bf05 133b 7a8c 2cba e2f4 03bd
00000280: 7c0c 10bd 4191 1abd eeed 09bd e2e8 08bd
00000290: b6f1 f8bc aff7 b5bb e5be eeba 6935 d0bc
000002a0: 9288 303b 9a04 c3b7 4990 efbc 8360 f2bc
000002b0: e981 fbbc c8c0 02bd c44a 11b9 ba82 af3b
000002c0: 2b44 8b3b 7f4c b83a 22d2 01bd 2858 efbc
000002d0: 58e3 10bd 3537 0dbd 08a2 beba c06e e3bc
000002e0: d527 fcbc 1ee6 e8bc 7c91 fbbc c144 04bd
000002f0: 02bb cfbb 50cb dbba d813 643b cc00 d2bc
00000300: 863e 943b ca53 b03b 7dca 953b aea1 243b
00000310: 8bdf 86ba 8026 093b 0ee5 52ba 7683 e0bc
00000320: f0c3 fbbc cf84 f5bc e0ae fbbc 047c 1e3b
00000330: 9ead 53bb 8219 4fb9 94cb 1ebd 6e09 00bd
00000340: 0787 03bd f09a 07bd f19a 07bd 349f 96ba
00000350: c5f4 453a 7144 a43a 0000 0000 0000 0000
00000360: 04be 5abb 1822 253b df30 a33a 0000 0000
00000370: 0000 0000 6d47 47bb 0000 0000 0000 0000
00000380: 0000 0000 0000 0000 5d06 47bb 0000 0000
00000390: 0000 0000 0000 0000 0000 0000 8e31 0c3b
000003a0: 2e03 cbbc c424 09bd 8e9d 59b9 e607 5ab9
000003b0: 0027 f8bc d39e c8bc 8268 fe3a 0000 0000
000003c0: 0000 0000 7284 643b 93fd c43b cdd4 65b9
000003d0: 0000 0000 0000 0000 0f5c a03a 0000 0000
000003e0: 0000 0000 0000 0000 0000 0000 44d7 3bb2
000003f0: 0000 0000 0000 0000 0000 0000 0000 0000
0.0022509324 0.0021798937 0.002610524 0.02656425 0.00085709646 0.0027425797 9.961829e-05 0.0028310642
0.0021400196 0.0021619443 0.0006069777 0.026932156 0.0032407239 0.0020529127 0.0027293346 0.0027464242
-0.00028871332 0.02131507 0.022935791 0.025083382 0.027693069 0.02682708 0.024996445 0.0030910212
-0.001772394 0.027944015 0.0030950585 0.0051371423 0.032438375 0.03209505 0.019489892 0.029701076
-0.008053839 -0.004625693 -0.00529722 -0.0013352684 0.022533752 0.032621924 0.024313461 0.02499181
-0.013435782 0.025138797 0.030790556 0.023796346 0.027223663 0.024330722 -0.008542576 -0.0027300615
-0.0013310271 0.019777765 -4.2270723e-05 0.002015011 -0.00012410033 0.0026625437 0.0045740656 -0.0056391954
-0.0019430085 0.028926192 0.023137655 0.025217284 0.023171397 0.002678658 0.0021450277 0.00014472913
0.01673502 0.016899126 0.027074907 0.02970705 0.029707061 -0.0087400535 -0.015135869 -0.001635364
0.0 0.0 0.0020840163 -0.0026164218 0.0013968658 0.0 0.0 0.0029559901
0.0 0.0 0.0 0.0 0.002969091 0.0 0.0 0.0
0.0 -0.0045907227 0.027780954 0.022459231 0.00011605642 0.00011653067 0.035021633 0.027706373
-0.01318452 0.0 0.0 -0.006351281 -0.0034013472 -0.0073147155 0.0 0.0
0.0010059742 0.0 0.0 0.0 0.0 -1.848404e-08 0.0 0.0
0.0 0.0 -0.006517896 -0.01242008 -0.011255211 4.002445e-05 -6.905158e-07 -0.0076965895
-0.009671238 -0.007307788 0.0 0.0 0.0007054196 0.0037411398 0.0035360286 0.0
0.0 0.0009357259 0.0 0.0 0.0 0.0 0.00056233373 0.0
0.0 0.0 0.0 0.00013876856 -0.00097200845 0.005200704 0.001396481 0.0013552742
0.003969553 -0.026962241 0.002456792 0.0039774803 -4.4597295e-05 0.0022240381 0.0015933593 0.0014464026
0.0030294661 -0.03128177 -0.00011857687 -0.0031139324 0.0021365779 0.0022433845 -0.0006582212 -0.03221596
-0.035168156 -0.03773618 -0.033674173 -0.03342522 -0.030388694 -0.005553208 -0.001821485 -0.025416093
0.002693687 -2.3247954e-05 -0.029243605 -0.029587036 -0.030701594 -0.03192213 -0.0001385613 0.00535616
0.0042500696 0.0014060884 -0.03169454 -0.02921684 -0.035373062 -0.034476478 -0.0014544139 -0.02776277
-0.030780712 -0.02843004 -0.03070902 -0.03229213 -0.0063394317 -0.0016768966 0.0034801867 -0.025635146
0.004524055 0.005381082 0.0045712576 0.0025120783 -0.001029001 0.0020927489 -0.0008044996 -0.027406435
-0.030733079 -0.029970555 -0.030723035 0.0024182806 -0.0032299529 -0.00019750561 -0.038768366 -0.031258993
-0.032111194 -0.033106744 -0.033106748 -0.0011491538 0.0007551427 0.0012532604 0.0 0.0
-0.0033377418 0.0025197323 0.0012450478 0.0 0.0 -0.0030407563 0.0 0.0
0.0 0.0 -0.0030368783 0.0 0.0 0.0 0.0 0.0021391842
-0.02478179 -0.033482328 -0.00020753426 -0.00020793042 -0.030292034 -0.024489796 0.0019409808 0.0
0.0 0.0034868983 0.0060116737 -0.00021918416 0.0 0.0 0.0012234467 0.0
0.0 0.0 0.0 -1.0933778e-08 0.0 0.0 0.0 0.0

exp_avg_sq f4 [128, 142]
00000000: 95bb fb3b e3b1 0d3c 4124 ad3b e249 203c
00000010: e18f 013c 4892 103c 74e7 0e3c c94e 4d3c
00000020: 51bd 073c 57d6 143c 6fb7 123c 707a 513c
00000030: eb55 193c 0829 cc3b f175 213c 5e43 b33b
00000040: 2853 e83b 8e4d 4a3c ab1f 3d3c b255 fd3b
00000050: d750 1d3c 600f 1c3c 00c5 513c a4f8 263c
00000060: 58d9 0a3c 30f4 383c 00ca 363c 9414 123c
00000070: 2d65 433c 41f8 1b3c a54a 143c abd4 2c3c
00000080: f518 313c b196 1d3c 4642 463c ef8a 4a3c
00000090: 99f7 1b3c f2cf 2d3c 45a1 513c 4443 f53b
000000a0: 1a81 383c b512 263c 45a7 453c 694a 173c
000000b0: a288 283c c236 373c db4a 243c 2e71 213c
000000c0: 2e09 4d3c af34 243c d65c 123c e602 0d3c
000000d0: 3d3e 1b3c b4ec ed3b ae57 6e3c 6a5b 303c
000000e0: f3b3 193c 35ab 1f3c 0796 443c a425 273c
000000f0: f099 ff3b 4d4d b63b d492 383c 28db ec3b
00000100: 2fed 263c aab0 023c 43d9 bc3b b22b a93a
00000110: 6f26 503a 344f 143c 2013 cb3b 86e2 8c3b
00000120: 0000 0000 0000 0000 a406 9c3b 958d 893b
00000130: 7a40 2b3b 0000 0000 0000 0000 1eb7 0c3a
00000140: 0000 0000 0000 0000 0000 0000 0000 0000
00000150: 52a0 4739 0000 0000 0000 0000 0000 0000
00000160: 0000 0000 b773 423c e1e1 463c 73d7 143c
00000170: b3bd 833a a691 273a 5172 413c 2620 1d3c
00000180: 285f bd3b 0000 0000 0000 0000 3ceb 183c
00000190: 0ff1 073c 0bf5 af3b 0000 0000 0000 0000
000001a0: 28a2 903a 0000 0000 0000 0000 0000 0000
000001b0: 0000 0000 edd2 d539 0000 0000 0000 0000
000001c0: 0000 0000 0000 0000 5adc 413c b25b 1b3c
000001d0: cbac c63b e259 123a 6f00 083a 8fbe 283c
000001e0: 27b9 113c eca3 d03b 0000 0000 0000 0000
000001f0: 0b05 e83b 026e a73b 7ae8 613b 0000 0000
00000200: 0000 0000 f8b9 ae3a 0000 0000 0000 0000
00000210: 0000 0000 0000 0000 4fdf 6f3a 0000 0000
00000220: 0000 0000 0000 0000 0000 0000 4416 463d
00000230: 27a5 e33c 8196 d43e cd43 023c deb0 103c
00000240: 7016 fe3b e597 073c dbf8 133c 1365 1d3c
00000250: c26f f53b 9732 143c 37e3 053c 7195 223c
00000260: d12f 1d3c d7fb 273c f87e 153c 5d68 f33b
00000270: 98cb 183c 5f1e 073c b4cb 9c3b c526 123c
00000280: 736e fb3b 3f15 bc3b da24 cf3b 59e0 c63b
00000290: 9192 0b3c 51da 103c 2b72 cf3b 29f1 283c
000002a0: 1c8f 253c 4bfb 193c b9ec 493c 9eae 183c
000002b0: 6bd4 ee3b 3719 2e3c f82e 043c d3c4 153c
000002c0: 01c7 3d3c 47bd 3d3c 7382 1b3c 3b65 2c3c
000002d0: 17a8 223c 264c e03b 3733 033c 0474 1b3c
000002e0: 4c66 393c 6131 373c fba2 1b3c 24ff 493c
000002f0: b9ad 0b3c 074e cf3b 3cb6 213c 83d8 383c
00000300: 2903 0f3c 0848 213c cecb d93b 4544 eb3b
00000310: 86f5 123c 4319 ac3b 8ece c03b e65d 253c
00000320: 2693 023c 1fbb 0c3c ef1d 883b 2624 cd3b
00000330: 0190 aa3b 1c78 5d3b eeb4 093c c1b3 103c
00000340: 34cd 903b ef7b c43a 34b6 133a 94da 053c
00000350: a204 943b bac1 3f3b 0000 0000 0000 0000
00000360: 4a0f 8e3b f12a 643b ef32 063b 0000 0000
00000370: 0000 0000 1685 073a 0000 0000 0000 0000
00000380: 0000 0000 0000 0000 0c49 dd38 0000 0000
00000390: 0000 0000 0000 0000 0000 0000 9f0b 283c
000003a0: b724 433c 130d 093c 3040 453a f4b5 1e3a
000003b0: 08e0 3f3c b55b 283c 9810 cc3b 0000 0000
000003c0: 0000 0000 9091 c23b 75f5 ee3b b824 983b
000003d0: 0000 0000 0000 0000 ebbc ec39 0000 0000
000003e0: 0000 0000 0000 0000 0000 0000 fb54 c739
000003f0: 0000 0000 0000 0000 0000 0000 0000 0000
0.0076822736 0.0086483685 0.005283863 0.00978324 0.007907839 0.008823939 0.008722175 0.012530991
0.008284883 0.009084306 0.008954867 0.012785539 0.009358863 0.0062304772 0.00985478 0.0054706773
0.007089991 0.012347592 0.011543195 0.007731163 0.009601793 0.00952515 0.012803316 0.0101911165
0.00847467 0.011288688 0.011156559 0.008916039 0.011925978 0.009519638 0.009051 0.010548751
0.010809173 0.009618447 0.012100762 0.012362226 0.009519481 0.01060866 0.012794797 0.0074848253
0.011261249 0.010136296 0.012063806 0.009234049 0.010286482 0.011182489 0.010027613 0.009853644
0.012514396 0.010022326 0.008933267 0.008606648 0.009475288 0.007260883 0.014547272 0.010763982
0.009381282 0.009745409 0.01199866 0.010201845 0.007800333 0.005563414 0.011265475 0.007228274
0.010188385 0.00797669 0.0057632043 0.0012906699 0.00079402974 0.009052087 0.0061973482 0.0042994646
0.0 0.0 0.004761534 0.004197786 0.002613096 0.0 0.0 0.0005367863
0.0 0.0 0.0 0.0 0.00019037843 0.0 0.0 0.0
0.0 0.011868409 0.012138815 0.00908457 0.0010051042 0.0006392248 0.01180704 0.009590184
0.005779166 0.0 0.0 0.009333428 0.008297219 0.0053697876 0.0 0.0
0.0011034654 0.0 0.0 0.0 0.0 0.00040783678 0.0 0.0
0.0 0.0 0.011832321 0.009482311 0.006063079 0.00055828516 0.0005188053 0.010299339
0.008894241 0.0063671973 0.0 0.0 0.0070806793 0.0051095495 0.0034470842 0.0
0.0 0.001333057 0.0 0.0 0.0 0.0 0.0009150402 0.0
0.0 0.0 0.0 0.048361078 0.027788712 0.41521075 0.007950735 0.008831231
0.0077541396 0.008275961 0.0090315 0.0096066175 0.007490129 0.009045265 0.008171848 0.009923325
0.00959392 0.010252914 0.00912451 0.0074282126 0.009325884 0.008246987 0.0047850255 0.008920376
0.0076730787 0.0057398374 0.0063215317 0.006069225 0.008518831 0.008841113 0.0063307486 0.010311403
0.010104921 0.009398292 0.0123245055 0.009318976 0.007288506 0.010626129 0.008067839 0.009141165
0.011583091 0.011580772 0.009491551 0.010522182 0.009927771 0.006845015 0.008007816 0.0094881095
0.011315893 0.011181206 0.009499307 0.012328897 0.008525305 0.0063264403 0.009870108 0.011282089
0.008728781 0.009843834 0.00664661 0.007179769 0.00896967 0.005252035 0.0058839982 0.010093188
0.007969653 0.008589535 0.004153959 0.0062604127 0.005205155 0.0033793515 0.008404953 0.008831919
0.0044189934 0.0014990548 0.00056347554 0.008169789 0.004517154 0.0029259757 0.0 0.0
0.0043353187 0.0034815634 0.0020477136 0.0 0.0 0.00051696727 0.0 0.0
0.0 0.0 0.00010551707 0.0 0.0 0.0 0.0 0.010256677
0.011910609 0.008364934 0.00075245183 0.0006054335 0.011711128 0.010275771 0.006227564 0.0
0.0 0.0059377626 0.0072924444 0.004643049 0.0 0.0 0.00045154183 0.0
0.0 0.0 0.0 0.00038019553 0.0 0.0 0.0 0.0

exp_avg f4 [128]
00000000: 942b b13c 48cd e4bc dd0a 0f39 0cf1 4e3d
00000010: e5c3 c8b9 8163 673c e2b6 bcbc db07 93ab
00000020: 0cbd 0f3b b426 06bd cafa dbb9 f946 a23b
00000030: f098 f5ba ea60 033c 77cb 8c21 24bb 5238
00000040: ff0f 0e38 31ac 42ba 07d6 5abc b9a9 dc2e
00000050: ed48 22a5 8e95 14bb b161 fb3c e09d 4a3d
00000060: 9fc9 f337 7556 fb3a c9b7 443b 71e9 bc38
00000070: 4974 113d 2430 69bb 0b55 2f3d 5145 8cbc
00000080: 4048 7c3d 358f 3bbd 1f97 9abc d68a 28bc
00000090: b5f9 173b e4a9 4639 7688 eaba aea9 043c
000000a0: 91ff b63c 4b93 dbb7 cb44 a938 061e b637
000000b0: 5bcf 013d 06d7 bfbb e283 af3b 8541 ad3b
000000c0: cde6 593d a82b d5bc 402a f43b a5af bfba
000000d0: a1e0 dc38 e2e8 8b3b 7a58 81bb 5dd7 05bc
000000e0: 0658 292c 89ee 7bbc a023 34bd cbf0 9f3c
000000f0: 7448 0199 e5eb aab7 1d43 eb3b b4ff aa37
00000100: 0702 883b feee 96ba 68fc 8b36 c2e2 753d
00000110: ac2f 9aba 45b5 41bd 54ee 3311 e9d4 efbb
00000120: 82bf b13b 602f 943a cb31 9a3c 42b3 0928
00000130: ede7 ca31 3562 ba3b c472 973b 695d 59bd
00000140: 942b 423c 3c41 3cbd 8107 df3c aae5 683b
00000150: 18e1 3f3d 9a32 093d 42c9 3838 bde2 b62e
00000160: eeee b4bb 856c 103d d21e aa3b 59ae 6b39
00000170: c82d 4336 9906 9439 6f8e d7bc beb4 aa28
00000180: 3327 ada3 10a9 26bd 9f9b e9bc 1480 783c
00000190: d6a9 26bd 777d 13bb c191 9439 d448 d52a
000001a0: 5618 29bc ae8c 13bc c613 13b7 6ab3 1eba
000001b0: 9813 af13 a26c 0b3b 88af 9c34 de9b 9dbb
000001c0: 37cc 9cbd 8c17 493c 63c3 2834 cc4d b0a3
000001d0: 0cf2 c9ba eba4 743c 6382 ccb5 63d9 1cba
000001e0: 1708 fd3c 9105 f933 7194 1dbd f2ce 53bd
000001f0: f532 7cbc 14a7 3bba 64f5 0b39 1ace 15bc
0.021627225 -0.027929917 0.0001364159 0.05052285 -0.00038292925 0.014122845 -0.023036424 -1.0447159e-12
0.002193275 -0.032751754 -0.00041957787 0.0049523083 -0.0018737596 0.008018712 9.540626e-19 5.024219e-05
3.3870336e-05 -0.0007426171 -0.013356692 1.00345905e-10 -1.4075968e-16 -0.002267215 0.030686231 0.049466968
2.9061744e-05 0.0019175546 0.003001677 9.0080204e-05 0.03551129 -0.0035581673 0.042805713 -0.017122896
0.06159234 -0.04579087 -0.018870888 -0.010287007 0.0023189608 0.0001894604 -0.0017893452 0.008097095
0.02233866 -2.6175423e-05 8.071362e-05 2.1710071e-05 0.03169189 -0.00585449 0.005356298 0.0052873516
0.053198624 -0.026021793 0.0074513257 -0.001462449 0.00010532258 0.004269705 -0.003947315 -0.008169022
2.4065207e-12 -0.015376695 -0.043979287 0.019523999 -6.6837755e-24 -2.0375426e-05 0.0071796314 2.038465e-05
0.0041506323 -0.0011515317 4.1719068e-06 0.060030706 -0.0011763475 -0.047292013 1.4194051e-28 -0.007319082
0.005424441 0.0011305623 0.018822571 7.643898e-15 5.9053407e-09 0.0056879767 0.0046218354 -0.0530676
0.01185121 -0.04596065 0.027225258 0.003553728 0.046845526 0.033495523 4.4056454e-05 8.3166786e-11
-0.0055216467 0.035259742 0.0051916623 0.00022476296 2.9083913e-06 0.00028233675 -0.026313035 1.8952176e-14
-1.8773299e-17 -0.040688574 -0.028516589 0.015167255 -0.040689312 -0.0022505203 0.00028337355 3.7886935e-13
-0.010320744 -0.009005709 -8.766487e-06 -0.00060539565 4.419553e-27 0.0021274467 2.918498e-07 -0.0048098406
-0.076561384 0.01227368 1.57173e-07 -1.9114906e-17 -0.0015407219 0.014931898 -1.5237132e-06 -0.0005983321
0.030887647 1.15959786e-07 -0.038471643 -0.05171103 -0.0153930085 -0.00071583805 0.00013347488 -0.009143377

exp_avg_sq f4 [128]
00000000: 471e 993c 73bb 853c 62e2 273a cca3 1e3c
00000010: 16da 9f3a 6022 963c 39e9 753c 404b 9539
00000020: a7ff 9b3b e40f 1d3c 35e7 7c3c e375 703a
00000030: dc07 113c 5281 a83c 49c9 9f3a edc6 883b
00000040: 1e14 293a ea02 933a fe74 813c 8be2 2b3b
00000050: e663 333a fb62 1b3b f309 033c 5af6 733c
00000060: 3893 aa3a 05da 003c 77b2 c53a 3909 603c
00000070: 45c2 923c e5e4 753b 2da8 2a3c 24f0 353c
00000080: f9fb 963c c452 a53b b8e5 db3c 9e15 473c
00000090: da5c 1f3c 6c68 2e3b 5852 2c3c 29a5 c43b
000000a0: 536f 833c 8d27 c33a dfe1 883b e518 513b
000000b0: 7b7b 283c 57a2 053a f65e 8f3a ad6b a33b
000000c0: e84a 5f3c bcc1 803b 8289 b33c f3f4 ab3c
000000d0: d007 723c 0e55 023c 1b28 5c3c 0037 963c
000000e0: f9ec a43b ee5c 153c 423f 813c d6b1 b23c
000000f0: d6b8 2739 f1c5 893a 5c9d f839 4113 a93a
00000100: 47d4 d23b f3c8 9f3b 8b10 b739 4aa6 bc3c
00000110: ee44 4a3b 9531 5d3c cb22 5238 8f8d f03b
00000120: 21af 6e3b 2433 543a f450 693c 7fef 9f39
00000130: cdbd 513a 20bd a33a f749 7a3b 20c9 393c
00000140: 65f6 e03b 59fe 333c efe7 093c 7565 853c
00000150: de3c eb3b 7c0a 3c3c a5ea d63a b03a bc3a
00000160: 96f4 043c 4b62 843c f510 a53c cafa 3d3b
00000170: 3da3 b53b dfa3 133b 7063 ce3c 73c3 bd38
00000180: d013 9839 4daa 783c 9af5 103c 55b4 843c
00000190: 63af d43b 29d9 8d3b 4bf7 8339 4c6b 7a3a
000001a0: 6b04 a33b 076d 633b c696 d13a eb1a e73a
000001b0: 9f94 5238 2b4b 0b3b 2d5f be39 cc56 973b
000001c0: f6b0 7b3c 20af 5d3c a233 2238 cdca 083a
000001d0: a51d f13b 395d 023c 57cd 7f3b 6f2b 223c
000001e0: addb 523c 9517 c138 4750 383c b9aa 923c
000001f0: 2212 c13b 471c 123a ea4f b13c 0434 843c
0.018691195 0.016324734 0.0006404278 0.009682607 0.0012195732 0.018326938 0.015009218 0.0002847556
0.0047607007 0.009586308 0.015435983 0.000917284 0.0088519715 0.020569477 0.0012190725 0.0041741044
0.0006449836 0.0011216078 0.015802857 0.002622756 0.0006843194 0.002371012 0.007997978 0.014890278
0.0013013845 0.00786448 0.0015083094 0.013674074 0.0179149 0.0037520465 0.010416073 0.011104617
0.018430697 0.005045267 0.026842937 0.01215115 0.009726727 0.0026612533 0.010517679 0.006001134
0.016044294 0.0014889106 0.0041773166 0.0031905707 0.010283346 0.0005097738 0.0010938335 0.004987201
0.013628699 0.003929345 0.021916155 0.020990824 0.01477237 0.007954849 0.013437296 0.018336773
0.005033132 0.009116394 0.015777234 0.021813314 0.00015995218 0.0010511262 0.00047419488 0.0012899415
0.006433997 0.00487625 0.00034916805 0.023028512 0.003086384 0.013500591 5.0100305e-05 0.007341094
0.0036420303 0.0008094779 0.014240492 0.00030505282 0.0008001 0.0012492277 0.003819106 0.011339456
0.00686531 0.010985934 0.008417114 0.01628373 0.007178887 0.011477109 0.0016396834 0.0014360752
0.008114954 0.016160151 0.020149687 0.0028988593 0.005543141 0.0022528095 0.0251939 9.0486275e-05
0.0002900646 0.015177322 0.0088476185 0.01619927 0.0064906343 0.004328866 0.00025170515 0.00095527316
0.004974892 0.0034702437 0.0015990369 0.0017631924 5.0206316e-05 0.002125452 0.00036310536 0.0046185013
0.015362015 0.013530523 3.8671897e-05 0.0005218208 0.00735827 0.007956796 0.0039032304 0.009898051
0.012869758 9.20735e-05 0.011249608 0.017903673 0.005892054 0.00055736717 0.021644551 0.016138084

exp_avg f4 [192, 128]
00000000: 2adc 40ba d390 93b9 b407 40b6 de9c 4db9
00000010: 22bb 0db8 5c7c e9b9 1ede deba e1f1 b2a7
00000020: 9501 63b9 08e2 58b9 f62c 27b7 0096 52b7
00000030: 8048 bfb8 5e50 24ba 6162 1410 e868 9aa8
00000040: 3898 73b3 bd0a cdb8 088c c5ba 33af d11c
00000050: fba3 c6a0 ff09 79b6 afc3 2cba e274 d8ba
00000060: 8912 a195 fefd 38b4 6b48 0fb7 eec1 1735
00000070: 6b60 4dba d035 c2b6 16e7 28b9 760c c4b9
00000080: 0104 9db9 80b3 c4b8 c8f0 0dba a3ab 82ba
00000090: 6312 ab33 1090 89b8 8da3 c2b7 5bdf 1ab9
000000a0: 3dd9 68ba 605f 12b3 cf02 2836 8fdd a1b2
000000b0: cae7 5bb8 7fb3 87b8 9c7e 85b7 4cb0 13b7
000000c0: 7d31 17ba 96c4 3eb8 2d0b ae36 13f6 69ba
000000d0: e228 00ae fc47 1fb6 fa80 1737 c713 8ab7
000000e0: bf02 42a8 c431 54ba 2208 72ba 1d7c 46b8
000000f0: dddc ca95 5e8f 4eb3 4a6e c1b8 7df4 3d28
00000100: bdcb 8bb9 730f 77b8 1ad5 9e11 8768 86ba
00000110: b1ce 2ab9 ff14 08ba cf16 de10 1923 87b8
00000120: 1e8f 9ab7 1cb9 68b7 561c ceba 4b37 b9a0
00000130: e683 eaab 0b05 8db8 a28d 59b8 10de 95b9
00000140: 8349 05ba 7c5b abb9 1855 aeb8 30c9 ceba
00000150: 3a5e 24ba 2bac 55ba 0000 0000 fc40 edaa
00000160: 864d e4b7 b22d 67ba 8384 5037 24eb a6b6
00000170: b4b2 0eb2 b260 9fb6 686f 92ba 0000 0000
00000180: 5f7c 4589 42b4 92b9 2a6b 8cba d951 50b9
00000190: 85fe 73b9 f56c 032d c37b 23a9 fb09 aaa3
000001a0: 4525 14b9 567a 8cb7 d8cd 8fad ee56 78b6
000001b0: a1e2 b387 83b0 1fb7 3279 46a4 4602 1ab9
000001c0: 3edd 55ba ab35 67ba d7b1 3180 39c6 339e
000001d0: 730a feb6 b256 c6b5 8330 2635 6754 5bb7
000001e0: 5996 19ba 32ab c1ad f710 a4b9 2ad8 95b9
000001f0: a9a1 8db7 af61 beb7 a3b0 d136 b069 d5b8
00000200: c487 a7bb 411b bd3b 1acd 6cb7 f499 53b9
00000210: 4974 b13a 79d2 103c 651e a73c 5865 61a8
00000220: 35dd 88ba 37e9 c33b 88bd 5cb8 039e e2b7
00000230: 70ad 4bb9 14d6 803b e043 0080 ca33 d2a9
00000240: b514 9bb5 b7d2 2335 181a 0e3c d8e4 cf9f
00000250: fb8b b5a1 64f7 06b7 4a39 4a3c 701d 3f3c
00000260: e499 ab14 d4d0 23b5 0d16 a83a 2f01 feb3
00000270: 24ef 073c 969d abb8 aa11 51bb 4c0e 263b
00000280: 21f0 7ebb 17e3 e7b9 88b9 6c3b f1ab da3b
00000290: 8b39 89b6 7f5e 43b9 b7b9 d2b9 e768 82bb
000002a0: 599c bf3b f27c aab5 1618 2f34 d96f 01b5
000002b0: 4c73 f2b9 9950 2eb9 4906 12b8 338f a1b7
000002c0: c435 fe3a 4b76 293c d931 26ba f6e7 ec3a
000002d0: f03d b7af 721c 15bb 0ace 1fba a062 e53a
000002e0: 5697 f4a8 8099 3f3c 2016 c53b aa3f 983b
000002f0: 0d37 c896 fc02 28b4 2ba2 22b8 f1dd 012a
00000300: 9030 443b 8223 13b9 bdc5 bc8c 1c56 073b
00000310: ab16 cfb9 f9c9 483b a4a8 b78a 7899 b0b9
00000320: f3f6 77b9 8510 75b4 4c68 e33b 1335 48a1
00000330: b99f b8ad 3b13 23b9 8aa0 eb37 a44b f9ba
00000340: a119 52ba 819d c03b e8ec e6ba 4559 423c
00000350: fbef 393b ac0b f03a 0000 0000 0b2e 77ab
00000360: 37ff eaba 9b1b 143c c167 db39 c36d 3a21
00000370: 463f 49b4 cee9 c3b7 7fb8 863b 0000 0000
00000380: 78dc 5c89 c43b 63b9 cd30 0e3c ddff 3e3b
00000390: 53a5 d73b 4020 8b2f e3bf f92a 0008 8ba4
000003a0: 02d7 43ba 2b44 b93a 023b 5ea9 9aca 853a
000003b0: 214f d187 fc4d 30b7 aabf 0535 7cf4 88b9
000003c0: b590 19bb 8108 0d3c 665b bc33 9f9a a79e
000003d0: d299 4539 80fb 8bb8 85ae b834 2481 f0b7
000003e0: 8af6 fabb cc67 95ab cdf1 4fba 92b5 a93b
000003f0: e669 80b7 a564 69b8 d5f3 52b9 8388 bb3b
-0.0007357026 -0.00028145927 -2.8614713e-06 -0.00019608761 -3.37913e-05 -0.00044533878 -0.0017003452 -4.966717e-15
-0.00021648996 -0.00020683568 -9.964444e-06 -1.25519e-05 -9.121094e-05 -0.0006268079 2.9263642e-29 -1.714293e-14
-5.671629e-08 -9.777162e-05 -0.001507164 1.3875748e-21 -3.3651018e-19 -3.710971e-06 -0.00065904384 -0.0016514326
-6.5056625e-26 -1.7228737e-07 -8.540325e-06 5.653409e-07 -0.0007834497 -5.787915e-06 -0.00016107815 -0.00037393317
-0.00029948357 -9.379443e-05 -0.00054146023 -0.0009969365 7.9661525e-08 -6.559503e-05 -2.3202761e-05 -0.00014769791
-0.00088824687 -3.4080017e-08 2.5035586e-06 -1.884362e-08 -5.242954e-05 -6.4707354e-05 -1.5913793e-05 -8.80293e-06
-0.0005767567 -4.5482615e-05 5.186905e-06 -0.00089249125 -2.914014e-11 -2.3734747e-06 9.030331e-06 -1.6460092e-05
-1.0769759e-14 -0.0008094574 -0.0009232779 -4.7322468e-05 -8.193561e-26 -4.8093504e-08 -9.2235e-05 1.05446225e-14
-0.00026663943 -5.8903777e-05 2.5059339e-28 -0.001025454 -0.00016289462 -0.0005191117 8.75987e-29 -6.443839e-05
-1.8424875e-05 -1.3871377e-05 -0.0015724998 -3.137681e-19 -1.6663309e-12 -6.724343e-05 -5.1868738e-05 -0.00028584944
-0.00050845015 -0.00032683823 -8.3128165e-05 -0.0015776511 -0.00062701444 -0.000815096 0.0 -4.214475e-13
-2.7215818e-05 -0.000881876 1.2428619e-05 -4.9745595e-06 -8.30612e-09 -4.749826e-06 -0.0011172118 0.0
-2.3771491e-33 -0.00027981593 -0.001071309 -0.00019866916 -0.00023269102 7.470681e-12 -3.6300617e-14 -1.8435664e-17
-0.00014128264 -1.6746268e-05 -1.634863e-11 -3.700548e-06 -2.7066127e-34 -9.518236e-06 -4.3037062e-17 -0.00014687431
-0.0008158273 -0.0008819948 -4.563736e-39 -9.5171726e-21 -7.5710063e-06 -1.4777381e-06 6.191041e-07 -1.3073069e-05
-0.00058588904 -2.2017586e-11 -0.00031293157 -0.0002858055 -1.6883789e-05 -2.2695252e-05 6.2492486e-06 -0.00010176317
-0.00511262 0.005771071 -1.411445e-05 -0.0002017988 0.0013538684 0.008839243 0.020400235 -1.25119844e-14
-0.0010441901 0.005978729 -5.2628602e-05 -2.701488e-05 -0.00019424199 0.00393177 -2.4349e-41 -9.3348574e-14
-1.1554426e-06 6.102886e-07 0.008673213 -8.80465e-20 -1.230209e-18 -8.0446225e-06 0.01234276 0.011664733
1.7327287e-26 -6.1026117e-07 0.0012823954 -1.1828012e-07 0.008296762 -8.183268e-05 -0.0031901398 0.0025338111
-0.0038900452 -0.00044228949 0.0036121327 0.006673329 -4.089617e-06 -0.00018631852 -0.0004019269 -0.0039797905
0.0058474955 -1.2702351e-06 1.6306907e-07 -4.8219005e-07 -0.0004624374 -0.00016623958 -3.4814966e-05 -1.9259378e-05
0.0019394686 0.010343145 -0.00063398253 0.0018074501 -3.3331515e-10 -0.002275255 -0.0006096071 0.0017500706
-2.7155073e-14 0.011694312 0.0060146004 0.004646261 -3.2346485e-25 -1.5647305e-07 -3.877484e-05 1.1534503e-13
0.0029936172 -0.0001403224 -2.9084996e-31 0.002065069 -0.00039499006 0.0030637963 -1.7685695e-32 -0.0003368368
-0.00023647751 -2.2823413e-07 0.0069399234 -6.783288e-19 -2.098931e-11 -0.00015552055 2.808894e-05 -0.0019019735
-0.0008014683 0.005878151 -0.0017618211 0.011862104 0.00283718 0.0018314025 0.0 -8.7815925e-13
-0.0017928843 0.009039785 0.00041848238 6.316452e-19 -1.8742602e-07 -2.3354685e-05 0.004111349 0.0
-2.65852e-33 -0.00021670671 0.008678627 0.0029144206 0.0065809875 2.5306868e-10 4.4364433e-13 -6.0295193e-17
-0.00074706983 0.0014134696 -4.9345083e-14 0.0010207475 -3.1493333e-34 -1.0508575e-05 4.982527e-07 -0.00026122096
-0.00234322 0.0086079845 8.7710575e-08 -1.7745763e-20 0.00018844687 -6.674882e-05 3.439965e-07 -2.8670365e-05
-0.0076587843 -1.0615896e-12 -0.00079324545 0.0051791156 -1.5308102e-05 -5.564526e-05 -0.00020117995 0.0057230606
