weights/policy_checkpoint100.pt (torch, 522961 bytes, 12 tensors)

net.0.weight f4 [128, 142]
00000000: 9071 9d3d 2a6e b33d a9ec e7bb fe24 ad3d
00000010: 7554 8cbc af92 f13c 2583 37bd 7bd3 353d
00000020: d6a9 873d 00f2 8dbd 5846 8c3d fad1 203c
00000030: bf70 723d e73c 6f3c 05c6 203d bb9f 86bc
00000040: 7698 643d 0d91 b13a 001b 3dbd 64cc 383c
00000050: 1d81 03bd 4722 8ebb e7a3 0fbd f092 4e3d
00000060: 90fc 9dbd 8589 48bd 7351 ffbc 2986 67bd
00000070: 8cc5 c13a 0134 b6bd 30a4 9e3d 7acd 93bd
00000080: 317d 5d3d d25c 753b eb9e 22bd 09a7 483d
00000090: a252 c93b f21d 9c3d e617 cc3c 8165 89bc
000000a0: 8550 5f3c d997 00bd 6a18 033d 0e2b 933d
000000b0: e8a5 213d 5dc5 31bd a577 453d fc60 ae3c
000000c0: 757e 273d 83c0 1abd e17d b5bd ea39 febc
000000d0: 02fb 8abd 609d 973d ff2d 8b3c 67c4 133d
000000e0: d8f0 963c 6510 bfbb d846 8a3d eb8e 46bd
000000f0: 787a 3c3a 9c68 87bd 4f47 9e3c 923e 11bd
00000100: c928 c63c 1ce5 9bbc d4bf 893d 7151 55bd
00000110: 749f 23bd c5b0 45bd cc5f b43d 4e51 2f3d
00000120: 6860 a53d e8d5 8dbd 68b9 a8bd 5372 7dbd
00000130: 76b2 42bd 5339 0b3d 7229 f63c 988c 843d
00000140: 9e82 31bd ec52 6abd fc5f 363d caef 0abd
00000150: 91a8 2e3d 5322 a3bc eca0 443d 7988 85bd
00000160: 6d76 2dbd a669 b93c cd6e 793c b846 d2bc
00000170: 6819 1b3d 3035 363d ebb3 5dbd d48a 12bd
00000180: dba0 973d 71f8 e7bc 05b7 f3bc 3800 a9bd
00000190: 3941 4abd aec3 943c b87a 35bc 0282 79bd
000001a0: fa00 013b 73cb 6abd 24cf 91bd 4f47 3dbd
000001b0: f26a 96bd 7add 5abd 11cc ab3d efd7 813c
000001c0: bfd8 d33c 914b a0bd c15c 82bd e98e 14bd
000001d0: 559f f13b 2ce3 9dbd 6a4d 2cbd a7fe 89bd
000001e0: 80b8 10bc af88 16bd 328d bebb b8eb 68bd
000001f0: 878c 98bd c91c 68bd e1a1 21bd 35a6 87bd
00000200: 631a 903d 816f 88bc 1cdf 933d 0d33 d63c
00000210: c288 91bd 53df 6d3d 7d26 bdbc 9ac2 03bd
00000220: d7a8 8ebd 5cdc aabd 5ab0 c43c 5752 a0bc
00000230: 55df 013d 88dc 95bd fa6e 893d fa98 52bd
00000240: 606d 6cba 86ed 033d 8d69 7e3d 46d8 a93d
00000250: 11a2 b13d 8c4c 71bd e677 0c3d 1c3e a5bc
00000260: 095a ab3b fead 4bbd 2ea0 bd3d b699 47bd
00000270: e374 553d e1e3 173d 474f 293d 77a5 f1bc
00000280: 477f be3d af2f 0c3d 37ea e83c b4b6 6bbd
00000290: f01d 4c3d 598f 9e38 f566 9bbc adc3 b53d
000002a0: 9a62 053d 640f 01bd 87fd e7bc b5e7 be3b
000002b0: c318 883d 0e11 0bbb 457b 13bd 551e a9bc
000002c0: 336b 48bd 052f 293d 504d 913d 6aee 8dbd
000002d0: 6df5 133d 789c 713d b123 093d fb72 62bc
000002e0: a0f0 6e3d c5ea 853d 26ce 3e3d 92ae 423b
000002f0: a0e8 63bb 1931 d83c 6659 7fbb 7e25 59bc
00000300: 7c20 863d d54d b13d de76 5e3b f8d1 d0bb
00000310: 8908 1b3c 3884 de3b be91 c53c d817 043d
00000320: 7085 96bd ad7e a1bc 1486 a53d 1947 ef3c
00000330: 73e6 353b 766c 33bd eedd 0cbd 8fb9 7fbd
00000340: a7ed e9bc 7052 133d e4b5 6e3d 4eaa 443d
00000350: a893 acbd 3539 70bd 05fc 58bc be40 a63d
00000360: d8ef 993c e583 0dbd f737 e63c 80eb 02bd
00000370: f87a 5ebd c2e6 8b3d 474b 1cbd f6cf 89bc
00000380: adf8 aabd 2b0c 663d 5b0d 913d e88a fa3c
00000390: 54ac 6fbd aa9e a9bd a995 8bbd 0673 863d
000003a0: 9e92 403d d7be 9e3d ad9e 213d 54e8 893c
000003b0: 41d8 aa3b d704 59bd 48c4 81bd cac0 a0bd
000003c0: 9fb5 0c3d b9ce cebc fa99 2f3b e5d6 08bd
000003d0: b88a 7abc a2ed 71bd 581c 81bd 7c09 e43c
000003e0: 534f ccbc d632 543d d88a dcbc cce2 8ebd
000003f0: a796 72bc 219f 26bd 6252 d2bc 369d a3bd
0.07687676 0.087612465 -0.0070777726 0.08454321 -0.017130116 0.02948889 -0.044802804 0.044391137
0.066241905 -0.069309235 0.068493545 0.009815687 0.059189554 0.014601923 0.039251346 -0.016433587
0.05580946 0.0013547257 -0.046168327 0.011279199 -0.032105554 -0.0043375823 -0.03506842 0.0504331
-0.07714188 -0.048959274 -0.031166768 -0.05652443 0.0014783605 -0.08896638 0.0774616 -0.07216926
0.05407447 0.0037439358 -0.039702337 0.048987422 0.006143884 0.07622899 0.02491374 -0.016772034
0.013630037 -0.031394813 0.032005705 0.071859464 0.03946486 -0.04340111 0.048209805 0.02128648
0.040892083 -0.03778125 -0.088619 -0.031033475 -0.06786157 0.07403064 0.016989706 0.036075976
0.01842539 -0.005830812 0.067517936 -0.04847614 0.000718988 -0.066117495 0.019321112 -0.035460062
0.02418937 -0.019030146 0.067260414 -0.05207962 -0.03994699 -0.048264284 0.08807334 0.042802148
0.08075029 -0.06925565 -0.082384884 -0.061876606 -0.047533475 0.033990216 0.03004906 0.06472129
-0.043337457 -0.057207987 0.04452513 -0.033920087 0.042641226 -0.019913828 0.04800503 -0.06520171
-0.042349268 0.022633385 0.015224171 -0.025668487 0.037866026 0.044484317 -0.05412666 -0.035776928
0.074037276 -0.028316708 -0.029750356 -0.08251995 -0.049378607 0.018159714 -0.011076622 -0.060915
0.001968442 -0.05732293 -0.07119587 -0.046210583 -0.07344617 -0.053433873 0.08388532 0.015850035
0.025860189 -0.07826913 -0.06365348 -0.036269102 0.00737373 -0.07709345 -0.042066015 -0.06738024
-0.008833051 -0.036751445 -0.0058151716 -0.056865424 -0.074486785 -0.056668077 -0.03946102 -0.06623498
0.07036283 -0.016654732 0.07220289 0.02614739 -0.071061626 0.058074307 -0.023089642 -0.03216801
-0.069657974 -0.083428115 0.024009872 -0.019570513 0.031707127 -0.073174536 0.0671062 -0.05141542
-0.00090189837 0.032208942 0.06211238 0.08293204 0.0867349 -0.05891089 0.03429403 -0.020171218
0.005229239 -0.04972648 0.092590675 -0.048730575 0.052113425 0.037082557 0.04133537 -0.029497845
0.0930162 0.034225162 0.028431995 -0.057547286 0.049833238 7.560728e-05 -0.018969992 0.08875213
0.032564737 -0.03150882 -0.028319133 0.0058259615 0.06645348 -0.0021219882 -0.03600623 -0.020644346
-0.04893036 0.041304607 0.07094824 -0.069302395 0.03612273 0.05898711 0.033481304 -0.013821359
0.058334947 0.06538919 0.046583317 0.0029706103 -0.0034776106 0.0263906 -0.0038963198 -0.013253568
0.06549165 0.086574234 0.0033945362 -0.0063726865 0.009462484 0.006790664 0.024117347 0.0322493
-0.0734967 -0.019713724 0.08082214 0.029208707 0.0027755767 -0.04380461 -0.034391336 -0.06243282
-0.028555704 0.03596729 0.058278933 0.048013978 -0.08426601 -0.058648307 -0.01324368 0.08117817
0.018791124 -0.034549613 0.028102858 -0.03196287 -0.05431649 0.06831123 -0.038157728 -0.016822796
-0.083482124 0.056163948 0.070826255 0.030583814 -0.058513954 -0.08282216 -0.06815655 0.06564908
0.047014825 0.077512436 0.039457966 0.016834415 0.0052137678 -0.05298313 -0.06336266 -0.078492716
0.034352895 -0.025245057 0.0026794658 -0.033408064 -0.015291862 -0.059064515 -0.06304234 0.027836554
-0.024940168 0.051806293 -0.026921675 -0.06976852 -0.014806426 -0.0406791 -0.025674049 -0.0798897

net.0.bias f4 [128]
00000000: 6661 5b3d 52d3 053d 16dc f23c d8a3 d73d
00000010: 3f7e 853d 540d 713d 2478 1abd 0564 82bd
00000020: 0c63 713d 7d23 883d 60a6 433d 62ef bf3c
00000030: 4f51 a3bc 5c11 1e3d b60e 47bd e2ac 30bc
00000040: 7296 a73d 38aa 6abd 2419 8ebd 7b19 3ebc
00000050: 055c 1f3d 6e20 b3bd 99f6 853d 2347 223c
00000060: 084a ab3a 4ace 8c3d b66e 303d 5700 79bc
00000070: 6e8f 8dbd 49b6 673d 3b78 0bbd 37b9 1cbd
00000080: 045f 183d 5e39 873d 3ac3 1339 663b 4fbd
00000090: d177 80bd 5fba 4b3d 5238 063d a4cb d33c
000000a0: 53bf c63d 33cf 4ebd 3024 8f3c 8015 a43d
000000b0: fd5c e9bb 1468 11bd 6779 7dbd fd23 183b
000000c0: 4c63 ebbc 6cc6 6cbd 2f69 a3bd 39f6 213d
000000d0: 2cc4 363c 23f1 ff3c 28cd 543d 6b0e 82bd
000000e0: 56b8 f2bb fce8 943d a86b 393b 2dd5 a33d
000000f0: 7f2b a5bd d457 953d ed04 c83c fce4 8bbd
00000100: 2745 b93c 19aa 483d cd7e 1f3d dc50 1e3d
00000110: 64b9 77bc 4c36 e0bc 0316 89bd ce50 8f3d
00000120: a0c5 9e3c b88c ed3c b0c9 03bd 80ff 9abd
00000130: bda7 11bc 76fa 513d 3e77 643d 39c9 6abc
00000140: 8ee1 223d c216 9bbb 15e3 b9bc 36c7 c33d
00000150: f2e6 b73c 4539 c03d daa5 b6bd c13f 12bc
00000160: 5367 00bd b436 783d fbbf 3e3d 1bfc b23b
00000170: 7171 5f3d cac3 49bd 7dbf 35bb c29b 1c3d
00000180: b1c8 85bd 2058 813c ee91 773c ebd3 77bd
00000190: 0879 79bd 50fe 94bd 381e a8bd a325 aebc
000001a0: c80a 093d 185b 153d fe05 333d a660 0e3b
000001b0: dbe8 71bd 17dd aabd 94a7 863d 34c3 a73c
000001c0: cd20 723d fda5 93bd c150 74bd b7b7 8abc
000001d0: 5fb2 803d 8ed3 71bd 16f8 47bd 0797 4cbd
000001e0: b76c 4f3d fa56 82bc e6c8 92bc 24d8 853d
000001f0: b6cd 70bd 6254 6ebc b64e e9bc 2c86 66bc
0.053559683 0.032672234 0.02964596 0.105292976 0.0651822 0.0588506 -0.03771223 -0.063667335
0.05893235 0.06647394 0.04776609 0.023429576 -0.019936232 0.038590774 -0.048598014 -0.010783406
0.08182992 -0.05729124 -0.06938389 -0.011602755 0.038906116 -0.0874642 0.065411754 0.009904656
0.0013068328 0.06875284 0.043074332 -0.015197835 -0.06912123 0.056570325 -0.034050208 -0.038262572
0.03719999 0.06602739 0.0001409174 -0.050593756 -0.06272853 0.049738284 0.032768555 0.02585394
0.09704461 -0.05049057 0.01747331 0.08011913 -0.007121681 -0.035499647 -0.061883356 0.002321481
-0.028733872 -0.057806417 -0.079790466 0.039541457 0.011155169 0.031242913 0.051953465 -0.06350406
-0.0074072285 0.07271001 0.0028292928 0.079996444 -0.08064937 0.072921425 0.024416411 -0.06830785
0.022615982 0.048990343 0.038939286 0.038651332 -0.015119884 -0.02736964 -0.066936515 0.06997834
0.019381344 0.028997764 -0.032174766 -0.07568264 -0.00889009 0.05126425 0.05577778 -0.014330202
0.039765887 -0.0047329376 -0.022691289 0.09559481 0.02244899 0.09385923 -0.089183524 -0.008926333
-0.031348538 0.060599044 0.046569806 0.005462182 0.054551546 -0.049258985 -0.0027732544 0.03823448
-0.065324195 0.015789092 0.015110476 -0.060504835 -0.06090644 -0.07275069 -0.08208889 -0.021258181
0.033457547 0.036463827 0.043706886 0.0021725087 -0.05905996 -0.08342951 0.06574932 0.020478822
0.059113313 -0.07209394 -0.059647325 -0.016933305 0.062840216 -0.059039645 -0.048820578 -0.04994872
0.050640788 -0.015910614 -0.017918061 0.06535366 -0.05878993 -0.014546486 -0.028479915 -0.014070075

net.2.weight f4 [192, 128]
00000000: 06c5 0fba 5773 98bc e334 e73d c2f7 9bbd
00000010: f8a3 49bd 389a 7fbc eff1 51bd 8426 a83d
00000020: f9f9 213d 13d9 763d bf9c 9d3d 3e6d dbbb
00000030: 6953 623d 31bd debb 3abc 8c3d a0d3 903b
00000040: 3b1c 523d fdcf 073d 6a25 42bd c456 823d
00000050: d00e a13d b298 a3bc 10e6 a73a fc89 adbd
00000060: 7e76 3e3d 358c 69bd 0976 c9bd 6396 a33d
00000070: 6602 2a3c 4c3a 9c3d 5506 9fbd 9a37 69bd
00000080: fc82 09bd 1d14 2d3d 9279 97bd 1ec4 bdbd
00000090: ca4c 1bbd f69e 2ebd 2dcf 9c3d dda8 273d
000000a0: ccea 92bd 3d0b 32bd f7b9 693c 9ffc 7abd
000000b0: 926c 8dbd b178 9f3d f6ad 92bd 5f51 383d
000000c0: a35f 28bd 6fc3 93bd 1b09 24bd 6238 61bd
000000d0: 5e70 5cbd a5db 05bd 8cab f9bb 6f80 0abd
000000e0: 5c3a ac3d 7c1e babd bbd6 ebbc 75d6 463d
000000f0: 9e45 6abd 86c2 d4bc a689 9dbd 61b6 89bd
00000100: 4aff 183d 6e1d 423d 1900 463b 86c5 883d
00000110: 867e a33c 6ddd afbd 71a0 96bd 1159 c43b
00000120: c3fa 7ebd 5aae d83d 19ee c1bc 78ba 803d
00000130: a9f0 f7bc bfda cfbc 9c65 70bd 412a af3d
00000140: 7321 9bbd 8c65 6a3d b92b c7bc adbc 20bd
00000150: 2d07 2abd 2cdb 0a3d ad24 8a3d 42a9 a2bd
00000160: 87e3 87bd db11 f03c a9c0 6c3d 7c46 7bbd
00000170: 3ad1 023d b2e0 9c3c d1f4 87bd c2c9 4a3d
00000180: b205 b0bd 1263 63bc 6211 00bd 893b 2cbd
00000190: 109d e6bc 2cf4 a8bd 4b3d a03d e4a9 44bd
000001a0: be7e 923d e800 8e3c 895e 96bb 58fd 85bc
000001b0: a67c 1abd 95fd ccbc e362 9b3d 83ce 56bd
000001c0: d5ad 363d 452c a3bd 0fca 10bd 4510 913d
000001d0: 5426 093d 468c a2bd 625d 8cbd 166a 803d
000001e0: 6c22 7fbc 487a d83d e004 b0bd 7e44 843c
000001f0: 17cd ccbd 7bb6 853d dde8 1dbd 7578 4ebc
00000200: 3e8e 42bc c067 dc3b 442b 06bd b444 36bd
00000210: 8266 333d 3112 54bd a232 ae3c cf0b 2bbc
00000220: dce1 773d 12d1 b5bc c90b 843d e10c b3bb
00000230: e15d 3cbd 8747 c63c 0321 49bd 58c6 bc3c
00000240: e01c d6bc 8282 323c 6250 9ebc 8f9a ddbc
00000250: 54df 96bd 5202 bfbc f2b8 943d e7d5 643d
00000260: c006 32bd 4001 723c fd5a 963c 7c27 7b3d
00000270: f036 7a3d 34f5 1abd 2b1a a9bc 9022 b93d
00000280: f8d0 1f3c 119b 3fbd 6edf 2cbd 10c4 41bd
00000290: 10d9 aabd 8963 29bd 8069 a13d 3e5e cabb
000002a0: 38da 6b3d f310 abbd 871d 733d c551 423d
000002b0: 0835 a4bd 5e73 86bc 40e8 bd3c f0d8 87bd
000002c0: 6d31 053d 7b28 633d 20b6 a4bd 0699 02bd
000002d0: 2a2f 983d 2a7d 20bc 3cbc 73bd 8c50 063d
000002e0: b88d 6ebd 6b24 033d cbbb 69bd a558 063d
000002f0: 911f ddbc b1a0 edbc 8238 ebbc c9fe 833d
00000300: ec2c 89bd bd5d 873d beca 273d fa75 7dbd
00000310: 347e b03d 7b7e 803d 9bae 64bd 0c08 313c
00000320: 43cc ce3c 948b ffbb 6cf0 813d f249 aabc
00000330: 4de4 13bd 723b 243d fd55 9b3d 5cf9 9c3d
00000340: effc b4bd b394 abbc d121 c7bc 5e91 c6bb
00000350: 63b9 a8bc 9f2e 5fbd 0cbf 55bd a3f9 58bd
00000360: c5f5 44bd 53cf 0d3d 92f8 853d b702 1fbd
00000370: 986f ad3d fdb6 843d ef60 6abd e518 2c3d
00000380: 096f 003c 68ce 9e3d fa05 efbb a287 07bd
00000390: 7435 973d 720f aabd 8c31 1b3d a3b5 95bd
000003a0: 6114 24bb c4bf 0fbc 8846 8fbd dacd 32bd
000003b0: 79df 10bd 118f 11bc 2539 cb3c 6974 7fbd
000003c0: 381e a13d 0ad3 3f3c ebd8 9d3c 32e9 db3c
000003d0: 0419 53bd a518 8e38 6c65 a4bd e57b c03d
000003e0: 8c8a f2bc 3efc 9abd f620 013d 8692 55bd
000003f0: 4d5c a1bd eb65 65bd b274 20bc 8ea3 e43c
-0.0005484376 -0.018609686 0.11289384 -0.076156154 -0.04922864 -0.015600733 -0.051256116 0.08210471
0.039545033 0.06026561 0.076959126 -0.0066963723 0.055255327 -0.0067974557 0.06871839 0.004419759
0.051296454 0.033157337 -0.047398962 0.063642055 0.078641534 -0.019970272 0.0012809653 -0.08473584
0.04649972 -0.057018477 -0.098369665 0.07987668 0.010376548 0.07628307 -0.077648796 -0.05693779
-0.033572182 0.04225551 -0.073962346 -0.09265922 -0.03791503 -0.042632066 0.07656703 0.040932525
-0.0717369 -0.04346775 0.014265529 -0.061276074 -0.06905474 0.07786692 -0.07162087 0.044999477
-0.04110683 -0.072150104 -0.040047746 -0.05498541 -0.0538181 -0.032680172 -0.007619327 -0.03381389
0.08409569 -0.09087846 -0.028788915 0.048544366 -0.0571953 -0.025971662 -0.0769227 -0.06724239
0.037352838 0.047391348 0.003021246 0.066782996 0.019957792 -0.085871555 -0.073548205 0.005992063
-0.062250864 0.1058013 -0.023673104 0.06285566 -0.030266123 -0.025372861 -0.058690652 0.08552981
-0.07574739 0.05722575 -0.02431284 -0.039242435 -0.04151075 0.033900425 0.067452766 -0.079424396
-0.06635194 0.02930539 0.057800923 -0.061346516 0.031937815 0.019150112 -0.06638492 0.049508817
-0.08594836 -0.013878601 -0.031266578 -0.042048965 -0.028151065 -0.08249697 0.07824191 -0.048013583
0.071530804 0.017334417 -0.004588906 -0.016356155 -0.03771653 -0.025023261 0.075872205 -0.05244304
0.044599373 -0.07967428 -0.035348948 0.07083181 0.03348382 -0.07936911 -0.06853749 0.06270234
-0.015572172 0.10570198 -0.0859468 0.01614594 -0.10000055 0.06528946 -0.038552154 -0.012601961
-0.0118747335 0.006726235 -0.032756105 -0.044499114 0.04379893 -0.05177516 0.021264378 -0.010439827
0.06051813 -0.022194419 0.0644756 -0.005464182 -0.045987967 0.024204029 -0.049103748 0.023043796
-0.026136816 0.010895373 -0.019325439 -0.027051238 -0.07366815 -0.023316536 0.07261838 0.055868056
-0.04346347 0.014770806 0.018353933 0.061316952 0.06108755 -0.0378315 -0.02064236 0.090397954
0.009754412 -0.046778742 -0.042205267 -0.04730612 -0.08342183 -0.04135469 0.07881451 -0.0061757853
0.057581156 -0.08352842 0.05935433 0.047441263 -0.080179274 -0.016412433 0.023182034 -0.066331744
0.03251784 0.055458527 -0.0804255 -0.031884216 0.07430871 -0.009795466 -0.059505686 0.03279166
-0.058240622 0.032017153 -0.05706386 0.03279938 -0.026992591 -0.029007288 -0.028713468 0.06445081
-0.06698021 0.06609676 0.040964834 -0.06188009 0.08617821 0.06274124 -0.05583058 0.010805141
0.025243884 -0.0077986214 0.06344685 -0.020787213 -0.036106396 0.040095754 0.0758476 0.07664749
-0.08837306 -0.020944929 -0.024308117 -0.0060598096 -0.020596212 -0.05448782 -0.05218415 -0.052972447
-0.048085947 0.034621548 0.06541552 -0.03882095 0.084685504 0.06480215 -0.05722135 0.04201593
0.007838973 0.077542126 -0.0072944136 -0.033088334 0.07383242 -0.08303727 0.03788905 -0.07310035
-0.002503656 -0.008773748 -0.06995875 -0.043653347 -0.03536937 -0.008884207 0.024807522 -0.062366877
0.07867092 0.0117080305 0.019268474 0.026844595 -0.05153753 6.775678e-05 -0.08027157 0.09398631
-0.02960708 -0.07567643 0.031525575 -0.05214169 -0.07878933 -0.0560054 -0.009793447 0.02791002

net.2.bias f4 [192]
00000000: 1363 fd3c 580f 133d fbe2 493d cd92 b03c
00000010: ff06 a83c 7ff0 b23c 1484 f93c 5e25 acbd
00000020: 7758 83bd 0152 df3b cc75 a43d 71cf 1fbd
00000030: 925d 023d fa48 6ebd a975 31bd ccff 763d
00000040: ec9a 2a3d 4bab 7a3c 904b 893c 3e48 e13d
00000050: 3166 463c a728 b73c b1ac ba3c 2dce ae3d
00000060: 4c6b 983d e308 2c3d 1153 a83d b19f cd3d
00000070: 5b29 503d d840 193d 5dfa fcbc b9f0 253c
00000080: e7e3 6abc 576b 183c 2c4d 753d 39bc 983d
00000090: 4f2c 0a3d 2592 123c a1ad 65bd 4645 9cbc
000000a0: ebd1 d2bc ccb3 433c 4e95 853d 2d08 ee3d
000000b0: 1a37 3cbd 8e50 07bc 531d 19bd 5f9c c83c
000000c0: 4a61 823d f107 2dbd 9c15 203d 3fe7 bb3d
000000d0: b7c7 163d 10c6 71b9 dac7 533d eb45 c53a
000000e0: 451f fa3c c2f2 8ebd dbac a5bc 3f85 2bbd
000000f0: fabb a8bc afc6 d93b d098 8d3d b671 cebc
00000100: e115 6fbd d0da 0fbd 71fe 79bd 9c90 4dbd
00000110: a84d 12bd 1fc6 6fbd e910 0d3d a455 0fbd
00000120: 0f03 39bb 03b0 503d 8e2d fd3c 85c3 2d3d
00000130: 8fb0 513b a5c7 993d 8495 913d 0226 c8bb
00000140: af3f ac3d 7edd a03c 9d95 5f3d 1b93 333c
00000150: 6ca4 63bc 9760 ecbc 3905 393d 08d7 cdbc
00000160: a7d5 75bd fd9c 923d c189 983d 2bdb a23d
00000170: 5499 28bd 5207 bb3d 5eb9 a63b b197 e53c
00000180: 25d8 303d f913 66bd b7b3 5dbd 3ee0 cbbc
00000190: 9ab9 353c 8084 20bd 2cc9 213c 8ce2 00bd
000001a0: c57d b13d a1aa f13c 9ac1 393d b1d4 383d
000001b0: 6506 cb3d c3a2 133d 54ec 343c 0d93 883c
000001c0: 9888 71bd 72a0 ad3d 8f9e 8d3d 1836 af3d
000001d0: 127a d63d 3f30 a0bd 08ee 203d 6a33 0cbd
000001e0: 9f2f b9bd df8c 733d 6034 ccbc 52ec be3c
000001f0: b1e7 e23c a5d8 f5bc a80e c93c dbd2 713d
00000200: 35e2 7dbd 3f0b 3d3d 5d11 d8bc ec7c 2a3c
00000210: 8f57 823b 1cec 2c3a be14 acbd fc16 6d3d
00000220: 61d5 5c3c 270d 983d e01d f53c 41e9 f1bc
00000230: d2f8 27bd 2f24 14bd 504b 813c 2fc1 f63c
00000240: 9df4 663d 9a01 d43a 3476 13bd 00bd 673d
00000250: 2553 433d 525c 6abd 1e4e 8e3c fea8 bc3d
00000260: 426b 9c3d fca6 673c af72 f73d 7b58 683d
00000270: 650d 313d e6d2 f5bc d63e af3d 80b6 983d
00000280: 592c 2cbd 4ea1 723d f106 53bd eac8 b33c
00000290: 1120 993d 8309 48bd 2a5d 8dbc 381d b23d
000002a0: db75 273d 865d ce3d 13a5 dfba 8cdc b43d
000002b0: 56c4 0abd c404 cabc 5ae8 3c3d 8494 d23c
000002c0: bb4f 1cbd 0e2c bf3d 7698 6b3d 0a87 78bc
000002d0: 4cc5 cc3d 4c67 1abd a008 4d3d 9996 7b3c
000002e0: ec48 75bd ea57 063d 5a7f c1bc 2d03 13bd
000002f0: 3550 b4bc edad 153d 8d82 8f3d f2d5 67bd
0.030931031 0.035903305 0.04928873 0.021554375 0.020511148 0.021843193 0.030458488 -0.08405565
-0.06413358 0.0068151955 0.080302805 -0.03901619 0.031827517 -0.058175065 -0.0433251 0.06030254
0.04165165 0.0152996285 0.016759664 0.11000107 0.012109325 0.022358252 0.022787424 0.08535419
0.0744234 0.042000663 0.08218969 0.10040224 0.05082069 0.037415355 -0.030881101 0.010128194
-0.014336563 0.009302936 0.05988805 0.074577756 0.033733662 0.008945976 -0.05607379 -0.019076
-0.025734862 0.011944722 0.06522618 0.11622653 -0.045950986 -0.008258952 -0.03738148 0.024488626
0.06366213 -0.0422439 0.03908311 0.09174966 0.036811557 -0.00023057335 0.051704265 0.0015050744
0.030532489 -0.06979896 -0.020224025 -0.04187512 -0.020597447 0.0066459994 0.06913912 -0.025200706
-0.058370475 -0.035120785 -0.06103367 -0.05018674 -0.03571859 -0.058538552 0.034439955 -0.034993783
-0.0028230583 0.050949108 0.030905511 0.04242279 0.0031996106 0.07508782 0.07108596 -0.0061080465
0.08410584 0.019636866 0.05458604 0.010960366 -0.013894182 -0.028854651 0.045170996 -0.025126949
-0.060018208 0.071588494 0.074481495 0.07951959 -0.04116185 0.091322556 0.0050880155 0.028026434
0.04317488 -0.05617139 -0.054126468 -0.0248872 0.011091614 -0.03918886 0.009874623 -0.031466052
0.08666567 0.029500308 0.04535065 0.045124713 0.09913329 0.036043894 0.011042673 0.016671682
-0.058968157 0.08477868 0.06915008 0.085552394 0.10472502 -0.07821702 0.039289504 -0.03422872
-0.09042286 0.059460517 -0.024927318 0.023306046 0.02769837 -0.03001053 0.024543121 0.059038978
-0.061983306 0.046153303 -0.026375467 0.01040576 0.003977723 0.00065964623 -0.08402394 0.057883248
0.013478608 0.074243836 0.029921472 -0.02953017 -0.041008778 -0.03616732 0.015782982 0.030121414
0.056385625 0.0016174794 -0.0360014 0.05657673 0.047686715 -0.05721695 0.017371234 0.0921192
0.07637645 0.014138933 0.12082421 0.056725007 0.043225665 -0.03000779 0.08556907 0.07456684
-0.04203448 0.059235863 -0.05152029 0.02194639 0.07476819 -0.048837196 -0.017256338 0.08696979
0.04088388 0.10076432 -0.0017062746 0.088311285 -0.033878647 -0.024660476 0.046120025 0.025705583
-0.038161974 0.09334575 0.057518445 -0.015168915 0.09998569 -0.037696168 0.050057054 0.0153557295
-0.059883997 0.032798685 -0.023620296 -0.0358917 -0.022010902 0.03654282 0.070073225 -0.05660052

exp_avg f4 [128, 142]
00000000: 230b 8a3b 8340 47bc 0ded 61ba f32a 5cbb
00000010: 82d6 40bc 4b1d 41bc 93ef 42bc 8903 39bc
00000020: cf0c 983b 39f3 3fbc 1a20 e1ba db83 11bb
00000030: c705 14bc f402 36bc 3b32 4abc cd63 35bc
00000040: 056e 443a 9d61 a839 72ad 2cbc df9a 213b
00000050: eed9 17bc 8b1e 36bc b048 4abc c14d 35bc
00000060: 543c 0dbc 0202 0dbc 9b83 05bc cc21 983b
00000070: 7035 2b3a cd89 36bc ee22 40bc 1b03 efba
00000080: 869a 0dbc 2d06 6e39 a029 2ebc 35ad 1b3b
00000090: 6c1d f0ba 0792 4dbc 81a3 43bc 71a3 43bc
000000a0: 1c99 0dbc df45 c839 bf5e a9ba 9791 1e3b
000000b0: a73e 35bc 9d8a 3fbc 318d 3fbc 524a 3cbc
000000c0: fe53 18bc 35a7 8cb9 bc52 abba 3e6f 04bb
000000d0: e456 39bc d03d 43bc 554e 35bc 2245 3cbc
000000e0: e0e8 39bc 169b 39bc a302 acba 73c7 04bb
000000f0: 170d 39bc d22f 8339 582b 8f39 1dd3 eb37
00000100: 2405 2ebc 801a e5ba 939c a8ba cd18 7fba
00000110: 9675 06bb fe57 24bc 8593 46ba a75f b0b9
00000120: 0000 0000 0000 0000 b8cd 1ebc af34 5dba
00000130: f4a1 ddb9 0000 0000 0000 0000 5a33 64bc
00000140: 0000 0000 0000 0000 0000 0000 0000 0000
00000150: 651a 6736 0000 0000 0000 0000 0000 0000
00000160: 0000 0000 dfb1 b13b 8fad b13b 4d53 9eba
00000170: b9c1 1c37 7c1f ef37 a693 973b a2ea 963b
00000180: 46e9 9cba 0000 0000 0000 0000 1858 03bb
00000190: 1858 03bb 46e9 9cba 0000 0000 0000 0000
000001a0: 0000 0000 0000 0000 0000 0000 0000 0000
000001b0: 0000 0000 0000 0000 0000 0000 0000 0000
000001c0: 0000 0000 0000 0000 058f 0a39 66e3 bcb7
000001d0: e726 14ba 76a6 d1b9 46b8 bf37 1a76 333a
000001e0: 9357 ccb8 78e9 2db9 0000 0000 0000 0000
000001f0: 9458 fc39 9327 19b9 113e 1037 0000 0000
00000200: 0000 0000 0000 0000 0000 0000 0000 0000
00000210: 0000 0000 0000 0000 0000 0000 0000 0000
00000220: 0000 0000 0000 0000 0000 0000 5a2a ddbb
00000230: cb3e 68bc 1ed6 9bbc a0f5 85b8 6143 fabb
00000240: 6522 14bb 0e97 493b 8e06 16bc 5c2a 03bc
00000250: ae46 fcbb 839a dabb 0695 01ba e6f9 03bc
00000260: 1ba9 c8bb 7506 6c3b d7da 62bb 8fa1 05bc
00000270: 5429 f3bb 5efe e6bb 6dbf 35ba df1e b8ba
00000280: d97b 9dbb 4f83 8e39 46d7 85bb 45d1 21bc
00000290: ed40 16bc 73bb 0fbc 7b1e c8bb 6dc5 b9bb
000002a0: 6f13 3939 ea9c c73b 9a50 29ba d6a3 15bc
000002b0: 5192 48bc 2d36 03bc 397b 8dbb 0296 5abb
000002c0: 6593 a7bb b75f 4c3b 02d8 95bb 391e 2dbc
000002d0: 4cd7 24bc bc5d 1fbc e104 9abb 75be 1abb
000002e0: 6c8e 83bb d294 34bc 37b1 8fbc 5f71 2cbc
000002f0: 8c2b 32bc 0515 27bc 9d13 61bb 9852 92ba
00000300: ec9d bbbb 5982 9cbb eea6 8fbc 9f42 05bc
00000310: 9f49 00bc 74a7 08bc 8f2d 12bc 9c88 0dbc
00000320: 52c0 b9bb 540b 9fbb 1b52 90bc 92f7 beb9
00000330: 50c3 42ba d943 9eb7 e690 0cbc 3f0f 80bb
00000340: a058 54bb 7907 aabb 70ae 98bb e2b6 38bb
00000350: 5328 b138 cd05 3d39 0000 0000 0000 0000
00000360: 4dab 26ba 3fa1 143b 4b19 123b 0000 0000
00000370: 0000 0000 be49 de39 0000 0000 0000 0000
00000380: 0000 0000 0000 0000 c677 a2b7 0000 0000
00000390: 0000 0000 0000 0000 0000 0000 d0ff fdbb
000003a0: 6b67 6fbb e5ff 96bb 94c3 0bba 9131 6c37
000003b0: 587c efbb e79d 50bb c825 86bb 0000 0000
000003c0: 0000 0000 a3ea 2ebc 01ea 34bc c702 c7bb
000003d0: 0000 0000 0000 0000 fb1f c239 0000 0000
000003e0: 0000 0000 0000 0000 0000 0000 fb1f c239
000003f0: 0000 0000 0000 0000 0000 0000 0000 0000
0.0042127534 -0.012161377 -0.0008618392 -0.0033594936 -0.011769893 -0.011786769 -0.011897939 -0.011292347
0.004640199 -0.011715704 -0.0017175705 -0.0022203836 -0.009034581 -0.0111091025 -0.012341077 -0.011071158
0.0007493201 0.00032116185 -0.010539399 0.002465896 -0.009268267 -0.01111568 -0.012346432 -0.011065901
-0.00862034 -0.008606436 -0.008149053 0.004642701 0.0006531095 -0.011141253 -0.011727078 -0.0018235178
-0.008642798 0.0002269975 -0.010630041 0.0023754362 -0.0018319315 -0.012547023 -0.011940838 -0.011940823
-0.008642461 0.0003819903 -0.0012921913 0.0024195665 -0.011062301 -0.011690763 -0.0116913775 -0.011492329
-0.009297369 -0.0002682746 -0.0013070921 -0.0020207907 -0.01131222 -0.011916593 -0.011066039 -0.011491092
-0.011347026 -0.011328479 -0.0013123344 -0.0020260483 -0.011294625 0.00025021896 0.0002730738 2.811249e-05
-0.010621343 -0.0017479211 -0.0012864046 -0.00097311736 -0.0020516864 -0.010030745 -0.0007575083 -0.00033640602
0.0 0.0 -0.009692602 -0.00084383314 -0.0004227307 0.0 0.0 -0.013928259
0.0 0.0 0.0 0.0 3.4437046e-06 0.0 0.0 0.0
0.0 0.005422815 0.005422301 -0.0012079269 9.343429e-06 2.8505681e-05 0.0046257554 0.004605607
-0.0011971376 0.0 0.0 -0.0020041522 -0.0020041522 -0.0011971376 0.0 0.0
0.0 0.0 0.0 0.0 0.0 0.0 0.0 0.0
0.0 0.0 0.00013213984 -2.2517237e-05 -0.0005651549 -0.0003998761 2.2854783e-05 0.00068459066
-9.74379e-05 -0.0001658554 0.0 0.0 0.0004813118 -0.0001460596 8.59752e-06 0.0
0.0 0.0 0.0 0.0 0.0 0.0 0.0 0.0
0.0 0.0 0.0 -0.0067494335 -0.014175127 -0.019022997 -6.3876854e-05 -0.0076374267
-0.0022603509 0.0030760202 -0.009156836 -0.008005705 -0.0076988554 -0.0066712513 -0.00049431657 -0.008055186
-0.0061236746 0.003601459 -0.0034615302 -0.008156194 -0.007420698 -0.007049366 -0.0006933127 -0.0014047286
-0.0048060236 0.00027182183 -0.0040845005 -0.009876554 -0.009170753 -0.008772719 -0.006107149 -0.005669287
0.00017650214 0.0060917037 -0.0006458849 -0.0091333 -0.012241916 -0.008008522 -0.004317668 -0.0033353572
-0.0051140063 0.003118498 -0.0045728693 -0.010566288 -0.010061096 -0.009726938 -0.0047002886 -0.0023612056
-0.0040147807 -0.01102181 -0.017540557 -0.010525077 -0.01087464 -0.010197883 -0.0034343966 -0.0011163531
-0.005725613 -0.004776281 -0.017535653 -0.0081335595 -0.007830053 -0.008340705 -0.008921995 -0.008638527
-0.0056686783 -0.0048536453 -0.017617276 -0.00036424078 -0.00074296165 -1.8866662e-05 -0.008579468 -0.0039080675
-0.0032401457 -0.005188879 -0.0046594664 -0.0028185179 8.447529e-05 0.00018026606 0.0 0.0
-0.0006357923 0.0022679118 0.0022292908 0.0 0.0 0.00042398082 0.0 0.0
0.0 0.0 -1.9367679e-05 0.0 0.0 0.0 0.0 -0.0077514425
-0.0036530148 -0.0046081417 -0.00053315726 1.4078237e-05 -0.007308524 -0.0031832398 -0.0040938593 0.0
0.0 -0.010676059 -0.011042119 -0.006073329 0.0 0.0 0.0003702639 0.0
0.0 0.0 0.0 0.0003702639 0.0 0.0 0.0 0.0

exp_avg_sq f4 [128, 142]
00000000: 8afa 7038 6384 ce38 c434 6b38 60ac 9138
00000010: 90ea 013a 520c 5c38 cf90 fc39 3a93 fb39
00000020: a76f 9b36 5223 fc39 94d0 213a cb2b 4739
00000030: 061e 2e3a 5f30 6e39 86e6 0b3a 51b2 2d3a
00000040: 290b 163a 2cdb 153a 27fa 1e3a 86af 4b39
00000050: 1b5b 3d38 d682 7239 98fb 0c3a a636 2e3a
00000060: 16d9 1f3a 9254 1f3a 145a 1d3a 3542 e739
00000070: 2270 153a 7a59 7039 7ba6 7139 14b6 4639
00000080: 93c7 1f3a 9e5a 153a 53b2 1e3a a897 253a
00000090: 3a21 4739 20bc d138 2f6e cc38 246b cc38
000000a0: f6e5 1f3a 6260 153a 9e6b 223a e930 263a
000000b0: 833d 2f3a 4f27 7539 3778 7439 3339 4338
000000c0: 8997 2638 beda 7135 4961 3c39 30b9 c736
000000d0: a123 3a38 5617 4238 15ef 6e39 263a 4338
000000e0: fd14 2e3a 04e9 2d3a 6c4e 3a39 818e 8536
000000f0: 7821 fb39 b775 4239 4610 233a 5cee e539
00000100: 9651 2d3a 854d 233a e0d4 223a 8829 0539
00000110: 55e5 9236 cb6c 0c3a 7030 7938 fb9d 7038
00000120: 0000 0000 0000 0000 ceb7 0a3a 42c1 6038
00000130: ce2e 5838 0000 0000 0000 0000 d4b7 1d38
00000140: 0000 0000 0000 0000 0000 0000 0000 0000
00000150: 1cc8 9f35 0000 0000 0000 0000 0000 0000
00000160: 0000 0000 0fa1 1039 9ea2 1039 fcab 163a
00000170: fe4a a235 d0e3 a135 83f4 ea36 d35e ef36
00000180: 6152 163a 0000 0000 0000 0000 feef e839
00000190: feef e839 6152 163a 0000 0000 0000 0000
000001a0: 0000 0000 0000 0000 0000 0000 0000 0000
000001b0: 0000 0000 0000 0000 0000 0000 0000 0000
000001c0: 0000 0000 0000 0000 c55d 233a 6776 233a
000001d0: 29cd 003a 87eb ff39 b0e5 e439 f40d 0d39
000001e0: fe84 5236 5017 5336 0000 0000 0000 0000
000001f0: 4618 0d39 8b78 3c36 74d7 2336 0000 0000
00000200: 0000 0000 0000 0000 0000 0000 0000 0000
00000210: 0000 0000 0000 0000 0000 0000 0000 0000
00000220: 0000 0000 0000 0000 0000 0000 7771 d03a
00000230: 15dc ea3a e794 fa3a 4074 7c39 a8d8 c739
00000240: c011 bd39 7bb0 9b3a b012 bf3a b12c b13a
00000250: 0de8 3a39 1155 1d39 8bdd a639 cf31 fb39
00000260: 9172 063a 5952 a53a 8b02 c93a 5638 c13a
00000270: 3833 7e39 f325 a23a 127a af3a decc b73a
00000280: 1f98 0f3a 07aa a43a f032 ee39 4095 c73a
00000290: 2a95 9939 084f a83a 6998 9b3a 1b29 933a
000002a0: 3f30 fb39 a637 5639 7cd1 a83a 7c37 b83a
000002b0: 60ea 963a d9d5 933a c02a 6c3a bb8f 4e3a
000002c0: c614 9939 3812 713a e77b ab3a 17e3 8c3a
000002d0: 7ebe 8c3a a9a8 733a 6a4e 8e3a 308e 803a
000002e0: 0e8e 013a 0a1a 7f3a 52de c53a 1d85 993a
000002f0: e9e0 953a c4b4 873a c7bc be39 455d 9c39
00000300: fe91 ee39 1785 cb39 5f1c c539 e1e2 5f39
00000310: 9758 9d3a 52ef 993a e689 9f3a 9c20 a33a
00000320: 7551 a039 95c1 9839 cd4a fe38 4342 8e3a
00000330: faad 923a 13f6 d938 0fa3 263a d6fd 063a
00000340: a691 003a 82c1 d737 9e8b bc37 085e 1b3a
00000350: 9efa e039 ab35 dd39 0000 0000 0000 0000
00000360: b16c 013a c6f6 ab39 72a8 c339 0000 0000
00000370: 0000 0000 712b db38 0000 0000 0000 0000
00000380: 0000 0000 0000 0000 f101 1c38 0000 0000
00000390: 0000 0000 0000 0000 0000 0000 dda3 283a
000003a0: d672 203a 5fba 2d3a 6c1b 5237 e62a 2a36
000003b0: 25d2 d739 9d09 c739 9dfd e239 0000 0000
000003c0: 0000 0000 31a1 4739 a9f3 2b39 b4b3 0d39
000003d0: 0000 0000 0000 0000 6994 da37 0000 0000
000003e0: 0000 0000 0000 0000 0000 0000 6994 da37
000003f0: 0000 0000 0000 0000 0000 0000 0000 0000
5.745379e-05 9.8475044e-05 5.6077508e-05 6.946246e-05 0.0004955912 5.246356e-05 0.00048173076 0.00047984143
4.632358e-06 0.000480915 0.0006172743 0.00018994433 0.0006642047 0.00022715468 0.000533678 0.00066259975
0.0005723709 0.0005716558 0.0006064497 0.00019424976 4.514596e-05 0.00023127659 0.00053780666 0.00066457165
0.0006097717 0.00060779706 0.00060024974 0.00044109082 0.0005700608 0.00022921516 0.0002304557 0.00018950581
0.00060951075 0.0005697402 0.0006053794 0.0006316849 0.00018990497 0.000100009376 9.748001e-05 9.7474345e-05
0.00060996355 0.0005698261 0.0006195846 0.00063396856 0.0006684886 0.00023379664 0.00023314437 4.6544894e-05
3.9718612e-05 9.009781e-07 0.00017965319 5.952221e-06 4.4379038e-05 4.6274938e-05 0.00022786514 4.6545778e-05
0.0006640701 0.00066341483 0.00017767557 3.9802985e-06 0.00047899387 0.00018545134 0.00062203815 0.00043855875
0.00066115835 0.0006229508 0.00062115304 0.0001269934 4.377837e-06 0.00053567876 5.9411337e-05 5.736759e-05
0.0 0.0 0.0005291671 5.3585747e-05 5.1542003e-05 0.0 0.0 3.760292e-05
0.0 0.0 0.0 0.0 1.1904663e-06 0.0 0.0 0.0
0.0 0.00013792909 0.0001379349 0.00057476736 1.2091766e-06 1.2061737e-06 7.0022083e-06 7.133794e-06
0.00057343213 0.0 0.0 0.00044429296 0.00044429296 0.00057343213 0.0 0.0
0.0 0.0 0.0 0.0 0.0 0.0 0.0 0.0
0.0 0.0 0.00062319293 0.00062356 0.0004913384 0.00048812872 0.0004365868 0.00013452006
3.136985e-06 3.145502e-06 0.0 0.0 0.0001345585 2.8084348e-06 2.4414303e-06 0.0
0.0 0.0 0.0 0.0 0.0 0.0 0.0 0.0
0.0 0.0 0.0 0.0015902956 0.0017918373 0.0019117863 0.000240759 0.0003811766
0.00036062114 0.0011878157 0.0014577713 0.0013517347 0.00017824788 0.00015004376 0.0003182705 0.0004791156
0.0005128766 0.0012613042 0.0015335841 0.0014741521 0.00024242408 0.0012370929 0.001338782 0.0014022847
0.0005477685 0.0012562879 0.0004543285 0.0015226975 0.0002929357 0.0012840936 0.0011870983 0.001122746
0.00047910397 0.00020429361 0.0012879814 0.0014054622 0.0011513941 0.0011278942 0.0009009056 0.0007879694
0.00029197911 0.0009196135 0.001308319 0.001074883 0.0010737923 0.00092948467 0.001085711 0.0009808
0.0004942127 0.0009731358 0.0015096164 0.0011712644 0.0011434826 0.0010353555 0.00036380274 0.0002982413
0.0004550367 0.00038818337 0.00037595906 0.00021351456 0.0012004551 0.0011744297 0.0012171834 0.0012445631
0.00030578268 0.0002913593 0.000121255965 0.0010853488 0.0011190765 0.00010393201 0.0006356695 0.0005149519
0.0004904516 2.5720106e-05 2.247636e-05 0.00059267925 0.00042911334 0.0004219239 0.0 0.0
0.0004937156 0.00032799522 0.000373188 0.0 0.0 0.00010450825 0.0 0.0
0.0 0.0 3.7195106e-05 0.0 0.0 0.0 0.0 0.0006433109
0.00061206275 0.0006627198 1.252336e-05 2.5356944e-06 0.00041164565 0.000379634 0.00043295036 0.0
0.0 0.00019038167 0.00016398601 0.00013513752 0.0 0.0 2.6056734e-05 0.0
0.0 0.0 0.0 2.6056734e-05 0.0 0.0 0.0 0.0

exp_avg f4 [128]
00000000: a44b 3fbc 43a0 22bc d457 a63a 1e02 1fbd
00000010: 3639 803b 9e50 dabb 4e9a 133c 01ff 843c
00000020: 7150 583a 054a 9d3a 81d1 a8bc feb9 033a
00000030: cd59 82bc 511c 98bb 071e e03a 6770 c73b
00000040: 6141 81b9 5c8d 9c3c af61 3bbb 4518 a63c
00000050: 8233 58bc dfee 053b fc0a 30bc abaa d43c
00000060: 89d0 6b37 92ab be3b ffbf 0c3d a8f4 8b3a
00000070: e984 4ebc 12b4 3339 c8c2 d339 ba43 cdba
00000080: cc68 2bbd 2b1f 53bc c94e 7d3b 08f1 04bc
00000090: 26e2 303d 6d37 58bc 1e77 303a 5558 2c3b
000000a0: f120 85bc 8d76 5a3b 952f 2738 c029 9cb9
000000b0: df30 d83a 1011 223b a5a1 203c a65e cebb
000000c0: b0eb 56bc c2e2 97bb 0000 0000 de62 28bc
000000d0: 46c0 93bc 8a3d cf3c 6e68 6ebc 44fc 43bc
000000e0: eff1 29bc 8c4e f33c 868a 6cbc ffb6 b0bc
000000f0: 1bb7 8439 343e 9f3b bf4d 733b a65e 443b
00000100: 6bb6 fa3a 95e4 38ba 5fa7 d23b 95f3 54bd
00000110: 426c 95bb 32ec 97bc cf85 1c3c cd03 29ba
00000120: e2d9 62bc 43fc 593c e506 7a3c 62c8 2c3c
00000130: 6378 f93c a655 403b c220 2b3c 56ad 853a
00000140: e168 bcba 4129 803c 0013 8e39 fc43 87b9
00000150: 7d87 e13a 8199 143d 5a9d 583c b1ac 0a3a
00000160: aeb7 63bb 4602 58b8 d534 eab9 571a 26bc
00000170: 8f3d cbbc 8ede 883a 7d3b 53bb 9236 80bc
00000180: f54f 523a 2d38 e03c 418b 08bc e9d5 653c
00000190: 2bdb ed3a 699f 1e3c f5d2 8339 34f1 75bc
000001a0: a759 18bb 32fd a03a b5e4 4d3c ba2f 213c
000001b0: d88d 2334 e599 263c 2a80 373a 6412 033c
000001c0: e6e4 37bc a150 b03c bc02 2e3a c49e 693b
000001d0: 1f43 a8bc 1ff4 f7bc f311 113b 1159 92bc
000001e0: 42e6 953c 93bd 9b3a 2434 f0bc 6ba8 343b
000001f0: 0f57 72bb eb05 293a f932 083b 3a84 d0ba
-0.011675749 -0.009925905 0.001269097 -0.03882038 0.00391307 -0.0066624423 0.009008957 0.016234877
0.0008251733 0.0012000209 -0.020607712 0.00050249684 -0.015911961 -0.0046420475 0.0017098793 0.0060863975
-0.00024653508 0.019110374 -0.002859216 0.020275244 -0.013195874 0.0020436568 -0.010744806 0.025960287
1.4055645e-05 0.0058187926 0.03436279 0.0010677772 -0.01260493 0.00017137852 0.0004039018 -0.0015660443
-0.04184799 -0.012885849 0.0038651696 -0.008114107 0.043184422 -0.013196808 0.0006731617 0.0026297767
-0.01625106 0.0033334822 3.9860217e-05 -0.00029785745 0.0016494057 0.0024729408 0.009804164 -0.006297904
-0.013117716 -0.004635186 0.0 -0.010277478 -0.018036019 0.025297899 -0.014551265 -0.011962
-0.010372623 0.02970054 -0.014437323 -0.021571634 0.00025313426 0.00485971 0.0037125198 0.0029963641
0.0019127851 -0.00070531043 0.0064286436 -0.05199011 -0.0045600245 -0.018545244 0.009553387 -0.0006447405
-0.013845893 0.013304773 0.015260433 0.010545822 0.030452913 0.0029347925 0.010444822 0.0010198753
-0.0014374518 0.015644671 0.00027098507 -0.0002579986 0.0017206516 0.036279205 0.013221109 0.0005290015
-0.0034746933 -5.150053e-05 -0.0004467132 -0.010138116 -0.024809627 0.0010442303 -0.0032231503 -0.015651021
0.0008022779 0.027370537 -0.008333982 0.014028051 0.0018146982 0.009681561 0.00025143442 -0.015011121
-0.0023246796 0.0012282489 0.012566735 0.009838039 1.523216e-07 0.010168527 0.0006999994 0.00799999
-0.011224007 0.021522822 0.00066379807 0.003564761 -0.020539818 -0.030267773 0.0022135943 -0.017864736
0.018298272 0.0011882059 -0.029321738 0.0027566205 -0.003697816 0.000644772 0.0020782335 -0.0015908547

exp_avg_sq f4 [128]
00000000: 12c3 303a 96d6 d03a 2835 1d3a a843 ea3a
00000010: e22a b83a 3669 c139 82d9 8c3a c86b 0d3a
00000020: 1871 923a b9a3 f43a 2a45 fc3a e4a7 1e3a
00000030: 317f 513b 7284 e639 d0ad 8c39 fadb 1b3a
00000040: 099e b137 f930 cf3a abd1 953a be26 cc3a
00000050: 8c17 5139 9384 583a 7963 ed39 b5e6 103b
00000060: e19b ea36 cb83 0b3b 71da 9e3a daca b23a
00000070: c351 173b 169f 203a 7d10 8439 d9d0 6239
00000080: 14d4 1b3a b7f1 b63a 7635 2e3b 1363 863a
00000090: 6726 4a3b 43c5 943a 0a61 6438 4304 2f3b
000000a0: 7a3d 743a 2b5d 253a b5c3 5237 07d8 d73a
000000b0: 00d5 223a dc6f 5b3a d4f6 0a3a d7f1 1c3a
000000c0: 8429 c03a a9d3 2a3a 0000 0000 903b 463b
000000d0: 5aa1 f33a f3f5 8339 40ca dd39 62b7 fe39
000000e0: 99c2 bd38 466f 093b 356e fd3a 3a42 ed3a
000000f0: ad9a be38 b874 653a cfe1 343a 824b a439
00000100: 1018 5d3a 823d fe3a 3578 a639 7b0b 343b
00000110: 3c41 333a 6620 ad3a 9ae9 8e38 c78b b23a
00000120: d81e 103a 4865 873a cf10 ae3a dfb2 af39
00000130: df50 af3a 6508 4c3a 07e2 633a be98 5f39
00000140: 9c3d 573a a45e 053b 5b57 823a f2e5 a73a
00000150: 2b71 eb3a 77f1 343b 68bf 1238 5de7 973a
00000160: 0af0 953a b2fd e739 a8cf 8838 800b 7e3a
00000170: bad5 1d3b 9183 2939 ec24 9939 2ae2 ec38
00000180: 0ae1 4239 a7b3 163b 927b ea3a 7afa 053b
00000190: 4ce3 c338 213c 253a f671 f236 1a50 103a
000001a0: 1235 1c3a 795c 0f3a cbf3 aa3a bfc6 823a
000001b0: dbe1 d435 713f 793a 60f9 a039 e722 9e3a
000001c0: 7a6b 543a ac4d 673b 01fa d236 2e17 0a3a
000001d0: acd4 4e3a c046 0c3a a165 4b3a 778a 913a
000001e0: 4f04 203b fbb7 ff38 90a3 0c3a a2db da3a
000001f0: 2e52 033b b4d9 4d3a ef5b 623a 3afb 943a
0.0006742935 0.0015933092 0.00059969956 0.0017872946 0.0014050866 0.00036890217 0.0010745975 0.0005394784
0.001117262 0.0018664516 0.0019246687 0.00060522393 0.003196668 0.00043967698 0.0002683238 0.000594556
2.1173635e-05 0.0015807442 0.0011430284 0.0015575511 0.00019940565 0.0008259501 0.00045278276 0.0022110168
6.99189e-06 0.0021288272 0.0012119544 0.0013640777 0.0023089505 0.0006127221 0.00025189287 0.00021630841
0.0005944383 0.0013957535 0.0026582158 0.0010252915 0.0030845643 0.0011350292 5.444981e-05 0.002670542
0.0009317022 0.00063081336 1.2562542e-05 0.0016467579 0.0006211549 0.00083708554 0.00053010625 0.00059869647
0.001466081 0.0006516525 0.0 0.0030247904 0.0018587515 0.00025169514 0.00042303093 0.00048583286
9.048469e-05 0.0020970865 0.0019335212 0.0018101402 9.0887166e-05 0.0008753049 0.0006900103 0.00031336775
0.00084340665 0.0019396993 0.00031751549 0.0027472663 0.0006838029 0.0013208508 6.814599e-05 0.0013621979
0.000549776 0.0010329867 0.0013280156 0.0003351187 0.0013375542 0.00077832333 0.00086930435 0.00021323838
0.00082107796 0.00203506 0.0009944247 0.0012809618 0.0017962804 0.0027609745 3.4987374e-05 0.0011589337
0.0011439335 0.0004424877 6.523664e-05 0.00096910447 0.002408369 0.00016166108 0.00029209943 0.00011295483
0.00018585115 0.0022995265 0.001788961 0.0020443485 9.340662e-05 0.00063032104 7.225429e-06 0.00055051
0.0005958836 0.00054687966 0.0013042627 0.0009977444 1.5860963e-06 0.00095080497 0.00030703377 0.0012064845
0.00081031735 0.0035294099 6.287592e-06 0.0005267736 0.0007889967 0.0005351119 0.00077589793 0.0011103888
0.002441663 0.000121936166 0.0005364949 0.0016697536 0.0020037997 0.00078525697 0.0008634915 0.0011366375

exp_avg f4 [192, 128]
00000000: 468e f638 5e06 903b 065d abb7 8d6a 883b
00000010: 6d46 7b39 a1e9 d337 f20d 8c3b 0000 0000
00000020: 6869 373b 8e33 4f39 3443 573a 9db7 1733
00000030: 0301 263b 77f0 033b 5db8 2fb1 7a53 e63a
00000040: 59d5 85b5 8ef7 0e38 b263 dc3a 6c14 8939
00000050: ed1f 52b7 4194 90b6 8ffe 043b 38a6 9e3a
00000060: 0000 0000 f0de 663b fb4d 4b3a 495a 8eb2
00000070: ff01 6a3b 90b0 1ab6 71a0 0e38 4205 5538
00000080: 29d6 c539 4a7f 453b 0c2b 1a39 6597 d63a
00000090: 11fd f23b 1631 5a3b e04e 3438 4d1b 9e39
000000a0: 9bab cc3b 20c7 a038 38ed e5b4 de97 6738
000000b0: 5d48 89b6 3f90 d5b6 b56d 223a c5dd 043b
000000c0: e4a2 383b 3434 8635 0000 0000 1383 af3b
000000d0: 3f43 b93b 1e75 473a 2b66 6e3a b86a 2e3b
000000e0: 0cc8 8f3a 1cdf a63b c1ff 863b 1030 d03b
000000f0: 01be 8137 0766 4b38 29c4 5638 79e8 ceb6
00000100: deac 1538 3b3d b538 aec5 c1b6 55e9 f43b
00000110: 3538 433a b450 453b f5fd f5b6 548c 3c39
00000120: 3f0a 1838 5b82 9039 ebbc 023b 35dc a038
00000130: d083 2639 1723 5739 7c29 d3b7 2c5c 80b7
00000140: e098 823a a485 0e3b 1658 303a 650d 69b8
00000150: 0781 0f3a e23b 653b 0000 0000 a9f7 21b4
00000160: 1282 a03a 3939 0e38 8c24 b3b6 56c5 d73a
00000170: 3ce8 e43a a7bd 86b7 dc1c 92b5 0000 0000
00000180: 0643 9e38 96bd 083a 0d38 5b3a 98d1 5e3b
00000190: 563c fe38 b2a9 9539 0000 0000 f817 ea39
000001a0: 3311 7bb8 6355 f9b6 7ecb a7b6 0e60 0c38
000001b0: 0000 0000 0d1e d539 400b 2737 ce31 a639
000001c0: ec98 09b7 b69d 963b ad57 03b5 bff7 c537
000001d0: 5a5e 93b6 f041 133b 13fd b938 0f7c 7c3a
000001e0: 7e91 a63b 8a35 dcb6 fa6e 083b 33e5 4a3b
000001f0: 2a5f d13a 8635 13b8 0113 223b c7bd 3839
00000200: cc87 3b39 5ba9 f539 6bfd d4b7 fb9a 273a
00000210: 726d 8139 a365 5b36 7361 4f3a 0000 0000
00000220: 0149 1a38 721a 9139 9f20 5139 d8ab 9534
00000230: 2f30 ce38 55d2 4539 6168 33b1 b2e3 0836
00000240: 08a9 8fb5 41a0 4e38 1d63 083a 9f1a 073a
00000250: a458 9bb7 d6d1 d838 88af 8a38 e447 d539
00000260: 936d 8538 8259 173a 7b1d f239 b149 99b2
00000270: 8f0f f237 1487 57b6 f971 cb38 153b d2b6
00000280: 8424 98b7 83a2 8139 64ee 6638 4b61 ca38
00000290: 6ef9 903a b5bd c638 b412 8438 215e 8a38
000002a0: 177a cc39 fc4d 2639 3bc9 ecb4 15aa a9b7
000002b0: 7d7d fc36 81f8 96b7 b640 0a39 cabe 8e39
000002c0: 46eb 4439 1db0 c134 0000 0000 cc28 1c3a
000002d0: fd1f 513a 71e6 bc37 8674 5539 58fc 8cb7
000002e0: 9512 2db6 7613 043a 81d0 3a3a 51cd 1c3a
000002f0: 34ae 1fb7 0cda c938 a3cf 4fb7 b7f0 e3b6
00000300: 1835 66b8 39ef 5439 a355 3437 0da3 1b3a
00000310: ec59 51b8 6479 9b39 de94 81b6 7e61 3539
00000320: 262f 6db6 d314 0238 5bb3 213a f84b 8235
00000330: e87a 0239 edd9 a839 d846 ddb7 d2d3 68b7
00000340: c7ea e139 02ef ca39 f2f9 1c3a 1c76 6ab8
00000350: f29e 223a af0a ec39 0000 0000 e340 ef36
00000360: e67a 19b6 668d 5838 6813 b7b6 4a75 1e39
00000370: 910e a639 bc19 9ab7 fff3 94b4 0000 0000
00000380: 5345 fe38 ad38 7839 76bb 533a 8611 0f38
00000390: cd5c 2139 7951 7db4 0000 0000 7bb2 2d36
000003a0: 2478 5fb8 7e90 7ab6 fe1b fbb6 524a 15b7
000003b0: 0000 0000 7807 2e3a 2823 7e38 dcbf 4639
000003c0: 7552 9834 4015 133a 4cd5 10b5 99d2 6538
000003d0: 8ef0 8738 924f 9738 f6c2 2e39 4848 17b7
000003e0: 6cdf 8e3a 43b8 a638 2c65 1fb7 c4b8 1339
000003f0: 3537 3b39 7107 d3b7 c791 3e39 287e 7c39
0.000117566946 0.0043952903 -2.0428106e-05 0.0041630925 0.00023963461 2.5261952e-05 0.0042741233 0.0
0.002798641 0.00019760264 0.0008211613 3.5324422e-08 0.0025330193 0.0020132342 -2.557065e-09 0.0017572485
-9.971365e-07 3.408599e-05 0.001681438 0.00026145892 -1.2524409e-05 -4.3087935e-06 0.002029333 0.001210398
0.0 0.0035228096 0.00077554554 -1.6572033e-08 0.0035706756 -2.3050561e-06 3.400486e-05 5.0788054e-05
0.0003773433 0.0030135685 0.0001470262 0.0016372023 0.007415422 0.0033293418 4.2988802e-05 0.0003015645
0.006246043 7.6664845e-05 -4.2827173e-07 5.521613e-05 -4.0913424e-06 -6.364687e-06 0.0006196157 0.0020273787
0.0028173262 9.998971e-07 0.0 0.0053562014 0.0056537683 0.00076086994 0.00090942037 0.0026613902
0.0010969653 0.0050925147 0.0041198437 0.0063533857 1.5466476e-05 4.8493992e-05 5.1204264e-05 -6.166342e-06
3.5685363e-05 8.6421576e-05 -5.774861e-06 0.0074741044 0.0007447035 0.0030107917 -7.3311335e-06 0.00017981353
3.6249166e-05 0.00027562943 0.001994903 7.670411e-05 0.00015880098 0.0002051707 -2.5172478e-05 -1.530171e-05
0.0009963773 0.0021747136 0.0006726993 -5.5564004e-05 0.00054742437 0.003497832 0.0 -1.5084392e-07
0.0012245795 3.390873e-05 -5.3388703e-06 0.0016462009 0.0017464231 -1.6062359e-05 -1.0886247e-06 0.0
7.546511e-05 0.0005216239 0.0008362539 0.003399944 0.00012122902 0.00028545927 0.0 0.00044649816
-5.985908e-05 -7.4307186e-06 -5.0006774e-06 3.346806e-05 0.0 0.00040648915 9.956595e-06 0.00031699095
-8.201441e-06 0.0045964373 -4.892889e-07 2.3599596e-05 -4.3919254e-06 0.0022469722 8.868626e-05 0.0009631523
0.005083262 -6.5627437e-06 0.00208181 0.0030959367 0.0015973796 -3.509738e-05 0.0024730565 0.00017618305
0.00017884298 0.0004685622 -2.5390376e-05 0.00063936383 0.0002468634 3.2692703e-06 0.00079109444 0.0
3.678445e-05 0.00027676258 0.00019943946 2.7878446e-07 9.83182e-05 0.00018865739 -2.610726e-09 2.0398115e-06
-1.0703525e-06 4.9263475e-05 0.00052027573 0.0005153808 -1.8518716e-05 0.000103387676 6.613048e-05 0.0004068009
6.362344e-05 0.00057735306 0.00046179802 -1.7845055e-08 2.8855893e-05 -3.2116122e-06 9.7010234e-05 -6.2653658e-06
-1.8136816e-05 0.00024725878 5.505829e-05 9.650233e-05 0.0011060664 9.4767114e-05 6.297734e-05 6.597886e-05
0.00039000876 0.00015860045 -4.410484e-07 -2.022557e-05 7.524794e-06 -1.7997112e-05 0.00013184812 0.000272265
0.00018779663 3.607719e-07 0.0 0.0005957007 0.0007977484 2.2518654e-05 0.00020356671 -1.6806807e-05
-2.5789825e-06 0.00050383003 0.00071264064 0.0005981522 -9.517698e-06 9.625041e-05 -1.2386506e-05 -6.79315e-06
-5.488572e-05 0.00020307013 1.0748775e-05 0.0005937077 -4.991323e-05 0.00029654347 -3.86183e-06 0.00017297824
-3.5343196e-06 3.101381e-05 0.00061683886 9.707865e-07 0.00012443552 0.00032205824 -2.6378242e-05 -1.3877596e-05
0.00043090267 0.00038706517 0.00059881725 -5.5899945e-05 0.0006203494 0.00045021388 0.0 7.130309e-06
-2.2870313e-06 5.16301e-05 -5.456084e-06 0.00015111748 0.0003167284 -1.8370214e-05 -2.774468e-07 0.0
0.000121245765 0.00023672236 0.0008076945 3.4110177e-05 0.00015388727 -2.3592101e-07 0.0 2.5882898e-06
-5.3279233e-05 -3.7337009e-06 -7.4836416e-06 -8.898396e-06 0.0 0.0006638686 6.059106e-05 0.00018954225
2.8372202e-07 0.00056107715 -5.395457e-07 5.479399e-05 6.4821084e-05 7.215062e-05 0.00016666562 -9.017131e-06
0.0010900325 7.949818e-05 -9.500694e-06 0.00014087843 0.00017854276 -2.5156625e-05 0.00018174118 0.0002407959
