weights/policy_checkpoint4500.pt (torch, 522983 bytes, 12 tensors)

net.0.weight f4 [128, 142]
0	0x3ca06a12	0.019581828
1	0x3dbea900	0.09309578
2	0x3c2a2c90	0.010386601
3	0x3e001ebe	0.12511727
4	0x3daa12e9	0.08304388
5	0x3e194a4b	0.14969747
6	0x3dc4b037	0.09603923
7	0x3d626dc8	0.055280477
8	0x3d3346df	0.04376876
9	0xbd370951	-0.04468662
10	0x3de38083	0.11108496
11	0x3d86ba6a	0.065785244
12	0x3d78ebf0	0.060771883
13	0x3d476c4b	0.04868726
14	0x3ddcae9b	0.10775491
15	0x3d79344f	0.0608409
16	0x3d3fe820	0.04685223
17	0xbcda2b1b	-0.026631882
18	0xbd943448	-0.07236534
19	0x3d7399c8	0.05947283
20	0x3b9a495c	0.004708452
21	0x3d652d82	0.055951603
22	0x3cd9e415	0.026598016
23	0x3e008a8e	0.12552854
24	0xbd0b4976	-0.034005605
25	0xbd188c2c	-0.037243053
26	0xbc6d6d36	-0.01449137
27	0xbd59fc4d	-0.05321913
28	0xba51229b	-0.0007977874
29	0xbdc29483	-0.095009826
30	0x3e34e3b0	0.17664981
31	0x3aaa2811	0.0012981911
32	0x3dde0f04	0.10842708
33	0x3d894a21	0.06703592
34	0x3af9b569	0.0019051257
35	0x3d15af60	0.036544204
36	0x3ced601c	0.028976493
37	0x3dbb6097	0.091492824
38	0x3d32f672	0.04369206
39	0xbc80b2c8	-0.01571025
40	0x3dd7557d	0.105143525
41	0xbcc10ef7	-0.023566706
42	0x3d99e96c	0.07515225
43	0x3d8479f0	0.0646857
44	0x3d81a7ec	0.06330857
45	0x3d6b10e2	0.057389148
46	0x3dde102e	0.1084293
47	0x3c360d88	0.011111625
48	0x3db6b9b8	0.08922142
49	0x3d9d1cc8	0.07671505
50	0xbd55577b	-0.05208538
51	0x3c389639	0.011266285
52	0xbd1bb1f0	-0.03801149
53	0x3e7ab0d1	0.24481513
54	0x3df72c13	0.12068953
55	0x3df9c590	0.12195885
56	0x3cad9d49	0.021193163
57	0x3d3bd366	0.045855902
58	0x3e3f933c	0.18708509
59	0x3daa8234	0.083256155
60	0xbb8ca840	-0.004292518
61	0x3cea3e6d	0.02859422
62	0x3e03f85e	0.12887713
63	0x3ce34323	0.027741974
64	0x3c7fc098	0.015609883
65	0xbd897925	-0.067125596
66	0x3d9c15b7	0.07621329
67	0xbd28264e	-0.041052155
68	0xbcb427bc	-0.021991603
69	0xbd45ef1f	-0.048323747
70	0x3e037715	0.12838395
71	0x3db3e373	0.08783617
72	0x3da56068	0.08075029
73	0xbd8dd5e8	-0.06925565
74	0xbd8db756	-0.06919734
75	0xbcee0c3c	-0.029058568
76	0xbd4a9832	-0.04946155
77	0x3d0b3953	0.033990216
78	0x3cf62972	0.03004906
79	0x3d293127	0.04130664
80	0xbd31829e	-0.043337457
81	0xbd6a52ec	-0.057207987
82	0x3d365ffc	0.04452513
83	0xbd0aefca	-0.033920087
84	0x3a6175dd	0.0008600632
85	0xbca32253	-0.019913828
86	0x3d44a0ec	0.04800503
87	0xbd858879	-0.06520171
88	0xbd2d766d	-0.042349268
89	0x3dbb5860	0.091477156
90	0x3d72f7b2	0.059318252
91	0x3d4ea0e0	0.05044639
92	0x3d8fd858	0.07023686
93	0x3dbb596b	0.091479145
94	0xbc1d705a	-0.009609306
95	0xbd853704	-0.06504634
96	0x3e0bd38b	0.13654916
97	0xbce7f871	-0.028316708
98	0xbcf3b705	-0.029750356
99	0xbba7185b	-0.005099339
100	0xbd2f4060	-0.042786002
101	0x3da1c437	0.07898753
102	0xbc357ab8	-0.011076622
103	0xbd798202	-0.060915
104	0x3dad74b0	0.08469522
105	0xbd6acb73	-0.05732293
106	0xbd91cf24	-0.07119587
107	0xbd3d474f	-0.046210583
108	0xbd966af2	-0.07344617
109	0x3d72b951	0.059258763
110	0x3dabcc11	0.08388532
111	0x3c81d7ef	0.015850035
112	0x3cd3d8bf	0.025860189
113	0xbda04b91	-0.07826913
114	0xbd0e9897	-0.03481349
115	0x3cfef149	0.031120913
116	0x3d80e9bd	0.06294582
117	0xbc4ddbdf	-0.012564628
118	0x3c5aa647	0.013345308
119	0xbddc71c1	-0.10763884
120	0x3d0d4a96	0.03449496
121	0xbad3c89f	-0.0016157812
122	0xbbbe8d32	-0.0058151716
123	0xbd68ebb8	-0.056865424
124	0xbe2604f8	-0.16212833
125	0xbd88e9fc	-0.06685254
126	0xbd144ca3	-0.0362059
127	0xbd87a635	-0.06623498
128	0x3d901a63	0.07036283
129	0xbd67324a	-0.056444444
130	0x3d93df1c	0.07220289
131	0x3cd6330d	0.02614739
132	0xbd9188c2	-0.071061626
133	0x3d6ddf53	0.058074307
134	0x3c85f8eb	0.016354045
135	0xbd03c29a	-0.03216801
136	0xbd8ea8d7	-0.069657974
137	0xbdaadc5c	-0.083428115
138	0x3cc4b05a	0.024009872
139	0x3ddd3323	0.10800769
140	0x3da3c442	0.079964176
141	0xbbe0192f	-0.0068389396
142	0x3cb833c4	0.022485621
143	0xbdc26f39	-0.0949387
144	0xbdc10c44	-0.094261676
145	0xbd813934	-0.06309739
146	0x3d315952	0.043298073
147	0x3d42affc	0.047531113
148	0x3da5c2f0	0.08093822
149	0xbdeef53a	-0.11667867
150	0x3c18fd56	0.009337744
151	0xbd4956cb	-0.049155038
152	0xbb9c9a81	-0.0047791605
153	0xbdead94a	-0.11467226
154	0x3e07c225	0.13257654
155	0xbd023ab4	-0.031794265
156	0x3da0e4a8	0.07856113
157	0xbce1229e	-0.027482327
158	0x3d0d232c	0.03445737
159	0xbd2e35ed	-0.042531896
160	0x3dac5e7d	0.0841646
161	0x3c471543	0.012151065
162	0x3b368019	0.0027847348
163	0xbda0a0f3	-0.078431986
164	0x3dcb2e89	0.09920985
165	0x3c13fb81	0.009032131
166	0xbd1d0deb	-0.03834335
167	0x3da88df6	0.08230202
168	0x3d9b0452	0.075691834
169	0xbcc8abeb	-0.02449604
170	0xbd6b72dc	-0.057482585
171	0xbda18168	-0.078860104
172	0x3ddac247	0.10681587
173	0x3c446a4e	0.011988236
174	0xbd3dfd66	-0.046384238
175	0xbd14d99b	-0.036340337
176	0xbda2c88e	-0.07948409
177	0x3c3484ff	0.011018037
178	0x3d15eee6	0.036604784
179	0xbe24c044	-0.16088969
180	0x3da8577f	0.082198136
181	0x3d9549fc	0.07289502
182	0xbd11220a	-0.035432853
183	0xbdae003c	-0.084961385
184	0x3ceb0637	0.028689487
185	0x3d8eab7f	0.06966304
186	0xbc3496d1	-0.011022286
187	0xbd305cce	-0.043057255
188	0x3c0cff0f	0.008605733
189	0x3cd8723b	0.026421657
190	0xbdb37fc0	-0.08764601
191	0xbc78a368	-0.015175678
192	0x3d8b58c9	0.06804044
193	0x3dd2d913	0.1029531
194	0x3c12d46c	0.008961778
195	0x3ca629fb	0.02028369
196	0x3c365352	0.011128264
197	0xbde495b4	-0.11161366
198	0x3dd1cf21	0.10244585
199	0x3dabc123	0.08386447
200	0xbd013ed7	-0.03155407
201	0x3d97256b	0.07380184
202	0x3e027a5d	0.1274199
203	0x3a86de72	0.0010289683
204	0xbca94747	-0.02066387
205	0xbd2fabf8	-0.04288861
206	0xbd9b64e7	-0.07587605
207	0xbdc259cf	-0.09489786
208	0xbd56c10f	-0.05243021
209	0xbc8faca0	-0.017538369
210	0x3d91fada	0.07127924
211	0x3d82694c	0.0636774
212	0xbdf35713	-0.118818425
213	0xbe045b2f	-0.12925409
214	0xbc58fc05	-0.01324368
215	0x3da640be	0.08117817
216	0x3db9da9f	0.09074902
217	0xbd0b4cdc	-0.034008846
218	0x3c2cad4d	0.010539365
219	0xbd02eb80	-0.03196287
220	0xbd5e7af8	-0.05431649
221	0x3d91191d	0.07084868
222	0xbd1c4b47	-0.038157728
223	0xbc89cff6	-0.016822796
224	0xbdaaf8ad	-0.083482124
225	0x3d660c2b	0.056163948
226	0x3d6cfa2d	0.057855774
227	0x3cfa8ae8	0.030583814
228	0xbd6fac54	-0.058513954
229	0xbda99eaa	-0.08282216
230	0xbd8b95a9	-0.06815655
231	0x3c2b1565	0.010442113
232	0x3c8810ad	0.016609514
233	0x3da6f26c	0.08151707
234	0xbda77303	-0.081762336
235	0xbdef92f2	-0.116979495
236	0x3c474d12	0.012164371
237	0xbd3e2089	-0.046417747
238	0xbd87544b	-0.066078745
239	0xbda0c0ca	-0.078492716
240	0x3d0cb59f	0.034352895
241	0xbce9ac5f	-0.028524576
242	0x3ce598ab	0.0280269
243	0xbd9742d1	-0.07385791
244	0xbc7a8ab8	-0.015291862
245	0xbd71eda2	-0.059064515
246	0xbd27e1f4	-0.04098697
247	0x3ce4097c	0.027836554
248	0xbccc4f53	-0.024940168
249	0x3d5432d6	0.051806293
250	0xbcdc8ad8	-0.026921675
251	0xbd93d8ae	-0.07219063
252	0xbc7296a7	-0.014806426
253	0xbd269f21	-0.0406791
254	0xbcd25262	-0.025674049
255	0xbda39d36	-0.0798897

net.0.bias f4 [128]
0	0x3e057b2f	0.13035272
1	0xbc5884b3	-0.013215232
2	0x3ae53edf	0.001749005
3	0x3d657046	0.056015275
4	0x3de561ce	0.112002954
5	0x3d000859	0.03125796
6	0x3b371a66	0.0027939319
7	0xbdb0f9d9	-0.08641405
8	0x3dd11254	0.10208574
9	0x3d5f9336	0.05458375
10	0xbbc4643f	-0.0059933956
11	0xbc8b932d	-0.017037952
12	0xbd570593	-0.05249555
13	0x3de69ece	0.11260758
14	0xbd964ff0	-0.073394656
15	0xbd590669	-0.05298463
16	0x3d57d56d	0.052693773
17	0xbdadaeb6	-0.08480589
18	0x3c9b58ee	0.018963303
19	0xbd6f9f55	-0.05850156
20	0x3ae20112	0.0017242751
21	0xbdc297e4	-0.09501627
22	0x3dc7790b	0.09739884
23	0x3dd50c83	0.10402777
24	0xbc4f63a6	-0.012658035
25	0x3d1e20a0	0.038605332
26	0x3dbf923e	0.09354065
27	0xbd2a70a6	-0.041611336
28	0xbd04b0e7	-0.03239527
29	0x3d83a319	0.06427593
30	0xbd6863e8	-0.056735903
31	0x3d8a7cb6	0.06762068
32	0x3ddfdffc	0.109313935
33	0x3d165368	0.036700636
34	0x3d78c60e	0.060735755
35	0x3c480ccc	0.012210082
36	0xbe07a318	-0.13245809
37	0xbacde74c	-0.0015709191
38	0x3dc465b6	0.09589712
39	0x3de23770	0.1104573
40	0x3de103a1	0.1098702
41	0xbdef9352	-0.11698021
42	0x3b456ab6	0.003012342
43	0x3e578b42	0.21049216
44	0xbd15e14f	-0.036591824
45	0xbd9ebfd3	-0.07751431
46	0xbdc12c32	-0.09432258
47	0x3e002340	0.12513447
48	0xbd9306c5	-0.071790256
49	0xbbdf320a	-0.006811385
50	0x3c8f8e21	0.017523827
51	0x3d1a1e98	0.037626833
52	0xbd2222e6	-0.039584063
53	0x3cb37ffe	0.021911617
54	0x3ba2e91e	0.0049716374
55	0xbd5548fb	-0.052071553
56	0xbd39c99b	-0.04535828
57	0x3ceab9a8	0.02865298
58	0xbc4226ff	-0.011850118
59	0x3c417c51	0.0118094245
60	0xbde49643	-0.11161473
61	0x3cad0880	0.021122217
62	0x3ded37c9	0.11582906
63	0xbdaf2b81	-0.085532196
64	0xbc699bf6	-0.014258375
65	0x3d94876f	0.072523944
66	0xbc3b126a	-0.0114179645
67	0x3dac089f	0.08400082
68	0xbd6aa1b9	-0.057283137
69	0x3cfad284	0.03061796
70	0xbde654d7	-0.11246651
71	0x3d8e615d	0.06952164
72	0xbc0714dd	-0.00824472
73	0x3d6cbdbe	0.05779814
74	0x3d0ad0ae	0.03389042
75	0xbde10506	-0.10987286
76	0xbd17fa11	-0.037103716
77	0x3dab452d	0.083628036
78	0x3e2cce40	0.16875553
79	0xbd592bb9	-0.053020213
80	0xbc6452f0	-0.0139357895
81	0xbc337ced	-0.010955078
82	0x3d97028b	0.07373532
83	0x3e19bb9f	0.15012978
84	0xbcc441af	-0.023957102
85	0x3d80cede	0.06289457
86	0xbd6e752c	-0.058217213
87	0xbce0a18c	-0.027420782
88	0xbd418b8a	-0.047252215
89	0x3dd050e1	0.101716764
90	0x3e12f7c6	0.1435233
91	0xbccefd8e	-0.025267389
92	0x3b6851f3	0.0035449236
93	0xbdbb377f	-0.091414444
94	0x3e0cfb55	0.1376775
95	0x3cc66100	0.024216175
96	0xbdbae522	-0.09125735
97	0x3a24fe38	0.0006293985
98	0x3cd03109	0.025414007
99	0xbcfa4b12	-0.030553374
100	0xbdb28b24	-0.08717945
101	0xbdd53e9c	-0.104123324
102	0xbda9e545	-0.08295683
103	0xbd861e55	-0.06548754
104	0x3cc9ea23	0.024647778
105	0x3e34d2ee	0.17658588
106	0x379ae25f	1.8463643e-05
107	0xbd7157bf	-0.05892157
108	0xbdb98c19	-0.09059925
109	0xbdf74e9b	-0.1207554
110	0x3d0a280d	0.0337296
111	0x3d03a776	0.032142125
112	0x3dcabc70	0.09899223
113	0xbdee9223	-0.11648967
114	0xbd7f2bd0	-0.062297642
115	0xbd360e6b	-0.044447344
116	0x3e1e8d9a	0.15483704
117	0xbde17714	-0.110090405
118	0x3d513548	0.051076204
119	0xbd93ea43	-0.07222416
120	0x3d0c85b1	0.034307186
121	0xbd397150	-0.04527408
122	0xbd54bf71	-0.051940385
123	0x3a319dd8	0.0006775535
124	0xbdd1f120	-0.10251069
125	0xbd2ef594	-0.04271467
126	0xbd757377	-0.05992457
127	0xbd606181	-0.054780487

net.2.weight f4 [192, 128]
0	0xbd9918e7	-0.07475453
1	0xbd95b9d3	-0.07310834
2	0x3df30e39	0.11867947
3	0xbdef2a98	-0.11678046
4	0xbd2c457e	-0.04205846
5	0xbd86dd93	-0.06585231
6	0xbdff966d	-0.12479863
7	0x3db4219b	0.08795472
8	0x3aac9353	0.0013166465
9	0x3bb8c925	0.0056392127
10	0x3c9bf634	0.019038297
11	0xbcb9a919	-0.02266364
12	0x3c3d4720	0.011552602
13	0xbd85ce22	-0.06533457
14	0x3d5d426f	0.054018434
15	0xbb69b550	-0.003566105
16	0x3dc58aa5	0.09645585
17	0x3cd6acbe	0.026205417
18	0xbdfcb1a7	-0.12338572
19	0x3d39755c	0.04527794
20	0x3db6ecdd	0.08931897
21	0xbd52cfc3	-0.05146767
22	0xbdb794bf	-0.08963918
23	0xbe3783e8	-0.17921412
24	0x3cf400e7	0.029785587
25	0xbdc664eb	-0.09687217
26	0xbde589fa	-0.112079576
27	0x3c8b1628	0.016978338
28	0xbd7c1318	-0.061541647
29	0x3d2a3dbf	0.041562792
30	0xbe38cd39	-0.18047036
31	0xbdeb61be	-0.11493252
32	0xbdc7a107	-0.097475104
33	0x3afbe8c2	0.0019219148
34	0xbe021636	-0.12703785
35	0xbe7ff23e	-0.24994752
36	0xbd8ab91b	-0.06773587
37	0xbd377e57	-0.04479822
38	0xbd6780a1	-0.056519154
39	0xbde6228e	-0.112370595
40	0xbdcd3de1	-0.10021568
41	0xbdae99f8	-0.08525461
42	0xbd1e4320	-0.038638234
43	0xbdfb0765	-0.1225727
44	0xbddf1187	-0.10892015
45	0x3da8ec95	0.082482494
46	0xbd9a6411	-0.075386174
47	0xbd89876a	-0.06715281
48	0xbdb946ff	-0.090467446
49	0xbe004268	-0.12525332
50	0xbe663fa1	-0.2248521
51	0xbe051379	-0.1299571
52	0xbdc21c8f	-0.09478103
53	0xbdfd6e9b	-0.12374612
54	0xbd980797	-0.07423323
55	0xbdc72a69	-0.09724886
56	0x3d30e998	0.043191522
57	0xbdeb620f	-0.114933126
58	0xbda723ee	-0.0816115
59	0x3c334a4a	0.010943005
60	0xbd90a83b	-0.070633374
61	0xbd0a14b5	-0.033711154
62	0xbdc4e506	-0.09613995
63	0xbd8758e8	-0.066087544
64	0x3cf3e3c5	0.029771695
65	0x3d51b6a7	0.05119958
66	0x3b8b5112	0.0042516077
67	0xb96a702a	-0.00022357763
68	0x3be97d07	0.0071255
69	0xbe1b3bd1	-0.15159537
70	0xbda2190c	-0.079149336
71	0xbc0ca109	-0.008583316
72	0xbdc8657d	-0.09784982
73	0x3d466a44	0.048441187
74	0xbde9656e	-0.11396299
75	0x3d6cd03c	0.057815775
76	0xbd034a54	-0.032053307
77	0xbda63733	-0.08115997
78	0xbe135359	-0.14387263
79	0x3db29211	0.08719266
80	0xbde20c4d	-0.110375024
81	0x3c7e1175	0.015507092
82	0xbd872b0d	-0.06600008
83	0xbd58abd8	-0.052898258
84	0xbd67f3ad	-0.05662887
85	0xbd79ba47	-0.060968664
86	0xbdd49a09	-0.103809424
87	0xbdb83250	-0.08993971
88	0xbdc2549e	-0.09488796
89	0xbc141fdf	-0.009040802
90	0xbe008ac4	-0.12552935
91	0xbd922bfc	-0.071372956
92	0xbbaac4af	-0.005211435
93	0x3d6cb41c	0.057788953
94	0xbde3ebdc	-0.11128971
95	0x3dc96831	0.09834326
96	0xbdb053c2	-0.086097255
97	0xbd83ed55	-0.06441752
98	0xbe1ee8e4	-0.15518528
99	0xbe101168	-0.1406914
100	0xbd87b4f8	-0.06626314
101	0xbdfd323e	-0.123630986
102	0x3d8fbbf4	0.07018271
103	0xbd2c4a6e	-0.04206317
104	0x3df3ffa9	0.11913998
105	0xbd7ff911	-0.062493388
106	0xbc1f8f65	-0.009738778
107	0xbd4161ae	-0.047212295
108	0xbccd4ccc	-0.025061034
109	0xbd2ce32d	-0.04220884
110	0x3d91ef70	0.07125747
111	0xbe011c08	-0.1260835
112	0xbd94a0ba	-0.07257219
113	0xbe41fe38	-0.18944633
114	0xbd0f00c4	-0.03491284
115	0x3d91e231	0.07123221
116	0xbd860332	-0.06543578
117	0xbde5225a	-0.11188193
118	0xbe43acef	-0.19108938
119	0xbd371da7	-0.044706013
120	0xbd7b037a	-0.061282612
121	0x3e0e856e	0.13918087
122	0xbddf1a96	-0.10893743
123	0xbcf6b01b	-0.03011327
124	0xbe0977a8	-0.13424551
125	0x3e0e4584	0.13893706
126	0xbe0e3b97	-0.13889919
127	0xbdf45bab	-0.11931547
128	0x3e0ce169	0.13757862
129	0x3da919c8	0.082568705
130	0x3bf200f6	0.0073853685
131	0xbcc09fb1	-0.023513647
132	0x3e06b36f	0.13154386
133	0x3c69b32e	0.014263911
134	0x3e236f09	0.15960325
135	0x3d153157	0.036424007
136	0x3e181381	0.1485119
137	0xbcbcfd13	-0.023069894
138	0x3d9426e9	0.07233984
139	0xbc5394fa	-0.012913937
140	0xbc90b42c	-0.017664038
141	0x3e34ba15	0.1764911
142	0xbd492012	-0.04910285
143	0x3c234cfa	0.009967083
144	0x3d5c5f14	0.05380161
145	0x3c46576d	0.012105805
146	0x3e104e0d	0.14092274
147	0xbccbb1e7	-0.024865104
148	0xbd4dd274	-0.050249532
149	0x3cf092bd	0.029366845
150	0x3e3d032b	0.1845824
151	0x3e545cee	0.20738575
152	0xbd354b46	-0.04426124
153	0x3be3160e	0.0069301194
154	0x3e20f176	0.1571711
155	0x3d8482b0	0.06470239
156	0x3e4b513c	0.19855207
157	0x3d148423	0.036258828
158	0x3e041ec0	0.12902355
159	0x3e9f9cf9	0.31174448
160	0x3e472ed8	0.19451463
161	0xbbc40e3c	-0.005983142
162	0x3e0a8029	0.13525452
163	0x3db4db2a	0.08830865
164	0xbd5aa7d9	-0.05338273
165	0xbcf10215	-0.029419938
166	0x3e31ebaa	0.17375055
167	0x3dae0cd9	0.08498544
168	0x3e0c4c82	0.1370106
169	0xbd9719a8	-0.073779404
170	0x3d88a00f	0.06671154
171	0x3e49d6b7	0.19710813
172	0xbd167ae3	-0.036738288
173	0x3c16ab14	0.009196062
174	0x3d28c345	0.04120185
175	0x3df3e0c9	0.11908109
176	0x3c5691e2	0.013096305
177	0x3e7679ed	0.24069948
178	0x3e077698	0.13228834
179	0x3dca23fc	0.09870145
180	0x3d800c19	0.062523074
181	0xbcf62018	-0.0300446
182	0xbd8035ad	-0.06260238
183	0x3d8d187d	0.068894364
184	0xbd8128de	-0.06306623
185	0x3d677335	0.056506354
186	0x3d1264c8	0.035740644
187	0x3d461079	0.048355553
188	0xbd50ce96	-0.050978266
189	0x3c42bf66	0.011886453
190	0x3dcab67b	0.09898087
191	0x3ce799c9	0.028271573
192	0xbd73185c	-0.059349403
193	0x3e487f27	0.19579755
194	0x3d27bfad	0.04095428
195	0x3dc40eba	0.09573121
196	0x3dab1cc7	0.08355098
197	0x3e5a7ece	0.21337435
198	0xbdc7901b	-0.09744283
199	0x3e26ea64	0.1630035
200	0x3c628d83	0.013827684
201	0x3db4df91	0.088317044
202	0x3e691da5	0.22765215
203	0xbca36bb2	-0.019948814
204	0xbc697bce	-0.014250709
205	0x3dd94bf1	0.10610188
206	0x3e12fe4b	0.14354818
207	0x3dc95b20	0.09831834
208	0xbd2e1e0a	-0.042509116
209	0x3de71d1c	0.11284849
210	0x3e18bc3d	0.14915557
211	0x3df6bf33	0.12048187
212	0x3c69a8bc	0.014261421
213	0x3c7161b3	0.014732766
214	0x3ab9c8aa	0.0014174182
215	0xbd540499	-0.051762197
216	0xbd726bfc	-0.059185013
217	0x3e458f7a	0.19293013
218	0x3e35c7ba	0.17751971
219	0xbd869deb	-0.06573089
220	0x3d66dced	0.056363035
221	0x3db23f9f	0.08703541
222	0x3e080f4f	0.1328709
223	0x3d78fbbc	0.060786948
224	0x3bffc3ef	0.0078053395
225	0x3de3d5ac	0.11124739
226	0x3de54cd1	0.11196292
227	0x3e06efca	0.1317741
228	0x3d1ecd18	0.03876981
229	0xbdf925db	-0.121654235
230	0x3cad7f94	0.021178998
231	0xbd9d1448	-0.07669884
232	0x3c89a9de	0.016804632
233	0x3e46ff8a	0.19433418
234	0xbb90be2f	-0.004417203
235	0xbd422797	-0.047401037
236	0xbcba110f	-0.022713212
237	0xbb8e8aac	-0.004350027
238	0x3ca1c6a1	0.019748034
239	0x3db5f154	0.0888392
240	0x3e4634e5	0.19356115
241	0x3d9d8e48	0.076931536
242	0xbb414047	-0.0029487775
243	0x3cc55732	0.02408943
244	0x3e0e2d11	0.13884379
245	0x3d7facde	0.06242072
246	0x3dc03337	0.093847685
247	0x3af52c57	0.0018705231
248	0x3dee8f13	0.11648383
249	0xbd8f258b	-0.06989583
250	0x3e105e3a	0.14098445
251	0xbd4164aa	-0.04721514
252	0xbd712298	-0.05887088
253	0xbd83ce87	-0.06435876
254	0xbbcfa9da	-0.0063373866
255	0x3dd9da41	0.10637332

net.2.bias f4 [192]
0	0xbcb195ab	-0.021677813
1	0x3e4c1ab9	0.19932069
2	0x3cd875bc	0.026423328
3	0x3d8756ba	0.06608339
4	0xbc4aafee	-0.0123710465
5	0xbc238df7	-0.0099825775
6	0x3c0a78cc	0.008451652
7	0xbd4e8bd8	-0.050426334
8	0xbe155d29	-0.14586319
9	0x3c83c361	0.016084375
10	0xbc8df387	-0.017328037
11	0xbdf2b257	-0.11850422
12	0xbc033010	-0.008007064
13	0x3c10e36e	0.008843286
14	0xbd4154c2	-0.047199972
15	0x3c38e76e	0.011285646
16	0x3e15bd42	0.14622977
17	0xbc138d2b	-0.009005825
18	0x3c2614ac	0.0101367645
19	0x3dd37dd8	0.10326737
20	0xbd94e208	-0.072696745
21	0xbbdfc22c	-0.006828567
22	0xbdab2538	-0.08356708
23	0x3d9083ee	0.070564136
24	0x3da0e838	0.07856792
25	0x3deb4d26	0.11489324
26	0x3ca99935	0.020702938
27	0x3e4d83c4	0.20069796
28	0x3a151cea	0.00056882075
29	0xbd42e04a	-0.04757718
30	0xbdc440c7	-0.09582668
31	0xbd0ec394	-0.034854487
32	0x3d32e429	0.04367462
33	0x3cb21d04	0.021742351
34	0x3e2dce3e	0.16973206
35	0x3c52d8ff	0.012869119
36	0x3c2e9ce3	0.010657522
37	0x3c972dfe	0.018454548
38	0xbda369ea	-0.07979186
39	0x3c90c0d7	0.017670078
40	0xbda3ced1	-0.079984315
41	0xbda4cdc1	-0.08047057
42	0x3d9a07f4	0.07521048
43	0x3dbc020f	0.0918008
44	0x39bfe716	0.0003660253
45	0xbd6f443b	-0.05841468
46	0xbe153f18	-0.1457485
47	0xbd85dfc9	-0.06536824
48	0x3db32cec	0.087488025
49	0xbd9d08a7	-0.07667666
50	0xbc983988	-0.01858212
51	0x3db5a9a8	0.0887025
52	0x3cb2d889	0.021831768
53	0xbceaea8f	-0.0286763
54	0x3d8a7ec8	0.06762463
55	0x3cc3da2d	0.023907745
56	0xbd2ce1ee	-0.04220765
57	0xbdbf665d	-0.09345696
58	0x3c7ab249	0.015301296
59	0xbdfd5b2d	-0.12370906
60	0xb9a384c3	-0.00031188698
61	0x3b988504	0.0046545286
62	0x3d104c49	0.035229
63	0xbcce71b6	-0.025200706
64	0xbde5bf15	-0.11218087
65	0xbdaf76bd	-0.085675694
66	0xbde46d27	-0.11153632
67	0xbd1602a8	-0.036623627
68	0x3d550b61	0.052012805
69	0xbded6c60	-0.115929365
70	0x3e07627a	0.1322116
71	0xbdb6c947	-0.08925109
72	0xbceef6c0	-0.029170394
73	0xbd51c8b5	-0.0512168
74	0x3d17418c	0.036927745
75	0xbbbe1632	-0.0058009857
76	0x3d7a4715	0.061102945
77	0x3da63f62	0.08117558
78	0x3e376d95	0.17912896
79	0x3b27100b	0.002549174
80	0xbc5bda78	-0.013418786
81	0x3da537b7	0.080672674
82	0xbce52003	-0.027969366
83	0xbc88293f	-0.01662123
84	0xbda989c8	-0.08278233
85	0xbd7b0a81	-0.061289314
86	0x3d261790	0.040549815
87	0xbcdb9ce0	-0.026808202
88	0xbda83555	-0.08213297
89	0x3dc05da2	0.09392859
90	0x3c4a4473	0.012345421
91	0x3dcd0a65	0.10011748
92	0xbd7cd70b	-0.06172852
93	0x3db9ebf1	0.090782054
94	0xbd761376	-0.060077153
95	0xbc9412b0	-0.018075317
96	0x3d61f1c9	0.055162225
97	0xbdcfb952	-0.10142769
98	0xbcd81861	-0.026378812
99	0x3cc2c11e	0.023773726
100	0xbd2b8e40	-0.041883707
101	0x3c82df05	0.015975485
102	0xbc722c31	-0.014781044
103	0xbd97fc8e	-0.07421218
104	0x3e02a8c9	0.12759699
105	0xbcec8a50	-0.028874546
106	0x3d9cf2f2	0.07663526
107	0xbdac23a3	-0.08405235
108	0x3d835ab9	0.06413788
109	0xbc2486a4	-0.010041866
110	0xbc459d02	-0.012061359
111	0xbd7f82e7	-0.062380698
112	0xbccd4d47	-0.025061263
113	0x3d0b5d25	0.034024376
114	0x3dd53888	0.10411173
115	0x3d360785	0.044440765
116	0x3d1a6ac9	0.037699495
117	0xbdacc6d9	-0.08436365
118	0x3d1d0371	0.03833336
119	0xbd834ae1	-0.064107664
120	0xbe03d5a3	-0.12874465
121	0xbc7d4631	-0.0154586295
122	0xbc97cc86	-0.018530142
123	0xbb99f3a6	-0.0046982346
124	0xba92b314	-0.0011192285
125	0xbd2da3ec	-0.042392656
126	0xbc6490d5	-0.013950546
127	0x3d71d2db	0.059038978
128	0x3d15d33e	0.03657841
129	0x3e07b4db	0.13252585
130	0x3cb4eaa0	0.022084534
131	0xbd5973ae	-0.053088836
132	0xbdb0a6ce	-0.086255655
133	0xbd81b838	-0.06333965
134	0xbd9e8069	-0.07739336
135	0x3d92ced5	0.07168356
136	0xbca124ff	-0.019670961
137	0x3e0c0182	0.1367245
138	0xbcb1fa2f	-0.021725742
139	0xbcc0a02c	-0.023513876
140	0xbdf987e3	-0.121841215
141	0xbd19b3af	-0.037524875
142	0xbc2a6034	-0.010398913
143	0x3c5f3c02	0.013625147
144	0x3df89ddd	0.12139485
145	0xbcdc7a22	-0.026913706
146	0x3da6bc50	0.081413865
147	0x3e605255	0.21906407
148	0x3e10aa11	0.14127375
149	0xbdce2bb4	-0.100669295
150	0x3c05faff	0.008177518
151	0x3d9ea094	0.077454716
152	0x3da9ea1d	0.08296607
153	0x3dd89e4a	0.10577066
154	0x3dacb435	0.08432809
155	0xbc0ec611	-0.008714215
156	0x3da28bc6	0.07936816
157	0x3cbdd78d	0.023174072
158	0x3d4a1a75	0.049341638
159	0x3e2e6b2d	0.17033072
160	0x3dd96457	0.106148414
161	0x3c957000	0.018241882
162	0xbd35b93a	-0.0443661
163	0x3c355383	0.011067274
164	0x3c39c5ef	0.011338695
165	0xbd8a7502	-0.06760599
166	0xbaebf4bc	-0.0018002014
167	0x3dc6b548	0.097025454
168	0xbc0ecb7a	-0.008715505
169	0x3d0aeaac	0.033915207
170	0xbd6631e4	-0.056199923
171	0x3d9dcd3b	0.0770516
172	0xbce4470e	-0.027865913
173	0xbdcf207d	-0.101136185
174	0x3db57997	0.08861082
175	0xb831656d	-4.229455e-05
176	0xbb8cbca7	-0.00429495
177	0x3e16de50	0.14733243
178	0x3d128d8b	0.035779517
179	0x3cb44ab9	0.022008287
180	0x3decf5ad	0.115702964
181	0xbca2f478	-0.019891962
182	0x3ce874df	0.028376041
183	0xbb412f48	-0.0029477645
184	0xbdf6595b	-0.12028762
185	0x3cc53e0e	0.024077442
186	0xbc076c90	-0.008265629
187	0xbd8be0c7	-0.06829982
188	0xbdcafba7	-0.0991128
189	0xbc4510b9	-0.012027913
190	0x3c694764	0.014238212
191	0xbd67d5f2	-0.05660052

exp_avg f4 [128, 142]
0	0xbad1aa01	-0.00159961
1	0xbaa4f7d5	-0.0012586067
2	0x3acd89a3	0.0015681278
3	0xbb9b0ed6	-0.004731993
4	0xbaaa7b6f	-0.0013006757
5	0xbab0fa00	-0.001350224
6	0xbb80ce30	-0.0039308295
7	0xbb7f6487	-0.003896983
8	0xbadd5fd9	-0.0016889527
9	0xbb302d78	-0.002688257
10	0xba767702	-0.0009401889
11	0xba5ae4a2	-0.0008350109
12	0x3b2a2902	0.0025964384
13	0x3b21ddc9	0.0024698845
14	0xba2d405e	-0.0006609018
15	0x3b1e152a	0.0024121501
16	0x3815e090	3.573351e-05
17	0xbad73016	-0.0016417529
18	0xb9f680e3	-0.00047016804
19	0x3a8e5b21	0.0010860899
20	0x3b15ab2f	0.002283763
21	0x3b16942b	0.0022976499
22	0x3adfe5c7	0.0017082029
23	0x3ae8e1c2	0.0017767476
24	0x3b39f30e	0.0028373632
25	0x3a377ac6	0.00069991907
26	0xb8ca5cf5	-9.649425e-05
27	0xba9263cf	-0.0011168661
28	0xbab6fe5c	-0.0013961303
29	0xb98b8975	-0.0002661456
30	0xb8a8897b	-8.036472e-05
31	0xba005e71	-0.00048968854
32	0x3b018273	0.0019761592
33	0x39b33046	0.00034177507
34	0x3b1151c8	0.002217399
35	0x39d06323	0.00039746714
36	0x3a8d3943	0.0010774512
37	0x3bddcd80	0.0067688823
38	0x3bdbdc24	0.0067095924
39	0x3b2a6a2c	0.0026003225
40	0x3b11720c	0.0022193221
41	0x3b0165bf	0.0019744483
42	0xb9d1f295	-0.00040044324
43	0xb9007005	-0.00012248762
44	0x3b1d3ab0	0.002399128
45	0x3baa16c1	0.0051907008
46	0x3be7089b	0.0070505864
47	0x3b90c34f	0.004417814
48	0x3b99f97c	0.0046989303
49	0x3b966dc0	0.00459072
50	0x3b31dc44	0.0027139345
51	0xb52d66c1	-6.459705e-07
52	0x3b29c6d3	0.0025905862
53	0x3ba71886	0.005099359
54	0x3bac107a	0.0052509876
55	0x3bac4acc	0.00525794
56	0x3b477c0d	0.003043893
57	0x3b9c57b6	0.004771198
58	0x3b93b6fe	0.0045078984
59	0xb50d06d0	-5.2536507e-07
60	0xb8e81dc8	-0.00011068169
61	0x3b23b8cc	0.0024981974
62	0xb88bd314	-6.667353e-05
63	0x3b29634d	0.0025846541
64	0x3bd345f0	0.006447546
65	0x3bc282d6	0.005936007
66	0x3b926e50	0.0044687167
67	0x39794c5b	0.00023774935
68	0x3987eb79	0.00025924647
69	0x3bce1fbe	0.006290405
70	0x3bcae6dc	0.0061920714
71	0x3b8b8802	0.0042581568
72	0x00000000	0.0
73	0x00000000	0.0
74	0x3b2f2174	0.002672282
75	0x3b44fa59	0.0030056445
76	0x3b3e2276	0.002901224
77	0x00000000	0.0
78	0x00000000	0.0
79	0xb51d32c4	-5.856093e-07
80	0x00000000	0.0
81	0x00000000	0.0
82	0x00000000	0.0
83	0x00000000	0.0
84	0xb5200fc0	-5.9627564e-07
85	0x00000000	0.0
86	0x00000000	0.0
87	0x00000000	0.0
88	0x00000000	0.0
89	0x3aea3596	0.0017868753
90	0xba14ea1e	-0.0005680638
91	0x3ac67078	0.001513972
92	0x3af16d8d	0.001841949
93	0x3af16d40	0.00184194
94	0x3b1943e5	0.0023386416
95	0xbb1bde6b	-0.0023783694
96	0xbb1594f7	-0.0022824386
97	0x00000000	0.0
98	0x00000000	0.0
99	0x39b2f31b	0.00034131933
100	0x3922a446	0.0001551072
101	0xbb09fa17	-0.0021053606
102	0x00000000	0.0
103	0x00000000	0.0
104	0xb549ec0a	-7.5221817e-07
105	0x00000000	0.0
106	0x00000000	0.0
107	0x00000000	0.0
108	0x00000000	0.0
109	0xb39f2b00	-7.411836e-08
110	0x00000000	0.0
111	0x00000000	0.0
112	0x00000000	0.0
113	0x00000000	0.0
114	0x3bb2e04e	0.005458868
115	0x3b9724ad	0.0046125264
116	0x3b8b99f1	0.0042602946
117	0xb7b19446	-2.116909e-05
118	0xb7b2ffba	-2.1338336e-05
119	0x3ba483ef	0.0050206105
120	0x3bb5139d	0.0055260197
121	0x3b8fb810	0.0043859556
122	0x00000000	0.0
123	0x00000000	0.0
124	0x3b1a5d42	0.002355412
125	0x3b5b521d	0.0033465691
126	0x3b1ac53b	0.0023616094
127	0x00000000	0.0
128	0x00000000	0.0
129	0xb8193935	-3.653132e-05
130	0x00000000	0.0
131	0x00000000	0.0
132	0x00000000	0.0
133	0x00000000	0.0
134	0xb8193935	-3.653132e-05
135	0x00000000	0.0
136	0x00000000	0.0
137	0x00000000	0.0
138	0x00000000	0.0
139	0xbb5eb818	-0.003398424
140	0x3930ba7e	0.00016854142
141	0x3918b6d3	0.00014563957
142	0xa63e11d5	-6.594366e-16
143	0x30c8687f	1.4581615e-09
144	0xb92b0375	-0.00016309119
145	0x30c9f1b6	1.4693373e-09
146	0xb92a6072	-0.00016248392
147	0xb92a6139	-0.00016248682
148	0x2e31c8e0	4.0423553e-11
149	0x2526e8bf	1.4477062e-16
150	0x25e95e83	4.04831e-16
151	0x2e312358	4.0276532e-11
152	0x2e782dd0	5.642936e-11
153	0x30c9f1bf	1.4693383e-09
154	0xb92a6072	-0.00016248392
155	0xb92a6139	-0.00016248682
156	0x30c9f6f0	1.4694859e-09
157	0xb92a60d7	-0.00016248539
158	0x30e4a3b9	1.6635716e-09
159	0x2f871112	2.4568486e-10
160	0xb92a6068	-0.00016248378
161	0xb92a60d7	-0.00016248539
162	0xb92a6072	-0.00016248392
163	0xb92a6139	-0.00016248682
164	0xb91c54ba	-0.00014908882
165	0xb92a60d7	-0.00016248539
166	0xb0c1563f	-1.4067111e-09
167	0xb92a60d6	-0.00016248538
168	0x3522a583	6.0590554e-07
169	0x3548a26c	7.474216e-07
170	0x352306eb	6.07323e-07
171	0x3522a1f1	6.058536e-07
172	0x376aec01	1.4002436e-05
173	0x3522a1f1	6.058536e-07
174	0xb92d4634	-0.00016524718
175	0xb92d4967	-0.0001652591
176	0xb92d4903	-0.00016525765
177	0xb75e558e	-1.3252151e-05
178	0xb760b55c	-1.3393666e-05
179	0xb760bb74	-1.3395085e-05
180	0xb92b03d9	-0.00016309264
181	0xb0c15108	-1.4065629e-09
182	0xb91f3a15	-0.00015185059
183	0xb92a6072	-0.00016248392
184	0xb92a6072	-0.00016248392
185	0x341984fe	1.4297618e-07
186	0xb92a6072	-0.00016248392
187	0x30c8687f	1.4581615e-09
188	0xb92b0316	-0.0001630898
189	0x2d473074	1.1322599e-11
190	0xb91f3a15	-0.00015185059
191	0xb92a60d7	-0.00016248539
192	0xb92a6139	-0.00016248682
193	0x3417ff2e	1.4155805e-07
194	0xb92a6072	-0.00016248392
195	0xb92a6072	-0.00016248392
196	0xb92b0378	-0.00016309123
197	0xb92b0378	-0.00016309123
198	0xb92a5d9f	-0.0001624734
199	0xb92a6139	-0.00016248682
200	0xb92a6136	-0.00016248677
201	0x34180247	1.4156932e-07
202	0xb0c1563f	-1.4067111e-09
203	0xb92a60d7	-0.00016248539
204	0x2d4496f6	1.117483e-11
205	0xb92a60d7	-0.00016248539
206	0x3768b348	1.387002e-05
207	0x376adfa8	1.3999561e-05
208	0x2a26c515	1.4812138e-13
209	0x2a26c515	1.4812138e-13
210	0x2a26c515	1.4812138e-13
211	0x3768b348	1.387002e-05
212	0x28273374	9.281519e-15
213	0x1aff509a	1.0559575e-22
214	0x00000000	0.0
215	0x00000000	0.0
216	0xb40c9e7a	-1.309617e-07
217	0x24c84090	8.684555e-17
218	0x1410cfe2	7.31114e-27
219	0x00000000	0.0
220	0x00000000	0.0
221	0xb40b18ba	-1.2954379e-07
222	0x00000000	0.0
223	0x00000000	0.0
224	0x00000000	0.0
225	0x00000000	0.0
226	0xb40b18ba	-1.2954379e-07
227	0x00000000	0.0
228	0x00000000	0.0
229	0x00000000	0.0
230	0x00000000	0.0
231	0xb92a5da2	-0.00016247344
232	0xb92b00a6	-0.00016308072
233	0xb92b00a6	-0.00016308072
234	0x0e0c0b55	1.7261788e-30
235	0x077924a9	1.8743451e-34
236	0x352305ca	6.0730656e-07
237	0x3234a908	1.0515812e-08
238	0xb92b0378	-0.00016309123
239	0x00000000	0.0
240	0x00000000	0.0
241	0x35230625	6.0731173e-07
242	0x3522a1f1	6.058536e-07
243	0x25d87be8	3.755399e-16
244	0x00000000	0.0
245	0x00000000	0.0
246	0x30c8688d	1.458163e-09
247	0x00000000	0.0
248	0x00000000	0.0
249	0x00000000	0.0
250	0x00000000	0.0
251	0x1aff50f8	1.0559634e-22
252	0x00000000	0.0
253	0x00000000	0.0
254	0x00000000	0.0
255	0x00000000	0.0

exp_avg_sq f4 [128, 142]
0	0x3bf6aa79	0.007527646
1	0x3c666461	0.014062018
2	0x3c604ccf	0.013690188
3	0x3c48eeba	0.012263948
4	0x3c3dc594	0.011582751
5	0x3bdfd792	0.006831118
6	0x3baafde7	0.005218256
7	0x3bc05741	0.0058697765
8	0x3bf8ec29	0.007596512
9	0x3c4d4eca	0.012530992
10	0x3c2c69d9	0.010523283
11	0x3bf61145	0.007509383
12	0x3c2f32c3	0.010693255
13	0x3c3b6c03	0.011439326
14	0x3c3f71ed	0.011684877
15	0x3c03f5ab	0.008054177
16	0x3c2652a8	0.010151543
17	0x3c13585c	0.0089932345
18	0x3beb95be	0.0071894815
19	0x3c05fede	0.008178441
20	0x3c009c85	0.007849817
21	0x3c203480	0.009778142
22	0x3c3e58d4	0.011617858
23	0x3bfa8b12	0.007645973
24	0x3c0ae484	0.008477334
25	0x3c2e1fc2	0.010627689
26	0x3c0e4522	0.008683475
27	0x3c761160	0.015018791
28	0x3c61485d	0.013750163
29	0x3c41a143	0.011818233
30	0x3c038102	0.008026363
31	0x3bc3f516	0.0059801443
32	0x3c2b6c9f	0.010462909
33	0x3c3a3ecd	0.011367512
34	0x3c3c2479	0.011483305
35	0x3c866b8a	0.0164087
36	0x3c46fa2f	0.012144609
37	0x3c2ff22d	0.010738892
38	0x3bc51f8e	0.0060157245
39	0x3bda6177	0.0066644507
40	0x3c72548d	0.014790666
41	0x3c69dd1f	0.014273911
42	0x3c710c27	0.01471237
43	0x3c185fb4	0.009300161
44	0x3c4a5cda	0.012351239
45	0x3c0c3216	0.008556863
46	0x3c02a54a	0.007973978
47	0x3bbe574b	0.005808746
48	0x3c4f5022	0.0126533825
49	0x3c25596e	0.0100921225
50	0x3c347662	0.011014553
51	0x3b99d513	0.00469459
52	0x3c1a0eb7	0.009402922
53	0x3bf7bc0e	0.0075602597
54	0x3bc31758	0.0059537105
55	0x3b9ec9dd	0.0048458413
56	0x3c206e6a	0.00979195
57	0x3be02b3b	0.006841091
58	0x3c1ef1e8	0.00970123
59	0x3b4c46dc	0.0031170165
60	0x3c1430f5	0.009044875
61	0x3bd273fa	0.006422517
62	0x3bbed531	0.0058237542
63	0x3b691ed5	0.0035571356
64	0x3c431b09	0.011908301
65	0x3c236553	0.009972888
66	0x3bd6ccb3	0.006555164
67	0x3b0c79be	0.0021434869
68	0x3a454364	0.00075249956
69	0x3c4096f5	0.011754741
70	0x3c0b9e99	0.008521699
71	0x3bc5504d	0.0060215355
72	0x00000000	0.0
73	0x00000000	0.0
74	0x3bef1dcc	0.0072972532
75	0x3b8360bd	0.004009335
76	0x3b54d13d	0.0032473349
77	0x00000000	0.0
78	0x00000000	0.0
79	0x3b09ca02	0.0021024947
80	0x00000000	0.0
81	0x00000000	0.0
82	0x00000000	0.0
83	0x00000000	0.0
84	0x3ab86421	0.0014067927
85	0x00000000	0.0
86	0x00000000	0.0
87	0x00000000	0.0
88	0x00000000	0.0
89	0x3c778ba1	0.015108974
90	0x3c40d41c	0.011769321
91	0x3c09d7bf	0.008413254
92	0x3a3a15ec	0.00070986035
93	0x39bcb3bf	0.00035992076
94	0x3c478877	0.012178532
95	0x3c20b047	0.009807653
96	0x3bd06cf3	0.006360644
97	0x00000000	0.0
98	0x00000000	0.0
99	0x3c06735e	0.008206217
100	0x3bc4d98d	0.0060073794
101	0x3b4084a4	0.0029375935
102	0x00000000	0.0
103	0x00000000	0.0
104	0x3ac73efd	0.0015201267
105	0x00000000	0.0
106	0x00000000	0.0
107	0x00000000	0.0
108	0x00000000	0.0
109	0x3a9dc27c	0.001203611
110	0x00000000	0.0
111	0x00000000	0.0
112	0x00000000	0.0
113	0x00000000	0.0
114	0x3c2b9ad2	0.010473924
115	0x3bdcafa0	0.0067348033
116	0x3baee5a7	0.0053374353
117	0x3a0cd6b3	0.0005372569
118	0x39e16383	0.00042989486
119	0x3c1f74d9	0.0097324485
120	0x3c069014	0.008213062
121	0x3b992d0c	0.0046745595
122	0x00000000	0.0
123	0x00000000	0.0
124	0x3c0121b3	0.00788157
125	0x3b80a0b1	0.003925406
126	0x3b3e5ca0	0.0029046908
127	0x00000000	0.0
128	0x00000000	0.0
129	0x3a3564ad	0.0006919604
130	0x00000000	0.0
131	0x00000000	0.0
132	0x00000000	0.0
133	0x00000000	0.0
134	0x39e4c9c7	0.00043637885
135	0x00000000	0.0
136	0x00000000	0.0
137	0x00000000	0.0
138	0x00000000	0.0
139	0x3e3ff0bf	0.18744181
140	0x3c36bb3e	0.01115304
141	0x3f0bf627	0.54672474
142	0x3b4edc4e	0.0031564417
143	0x3bab6517	0.0052305567
144	0x3bbaba07	0.0056984457
145	0x3ba011e9	0.0048849476
146	0x3b841e17	0.0040319073
147	0x3b52c7ea	0.0032162615
148	0x3b2dd06a	0.002652193
149	0x3ad7389c	0.0016420069
150	0x3b568ce8	0.0032737795
151	0x3ba14bd5	0.00492237
152	0x3b996bda	0.0046820464
153	0x3b911873	0.0044279634
154	0x3b8a8db6	0.004228319
155	0x3b95afa8	0.004568059
156	0x3bab6483	0.005230488
157	0x3b4c3066	0.0031156777
158	0x3bad18b7	0.0052824873
159	0x3b995deb	0.0046803853
160	0x3b9b1940	0.0047332346
161	0x3ba54b99	0.0050444123
162	0x3b8afd58	0.0042416267
163	0x3b74b033	0.0037336468
164	0x3b8cf8b4	0.0043021087
165	0x3b3b04b3	0.0028536736
166	0x3b7f7eb6	0.0038985438
167	0x3ba1eee1	0.0049418067
168	0x3b8a66c1	0.004223675
169	0x3bcda6b6	0.006275977
170	0x3b8cbaf4	0.0042947475
171	0x3bacabce	0.005269504
172	0x3b9df4fd	0.0048204646
173	0x3b990f0b	0.0046709827
174	0x3baacc90	0.005212374
175	0x3ba8dd38	0.0051533245
176	0x3b8461ad	0.004039964
177	0x3bad9c67	0.0052981856
178	0x3b9a12c1	0.0047019427
179	0x3ba7ae18	0.005117189
180	0x3b838fa0	0.004014924
181	0x3b3ca745	0.0028786224
182	0x3bb41fff	0.0054969783
183	0x3bc4c80e	0.0060052937
184	0x3bb16455	0.005413572
185	0x3b807d1f	0.0039211656
186	0x3b946657	0.0045288014
187	0x3b8ded65	0.004331278
188	0x3b90f47b	0.0044236756
189	0x3b359881	0.0027709308
190	0x3ba72e46	0.005101952
191	0x3b9af814	0.0047292802
192	0x3b79913b	0.003808095
193	0x3b3a5b91	0.0028435925
194	0x3b829ce8	0.00398599
195	0x3b7219a3	0.003694155
196	0x3b6927ae	0.003557663
197	0x3b552d2b	0.0032528143
198	0x3b865c7e	0.0041003814
199	0x3b3e5218	0.002904063
200	0x3b701a52	0.0036636782
201	0x3b124cad	0.0022323534
202	0x3b4ee4a1	0.003156938
203	0x3b4b700c	0.0031042127
204	0x3b5a4823	0.0033307157
205	0x3b02cd7a	0.00199589
206	0x3bb2d8a8	0.0054579563
207	0x3b738f5d	0.0037164309
208	0x3b1fde94	0.0024394142
209	0x3a67b579	0.0008838992
210	0x3987215e	0.00025774067
211	0x3b8a65f1	0.004223578
212	0x3b228981	0.0024801197
213	0x3a94d7b9	0.0011355794
214	0x00000000	0.0
215	0x00000000	0.0
216	0x3b3b9c83	0.0028627224
217	0x3a90b206	0.0011039383
218	0x3a80850b	0.0009805275
219	0x00000000	0.0
220	0x00000000	0.0
221	0x3a5f250a	0.0008512294
222	0x00000000	0.0
223	0x00000000	0.0
224	0x00000000	0.0
225	0x00000000	0.0
226	0x3a473eff	0.00076006347
227	0x00000000	0.0
228	0x00000000	0.0
229	0x00000000	0.0
230	0x00000000	0.0
231	0x3bb3db51	0.005488791
232	0x3b7c0875	0.003845719
233	0x3b53c1e9	0.0032311624
234	0x3994c2c1	0.00028373863
235	0x394ea81d	0.00019708318
236	0x3b8d9a67	0.0043213847
237	0x3b71e762	0.0036911597
238	0x3b2d4193	0.002643679
239	0x00000000	0.0
240	0x00000000	0.0
241	0x3b4c639b	0.00311873
242	0x3add0ec3	0.0016865361
243	0x3ab7239d	0.0013972406
244	0x00000000	0.0
245	0x00000000	0.0
246	0x3a764e7f	0.0009395852
247	0x00000000	0.0
248	0x00000000	0.0
249	0x00000000	0.0
250	0x00000000	0.0
251	0x3a5bc0f0	0.0008382937
252	0x00000000	0.0
253	0x00000000	0.0
254	0x00000000	0.0
255	0x00000000	0.0

exp_avg f4 [128]
0	0x38f80053	0.00011825622
1	0xb92a5e01	-0.00016247483
2	0x1dacb95d	4.5719682e-21
3	0xb5ef6678	-1.783671e-06
4	0xbc17694d	-0.009241414
5	0x3c6549a8	0.013994612
6	0xbb60e011	-0.0034313241
7	0x00000004	6e-45
8	0x3ca57155	0.020195642
9	0xaf506a7c	-1.895532e-10
10	0xaf0a0d6c	-1.2555795e-10
11	0x10d9d67a	8.592186e-29
12	0xb71ee7da	-9.471516e-06
13	0xbae05378	-0.0017114719
14	0x00000004	6e-45
15	0xb17c748d	-3.6737078e-09
16	0x33a43542	7.646533e-08
17	0x32d420ac	2.4694906e-08
18	0x3cb300a9	0.0218509
19	0x00000004	6e-45
20	0x00000004	6e-45
21	0xbbca5b17	-0.0061754095
22	0xbbe20d56	-0.0068985624
23	0x3a054879	0.00050843466
24	0x80000004	-6e-45
25	0x3b1f5950	0.002431471
26	0x3b8ca30e	0.0042918986
27	0xbb2d043d	-0.0026400231
28	0xbc19c459	-0.009385192
29	0xbc07e7c5	-0.008295004
30	0xbb3681e6	-0.0027848422
31	0x3c22a1c2	0.009926261
32	0x3b1e1727	0.0024122687
33	0x35e1ff78	1.6838158e-06
34	0x3c42f60b	0.0118994815
35	0x3c192c10	0.009348884
36	0x2b1508a9	5.294745e-13
37	0x373cf667	1.1263043e-05
38	0xbc27f351	-0.010250882
39	0x3c868755	0.016421953
40	0xbb321ace	-0.0027176621
41	0x1671f46f	1.9544955e-25
42	0xb89180ce	-6.9381305e-05
43	0x3c151e26	0.009101426
44	0xbb67342a	-0.0035278895
45	0x0c8a9470	2.1351604e-31
46	0x00000004	6e-45
47	0x3bf58f4c	0.007493889
48	0xb1510857	-3.0418243e-09
49	0x3c10e38c	0.008843314
50	0x3c9a4252	0.018830452
51	0xbbaf2b0c	-0.0053457078
52	0x3a5e1e22	0.0008473118
53	0xbb55235b	-0.0032522294
54	0x1303b859	1.6625415e-27
55	0x3b559f93	0.0032596334
56	0x00000004	6e-45
57	0xb3148449	-3.4579248e-08
58	0xbc290dc7	-0.010318226
59	0x3b248a77	0.0025106946
60	0x00000004	6e-45
61	0x2d350c7a	1.0291429e-11
62	0x3ad75e82	0.0016431364
63	0x00000004	6e-45
64	0x07bf90fd	2.8823702e-34
65	0xbc7fb4f8	-0.015607111
66	0x00000004	6e-45
67	0xbbe8773c	-0.007094292
68	0x32a3551a	1.9014397e-08
69	0xba87b7b6	-0.0010354433
70	0x00000004	6e-45
71	0xbb3694eb	-0.0027859758
72	0xbb06eeab	-0.0020589035
73	0x3ba64801	0.0050745015
74	0x3c2db0f5	0.010601272
75	0x00000004	6e-45
76	0xbbdc1fe7	-0.0067176702
77	0x3c4affe9	0.012390115
78	0x3b98b0ca	0.004659747
79	0x3c164cf1	0.009173618
80	0xb861e68b	-5.385889e-05
81	0xbc84b286	-0.016198408
82	0x3b0f5e0f	0.0021876132
83	0xbb99239e	-0.0046734354
84	0x364a1686	3.0113456e-06
85	0x38b293ea	8.5152526e-05
86	0xb936cdce	-0.00017433541
87	0x2fdb26d7	3.9863465e-10
88	0xb9cf20e3	-0.0003950662
89	0xbb3f152b	-0.0029156904
90	0x3b0ca2d0	0.0021459348
91	0x1d82e417	3.4646553e-21
92	0x36749b97	3.6449399e-06
93	0xb0a7edc4	-1.2218426e-09
94	0xbb5bf295	-0.0033561338
95	0x00000004	6e-45
96	0x80000004	-6e-45
97	0x31163019	2.1855213e-09
98	0x3c31b94c	0.010847401
99	0xbb07bff3	-0.0020713776
100	0x0482d4ac	3.075816e-36
101	0x1620dc4a	1.2994208e-25
102	0x00000004	6e-45
103	0x00000004	6e-45
104	0x3c366002	0.0111312885
105	0x3bd704ce	0.006561852
106	0x131ad69b	1.9543341e-27
107	0x2b4e806b	7.336412e-13
108	0x00000004	6e-45
109	0x00000004	6e-45
110	0x80000004	-6e-45
111	0x3a939558	0.0011259718
112	0x3c071bd2	0.008246379
113	0xb9e695f2	-0.00043980737
114	0x328faafc	1.6725146e-08
115	0x00000004	6e-45
116	0xbc122cf1	-0.008921848
117	0x39b6f089	0.00034892958
118	0x3bd84716	0.006600271
119	0x379f4e0a	1.8990617e-05
120	0xbc3c0115	-0.011474867
121	0x00000004	6e-45
122	0xbb91434b	-0.004433071
123	0xb66196eb	-3.3615459e-06
124	0x00000004	6e-45
125	0x00000004	6e-45
126	0xb475f3a8	-2.2906045e-07
127	0xb94cca10	-0.0001953023

exp_avg_sq f4 [128]
0	0x3cb04ed7	0.021521969
1	0x3c067a79	0.008207911
2	0x3818a403	3.6392372e-05
3	0x39be2c9c	0.0003627286
4	0x3cb411a1	0.021981062
5	0x3c37039e	0.011170296
6	0x3c8d9c6b	0.0172865
7	0x3708f509	8.163283e-06
8	0x3c2c9642	0.010533871
9	0x3bbd7ddb	0.0057828254
10	0x3a0b5b54	0.0005316038
11	0x389ac07f	7.3791474e-05
12	0x3a71199f	0.0009197238
13	0x3c7afad5	0.015318592
14	0x37fc5fe9	3.0085403e-05
15	0x39010d0b	0.00012307258
16	0x3866bb2f	5.50106e-05
17	0x39b9d6da	0.00035446027
18	0x3c75c9a7	0.015001691
19	0x392d1609	0.00016506774
20	0x37c8330f	2.3865634e-05
21	0x3b011e11	0.001970176
22	0x3cbfb942	0.023403767
23	0x3cbc91d5	0.023018757
24	0x3809d4c1	3.2861488e-05
25	0x398505bd	0.00025372012
26	0x3cb36666	0.021899413
27	0x39d23249	0.00040091787
28	0x3c88a05a	0.016678024
29	0x3cd70447	0.026247157
30	0x3c21d6b1	0.009877847
31	0x3cda0f70	0.02661869
32	0x3c862be7	0.016378356
33	0x3a2f56fe	0.0006688683
34	0x3c86dd72	0.016463015
35	0x3c95ac0e	0.018270519
36	0x39bf9bac	0.00036546343
37	0x39473e4c	0.00019001326
38	0x3c98cc5f	0.01865214
39	0x3ce6547a	0.028116453
40	0x3c2afa18	0.010435604
41	0x3a06d93b	0.0005144064
42	0x3c1cfcc4	0.009581748
43	0x3cc50372	0.024049494
44	0x39c23372	0.00037040893
45	0x39095eda	0.00013100673
46	0x38060012	3.1948155e-05
47	0x3cc7372b	0.024318298
48	0x3a269691	0.00063548336
49	0x3c96d4d3	0.01841203
50	0x3cdbd436	0.026834588
51	0x3c8e425c	0.017365627
52	0x39cc56cb	0.00038974578
53	0x3a51a766	0.00079976616
54	0x3bae4bed	0.0053191097
55	0x3b5b3d05	0.0033453119
56	0x390c5121	0.00013381663
57	0x3ab6be61	0.0013942235
58	0x3c51c783	0.012803915
59	0x3ac62d83	0.0015119765
60	0x36b80d10	5.485148e-06
61	0x392d1f61	0.00016510255
62	0x3cb7775f	0.022395788
63	0x38081f76	3.2454227e-05
64	0x3a1c18be	0.00059546146
65	0x3b258b97	0.0025260204
66	0x3766e300	1.3761921e-05
67	0x3cae88c5	0.021305451
68	0x398e1e5c	0.0002710697
69	0x3c7fa20e	0.015602602
70	0x37355212	1.0807549e-05
71	0x3bc0ecbf	0.0058875973
72	0x397622c5	0.00023473341
73	0x3c30ea64	0.010798071
74	0x3ca4573d	0.02006113
75	0x374c11c4	1.2163484e-05
76	0x39187e18	0.00014542823
77	0x3ca8bd52	0.020598087
78	0x3cb23fa0	0.021758854
79	0x3b3e278e	0.0029015276
80	0x3a4b55af	0.00077566033
81	0x3ca815b4	0.020518161
82	0x3ca5f815	0.020259896
83	0x3c9c82ad	0.01910528
84	0x3ac5675d	0.0015060712
85	0x3c3d76dd	0.011563984
86	0x3be36128	0.006939072
87	0x39ab1e44	0.0003263821
88	0x3c4a7d59	0.012358987
89	0x3ca2971c	0.019847445
90	0x3cccea82	0.025014166
91	0x398f28df	0.00027305537
92	0x39b8b5cc	0.00035230664
93	0x39553bb2	0.00020335501
94	0x3c80a457	0.015703363
95	0x39aee888	0.00033361115
96	0x370cbcaa	8.388577e-06
97	0x3c19fce0	0.009398669
98	0x3c8f9045	0.017524848
99	0x3c5945a6	0.013261234
100	0x39c31803	0.00037211188
101	0x391e1587	0.00015076074
102	0x36d62b8a	6.3827656e-06
103	0x37d91276	2.5877012e-05
104	0x3c611af7	0.013739339
105	0x3cba5ec9	0.022750275
106	0x3a04d409	0.0005066996
107	0x3a3b25e2	0.0007139129
108	0x35a64d0a	1.2390385e-06
109	0x388a1aae	6.585322e-05
110	0x380049b0	3.0586205e-05
111	0x3cadb0ce	0.021202471
112	0x3c96eed5	0.01842443
113	0x3c4f062d	0.01263575
114	0x39944f48	0.0002828783
115	0x376d61cd	1.4149072e-05
116	0x3cd7b4a0	0.026331246
117	0x3bb4cc06	0.0055174856
118	0x3ce8ed0c	0.028433345
119	0x3adcb5ac	0.001683881
120	0x3c572e51	0.013133601
121	0x36b005dd	5.2458913e-06
122	0x3bc307b5	0.0059518465
123	0x3b1a4ea5	0.002354541
124	0x393915bd	0.00017651073
125	0x37d1809d	2.4974632e-05
126	0x3a35525e	0.0006916876
127	0x3c3c72ec	0.011502009

exp_avg f4 [192, 128]
0	0x37b07c90	2.1038839e-05
1	0x2d2fd0e2	9.99398e-12
2	0x183faedb	2.477445e-24
3	0x30c813e2	1.4557566e-09
4	0x36855bb1	3.974383e-06
5	0x3546b99b	7.403084e-07
6	0x3785dffc	1.5959136e-05
7	0x00000004	6e-45
8	0x37c5bae0	2.357125e-05
9	0x0eaa2300	4.194194e-30
10	0x24aea589	7.57409e-17
11	0x0b41b6e3	3.7308037e-32
12	0x28965554	1.669035e-14
13	0x37b84395	2.196598e-05
14	0x00000004	6e-45
15	0x80000004	-6e-45
16	0x29f9f275	1.1099881e-13
17	0x1903ed46	6.820458e-24
18	0x3801c626	3.0940537e-05
19	0x00000004	6e-45
20	0x00000004	6e-45
21	0x35a3e85f	1.2212075e-06
22	0x38075a50	3.227062e-05
23	0x38014094	3.081614e-05
24	0x80000004	-6e-45
25	0x35bfa188	1.4277621e-06
26	0x37c3cc82	2.3341043e-05
27	0x3588282c	1.0144481e-06
28	0x37a1a86b	1.9271121e-05
29	0x35ede8e6	1.7725658e-06
30	0x2b6db98d	8.445682e-13
31	0x37c53c2c	2.351225e-05
32	0x37f7d75d	2.954498e-05
33	0x3122ad83	2.3672733e-09
34	0x3802823d	3.111571e-05
35	0x37e5ef95	2.7410491e-05
36	0x25c7a1af	3.4630558e-16
37	0x288a1170	1.532864e-14
38	0x375e379f	1.3245181e-05
39	0x37dcf08d	2.6338059e-05
40	0x377213b7	1.4428914e-05
41	0x076fa337	1.8028326e-34
42	0x252617ad	1.4406227e-16
43	0x380f8d69	3.4225555e-05
44	0x33f818d5	1.1552917e-07
45	0x06b940c2	6.968442e-35
46	0x00000004	6e-45
47	0x38668585	5.4960623e-05
48	0x279e9f50	4.4026536e-15
49	0x379e454b	1.8867335e-05
50	0x37603ee3	1.3366082e-05
51	0x3506baf9	5.019097e-07
52	0x364b888a	3.0328833e-06
53	0x3600288f	1.9097095e-06
54	0x0802008d	3.91211e-34
55	0x372d1ba2	1.0318037e-05
56	0x00000004	6e-45
57	0x2ccc91ea	5.8142284e-12
58	0x33af4ef4	8.163434e-08
59	0x0b1ea039	3.055023e-32
60	0x00000004	6e-45
61	0x26551413	7.3926426e-16
62	0x3791b818	1.7371072e-05
63	0x00000004	6e-45
64	0x0000aa96	6.1195e-41
65	0x371751b2	9.0193225e-06
66	0x00000004	6e-45
67	0x37ac70de	2.0556556e-05
68	0x2c7e1b16	3.6110607e-12
69	0x38267075	3.9682218e-05
70	0x00000004	6e-45
71	0x3746c1a1	1.1846802e-05
72	0x32a6dc91	1.9425245e-08
73	0x3681060d	3.845204e-06
74	0x37348ff6	1.0762355e-05
75	0x00000004	6e-45
76	0x33b0c8cd	8.232164e-08
77	0x371c0ba1	9.301032e-06
78	0x37a56821	1.9718022e-05
79	0x343eaaaf	1.7757223e-07
80	0x3098bfed	1.1114004e-09
81	0x368a201f	4.11646e-06
82	0x37e1e915	2.6930627e-05
83	0x378922c4	1.6347862e-05
84	0x060e992c	2.6819765e-35
85	0x2c86e4c8	3.833909e-12
86	0x36b29e65	5.323253e-06
87	0x27afaaa0	4.875725e-15
88	0x09da8d21	5.2614308e-33
89	0x3707b944	8.089763e-06
90	0x381ecc39	3.7860333e-05
91	0x18235d9c	2.1114517e-24
92	0x0595a950	1.4074088e-35
93	0x00000004	6e-45
94	0x3851b843	5.000109e-05
95	0x00000004	6e-45
96	0x80000004	-6e-45
97	0x0999a91e	3.6992447e-33
98	0x369ee585	4.7354865e-06
99	0x371f743f	9.504204e-06
100	0x00000ce4	4.624e-42
101	0x011f002f	2.920382e-38
102	0x80000004	-6e-45
103	0x00000004	6e-45
104	0x367c40ea	3.7588711e-06
105	0x3822025e	3.8626014e-05
106	0x0313d00a	4.3438235e-37
107	0x05c4a0f3	1.8490875e-35
108	0x80000004	-6e-45
109	0x00000004	6e-45
110	0x80000004	-6e-45
111	0x365a6ad1	3.2546707e-06
112	0x36301998	2.6240941e-06
113	0x35627c94	8.4372846e-07
114	0x00000004	6e-45
115	0x00000004	6e-45
116	0x37f5f0b6	2.9318366e-05
117	0x2e1a7160	3.5116243e-11
118	0x37a3324c	1.9454536e-05
119	0x00000004	6e-45
120	0x369f3a4b	4.7453555e-06
121	0x00000004	6e-45
122	0x3392d678	6.8376664e-08
123	0x29bb9c62	8.331596e-14
124	0x00000004	6e-45
125	0x00000004	6e-45
126	0x00000004	6e-45
127	0x34c95710	3.7502514e-07
128	0xbd0ca1a2	-0.034333833
129	0xb770b02a	-1.4346131e-05
130	0x9d918279	-3.8516086e-21
131	0x35598697	8.1034653e-07
132	0xbd33b990	-0.043878138
133	0xb98d0eb4	-0.0002690457
134	0xbd47a1eb	-0.0487384
135	0x00000004	6e-45
136	0xbd0f7f08	-0.035033256
137	0x12a46a19	1.037601e-27
138	0x29ba783e	8.280918e-14
139	0x0ea22f5d	3.9981693e-30
140	0xb4931ea5	-2.740318e-07
141	0xbd3fe18d	-0.04684596
142	0x80000004	-6e-45
143	0x80000004	-6e-45
144	0x3302bd95	3.0440408e-08
145	0x9e33e6a8	-9.52388e-21
146	0xbd99e432	-0.07514228
147	0x80000004	-6e-45
148	0x80000004	-6e-45
149	0xbc65bb6b	-0.014021735
150	0xbccbf03d	-0.024894828
151	0xbd99c92b	-0.07509073
152	0x00000004	6e-45
153	0x3b9f68dd	0.0048647956
154	0xbd07dc73	-0.03316922
155	0x3ae84871	0.0017721785
156	0xbd03dc1b	-0.03219233
157	0x3a2c873b	0.000658143
158	0xb80da643	-3.3771863e-05
159	0xbd5b9a94	-0.053614214
160	0xbd5f9c31	-0.054592315
161	0x35b13a4f	1.3204498e-06
162	0xbd81dd13	-0.06340995
163	0xbc3f9d1b	-0.011695172
164	0xab7aa0c8	-8.904097e-13
165	0x2d029c97	7.424414e-12
166	0x3c21f735	0.009885599
167	0xbc5b7974	-0.013395656
168	0xbd060132	-0.032715984
169	0x8c92dc65	-2.2627507e-31
170	0x2a0fd69e	1.2775412e-13
171	0xbd9ba7ad	-0.07600341
172	0x39ed2a1d	0.0004523554
173	0x0a6a8101	1.1290953e-32
174	0x80000004	-6e-45
175	0xbdcf4508	-0.101205885
176	0x2d737715	1.3839392e-11
177	0x3b06eb72	0.0020587114
178	0xbd0e31a1	-0.0347153
179	0xbc91d7b3	-0.017803049
180	0x3c11cf28	0.008899488
181	0x3af07618	0.0018345742
182	0x0a84297f	1.2726747e-32
183	0xbc8696ad	-0.01642927
184	0x80000004	-6e-45
185	0x323e9ba1	1.10948415e-08
186	0x3abc3aca	0.0014360782
187	0x115c2d32	1.7368867e-28
188	0x00000004	6e-45
189	0x2bfe558b	1.8071528e-12
190	0xbd6c4515	-0.05768307
191	0x00000004	6e-45
192	0x86718157	-4.5422086e-35
193	0xbbcc486a	-0.0062342184
194	0x00000004	6e-45
195	0xbd8b9610	-0.068157315
196	0x310e5087	2.0709494e-09
197	0xbd3a7747	-0.045523908
198	0x00000004	6e-45
199	0xbcc20339	-0.023683177
200	0x37c8c3bb	2.3933002e-05
201	0xb89eda69	-7.574709e-05
202	0xbd8655cb	-0.065593325
203	0x00000004	6e-45
204	0x331c2508	3.635526e-08
205	0xbc226bf3	-0.009913432
206	0xbd6946d9	-0.05695233
207	0x3a1e9981	0.00060500955
208	0xba3b5450	-0.00071460474
209	0xbd3e4968	-0.046456724
210	0xbda665c9	-0.08124883
211	0xbcabc922	-0.020969931
212	0x09206f87	1.931174e-33
213	0xa49759e8	-6.563812e-17
214	0xbd24aad6	-0.040201984
215	0x2d86d022	1.5326466e-11
216	0x930154f7	-1.632398e-27
217	0xbce3ee5b	-0.027823618
218	0xbcebc2f1	-0.028779479
219	0x9d9b696f	-4.1137174e-21
220	0x33402e60	4.474566e-08
221	0x00000004	6e-45
222	0xbd965ad8	-0.07341546
223	0x80000004	-6e-45
224	0x80000004	-6e-45
225	0x92ad7507	-1.0946684e-27
226	0x3b392ca5	0.002825537
227	0xbb027d2b	-0.0019911032
228	0x8022adff	-3.184825e-39
229	0x00000004	6e-45
230	0x00000004	6e-45
231	0x00000004	6e-45
232	0xbba1e161	-0.0049401973
233	0xbd9673df	-0.073463194
234	0x0609837c	2.5863436e-35
235	0x0b0abb10	2.6718563e-32
236	0x80000004	-6e-45
237	0x00000004	6e-45
238	0x00000004	6e-45
239	0xbcd4f9a3	-0.025997942
240	0xb9053ca3	-0.00012706457
241	0x3b00050e	0.0019534263
242	0x00000004	6e-45
243	0x00000004	6e-45
244	0xbd80e228	-0.06293136
245	0x37c52ef3	2.3506092e-05
246	0xbd92fb6f	-0.071768634
247	0x00000004	6e-45
248	0xbc5b5c0a	-0.013388643
249	0x80000004	-6e-45
250	0xbaa6bd46	-0.0012721203
251	0xb0a330dd	-1.1873699e-09
252	0x80000004	-6e-45
253	0x00000004	6e-45
254	0x32f83938	2.889702e-08
255	0x39beca91	0.00036390548
