weights/policy_checkpoint200.pt (torch, 522961 bytes, 12 tensors)

net.0.weight f4 [128, 142]
00000000: 2821 9e3d 4ed9 b83d 265c 443b e4fc ca3d
00000010: 9480 8bbc 39a6 143d 4ed7 25bd 26a7 323d
00000020: 1b44 863d 7eef 8abd cc1f 963d b913 bc3c
00000030: b6ad 613d c7ac 7c3c 69ae 213d a9f8 88bc
00000040: 2549 6c3d d640 6b3b e191 28bd 2b34 7f3c
00000050: f7db eebc 2d00 6a3b a1eb fbbc a33e 603d
00000060: d17c 99bd 877b 45bd 6612 d6bc 7d3e 52bd
00000070: 3717 103c 7b6c a6bd c639 ac3d c560 8ebd
00000080: 6960 663d 5622 a43b d1d5 1ebd eead 473d
00000090: c03a 1d3c 5869 a43d 433b e03c 9545 70bc
000000a0: 38c6 813c 650f dcbc 55b2 183d e464 9b3d
000000b0: 35fc 363d cca1 16bd 9a52 623d 7ccf ad3c
000000c0: 9ae0 373d ed8c 0abc d8e5 b5bd c0d7 c8bc
000000d0: 122a 4bbd 964b bd3d 5162 e73c 6ee5 273d
000000e0: 1f82 a33c de52 dbb9 7758 883d abc2 47bd
000000f0: 4351 d33b f8f8 66bd fe6e c83c f603 11bd
00000100: c659 d13c 9bc6 98bc bde0 8f3d 4749 54bd
00000110: 72e7 17bd 928f 14bd 1c26 d73d 046c 6e3d
00000120: 6860 a53d e8d5 8dbd 57a2 a2bd d7ca 68bd
00000130: f464 3cbd 5339 0b3d 7229 f63c d4be 993d
00000140: 9e82 31bd ec52 6abd fc5f 363d caef 0abd
00000150: 1b80 463d 5322 a3bc eca0 443d 7988 85bd
00000160: 6d76 2dbd bb2d dc3c a815 ad3c bb03 83bc
00000170: ab39 633d eaf6 6e3d dfcd 80bd 0fa2 2bbd
00000180: bbf8 993d 71f8 e7bc 05b7 f3bc 269c a3bd
00000190: 2090 40bd 7a18 963c b87a 35bc 0282 79bd
000001a0: a026 613c 73cb 6abd 24cf 91bd 4f47 3dbd
000001b0: f26a 96bd e3a3 2abd 11cc ab3d efd7 813c
000001c0: bfd8 d33c 914b a0bd 13d5 8cbd ca0a 15bd
000001d0: da82 033c 961f 9dbd bf50 2cbd 1761 9bbd
000001e0: 14b3 4fbc 48b0 08bd 328d bebb b8eb 68bd
000001f0: 522b 97bd 6adc 52bd 5b1c 10bd 35a6 87bd
00000200: 631a 903d 816f 88bc 1cdf 933d 0d33 d63c
00000210: c288 91bd 53df 6d3d 7d26 bdbc 9ac2 03bd
00000220: d7a8 8ebd 5cdc aabd 5ab0 c43c 9cd0 7ab9
00000230: 305a e33c 1417 90bd 295d 963d 34e7 3fbd
00000240: ba2a 46bc 97c1 033d 19fe 783d 44ca a43d
00000250: a738 cf3d 5505 3cbd 0660 163d fd77 9fbc
00000260: db62 d33b a3ab 3cbd ef1c bf3d 2519 43bd
00000270: 10b5 8c3d 62ad 403d 2a7d 3d3d b6a2 d7bc
00000280: c3e1 ea3d 05f0 463d dd85 233d a93b 3abd
00000290: 3bae 8b3d 1280 8a3c 8c8c b9bb d69c cf3d
000002a0: 0213 663d caa8 88bc 1ce7 03bd fac0 363c
000002b0: 5aef 9f3d e3b8 eb3a 7659 8bbc e40d 8aba
000002c0: 4afc c7bc 27c3 593d bed9 8b3d fc6b 6cbd
000002d0: 4b4d 623d f50b a13d 1786 4b3d 1916 893b
000002e0: b785 913d cb18 a03d f16f 583d 68eb 663c
000002f0: 60cf 003c 53e8 023d aef3 06bc a271 e8bb
00000300: bc89 983d 9f1e c83d d85f 953b 605b 99bb
00000310: ea53 383c 6735 eb3a 6c82 013d a52d 3b3d
00000320: 3923 56bd 274d 5b3b da1c cb3d afbd c93c
00000330: f95e 13bb 014b 51bd 480e d8bc 0feb 6fbd
00000340: fbc8 dbbc d27f 253d 1968 803d fa75 543d
00000350: e864 a5bd c397 8dbd 05fc 58bc be40 a63d
00000360: aaa7 043d e3bb c3bc 51d2 0a3d 80eb 02bd
00000370: f87a 5ebd 0ab5 973d 474b 1cbd f6cf 89bc
00000380: adf8 aabd 2b0c 663d c865 8d3d e88a fa3c
00000390: 54ac 6fbd aa9e a9bd a995 8bbd e120 933d
000003a0: 4217 683d 74cf ac3d 09a6 2b3d b269 df39
000003b0: 6626 723c 41ad 29bd 5b30 65bd cac0 a0bd
000003c0: 9fb5 0c3d 8c24 e2bc 80b0 033c 021b 03bd
000003d0: b88a 7abc a2ed 71bd 132f 7fbd 7c09 e43c
000003e0: 534f ccbc d632 543d d88a dcbc 015e 8dbd
000003f0: a796 72bc 219f 26bd 6252 d2bc 369d a3bd
0.07721168 0.090258226 0.0029962151 0.09911516 -0.017029084 0.036291335 -0.040488534 0.043616436
0.06555959 -0.06783961 0.073302835 0.022958623 0.055097304 0.015422053 0.03947297 -0.016720133
0.057686944 0.00358968 -0.041154746 0.015576403 -0.029157622 0.0035705671 -0.030752005 0.054747235
-0.0749451 -0.048213508 -0.02613182 -0.051329125 0.008794597 -0.0812616 0.08409457 -0.06952051
0.056244288 0.005008976 -0.03877813 0.048749857 0.009596527 0.08027905 0.027372008 -0.014665027
0.015841588 -0.02686281 0.037279446 0.07587603 0.044674117 -0.036775395 0.055254556 0.0212171
0.04489193 -0.008456451 -0.0888173 -0.02451694 -0.04960067 0.092429325 0.028245123 0.040990286
0.019959508 -0.00041832676 0.06657498 -0.048769634 0.006448896 -0.05638978 0.024466988 -0.035404168
0.025555503 -0.01864939 0.07025287 -0.051827695 -0.037085958 -0.03626973 0.10505316 0.05820848
0.08075029 -0.06925565 -0.0794112 -0.05683407 -0.045994714 0.033990216 0.03004906 0.07507101
-0.043337457 -0.057207987 0.04452513 -0.033920087 0.048462015 -0.019913828 0.04800503 -0.06520171
-0.042349268 0.026877275 0.02112849 -0.01599299 0.05547492 0.058340944 -0.06289267 -0.041902598
0.07518145 -0.028316708 -0.029750356 -0.07988767 -0.04701245 0.018322218 -0.011076622 -0.060915
0.013742119 -0.05732293 -0.07119587 -0.046210583 -0.07344617 -0.0416602 0.08388532 0.015850035
0.025860189 -0.07826913 -0.06876578 -0.036387242 0.008026803 -0.0767204 -0.042069193 -0.07586878
-0.012676973 -0.03337124 -0.0058151716 -0.056865424 -0.073813096 -0.051479734 -0.035183292 -0.06623498
0.07036283 -0.016654732 0.07220289 0.02614739 -0.071061626 0.058074307 -0.023089642 -0.03216801
-0.069657974 -0.083428115 0.024009872 -0.00023919571 0.027752966 -0.07035652 0.07341988 -0.04685135
-0.012095148 0.032167044 0.0607892 0.080463916 0.101182275 -0.045903523 0.03671267 -0.019466395
0.0064509935 -0.046062123 0.093316905 -0.0476314 0.068704724 0.04704035 0.046261944 -0.026322704
0.11468842 0.048568744 0.039922584 -0.045467053 0.06820341 0.016906772 -0.0056625064 0.10137336
0.05617047 -0.016682047 -0.032202825 0.011154408 0.078093246 0.0017984178 -0.017010432 -0.0010532704
-0.024412293 0.053164627 0.068286404 -0.05772017 0.055249494 0.07863609 0.049688425 0.0041835424
0.07105582 0.07817229 0.05284113 0.014094211 0.007861942 0.031959843 -0.008236809 -0.007093624
0.07448146 0.097714655 0.0045585446 -0.004680082 0.011250475 0.0017944992 0.03161852 0.045697827
-0.052279685 0.0033462734 0.099176124 0.024626581 -0.0022487028 -0.05109692 -0.026373997 -0.05857378
-0.026829233 0.040405102 0.06269855 0.051870324 -0.08075887 -0.06913712 -0.01324368 0.08117817
0.03238646 -0.023893302 0.03389198 -0.03196287 -0.05431649 0.07407577 -0.038157728 -0.016822796
-0.083482124 0.056163948 0.06904179 0.030583814 -0.058513954 -0.08282216 -0.06815655 0.071840055
0.056662805 0.08438006 0.04190639 0.00042612624 0.014779663 -0.041424993 -0.05595432 -0.078492716
0.034352895 -0.027605318 0.008037686 -0.03200818 -0.015291862 -0.059064515 -0.062300753 0.027836554
-0.024940168 0.051806293 -0.026921675 -0.069026954 -0.014806426 -0.0406791 -0.025674049 -0.0798897

net.0.bias f4 [128]
00000000: 1c2d 703d df19 1e3d bb0b d83c 8c68 ce3d
00000010: cb72 5d3d 312c 823d 9ab5 d3bc 4c84 85bd
00000020: 2a74 5c3d be42 823d d968 2d3d 9c8c a03c
00000030: 631c 82bc b1e8 643d dc0d 4cbd 5eb5 9dbc
00000040: fbc5 8c3d 7b55 87bd e9ac 72bd 94d4 a2bc
00000050: b9a9 1d3d f87b b3bd 09d2 733d e272 413c
00000060: 9941 a93a 8d0b 8d3d a599 1d3d d3e7 50bc
00000070: 4589 6ebd 848a 4a3d dd18 18bd a440 e7bc
00000080: 5864 2e3d ce9a a03d 3f86 1839 823c 64bd
00000090: 809e aabd c02a 053d 3be9 ce3c 6a5a b93c
000000a0: 834f e33d 8a10 69bd 25cd 7f3c fff3 9d3d
000000b0: bd48 143c 3c77 1cbd b172 8fbd 41a9 b93b
000000c0: 749d b0bc fc82 74bd d30f 96bd 2f43 543d
000000d0: 5794 adba d207 dd3c 94dd 6d3d 520d 83bd
000000e0: dbe3 a0bb aa56 8b3d 08fc aa3c 5491 b73d
000000f0: 0b03 a6bd 68da 893d a07c 913c 32aa 8cbd
00000100: 1f48 0b3d 8d29 523d 98ab e73c 162f 7f3d
00000110: 6ef5 e2bb e794 b1bc 815c 96bd 00b9 9f3d
00000120: f377 163d b32e ae3c 1e70 08bd 70ed 9cbd
00000130: 4b6f 95bc 233b 1e3d 2166 5e3d 4bda 27bc
00000140: d49f 5b3d ffc1 563b 644f 99bc 1611 ea3d
00000150: 0e0f 003d e0d0 b53d 0901 c4bd 0809 c7bb
00000160: dd55 d7bc 17c2 6e3d 358a 123d 3e59 dbba
00000170: 3543 4b3d 57f0 05bd 3164 013c 2a0e 1f3d
00000180: f68b 98bd f0e7 bb3c 038b c13a 8921 41bd
00000190: 0067 66bd 915c 95bd acce 90bd f380 3cbd
000001a0: 6c0e ff3c 9c39 3b3d b754 dd3c e9cd 80bb
000001b0: b429 9bbd e4e9 b5bd 18bc 783d eda0 963c
000001c0: 196b 6c3d 60bd 99bd a77a 77bd 110c a7bc
000001d0: 6bce 763d f428 3abd aa9d 48bd b095 76bd
000001e0: 3f5e 3a3d a735 86bc e248 69bc 9dbe 6d3d
000001f0: 5815 4abd 5d90 8ebc 484e 03bd d2d4 9cbc
0.05863677 0.03859889 0.026372781 0.100785345 0.054064553 0.06356085 -0.02584343 -0.06519374
0.05382172 0.06360386 0.04233632 0.019598298 -0.015882676 0.055885974 -0.049817905 -0.019251522
0.06873699 -0.06608101 -0.05924693 -0.019876756 0.03849194 -0.087638795 0.059526477 0.011807175
0.0012913226 0.06886969 0.038476605 -0.012750584 -0.05823638 0.049448505 -0.037133086 -0.028229065
0.042576164 0.07842027 0.0001454586 -0.055721767 -0.08331013 0.032511473 0.025257697 0.02262612
0.1109915 -0.05690054 0.015612875 0.07712554 0.009050545 -0.03819965 -0.070042975 0.0056659286
-0.021559455 -0.05969523 -0.07327237 0.051821884 -0.0013243061 0.026981268 0.05807264 -0.06399025
-0.004909975 0.06803639 0.020872131 0.08963266 -0.08106049 0.06731111 0.017759621 -0.068684
0.034004327 0.051309157 0.028280064 0.062300764 -0.00692623 -0.021677447 -0.073418625 0.07798958
0.036735486 0.021262502 -0.03331005 -0.07662475 -0.018241545 0.038630616 0.054296616 -0.010244916
0.05361922 0.003276944 -0.018714614 0.1142904 0.031264357 0.0887773 -0.0957051 -0.0060740747
-0.02628606 0.058290567 0.035776336 -0.001673497 0.04962464 -0.03269991 0.007897423 0.038831867
-0.074485704 0.022937745 0.001476616 -0.047151122 -0.056250572 -0.07293046 -0.070706695 -0.046021413
0.031134807 0.045709237 0.027017934 -0.0039307964 -0.075763136 -0.08882502 0.060726255 0.018387282
0.057719324 -0.075068235 -0.060419705 -0.020391496 0.06025545 -0.045449212 -0.048978485 -0.060201347
0.045500036 -0.016383005 -0.014238568 0.05804311 -0.04933676 -0.017402822 -0.032057077 -0.01914445

net.2.weight f4 [192, 128]
00000000: 1edd 2e3a f6f6 c3bc b3da 013e 309c 9fbd
00000010: c4da 49bd 78a3 50bc 357d 54bd 8426 a83d
00000020: 1763 1a3d 4b5a 783d 79fd 9b3d 5e6f dbbb
00000030: ffa0 5e3d 9493 e2bb b2bc 8c3d 258c 4f3b
00000040: 8947 803d 4b10 0b3d a627 41bd 0863 803d
00000050: 1279 db3d 23b8 98bc 972a 94bb 399e abbd
00000060: 7e76 3e3d be4d 73bd cdc3 cbbd b175 a33d
00000070: 96e1 0a3c 3faa 9d3d 92cc 9abd 416f 5ebd
00000080: 7e44 02bd 58e8 243d 0902 96bd 7875 ccbd
00000090: 13b7 27bd 71a1 52bd fe4f 9c3d 143f 293d
000000a0: cc36 96bd 3ab1 2cbd 1472 b43c 4354 7abd
000000b0: f60a 8abd bdba 9f3d ee72 9dbd e83d 323d
000000c0: a06f 37bd b3b5 91bd 70d9 02bd 79e2 70bd
000000d0: 7dcb 6dbd 54e5 1fbd fad8 00bc 0c4f 43bd
000000e0: 7c2e a23d 7d3f bbbd 1cba f6bc 7d53 433d
000000f0: 97ac 6abd 16fc bdbc 38ad 9cbd 72d1 78bd
00000100: 0e0e 213d d1ea 593d 947e 783b b8b0 813d
00000110: c920 823c cdd4 b1bd a446 87bd 564b 023c
00000120: 3586 74bd 3bc1 fa3d f65d c1bc 19a7 803d
00000130: b8ab f8bc 3f2b cebc a5c9 86bd c99c b63d
00000140: 4835 97bd 97ff 6c3d 9878 c0bc 7136 b7bb
00000150: 5c22 2abd 3946 063d ad24 8a3d 219f 87bd
00000160: a6d5 84bd 39d0 0a3d 69dc 6f3d af85 86bd
00000170: 3d21 033d 76a5 6d3d ff47 23bd c2c9 4a3d
00000180: bf5f b0bd ac66 3bbc 0ad3 00bd 52dc 3dbd
00000190: e048 04bd 75c3 adbd 865b bf3d 8740 5cbd
000001a0: c236 b13d d7aa 303d e13b e0bb e94e 7bbc
000001b0: 61a3 cfbc 7b61 cdbc fdfb a03d ccaf 54bd
000001c0: fd5d 543d 58e6 aabd 2ac9 0ebd e654 923d
000001d0: 8327 393d d69d acbd 5402 8dbd 87a3 3b3d
000001e0: 561a 87bc 473f f13d 6333 b4bd 570b 673c
000001f0: c9e0 cbbd 8f70 953d b4b6 49bd ae51 42bc
00000200: 570a 42bc e64d c93b 5602 00bd 3297 37bd
00000210: 114e 333d bde9 5bbd 1fcb a63c cf0b 2bbc
00000220: 911a 6f3d c4b7 b4bc d30b 7e3d 5b15 b3bb
00000230: 6d9d 3cbd bbb2 a13c 1220 49bd 2fbb c33c
00000240: cbf3 55bc 8081 333c cae1 a0bc 9559 debc
00000250: 9b9d 93bd 0d48 bebc 8817 943d 9490 653d
00000260: 540f 32bd 322d 4d3c 0a0e 943c b1b7 563d
00000270: 4d32 743d 7627 13bd b5e6 a5bc 9323 d53d
00000280: ec35 8c3b 0fd3 51bd 3734 2abd 0ed4 43bd
00000290: cb3e acbd df69 46bd 58f6 a03d 1656 c9bb
000002a0: 080e 5c3d b959 aabd 079b 8c3d cd2c 4a3d
000002b0: b51f a5bd 7cfb 85bc 8b00 863c 2296 8abd
000002c0: 1dba c53c 2898 663d 021a 94bd e37f 07bd
000002d0: 431f 923d 15fe 1fbc 343c 85bd eca3 a43c
000002e0: 5855 82bd e154 003d 62b8 6ebd 3578 013d
000002f0: bf09 dbbc 91ec e6bc dc42 e3bc 3d7d 933d
00000300: e5ab 80bd f859 883d 480e 283d 26b1 80bd
00000310: 13cb a13d f27e 7b3d ff07 62bd c940 303c
00000320: ab93 9f3c 0ba6 edbb 5573 813d 8b4c aabc
00000330: 7903 14bd 55e0 223d 9cf5 893d 93e8 a33d
00000340: b0c6 b5bd ac09 bfbc eed2 cbbc 0aa1 163c
00000350: e677 bdbc 9b6c 6abd 0cbf 55bd 54c9 56bd
00000360: 32f6 4bbd 2321 193d 60bd 823d 73f1 20bd
00000370: 3e1b ad3d f429 c23d 68a5 0abd e518 2c3d
00000380: 89a7 ff3b 08b4 a33d 833f f1bb 30ad 0bbd
00000390: 2362 8f3d ec0e aabd a777 583d f7a7 95bd
000003a0: d3e5 1a3c 98a5 e5bb c3bf 94bd 539b 2cbd
000003b0: ad67 bcbc e4d7 11bc 7c75 cb3c 0ec7 7ebd
000003c0: ebc0 a43d 7638 393c d2da a13c f38d dc3c
000003d0: db8d 52bd 8cf1 b9bb 9071 a4bd c858 9c3d
000003e0: 13c7 f5bc a5eb 9abd 0e77 de3c 6b94 6fbd
000003f0: 61c5 a2bd 1c51 63bd 806d 24bc 7a44 e63c
0.0006670522 -0.023921471 0.12681083 -0.07793462 -0.049280897 -0.0127342865 -0.05187722 0.08210471
0.037692156 0.060632985 0.076167054 -0.0066966256 0.054352757 -0.0069145653 0.06871928 0.0031669226
0.06263644 0.033951085 -0.047156952 0.06268889 0.10716452 -0.01864249 -0.0045216787 -0.08379788
0.04649972 -0.059400313 -0.099494554 0.07981432 0.008476635 0.076984875 -0.0755855 -0.05430532
-0.0318036 0.040260643 -0.07324607 -0.09983343 -0.040946078 -0.051423494 0.07632445 0.04131992
-0.073346704 -0.042161204 0.022027053 -0.061115514 -0.06740372 0.077992894 -0.07687937 0.04351607
-0.04478419 -0.071147345 -0.031945646 -0.05880973 -0.05805539 -0.039037064 -0.007864231 -0.047682807
0.079190224 -0.09142969 -0.03011804 0.047687043 -0.0572935 -0.023191493 -0.07650226 -0.060746618
0.039320044 0.053202454 0.0037917243 0.063325346 0.015884774 -0.08683167 -0.066052705 0.007952532
-0.059698302 0.12243887 -0.023604374 0.06281871 -0.03035532 -0.025167106 -0.065814294 0.08916623
-0.073832095 0.057860937 -0.023495004 -0.0055912067 -0.041536674 0.032781813 0.067452766 -0.06622148
-0.06486063 0.033889983 0.05855981 -0.06568467 0.03201412 0.058019124 -0.039863583 0.049508817
-0.08612012 -0.011438053 -0.031451263 -0.046352692 -0.03229606 -0.08484546 0.093436286 -0.053772476
0.08653022 0.043131676 -0.0068430756 -0.015338638 -0.02534646 -0.025070896 0.07860563 -0.051925465
0.051847447 -0.08344716 -0.034859814 0.07145099 0.045203697 -0.08428542 -0.0688521 0.04581025
-0.01649205 0.11779647 -0.08798864 0.014101825 -0.09954984 0.072968595 -0.049246505 -0.011860294
-0.0118432855 0.0061433194 -0.031252228 -0.044821925 0.04377562 -0.053689707 0.020360528 -0.010439827
0.058374945 -0.022060283 0.062022995 -0.0054651923 -0.04604857 0.019738546 -0.04910285 0.023892967
-0.013058613 0.010956168 -0.019638915 -0.027142325 -0.07207795 -0.023227716 0.07231051 0.056046084
-0.04347165 0.012522982 0.0180731 0.052421276 0.059618283 -0.035926305 -0.020251611 0.10407176
0.004278889 -0.05122667 -0.041553702 -0.047809653 -0.08410414 -0.04844081 0.07859486 -0.0061442954
0.05372432 -0.083178945 0.068655066 0.04935913 -0.08062688 -0.016355269 0.01635768 -0.06766917
0.024136597 0.05629745 -0.07231523 -0.033080947 0.07134869 -0.009765168 -0.065056235 0.020097695
-0.06363934 0.031330947 -0.05828131 0.03160878 -0.026738046 -0.028188976 -0.027741842 0.07201622
-0.06282786 0.06657785 0.041029245 -0.062837884 0.079000615 0.06140036 -0.055183407 0.0107576335
0.019479593 -0.00725246 0.06320826 -0.020788452 -0.036136124 0.03976472 0.067362994 0.080033444
-0.08875787 -0.023320042 -0.024880853 0.009193668 -0.023128461 -0.05723248 -0.05218415 -0.052438095
-0.049795337 0.037385117 0.06383777 -0.039292764 0.08452462 0.09480658 -0.03384915 0.04201593
0.007801954 0.079933226 -0.0073623075 -0.03410071 0.0700114 -0.08303627 0.052848484 -0.073074274
0.009454208 -0.0070082657 -0.07263138 -0.042140316 -0.022998655 -0.00890157 0.024836294 -0.062201552
0.08044609 0.011304965 0.019757662 0.026923155 -0.051404815 -0.0056745466 -0.08029473 0.07634121
-0.030002153 -0.07564477 0.02715638 -0.05849115 -0.07947803 -0.055497274 -0.010035872 0.028108824

net.2.bias f4 [192]
00000000: 17da 003d c290 123d c78d 3c3d 15aa a23c
00000010: 59f6 393d d4f4 443c b7ae fa3c 6da9 84bd
00000020: 4b77 70bd 1729 d33b 9877 9c3d 69f7 28bd
00000030: 696f 863c d042 3dbd c433 25bd 2285 4a3d
00000040: 1565 3c3d 1a8b 9c3c 0fb1 093d 7ed9 f03d
00000050: 7f57 f23c 2122 ca3c 6db0 fa3c c61f d93d
00000060: c055 823d f1a2 313d 0cd4 653d 9de5 bf3d
00000070: c10e 403d 0c08 e53c ef98 5ebc d8fc fb3c
00000080: 9d22 24bc e505 283c caf9 7e3d 5864 983d
00000090: 03d3 233d e299 aa3c 024e 10bd 4645 9cbc
000000a0: 56a0 9dbc 71d2 e63b 0276 603d 64e8 0a3e
000000b0: 6665 03bd ff6c 1cbc 240a 44bd 5f9c c83c
000000c0: dff4 683d fd9e 40bd fb6b ff3c 051b ac3d
000000d0: 3742 fe3c f83d cb3b 5bbe 613d eb45 c53a
000000e0: c158 503d a5f4 6bbd 65d1 15bc d3ae fcbc
000000f0: d4ce 19bc 81a7 e639 d098 8d3d b671 cebc
00000100: b500 85bd 5973 19bd ee87 49bd eecc 68bd
00000110: a859 16bd 7a6c 1bbd c8a4 373d 56e0 37bd
00000120: 52c4 f439 54f7 4d3d 59ec cb3c fee5 653d
00000130: 9534 4f3c e275 803d 043c 8f3d 944d 193c
00000140: eeff a43d 7f97 e93c 37f4 663d 7f01 2c3c
00000150: 13d4 49bc c825 33bd f528 403d 9631 2bbc
00000160: d91d 62bd cdf1 903d 6aea 943d 5763 b03d
00000170: 616b 2fbd f8cc b83d baac 023b dd77 323d
00000180: f8c8 1c3d 1417 78bd 02cc 77bd 2152 a7bc
00000190: bee7 473c e59c 0bbd 4089 303c 6cdf fbbc
000001a0: 527b bb3d 8fdc 0f3c e9a3 443d f8ca 333d
000001b0: 6043 c23d af38 133d 074f c23b 0d93 883c
000001c0: d275 5bbd 2543 bc3d f475 a73d ae9c c13d
000001d0: 6e0d bf3d 45f6 b0bd d6b6 e83c 6a33 0cbd
000001e0: b0dd b3bd ae9a 813d ac0c b3bc 221e c83c
000001f0: 4fcb e23c f3d6 f5bc a80e c93c dbd2 713d
00000200: 45e8 30bd 749c 2e3d ab15 57bd 3e10 393c
00000210: da5c d0bb 85cf 093b bdd8 acbd e5e4 333d
00000220: dd0c 653b 35ba a03d b0bf 1b3d a088 aa39
00000230: 0ab2 11bd 479e 03bd fff9 fe3c 4989 ae3c
00000240: dff2 b13d 65b0 c3ba 45f9 1bbd 9827 9c3d
00000250: 3db9 693d 3485 64bd 7f9a 913c f308 e43d
00000260: 697d c53d ec7d d93b 03ca f23d e5d7 283d
00000270: 78f2 213d 4e29 9abc 0807 a73d be8d c23d
00000280: 599b 26bd 657f 6b3d bd71 92bd 0285 b73c
00000290: e274 9c3d a110 6dbd 39d4 603c 13cc 9f3d
000002a0: de19 463d 0e6d c43d 0913 4abc 1407 bf3d
000002b0: db51 44bd 6d80 a5bc 4103 403d 8494 d23c
000002c0: a599 ebbc 310f be3d 153e 893d a617 8ebc
000002d0: 676e cf3d bc42 5ebd 0290 083d 0fbf 1cbb
000002e0: 1008 7abd ef40 433d 7476 90bc 7e35 f0bc
000002f0: f0ff 91bc 52ae 153d 8d82 8f3d f2d5 67bd
0.031457987 0.035782583 0.046033647 0.019856492 0.04540095 0.012021262 0.030600889 -0.06477628
-0.058707517 0.0064441073 0.07639998 -0.041251574 0.016410546 -0.046206295 -0.04033257 0.04944337
0.045994837 0.019109298 0.03361612 0.11760233 0.029582737 0.024674477 0.030601704 0.106017634
0.06364012 0.043368284 0.056110427 0.09369967 0.04688907 0.027957939 -0.013586267 0.030760214
-0.010018018 0.010255312 0.062249936 0.07441014 0.03999616 0.02082533 -0.035230644 -0.019076
-0.019241493 0.0070441295 0.05480004 0.13565212 -0.032079123 -0.009547471 -0.047861233 0.024488626
0.056874152 -0.047026623 0.031179419 0.08403591 0.031037433 0.0062024556 0.055113178 0.0015050744
0.050865892 -0.057606358 -0.009144162 -0.030845081 -0.009387691 0.0004399382 0.06913912 -0.025200706
-0.064942755 -0.03746352 -0.0492019 -0.05683606 -0.036706597 -0.03794525 0.044834882 -0.044891678
0.00046685577 0.0502847 0.024892973 0.05612754 0.012646814 0.06272484 0.06993869 0.009356875
0.08056627 0.028514622 0.056385245 0.010498404 -0.012318629 -0.043737203 0.04691406 -0.010448834
-0.055204246 0.0707737 0.072712734 0.086126976 -0.042827014 0.0902347 0.0019939379 0.04357134
0.038277596 -0.060568884 -0.06049729 -0.020424904 0.012201248 -0.034085173 0.01077491 -0.030746184
0.09154381 0.008780613 0.04800788 0.043894738 0.09485507 0.03594273 0.005929831 0.016671682
-0.05357916 0.09192494 0.08176795 0.094537124 0.093287334 -0.08640722 0.028407495 -0.03422872
-0.08782518 0.06328331 -0.021856628 0.024428431 0.027684836 -0.030009722 0.024543121 0.059038978
-0.04319026 0.042629674 -0.0525109 0.011295376 -0.006358725 0.0021028232 -0.08439777 0.043919463
0.0034950294 0.07848016 0.038024604 0.0003252672 -0.035570182 -0.032133367 0.031125067 0.021305697
0.08688902 -0.0014929889 -0.03807952 0.076247394 0.057061423 -0.055791095 0.017773865 0.111345194
0.09643061 0.0066373255 0.11854937 0.041221518 0.039537877 -0.018818524 0.08155638 0.094996914
-0.040675495 0.05749454 -0.071506 0.02240229 0.07639481 -0.057877187 0.013722473 0.07802596
0.048364513 0.09591113 -0.01233364 0.09327522 -0.047929626 -0.02020284 0.046878103 0.025705583
-0.028759787 0.09280241 0.06701294 -0.01734526 0.101284795 -0.05426286 0.03334046 -0.002391759
-0.061042845 0.047669347 -0.017634608 -0.029322382 -0.017822236 0.036543198 0.070073225 -0.05660052

exp_avg f4 [128, 142]
00000000: a331 21bb 1e1e 7dbb 1975 89bb 3e7e 8e3b
00000010: c05e bc3b f1fc 913b c945 a3ba 0208 183b
00000020: 33cc 20bb b1b8 7cbb 9633 83bb 993e e53a
00000030: eca0 3538 cbc6 a3ba 3c1e a3ba d4c7 173b
00000040: 464d cdbb 4652 cdbb 5f14 00bc 6fbd dbba
00000050: 050e ccbb 9b65 f6bb 51f0 a3ba 32ff c4ba
00000060: 8d4b 37bb 270e beb6 24b6 b9ba b2dc 89bb
00000070: 1a8b 32ba 55e6 c83a 5bdf c93a 2ef3 2cbb
00000080: c85c 37bb 0058 37bb 802f 05b7 214d f5b7
00000090: 47cd 643b 9f02 3f3b 88d5 3f3b 4b23 2ebb
000000a0: 8860 37bb 37ec 7cbb 4ae9 ac3b 753d 3c3b
000000b0: 00c7 94b9 a38d 89b9 b30c 2aba af21 673b
000000c0: 69be 8a3b 8701 c539 c6f0 323c 008d 0b3c
000000d0: ca96 79bb 6b68 78bb 2add 88bb 08dd a3b4
000000e0: 1b90 20bb b1ed 7cbb 131d db3b 8555 8c3b
000000f0: e6c7 94b9 bae9 8ab9 9631 0c3b 6e10 673b
00000100: 1831 123b cd35 6fbb 4ed5 b8ba eb06 deb2
00000110: 990e 6ab3 a65f 0b3a f298 a2bb 1500 b9ba
00000120: 0000 0000 0000 0000 9f98 123b 49ce 6ebb
00000130: 028e c3b8 0000 0000 0000 0000 dd03 b43b
00000140: 0000 0000 0000 0000 0000 0000 0000 0000
00000150: 9821 023c 0000 0000 0000 0000 0000 0000
00000160: 0000 0000 fa74 0a3b 39b4 82bb a4d4 903b
00000170: 5618 913b 80fe a8ba a2bd 17bb c4e6 09bc
00000180: e860 07b7 0000 0000 0000 0000 c0f3 d0bb
00000190: 0bb7 cbbb a3d1 8733 0000 0000 0000 0000
000001a0: b396 27b9 0000 0000 0000 0000 0000 0000
000001b0: 0000 0000 b396 27b9 0000 0000 0000 0000
000001c0: 0000 0000 0000 0000 1e95 6c3b 3e7f 6c3b
000001d0: 3811 733b 28b7 03bb aedd 2630 7f23 b83b
000001e0: 6b18 b83b 3064 bb3b 0000 0000 0000 0000
000001f0: 9296 26b5 b20f 2bb5 43c0 a8b4 0000 0000
00000200: 0000 0000 0000 0000 0000 0000 0000 0000
00000210: 0000 0000 0000 0000 0000 0000 0000 0000
00000220: 0000 0000 0000 0000 0000 0000 4bcc e73a
00000230: 3f28 263a 052e 90ba 499a 8a3b 0f9c 8a3b
00000240: a1bc 863b 5a13 0b3c 1693 1e3c 9a0b 263c
00000250: 680a cf3a 8848 073c 1b0e 863b f560 8e3b
00000260: 2945 873b 536f 0e3c a3be 78b8 96a9 8139
00000270: 053b 92b9 e553 d63b d519 a2bb 3a10 a2bb
00000280: 7bfe 833b c0ba 1439 f3c5 0dbc 16ef 08bc
00000290: 353c c9b9 d4dc 80ba c1aa 05bb ab2d 13ba
000002a0: 7f24 0e3c 8365 3e39 e22e 2b3b 8e1e 3839
000002b0: a2ae b1ba ce5d feba 3aaf 08bb c84e 19bb
000002c0: 9b6c 0f3c 02bc a53a b652 7c3b 5f21 f6b8
000002d0: bad2 f5ba 39d4 1ebb d42e dfba 80be 99ba
000002e0: 9165 2d3c 6a96 0f3b eb37 5f3b df6a 1b3b
000002f0: 11e0 d33a dfcb 3e3b bb4a d03b 174d aa3b
00000300: 7879 f13b cf36 d53b 3977 da3a e762 33ba
00000310: d8b3 bcba 57e2 ba3a a82b 3aba eb70 80ba
00000320: 5847 9c3a 3af2 ac39 e90a fc3a 00bb 993a
00000330: 348c f83a 1e83 413b 53d8 1e3c eae7 453c
00000340: 9aec 1b3c 3608 cfb5 1725 cdb5 ee6a 063c
00000350: 9efb 2f3c ad62 1d3c 0000 0000 0000 0000
00000360: 5fe1 bdba a8a9 433a 9387 08ba 0000 0000
00000370: 0000 0000 1ae0 32bb 0000 0000 0000 0000
00000380: 0000 0000 0000 0000 39dd fb3b 0000 0000
00000390: 0000 0000 0000 0000 0000 0000 6f51 ab3b
000003a0: c459 cc3b d2e7 243b 2ad4 3f3a 09c4 063a
000003b0: 810f 8d3b 5412 5f3b 328d a1b9 0000 0000
000003c0: 0000 0000 7559 4b3b c157 593a 2c6c 09b9
000003d0: 0000 0000 0000 0000 fce8 a2b5 0000 0000
000003e0: 0000 0000 0000 0000 0000 0000 fce8 a2b5
000003f0: 0000 0000 0000 0000 0000 0000 0000 0000
-0.0024596236 -0.0038622688 -0.0041948673 0.0043485453 0.0057486 0.004455202 -0.0012456711 0.0023198132
-0.0024535775 -0.0038562233 -0.0040039523 0.0017489969 4.3303633e-05 -0.0012495158 -0.0012444924 0.0023159878
-0.006265315 -0.0062659113 -0.007817357 -0.001676483 -0.006227257 -0.0075194365 -0.0012507533 -0.0015029667
-0.0027968616 -5.664089e-06 -0.0014168662 -0.004207217 -0.0006810889 0.0015327433 0.0015401648 -0.0026390064
-0.0027978886 -0.0027976036 -7.938477e-06 -2.9242192e-05 0.0034912394 0.002914585 0.0029271562 -0.002657133
-0.002798112 -0.0038592943 0.0052768337 0.0028723155 -0.00028377026 -0.00026236204 -0.00064868777 0.003526788
0.0042341244 0.00037575906 0.010921663 0.008517504 -0.0038084262 -0.0037904035 -0.0041767554 -3.0521937e-07
-0.0024499956 -0.0038593824 0.0066868155 0.0042826557 -0.00028377696 -0.0002649555 0.002139186 0.0035257596
0.0022307094 -0.0036500574 -0.0014101656 -2.5847347e-08 -5.4495647e-08 0.0005316682 -0.00496208 -0.0014114404
0.0 0.0 0.0022368801 -0.0036438874 -9.3247756e-05 0.0 0.0 0.0054936246
0.0 0.0 0.0 0.0 0.00794258 0.0 0.0 0.0
0.0 0.0021126852 -0.0039887694 0.00441988 0.00442795 -0.001289323 -0.0023153801 -0.008416835
-8.06919e-06 0.0 0.0 -0.0063767135 -0.006216889 6.32456e-08 0.0 0.0
-0.00015982501 0.0 0.0 0.0 0.0 -0.00015982501 0.0 0.0
0.0 0.0 0.0036099623 0.0036086584 0.003708912 -0.0020098183 6.0705474e-10 0.005619466
0.005618145 0.0057187304 0.0 0.0 -6.205893e-07 -6.3725304e-07 -3.1432327e-07 0.0
0.0 0.0 0.0 0.0 0.0 0.0 0.0 0.0
0.0 0.0 0.0 0.0017684785 0.00063383946 -0.0011000043 0.004229818 0.0042300294
0.004111842 0.0084885005 0.009678623 0.010134602 0.0015795948 0.008257039 0.004091037 0.0043450543
0.0041281176 0.008693534 -5.9305352e-05 0.0002473115 -0.00027891263 0.0065407627 -0.004946927 -0.004945782
0.004028139 0.0001418395 -0.008653152 -0.008357784 -0.00038382565 -0.0009831437 -0.0020395967 -0.000561441
0.0086756935 0.00018157628 0.0026120474 0.0001755899 -0.0013556073 -0.0019406618 -0.0020856396 -0.0023392905
0.008753921 0.0012644532 0.0038501448 -0.0001173641 -0.0018754818 -0.0024235381 -0.0017027506 -0.0011729747
0.010583297 0.0021909722 0.003406043 0.0023714823 0.00161648 0.0029113216 0.006356565 0.005197178
0.0073692165 0.006506778 0.0016667611 -0.00068430457 -0.0014396859 0.0014258128 -0.0007101842 -0.0009799277
0.0011923118 0.0003298687 0.0019229326 0.0011728704 0.0018962682 0.0029527615 0.00969513 0.012079218
0.009516859 -1.5425092e-06 -1.5284485e-06 0.008204205 0.010741143 0.009606046 0.0 0.0
-0.0014486721 0.00074639404 -0.00052081904 0.0 0.0 -0.002729422 0.0 0.0
0.0 0.0 0.007686284 0.0 0.0 0.0 0.0 0.0052282135
0.006236287 0.002516259 0.00073176867 0.0005140906 0.0043048267 0.0034038024 -0.00030813512 0.0
0.0 0.0031028662 0.00082909694 -0.00013105635 0.0 0.0 -1.2137748e-06 0.0
0.0 0.0 0.0 -1.2137748e-06 0.0 0.0 0.0 0.0

exp_avg_sq f4 [128, 142]
00000000: 4b0f d639 be1a c039 1f2f 2039 bb1f 9439
00000010: 8631 4d3a 4d72 e639 92c1 553a 1409 333a
00000020: daa0 ba39 1493 393a 8909 2e3a 87fc e039
00000030: d586 4d3a 86aa e939 b519 3d3a 354e 5f3a
00000040: 928d 0e3a 5c8e 0e3a 4da3 7c3a c28f 1d3a
00000050: f5f4 cd39 04ee 213a a910 633a f75b 813a
00000060: e96a 6d3a 17d2 633a 2d61 733a 9e9c 563a
00000070: b647 233a 56a4 243a 0527 243a cf85 5a39
00000080: 6c19 6e3a 93ac 643a d4b5 633a fcf4 693a
00000090: 7a70 3f39 176e eb39 54a9 e839 ce7f e939
000000a0: b335 6e3a 4cd2 743a b8a2 243a a00a 823a
000000b0: 2f3e 863a ef60 253a 3460 253a 53b2 bf39
000000c0: 77c6 2a38 bc5f df38 3bfb 3539 a5f9 5138
000000d0: 212f 0f39 e31a 1639 5b7b a139 e3a3 3038
000000e0: fab4 793a 1882 853a a4f6 fd39 e638 bd39
000000f0: 578a 5f3a 1bfa 8f39 9db6 263a 069d d239
00000100: 7edd 7d3a 8cc6 693a 3f30 783a f2f7 f038
00000110: 0be9 8436 eaa4 423a 16b0 8c39 d3d0 8839
00000120: 0000 0000 0000 0000 3d24 0a3a 8901 6538
00000130: 7a07 4638 0000 0000 0000 0000 9d0a a238
00000140: 0000 0000 0000 0000 0000 0000 0000 0000
00000150: 6dbf 3237 0000 0000 0000 0000 0000 0000
00000160: 0000 0000 95a2 063a 085e 0d3a e9b3 3f3a
00000170: 2552 5a39 5494 8438 ccdf 4239 2aec 5d39
00000180: b817 093a 0000 0000 0000 0000 d671 e039
00000190: d355 e039 4194 083a 0000 0000 0000 0000
000001a0: 6f53 6034 0000 0000 0000 0000 0000 0000
000001b0: 0000 0000 6f53 6034 0000 0000 0000 0000
000001c0: 0000 0000 0000 0000 db39 443a 2941 163a
000001d0: addb ec39 bc28 e839 cf1a cf39 21e7 9e39
000001e0: 0cc4 0e37 1565 1537 0000 0000 0000 0000
000001f0: 3852 0039 c7bd 5436 7caa a736 0000 0000
00000200: 0000 0000 0000 0000 0000 0000 0000 0000
00000210: 0000 0000 0000 0000 0000 0000 0000 0000
00000220: 0000 0000 0000 0000 0000 0000 3fe0 c03b
00000230: 17eb ef3a f878 fb3a c986 0a3b 9605 133b
00000240: 6ede a13a f171 923a e0dc 233b 371c 243b
00000250: a871 f53a a5d4 f53a f8c2 da3a 1430 ee3a
00000260: 3ffb fd3a 13a6 2e3b 3a4f ef3a 15f7 e83a
00000270: 3b88 a83a 1a9f 143b 0381 b43a 0dc7 c83a
00000280: 69ca d73a 9a5c 153b 601a 7f3a 25b0 ff3a
00000290: 85b1 4d3a d19d 153b bbf2 da3a 39bd ca3a
000002a0: 8a6a cb3a 5f99 ff3a 7969 103b 66db 2d3b
000002b0: 0413 ca3a e1d7 a83a 0ea3 f73a 6b8c ea3a
000002c0: b109 a73a d432 2a3b 479e 0c3b f4b2 373b
000002d0: 707f 033b 1dc9 023b 180b 033b 8e5e 033b
000002e0: bf1f 983a 3b6e 323b 0153 313b 7903 3c3b
000002f0: 218f 3a3b 8511 0f3b b925 983a b366 f53a
00000300: 724e f93a 8a4e f93a b095 ad3a 1499 d239
00000310: 56e8 a93a a315 f63a 3b01 d23a b0dc 0c3b
00000320: a6b3 9b3a 83eb a13a 8f36 3b3a 97e9 9c3a
00000330: 535b 983a c36b 6e3a 3130 273b b926 183b
00000340: f9c4 7f3a d066 c637 24c8 ad37 dd07 b23a
00000350: 7948 a43a 124a 183a 0000 0000 0000 0000
00000360: 9233 8b3a 17bd 633a 7cca df39 0000 0000
00000370: 0000 0000 c0cf 0639 0000 0000 0000 0000
00000380: 0000 0000 0000 0000 692b 2938 0000 0000
00000390: 0000 0000 0000 0000 0000 0000 2806 883a
000003a0: 94b3 813a aa83 453a 538c 4338 d84b a137
000003b0: 40af 633a 8ac4 6c3a d275 003a 0000 0000
000003c0: 0000 0000 4c02 aa39 1603 6239 4ba0 0339
000003d0: 0000 0000 0000 0000 b60c c737 0000 0000
000003e0: 0000 0000 0000 0000 0000 0000 b60c c737
000003f0: 0000 0000 0000 0000 0000 0000 0000 0000
0.00040828655 0.00036641018 0.00015276343 0.000282524 0.0007827509 0.0004395418 0.00081541494 0.0006829661
0.00035596528 0.0007079106 0.0006638994 0.00042912757 0.0007840221 0.00044568273 0.00072136085 0.00085184287
0.0005437966 0.00054380833 0.0009637371 0.0006010496 0.00039283154 0.00061771297 0.00086618453 0.0009869327
0.00090567634 0.00086906686 0.00092841947 0.000818679 0.00062286423 0.00062805915 0.0006261918 0.00020839948
0.00090827676 0.00087232253 0.00086864573 0.000892475 0.0001825708 0.00044904716 0.00044376648 0.00044536445
0.00090869813 0.0009339198 0.00062803505 0.0009921379 0.0010241921 0.0006308695 0.0006308586 0.0003656322
4.0715993e-05 0.000106513005 0.00017355096 5.0061983e-05 0.000136551 0.00014315131 0.0003080022 4.21143e-05
0.0009525564 0.0010185866 0.00048439682 0.00036091282 0.0008527389 0.00027461429 0.0006359609 0.00040171313
0.0009684189 0.00089178304 0.00094676384 0.00011490275 3.9610363e-06 0.0007425087 0.00026834075 0.00026095528
0.0 0.0 0.0005269682 5.4599284e-05 4.721384e-05 0.0 0.0 7.726739e-05
0.0 0.0 0.0 0.0 1.0654197e-05 0.0 0.0 0.0
0.0 0.0005135921 0.0005392735 0.00073128805 0.00020820701 6.321879e-05 0.00018584653 0.0002116418
0.00052296696 0.0 0.0 0.00042809424 0.00042788553 0.000521008 0.0 0.0
2.0891979e-07 0.0 0.0 0.0 0.0 2.0891979e-07 0.0 0.0
0.0 0.0 0.0007485428 0.00057317555 0.000451771 0.00044280838 0.0003950209 0.00030308313
8.509505e-06 8.904627e-06 0.0 0.0 0.0001223766 3.1700927e-06 4.996835e-06 0.0
0.0 0.0 0.0 0.0 0.0 0.0 0.0 0.0
0.0 0.0 0.0 0.005886107 0.0018304315 0.0019185832 0.0021137467 0.002243375
0.0012349614 0.0011172873 0.0025003478 0.0025041231 0.0018725889 0.001875539 0.0016690185 0.0018172287
0.0019377245 0.002664928 0.0018257864 0.0017773831 0.0012857983 0.002267784 0.0013771359 0.0015318111
0.0016463521 0.002279079 0.0009731408 0.0019507451 0.0007846582 0.0022829662 0.0016704419 0.001546777
0.0015519422 0.0019500664 0.0022035523 0.0026528477 0.0015417044 0.001288172 0.0018893199 0.0017894631
0.0012743977 0.0025970237 0.0021456645 0.0028030248 0.0020064972 0.0019956299 0.0019995626 0.0020045373
0.0011606141 0.0027226347 0.002705753 0.0028688593 0.002846666 0.002183051 0.0011607922 0.0018722623
0.0019020571 0.0019020599 0.0013243463 0.00040168373 0.0012962918 0.0018774759 0.0016022095 0.0021493845
0.0011879101 0.0012353513 0.0007141614 0.0011971471 0.0011623896 0.0009095037 0.0025510902 0.002321644
0.0009756829 2.3651315e-05 2.0716405e-05 0.0013582666 0.0012533806 0.0005809377 0.0 0.0
0.0010620228 0.00086875394 0.00042684737 0.0 0.0 0.00012856629 0.0 0.0
0.0 0.0 4.033317e-05 0.0 0.0 0.0 0.0 0.0010377811
0.0009895437 0.0007534573 4.662231e-05 1.9228013e-05 0.0008685477 0.0009031972 0.0004900369 0.0
0.0 0.00032426638 0.00021554189 0.00012552847 0.0 0.0 2.3728568e-05 0.0
0.0 0.0 0.0 2.3728568e-05 0.0 0.0 0.0 0.0

exp_avg f4 [128]
00000000: d9f4 ca3a e1b8 2a3c b3fa 713a c622 a3bc
00000010: aac0 4a3b b2d0 85bc 1432 14bc ac33 9cb6
00000020: 232d ec3b 37ed 903b a385 4e3c a556 bf39
00000030: 80ed 85bd ceae debb 2c2d b339 e9e9 223a
00000040: 33b9 bcb8 6ee5 703b c4a7 17bd 216e 663c
00000050: d48d 063d 547d 93bb 4b50 8a3c 7f65 00bb
00000060: 933e cd2f 7bee 0cbc 4d18 7db9 930e 90bc
00000070: a4ed 993c 0e4e a839 ff00 f93a 4ff8 e4bb
00000080: 1069 583d f0bc 43bd 7317 923a fa50 cabb
00000090: a3cc 063d d2cb 9dbb 0e53 8636 e6b8 893b
000000a0: 8d1d 123c d313 0a3c 8f8c 9cba 1c9d f8ba
000000b0: 4103 ca3c 5f20 21ba e325 133d 0c68 6dbc
000000c0: 0f9b 9fbc d357 a0b9 5bf8 6eb8 0fb4 23bd
000000d0: ae73 733c 6499 2ebb 9bae 193d e313 efbc
000000e0: 7d03 31bd 71f9 583d aeb5 78bd 0599 2b3d
000000f0: 5d0f b735 ba6e 413b 2a33 673c e946 4d39
00000100: b9fb 82bc 7729 00bb 3ffc 50ba 40b4 a2bd
00000110: 8a6a 00bd 0388 433c 5bdd 363b 49ec ee3b
00000120: 732e 8fbb 2882 9f3b cdfc 8bba faa0 3638
00000130: 6c48 fa38 82cf 62bb 588c 89ba 4a69 f2ba
00000140: ae8f 553d 4699 0e3d 0d66 ffba af1d 2dbd
00000150: 877a b13c b167 ae3c 9688 bc34 96f3 973b
00000160: f838 de3c 7198 bc3b 8362 4b3b 9db8 1abb
00000170: d11e 08bb ff94 17bc 2704 ea3b 2478 e33a
00000180: c7cf 0abb d824 2c3b dfaf b83a 6f5e fa3c
00000190: d045 623b bf3c 883a b836 2237 f73c ba3a
000001a0: 3bfd 2b3d e43b fbbc 23dc 4e3b 1495 353b
000001b0: 7d24 3239 73c7 e1ba faa7 a03a 6a7b c53b
000001c0: fcf8 10bc cb86 eb3b d873 9732 02f5 313c
000001d0: e76a 263d 9e0b 2bbd 7b1c 0fbb bdfd 803c
000001e0: 7cf0 033d e451 953b 9742 3cbd cfdd 3b3b
000001f0: ca35 05bd e7c9 18bb ce63 76bc 0274 c43b
0.0015484347 0.010420055 0.00092307775 -0.019914042 0.003093759 -0.016334865 -0.009045143 -4.6551777e-06
0.007207529 0.0044228095 0.012605104 0.00036494914 -0.0653944 -0.0067957407 0.00034175196 0.0006214665
-8.9990346e-05 0.0036757845 -0.03702523 0.014064343 0.0328501 -0.0045010243 0.01688399 -0.0019591746
3.7333744e-10 -0.00860178 -0.00024137013 -0.017585075 0.018790074 0.00032101612 0.0018997489 -0.0069876085
0.05283457 -0.047787607 0.0011145904 -0.006174204 0.03291 -0.004815557 4.00318e-06 0.00420295
0.008918178 0.008427578 -0.0011943745 -0.0018967721 0.024659755 -0.0006146486 0.035924803 -0.014490139
-0.019483117 -0.00030583012 -5.697492e-05 -0.03996664 0.014859123 -0.002664172 0.037520032 -0.029184287
-0.043216217 0.05297226 -0.06072014 0.041893978 1.3639034e-06 0.002951546 0.01411132 0.0001957674
-0.015989171 -0.0019555965 -0.0007972158 -0.07944536 -0.031351604 0.011934283 0.0027902934 0.007291351
-0.004369551 0.0048678108 -0.0010680199 4.3542103e-05 0.000119344186 -0.0034608548 -0.0010494096 -0.0018494513
0.052138977 0.03481414 -0.001948537 -0.042264637 0.02166487 0.021289678 3.5117108e-07 0.004637192
0.027126774 0.005755477 0.003103406 -0.0023608573 -0.002077032 -0.009251832 0.0071416083 0.001735453
-0.0021180974 0.0026267078 0.00140905 0.030562608 0.0034526475 0.001039408 9.668693e-06 0.0014208843
0.041989546 -0.030668207 0.0031564317 0.0027707266 0.00016988996 -0.0017225578 0.0012257092 0.006026675
-0.008848425 0.0071876994 1.7631393e-08 0.010861637 0.040629294 -0.041759126 -0.0021837044 0.015745992
0.032211766 0.0045568813 -0.045961943 0.0028666144 -0.032522 -0.0023313703 -0.015038444 0.0059952745

exp_avg_sq f4 [128]
00000000: 8df5 883a 996b 653b 0c50 113a 5de0 693b
00000010: a15a 073b e6e7 ae3a 554b 333b 6533 003a
00000020: 4039 113b 92bb 0a3b 5569 213b 469c 273a
00000030: f36e ad3b 74ec 273b 3e09 8039 3125 ae3a
00000040: f9ee 263a 880d fd3a bd06 f53a adc1 053b
00000050: e5c4 713a 1beb 4a3a eafe 1b3b e3b4 5c3b
00000060: c945 d436 09f5 6d3b df36 043b 07f2 ae3a
00000070: 8b94 833b 1376 383a c57c 053a ab4e d539
00000080: cb5a 6b3b 04de 143b 9d3a 683b 255c af3a
00000090: 815b e63b 43a1 033b 82c3 b638 fa39 2d3b
000000a0: 190d 223b a563 5d3a d51b 4d37 6f55 463b
000000b0: 38ac 163b c810 573a 0ca4 db3a a700 473b
000000c0: 945b 483b 4bed 0a3b ca84 f536 3637 a63b
000000d0: 8192 893b 55a9 7339 7c71 ff3a 64ea f43a
000000e0: 314c 153b e730 8c3b c6da 523b cee3 803b
000000f0: aa98 ac38 5718 d83a 795e 443a 1fd1 9a39
00000100: 187e c93a dcc2 f73a 4112 1a3a 3cba c13b
00000110: 821b c93a 3208 303b 4db3 8c38 a944 433b
00000120: 4885 d63a 1797 9d3a 9e47 183b c0b9 a939
00000130: cd2e b93a aa51 cc3a 97e7 4f3a 4717 793a
00000140: e06d 113b a004 643b 67f2 af3a 0010 233b
00000150: d2ce 3b3b 5417 833b bbc6 0438 3634 c63a
00000160: 756b 513b 521c fb39 d2ce ac38 f3f1 ba3a
00000170: d6da 5a3b c74c b639 87d8 bf3a 37de e438
00000180: 1fae 093a ca03 5b3b 43ed 473b 0e42 823b
00000190: bb9d 4b3a 0f34 3c3a 47d0 8038 22b1 da3a
000001a0: a068 713b d353 e73a e510 043b b5e4 863a
000001b0: 6c2e 1537 a8b2 783a 0375 123a 012b b03a
000001c0: ecf5 4b3a c3ef 873b e5e3 be36 23f0 173a
000001d0: ae87 053b 12a2 553b ba2f 383a 408a ad3a
000001e0: bab6 593b a4ff f538 f27c 4c3b 4338 403b
000001f0: ecd9 803b 2f8c 3e3a de3c a23a b316 9c3a
0.0010449156 0.003500676 0.0005543239 0.003568671 0.0020653384 0.0013344258 0.0027358134 0.0004890471
0.0022159368 0.002116893 0.0024629433 0.0006393831 0.005292767 0.0025623115 0.00024420948 0.001328623
0.0006368007 0.0019306401 0.0018694025 0.002040963 0.000922276 0.0007740722 0.0023803064 0.0033677153
6.3262164e-06 0.0036309382 0.0020174307 0.0013347276 0.0040155104 0.00070366374 0.00050921395 0.00040685138
0.003591227 0.002271534 0.0035435327 0.0013378902 0.007029951 0.0020085133 8.7148524e-05 0.0026432262
0.0024727045 0.0008445329 1.2225432e-05 0.0030263325 0.0022990834 0.00082041 0.0016757264 0.003036538
0.0030572163 0.0021198567 7.3170277e-06 0.0050724996 0.004198373 0.00023237367 0.0019488777 0.0018685577
0.002278101 0.0042782906 0.0032173856 0.0039334064 8.230035e-05 0.0016486746 0.0007490884 0.00029528976
0.0015372662 0.0018902677 0.0005877354 0.0059120934 0.0015343281 0.0026860354 6.7091176e-05 0.0029795563
0.0016366625 0.0012023178 0.0023236047 0.00032372586 0.0014128328 0.0015588303 0.0007930933 0.0009502065
0.0022190735 0.0034792796 0.0013423682 0.0024881363 0.002865721 0.0040005837 3.1656335e-05 0.0015121761
0.0031954919 0.0004789555 8.2401224e-05 0.001426278 0.0033394597 0.0003477095 0.0014636674 0.00010913278
0.00052520813 0.0033419007 0.003050641 0.0039751595 0.0007767339 0.0007179388 6.14231e-05 0.001668487
0.0036836043 0.0017648883 0.0020151671 0.0010291549 8.8919005e-06 0.0009487071 0.0005586894 0.001344055
0.00077804807 0.004148455 5.6889717e-06 0.0005795976 0.002037506 0.0032597822 0.0007026155 0.0013240054
0.0033220486 0.00011730127 0.0031202403 0.002933041 0.0039322283 0.0007268814 0.0012377759 0.001190862

exp_avg f4 [192, 128]
00000000: 2e3a d6b8 a7b8 d2b8 7d37 8cb8 2dfa 6738
00000010: 6c44 fcb7 c8df b8b9 3ca7 96b9 0000 0000
00000020: 9d0f 16b8 df17 80b8 5f1b c8b9 920c 842b
00000030: 3873 97b8 839c c039 b9f0 98a9 4764 a3b8
00000040: a3aa 57b8 4f2a cab9 27de 11b9 9f40 b2b6
00000050: 666b 58b9 146c 1eba 06a1 6f38 124c 44ba
00000060: 0000 0000 d3d1 dbb9 91fa 3ab9 1867 2f36
00000070: 4197 acb9 2634 02b8 3f9a 96b9 8c21 d238
00000080: f4cf 4bb9 acbb a9b8 8da0 a6b9 d2c7 68b8
00000090: 37be 7839 7b06 5eb8 ffee 9c30 c04d f9b8
000000a0: d6d4 03ba f335 8ab9 70db 28b9 a994 1dba
000000b0: c5bc a138 1411 00b6 d848 eab7 ebaa 38ba
000000c0: 1557 91b8 f2b3 9539 2366 9bb8 c572 ee38
000000d0: cce1 aab9 018f 96b7 9a86 20b9 14d3 bab8
000000e0: 434e 9eb9 ee16 f3b8 4388 9a38 d535 17ba
000000f0: 82d8 e12f edb8 3fba 9699 88b9 d887 06b5
00000100: 295e 45ba 2d39 f2b9 6ac1 27b8 7917 cbb9
00000110: d050 8c39 73b3 b1b9 996f 2fb8 0b66 18b8
00000120: 3206 1e38 536f 8dba 67d1 d8b9 c201 0c31
00000130: cce3 48b4 f755 bdb8 27e1 cfb6 1c03 41b9
00000140: bc41 1dba 0dc6 9b38 7a87 96b8 8141 d3b8
00000150: 09b5 92b9 972a 2fba 0000 0000 efc2 81b5
00000160: fc95 96b9 2d31 28b7 4ab2 38b8 1126 0eb8
00000170: 8337 34ba 7a31 bab9 60ba 20b9 0000 0000
00000180: e324 e3b6 f853 03ba b846 9ab8 1f68 d438
00000190: 25de 2b37 8189 8432 09de 47b5 cf32 1db4
000001a0: 1392 7c37 118b 91b9 bd80 15b8 7683 90b9
000001b0: 7fe6 4eb5 0043 06b9 ba38 aab5 426f 54b9
000001c0: 79a9 80ba f802 33ba a2a1 64ad e5ac 24b9
000001d0: 414c d1b9 495c b438 b1e0 2131 7a50 0a34
000001e0: af19 2fba 8215 7db8 d41d cab9 db9a b3b9
000001f0: efa6 be39 5900 89b8 42a7 27ba e5d4 d2b7
00000200: 6591 2738 9ece 503b 36ff dcb4 3bd2 573b
00000210: 1ae3 11b8 9bc5 e13a 104f a63b 0000 0000
00000220: d046 7e3a f241 94b8 50d9 793a b744 022d
00000230: 47fa 863a a059 4b3b 6326 9ca9 235f 42b8
00000240: 9ad5 86b8 4a70 f7b9 8e5e 933a f39a 5338
00000250: b474 0cb9 663f 41ba 71af 153b 2231 a539
00000260: 0743 e830 3562 3a3b 91b3 dcb8 6110 de39
00000270: 7e2d 6d3b da27 2ab8 8462 0cb9 43ab 8f39
00000280: 8062 4d3b 7a1b 323b bc77 96b8 a9f3 7933
00000290: e4db 8e3a 2a3a f93a 38e7 e530 3bd8 04b9
000002a0: 3697 ad3b d4db 1fb5 96b5 4eb9 79ac 3eba
000002b0: 8ea6 0f3b 7883 1cb6 0363 723a 4eb4 173b
000002c0: 9de1 7a3b 97f9 123a 7d21 b0b8 b523 853b
000002d0: 117f 013b 255a aeb7 20ab 2c3b 9e8b 983a
000002e0: 8555 ab3a cb2d 963b 88fa c53b fe52 993b
000002f0: e7fa 8aaf 1770 5cba af8e 93b9 565b 28b5
00000300: 6704 18b9 828b b5b9 6c4c ccb7 5258 d83b
00000310: 1144 343b 28ee 043b a23d 53b8 906c e33a
00000320: 7594 6f3b b06d 91ba d0dc 433a a6cf e22d
00000330: 6c4e 88b4 a736 0339 8e9a f2b6 c78c d4b8
00000340: 34bb 173b 3946 863b a333 7c3a 4aa1 2f3b
00000350: 97f7 b23a 9ce0 af3a 0000 0000 6f10 bdb5
00000360: 238e b13a 7793 8837 fda3 65b8 9c1b 25b8
00000370: 1c9b 8339 c6e3 5ab9 37af 543b 0000 0000
00000380: b707 feb6 b1c1 65b9 903f adb6 e041 383b
00000390: 982e 5038 9e7a dcac 5611 8cb5 9754 52b4
000003a0: a92a a838 9b15 47b8 b930 1bb8 7527 84b9
000003b0: 40be 70b5 4872 0ab9 a78a b6b5 6d74 fab8
000003c0: f24b 99ba bce8 47ba 741d 7cad 6f55 40b9
000003d0: 550d ae39 6b59 463b 291b 9831 fcf3 b33a
000003e0: 38a8 2c3b 063f 93b8 5703 b939 971e 2c3b
000003f0: 5108 4e3b ea17 9eb8 9791 a238 be90 2938
-0.00010215152 -0.000100479745 -6.686056e-05 5.5307686e-05 -3.0072602e-05 -0.00035261945 -0.0002873483 0.0
-3.5777328e-05 -6.107962e-05 -0.00038167366 9.382653e-13 -7.221702e-05 0.00036737704 -6.791915e-14 -7.791124e-05
-5.1418912e-05 -0.00038559965 -0.00013911036 -5.3123363e-06 -0.00020639374 -0.00060433266 5.7132005e-05 -0.0007488142
0.0 -0.00041927266 -0.00017831686 2.613704e-06 -0.0003291909 -3.1042982e-05 -0.00028725152 0.00010019829
-0.00019437057 -8.0935046e-05 -0.00031781607 -5.5499208e-05 0.00023721984 -5.293496e-05 1.1418421e-09 -0.00011887727
-0.00050289684 -0.00026361606 -0.00016103475 -0.0006011227 7.712239e-05 -1.9083427e-06 -2.7928894e-05 -0.0007044512
-6.930359e-05 0.00028553564 -7.4100004e-05 0.00011370102 -0.00032593159 -1.7947985e-05 -0.00015308932 -8.9084875e-05
-0.00030194418 -0.00011591414 7.368673e-05 -0.00057682145 4.10811e-10 -0.0007313628 -0.00026054372 -5.011657e-07
-0.00075289846 -0.00046200436 -3.9996034e-05 -0.00038736666 0.0002676309 -0.0003389377 -4.1827185e-05 -3.633466e-05
3.7675905e-05 -0.0010790623 -0.00041354747 2.037368e-09 -1.8709324e-07 -9.0282345e-05 -6.195292e-06 -0.00018407073
-0.000599887 7.427866e-05 -7.177792e-05 -0.00010073465 -0.00027982172 -0.00066820666 0.0 -9.667982e-07
-0.00028721977 -1.002503e-05 -4.4035063e-05 -3.389089e-05 -0.0006874727 -0.00035513547 -0.00015328219 0.0
-6.7694214e-06 -0.0005009766 -7.3564646e-05 0.00010128342 1.0244116e-05 1.5429352e-08 -7.445638e-07 -1.4640248e-07
1.5054381e-05 -0.00027760168 -3.5644265e-05 -0.00027563766 -7.7076396e-07 -0.00012804195 -1.2682497e-06 -0.00020259342
-0.0009816132 -0.00068287505 -1.2996189e-11 -0.00015704667 -0.000399204 8.600258e-05 2.3556306e-09 1.2881529e-07
-0.00066795474 -6.033993e-05 -0.00038550666 -0.00034256917 0.00036364 -6.532734e-05 -0.0006395468 -2.5133088e-05
3.9951312e-05 0.0031861435 -4.1163884e-07 0.0032931704 -3.47822e-05 0.0017225029 0.005075343 0.0
0.0009699883 -7.069473e-05 0.0009530978 7.404902e-12 0.0010297977 0.0031028762 -6.934451e-14 -4.6341807e-05
-6.429404e-05 -0.00047195173 0.001124339 5.0450628e-05 -0.00013394916 -0.0007371813 0.0022840167 0.0003150786
1.6899272e-09 0.0028439884 -0.00010523864 0.00042355343 0.0036190446 -4.0568273e-05 -0.0001338814 0.00027402685
0.0031339228 0.0027177022 -7.17486e-05 5.8196438e-08 0.0010899273 0.0019014527 1.6727659e-09 -0.00012669053
0.0052975668 -5.955201e-07 -0.00019713337 -0.0007273625 0.0021919343 -2.3322336e-06 0.0009246321 0.0023148241
0.0038281449 0.000560665 -8.398572e-05 0.0040630945 0.0019759575 -2.0784393e-05 0.0026347116 0.0011638289
0.0013071751 0.0045830957 0.0060418285 0.004679083 -2.528033e-10 -0.00084090367 -0.00028144332 -6.271779e-07
-0.0001449749 -0.00034626952 -2.4354282e-05 0.0066023255 0.002750639 0.0020283554 -5.036372e-05 0.001735108
0.0036556993 -0.0011095311 0.00074715633 2.578544e-11 -2.5389033e-07 0.00012513493 -7.2301546e-06 -0.000101351696
0.0023152353 0.0040977267 0.00096207316 0.0026799017 0.001365411 0.0013418379 0.0 -1.408638e-06
0.0013546388 1.6281132e-05 -5.475058e-05 -3.936478e-05 0.00025101833 -0.00020874952 0.003245307 0.0
-7.570688e-06 -0.00021911298 -5.1632014e-06 0.0028115436 4.963446e-05 -6.2663893e-12 -1.0435858e-06 -1.9588548e-07
8.01881e-05 -4.746542e-05 -3.7000256e-05 -0.000252064 -8.968382e-07 -0.00013203279 -1.360041e-06 -0.00011942615
-0.0011695607 -0.00076259277 -1.43310815e-11 -0.00018342373 0.000331978 0.00302657 4.42687e-09 0.0013729329
0.0026345383 -7.021245e-05 0.00035288438 0.002626335 0.0031438062 -7.5384814e-05 7.75188e-05 4.042754e-05
