weights/policy_checkpoint300.pt (torch, 522961 bytes, 12 tensors)

net.0.weight f4 [128, 142]
0.07855414 0.10216032 0.007427935 0.10546438 -0.017464524 0.035420895 -0.033385284 0.049726516
0.047568973 -0.0650503 0.07561559 0.021283155 0.055227995 0.01758793 0.04792827 -0.006148313
0.063579194 0.0017005495 -0.040114388 0.011878933 -0.038683794 0.0035748612 -0.021614311 0.064583145
-0.060920868 -0.03950215 -0.02199006 -0.06300678 0.0073127956 -0.08438601 0.085837066 -0.06411942
0.06800095 0.012236857 -0.04190503 0.044895314 0.016315132 0.092109896 0.037656978 -0.004595142
0.031587664 -0.017065715 0.04303963 0.07538512 0.056174558 -0.021585857 0.06895604 0.016776972
0.05263615 -0.0037836547 -0.104501836 -0.020680195 -0.030846676 0.11411492 0.055897806 0.06463052
0.028869078 0.007918649 0.07020317 -0.04268288 0.00952792 -0.05612665 0.035696384 -0.034029666
0.038852863 -0.009108195 0.07859655 -0.056530204 -0.041565936 -0.023523392 0.11110221 0.058730237
0.08075029 -0.06925565 -0.07298449 -0.05162159 -0.047937386 0.033990216 0.03004906 0.077176705
-0.043337457 -0.057207987 0.04452513 -0.033920087 0.035292037 -0.019913828 0.04800503 -0.06520171
-0.042349268 0.03806203 0.027350584 -0.007644894 0.063729495 0.07159558 -0.06386928 -0.06256027
0.07647082 -0.028316708 -0.029750356 -0.061897833 -0.043525726 0.028769407 -0.011076622 -0.060915
0.05946071 -0.05732293 -0.07119587 -0.046210583 -0.07344617 -0.010288304 0.08388532 0.015850035
0.025860189 -0.07826913 -0.06346178 -0.047710914 0.00092399534 -0.076189846 -0.041905522 -0.06725808
-0.0075336494 -0.050906397 -0.0058151716 -0.056865424 -0.06459503 -0.064522386 -0.05605497 -0.06623498
0.07036283 -0.029241858 0.07220289 0.02614739 -0.071061626 0.058074307 -0.023089642 -0.03216801
-0.069657974 -0.083428115 0.024009872 -0.006605735 0.039175365 -0.05699912 0.070692144 -0.060821358
-0.030522715 0.03272126 0.05590048 0.07349233 0.090376034 -0.052655045 0.04059441 -0.02659657
-9.365453e-06 -0.049314678 0.086376496 -0.055210482 0.057372846 0.036174018 0.04743553 -0.02085517
0.11604804 0.052800052 0.032011148 -0.04310637 0.061254095 0.010244141 -0.009496719 0.099442594
0.04743988 -0.012893272 -0.03906775 0.00870466 0.07375947 -0.0024581174 -0.023660444 -0.0063587674
-0.035487913 0.055407885 0.060038805 -0.06371129 0.049847893 0.07493563 0.044691976 0.004135359
0.06021603 0.079495326 0.043868974 0.006727501 0.004068518 0.029098468 -0.0010729596 0.0036686072
0.07597482 0.103757866 0.010256674 -0.0071722055 0.009163449 -0.0026144022 0.03212485 0.046875436
-0.056363046 -0.0034024795 0.090938404 0.029149337 0.0018784096 -0.04693875 -0.032043442 -0.060919587
-0.027559787 0.04372507 0.06595046 0.045299266 -0.083958045 -0.06804754 -0.01324368 0.08117817
0.018186137 -0.030824076 0.032837767 -0.03196287 -0.05431649 0.058550507 -0.038157728 -0.016822796
-0.083482124 0.056163948 0.056397613 0.030583814 -0.058513954 -0.08282216 -0.06815655 0.05646071
0.059554715 0.08653015 0.05530935 0.0147976 -0.0056900512 -0.05759552 -0.07055762 -0.078492716
0.034352895 -0.04788592 0.00985392 -0.042731 -0.015291862 -0.059064515 -0.077104054 0.027836554
-0.024940168 0.051806293 -0.026921675 -0.09270182 -0.014806426 -0.0406791 -0.025674049 -0.0798897
00000000: fee0 a03d 6e39 d13d 0966 f33b b5fd d73d
00000010: c311 8fbc 8015 113d 02bf 08bd 08ae 4b3d
00000020: afd7 423d 1739 85bd 59dc 9a3d 035a ae3c
00000030: c036 623d 9014 903c 6f50 443d ca77 c9bb
00000040: cf35 823d f9e4 de3a fc4e 24bd db9f 423c
00000050: e672 1ebd 3848 6a3b 7f10 b1bc 2b44 843d
00000060: 2988 79bd 02cd 21bd 8024 b4bc b309 81bd
00000070: 2da0 ef3b 93d2 acbd 58cb af3d 0b51 83bd
00000080: 1544 8b3d 197d 483c 9ca4 2bbd 26e4 373d
00000090: 50a7 853c 1da4 bc3d 343e 1a3d d892 96bb
000000a0: 1162 013d 66cd 8bbc 534a 303d 8463 9a3d
000000b0: 4b17 663d d3d4 b0bc d338 8d3d dc6f 893c
000000c0: 0199 573d 31f7 77bb 0f05 d6bd 8369 a9bc
000000d0: 2bb2 fcbc 15b5 e93d 19f5 643d 025d 843d
000000e0: d87e ec3c 39bd 013c aec6 8f3d 3ed4 2ebd
000000f0: fe1a 1c3c 0fe5 65bd 5f36 123d b162 0bbd
00000100: 2e24 1f3d 8a3a 15bc 3af7 a03d 378c 67bd
00000110: 0b41 2abd 21b4 c0bc 8e89 e33d 1e8f 703d
00000120: 6860 a53d e8d5 8dbd e478 95bd 2971 53bd
00000130: fe59 44bd 5339 0b3d 7229 f63c d20e 9e3d
00000140: 9e82 31bd ec52 6abd fc5f 363d caef 0abd
00000150: 628e 103d 5322 a3bc eca0 443d 7988 85bd
00000160: 6d76 2dbd eee6 1b3d 550e e03c 0582 fabb
00000170: 9c84 823d b4a0 923d e6cd 82bd 991f 80bd
00000180: bc9c 9c3d 71f8 e7bc 05b7 f3bc 9588 7dbd
00000190: 0848 32bd d2ad eb3c b87a 35bc 0282 79bd
000001a0: 138d 733d 73cb 6abd 24cf 91bd 4f47 3dbd
000001b0: f26a 96bd 4690 28bc 11cc ab3d efd7 813c
000001c0: bfd8 d33c 914b a0bd 40f8 81bd 856c 43bd
000001d0: 4738 723a 6c09 9cbd 20a5 2bbd 9bbe 89bd
000001e0: d5dc f6bb 3a83 50bd 328d bebb b8eb 68bd
000001f0: 664a 84bd 5024 84bd e599 65bd 35a6 87bd
00000200: 631a 903d 9f8c efbc 1cdf 933d 0d33 d63c
00000210: c288 91bd 53df 6d3d 7d26 bdbc 9ac2 03bd
00000220: d7a8 8ebd 5cdc aabd 5ab0 c43c ec74 d8bb
00000230: 5976 203d e977 69bd 0bc7 903d d11f 79bd
00000240: c60a fabc ba06 063d e7f7 643d 2683 963d
00000250: 1217 b93d d1ac 57bd 5346 263d 0de1 d9bc
00000260: 5020 1db7 30fe 49bd 29e6 b03d 6324 62bd
00000270: caff 6a3d 352b 143d c24b 423d 76d8 aabc
00000280: 98aa ed3d de44 583d 1f1e 033d 4e90 30bd
00000290: 93e5 7a3d 0bd7 273c 2098 1bbc 8fa8 cb3d
000002a0: 5250 423d 4d3e 53bc 8105 20bd fe9d 0e3c
000002b0: 340f 973d 5e18 21bb 8cd3 c1bc 355d d0bb
000002c0: c65b 11bd 61f3 623d 40eb 753d 117b 82bd
000002d0: 4e2d 4c3d da77 993d ef0e 373d e881 873b
000002e0: 15a5 763d 72ce a23d f4af 333d 5e72 dc3b
000002f0: 3451 853b e95f ee3c 8da2 8cba 046d 703b
00000300: b098 9b3d 017f d43d 9c0b 283c d204 ebbb
00000310: 4a22 163c 6456 2bbb 5995 033d 7500 403d
00000320: f0dc 66bd 22fc 5ebb ea3d ba3d 97ca ee3c
00000330: f834 f63a d942 40bd fc3f 03bd d186 79bd
00000340: 10c5 e1bc 0f19 333d 0911 873d b98b 393d
00000350: 32f2 abbd 825c 8bbd 05fc 58bc be40 a63d
00000360: 18fb 943c c682 fcbc e580 063d 80eb 02bd
00000370: f87a 5ebd a8d2 6f3d 474b 1cbd f6cf 89bc
00000380: adf8 aabd 2b0c 663d 2f01 673d e88a fa3c
00000390: 54ac 6fbd aa9e a9bd a995 8bbd 5843 673d
000003a0: a5ef 733d b836 b13d 0f8c 623d a271 723c
000003b0: 9c73 babb 48e9 6bbd 8380 90bd cac0 a0bd
000003c0: 9fb5 0c3d 0724 44bd 5672 213c b306 2fbd
000003d0: b88a 7abc a2ed 71bd bbe8 9dbd 7c09 e43c
000003e0: 534f ccbc d632 543d d88a dcbc 74da bdbd
000003f0: a796 72bc 219f 26bd 6252 d2bc 369d a3bd

net.0.bias f4 [128]
0.0665333 0.03164523 0.028165849 0.10874215 0.054814745 0.07367264 -0.008523598 -0.068191424
0.050565127 0.059643675 0.048146408 0.020240674 -0.016692469 0.061624747 -0.054015294 -0.010260402
0.06929186 -0.066629104 -0.049295098 -0.017499795 0.018636484 -0.09751508 0.052398946 0.0077962466
0.023718758 0.077522226 0.04067397 -0.01938927 -0.072989255 0.065348595 -0.036569744 -0.017393047
0.049674712 0.06488743 0.0059371972 -0.054676287 -0.086412534 0.023469262 0.034116622 0.02052694
0.10318368 -0.05299417 0.02946868 0.07765805 0.008812427 -0.036534436 -0.07700156 -0.0012536759
-0.019411318 -0.06481306 -0.044356696 0.060051825 -0.0055246283 0.051471293 0.06389218 -0.076513484
-0.011671239 0.06288506 0.010835374 0.0814662 -0.09809143 0.06613691 0.018181883 -0.06035748
0.03726824 0.045119822 0.02675705 0.06381975 -0.020687815 -0.019120283 -0.082296625 0.0666003
0.03553306 0.021499207 -0.03746574 -0.074575305 -0.017740812 0.032321617 0.059826322 -0.015351552
0.036602538 -0.006376241 -0.011371226 0.11627639 0.028996263 0.08584045 -0.09570532 -0.01017429
-0.04028283 0.05329157 0.02928808 -0.009467798 0.063157655 -0.0562402 0.02451975 0.030192176
-0.07514148 0.012213219 -0.0009687526 -0.05878433 -0.04873387 -0.0692223 -0.06307987 -0.049230173
0.031830292 0.04312478 0.021847218 -0.013912709 -0.090427704 -0.08770719 0.06047717 0.008961891
0.058929257 -0.084639594 -0.062289327 -0.03307814 0.053901874 -0.05197955 -0.05176093 -0.058609314
0.048465997 -0.019662475 -0.01929542 0.05924749 -0.07093071 -0.017396718 -0.04243441 -0.021872861
00000000: 9c42 883d 6e9e 013d 11bc e63c 34b4 de3d
00000010: 6d85 603d aee1 963d 90a6 0bbc f2a7 8bbd
00000020: 611d 4f3d ed4c 743d 2b35 453d c5cf a53c
00000030: a5be 88bc 3b6a 7c3d 243f 5dbd 3f1b 28bc
00000040: e4e8 8d3d d774 88bd a8e9 49bd bb5b 8fbc
00000050: 8aab 983c fcb5 c7bd 47a0 563d a877 ff3b
00000060: d74d c23c f9c3 9e3d c099 263d 3fd6 9ebc
00000070: 647b 95bd 7cd5 853d 28ca 15bd dd7b 8ebc
00000080: b677 4b3d b3e3 843d d28c c23b 3ef4 5fbd
00000090: 0ef9 b0bd 9c42 c03c dfbd 0b3d 1d28 a83c
000000a0: f751 d33d 6a10 59bd 4d68 f13c 2f0b 9f3d
000000b0: ff61 103c 22a5 15bd feb2 9dbd 6252 a4ba
000000c0: 7c04 9fbc b6bc 84bd 5eaf 35bd e7f8 753d
000000d0: f107 b5bb 90d3 523d e7d9 823d 1ab3 9cbd
000000e0: b938 3fbc e2c9 803d da86 313c c0d7 a63d
000000f0: 29e4 c8bd ca72 873d 2cf2 943c 6839 77bd
00000100: 95a6 183d 90cf 383d 9a31 db3c eeb3 823d
00000110: 7e79 a9bc 24a2 9cbc 228b a8bd bd65 883d
00000120: 1d8b 113d 1b1f b03c ad75 19bd f0ba 98bd
00000130: 2e55 91bc ac63 043d 720c 753d 1385 7bbc
00000140: 8bec 153d c9ef d0bb 614e 3abc 5122 ee3d
00000150: 9289 ed3c 1ecd af3d 2701 c4bd 11b2 26bc
00000160: 9cff 24bd 4348 5a3d 8eed ef3c d31e 1bbc
00000170: cd58 813d 205c 66bd a5dd c83c 9555 f73c
00000180: c7e3 99bd f419 483c e3f3 7dba d6c7 70bd
00000190: 2b9d 47bd 6cc4 8dbd 0530 81bd 94a5 49bd
000001a0: 7b60 023d 9ca3 303d f0f8 b23c 22f2 63bc
000001b0: 2932 b9bd d49f b3bd e9b6 773d e5d4 123c
000001c0: ce5f 713d 8657 adbd 1823 7fbd f27c 07bd
000001d0: 36c8 5c3d 82e8 54bd 4503 54bd 5210 70bd
000001e0: 4884 463d 3313 a1bc 6e11 9ebc 7fad 723d
000001f0: 1f44 91bd 9083 8ebc b4cf 2dbd b72e b3bc

net.2.weight f4 [192, 128]
-0.02253396 -0.05860556 0.12888192 -0.11200627 -0.04866 -0.048270985 -0.08742879 0.08370543
0.037200637 0.05570765 0.043343153 -0.0066966256 0.019094562 -0.041878868 0.05403024 0.0032426473
0.0809653 0.03513516 -0.08570202 0.062028185 0.08914426 -0.02298084 -0.018253667 -0.11401767
0.046853922 -0.09093499 -0.10972025 0.07710385 -0.0222143 0.07545896 -0.088309854 -0.089103065
-0.058516696 0.0045916713 -0.086485185 -0.12917602 -0.06247389 -0.054659896 0.068111785 0.04186412
-0.11075917 -0.07307576 0.028520094 -0.06730598 -0.10245034 0.07924216 -0.076798856 0.015192595
-0.0805645 -0.09523288 -0.031104406 -0.09898581 -0.09358791 -0.05192306 -0.04973798 -0.07991679
0.046410456 -0.11061819 -0.06779846 0.016961398 -0.07052224 -0.0243876 -0.076239616 -0.064094275
0.021958116 0.056546025 0.004364205 0.02510109 0.003584771 -0.1128094 -0.0791494 -0.0072154677
-0.092300914 0.12823592 -0.037034515 0.06281871 -0.030367963 -0.03636625 -0.073534444 0.09483505
-0.10576394 0.029329773 -0.043805446 -0.026219694 -0.06057933 -0.0030564715 0.067452766 -0.08872162
-0.07990997 0.038495105 0.0656292 -0.07033508 0.0015170745 0.052545108 -0.07053096 0.049508817
-0.086097255 -0.034303047 -0.031071411 -0.08770766 -0.0644048 -0.092999525 0.076289415 -0.044810742
0.10977728 0.025420932 -0.007871402 -0.016728692 -0.025061034 -0.03717502 0.069258206 -0.051728297
0.040800475 -0.12079228 -0.034859814 0.072079465 0.030891377 -0.11500926 -0.0823272 0.045584716
-0.03873038 0.12393781 -0.1278248 -0.0031526922 -0.13160655 0.08103835 -0.072924756 -0.031664032
0.001517049 0.018339459 -0.03076832 -0.03459096 0.04479575 -0.053341042 0.028453387 0.008312273
0.061404333 -0.021689061 0.07673647 -0.0054651923 -0.039111465 0.020197917 -0.04910285 0.023996977
0.005255696 0.011048588 -0.010228897 -0.027194187 -0.07159955 -0.023432158 0.0721358 0.06918145
-0.04345686 0.021221764 0.022294685 0.06064563 0.064519376 -0.035482302 -0.014790626 0.12616946
0.0016463514 -0.049996935 -0.037067764 -0.04223186 -0.07525526 -0.059601035 0.07859486 -0.006121334
0.05537847 -0.07240705 0.075655565 0.046284623 -0.07387624 -0.015785446 0.014433993 -0.07326108
0.023963839 0.058868933 -0.038413025 -0.021272557 0.075599864 -0.009863034 -0.052833356 0.016183637
-0.06667563 0.041159663 -0.048205692 0.042851076 -0.01405667 -0.027797906 -0.026833607 0.08787453
-0.057527505 0.06595942 0.041145567 -0.054932933 0.063846596 0.068045735 -0.055045065 0.004618049
0.032268137 -0.006874028 0.07375903 -0.020788452 -0.03615751 0.031581663 0.07050614 0.08617709
-0.082150005 -0.021392714 -0.015144637 0.009619577 -0.017531052 -0.044596218 -0.05218415 -0.052436195
-0.05258675 0.024766939 0.07057097 -0.039279394 0.09629772 0.09033799 -0.03376893 0.04201593
0.0078053395 0.082564846 -0.0072390866 -0.020461043 0.07286056 -0.08349693 0.043943606 -0.07279865
0.016535403 -0.009153444 -0.07183091 -0.03881207 -0.022713212 -0.007663286 0.02485047 -0.06315642
0.0824565 0.02430797 0.019757675 0.027002607 -0.051342286 -0.0064090216 -0.08026503 0.07237389
-0.020372085 -0.07620836 0.029393766 -0.059901536 -0.07041795 -0.06700368 -0.010030195 0.020468542
00000000: 2499 b8bc 620c 70bd 9ff9 033e 8b63 e5bd
00000010: b54f 47bd ccb7 45bd de0d b3bd c16d ab3d
00000020: b25f 183d b42d 643d 9788 313d 5e6f dbbb
00000030: 336c 9c3c 2d89 2bbd d04e 5d3d 9882 543b
00000040: 23d1 a53d e3e9 0f3d 8a84 afbd 4411 7e3d
00000050: 4491 b63d 5142 bcbc b788 95bc 1982 e9bd
00000060: e6e9 3f3d 203c babd 03b5 e0bd a0e8 9d3d
00000070: c4fa b5bc 3a8a 9a3d ccdb b4bd ab7b b6bd
00000080: 34af 6fbd bb75 963b 251f b1bd b846 04be
00000090: 9fe4 7fbd 0ee3 5fbd 317e 8b3d b679 2b3d
000000a0: b4d5 e2bd bea8 95bd f9a2 e93c b8d7 89bd
000000b0: 7cd1 d1bd b749 a23d b848 9dbd 5dea 783c
000000c0: 00ff a4bd 7509 c3bd abce febc 13b9 cabd
000000d0: 05ab bfbd 46ad 54bd 0dba 4bbd 6aab a3bd
000000e0: e418 3e3d ca8b e2bd ebd9 8abd a1f2 8a3c
000000f0: f76d 90bd 81c8 c7bc 8423 9cbd dc43 83bd
00000100: 82e1 b33c ce9c 673d 9b01 8f3b cda0 cd3c
00000110: 7aee 6a3b 9d08 e7bd 1519 a2bd bb6f ecbb
00000120: 4308 bdbd 4750 033e 81b1 17bd 19a7 803d
00000130: 3cc6 f8bc c7f4 14bd 3a99 96bd e138 c23d
00000140: c49a d8bd fe44 f03c 576d 33bd afca d6bc
00000150: 0822 78bd 154f 48bb ad24 8a3d aeb3 b5bd
00000160: d7a7 a3bd 0bad 1d3d 9a68 863d d70b 90bd
00000170: 93d8 c63a 8a39 573d 8972 90bd c2c9 4a3d
00000180: c253 b0bd 5a81 0cbd 7989 febc 13a0 b3bd
00000190: aae6 83bd 8976 bebd a03d 9c3d 788b 37bd
000001a0: e9d2 e03d 8f3f d03c 0ef7 00bc 9c0a 89bc
000001b0: cc4c cdbc d544 18bd 3fd7 8d3d 0de1 53bd
000001c0: 661e 273d f161 f7bd 2ac9 0ebd 669e 933d
000001d0: ea0f fd3c fa89 ebbd 2a9b a8bd 0ab7 3a3d
000001e0: bfa3 1ebd 1bd3 fd3d 81e4 02be 669d 4ebb
000001f0: dec3 06be 6ff7 a53d 9359 95bd 25b2 01bd
00000200: b8d7 c63a a23c 963c d80d fcbc 40af 0dbd
00000210: c07b 373d 237c 5abd 1417 e93c 3330 083c
00000220: 1c83 7b3d 42ad b1bc 0328 9d3d 5b15 b3bb
00000230: 5833 20bd 1a76 a53c 1220 49bd 4f95 c43c
00000240: f937 ac3b 2305 353c 1b97 27bc 58c6 debc
00000250: c9a2 92bd ccf4 bfbc efbb 933d 01af 8d3d
00000260: d2ff 31bd 44d9 ad3c 58a3 b63c 8d67 783d
00000270: bc22 843d e455 11bd 6254 72bc 9132 013e
00000280: 63ca d73a 96c9 4cbd 5ed4 17bd 51fb 2cbd
00000290: 6e1f 9abd 3720 74bd 58f6 a03d 7995 c8bb
000002a0: 89d4 623d 264a 94bd 4ef1 9a3d f294 3d3d
000002b0: 6d4c 97bd 7b50 81bc 8e7c 6c3c e809 96bd
000002c0: d04f c43c 8d20 713d fa56 1dbd c943 aebc
000002d0: 1ad4 9a3d 9098 21bc ca67 58bd 8c93 843c
000002e0: 3c8d 88bd 0997 283d 5573 45bd 9c84 2f3d
000002f0: f24d 66bc 6fb8 e3bc 27d2 dbbc 90f7 b33d
00000300: f6a1 6bbd bb15 873d 4188 283d 5b01 61bd
00000310: 01c2 823d 905b 8b3d ef76 61bd 0153 973b
00000320: 982b 043d 873f e1bb f90e 973d 8b4c aabc
00000330: e619 14bd c65b 013d 8665 903d 9d7d b03d
00000340: 433e a8bd c63f afbc 3621 78bc 6e9b 1d3c
00000350: 489d 8fbc 86aa 36bd 0cbf 55bd 56c7 56bd
00000360: 3465 57bd 09e4 ca3c 8387 903d 6ee3 20bd
00000370: bd37 c53d 2003 b93d 4a51 0abd e518 2c3d
00000380: efc3 ff3b c217 a93d dc35 edbb eb9d a7bc
00000390: eb37 953d 7000 abbd 36fe 333d 7517 95bd
000003a0: 4175 873c 54f8 15bc 161c 93bd 68f9 1ebd
000003b0: 0f11 babc 4d1c fbbb 3693 cb3c 2758 81bd
000003c0: f4de a83d 8221 c73c d9da a13c 9234 dd3c
000003d0: 4a4c 52bd c502 d2bb fe61 a4bd c338 943d
000003e0: 5ce3 a6bc 2113 9cbd 32cb f03c 505b 75bd
000003f0: 4937 90bd 3a39 89bd b055 24bc a5ad a73c

net.2.bias f4 [192]
4.568773e-05 0.04198073 0.03829881 0.023770446 0.04962587 0.015128648 0.03071901 -0.064239
-0.06813345 0.0065727443 0.061150637 -0.04976936 0.01936544 -0.02291214 -0.033932 0.050097138
0.04943004 0.01943659 0.021564912 0.13026288 0.032957125 0.03473033 0.023034811 0.101699434
0.062492248 0.041329388 0.044308204 0.09394588 0.038665526 0.016950876 -0.020008089 0.02618789
-0.003451735 0.009866955 0.062818125 0.07318986 0.040336393 0.025972113 -0.039842058 -0.0038720975
-0.022297766 0.0017663429 0.05672678 0.1144488 -0.0362576 -0.010594163 -0.043447852 0.024488626
0.06999215 -0.03670829 0.040435914 0.08391909 0.024627946 0.0072065713 0.055197112 0.0015050744
0.051103357 -0.057352446 -0.008897234 -0.030599011 -0.009135609 0.011563657 0.06913912 -0.025200706
-0.06418075 -0.032236032 -0.052582115 -0.053715717 -0.02153502 -0.034462128 0.045470133 -0.047003325
-0.0035606 0.049727835 0.031399347 0.04667925 0.019592639 0.060062766 0.057466064 0.017519971
0.07124332 0.027698943 0.052113034 0.0003751971 -0.010553185 -0.039637826 0.039798625 0.00962599
-0.050724592 0.069802575 0.05639909 0.08568887 -0.05306875 0.08210895 -0.0013360374 0.06478705
0.029668305 -0.06327713 -0.08094604 -0.018900394 0.010110271 -0.03343156 -0.008789821 -0.030746164
0.077770546 -0.0006388574 0.05879888 0.024152378 0.09077769 0.044617917 0.0049632117 0.016671682
-0.042784322 0.090678975 0.08094177 0.08512079 0.09332133 -0.086449504 0.028208874 -0.03422872
-0.11213563 0.0701066 -0.01626852 0.02598798 0.027796749 -0.02993096 0.024543121 0.059038978
-0.028689878 0.037083652 -0.05408733 0.012971379 -0.006597469 0.017178847 -0.08415734 0.04071091
-0.0082629435 0.08123567 0.025970321 0.014252608 -0.05562578 -0.046840806 0.021504572 0.020127933
0.09619789 -0.0007672923 -0.04099558 0.08417501 0.07912044 -0.06648827 0.010067695 0.11657328
0.0940081 0.0113873305 0.1162502 0.056174077 0.038215257 -0.018036295 0.070528895 0.09381296
-0.029078355 0.04834035 -0.08183403 0.018573157 0.060449515 -0.0700327 0.01553338 0.07837894
0.053501938 0.112853564 -0.017213693 0.08124816 -0.034404714 -0.03005632 0.04994541 0.025705583
-0.029882343 0.099929936 0.0610829 -0.015787737 0.09762142 -0.053962734 0.033342596 -0.0023924909
-0.056476418 0.04833533 -0.004313454 -0.015409039 0.005596141 0.04104909 0.070073225 -0.05660052
00000000: d4a0 3f38 fcf3 2b3d 37df 1c3d 3dba c23c
00000010: 7f44 4b3d 26de 773c 6fa6 fb3c bd8f 83bd
00000020: 8d89 8bbd 2d60 d73b 1779 7a3d f5da 4bbd
00000030: 45a4 9e3c 3db2 bbbc 48fc 0abd a832 4d3d
00000040: 2777 4a3d 7c39 9f3c e6a8 b03c a263 053e
00000050: 0dfe 063d 6441 0e3d 80b3 bc3c cb47 d03d
00000060: dff7 7f3d 0149 293d 857c 353d b366 c03d
00000070: be5f 1e3d 90dc 8a3c 01e8 a3bc fc87 d63c
00000080: 8136 62bb 02a9 213c caa6 803d 91e4 953d
00000090: c637 253d 78c3 d43c 6d31 23bd 04c3 7dbb
000000a0: cea9 b6bc a284 e73a 575a 683d 2264 ea3d
000000b0: d982 14bd 2493 2dbc 60f6 31bd 5f9c c83c
000000c0: 0b58 8f3d 6f5b 16bd 21a0 253d c6dd ab3d
000000d0: 8cc0 c93c 1a25 ec3b 5e16 623d eb45 c53a
000000e0: c151 513d 66ea 6abd b4c5 11bc c7aa fabc
000000f0: 85ad 15bc 7e75 3d3c d098 8d3d b671 cebc
00000100: 3271 83bd ee09 04bd 5860 57bd 0305 5cbd
00000110: 366a b0bc 2928 0dbd e43e 3a3d 8f86 40bd
00000120: f558 69bb 6aaf 4b3d 9a9c 003d be32 3f3d
00000130: be80 a03c 6004 763d 8961 6b3d 0b86 8f3c
00000140: 05e8 913d e5e8 e23c 7a74 553d 1ab6 c439
00000150: 44e7 2cbc 465b 22bd e203 233d 54b6 1d3c
00000160: 97c4 4fbd a7f4 8e3d bb02 673d a57d af3d
00000170: 9e5e 59bd bd28 a83d fa1d afba 13af 843d
00000180: f20a f33c 7197 81bd 0ac7 a5bd 00d5 9abc
00000190: 8da5 253c 88ef 08bd 2e03 10bc 61df fbbc
000001a0: 2a46 9f3d ff78 27ba 18d7 703d 35db c53c
000001b0: a7e9 b93d 47c1 363d 70a2 a23b 0d93 883c
000001c0: 9d3e 2fbd e6b5 b93d ccc4 a53d cf53 ae3d
000001d0: 411f bf3d 700c b1bd 4c16 e73c 6a33 0cbd
000001e0: 5da7 e5bd 0d94 8f3d 8f45 85bc bfe4 d43c
000001f0: 02b6 e33c c631 f5bc a80e c93c dbd2 713d
00000200: 0907 ebbc 07e5 173d ad8a 5dbd e885 543c
00000210: 952f d8bb a7ba 8c3c af5a acbd 7cc0 263d
00000220: 4c61 07bc e35e a63d b6bf d43c c583 693c
00000230: dcd7 63bd 25dc 3fbd 5b2a b03c 56e3 a43c
00000240: 6603 c53d 1d24 49ba fbea 27bd f363 ac3d
00000250: e609 a23d 012b 88bd f9f2 243c f9bd ee3d
00000260: 5287 c03d ed91 3a3c 9614 ee3d ca16 663d
00000270: 9a87 1c3d dac0 93bc 7471 903d 0221 c03d
00000280: bb35 eebc 8800 463d 9a98 a7bd bc26 983c
00000290: e999 773d 4e6d 8fbd b87f 7e3c 2385 a03d
000002a0: d924 5b3d c51f e73d bb03 8dbc 6f65 a63d
000002b0: f5eb 0cbd ac38 f6bc 8f93 4c3d 8494 d23c
000002c0: d1cb f4bc 11a8 cc3d 1032 7a3d 4955 81bc
000002d0: bded c73d 0708 5dbd 3f92 083d 56cb 1cbb
000002e0: d153 67bd 44fb 453d e057 8dbb 3276 7cbc
000002f0: d55f b73b 1723 283d 8d82 8f3d f2d5 67bd

exp_avg f4 [128, 142]
-0.0006121117 -0.0075247455 -0.007273426 -0.00030682984 -0.008678798 -0.008625569 -0.008191695 -0.008900705
0.050881688 0.04357509 0.043698527 0.051254682 0.042952716 0.042299222 -0.0086784065 0.042931825
0.041366283 0.043537594 0.043290634 0.050586067 0.042416424 0.050114155 -0.008836182 0.042877946
-0.010230904 0.048082467 0.04004005 0.048840158 0.042556908 0.04184281 0.04190513 0.05191001
-0.010610091 0.039419375 0.048342142 0.044413403 0.041526627 0.041053943 0.04102185 0.051727414
-0.010591792 0.04785536 0.04827751 0.04435497 0.041258126 0.040773094 0.049292248 0.04318728
-0.01022188 -0.00060934515 0.00046456064 -0.004202516 -0.00092738896 0.036281552 0.03618817 -0.008952348
-0.00070422236 5.1075163e-05 0.0002522443 -0.0035015154 0.04570492 0.036361616 -0.009503652 -0.00887255
0.03859112 0.044636082 0.044842448 0.05011665 0.05011665 -0.009867777 -0.005367507 -0.006759793
0.0 0.0 -0.0039020195 -0.0002802829 0.000117731346 0.0 0.0 -0.003517086
0.0 0.0 0.0 0.0 0.0007231877 0.0 0.0 0.0
0.0 -0.012982939 -0.0031516368 -0.0027502102 0.0011890255 -0.00049167534 -0.0148514435 -0.0034559767
-0.0038217786 0.0 0.0 -0.014822457 -0.00428098 -0.0039427006 0.0 0.0
-0.010909198 0.0 0.0 0.0 0.0 -0.010327659 0.0 0.0
0.0 0.0 0.041859515 0.03880311 0.038578264 1.0698943e-06 1.1232776e-06 0.039978012
0.039287306 0.04051044 0.0 0.0 -0.010092519 -0.008185142 -0.009635664 0.0
0.0 0.00023956723 0.0 0.0 0.0 0.0 0.0 0.0
0.0 0.0 0.0 0.08045595 -0.0064978087 -0.0010904983 0.0011458182 0.022057734
0.021168195 -0.00058050413 0.01928323 0.01881392 0.020946074 0.01969065 -0.032522723 -0.010898653
-0.015293687 -0.03399253 -0.014050824 -0.010835445 0.01921377 -0.0129101295 -0.014799021 -0.013711624
-0.013573629 -0.03208119 -0.010840213 -0.030924186 0.017981151 -0.014055193 0.015235184 -0.03031167
-0.012048328 -0.032343276 -0.013518002 -0.013926852 -0.0139914695 -0.032755308 0.01637308 -0.011447327
-0.031351328 -0.02774364 -0.012879581 -0.013251164 -0.013251977 -0.032676373 0.016363632 -0.030492002
-0.030013323 -0.027955847 -0.012846485 -0.013008312 -0.031728484 -0.01430109 0.01547646 -0.002389018
-0.0015846615 0.00022782097 -0.0004901874 -0.011248916 -0.0116081815 0.018262446 -0.0017762533 -0.0018767683
-0.001664749 0.0010561884 -0.029510662 -0.011709534 0.017482907 0.017786406 -0.024355073 -0.03179851
-0.031390887 -0.03013368 -0.03013368 0.0047809165 -0.0003701472 0.0010027757 0.0 0.0
0.0055037267 -0.00018484512 -0.00021174671 0.0 0.0 0.0057323347 0.0 0.0
0.0 0.0 0.0031110204 0.0 0.0 0.0 0.0 0.021042703
-0.0014869138 -0.0005490785 -0.0013830464 -0.00070788705 0.021911811 0.0027957533 0.0010560784 0.0
0.0 0.022811273 0.0012014554 0.00085054326 0.0 0.0 0.020201804 0.0
0.0 0.0 0.0 0.018460799 0.0 0.0 0.0 0.0
00000000: 1f76 20ba 2492 f6bb eb55 eebb 01de a0b9
00000010: 8431 0ebc 4252 0dbc 7636 06bc 43d4 11bc
00000020: 5169 503d cb7b 323d 3afd 323d 6ef0 513d
00000030: 30ef 2f3d f341 2d3d e02f 0ebc 48d9 2f3d
00000040: b16f 293d 7a54 323d 8551 313d 5633 4f3d
00000050: d8bc 2d3d 8044 4d3d a2c5 10bc c9a0 2f3d
00000060: 869f 27bc 1ff2 443d 0901 243d 9e0c 483d
00000070: 2750 2e3d 5e63 2b3d b7a4 2b3d 979f 543d
00000080: f2d5 2dbc 3676 213d 6902 463d d4ea 353d
00000090: d317 2a3d 2e28 283d 8706 283d 20e0 533d
000000a0: 3289 2dbc fb03 443d a3be 453d 8fad 353d
000000b0: 48fe 283d b001 273d abe6 493d 25e5 303d
000000c0: ac79 27bc 76bc 1fba 4690 f339 42b5 89bb
000000d0: 051c 73ba f79b 143d 0c3a 143d deac 12bc
000000e0: 909b 38ba 8a39 5638 a83f 8439 ae79 65bb
000000f0: 1535 3b3d ebef 143d 35b5 1bbc 2c5e 11bc
00000100: b911 1e3d 53d4 363d b7ac 373d 1e47 4d3d
00000110: 1e47 4d3d 75ac 21bc eae1 afbb 4181 ddbb
00000120: 0000 0000 0000 0000 06b9 7fbb eff2 92b9
00000130: 89e6 f638 0000 0000 0000 0000 e97e 66bb
00000140: 0000 0000 0000 0000 0000 0000 0000 0000
00000150: 4e94 3d3a 0000 0000 0000 0000 0000 0000
00000160: 0000 0000 65b6 54bc b18b 4ebb df3c 34bb
00000170: 13d9 9b3a c6e3 00ba 7853 73bc ab7d 62bb
00000180: ce76 7abb 0000 0000 0000 0000 e4d9 72bc
00000190: 7747 8cbb c531 81bb 0000 0000 0000 0000
000001a0: 7ebc 32bc 0000 0000 0000 0000 0000 0000
000001b0: 0000 0000 5735 29bc 0000 0000 0000 0000
000001c0: 0000 0000 0000 0000 e274 2b3d 03f0 1e3d
000001d0: 3e04 1e3d 4a99 8f35 86c3 9635 fcbf 233d
000001e0: baeb 203d 46ee 253d 0000 0000 0000 0000
000001f0: 185b 25bc f91a 06bc e7de 1dbc 0000 0000
00000200: 0000 0000 5734 7b39 0000 0000 0000 0000
00000210: 0000 0000 0000 0000 0000 0000 0000 0000
00000220: 0000 0000 0000 0000 0000 0000 17c6 a43d
00000230: 92eb d4bb 0def 8eba 472f 963a 6cb2 b43c
00000240: ec68 ad3c f92c 18ba ddf7 9d3c a61f 9a3c
00000250: 1a97 ab3c 494e a13c 8c36 05bd 4490 32bc
00000260: 5f92 7abc c03b 0bbd 6d35 66bc 2687 31bc
00000270: 3266 9d3c 0285 53bc 9877 72bc b8a6 60bc
00000280: ed63 5ebc 9167 03bd 269b 31bc b854 fdbc
00000290: 354d 933c c147 66bc fe9c 793c 2e50 f8bc
000002a0: 5a66 45bc 627a 04bd 9c7a 5dbc 732d 64bc
000002b0: 7a3c 65bc 6e2a 06bd d620 863c 928d 3bbc
000002c0: 406a 00bd a146 e3bc e104 53bc 691b 59bc
000002d0: d21e 59bc a9d7 05bd 060d 863c 5dca f9bc
000002e0: 80de f5bc a903 e5bc 107a 52bc d120 55bc
000002f0: baf5 01bd 1e4f 6abc fa90 7d3c 1291 1cbb
00000300: 6bb4 cfba 3ae3 6e39 eb7f 00ba 604d 38bc
00000310: 3e30 3ebc 209b 953c 2cd1 e8ba e5fd f5ba
00000320: b533 daba cd6f 8a3a 58c0 f1bc 58d9 3fbc
00000330: 5038 8f3c ccb4 913c 4a84 c7bc 283f 02bd
00000340: bb93 00bd e8da f6bc e8da f6bc 3ca9 9c3b
00000350: 5110 c2b9 926f 833a 0000 0000 0000 0000
00000360: 9b58 b43b fcd2 41b9 5308 5eb9 0000 0000
00000370: 0000 0000 4fd6 bb3b 0000 0000 0000 0000
00000380: 0000 0000 0000 0000 43e2 4b3b 0000 0000
00000390: 0000 0000 0000 0000 0000 0000 bf61 ac3c
000003a0: 8ce4 c2ba 09f0 0fba 5647 b5ba 7f91 39ba
000003b0: 6680 b33c f538 373b 1c6c 8a3a 0000 0000
000003c0: 0000 0000 b5de ba3c 277a 9d3a fef6 5e3a
000003d0: 0000 0000 0000 0000 417e a53c 0000 0000
000003e0: 0000 0000 0000 0000 0000 0000 1a3b 973c
000003f0: 0000 0000 0000 0000 0000 0000 0000 0000

exp_avg_sq f4 [128, 142]
0.00077449664 0.0009871172 0.0006834331 0.0010661896 0.0012085605 0.0005386793 0.001223039 0.0010186243
0.0009575315 0.0018432387 0.0016276593 0.0013805926 0.0017304389 0.0012910928 0.0014860375 0.0020268515
0.0011582278 0.0010554906 0.0016054227 0.001297425 0.0012274851 0.0012671936 0.0014388599 0.0020040425
0.0012336936 0.0018255123 0.0018102026 0.0013650851 0.0016802878 0.0012213852 0.00161569 0.0011382248
0.0016716758 0.0021553212 0.0017985529 0.0017850297 0.0015345132 0.0017180946 0.0017012691 0.001270848
0.0015944965 0.002080248 0.0014510624 0.0018305208 0.0022441011 0.0018619475 0.0018019556 0.0009779184
0.00041772914 0.00043543032 0.00021543693 0.00043789193 0.00040339894 0.0013885325 0.0014787042 0.00080459745
0.0012352862 0.0012968796 0.0008585124 0.0008045378 0.0017339376 0.00123386 0.0009909904 0.00085633184
0.0019281412 0.0018641414 0.0017368399 0.0006077916 0.0005074123 0.0008567366 0.00043480436 0.00026213223
0.0 0.0 0.0006751749 0.00021300404 4.3326552e-05 0.0 0.0 9.333302e-05
0.0 0.0 0.0 0.0 1.0790817e-05 0.0 0.0 0.0
0.0 0.0013209578 0.0011092039 0.0012412053 0.00031994176 0.0001883095 0.00054696685 0.00037994672
0.00095335307 0.0 0.0 0.00060593034 0.0003963009 0.0008309079 0.0 0.0
0.0001839525 0.0 0.0 0.0 0.0 5.6589906e-05 0.0 0.0
0.0 0.0 0.0018722079 0.0012164906 0.0010179218 0.00040093518 0.00035769725 0.0014531543
0.0011853407 0.0006303789 0.0 0.0 0.00076411077 0.00017352992 0.00010565252 0.0
0.0 1.2365548e-06 0.0 0.0 0.0 0.0 0.0 0.0
0.0 0.0 0.0 0.010696773 0.0019666206 0.0043417457 0.0026145852 0.0031248156
0.0016484973 0.0016953709 0.003528976 0.0025896227 0.0020968753 0.0029450126 0.0017340881 0.0030847737
0.002393131 0.0027830985 0.0025452147 0.0030150465 0.002501729 0.003596392 0.0017371032 0.0020199174
0.002256607 0.0023107368 0.0020640285 0.0019858896 0.0011407027 0.0029239678 0.0020338069 0.002572778
0.0022861406 0.0022579092 0.0028794722 0.0029220078 0.0020235106 0.0017220593 0.0029404254 0.003090733
0.002099976 0.0034665817 0.0035423993 0.0038879416 0.0031568462 0.0021355113 0.0030696453 0.0030021688
0.0017674231 0.0033477172 0.0038101661 0.0039392984 0.0035885756 0.0024806403 0.0018370209 0.0022193126
0.0020140298 0.0020360334 0.0015498054 0.0015884008 0.0021378112 0.002716956 0.0017215761 0.0022227098
0.0014785653 0.0012662659 0.0009775036 0.0021415192 0.0016370099 0.0016549862 0.0033851594 0.0029306703
0.0012463348 0.00022361262 0.00022095712 0.0019768067 0.0016228361 0.0005621155 0.0 0.0
0.0018099525 0.0012806287 0.000431746 0.0 0.0 0.0004684863 0.0 0.0
0.0 0.0 4.3993714e-05 0.0 0.0 0.0 0.0 0.0021241293
0.001307507 0.0010777308 0.000314188 0.00028918387 0.0015925951 0.001303056 0.0006884914 0.0
0.0 0.00095956976 0.00021124573 0.00023145981 0.0 0.0 0.00031919606 0.0
0.0 0.0 0.0 0.00030489083 0.0 0.0 0.0 0.0
00000000: 9707 4b3a 2862 813a 6b28 333a 63bf 8b3a
00000010: 9068 9e3a 2836 0d3a 614e a03a 5c83 853a
00000020: da02 7b3a d498 f13a 2f57 d53a 00f5 b43a
00000030: e5cf e23a e339 a93a 25c7 c23a edd4 043b
00000040: adcf 973a 6358 8a3a 0c6d d23a 5c0e aa3a
00000050: 91e3 a03a f617 a63a 2098 bc3a 4156 033b
00000060: e3b3 a13a 0746 ef3a 5244 ed3a a8ec b23a
00000070: 1a3d dc3a e316 a03a 8fc5 d33a 7d30 953a
00000080: 221c db3a 4a40 0d3b 6cbd eb3a a8f7 e93a
00000090: b821 c93a b031 e13a 1efd de3a 9592 a63a
000000a0: 6dfe d03a c554 083b 9331 be3a 16ee ef3a
000000b0: c511 133b 970c f43a 992f ec3a 7f2d 803a
000000c0: a802 db39 784a e439 e9e6 6139 dc94 e539
000000d0: 4a7f d339 6bff b53a 14d1 c13a 9feb 523a
000000e0: 54e9 a13a 0ffc a93a cb0d 613a 9ee7 523a
000000f0: 4b45 e33a 79b9 a13a 1fe4 813a 757b 603a
00000100: afb9 fc3a 3556 f43a ada6 e33a 3454 1f3a
00000110: dd03 053a 9f96 603a 74f6 e339 cb6e 8939
00000120: 0000 0000 0000 0000 38fe 303a d659 5f39
00000130: 88b9 3538 0000 0000 0000 0000 c9bb c338
00000140: 0000 0000 0000 0000 0000 0000 0000 0000
00000150: 350a 3537 0000 0000 0000 0000 0000 0000
00000160: 0000 0000 fd23 ad3a b562 913a f0af a23a
00000170: dbbd a739 f274 4539 5362 0f3a 9633 c739
00000180: 71ea 793a 0000 0000 0000 0000 4cd7 1e3a
00000190: 9bc6 cf39 49d1 593a 0000 0000 0000 0000
000001a0: 60e3 4039 0000 0000 0000 0000 0000 0000
000001b0: 0000 0000 f35a 6d38 0000 0000 0000 0000
000001c0: 0000 0000 0000 0000 df64 f53a a772 9f3a
000001d0: ca6b 853a 9c34 d239 5089 bb39 c477 be3a
000001e0: 6f5d 9b3a 0340 253a 0000 0000 0000 0000
000001f0: 9b4e 483a 95f5 3539 c491 dd38 0000 0000
00000200: 0000 0000 b3f7 a535 0000 0000 0000 0000
00000210: 0000 0000 0000 0000 0000 0000 0000 0000
00000220: 0000 0000 0000 0000 0000 0000 8541 2f3c
00000230: 6be2 003b 3445 8e3b 7659 2b3b b5c9 4c3b
00000240: 6412 d83a 3537 de3a 6546 673b a9b6 293b
00000250: bb6b 093b 1d01 413b 574a e33a ea29 4a3b
00000260: 13d6 1c3b a564 363b 9ecd 263b 1698 453b
00000270: 0cf4 233b 72b1 6b3b 83af e33a 9760 043b
00000280: 95e3 133b bb6f 173b a744 073b b325 023b
00000290: a283 953a 0aa0 3f3b 9e49 053b 0d9c 283b
000002a0: 13d3 153b 6ef9 133b 87b5 3c3b 287f 3f3b
000002b0: e09c 043b b9b6 e13a 27b4 403b e58d 4a3b
000002c0: c09f 093b 972f 633b 9927 683b d6cc 7e3b
000002d0: 17e3 4e3b eff3 0b3b 1a2c 493b 09c0 443b
000002e0: e1a8 e73a 6065 5b3b fbb3 793b 3b15 813b
000002f0: 4f2e 6b3b 3d92 223b 31c8 f03a e371 113b
00000300: d0fd 033b f96e 053b d722 cb3a e331 d03a
00000310: 851a 0c3b f50e 323b 82a6 e13a e2aa 113b
00000320: 6bcc c13a d5f8 a53a 941f 803a bb58 0c3b
00000330: f090 d63a 1fec d83a 8dd9 5d3b 7d10 403b
00000340: 0e5c a33a 8e79 6a39 bab0 6739 508d 013b
00000350: 58b5 d43a ef5a 133a 0000 0000 0000 0000
00000360: ee3b ed3a c5da a73a f85b e239 0000 0000
00000370: 0000 0000 2b9f f539 0000 0000 0000 0000
00000380: 0000 0000 0000 0000 e485 3838 0000 0000
00000390: 0000 0000 0000 0000 0000 0000 fa34 0b3b
000003a0: a860 ab3a a542 8d3a 99b9 a439 9a9d 9739
000003b0: a0be d03a 4ecb aa3a e07b 343a 0000 0000
000003c0: 0000 0000 a38b 7b3a d881 5d39 05b4 7239
000003d0: 0000 0000 0000 0000 c559 a739 0000 0000
000003e0: 0000 0000 0000 0000 0000 0000 c1d9 9f39
000003f0: 0000 0000 0000 0000 0000 0000 0000 0000

exp_avg f4 [128]
0.036515176 -0.012997131 0.00016035783 -0.021919148 -5.278491e-07 -0.011187837 -0.054758184 3.755723e-06
0.029700384 0.002406208 0.03353967 -0.007999157 0.0072965357 0.036392234 0.00034642534 -0.0001577771
-2.5471982e-06 -5.1441294e-08 -0.016138665 -0.008603469 0.00087203784 0.0016535522 -0.012855673 0.047830876
0.0029498811 -0.025117174 0.030466545 -0.017390708 -0.0092649525 -0.004557664 -0.0021012302 -0.036724564
-0.0353282 0.04645793 0.025370741 -0.002007274 0.028404212 0.0054651666 -0.0026098627 0.0001372637
-0.052420918 -0.017087473 0.004087064 -0.0062672896 0.035839446 -0.0013935284 2.3655625e-06 0.0048693437
0.011598892 0.0021294698 -0.00953217 -0.010642341 0.032073334 -0.028150458 0.017895026 0.0015544136
0.019100664 0.043786656 0.06227554 0.0494363 4.3796364e-05 0.0006095008 -0.0018111006 0.016701717
0.05164567 0.014186698 0.0016384633 0.08244595 -0.003001137 0.011652155 1.0736254e-05 0.020309981
0.044532638 -0.0011354857 -0.0402621 -0.00018385307 -7.4508425e-06 0.005568377 -0.00090336736 -0.0016571453
0.044582114 -0.02319365 -0.019157987 0.012291944 -0.05262552 0.01894071 9.327589e-12 0.0004566897
0.0007259047 0.00035025956 0.0010159884 0.0019263463 0.015018391 0.004837877 0.056847263 0.00016249398
0.00092743203 0.062202297 0.0047836625 0.021229684 -0.017221808 0.0004824823 0.000680677 0.008528827
0.006509694 0.0006360966 0.0040174676 0.0003382153 0.000334291 0.006497917 -0.0033732122 0.024596775
-0.0072669545 0.0036605583 1.4187235e-07 0.0016392987 0.0015479648 -0.043957118 0.000209207 0.008921727
0.02309659 0.0010777 0.073611505 -0.027338086 0.039817654 0.0135635985 0.0016362706 0.0247938
00000000: f090 153d ebf1 54bc ba25 2839 c98f b3bc
00000010: 84b1 0db5 314d 37bc 1e4a 60bd d40a 7c36
00000020: 384e f33c 79b1 1d3b e560 093d e50e 03bc
00000030: c717 ef3b 0610 153d 6ca0 b539 f870 25b9
00000040: 88f0 2ab6 4df0 5cb3 3c35 84bc 90f5 0cbc
00000050: 7899 643a 01bc d83a 9aa0 52bc 4fea 433d
00000060: cb52 413b 88c2 cdbc fa94 f93c f576 8ebc
00000070: 07cc 17bc 7558 95bb cbb4 09bb 7f6c 16bd
00000080: 4db4 10bd ac4a 3e3d 4dd6 cf3c 788c 03bb
00000090: f3af e83c 2415 b33b 3b0a 2bbb 72ee 0f39
000000a0: 51b7 56bd 07fb 8bbc c7ec 853b d65d cdbb
000000b0: 62cc 123d 0ea7 b6ba 0ec0 1e36 048f 9f3b
000000c0: 4709 3e3c 938e 0b3b d22c 1cbc 375d 2ebc
000000d0: 545f 033d ca9b e6bc 9798 923c 77bd cb3a
000000e0: ff78 9c3c a359 333d a314 7f3d b87d 4a3d
000000f0: fdb1 3738 e8c6 1f3a 7462 edba 0ad2 883c
00000100: 698a 533d 536f 683c b5c1 d63a 6cd9 a83d
00000110: b9ae 44bb aee8 3e3c dc1f 3437 1e61 a63c
00000120: db67 363d 94d4 94ba dfe9 24bd afc8 40b9
00000130: 4002 fab6 ef76 b63b f5cf 6cba 9234 d9ba
00000140: bc9b 363d 9c00 bebc 36f1 9cbc 2664 493c
00000150: db8d 57bd 8c29 9b3c ba17 242d db6f ef39
00000160: a44a 3e3a 0ba3 b739 ea2a 853a 757d fc3a
00000170: b30f 763c 0e87 9e3b add8 683d 2563 2a39
00000180: e91e 733a d6c7 7e3d 45c0 9c3b e0e9 ad3c
00000190: c014 8dbc aef5 fc39 766f 323a 7ebc 0b3c
000001a0: 454f d53b b8bf 263a f6a4 833b 7d52 b139
000001b0: c743 af39 7bec d43b 1c11 5dbb 2d7f c93c
000001c0: a21f eebb fae5 6f3b 9355 1834 bddd d63a
000001d0: 14e5 ca3a 610c 34bd 945e 5b39 6f2c 123c
000001e0: 0f35 bd3c 9d41 8d3a a1c1 963d 1ff4 dfbc
000001f0: d617 233d db39 5e3c 2178 d63a 5e1c cb3c

exp_avg_sq f4 [128]
0.002327962 0.004774635 0.0005195815 0.0048314543 0.0018722281 0.0028850932 0.0040476094 0.00045851615
0.0038944653 0.0024055708 0.0052505615 0.00058252807 0.007201156 0.0048454683 0.00027437494 0.0013905679
0.00057866843 0.0017527466 0.0035672914 0.00196688 0.001127784 0.001287973 0.0024088265 0.005383071
0.00011494816 0.004808016 0.002209734 0.002291963 0.0069369557 0.0015280388 0.0005158077 0.0026442057
0.0048984583 0.004961011 0.004374872 0.001805402 0.008890046 0.0029798797 0.00019369581 0.0024506329
0.0048852065 0.0014710557 0.0002390559 0.0028658828 0.0046059517 0.0007474261 0.0016319781 0.004187518
0.0051906602 0.0023823169 0.00035112022 0.0065430333 0.006021792 0.00073105167 0.0030178803 0.0039133164
0.0038985612 0.005056572 0.005333922 0.006645832 0.0002632021 0.0015138845 0.0006945891 0.0013098377
0.00397973 0.0022097635 0.0005368238 0.0079148235 0.0024879382 0.003943026 8.262159e-05 0.0037602556
0.0031203227 0.001150148 0.0030104069 0.0002973364 0.0012789104 0.00166383 0.0009245637 0.0026656694
0.0046380414 0.0052871974 0.0035426938 0.00417756 0.0040861024 0.004649243 2.8642444e-05 0.0015210214
0.0036745642 0.00046038136 0.0004622644 0.0015112171 0.0047499137 0.0006918508 0.0042317547 0.00014855794
0.00047757177 0.005546942 0.0028658626 0.00595369 0.0022386143 0.00072845473 0.00027212308 0.0015690514
0.0037297737 0.0022709048 0.0022168022 0.0012158825 8.279643e-05 0.0009547446 0.00051678397 0.0017075719
0.0014492593 0.0047687315 5.237408e-06 0.00085921685 0.0021208802 0.0056351116 0.0007431293 0.0015945015
0.004062403 0.00011972578 0.005452834 0.0039415485 0.0075350245 0.0006819221 0.0020017216 0.0024319247
00000000: b990 183b 8b74 9c3b 8634 083a 2d51 9e3b
00000010: 8d65 f53a d513 3d3b cfa1 843b ff64 f039
00000020: 493a 7f3b c8a6 1d3b e70c ac3b ccb4 183a
00000030: adf7 eb3b bcc6 9e3b fbd9 8f39 b743 b63a
00000040: c8b1 173a 6bbc e53a 38c9 693b c5e6 003b
00000050: 27d2 933a 34d1 a83a 67dd 1d3b 7964 b03b
00000060: 5310 f138 908c 9d3b 2fd1 103b c234 163b
00000070: 674f e33b 7948 c83a 4537 073a 694a 2d3b
00000080: 3f83 a03b fa8f a23b 165b 8f3b 3da3 ec3a
00000090: 8ea7 113c 164a 433b d31a 4b39 cc9a 203b
000000a0: 1514 a03b 70d0 c03a 14ab 7a39 89d1 3b3b
000000b0: 86ed 963b ebee 433a 19e8 d53a 7237 893b
000000c0: 6a16 aa3b a520 1c3b 8f16 b839 f166 d63b
000000d0: 7452 c53b 0ca4 3f3a a1c7 453b 473b 803b
000000e0: 017f 7f3b 9ab1 a53b 2ec8 ae3b 48c5 d93b
000000f0: 63fe 8939 896d c63a 1615 363a dcae ab3a
00000100: 6568 823b aed1 103b a3b9 0c3a 2dad 013c
00000110: ad0c 233b 8034 813b 2145 ad38 9f6e 763b
00000120: 547e 4c3b 90c0 963a 3f4a 453b d1e3 9b39
00000130: 1da1 a73a df14 da3a 6b5e 723a 83b2 2e3b
00000140: b6fa 973b 3a40 ad3b 8a2c 683b eae3 883b
00000150: b6e4 853b ad58 983b 2e45 f037 025d c73a
00000160: f5d0 703b 575f f139 145c f239 0814 c63a
00000170: 2aa5 9b3b 525d 353a 88aa 8a3b 38c6 1b39
00000180: 9962 fa39 1fc3 b53b 32d1 3b3b 2c17 c33b
00000190: b7b5 123b c5f5 3e3a beab 8e39 a1a8 cd3a
000001a0: 386f 743b 76d3 143b c547 113b 3f5e 9f3a
000001b0: ffa2 ad38 d347 7a3a c978 073a 9bd0 df3a
000001c0: 13f5 bd3a 0543 9c3b febc af36 113d 613a
000001d0: 77fe 0a3b bea6 b83b 90ce 423a 98fe d03a
000001e0: e81d 853b 4a15 fb38 b0ad b23b 1b28 813b
000001f0: 5ee8 f63b 04c3 323a 512f 033b ed60 1f3b

exp_avg f4 [192, 128]
0.01392441 0.022935135 -8.1302267e-07 0.0130579695 -2.8176318e-08 0.01788776 0.04992832 1.1927216e-06
-0.001430013 -4.1186915e-05 0.0035617352 2.4921623e-17 0.012377857 0.029822668 2.2134716e-06 -3.0892494e-05
-1.2402009e-07 -1.0242061e-08 0.03335855 5.212748e-05 5.397657e-06 1.6514445e-05 -8.099681e-05 0.012824835
0.00010503305 0.019243745 0.0018399977 -0.00036917542 0.008987924 2.5579773e-06 0.0037153636 0.030324502
0.010548852 0.01045942 0.004957773 0.0019802193 0.02251811 -0.0004563611 5.6194463e-06 -1.3037902e-06
0.022335567 0.009452804 -3.3966076e-06 0.0010769918 0.020960707 -6.425729e-07 -7.418301e-10 0.0026646575
0.010319508 0.014275509 0.0005793445 0.03704112 0.004065168 0.00026376615 0.005955072 0.0011013134
0.009386935 0.022497036 0.026994986 0.017492434 5.1698757e-06 0.00037305415 -2.4125517e-05 1.5253895e-05
0.010394997 -0.00017266044 1.8954646e-05 0.045360863 -0.00038473133 0.017492963 6.6258854e-06 -0.0023330303
0.005658581 0.00011494349 0.008445533 5.4115343e-14 7.952581e-09 -0.00012978326 -0.000100489975 -4.96185e-05
0.014736243 0.01627645 0.011351491 0.0077550826 0.012087385 0.014774816 0.0 2.9271318e-05
3.0835676e-05 -7.082531e-05 -6.5106813e-09 3.7821057e-05 0.014966319 -7.118603e-06 0.021118572 0.0
-1.7980524e-10 0.0048449514 -4.036921e-08 0.02053939 0.007941771 0.00020696226 4.5889003e-05 9.724378e-07
-0.0013571354 0.0052369507 -3.0147152e-05 1.3628003e-05 -2.0472563e-11 0.0021266986 -4.617221e-06 -0.000117375035
-8.5743886e-05 0.008733329 -3.451968e-16 -2.2361528e-08 0.0006622616 0.016365886 3.5586894e-05 2.0663902e-05
0.01735633 -7.367115e-05 -0.0016756344 -0.0029660484 0.0078249825 -0.000113935705 3.8179453e-05 -1.10518595e-05
-0.051848046 -0.082793735 -8.4659194e-07 -0.105827585 -3.4752997e-08 -0.07146625 -0.19802983 -5.054304e-08
-0.008896413 -0.000110335524 -0.020767516 1.9668457e-16 -0.029659905 -0.10694145 -1.8418868e-18 -4.700802e-05
-1.3474914e-07 -1.2535697e-08 -0.10747838 7.520443e-05 -3.557875e-09 9.9434224e-08 -0.0001342099 -0.046209484
9.612364e-06 -0.066277765 -0.012491345 -0.0022541084 -0.016579773 -1.3328339e-06 -0.0037808057 -0.0631421
-0.029929182 -0.10692106 -0.048889305 -0.0019259371 -0.02069333 -0.0009861741 4.4430988e-14 -1.3566819e-06
-0.13508579 -0.009516791 -4.9368928e-06 -0.0013443658 -0.06349328 -8.6634856e-07 2.455951e-08 -0.0029156522
-0.08841362 -0.013666261 -0.0006110796 -0.13859917 -0.039803814 2.2286456e-06 -0.01976913 -0.0007381017
-0.009568858 -0.065027684 -0.13363336 -0.08297249 -3.2126243e-07 -2.2335577e-08 -3.6687412e-05 5.1294614e-06
-0.05540557 -0.00042059747 -2.1999618e-08 -0.1939337 -0.0010671294 -0.08664076 -1.3377306e-09 -0.014652546
-0.05318289 -8.107674e-05 -0.036399886 6.848973e-16 9.486176e-09 -0.00020820842 -0.0001860918 -8.124923e-05
-0.052021775 -0.038391065 -0.027221868 -0.0738248 -0.031375468 -0.04035082 0.0 -3.7415383e-11
-6.728905e-07 -0.000102345286 -7.783022e-09 -2.307944e-09 -0.014471186 -9.011577e-06 -0.10917978 0.0
-2.0108798e-10 -0.0063614612 -4.7497352e-08 -0.03978568 -0.04965778 9.206376e-06 4.235961e-05 3.8820585e-06
-0.007473635 -0.005515453 -5.299574e-05 -9.636504e-08 -2.382127e-11 -0.0012675942 -1.1577853e-05 -0.0015476372
-0.00019893904 -0.0077449437 -3.8065322e-16 -2.381869e-08 -2.2397378e-05 -0.07214441 -1.6274278e-07 3.7666774e-05
-0.073901944 -0.000111273 -0.07247827 -0.01781912 -0.035765886 -0.00017560807 -6.1706933e-09 -0.0001283046
00000000: 3523 643c 77e2 bb3c 7e3e 5ab5 18f1 553c
00000010: 6108 f2b2 5a89 923c a381 4c3d 9a15 a035
00000020: 466f bbba 1dc0 2cb8 006c 693b 85dc e523
00000030: 7fcc 4a3c ab4e f43c 278b 1436 9092 01b8
00000040: 622a 05b4 10f5 2fb2 faa2 083d 75a3 5a38
00000050: 851d b536 8088 8a37 d5dc a9b8 421f 523c
00000060: 3045 dc38 0fa5 9d3c 142c f13a e38d c1b9
00000070: 1642 133c b7a9 2b36 757d 733b 176b f83c
00000080: 18d5 2c3c fd5d 2b3c d074 a23b 91c6 013b
00000090: e677 b83c c043 efb9 ad8e bc36 e4fd aeb5
000000a0: 14f9 b63c efdf 1a3c 46f1 63b6 d929 8d3a
000000b0: cab5 ab3c 467d 2cb5 a7e9 4bb0 89a1 2e3b
000000c0: 2713 293c d3e3 693c 27df 173a 6eb8 173d
000000d0: 1a35 853b 184a 8a39 c422 c33b f259 903a
000000e0: a9cb 193c b44b b83c 9724 dd3c 4b4c 8f3c
000000f0: e578 ad36 7b96 c339 2761 cab7 fbea 7f37
00000100: c74f 2a3c 2f0c 35b9 cb00 9f37 50cc 393d
00000110: c4b5 c9b9 674d 8f3c ec53 de36 c1e5 18bb
00000120: 9e6b b93b d10d f138 225f 0a3c beb6 7329
00000130: d29f 0832 6e16 08b9 25be d2b8 751d 50b8
00000140: 4870 713c 3156 853c 9bfb 393c 591e fe3b
00000150: 2b0a 463c 1212 723c 0000 0000 ad8b f537
00000160: 8e55 0138 0c88 94b8 8fb4 dfb1 0da2 1e38
00000170: 4b35 753c 56dc eeb6 db00 ad3c 0000 0000
00000180: adb2 45af 66c2 9e3b 6a62 2db3 3942 a83c
00000190: 341e 023c 0204 5939 f178 4038 b584 8235
000001a0: e8e1 b1ba ba9a ab3b 84e4 fcb7 d4a3 6437
000001b0: 1d14 b4ad 1560 0b3b a0ed 9ab6 3e27 f6b8
000001c0: 66d1 b3b8 3d16 0f3c 0efe c6a5 8515 c0b2
000001d0: a09b 2d3a c011 863c 2343 1538 6457 ad37
000001e0: dd2e 8e3c e67f 9ab8 f6a0 dbba 0962 42bb
000001f0: 5b34 003c c4f0 eeb8 e022 2038 606b 39b7
00000200: 9e5e 54bd c38f a9bd 5b41 63b5 22bc d8bd
00000210: 5343 15b3 e65c 92bd 55c8 4abe a914 59b3
00000220: 43c2 11bc ef63 e7b8 a320 aabc 0ac3 6225
00000230: 54f9 f2bc 1e04 dbbd 42e8 07a2 7a2a 45b8
00000240: 90af 10b4 945c 57b2 a01d dcbd 12b7 9d38
00000250: cd7e 74b1 8b88 d533 b2ba 0cb9 2846 3dbd
00000260: ca44 2137 a3bc 87bd 80a8 4cbc aab9 13bb
00000270: 4ed2 87bc d3e3 b2b5 65c7 77bb a550 81bd
00000280: 0b2e f5bc 6ef9 dabd 2740 48bd ba6f fcba
00000290: 0f85 a9bc 8342 81ba 7119 4829 3c17 b6b5
000002a0: ee53 0abe 51ec 1bbc 96a7 a5b6 6e35 b0ba
000002b0: c408 82bd 058f 68b5 eff6 d232 8714 3fbb
000002c0: 3312 b5bd 74e8 5fbc dc30 20ba f1ec 0dbe
000002d0: 5309 23bd d78f 1536 dff2 a1bc 2b7d 41ba
000002e0: b3c6 1cbc 3c2d 85bd 2fd7 08be 7bed a9bd
000002f0: f979 acb4 74dc bfb2 cfe0 19b8 bd1d ac36
00000300: f3f0 62bd a383 dcb9 acf9 bcb2 8e96 46be
00000310: ecde 8bba b670 b1bd 36db b7b0 3b11 70bc
00000320: 4dd6 59bd be07 aab8 0c18 15bd 8068 4526
00000330: a5f8 2232 8652 5ab9 a321 43b9 5964 aab8
00000340: c914 55bd f33f 1dbd 6500 dfbc 7531 97bd
00000350: 9083 00bd e746 25bd 0000 0000 fa8d 24ae
00000360: afa0 34b5 35a2 d6b8 18b6 05b2 c899 1eb1
00000370: 8e18 6dbc 6e30 17b7 a699 dfbd 0000 0000
00000380: 3c19 5daf ce73 d0bb e4ff 4bb3 4ff6 22bd
00000390: f565 4bbd 1575 1a37 49ab 3138 a142 8236
000003a0: 65e5 f4bb f9ba b4bb be47 5eb8 3ef1 ceb3
000003b0: bb88 d1ad 6725 a6ba 803e 42b7 16da caba
000003c0: 4b9a 50b9 4cc9 fdbb 806e dba5 da99 ccb2
000003d0: 01e2 bbb7 73c0 93bd 65be 2eb4 64fc 1d38
000003e0: e759 97bd 3d5b e9b8 7d6f 94bd 67f9 91bc
000003f0: 407f 12bd 6f23 38b9 fe05 d4b1 8189 06b9
