weights/policy_checkpoint1500.pt (torch, 522983 bytes, 12 tensors)

net.0.weight f4 [128, 142]
000000 8a 50 b0 3d da fc f5 3d e0 4b 78 3c 37 d5 05 3e
       0.086091116 0.12011118 0.015154809 0.13069616
000010 cd 8b 50 3d e7 1b cb 3d 17 5b 8b 3d d4 81 e4 3d
       0.050914574 0.09917431 0.068044834 0.11157575
000020 e7 fc 92 3d c4 24 8b ba c6 4e c8 3d f4 b5 82 3d
       0.071771435 -0.0010615815 0.0978065 0.06382361
000030 8e ad 95 3d 8e 63 21 3d 89 d7 d1 3d 71 3f 96 3d
       0.073084936 0.039401583 0.10246188 0.07336319
000040 a0 ba 74 3d 20 c1 3d 3d f3 41 21 bd 44 2c d4 3c
       0.059748292 0.046326756 -0.039369535 0.025900014
000050 be 40 c4 bc e5 2a 7c 3d f6 f9 0d 3d 68 84 10 3e
       -0.023956653 0.061564345 0.03466221 0.14113009
000060 b6 ff 5f bd 5b 06 ee bc 0e c2 ab 3c 1f 6b 50 bd
       -0.054687224 -0.029055765 0.020966556 -0.05088341
000070 62 4a ed 3c 34 ec b5 bd 09 80 0d 3e bf 0a 56 bc
       0.028966133 -0.08882943 0.13818373 -0.0130640855
000080 a0 ce da 3d a2 74 7b 3d 43 76 e1 3b c2 49 b0 3d
       0.10683942 0.061390527 0.006880553 0.08607818
000090 7a a8 19 3d 46 42 e7 3d 7e bf b4 3c 0b 3b d3 3c
       0.037514187 0.112919375 0.022063967 0.02578499
0000a0 52 5a fe 3d a1 ee 13 3c b5 15 07 3e 78 f5 03 3e
       0.12419571 0.0090290615 0.13191874 0.12886608
0000b0 f0 df fc 3d 3f 76 3b 3d 1c 40 0e 3e ec 47 9f 3d
       0.123474 0.045767065 0.13891643 0.0777739
0000c0 e2 fe aa 3d d1 bc 12 3d af ec a7 bc 22 11 3d 3d
       0.08349396 0.0358246 -0.020498602 0.046158917
0000d0 d5 84 74 3c 1a 9b 41 3e 02 bc d3 3d 74 e0 e8 3d
       0.014924248 0.18906823 0.10338594 0.11370936
0000e0 42 1f 95 3c 6a fa 48 3d 5f a1 38 3e 87 d6 64 3d
       0.018203381 0.04906694 0.18030308 0.05586865
0000f0 06 b9 83 3d b4 f2 28 bc ec 6f dd 3d 01 06 2c 3d
       0.06431775 -0.010311771 0.10812363 0.041997913
000100 3d b1 4d 3d 79 e3 86 bc 31 de 76 3d 27 00 75 bd
       0.050217856 -0.01646589 0.060270492 -0.0598146
000110 de 80 84 bd f4 ba 7c 3c 15 fe 05 3e 04 80 85 3d
       -0.06469892 0.0154254325 0.13085206 0.06518558
000120 68 60 a5 3d e8 d5 8d bd 6b 04 4a bd 10 2a 83 bd
       0.08075029 -0.06925565 -0.04932062 -0.06404507
000130 a6 36 a0 bd 53 39 0b 3d 72 29 f6 3c 57 56 ff 3d
       -0.07822923 0.033990216 0.03004906 0.1246764
000140 9e 82 31 bd ec 52 6a bd fc 5f 36 3d ca ef 0a bd
       -0.043337457 -0.057207987 0.04452513 -0.033920087
000150 7a 0a c3 3c 53 22 a3 bc ec a0 44 3d 79 88 85 bd
       0.023808707 -0.019913828 0.04800503 -0.06520171
000160 6d 76 2d bd 6e e9 1c 3e 3b 9b ee 3d 6b d3 79 3d
       -0.042349268 0.15323421 0.116507016 0.06099264
000170 df b6 f8 3d 41 16 e6 3d b9 ec 09 3c 24 b6 b4 bc
       0.12144255 0.11234713 0.0084182555 -0.022059508
000180 8f 78 13 3e 71 f8 e7 bc 05 b7 f3 bc e9 24 4c 3c
       0.14401458 -0.028316708 -0.029750356 0.012459972
000190 2f b0 a3 3c 68 1e c0 3d b8 7a 35 bc 02 82 79 bd
       0.019981472 0.093807995 -0.011076622 -0.060915
0001a0 18 a2 a7 3d 73 cb 6a bd 24 cf 91 bd 4f 47 3d bd
       0.08185214 -0.05732293 -0.07119587 -0.046210583
0001b0 f2 6a 96 bd 68 4b 8c 3d 11 cc ab 3d ef d7 81 3c
       -0.07344617 0.0685032 0.08388532 0.015850035
0001c0 bf d8 d3 3c 91 4b a0 bd e2 48 0a bc aa 8f d7 3c
       0.025860189 -0.07826913 -0.008440228 0.026313622
0001d0 e0 00 39 3d cc 7c 97 bc 82 20 73 3c 2a fc 85 bd
       0.04516685 -0.018492125 0.014839293 -0.06542237
0001e0 8c a8 c7 3c 61 45 1f bd 32 8d be bb b8 eb 68 bd
       0.024372362 -0.038884524 -0.0058151716 -0.056865424
0001f0 d4 10 b3 bd 78 3c 75 bd a6 1a 84 bd 35 a6 87 bd
       -0.08743444 -0.05987212 -0.06450395 -0.06623498
000200 63 1a 90 3d 12 7a 20 bd 1c df 93 3d 0d 33 d6 3c
       0.07036283 -0.039178915 0.07220289 0.02614739
000210 c2 88 91 bd 53 df 6d 3d 69 b8 85 bb 9a c2 03 bd
       -0.071061626 0.058074307 -0.0040808213 -0.03216801
000220 d7 a8 8e bd 5c dc aa bd 5a b0 c4 3c 2c b4 4c 3d
       -0.069657974 -0.083428115 0.024009872 0.049976513
000230 b1 c6 de 3d d9 42 3b bc 41 71 73 3d c7 e3 d0 bd
       0.10877741 -0.011429512 0.05943418 -0.10199695
000240 fc 63 82 bd 71 54 1e bc 37 2b 5d 3d b6 95 9a 3d
       -0.06366727 -0.009663687 0.05399629 0.07548086
000250 b9 c3 aa 3d 39 7a 27 bd d8 c1 30 3c 68 66 65 bd
       0.083381124 -0.040888045 0.010788403 -0.056005865
000260 29 db 8f 3c d5 fd 69 bd cc 52 b1 3d 5d 6b 2f bd
       0.017560558 -0.05712684 0.086583704 -0.042827
000270 49 54 9a 3d af 89 97 3c 7e 38 8c 3d e6 f6 95 ba
       0.07535607 0.01849827 0.068467125 -0.0011441379
000280 c9 23 f7 3d 30 d6 49 3d b0 3b 4d 3d 0e 51 fd bc
       0.12067372 0.04927653 0.05010575 -0.030922439
000290 a7 71 af 3d 1d 66 ce bb fd b9 b9 bb 3c 2b e9 3d
       0.08566599 -0.006298794 -0.0056679235 0.113851994
0002a0 62 e0 7f 3d 0c 3f 03 3c 9c af 8a bc 8d 27 ac bb
       0.062469848 0.008010637 -0.01692944 -0.0052537383
0002b0 06 2f d0 3d 3c 1a e0 b9 ff d3 34 bd f1 c3 5a bd
       0.10165219 -0.00042744156 -0.044147488 -0.05340952
0002c0 2c a6 87 bd dd 80 52 3d 93 69 a7 3d 24 f6 aa bd
       -0.06623492 0.051392425 0.081744336 -0.08347729
0002d0 a1 02 67 3d 6b bd 8e 3d ef 32 72 3d 0b f9 b3 bc
       0.05639899 0.06969722 0.059130605 -0.021969339
0002e0 d6 ef b4 3d ae b6 05 3e 04 43 66 3d d7 50 d8 3c
       0.088348076 0.13057968 0.056216255 0.026405735
0002f0 c1 cd 1a 3d f0 79 84 3d 65 9e d2 3b 82 c9 9b 3c
       0.03779388 0.0646857 0.0064275735 0.019016985
000300 8e f8 ad 3d af 2b d1 3d 80 b5 1a bc 72 6a a9 bb
       0.08494674 0.1021341 -0.009442687 -0.00517016
000310 f5 89 6c bc 46 2e 43 bd 62 2d 41 3d ae 5f 5d 3d
       -0.014437188 -0.04765155 0.04716242 0.054046325
000320 65 a8 d2 bc f2 45 91 3c 88 c7 f7 3d 6d d0 f4 3c
       -0.025715062 0.017733548 0.120986044 0.029884541
000330 9e e9 c3 bc fc 1f 89 bc 06 d5 e2 bc 4b 52 21 bd
       -0.023915108 -0.016738884 -0.027689468 -0.03938512
000340 93 c8 e9 bc bc 54 3e 3d 3d e2 d1 3d d7 2c 8f 3d
       -0.028538024 0.046467528 0.1024823 0.069909744
000350 d7 51 b4 bd 7a 36 a2 bd 05 fc 58 bc be 40 a6 3d
       -0.08804672 -0.07920547 -0.01324368 0.08117817
000360 44 06 79 3d 23 c5 37 bd 8a 42 c7 3c 80 eb 02 bd
       0.06079699 -0.04486574 0.02432372 -0.03196287
000370 f8 7a 5e bd c5 7e 12 3d 47 4b 1c bd f6 cf 89 bc
       -0.05431649 0.035765428 -0.038157728 -0.016822796
000380 ad f8 aa bd 2b 0c 66 3d c4 b8 2c 3c e8 8a fa 3c
       -0.083482124 0.056163948 0.010542098 0.030583814
000390 54 ac 6f bd aa 9e a9 bd a9 95 8b bd 36 8d 13 3d
       -0.058513954 -0.08282216 -0.06815655 0.03602334
0003a0 6d 06 5f 3d ef ad bb 3d 9d e7 2d 3d 97 c2 f1 3a
       0.054449487 0.091640346 0.04245721 0.0018444833
0003b0 27 fd ca bc 0b 8d 76 bd 5f 4a 6c bd ca c0 a0 bd
       -0.024778916 -0.060193103 -0.057688113 -0.078492716
0003c0 9f b5 0c 3d d0 80 87 bd 78 b2 d5 bb f4 a9 93 bd
       0.034352895 -0.06616366 -0.0065215193 -0.0721015
0003d0 b8 8a 7a bc a2 ed 71 bd ab 7e c5 bd 7c 09 e4 3c
       -0.015291862 -0.059064515 -0.096433006 0.027836554
0003e0 53 4f cc bc d6 32 54 3d d8 8a dc bc f6 cf e7 bd
       -0.024940168 0.051806293 -0.026921675 -0.11318962
0003f0 a7 96 72 bc 21 9f 26 bd 62 52 d2 bc 36 9d a3 bd
       -0.014806426 -0.0406791 -0.025674049 -0.0798897

net.0.bias f4 [128]
000000 1e 00 11 3e f2 cb 0c 3d c0 93 92 3c ff 0e 81 3d
       0.14160201 0.034374185 0.017892718 0.063016884
000010 5d 81 5b 3d d5 3f 57 3d a3 d7 d9 bc f8 29 9a bd
       0.053590167 0.05255111 -0.026592081 -0.07527536
000020 d2 9b f0 3c 7a 9f ca 3d e7 ca c3 3c b1 97 5c 3c
       0.029371176 0.09893699 0.023900462 0.0134639
000030 7f bc 2a bd 7a 28 9a 3d f0 4f 96 bd 39 78 4b bd
       -0.04168367 0.075272515 -0.073394656 -0.0496752
000040 7c af 5f 3d e8 45 93 bd 76 f0 7d bd b7 02 1e bd
       0.054610714 -0.07191068 -0.0619969 -0.038576808
000050 b2 d2 bc 3c c2 e4 ad bd 50 65 90 3d b1 1f 7c 3d
       0.023049686 -0.08490898 0.07050574 0.06155366
000060 f9 4a 88 bc 7a 8d 09 3d e7 e0 aa 3d 55 7d 29 bd
       -0.016637312 0.03358219 0.08343678 -0.04137929
000070 a0 05 6c bd 0e 22 5c 3d a1 30 d3 bc 9e cd 32 bd
       -0.057622552 0.053743415 -0.025780024 -0.043653123
000080 8b 8f df 3c f5 d9 2f 3d f4 60 d9 3c e3 97 1d 3b
       0.027290126 0.04293247 0.026535489 0.002404683
000090 62 8b da bd 15 6a 63 3b 6d 6d cc 3d 81 c9 5e 3d
       -0.106711164 0.003470068 0.09981809 0.054391388
0000a0 10 48 9c 3d 9b fb b0 bd e1 3a 85 3d fe 07 73 3d
       0.07630932 -0.0864174 0.06505371 0.059333794
0000b0 21 88 f3 bc 16 61 04 bd 79 63 ab bd 41 86 c1 bc
       -0.029727997 -0.03231915 -0.08368582 -0.023623588
0000c0 c6 8c 5b bd 8e b3 89 bd 4c d2 72 bd a2 61 4d 3d
       -0.05360105 -0.067237005 -0.059282586 0.050141938
0000d0 26 f4 48 bd 78 7c 9d 3c c8 86 fa 3c 5c fc ac bd
       -0.049060963 0.01922439 0.030581847 -0.08446571
0000e0 1b a1 1a bd b8 35 ac 3d fe 67 19 3d 74 7c 8b 3d
       -0.0377513 0.084086835 0.03745269 0.06810847
0000f0 c5 3d c7 bd 8c 3a 7e 3d 59 12 e5 3b a7 6f aa bd
       -0.097285785 0.062067553 0.0069907126 -0.08322077
000100 32 b7 87 3c ef 47 c7 3c 98 51 8d 3c b1 d5 93 3d
       0.016566847 0.024326293 0.017250821 0.07218493
000110 1f 25 56 bd c4 e8 d0 bc 74 b0 a8 bd 7f 6d 50 3d
       -0.052281495 -0.025501616 -0.08236781 0.050885674
000120 a4 3c 81 3b 54 95 09 3d 11 79 d3 38 58 8b be bd
       0.0039439965 0.033589676 0.000100838144 -0.093039215
000130 39 f3 78 bc 26 f7 b9 3d 28 fc 8e 3d 3a ee a9 bb
       -0.015194708 0.09080343 0.06981689 -0.0051858695
000140 ff 94 78 3c 4d 84 ea 3c 2b 04 1a bd ee f3 00 3e
       0.015172242 0.028627539 -0.03760163 0.12593052
000150 b9 89 e8 3c d4 53 e4 3d ee 5f f2 bd 1d 44 c9 bc
       0.028385984 0.111488014 -0.118347034 -0.024568612
000160 f4 70 b2 bc 0c 98 ad 3d 4a 2e 9e 3d 8e 93 74 bc
       -0.021782376 0.08476266 0.07723673 -0.014927758
000170 55 6c ed 3c 50 e6 4a bd fb 12 8a 3d b5 e2 04 3d
       0.02898232 -0.04953605 0.067419015 0.032442767
000180 b0 e5 a5 bd f1 6b 4e 3d e2 06 7f 3c 10 22 2e bd
       -0.0810045 0.05039591 0.015565606 -0.042512953
000190 cd 79 87 bd 5c 4f b2 bd a4 2a a4 bd c0 06 59 bd
       -0.066150285 -0.08706543 -0.080159456 -0.052984953
0001a0 6c 7b 81 3d 64 2d 09 3d 26 ad 82 3c 26 0f af bc
       0.06322369 0.033490553 0.015951704 -0.021369528
0001b0 19 8c b9 bd 14 d3 ce bd b1 d0 46 3d 6d df 4d 3d
       -0.09059925 -0.10098854 0.048538867 0.050261904
0001c0 3e 76 06 3e 10 9c 58 bd bc 6d 97 bd 65 7c 15 bd
       0.13131043 -0.052883208 -0.07393977 -0.036495585
0001d0 a1 51 b2 3d 2b 57 88 bd c4 d1 4e bd 87 8c 91 bd
       0.08706976 -0.06657251 -0.050493017 -0.071068816
0001e0 2a 3b 72 3d d3 d4 2a bd 64 ac 2f bd b0 03 69 3d
       0.059138454 -0.04170687 -0.042889014 0.056888282
0001f0 99 92 c1 bd ba 8d 27 bd 15 96 75 bd a6 92 e4 bc
       -0.094517894 -0.040906645 -0.059957583 -0.027901959

net.2.weight f4 [192, 128]
000000 69 ec 38 bd 41 bd 87 bd 57 41 26 3e 35 5b ee bd
       -0.045147333 -0.06627894 0.16235863 -0.1163849
000010 63 1e 37 bd 47 07 7a bd 2d ba d3 bd fd 46 b4 3d
       -0.044706713 -0.061042096 -0.103382446 0.088026024
000020 07 c0 09 3d 31 3c ab 3c 95 82 a4 3c ac 2d a1 bc
       0.033630397 0.020902725 0.020081798 -0.019675098
000030 fe da 3e 3c 88 c3 24 bd 6f 42 5d 3d 50 b5 69 bb
       0.0116488915 -0.040225536 0.054018434 -0.003566105
000040 20 19 cc 3d e8 93 ea 3c b5 00 ca bd 5c 75 39 3d
       0.0996573 0.02863498 -0.09863416 0.04527794
000050 70 f0 b6 3d 83 c7 00 bd 00 85 ee bc fb e7 0e be
       0.089325786 -0.03144027 -0.029116154 -0.13955681
000060 e7 00 f4 3c ab 45 c6 bd d2 86 b7 bd f0 56 92 3c
       0.029785587 -0.09681257 -0.08961262 0.01786372
000070 cb ff 25 bd fc 5d 41 3d ef a1 fc bd 29 a3 c8 bd
       -0.040527146 0.04720877 -0.12335574 -0.09796745
000080 f3 4c a1 bd 9d 1e 3f 3b bf b9 c3 bd 15 f7 51 be
       -0.07876005 0.0029162534 -0.09556913 -0.2050441
000090 8d a6 8a bd 19 80 2c bd 6d a0 83 bc 4f e9 04 bd
       -0.06770048 -0.04211435 -0.016067708 -0.032449063
0000a0 12 d8 ec bd f7 c7 a2 bd bf bb a4 bb ee 59 98 bd
       -0.1156465 -0.079482965 -0.005027264 -0.07439028
0000b0 d6 67 de bd 2c 79 b9 3d 3d dc 98 bd ab 78 3d 3b
       -0.10859649 0.09056315 -0.07463882 0.0028911035
0000c0 e1 0d b9 bd 90 97 c7 bd 1d 62 02 be 26 5d d6 bd
       -0.0903585 -0.09745705 -0.1273274 -0.104669854
0000d0 7b d2 c1 bd 26 e6 f3 bd b5 f7 97 bd 9d 7e f3 bd
       -0.09463974 -0.11909132 -0.07420293 -0.11889384
0000e0 1a 32 31 3d 36 7e da bd 69 c9 95 bd 65 ac 63 3c
       0.04326067 -0.10668604 -0.073138066 0.0138960825
0000f0 ed 4f 90 bd ce d2 03 bd 67 3e 95 bd cc 17 85 bd
       -0.07046495 -0.03218346 -0.07287293 -0.064986795
000100 f9 b9 a9 3c 04 cf 96 3d e5 6f 8d 3b 64 b1 a3 3c
       0.020718561 0.07363704 0.0043163174 0.019982047
000110 c9 eb 09 3c cc ef fe bd fe a1 a1 bd e9 cd af ba
       0.008418032 -0.124480814 -0.07892226 -0.0013412806
000120 b4 3c c8 bd 32 83 10 3e f0 df 97 bd f1 d0 6c 3d
       -0.09777203 0.14112547 -0.074157596 0.05781645
000130 19 c0 ef bc 65 ea 33 bd 6e 50 9d bd f4 c4 be 3d
       -0.029266404 -0.043924708 -0.07681356 0.093149096
000140 e7 29 e1 bd be 55 1d 3d 67 99 41 bd 61 a5 f0 bc
       -0.1099432 0.03841185 -0.047265437 -0.029375734
000150 6e 5b 64 bd 5b cc 83 bc ad 24 8a 3d 2a af b6 bd
       -0.055751257 -0.016088655 0.067452766 -0.08920129
000160 de 2f fe bd 43 08 0c 3c a2 48 88 bd 5f 38 91 bd
       -0.12411474 0.008546892 -0.066544786 -0.0709083
000170 97 d2 9a bb f1 ce 72 3d 60 9d 9c bd d1 72 c9 3d
       -0.0047248113 0.059279386 -0.076472044 0.098363526
000180 c2 53 b0 bd c6 f5 42 bd 63 12 ae bd 78 05 c8 bd
       -0.086097255 -0.04759767 -0.08499601 -0.09766668
000190 4d 84 87 bd 89 96 fb bd f4 bb 8f 3d 9e f6 25 bd
       -0.06617031 -0.12284572 0.07018271 -0.040518396
0001a0 cc 01 2d 3e e7 86 9a 3c f4 ca b4 bb bf 93 cc ba
       0.16895217 0.018863155 -0.005517358 -0.0015607997
0001b0 cc 4c cd bc 27 2b 2c bd 70 ef 91 3d 39 4b 31 bd
       -0.025061034 -0.04203334 0.07125747 -0.04328463
0001c0 b1 e5 14 bd 7a 39 21 be 2a c9 0e bd a2 a5 93 3d
       -0.036351863 -0.15744582 -0.034859814 0.07209326
0001d0 dc e7 f7 bb be b0 d8 bd 2a 0e d2 bd 81 41 fe bc
       -0.0075654816 -0.10580586 -0.10256608 -0.031037094
0001e0 6e 34 1d bd 59 f5 12 3e b8 05 0b be 4a 46 82 bc
       -0.03838008 0.14351405 -0.135764 -0.015902657
0001f0 81 72 09 be 67 06 10 3e d7 17 0e be ed 26 ad bd
       -0.13422586 0.14064942 -0.13876282 -0.0845469
000200 04 05 44 3c 42 71 f2 3c 80 3d aa bc 72 72 d7 bc
       0.011964086 0.029595021 -0.020781279 -0.026299689
000210 49 87 39 3d 40 99 35 bd 22 42 32 3d 70 98 23 3d
       0.045295034 -0.044335604 0.0435201 0.039940298
000220 a6 38 b5 3c e3 52 30 bd 71 ba ad 3d 81 b7 e8 bb
       0.022121739 -0.043047797 0.084828265 -0.0071019535
000230 f4 cc 2e bd 1d 0c f4 3c 12 20 49 bd fa 4c 23 3c
       -0.042675927 0.029790932 -0.04910285 0.009967083
000240 2c f6 93 3d 7f 15 d7 3b 21 95 55 3a e7 b1 cb bc
       0.07224688 0.006563842 0.0008147527 -0.024865104
000250 cd 60 92 bd 0d 5f bc bc 5a d9 9d 3d db 16 77 3d
       -0.071473695 -0.022994542 0.07707472 0.06032453
000260 46 4b 35 bd 74 d0 ee 3c 31 6b 24 3c 58 00 80 3d
       -0.04426124 0.029152133 0.010035322 0.062500656
000270 42 d2 90 3d 49 9c 8f bc 70 8b 81 3c 43 95 0b 3e
       0.070713535 -0.017530577 0.01581356 0.13631158
000280 3f 39 bb 3c 94 48 60 bd 2e 3e e5 bc 1d 4d 2a bd
       0.022854446 -0.054756716 -0.027983751 -0.041577447
000290 6b a6 97 bd df 0e 25 bd 2a 33 4d 3d 8b 67 73 38
       -0.074047886 -0.040297385 0.050097622 5.8032147e-05
0002a0 98 a8 83 3d 16 5e 8a bd 7d 5e 87 3d 08 2c 09 3d
       0.06428641 -0.06756227 0.06609819 0.033489257
0002b0 d1 ff 82 bd cb 7c a9 bc 6d ad a0 3c 8c 70 66 bd
       -0.06396449 -0.020689389 0.019613946 -0.056259677
0002c0 d2 d8 49 3c a0 70 a3 3d 71 e8 20 bd c5 29 63 bc
       0.01231976 0.07980466 -0.039284173 -0.013864939
0002d0 ee 93 9b 3d d4 e5 13 bd 63 af a1 bd 9b ca c4 3c
       0.07596575 -0.036107853 -0.078947805 0.024022391
0002e0 ae 20 85 bd b2 3e 91 3d 87 a5 25 bd 78 ed 28 3d
       -0.06500374 0.07092036 -0.040441062 0.041242093
0002f0 b7 74 16 bc f7 f2 ea bc 12 41 c7 bc 3b 64 7d 3d
       -0.0091831 -0.028680308 -0.02432302 0.061863165
000300 72 0e 5f bd e4 6d 93 3d 41 88 28 3d 78 1e 41 bd
       -0.054457135 0.07198694 0.041145567 -0.047148198
000310 68 41 a1 3d b6 2d 81 3d 52 d8 5e bd 1b de 9c 3c
       0.078738034 0.06307547 -0.054405518 0.019148877
000320 03 7e 13 3d e2 e5 28 bc 17 9b b5 3d 89 f3 a2 bc
       0.036008846 -0.010308715 0.08867472 -0.019891517
000330 ca 93 f0 bc c6 0d f8 3a d1 0b 2c 3c 14 66 c4 3d
       -0.029367346 0.0018925003 0.010500864 0.09589782
000340 a7 8f 3d bd 35 01 90 bb bb a7 47 bd b5 41 74 3c
       -0.046279576 -0.004394675 -0.048743945 0.014908244
000350 b1 a7 bf bc 5d 4e 50 bd 0c bf 55 bd ab 0c 08 bd
       -0.023395391 -0.050855983 -0.05218415 -0.033215206
000360 69 95 d0 bd 56 8b 3b 3d cc b7 0c 3d 0a a5 20 bd
       -0.10184748 0.045787178 0.03435497 -0.039219894
000370 11 75 bf 3d d7 27 b5 3d ac 94 b0 bc bc fb 78 3d
       0.093485005 0.088454895 -0.021555267 0.060786948
000380 ef c3 ff 3b 23 2e a4 3d 00 17 87 bc 66 76 8d bc
       0.0078053395 0.080166124 -0.01649046 -0.01726837
000390 fc 7e 20 3d 34 a1 f8 bd 94 7f ad 3c 26 82 94 bd
       0.0391836 -0.12140122 0.021178998 -0.07251386
0003a0 63 58 f5 bc b0 cb c4 3c e0 90 42 bd a6 ca 35 bd
       -0.029949373 0.024022907 -0.047501445 -0.044382714
0003b0 0f 11 ba bc 08 ad 89 bb 47 bd a6 3c ce de 62 bd
       -0.022713212 -0.004201535 0.020353926 -0.055388264
0003c0 f8 24 b8 3d a8 17 7a bc 47 40 41 bb 34 3a dd 3c
       0.08991426 -0.015264429 -0.0029487775 0.027005292
0003d0 7c f7 08 bd 49 e2 93 3c 62 68 b2 bd 63 49 6e ba
       -0.033439144 0.018052237 -0.08711316 -0.0009089915
0003e0 bf fd 9d bb 3b d5 9b bd f2 5d be 3c 58 76 86 bd
       -0.0048215087 -0.0760903 0.023238156 -0.06565541
0003f0 a3 8b 7c bd e2 bc 7c bd 84 3d c9 bb 8a 17 6f ba
       -0.061656605 -0.06170357 -0.0061413664 -0.0009120634

net.2.bias f4 [192]
000000 d6 bc 0e 38 de 39 61 3d e4 6a 53 3d 25 c8 f9 3b
       3.4031305e-05 0.054986827 0.05161561 0.007622736
000010 b8 b6 d6 3c 9a 8a e2 bb 78 d8 64 3c a2 ea 9e 3c
       0.026210174 -0.0069134953 0.013967626 0.019398991
000020 1f ce 0b be 4a d7 82 bb 80 c5 a6 3c 3a 45 03 bd
       -0.13652848 -0.0039929496 0.020357847 -0.03204844
000030 98 be c8 3b 49 66 a1 bb 6f e1 5c 3c 32 d0 75 3d
       0.006126236 -0.0049255234 0.013481482 0.060013004
000040 4b e9 aa 3d 05 d5 53 3b 8e 9b d0 3c d0 7b 18 3e
       0.08345278 0.0032323014 0.0254648 0.1489098
000050 4e 54 af bc 4d 94 0a 3c bd d0 01 bd ec cf e5 3d
       -0.021402504 0.008458209 -0.03169321 0.112212986
000060 c3 1d 7c 3d 5f 8c a3 3d a0 fd e2 3c 4a 16 3d 3e
       0.06155182 0.07985758 0.027708828 0.18465534
000070 22 a8 d4 3c 0d 86 35 3d 48 d9 c3 bc e2 d8 06 3d
       0.025959078 0.044317294 -0.023907319 0.03292168
000080 01 75 66 3d b0 05 e1 3a 3d 9f a2 3d 8d 87 2b 3d
       0.056263927 0.0017167833 0.079405285 0.04187732
000090 83 0e 04 3d b9 7e 8a 3d a7 6c ad bd 41 95 14 bb
       0.032240402 0.06762452 -0.084679894 -0.002267197
0000a0 64 ca 9f bd be 4d 79 bc b0 e9 8a 3d db 82 d7 3d
       -0.07802275 -0.015216289 0.067828536 0.105230056
0000b0 41 d2 4a bc 4d 31 d2 bc 2c 1d fb bd 7c 94 0d ba
       -0.01237923 -0.025658274 -0.122614235 -0.0005400849
0000c0 24 8d c2 3d fb f5 35 bd 60 14 35 3d 05 60 b2 3d
       0.09499577 -0.04442404 0.044208884 0.087097205
0000d0 a9 b5 1b 3c 43 93 01 bb 9f de bc 3d 2b 94 aa bc
       0.00950376 -0.0019771613 0.09222149 -0.020822605
0000e0 0d f4 5f 3c 01 69 c0 bd 1d 26 d1 3c 3b 7a 31 bd
       0.013669026 -0.09395028 0.02553087 -0.04332946
0000f0 55 c1 32 3c 22 9e 30 3c d0 98 8d 3d b6 71 ce bc
       0.010910352 0.010779889 0.06913912 -0.025200706
000100 1c c0 a3 bd 6e d7 5f bd 41 d5 cd bd 75 0a 10 bd
       -0.07995626 -0.05464881 -0.100504406 -0.035166223
000110 19 80 84 3a 8c 27 b5 bd 74 4f e6 3d b8 c1 9c bd
       0.0010108977 -0.088454336 0.11245623 -0.076541364
000120 0e df b2 bc 6e 9f d0 bb 2a f8 60 3a e4 ba 14 3d
       -0.021834876 -0.0063666617 0.0008581901 0.036311045
000130 3c 47 29 3d 6d 1f 38 3d 88 aa b9 3d 08 bb df 3c
       0.0413277 0.044951845 0.090657294 0.027310863
000140 68 fe 93 3c 7e cd 33 39 88 07 30 bc 6a 67 de bb
       0.018065646 0.00017147322 -0.010743983 -0.0067872303
000150 2e e9 f7 bc cb e9 86 bc b6 03 ab 3c df 35 c9 3c
       -0.030262556 -0.016468903 0.020875793 0.02456182
000160 e7 45 91 bd 08 84 a8 3d 18 3f 2d 3d 09 04 bb 3d
       -0.07093411 0.08228308 0.0422965 0.09131629
000170 3a 33 ea bc 12 da 88 3d 02 b3 32 3c 5e 51 8c 3d
       -0.02858888 0.066822186 0.010906937 0.06851457
000180 13 0c aa 3b d7 a3 a8 bd 69 cd a7 bd a8 87 26 bc
       0.0051894276 -0.08234375 -0.08193476 -0.010164179
000190 ea 5b aa 3b 1d 96 68 bd fc 7a 71 bc ad 12 68 bd
       0.0051989453 -0.056783784 -0.014738794 -0.056658436
0001a0 74 48 fd 3d 9a 47 24 3c b1 c2 af 3d 4d 8a 3e bd
       0.12367335 0.010026837 0.08582056 -0.046518613
0001b0 2c 49 83 3d 12 46 11 3d 28 b1 83 3c aa ba 7b bd
       0.06410441 0.035467215 0.016075686 -0.061457314
0001c0 fb 4c 7d bd 3a 63 9b 3d 2e c6 95 3d 0f ee 71 3d
       -0.061840992 0.07587285 0.073131904 0.05906492
0001d0 89 3b e7 3d 53 96 e0 bd 68 ce 17 3d 3f 65 6f bd
       0.11290652 -0.10966172 0.03706208 -0.058446165
0001e0 92 b7 bf bd 77 79 64 3d bf 70 41 3d 08 91 c0 3c
       -0.09361185 0.0557799 0.047226664 0.023506656
0001f0 aa e8 e8 3c 39 fa 0c bd a8 0e c9 3c db d2 71 3d
       0.028431255 -0.03441832 0.024543121 0.059038978
000200 30 dd 20 bd 95 75 9e 3d 63 30 21 bd 31 01 14 bb
       -0.03927344 0.07737271 -0.039352786 -0.0022583718
000210 de 0d d7 bc 66 74 4d bc 01 72 e1 bd 96 20 c9 3c
       -0.02625173 -0.012539959 -0.11008073 0.024551671
000220 b8 b1 6b 3c d1 40 dc 3d 26 3c 84 bb 78 22 31 3d
       0.014385633 0.1075455 -0.0040354906 0.043245763
000230 e3 f3 ab bd bb 6f 05 bd a7 cb d3 3b 9a 0d 4b 3c
       -0.08396127 -0.032577258 0.0064634862 0.01239338
000240 03 52 a6 3d 27 7b 7a bc 75 8a 6a bc 5a 2a 08 3e
       0.08121111 -0.015288151 -0.014315237 0.13297406
000250 ac 91 07 3e de fe 29 bd 03 9d 93 3c e5 80 ce 3d
       0.13239163 -0.041502826 0.018019205 0.100831784
000260 72 c0 97 3d 3a 58 c6 3c 2c ac 06 3e 7c c9 69 3d
       0.07409753 0.024211992 0.13151616 0.057076916
000270 58 8b de 3c a8 e5 0d 3d ea 56 88 3d ac 42 12 3e
       0.027166054 0.034642845 0.066572025 0.14283246
000280 7f c7 be bc 4c fe b1 3d 01 58 5e bd ca d1 c2 bb
       -0.023288487 0.086910814 -0.054283146 -0.005945419
000290 59 3a ba 3c 21 32 75 bd 89 34 6f 3d 82 2e d5 3d
       0.0227329 -0.05986226 0.05839971 0.10409261
0002a0 2b f1 f8 3c a4 ad a5 3d bb c6 22 bd 86 8b da 3d
       0.030388435 0.0808976 -0.039740305 0.10671143
0002b0 b6 6d 67 bd 57 c5 80 bd 53 5d 32 3c 70 ab ac 3b
       -0.056501113 -0.062876396 0.010886508 0.0052694604
0002c0 ae 9d 2b bd a1 84 af 3d 34 71 86 3d 51 7d 06 3c
       -0.041898422 0.08570219 0.065645605 0.008208589
0002d0 29 b2 ee 3d 96 6f 81 3c dc 87 55 3d 56 cb 1c bb
       0.11655075 0.015800279 0.05213152 -0.0023924909
0002e0 82 13 b1 bd bd 55 2b 3d 74 33 7f 3c ff ce 87 bd
       -0.08646299 0.041829813 0.015576232 -0.06631278
0002f0 95 64 94 bd 6d 45 69 3b fc 97 a9 3c f2 d5 67 bd
       -0.07245747 0.003559436 0.020702355 -0.05660052

exp_avg f4 [128, 142]
000000 c8 ee 50 37 2e 13 b0 37 f2 23 a9 3c 31 10 e6 ba
       1.2453362e-05 2.0989766e-05 0.020647023 -0.0017552433
000010 64 70 53 3b 52 42 46 3b 78 0e 41 3b 4b a5 37 3b
       0.0032263035 0.0030251932 0.0029458087 0.0028022106
000020 3e a3 52 37 4f 82 8c 3b 81 18 cc 3c d1 93 b1 3a
       1.2554983e-05 0.004287995 0.024914028 0.0013548081
000030 6e 86 93 3b 1f b6 ac 3c d3 41 cf 3c 56 a6 82 3b
       0.0045021093 0.021082936 0.025299942 0.003987114
000040 db 07 1b bc f7 49 e1 bb 91 e3 10 3b 11 1a ab bc
       -0.009462322 -0.0068752724 0.0022108296 -0.020886453
000050 ad c0 a5 bc 27 9e 69 bc af 44 30 3b 66 83 84 bc
       -0.020233477 -0.014258898 0.0026896407 -0.016175937
000060 4d f5 e3 3b 74 70 53 3c 2f 27 b4 3c 66 6d 04 bb
       0.0069567324 0.012905229 0.02199134 -0.0020206808
000070 b8 c7 e1 bb e0 8a 2d 3d 04 d5 28 3d fe 89 2e 3d
       -0.0068902634 0.04236877 0.041218773 0.04261207
000080 2d 4b 0e 3c 75 a8 3e 3c 71 7c 27 38 dc 09 99 3c
       0.0086849155 0.011636843 3.9931798e-05 0.01868146
000090 18 c9 92 3c 2b 89 43 3b d8 77 a8 3c 67 f6 a3 3c
       0.017918155 0.0029836397 0.020564958 0.020014955
0000a0 b7 16 81 37 6a 08 46 3b bc 8f 81 ba 88 94 66 bb
       1.5388576e-05 0.0030217418 -0.0009884755 -0.0035183746
0000b0 f7 5f db 39 d4 7d 0e 3a e7 f8 d2 b9 d5 b2 60 3b
       0.00041842434 0.000543562 -0.00040239768 0.003428628
0000c0 9f cb 94 3c 91 b0 ac 3c 08 e8 8d 3c 23 82 59 3c
       0.0181635 0.021080287 0.017322555 0.013275656
0000d0 2f f7 93 3c c5 14 7d 3a 6c 95 dc b9 3e d0 69 3b
       0.018062202 0.0009654279 -0.00042072998 0.00356771
0000e0 f8 9b b6 3c 07 08 ce 3c 16 3b 92 3b 6e 33 fe 39
       0.022291169 0.025150312 0.00446261 0.00048484973
0000f0 c2 18 b2 3c 78 cd b2 3c 62 4d 9a 3c 70 e1 d8 38
       0.021740321 0.02182649 0.018835727 0.000103416736
000100 39 cb a8 3c cf 4b 90 38 f3 6c 19 3b f6 b6 45 b9
       0.020604717 6.8805755e-05 0.0023410886 -0.00018855542
000110 af 6d da b6 9e 77 a8 3c 59 15 2c b9 ae ae 26 3b
       -6.509675e-06 0.02056485 -0.00016411151 0.0025433707
000120 00 00 00 00 00 00 00 00 cf a3 92 3c ea 40 a2 3c
       0.0 0.0 0.017900376 0.019806344
000130 01 df b6 3c 00 00 00 00 00 00 00 00 54 c8 0e bb
       0.022323133 0.0 0.0 -0.0021786885
000140 00 00 00 00 00 00 00 00 00 00 00 00 00 00 00 00
       0.0 0.0 0.0 0.0
000150 9e b3 13 bb 00 00 00 00 00 00 00 00 00 00 00 00
       -0.002253748 0.0 0.0 0.0
000160 00 00 00 00 da 2f 91 3c 25 e1 89 3c 36 ab 2e 3b
       0.0 0.017723013 0.01683099 0.0026652343
000170 23 62 4f 3b c2 52 69 3b dd b9 68 3c aa 76 84 3c
       0.0031644187 0.0035602306 0.0142044695 0.016169865
000180 36 22 07 3b 00 00 00 00 00 00 00 00 17 da 38 3c
       0.0020619757 0.0 0.0 0.011282465
000190 e3 e7 5c 3c c8 5a e9 b9 00 00 00 00 00 00 00 00
       0.0134830205 -0.0004450886 0.0 0.0
0001a0 fa 3a 1e ba 00 00 00 00 00 00 00 00 00 00 00 00
       -0.000603601 0.0 0.0 0.0
0001b0 00 00 00 00 ed ee 52 36 00 00 00 00 00 00 00 00
       0.0 3.1431512e-06 0.0 0.0
0001c0 00 00 00 00 00 00 00 00 8c f5 24 3c 61 6f 17 bc
       0.0 0.0 0.010068309 -0.009242863
0001d0 91 a8 8a 3c 4b 74 8d 3c c5 30 8f 3c fb c7 cf bc
       0.016926082 0.017267367 0.01747931 -0.025363913
0001e0 52 19 d2 bc 5d 6a 97 bc 00 00 00 00 00 00 00 00
       -0.02564684 -0.018483335 0.0 0.0
0001f0 b9 b3 ee bb 31 fd f6 bb 1f 0f bd b9 00 00 00 00
       -0.007284608 -0.007537507 -0.00036060155 0.0
000200 00 00 00 00 b4 43 92 ba 00 00 00 00 00 00 00 00
       0.0 -0.0011159093 0.0 0.0
000210 00 00 00 00 00 00 00 00 b8 43 92 ba 00 00 00 00
       0.0 0.0 -0.0011159098 0.0
000220 00 00 00 00 00 00 00 00 00 00 00 00 6c a1 9d 3b
       0.0 0.0 0.0 0.0048105028
000230 fb a7 52 bc eb 63 ca 3d 0b 1a f2 37 e2 d6 f2 37
       -0.0128574325 0.09882339 2.8860775e-05 2.894871e-05
000240 23 b6 ab bc f3 3c 44 b9 92 96 b3 bb db 00 87 bb
       -0.020960873 -0.00018714722 -0.005480596 -0.004119975
000250 b4 72 99 bb 96 c0 88 bb 47 04 f4 37 d0 90 9e bb
       -0.004682863 -0.0041733487 2.9089058e-05 -0.0048390403
000260 0c 97 d3 bc a8 da 83 bb 61 7a b8 bb 25 20 bb bc
       -0.02582886 -0.0040238686 -0.005629823 -0.022842476
000270 0f 5c e8 bc 50 4e 92 bb 03 47 cf bb 60 bc b5 bb
       -0.02836421 -0.004464902 -0.006325604 -0.0055461377
000280 a3 4b 00 bb 3b 9c 8f bc 70 a7 95 bc 82 17 82 bc
       -0.0019576333 -0.017530551 -0.018268317 -0.01588035
000290 b7 01 31 3a c7 b1 57 bc 69 77 09 3b ef 32 fc b8
       0.00067522697 -0.013164944 0.0020975715 -0.000120257835
0002a0 04 4f 63 3b 1e 86 1b bc 8a 2b 46 bb 03 24 89 bc
       0.0034684548 -0.009492425 -0.0030238354 -0.016740805
0002b0 43 91 9c bc 5e c0 94 bc f4 68 da bc 5e d6 f4 bc
       -0.019112235 -0.018158134 -0.026661374 -0.029887374
0002c0 3f 1e 9d bb 9f 86 fd bc 6e 00 fd bc 05 f4 c3 bb
       -0.0047948654 -0.030947981 -0.030883994 -0.005980017
0002d0 ca 7b e9 bc 86 f9 c7 bc 23 31 cd ba c2 f7 9b bb
       -0.02850141 -0.024410974 -0.0015654903 -0.0047597596
0002e0 65 62 f2 bb 54 00 58 bb 57 e5 10 bc cc fb 06 bc
       -0.0073969834 -0.003295918 -0.008843741 -0.008238744
0002f0 ab 3d ed bb 17 37 fd bb 46 85 17 3b 09 1d d2 b9
       -0.0072400174 -0.0077275145 0.0023120209 -0.00040075954
000300 f7 2e 61 bb 0c 53 8e 3a 42 b0 83 bb 82 78 02 bc
       -0.0034360269 0.001085849 -0.0040188143 -0.007963302
000310 a6 94 ed bb 88 2b e6 bb d2 8f c1 bc 24 70 d7 bc
       -0.0072503863 -0.0070242323 -0.02362815 -0.02629859
000320 a4 3b 86 bb fa 9d 60 b9 cc 06 f2 bc 53 ae f1 bc
       -0.004096465 -0.00021421156 -0.029544257 -0.02950207
000330 cc bc cf bc 0b d1 98 38 26 08 db bc 55 3e 03 bd
       -0.02535858 7.286862e-05 -0.026737284 -0.032041866
000340 c7 15 ec bc ae 4e 8e b8 89 9f 45 b6 d3 95 dc bc
       -0.028818978 -6.785743e-05 -2.944815e-06 -0.02692691
000350 c7 3b 02 bd d8 82 eb bc 00 00 00 00 00 00 00 00
       -0.03179529 -0.028748915 0.0 0.0
000360 c5 1c f6 3a c0 cc 55 3a c4 fa 6c 3b 00 00 00 00
       0.0018776885 0.00081558153 0.003616021 0.0
000370 00 00 00 00 fa 52 c9 3a 00 00 00 00 00 00 00 00
       0.0 0.0015359812 0.0 0.0
000380 00 00 00 00 00 00 00 00 dc de ba 3a 00 00 00 00
       0.0 0.0 0.0014257091 0.0
000390 00 00 00 00 00 00 00 00 00 00 00 00 20 2b b7 bc
       0.0 0.0 0.0 -0.02235943
0003a0 c3 c6 8f bc ef a3 d2 bc 36 e8 d4 bc cc b9 d5 bc
       -0.017550832 -0.025712935 -0.025989633 -0.026089571
0003b0 4b 2d 52 3b 27 45 cf 3b ac e6 e3 ba 00 00 00 00
       0.0032070454 0.0063253823 -0.0017387471 0.0
0003c0 00 00 00 00 ca e4 c8 3b 04 54 28 3c 32 4d a2 3a
       0.0 0.0061307894 0.010273937 0.0012382625
0003d0 00 00 00 00 00 00 00 00 0e 3d 3b bb 00 00 00 00
       0.0 0.0 -0.0028570327 0.0
0003e0 00 00 00 00 00 00 00 00 00 00 00 00 f6 bc a2 b8
       0.0 0.0 0.0 -7.759959e-05
0003f0 00 00 00 00 00 00 00 00 00 00 00 00 00 00 00 00
       0.0 0.0 0.0 0.0

exp_avg_sq f4 [128, 142]
000000 57 d6 0f 3c 3b d2 08 3c d7 6b 00 3c 6e af 01 3c
       0.00877913 0.008350904 0.007838211 0.007915361
000010 e8 17 25 3c 4a e7 0c 3c ac 95 02 3c eb 1d 1b 3c
       0.0100765005 0.0086000655 0.007970255 0.009467582
000020 be ee ee 3b 02 e5 07 3c c7 fc 04 3c 72 24 4e 3c
       0.007291644 0.008294346 0.008116907 0.012581931
000030 91 f9 39 3c ba 94 df 3b d3 45 34 3c 5f b8 ed 3b
       0.011351005 0.0068231495 0.0110029755 0.0072546448
000040 02 e2 0a 3c e0 43 36 3c 07 36 29 3c ff 11 0b 3c
       0.008476736 0.011124581 0.0103278225 0.008488177
000050 c6 35 53 3c bd 88 4a 3c 6e 3b 6a 3c 22 a9 2d 3c
       0.012891239 0.0123617025 0.014296396 0.010599406
000060 a6 a1 b8 3b 8e b9 31 3c 1f 3e 46 3c 94 2d 46 3c
       0.0056345044 0.010847462 0.012099772 0.012095828
000070 c5 d2 60 3c e5 3e 2d 3c af 1d 3e 3c 5e aa 2c 3c
       0.013722126 0.010574077 0.011603757 0.010538666
000080 fb df 2b 3c 98 dc 2c 3c e3 71 20 3c 1d 66 58 3c
       0.010490413 0.0105506405 0.009792778 0.013207939
000090 1b 43 28 3c 01 98 4e 3c 8c fb 2a 3c 5e 18 05 3c
       0.010269905 0.012609483 0.01043595 0.008123485
0000a0 d0 bd 2f 3c ee cf 22 3c 6e 02 3f 3c a4 11 36 3c
       0.010726407 0.00993727 0.011658294 0.011112604
0000b0 24 13 53 3c 00 8a 4f 3c 8a 9c 1c 3c 5e ec 12 3c
       0.012882981 0.012667179 0.009558806 0.008967487
0000c0 e2 88 23 3c 69 5a 0f 3c 12 5b 20 3c 93 aa f5 3b
       0.009981366 0.008749583 0.009787338 0.0074971407
0000d0 bb f4 1a 3c 04 1b 2d 3c 77 60 57 3c a8 ce 07 3c
       0.009457762 0.010565523 0.013145558 0.008289017
0000e0 e2 59 17 3c aa 7f 09 3c 48 c8 4f 3c eb 2d 43 3c
       0.009237738 0.008392254 0.012682028 0.011912803
0000f0 c3 33 39 3c 07 5c 04 3c d7 71 30 3c f7 a4 dc 3b
       0.011303845 0.008078582 0.010769329 0.0067335325
000100 d0 a0 2e 3c a3 7c 1c 3c 27 c0 d5 3b dc 47 44 3a
       0.010658458 0.0095512 0.0065231505 0.00074875145
000110 f2 5f dc 39 75 3d 36 3c fb 1f f8 3b 31 ec b2 3b
       0.00042033155 0.011123051 0.0075721717 0.005460285
000120 00 00 00 00 00 00 00 00 90 1c 92 3b f2 09 6e 3b
       0.0 0.0 0.0044589713 0.0036321846
000130 ba 95 f5 3a 00 00 00 00 00 00 00 00 39 6a 3d 3a
       0.0018736639 0.0 0.0 0.0007225606
000140 00 00 00 00 00 00 00 00 00 00 00 00 00 00 00 00
       0.0 0.0 0.0 0.0
000150 7b 2c 0b 3a 00 00 00 00 00 00 00 00 00 00 00 00
       0.00053090573 0.0 0.0 0.0
000160 00 00 00 00 4f f9 5f 3c cf 03 47 3c bf 78 1e 3c
       0.0 0.01367028 0.012146904 0.009672343
000170 2f b4 74 3a 2c 8a 07 3a 46 c3 55 3c 03 d0 27 3c
       0.0009334711 0.00051704305 0.013047045 0.010242465
000180 69 08 e9 3b 00 00 00 00 00 00 00 00 a2 68 2c 3c
       0.0071115983 0.0 0.0 0.010522993
000190 90 9b 07 3c c2 6f b6 3b 00 00 00 00 00 00 00 00
       0.008276835 0.005567522 0.0 0.0
0001a0 b5 50 a9 3a 00 00 00 00 00 00 00 00 00 00 00 00
       0.0012917729 0.0 0.0 0.0
0001b0 00 00 00 00 1e b0 76 3a 00 00 00 00 00 00 00 00
       0.0 0.0009410399 0.0 0.0
0001c0 00 00 00 00 00 00 00 00 51 b5 42 3c 47 7b 2a 3c
       0.0 0.0 0.0118840495 0.010405368
0001d0 d0 6b df 3b 22 ef 1a 3a da 5a f7 39 a9 fe 33 3c
       0.006818272 0.00059102674 0.000471792 0.010986009
0001e0 2c e2 22 3c d1 61 c6 3b 00 00 00 00 00 00 00 00
       0.009941619 0.006054141 0.0 0.0
0001f0 ca dd dd 3b 55 0d b4 3b 86 d8 7d 3b 00 00 00 00
       0.006770824 0.0054947534 0.0038733794 0.0
000200 00 00 00 00 b3 c6 95 3a 00 00 00 00 00 00 00 00
       0.0 0.0011427015 0.0 0.0
000210 00 00 00 00 00 00 00 00 b5 ba 71 3a 00 00 00 00
       0.0 0.0 0.0009221242 0.0
000220 00 00 00 00 00 00 00 00 00 00 00 00 d5 0c 8a 3d
       0.0 0.0 0.0 0.06740729
000230 9e 18 b7 3c e0 b3 9a 3e 67 0f f3 3b 2d e6 c5 3b
       0.022350606 0.3021536 0.0074176076 0.006039402
000240 a5 d5 c5 3b 52 4c b8 3b 08 3d 0b 3c 6c bb e9 3b
       0.0060374313 0.0056243325 0.008498438 0.007132938
000250 28 cf cd 3b 2e a5 e2 3b a9 fd b2 3b a4 68 09 3c
       0.0062807985 0.0069166636 0.0054623676 0.008386765
000260 d5 be 06 3c c5 f4 16 3c 7a 47 23 3c 43 38 01 3c
       0.008224209 0.009213631 0.009965772 0.007886949
000270 26 8e 18 3c aa a6 f7 3b 37 9b 8c 3b 44 9e ed 3b
       0.009311235 0.0075577097 0.004290964 0.0072515327
000280 ea cb bf 3b 74 21 b0 3b ca 15 f1 3b 10 b2 e6 3b
       0.005853166 0.0053750817 0.007357334 0.0070402697
000290 69 48 f3 3b 93 30 c4 3b d8 8c 92 3b 37 a1 0a 3c
       0.0074244034 0.005987236 0.0044723563 0.008461288
0002a0 8f dd 03 3c f3 80 0e 3c 0c 3a 1f 3c 54 5c 1c 3c
       0.008048429 0.008697736 0.009718429 0.009543497
0002b0 14 22 0a 3c 4c 43 15 3c dc 80 cb 3b 1b 09 ed 3b
       0.008430976 0.009110283 0.0062104296 0.0072337515
0002c0 ae b8 04 3c 04 49 10 3c 8a e7 0f 3c a9 35 25 3c
       0.008100672 0.008806471 0.008783231 0.010083594
0002d0 e8 37 0e 3c ed 6e b2 3b 1b 2f 05 3c 64 ab 0b 3c
       0.008680321 0.0054453523 0.008128907 0.008524749
0002e0 6a 64 27 3c 0e 54 26 3c 74 6c 05 3c 03 27 30 3c
       0.010216812 0.010151876 0.008143533 0.010751489
0002f0 57 a3 02 3c 6f bc d4 3b 3d 4e 0d 3c 4b f0 18 3c
       0.007973514 0.0064921896 0.0086246105 0.009334634
000300 20 70 eb 3b 71 72 08 3c 5e 00 e4 3b a3 67 01 3c
       0.007184997 0.008328066 0.0069580516 0.007898244
000310 7f 3c dc 3b af ab a9 3b 97 2a 99 3b 7e 1e 0e 3c
       0.006721079 0.005177937 0.0046742666 0.008674262
000320 86 72 06 3c ee ce 0a 3c f6 f0 db 3b 73 d2 ed 3b
       0.008206015 0.008472187 0.0067120744 0.0072577535
000330 8c 2a cb 3b 45 74 88 3b 34 c3 db 3b d6 05 05 3c
       0.0062001403 0.004164251 0.0067066196 0.008119067
000340 e7 53 7c 3b 28 48 52 3a 24 b8 a1 39 0c aa 06 3c
       0.0038502158 0.00080216164 0.00030845508 0.008219253
000350 9e 5b 90 3b ca c5 47 3b 00 00 00 00 00 00 00 00
       0.004405453 0.0030482882 0.0 0.0
000360 28 bb 63 3b bb 60 24 3b 97 4a c1 3a 00 00 00 00
       0.0034749005 0.002508207 0.0014746961 0.0
000370 00 00 00 00 96 90 d6 39 00 00 00 00 00 00 00 00
       0.0 0.00040924986 0.0 0.0
000380 00 00 00 00 00 00 00 00 17 55 4b 39 00 00 00 00
       0.0 0.0 0.00019391287 0.0
000390 00 00 00 00 00 00 00 00 00 00 00 00 bf d3 24 3c
       0.0 0.0 0.0 0.01006025
0003a0 0f d5 29 3c 71 6e 07 3c 9e 07 0c 3a 10 f4 c7 39
       0.0103657385 0.008266077 0.0005341711 0.00038138079
0003b0 27 c1 2c 3c c9 1f 10 3c e9 cb cb 3b 00 00 00 00
       0.010544098 0.008796641 0.0062193763 0.0
0003c0 00 00 00 00 7a a5 b9 3b e8 ea af 3b 06 1a 74 3b
       0.0 0.0056654783 0.005368579 0.0037246956
0003d0 00 00 00 00 00 00 00 00 80 37 9e 39 00 00 00 00
       0.0 0.0 0.0003017746 0.0
0003e0 00 00 00 00 00 00 00 00 00 00 00 00 ea 18 80 39
       0.0 0.0 0.0 0.00024432625
0003f0 00 00 00 00 00 00 00 00 00 00 00 00 00 00 00 00
       0.0 0.0 0.0 0.0

exp_avg f4 [128]
000000 59 5b 56 3c a2 bf e7 bc 7f 96 1f 38 de e8 07 3b
       0.013083302 -0.02828962 3.8048714e-05 0.0020738165
000010 6d 3d 29 ba 9f b0 b3 bb 47 12 d2 bc ed f7 65 25
       -0.00064559915 -0.0054837014 -0.025643481 1.9946584e-16
000020 d9 08 7f 33 f8 df e4 bb cb 8d 85 bc a4 85 1d 36
       5.937986e-08 -0.006984707 -0.016302964 2.3472612e-06
000030 43 8d c6 ba 5a dd 26 3d 04 00 00 00 df 76 1f 03
       -0.00151483 0.04073844 6e-45 4.686236e-37
000040 bf ab ed 2f 99 51 4b b4 87 8d 8b bc ed 63 26 ab
       4.3232082e-10 -1.8935533e-07 -0.017035259 -5.911372e-13
000050 b8 15 53 a8 8e d9 c2 39 44 e0 08 3d 55 59 8a bc
       -1.1717562e-14 0.00037164654 0.033417 -0.0168883
000060 ec f6 d7 2d 2b 82 12 3c 76 97 0d 3b 51 88 95 30
       2.4552325e-11 0.008942167 0.002160517 1.087992e-09
000070 96 85 f1 bb fc 89 c7 bb 9a a2 df bc fe 2e a4 bb
       -0.007370661 -0.006089447 -0.027299214 -0.0050104847
000080 a3 f3 12 b9 4f 96 b1 37 ea f1 04 bc 81 01 97 3c
       -0.00014014407 2.1170037e-05 -0.008114317 0.018433334
000090 06 72 f2 b3 43 cc b3 ba 2c 5d 2e 3d f3 97 20 bc
       -1.1289744e-07 -0.0013717491 0.042569324 -0.0098018525
0000a0 b9 17 c3 bb 99 74 28 38 fe 26 48 bd cf 36 3d b9
       -0.0059537557 4.016291e-05 -0.04886531 -0.00018044862
0000b0 98 d1 f9 37 9c f1 98 ba 10 66 9c 37 43 a7 a6 39
       2.9780713e-05 -0.0011668685 1.8644176e-05 0.00031786607
0000c0 2f 97 05 bb b1 74 a0 ba 4c e4 4c bc c8 2b 75 3c
       -0.0020384302 -0.0012241808 -0.012505602 0.014964052
0000d0 34 41 89 31 69 c6 22 33 d7 9e a6 1d b3 d2 a7 bb
       3.9946375e-09 3.7899017e-08 4.410407e-21 -0.005121553
0000e0 42 7b db a8 f1 f9 1b 3d 72 c0 b5 3c e8 dc 5e 3c
       -2.4367339e-14 0.03808016 0.022186492 0.013602473
0000f0 04 00 00 80 ec f2 70 ba fc 35 72 b8 e3 65 81 02
       -6e-45 -0.00091914716 -5.7747573e-05 1.9013327e-37
000100 79 3b c7 3a 56 13 f5 b9 8f eb e6 31 eb d0 fa 3c
       0.0015200219 -0.00046744448 6.720661e-09 0.030617198
000110 fb dc 98 3c c1 f2 54 bb 6c 04 2a 2c ae b9 03 bb
       0.01866006 -0.0032493325 2.4160908e-12 -0.0020099687
000120 41 36 85 b6 f2 9e 53 3b 16 a8 8f 3c dc 5c 88 ba
       -3.970025e-06 0.0032290784 0.017536204 -0.0010403651
000130 73 2c be b7 48 30 3f 3d cc ce 27 3c 5f eb 98 3c
       -2.2670463e-05 0.046676904 0.010242175 0.018666921
000140 29 eb c2 ba 99 0b 60 3c c8 52 56 3a af 0e 38 bc
       -0.0014871109 0.01367464 0.00081757875 -0.01123397
000150 d3 2e ee bc 24 6c e6 3c fa fb 31 a2 ee fd 6c b7
       -0.029075062 0.028127737 -2.4121368e-18 -1.4125819e-05
000160 0b 8c 60 bb 8f d0 25 bd 6b f0 77 3c 66 01 1f b7
       -0.003426316 -0.0404821 0.015133004 -9.477464e-06
000170 df 01 f2 37 57 4b 65 ba ef 6f 0c 3d 6a 37 31 3a
       2.884952e-05 -0.0008746883 0.034286436 0.00067602715
000180 f1 e1 6a 32 32 85 ef bc c1 65 14 bd 4a c4 48 3d
       1.3671966e-08 -0.029238317 -0.036229853 0.04901532
000190 18 e4 b7 b8 a7 7c 17 bd c6 26 00 12 9b cc cb 2d
       -8.768606e-05 -0.036984112 4.043747e-28 2.3169291e-11
0001a0 c3 6f 10 bc 8e 2a 05 bc 25 7c e9 b7 a5 ed 36 3a
       -0.008815709 -0.008127822 -2.7833574e-05 0.0006978161
0001b0 04 00 00 00 ff c6 52 b7 7d bd 4c 27 42 86 92 3c
       6e-45 -1.2563308e-05 2.8413409e-15 0.017886285
0001c0 c2 8f 8d bc 08 e4 88 3c 9a f6 0f 00 ba 3c e7 36
       -0.017280463 0.016710296 1.465996e-39 6.891406e-06
0001d0 a7 fe 76 3d 42 f8 51 bc 4c c3 a7 3b 90 34 14 bb
       0.06030145 -0.012815537 0.0051197167 -0.0022614338
0001e0 49 94 18 3d 3d 22 12 38 c8 f0 f7 ba f8 35 ad 3c
       0.03725079 3.4841e-05 -0.0018916363 0.021143898
0001f0 6b ad 16 33 5f 1d 1c ba a6 8c 6e 19 13 e1 c9 bc
       3.508232e-08 -0.00059553044 1.2332715e-23 -0.024643457

exp_avg_sq f4 [128]
000000 40 20 a2 3c 3e 82 6b 3c 37 57 ae 39 0f 1f bb 3b
       0.019790769 0.014374314 0.00033252846 0.0057104896
000010 ff a5 81 3a 8f d8 5b 3c fb b9 8f 3c 99 fc 1d 39
       0.000989139 0.013418331 0.017544737 0.00015066787
000020 4c 19 74 3b fd 07 68 3c 0c 3c 10 3c 5c 21 98 3a
       0.0037246523 0.014162061 0.008803379 0.0011606622
000030 f1 f3 1a 3c 52 2c 90 3c 08 a4 1e 3a f0 cb 07 3b
       0.009457574 0.017599259 0.0006051664 0.0020720921
000040 69 04 ae 39 a3 b6 24 3a 01 2d 94 3c 93 89 b2 3a
       0.00033191152 0.00062833185 0.018087866 0.0013621323
000050 93 e7 d0 39 5c 95 a2 3a 95 8c 75 3c 17 e8 ae 3c
       0.00039845388 0.0012404132 0.014987131 0.021350903
000060 c7 f4 29 3a de 60 81 3b e9 58 b9 3b 11 dd e0 3b
       0.0006483313 0.003948315 0.005656351 0.0068622907
000070 81 04 90 3c 26 cd 82 3b f2 c1 15 3c 67 36 f4 3b
       0.017580273 0.0039917408 0.009140478 0.0074527743
000080 5a f6 5d 3c 00 fc 58 3b fe c0 b7 3c e0 30 ac 3c
       0.013547504 0.0033109188 0.022430893 0.0210194
000090 ff 89 a1 3b e8 f6 bb 3a 7b 30 9c 3c 6f b7 2a 3c
       0.0049297805 0.0014340552 0.019066086 0.010419711
0000a0 5b 63 7d 3c ff 7a 58 3a 41 a6 ac 3b 2c ce d1 3a
       0.015465583 0.0008258074 0.0052688424 0.0016006879
0000b0 df f2 c1 3b b2 f9 16 3a a3 d0 0e 3a f8 80 26 3b
       0.005918845 0.00057592534 0.00054479594 0.0025406461
0000c0 a7 e0 2e 3c 5a 9e 08 3c 31 b1 47 3c 7a 1b a1 3c
       0.0106736785 0.008338535 0.012188242 0.019666422
0000d0 0c 4f f0 3b b5 c3 e0 3b 81 53 05 3c b0 a8 7d 3c
       0.007333642 0.0068592676 0.008137585 0.015482113
0000e0 1b 11 26 3b aa 77 60 3c 88 a4 b1 3c 67 86 82 3c
       0.0025339785 0.013700405 0.0216849 0.015933229
0000f0 10 85 a6 38 23 80 8e 3a be da 9c 39 fc dc 27 3a
       7.940282e-05 0.0010871928 0.00029917614 0.00064034737
000100 6e cc 7b 3b 20 03 28 3b 12 43 3a 39 64 14 cf 3c
       0.003842141 0.0025636628 0.00017763328 0.025278278
000110 8d 3e f9 3a 85 96 7d 3c c2 33 e4 37 a1 ac c7 3b
       0.0019015834 0.015477781 2.720382e-05 0.006093577
000120 4f 73 f8 3a f7 fb fa 3a a0 bd 99 3c 7d fd 20 39
       0.0018955263 0.0019148578 0.018767178 0.00015353221
000130 94 7e d3 39 45 ed 47 3c 71 ba a6 3b bd f9 20 3c
       0.00040339364 0.012202566 0.0050881435 0.009825167
000140 21 13 0c 3c d5 74 77 3c 70 97 99 3b 3d 37 a6 3c
       0.008549483 0.0151035385 0.004687242 0.020290012
000150 ca f2 43 3c 2c 6e 76 3c e6 26 56 3a 48 b7 3d 3a
       0.011959741 0.015040915 0.00081692485 0.0007237089
000160 80 26 6e 3c 1a 97 bb 3c dd b9 a2 3c f7 10 c2 3a
       0.014535546 0.0228992 0.019864017 0.0014806081
000170 ed 3f 3e 3b e9 68 a4 3a 7b fd d3 3c ff 6e d4 39
       0.0029029802 0.0012543473 0.025877705 0.0004051849
000180 7c b4 1e 39 aa 52 a2 3c 57 f1 4a 3c c9 45 80 3c
       0.0001513529 0.019814808 0.012386641 0.015658276
000190 8c 3a 97 3b 5b 86 19 3b 53 eb 04 39 e2 19 f9 39
       0.0046151336 0.002342603 0.00012676166 0.00047512265
0001a0 98 d8 1e 3c e0 71 81 3b 74 d0 ff 3a 3a 6c a8 3a
       0.009695195 0.0039503425 0.001951708 0.0012849637
0001b0 22 12 d1 37 bb 1b 8b 3a ea ae dc 39 e5 61 99 3b
       2.4923185e-05 0.0010613123 0.0004209199 0.0046808594
0001c0 43 1d 9d 3c 5a 08 a9 3c f6 09 a1 37 a9 b6 89 39
       0.019178992 0.020633865 1.9197334e-05 0.0002626677
0001d0 cf 84 32 3c ac c8 81 3c 91 4b 15 3b ff 22 af 3b
       0.010895922 0.015842758 0.0022780637 0.005344748
0001e0 ea 12 69 3c d4 56 7b 38 7e e1 16 3c 4c f9 ae 3c
       0.014225701 5.992393e-05 0.009209035 0.021359108
0001f0 cd 26 50 3b 50 1b b8 39 c6 c4 3b 3c 76 7a 5e 3c
       0.0031761408 0.00035115564 0.011460489 0.013579002
