weights/policy_checkpoint400.pt (torch, 522961 bytes, 12 tensors)

net.0.weight f4 [128, 142]
0.08180372 0.11553947 0.01790464 0.12439418 -0.0035303922 0.056717034 -0.010761762 0.074440695
0.067512676 -0.04860016 0.09423354 0.03806235 0.06505926 0.026941672 0.057319973 0.005563085
0.080129795 0.019763062 -0.024493992 0.022601036 -0.021611923 0.015664738 0.002199649 0.07740383
-0.04142487 -0.027511893 -0.00744489 -0.048531096 0.011244984 -0.0841428 0.099092364 -0.060915217
0.08126778 0.012236621 -0.04246913 0.053399846 0.009870175 0.08864847 0.044154324 -0.009927082
0.054724306 -0.012465186 0.05382727 0.082068905 0.059567202 -0.0072779446 0.087271295 0.0401093
0.06888682 0.000403398 -0.085868955 -0.0104403915 -0.018127384 0.1240328 0.06914091 0.08168422
0.043813746 0.018007921 0.08898329 -0.03755933 0.01687336 -0.041506805 0.06212773 -0.011585682
0.045067593 -0.009549957 0.07687946 -0.066020295 -0.05120936 -0.012265918 0.119765386 0.06539916
0.08075029 -0.06925565 -0.056342945 -0.043559525 -0.039607435 0.033990216 0.03004906 0.091776274
-0.043337457 -0.057207987 0.04452513 -0.033920087 0.034263846 -0.019913828 0.04800503 -0.06520171
-0.042349268 0.05746324 0.049314972 0.004028966 0.07308027 0.08342733 -0.043795258 -0.037828647
0.08477471 -0.028316708 -0.029750356 -0.05317952 -0.029460555 0.038720243 -0.011076622 -0.060915
0.0532113 -0.05732293 -0.07119587 -0.046210583 -0.07344617 -0.018340686 0.08388532 0.015850035
0.025860189 -0.07826913 -0.052513443 -0.044668563 0.004551787 -0.073745176 -0.03987014 -0.05940431
-0.009905738 -0.05089167 -0.0058151716 -0.056865424 -0.049221527 -0.05733677 -0.043665905 -0.06623498
0.07036283 -0.010919549 0.07220289 0.02614739 -0.071061626 0.058074307 -0.003186999 -0.03216801
-0.069657974 -0.083428115 0.024009872 -0.01100048 0.05109853 -0.04339544 0.06869007 -0.060124073
-0.03130542 0.03256368 0.05632316 0.06683935 0.093916066 -0.050918132 0.044010244 -0.02478053
0.011013559 -0.036691144 0.1005423 -0.05462717 0.06488103 0.03397342 0.052914254 -0.0073975944
0.12396593 0.064051256 0.042239472 -0.049141 0.07050605 0.014756583 -0.01052548 0.106858954
0.059767075 0.00420603 -0.02501787 0.011558739 0.07330437 0.0014810526 -0.018102191 0.0022336307
-0.023282435 0.06465322 0.07131358 -0.06054024 0.052090965 0.0815233 0.056846596 0.016531918
0.074061394 0.09192026 0.049433075 0.016059106 0.013329913 0.03784305 0.0063575706 0.014203458
0.083932094 0.10665455 0.018460844 -0.006654922 0.0056212246 -0.0073038684 0.032380026 0.057699744
-0.044366214 0.007074738 0.115887344 0.038864717 0.010266363 -0.036906727 -0.027906092 -0.059821293
-0.011087581 0.056835793 0.076015875 0.046060804 -0.08616011 -0.056811772 -0.01324368 0.08117817
0.027536068 -0.023892725 0.042494565 -0.03196287 -0.05431649 0.058401223 -0.038157728 -0.016822796
-0.083482124 0.056163948 0.05420702 0.030583814 -0.058513954 -0.08282216 -0.06815655 0.054466743
0.05540839 0.08335718 0.049413294 0.0085308645 -0.0053223767 -0.05912441 -0.07138464 -0.078492716
0.034352895 -0.040941156 0.026368458 -0.050569776 -0.015291862 -0.059064515 -0.079886235 0.027836554
-0.024940168 0.051806293 -0.026921675 -0.09646702 -0.014806426 -0.0406791 -0.025674049 -0.0798897
00000000: b588 a73d f59f ec3d c0ac 923c 60c2 fe3d
00000010: 275e 67bb 1f50 683d 1a52 30bc 5d74 983d
00000020: 1644 8a3d f610 47bd 84fd c03d 44e7 1b3d
00000030: ca3d 853d c8b4 dc3c 59c8 6a3d 8a4a b63b
00000040: 171b a43d 25e6 a13c a0a7 c8bc cf25 b93c
00000050: 7d0b b1bc 5653 803c fd27 103b e685 9e3d
00000060: 20ad 29bd 9f60 e1bc 44f4 f3bb 8bc8 46bd
00000070: e23c 383c 0f53 acbd f0f0 ca3d 3c82 79bd
00000080: b96f a63d 1c7c 483c 1cf4 2dbd ccb9 5a3d
00000090: 84b6 213c 548d b53d 2adb 343d 33a5 22bc
000000a0: 9826 603d c83a 4cbc fc79 5c3d be13 a83d
000000b0: bdfc 733d d37b eebb 4bbb b23d a649 243d
000000c0: 8814 8d3d 2a7f d339 10dc afbd 2d0e 2bbc
000000d0: e17f 94bc e904 fe3d c099 8d3d 0e4a a73d
000000e0: 0b76 333d 5985 933c df3c b63d d0d7 19bd
000000f0: 003a 8a3c 0a03 2abd a679 7e3d dfd1 3dbc
00000100: cc98 383d 6c77 1cbc fa72 9d3d a635 87bd
00000110: e8c0 51bd fdf6 48bc 8e47 f53d ffef 853d
00000120: 6860 a53d e8d5 8dbd dcc7 66bd 796b 32bd
00000130: 683b 22bd 5339 0b3d 7229 f63c 33f5 bb3d
00000140: 9e82 31bd ec52 6abd fc5f 363d caef 0abd
00000150: 3f58 0c3d 5322 a3bc eca0 443d 7988 85bd
00000160: 6d76 2dbd 935e 6b3d 7ffe 493d 6b05 843b
00000170: 1cab 953d f3db aa3d a862 33bd 36f2 1abd
00000180: 5d9e ad3d 71f8 e7bc 05b7 f3bc c5d2 59bd
00000190: 4357 f1bc 1e99 1e3d b87a 35bc 0282 79bd
000001a0: 18f4 593d 73cb 6abd 24cf 91bd 4f47 3dbd
000001b0: f26a 96bd 353f 96bc 11cc ab3d efd7 813c
000001c0: bfd8 d33c 914b a0bd 5618 57bd 62f6 36bd
000001d0: 2827 953b b607 97bd df4e 23bd ef51 73bd
000001e0: ad4b 22bc c973 50bd 328d bebb b8eb 68bd
000001f0: 839c 49bd f6d9 6abd 05db 32bd 35a6 87bd
00000200: 631a 903d e8e7 32bc 1cdf 933d 0d33 d63c
00000210: c288 91bd 53df 6d3d f8dc 50bb 9ac2 03bd
00000220: d7a8 8ebd 5cdc aabd 5ab0 c43c 5b3b 34bc
00000230: b14c 513d 6bbf 31bd 61ad 8c3d a944 76bd
00000240: 1d3a 00bd 7e61 053d 1db3 663d 12e3 883d
00000250: 1157 c03d 888f 50bd 1644 343d 8a00 cbbc
00000260: 3772 343c 7449 16bd 1fe9 cd3d bdc0 5fbd
00000270: 58e0 843d b627 0b3d 9ebc 583d 8567 f2bb
00000280: d9e1 fd3d 4e2d 833d 4c03 2d3d 1348 49bd
00000290: 7a65 903d 98c5 713c 1073 2cbc ded8 da3d
000002a0: 52ce 743d bdd2 893b 47f2 ccbc dd60 3d3c
000002b0: 9a20 963d e11f c23a 0c4b 94bc 1b62 123b
000002c0: ceba bebc e868 843d db0c 923d 0bf9 77bd
000002d0: 565d 553d b0f5 a63d fad7 683d f26d 873c
000002e0: 80ad 973d b040 bc3d 567a 4a3d 638e 833c
000002f0: b565 5a3c 5001 1b3d 2b53 d03b 9fb5 683c
00000300: 97e4 ab3d b36d da3d 323b 973c 8811 dabb
00000310: 4032 b83b 4a55 efbb eba0 043d 9156 6c3d
00000320: 59b9 35bd 34d3 e73b 5856 ed3d 9c30 1f3d
00000330: 3f34 283c 822b 17bd 519b e4bc 2c07 75bd
00000340: afa8 35bc a6cc 683d 36ae 9b3d 41aa 3c3d
00000350: b674 b0bd 76b3 68bd 05fc 58bc be40 a63d
00000360: 5293 e13c adba c3bc c80e 2e3d 80eb 02bd
00000370: f87a 5ebd 1f36 6f3d 474b 1cbd f6cf 89bc
00000380: adf8 aabd 2b0c 663d 2e08 5e3d e88a fa3c
00000390: 54ac 6fbd aa9e a9bd a995 8bbd 8518 5f3d
000003a0: e8f3 623d 2bb7 aa3d 9865 4a3d 0ac5 0b3c
000003b0: 5567 aebb 702c 72bd 1c32 92bd cac0 a0bd
000003c0: 9fb5 0c3d eab1 27bd aa02 d83c 4122 4fbd
000003d0: b88a 7abc a2ed 71bd 659b a3bd 7c09 e43c
000003e0: 534f ccbc d632 543d d88a dcbc 8090 c5bd
000003f0: a796 72bc 219f 26bd 6252 d2bc 369d a3bd

net.0.bias f4 [128]
0.08573456 0.04003221 0.03271441 0.10081361 0.053937744 0.0828944 -0.005727819 -0.06811505
0.054001514 0.06008143 0.055139482 0.022805713 -0.015434016 0.06047281 -0.054112963 -0.004759012
0.06953815 -0.066629104 -0.041944854 -0.013997141 0.018639114 -0.0969411 0.05509959 0.0145584
0.0124082705 0.07674361 0.033573385 -0.006578001 -0.065318 0.05504059 -0.025606107 -0.016868211
0.058457363 0.052275673 0.023928327 -0.05014029 -0.08693588 0.024098769 0.03125053 0.020153943
0.10578697 -0.06519397 0.030186612 0.07300413 0.013152249 -0.037447922 -0.07700181 -0.0062577934
-0.02198201 -0.06466864 -0.034061257 0.055035044 -0.008425286 0.04291177 0.05691991 -0.06766013
-0.012449709 0.063568495 0.008153934 0.080440745 -0.0972903 0.06652146 0.020086968 -0.06057747
0.028485423 0.051603608 0.021190824 0.058871027 -0.02613314 -0.027866213 -0.0823021 0.072180346
0.021108342 0.022479042 -0.016557585 -0.07261355 -0.017739847 0.031401474 0.05854218 -0.013157193
0.029040562 -0.0038011738 -0.018022008 0.107074626 0.033457942 0.07844395 -0.09570532 -0.011060553
-0.041095708 0.06457102 0.0289554 -0.0035323328 0.045969505 -0.059014633 0.016077464 0.030129915
-0.075280055 0.008297112 0.0015390442 -0.056562696 -0.057688855 -0.06926379 -0.06675043 -0.051039103
0.026556458 0.040529307 0.0208499 -0.012470566 -0.09059925 -0.08714591 0.059975598 0.007600542
0.060666554 -0.08355397 -0.062289607 -0.033339325 0.060322627 -0.04933697 -0.05390917 -0.05985332
0.047657967 -0.0214798 -0.020483471 0.06077206 -0.06859017 -0.019063821 -0.037080895 -0.02625304
00000000: 9a95 af3d d1f8 233d 8cff 053d 5e77 ce3d
00000010: d3ed 5c3d 8ac4 a93d 6eb0 bbbb e77f 8bbd
00000020: b130 5d3d f217 763d f0d9 613d 0cd3 ba3c
00000030: f4de 7cbc 56b2 773d 8ea5 5dbd 7cf1 9bbb
00000040: 056a 8e3d d774 88bd 5ece 2bbd 4454 65bc
00000050: 0eb1 983c 0e89 c6bd 1cb0 613d 5b86 6e3c
00000060: 0f4c 4b3c c12b 9d3d 3f84 093d 468c d7bb
00000070: 72c5 85bd 3e72 613d e6c3 d1bc 342f 8abc
00000080: fd70 6f3d 041f 563d 5705 c43c e85f 4dbd
00000090: 700b b2bd c86a c53c 8e00 003d e219 a53c
000000a0: d7a6 d83d 6b84 85bd ea49 f73c 3083 953d
000000b0: 887c 573c fe62 19bd 20b3 9dbd 2d0e cdbb
000000c0: 9e13 b4bc fe70 84bd d183 0bbd 6d6c 613d
000000d0: 360a 0abc 41c4 2f3d da24 693d 6591 8abd
000000e0: ddf9 4bbc 3330 823d 1498 053c 1ebe a43d
000000f0: 2340 c7bd 673c 883d 6d8d a43c 1520 78bd
00000100: 435a e93c 4e5e 533d 6198 ad3c bf22 713d
00000110: 2b15 d6bc af47 e4bc 018e a8bd 4ad3 933d
00000120: 67eb ac3c f825 b83c c6a3 87bc 6ab6 94bd
00000130: 2853 91bc d59e 003d edc9 6f3d 4491 57bc
00000140: 79e6 ed3c 1d1d 79bb e4a2 93bc f149 db3d
00000150: 320b 093d 39a7 a03d 2701 c4bd 5237 35bc
00000160: f953 28bd d03d 843d e033 ed3c b67e 67bb
00000170: 854a 3c3d 54b9 71bd e3b4 833c 03d3 f63c
00000180: 6e2c 9abd 9cf0 073c c1b9 c93a 49ae 67bd
00000190: 264b 6cbd 2dda 8dbd 73b4 88bd 610e 51bd
000001a0: ee8c d93c 0f02 263d 69cd aa3c 5851 4cbc
000001b0: 198c b9bd 8e79 b2bd f9a8 753d f80d f93b
000001c0: 7e7d 783d 581e abbd 6323 7fbd d18e 08bd
000001d0: dc14 773d 9015 4abd ddcf 5cbd c128 75bd
000001e0: 0035 433d 68f6 afbc f4cc a7bc 20ec 783d
000001f0: 0179 8cbd bb2b 9cbc 23e2 17bd 9e10 d7bc

net.2.weight f4 [192, 128]
-0.029313743 -0.063196056 0.13338967 -0.116102755 -0.048727382 -0.05406781 -0.09254649 0.0840785
0.038190376 0.055924695 0.036770128 -0.006309694 0.013182184 -0.045562822 0.054018434 -0.0018370566
0.08294062 0.03513519 -0.0916833 0.047345005 0.089126915 -0.02301188 -0.021775022 -0.11970681
0.029780928 -0.09547366 -0.11162149 0.06983806 -0.026083127 0.07591086 -0.09093752 -0.09391531
-0.06713978 0.0023848494 -0.090058476 -0.13246347 -0.06680183 -0.05271645 0.06681198 0.042005222
-0.115975134 -0.078920476 0.028696496 -0.07386502 -0.10709158 0.07953285 -0.076798856 0.0046825046
-0.085331164 -0.099437855 -0.05244557 -0.10424038 -0.09447134 -0.07360277 -0.05585627 -0.08368969
0.043579053 -0.11333211 -0.071835235 0.012401908 -0.0704653 -0.03260738 -0.07593847 -0.06476767
0.019953981 0.05744462 0.0043163174 0.02059848 0.0043196743 -0.1173244 -0.079160035 -0.0060725114
-0.09723611 0.1300446 -0.042264253 0.059230994 -0.030367972 -0.035822794 -0.074199244 0.097272515
-0.107532926 0.026886752 -0.04700437 -0.029023256 -0.064388186 -0.006054463 0.067452766 -0.08868298
-0.080259964 0.0417498 0.06918607 -0.07134423 -0.003764317 0.0536484 -0.0746599 0.049508817
-0.086097255 -0.03697621 -0.030981068 -0.091583975 -0.066376336 -0.11129109 0.07584538 -0.04324735
0.11965557 0.023891736 -0.008122388 -0.016703881 -0.025061034 -0.0390852 0.06821681 -0.05144071
0.040568657 -0.12900783 -0.034859814 0.07207948 0.029852971 -0.11888418 -0.08240768 0.039418306
-0.042658567 0.12794694 -0.13264021 -0.0005294564 -0.13415767 0.092135064 -0.07360522 -0.031463496
0.0045310706 0.022521347 -0.042896286 -0.031361915 0.043316882 -0.050917663 0.031535864 0.011907655
0.06663787 -0.021535046 0.07639355 -0.0051912377 -0.04016577 0.023745863 -0.04910285 0.008913306
0.011570097 0.011048588 -0.006769771 -0.027734358 -0.07159955 -0.023431156 0.072405964 0.07176847
-0.04426124 0.021382011 0.020687528 0.077428706 0.06414242 -0.03390503 -0.013352164 0.12677184
0.0025692086 -0.045813408 -0.031766355 -0.044819087 -0.07551432 -0.058198053 0.07110386 -0.006099716
0.058863427 -0.072028905 0.07588523 0.034100994 -0.0723144 -0.015545879 0.0144339325 -0.07229878
0.028163176 0.060945693 -0.05960311 -0.01862609 0.07534455 -0.013665414 -0.049158067 0.015373726
-0.06505768 0.043728832 -0.044377863 0.04441782 -0.009210199 -0.027585108 -0.035553813 0.076354496
-0.053463347 0.06571585 0.041145567 -0.051795427 0.066927455 0.07237985 -0.055045065 0.009332084
0.033580843 -0.0065692295 0.07686693 -0.020045256 -0.036157526 0.032706987 0.064492315 0.09069025
-0.080012076 -0.018809915 -0.014998547 0.013528057 -0.015023581 -0.040703177 -0.05218415 -0.052173257
-0.060164623 0.025726793 0.07454893 -0.03927336 0.09397033 0.090612054 -0.030884422 0.04201593
0.0078053395 0.08169273 -0.0071646664 -0.018599018 0.077416204 -0.09051693 0.042311132 -0.07267963
0.013409163 -0.0068906946 -0.0740766 -0.03858189 -0.022713212 -0.0074828323 0.024761062 -0.066424005
0.07959511 0.02304696 0.019757675 0.027002607 -0.051332943 -0.003614609 -0.08026502 0.06298542
-0.019458277 -0.07619005 0.038309194 -0.06547288 -0.06769369 -0.06592583 -0.010387095 0.020930758
00000000: 6023 f0bc ef6c 81bd 4d97 083e 48c7 edbd
00000010: 5d96 47bd 3576 5dbd 0489 bdbd 5931 ac3d
00000020: 836d 1c3d 4b11 653d 469c 163d 8dc1 cebb
00000030: 16fa 573c 15a0 3abd 6f42 5d3d 64c9 f0ba
00000040: c6dc a93d ebe9 0f3d 74c4 bbbd d6ec 413d
00000050: 2c88 b63d 6983 bcbc 8861 b2bc d828 f5bd
00000060: 22f7 f33c b287 c3bd cf99 e4bd 4207 8f3d
00000070: 48ac d5bc 2777 9b3d 733d babd ac56 c0bd
00000080: 9580 89bd 224b 1c3b 9470 b8bd 81a4 07be
00000090: 66cf 88bd 34ed 57bd b8d4 883d ab0d 2c3d
000000a0: 5f84 edbd 0fa1 a1bd ea14 eb3c 8b46 97bd
000000b0: d552 dbbd 1ee2 a23d b848 9dbd b26f 993b
000000c0: 1bc2 aebd 13a6 cbbd 2ad1 56bd fb7b d5bd
000000d0: 317a c1bd 0dbd 96bd 8bc9 64bd 8065 abbd
000000e0: f37f 323d aa1a e8bd 5a1e 93bd 5f31 4b3c
000000f0: 1c50 90bd 518f 05bd a185 9bbd eaa4 84bd
00000100: 8876 a33c 0d4b 6b3d e56f 8d3b 25be a83c
00000110: 0e8c 8d3b c647 f0bd a81e a2bd ebfb c6bb
00000120: ba23 c7bd 692a 053e 481d 2dbd 339c 723d
00000130: 41c6 f8bc ecba 12bd c6f5 97bd d036 c73d
00000140: 393a dcbd 9b41 dc3c a787 40bd 2ec2 edbc
00000150: f4dd 83bd 8464 c6bb ad24 8a3d 6c9f b5bd
00000160: 565f a4bd d701 2b3d 6db1 8d3d ec1c 92bd
00000170: c2b2 76bb 6dbe 5b3d 4ae7 98bd c2c9 4a3d
00000180: c253 b0bd 5e74 17bd 02cc fdbc 6190 bbbd
00000190: 51f0 87bd 95ec e3bd d354 9b3d 2224 31bd
000001a0: fb0d f53d 9ab8 c33c c413 05bc 94d6 88bc
000001b0: cc4c cdbc cd17 20bd 41b5 8b3d 7eb3 52bd
000001c0: 522b 263d a11a 04be 2ac9 0ebd 689e 933d
000001d0: 388e f43c 8d79 f3bd 5cc5 a8bd 1775 213d
000001e0: c0ba 2ebd 8604 033e d6d2 07be 38cb 0aba
000001f0: a160 09be 4fb1 bc3d 55be 96bd dedf 00bd
00000200: 6079 943b b07e b83c 04b4 2fbd 5a75 00bd
00000210: 0b6d 313d 0a8f 50bd c02b 013d 5318 433c
00000220: 7079 883d 446a b0bc 3974 9c3d 421b aabb
00000230: dd84 24bd af86 c23c 1220 49bd 1d09 123c
00000240: 8190 3d3c 2305 353c f5d4 ddbb 2a33 e3bc
00000250: c9a2 92bd b2f2 bfbc 9449 943d 59fb 923d
00000260: 464b 35bd 5429 af3c e478 a93c f192 9e3d
00000270: 1a5d 833d 00e0 0abd 09c3 5abc 7ad0 013e
00000280: 2b60 283b d7a6 3bbd 701d 02bd 3894 37bd
00000290: 40a7 9abd 1561 6ebd e79e 913d 20e0 c7bb
000002a0: c71a 713d e483 93bd b769 9b3d 7cad 0b3d
000002b0: 9219 94bd 24b4 7ebc 4d7c 6c3c 6211 94bd
000002c0: 76b6 e63c 31a2 793d 6422 74bd be95 98bc
000002d0: 3e4e 9a3d e7e4 5fbc f859 49bd 15e2 7b3c
000002e0: f63c 85bd 011d 333d 90c5 35bd 76ef 353d
000002f0: 60e6 16bc 2afa e1bc e0a0 11bd bf5f 9c3d
00000300: 62fc 5abd 0896 863d 4188 283d 7127 54bd
00000310: 4311 893d e33b 943d ef76 61bd 99e5 183c
00000320: 118c 093d b142 d7bb 696c 9d3d f335 a4bc
00000330: ea19 14bd c3f7 053d 8c14 843d cfbb b93d
00000340: 5fdd a3bd 4017 9abc 77bc 75bc c9a4 5d3c
00000350: 7725 76bc 60b8 26bd 0cbf 55bd a0b3 55bd
00000360: 2e6f 76bd ffc0 d23c 1cad 983d 1add 20bd
00000370: 8473 c03d d092 b93d 5401 fdbc e518 2c3d
00000380: efc3 ff3b 854e a73d 94c5 eabb f85c 98bc
00000390: 638c 9e3d f160 b9bd 704e 2d3d 0fd9 94bd
000003a0: 1bb2 5b3c 56cb e1bb 79b5 97bd 0b08 1ebd
000003b0: 0f11 babc 8c32 f5bb b6d7 ca3c 4f09 88bd
000003c0: c302 a33d facc bc3c d9da a13c 9234 dd3c
000003d0: 7e42 52bd 13e3 6cbb fd61 a4bd 80fe 803d
000003e0: f766 9fbc 8709 9cbd 1aea 1c3d a516 86bd
000003f0: fda2 8abd 1f04 87bd a22e 2abc fb76 ab3c

net.2.bias f4 [192]
-0.004855493 0.043505058 0.055419154 0.02826939 0.052538995 -0.012314617 0.03070647 -0.064239
-0.07670191 0.010942414 0.062412515 -0.052431434 0.019675735 -0.024114173 -0.033556204 0.050097145
0.052046772 0.020135168 0.021450225 0.14054553 0.039543465 0.018433189 0.01490012 0.101424955
0.06213072 0.044930175 0.045303654 0.11288391 0.03865164 0.008782437 -0.018934336 0.025896214
-0.0056710825 0.0006546075 0.063899055 0.057011582 0.040814415 0.027643891 -0.054873772 -0.003597419
-0.020116469 -0.013269929 0.0550664 0.12484656 -0.022367701 -0.0068101906 -0.056161486 0.024488626
0.061217528 -0.035478737 0.038637444 0.07570567 0.030593554 0.0013235108 0.06651528 0.0015050744
0.053704605 -0.06475747 -0.016445035 -0.041933022 -0.010326163 0.011574531 0.06913912 -0.025200706
-0.05343675 -0.03200641 -0.05227785 -0.051706947 -0.007429684 -0.03571068 0.04431647 -0.058936838
-0.011495304 0.049507707 0.02859966 0.04436277 0.010505181 0.058191996 0.054643292 0.008560084
0.07457585 0.024471318 0.05421728 0.027745446 -0.030084752 -0.035935637 0.046909936 0.023577152
-0.05863022 0.07543819 0.056666415 0.08220699 -0.042935494 0.08482888 -0.0027499862 0.08871005
0.019002875 -0.06532449 -0.08553699 -0.020421036 0.0045223623 -0.03140713 -0.009382051 -0.05505926
0.07890235 -0.00072927476 0.040437542 0.012469834 0.07770081 0.058763973 0.002480037 -0.012011962
-0.042413015 0.10296749 0.09297383 0.06732119 0.09299038 -0.08677495 0.02820874 -0.03422872
-0.1111095 0.06617757 0.0020655533 0.010806603 0.02571912 -0.03210711 0.024543121 0.059038978
-0.027969763 0.04594259 -0.05400266 0.013795568 -0.0064845257 0.01706607 -0.08556653 0.043339126
0.0075395317 0.08257138 0.020940622 0.015667597 -0.0651688 -0.052767888 0.022551093 0.020884471
0.09448754 0.002641301 -0.038096193 0.13437964 0.13027622 -0.061880887 0.015149945 0.13205032
0.0864489 0.027350258 0.11723139 0.056901302 0.038529214 -0.015646862 0.06510417 0.10704843
-0.022777122 0.05084195 -0.07732904 0.012069476 0.06770716 -0.060925793 0.050219707 0.08076065
0.051383115 0.11436368 -0.016262336 0.08220946 -0.031914562 -0.035934705 0.027378181 0.025705583
-0.02708277 0.10570069 0.055949043 -0.0025493002 0.09678562 -0.052329592 0.03350262 -0.0023924909
-0.05806899 0.048421938 -0.0014295967 -0.013822656 -0.011013449 0.041055806 0.070073225 -0.05660052
00000000: d41a 9fbb 5c32 323d 32ff 623d 3595 e73c
00000010: 2133 573d 3fc3 49bc 238c fb3c bd8f 83bd
00000020: e415 9dbd d047 333c 44a4 7f3d 58c2 56bd
00000030: 022f a13c 168b c5bc 3b72 09bd aa32 4d3d
00000040: ff2e 553d 82f2 a43c 62b8 af3c 2beb 0f3e
00000050: 54f8 213d 3301 973c a21f 743c e3b7 cf3d
00000060: c87c 7e3d b408 383d 5390 393d ae2f e73d
00000070: 2f51 1e3d 36e4 0f3c 2e1c 9bbc 4c24 d43c
00000080: 7dd4 b9bb f799 2b3a 82dd 823d fa84 693d
00000090: 042d 273d 7175 e23c 52c3 60bd adc2 6bbb
000000a0: 4bcb a4bc 1e6a 59bc 4e8d 613d 8eaf ff3d
000000b0: 783c b7bc 0528 dfbb 9609 66bd 5f9c c83c
000000c0: 3bbf 7a3d 2752 11bd 4c42 1e3d 930b 9b3d
000000d0: 559f fa3c a779 ad3a 2a39 883d eb45 c53a
000000e0: 5cf9 5b3d 909f 84bd bdb7 86bc f6c1 2bbd
000000f0: 112f 29bc 1aa3 3d3c d098 8d3d b671 cebc
00000100: 7ee0 5abd 2719 03bd 4d21 56bd aaca 53bd
00000110: b574 f3bb 5d45 12bd 3085 353d c167 71bd
00000120: cd56 3cbc 98c8 4a3d d649 ea3c bcb5 353d
00000130: ec1d 2c3c bb5a 6e3d a5d1 5f3d 983f 0c3c
00000140: 39bb 983d 1378 c83c f012 5e3d 6b4a e33c
00000150: 4c74 f6bc 3f31 13bd a224 403d df24 c13c
00000160: 3e26 70bd 567f 9a3d 0b1b 683d 235c a83d
00000170: 21dd 2fbd c4ba ad3d 1d39 34bb 9dad b53d
00000180: ebab 9b3c d9c8 85bd 042e afbd 044a a7bc
00000190: 5330 943b c3a4 00bd 2db7 19bc d285 61bd
000001a0: 8e97 a13d cd2c 3fba d6a1 253d 464e 4c3c
000001b0: 9a21 9f3d 7eb2 703d 1e88 223b d2cd 44bc
000001c0: 45b9 2dbd 9fe0 d23d 1069 be3d b1df 893d
000001d0: be71 be3d 11b7 b1bd 0416 e73c 6a33 0cbd
000001e0: 618d e3bd 1b88 873d 3c5e 073b 2e0e 313c
000001f0: e7b0 d23c bf82 03bd a80e c93c dbd2 713d
00000200: d820 e5bc 4c2e 3c3d e531 5dbd ce06 623c
00000210: 257c d4bb 25ce 8b3c 813d afbd 5e84 313d
00000220: 2d0e f73b 2f1b a93d ab8b ab3c 5559 803c
00000230: 3877 85bd 2423 58bd 12bd b83c e915 ab3c
00000240: af82 c13d ad19 2d3b c10a 1cbd d19a 093e
00000250: 2167 053e d076 7dbd 7a37 783c 3338 073e
00000260: 1f0c b13d a60d e03c 0317 f03d 5711 693d
00000270: cfd0 1d3d d92d 80bc 5655 853d 353c db3d
00000280: 1697 babc a63f 503d b05e 9ebd 0dbf 453c
00000290: 0daa 8a3d 538d 79bd 2eb3 4d3d d765 a53d
000002a0: 1a77 523d 8137 ea3d 9738 85bc 6f5d a83d
000002b0: d8b8 02bd 4530 13bd 3548 e03c 8494 d23c
000002c0: afdc ddbc 9a79 d83d d32a 653d 2912 27bb
000002d0: 8a37 c63d 8e57 56bd 0b3a 093d 56cb 1cbb
000002e0: c0d9 6dbd 1556 463d 4e61 bbba 6c78 62bc
000002f0: c171 34bc 222a 283d 8d82 8f3d f2d5 67bd

exp_avg f4 [128, 142]
-6.3418505e-05 -0.0013612347 0.006224753 0.0037010638 0.020030562 0.014766523 -0.00059836137 -0.0051219435
-0.0016881627 -0.0016633015 0.005831339 0.0032741448 0.019916212 0.009777037 -0.00058824796 -0.00500485
-0.0017314806 0.00068356853 0.008236093 0.013894987 0.014996067 0.005187836 0.0007936031 0.009308741
-0.00058047206 0.0020058497 0.008557177 0.012659915 0.013584873 0.003148469 -0.0034897288 0.00906158
-0.007886213 -0.0065787663 -0.0081017 -0.0026401412 -0.001978845 -0.0072819064 -0.0137821175 -0.0062807156
0.0059083523 0.010457643 -0.00210247 0.01318002 0.011976339 0.011478191 -0.0147881415 -0.005943981
0.007768213 0.010604796 0.0058560423 -0.0015079782 -0.0064948048 -0.0051719057 -0.017876254 -0.0041461973
-0.00026947935 0.0024559337 0.0071925228 0.00023201032 -0.0063495217 -0.0050276555 -0.013927559 -0.00013447014
-0.000740219 0.0011666946 0.002535623 6.8426397e-07 -1.296716e-05 -8.510777e-05 0.0011889198 0.0018932215
0.0 0.0 -0.0056422683 -0.004372152 -0.0043746093 0.0 0.0 -0.0012799108
0.0 0.0 0.0 0.0 1.9208876e-08 0.0 0.0 0.0
0.0 -0.01546076 -0.009270336 -0.010569213 -0.00030062397 -0.00030066856 -0.0125611825 -0.00607696
-0.0068959873 0.0 0.0 -0.012677015 -0.011832066 -0.012661119 0.0 0.0
-0.00065842655 0.0 0.0 0.0 0.0 9.649484e-05 0.0 0.0
0.0 0.0 0.021170996 0.021472761 0.016074471 -5.3236117e-06 -4.39973e-06 0.022632523
0.024021119 0.01720649 0.0 0.0 0.02084375 0.020753486 0.014279297 0.0
0.0 7.1664595e-06 0.0 0.0 0.0 0.0 1.4658063e-07 0.0
0.0 0.0 0.0 -0.037033636 0.020801185 0.06615168 8.020365e-05 -0.0003635248
-0.016912065 -0.019762283 -0.038929977 -0.025696257 -3.381007e-05 0.011701614 6.70616e-05 -0.00018796892
-0.016482793 -0.019781874 -0.039170533 -0.027574206 -4.69959e-05 0.011921496 -0.0006733043 -8.375213e-05
-0.015608542 -0.023158167 -0.02099051 -0.009723156 0.022998242 0.012727892 -8.005951e-05 0.00034837448
-0.015785662 -0.030965509 -0.028780984 -0.017848853 0.021618837 0.01301956 -0.04104586 -0.040569767
-0.017454924 -0.032552995 -0.030595385 -0.017197125 0.021630282 0.01204246 -0.039922215 -0.03691425
-0.00039596696 -0.029156307 -0.02918171 -0.028942674 0.021712374 0.012356116 -0.039717127 -0.036948666
-0.016461339 -0.0024436936 -0.004560504 -0.0021475116 0.020103484 0.012998677 -0.0001765973 0.0023583462
-0.014505274 -0.0006914118 -0.0049454863 -0.0025319844 0.007114899 -0.00023114418 0.00010845808 0.0001343326
0.001978253 -4.778985e-05 -9.107798e-06 -9.193971e-05 8.069151e-05 0.002280262 0.0 0.0
0.014619418 0.014886572 0.014888972 0.0 0.0 -0.00015986146 0.0 0.0
0.0 0.0 8.263303e-08 0.0 0.0 0.0 0.0 -0.020039726
-0.032159057 -0.010153411 0.00032129762 0.00032131566 -0.012337668 -0.024461523 -0.0021452925 0.0
0.0 -0.011869073 -0.011429253 0.010909234 0.0 0.0 -0.000919761 0.0
0.0 0.0 0.0 -9.5710975e-06 0.0 0.0 0.0 0.0
00000000: 8dff 84b8 756b b2ba 03f9 cb3b 8c8d 723b
00000010: 2217 a43c 49ef 713c 5adb 1cba fad5 a7bb
00000020: 5745 ddba 2303 daba d114 bf3b 0993 563b
00000030: 5327 a33c de2f 203c a734 1aba baff a3bb
00000040: d9f2 e2ba 8231 333a aef0 063c cda7 633c
00000050: 10b2 753c b9fe a93b cd09 503a b183 183c
00000060: d22a 18ba 9374 033b 6733 0c3c 886b 4f3c
00000070: 1693 5e3c 8b56 4e3b efb3 64bb 0577 143c
00000080: 2d35 01bc b192 d7bb febc 04bc 3806 2dbb
00000090: 83af 01bb 0f9d eebb 64ce 61bc 76ce cdbb
000000a0: da9a c13b 8956 2b3c 98c9 09bb 03f1 573c
000000b0: 6838 443c 060f 3c3c f649 72bc bac5 c2bb
000000c0: 7e8c fe3b bdbf 2d3c 0be4 bf3b 5aa7 c5ba
000000d0: 5fd2 d4bb 1779 a9bb 3971 92bc d3dc 87bb
000000e0: e848 8db9 bbf3 203b 41af eb3b cc47 7339
000000f0: a60f d0bb 08bf a4bb 6b30 64bc 8e00 0db9
00000100: 420b 42ba c6eb 983a b22c 263b 43ae 3735
00000110: 878d 59b7 e37b b2b8 87d5 9b3a f925 f83a
00000120: 0000 0000 0000 0000 c7e2 b8bb 4544 8fbb
00000130: e258 8fbb 0000 0000 0000 0000 aec2 a7ba
00000140: 0000 0000 0000 0000 0000 0000 0000 0000
00000150: c400 a532 0000 0000 0000 0000 0000 0000
00000160: 0000 0000 214f 7dbc 9be2 17bc 7e2a 2dbc
00000170: 119d 9db9 0da3 9db9 6bcd 4dbc 3c21 c7bb
00000180: bcf7 e1bb 0000 0000 0000 0000 41b3 4fbc
00000190: 48db 41bc 9570 4fbc 0000 0000 0000 0000
000001a0: 429a 2cba 0000 0000 0000 0000 0000 0000
000001b0: 0000 0000 465d ca38 0000 0000 0000 0000
000001c0: 0000 0000 0000 0000 cc6e ad3c a5e7 af3c
000001d0: 9cae 833c 7aa1 b2b6 65a1 93b6 d767 b93c
000001e0: f0c7 c43c a0f4 8c3c 0000 0000 0000 0000
000001f0: 83c0 aa3c 3703 aa3c b6f3 693c 0000 0000
00000200: 0000 0000 6b77 f036 0000 0000 0000 0000
00000210: 0000 0000 0000 0000 c763 1d34 0000 0000
00000220: 0000 0000 0000 0000 0000 0000 95b0 17bd
00000230: 3f67 aa3c 887a 873d 0233 a838 7997 beb9
00000240: 2c8b 8abc 83e4 a1bc 0a75 1fbd f580 d2bc
00000250: 49cf 0db8 20b8 3f3c 6ca3 8c38 8619 45b9
00000260: ec06 87bc 990d a2bc 4871 20bd 4de3 e1bc
00000270: 771d 45b8 6152 433c b080 30ba 15a4 afb8
00000280: f8ba 7fbc 32b6 bdbc 4af4 abbc df4d 1fbc
00000290: cf66 bc3c a688 503c 9fe5 a7b8 08a6 b639
000002a0: ef50 81bc 61ab fdbc 19c6 ebbc c237 92bc
000002b0: fd19 b13c fe4f 553c b41f 28bd 7c2c 26bd
000002c0: a1fd 8ebc 4a56 05bd 2ca3 fabc fce0 8cbc
000002d0: fd31 b13c bd4d 453c 7a85 23bd 6633 17bd
000002e0: c999 cfb9 35d9 eebc 7b0e efbc 3019 edbc
000002f0: 26de b13c 4f71 4a3c 6dae 22bd 7c57 17bd
00000300: eed9 86bc 6026 20bb 4870 95bb 44bd 0cbb
00000310: 10b0 a43c 67f8 543c fa2c 39b9 7c8e 1a3b
00000320: 87a7 6dbc dc3f 35ba bf0d a2bb a6ef 25bb
00000330: 1924 e93b 4b5f 72b9 fd73 e338 a2db 0c39
00000340: 94a5 013b f671 48b8 b2cd 18b7 c2cf c0b8
00000350: ed38 a938 7370 153b 0000 0000 0000 0000
00000360: 4986 6f3c cfe6 733c e0f0 733c 0000 0000
00000370: 0000 0000 7ca0 27b9 0000 0000 0000 0000
00000380: 0000 0000 0000 0000 fd73 b133 0000 0000
00000390: 0000 0000 0000 0000 0000 0000 5a2a a4bc
000003a0: 37b9 03bd 7e5a 26bc d673 a839 4276 a839
000003b0: ee23 4abc 8863 c8bc 0998 0cbb 0000 0000
000003c0: 0000 0000 8076 42bc c341 3bbc a5bc 323c
000003d0: 0000 0000 0000 0000 1e1c 71ba 0000 0000
000003e0: 0000 0000 0000 0000 0000 0000 8d93 20b7
000003f0: 0000 0000 0000 0000 0000 0000 0000 0000

exp_avg_sq f4 [128, 142]
0.00071952067 0.001103579 0.00090658804 0.0016273505 0.0015858136 0.0009250843 0.002278065 0.002140102
0.001413287 0.0022156436 0.002810456 0.002642213 0.0027027663 0.0016305838 0.0020910574 0.002430917
0.0014974966 0.0020371105 0.0027175732 0.0019360071 0.002430427 0.001686564 0.0026879185 0.002489268
0.0015444973 0.0026113966 0.0028787528 0.0023501317 0.002608131 0.0014275812 0.0022164942 0.0013569931
0.0022856544 0.002362831 0.0021124838 0.0021908914 0.001821056 0.001945729 0.002265173 0.0014480979
0.0028792548 0.0028360286 0.0022285958 0.0024945533 0.0024873225 0.0029293322 0.003072293 0.0022332543
0.0011025236 0.00086318067 0.0008266251 0.00052459975 0.0009386555 0.0018613026 0.0022712308 0.0014497318
0.0015664316 0.0019952783 0.0018897066 0.0013497508 0.0025426638 0.0021237643 0.0021965187 0.0018633093
0.0023352962 0.0020803188 0.002420245 0.0005530387 0.0004600898 0.0011964346 0.0008339057 0.0010953726
0.0 0.0 0.0014693742 0.0009831664 0.000707137 0.0 0.0 0.00019353855
0.0 0.0 0.0 0.0 9.763459e-06 0.0 0.0 0.0
0.0 0.0021051392 0.0017216825 0.0014753663 0.0003923039 0.00027320386 0.001199353 0.0008730908
0.00101219 0.0 0.0 0.001019563 0.00072399457 0.00094830134 0.0 0.0
0.000286099 0.0 0.0 0.0 0.0 0.00016922895 0.0 0.0
0.0 0.0 0.0029104934 0.0020738216 0.0018790254 0.00036881326 0.00032951884 0.0024029405
0.0019125221 0.0015190814 0.0 0.0 0.0017688695 0.0010109413 0.0010415508 0.0
0.0 0.00022461293 0.0 0.0 0.0 0.0 0.00022312735 0.0
0.0 0.0 0.0 0.02219971 0.004239346 0.0077894717 0.0024060104 0.002936256
0.0018941493 0.0020846124 0.0035532769 0.0027600066 0.002622761 0.0034638825 0.0020046202 0.0032322076
0.003432555 0.003788272 0.0033671267 0.0033870642 0.0030265942 0.0035902355 0.0019599537 0.0026940557
0.003259401 0.0027325745 0.002916022 0.002187127 0.002082506 0.00317865 0.0022474425 0.002977906
0.0032873433 0.0031626862 0.0036467416 0.003261872 0.0024665208 0.0019375681 0.0033255438 0.0030596054
0.0025201526 0.003825316 0.0037247792 0.004126648 0.0034340925 0.0022518742 0.0039101723 0.0035045925
0.0021834557 0.003977498 0.0039531547 0.0046663266 0.0043190424 0.0032796795 0.0022950515 0.0025700482
0.00250654 0.0021427548 0.0017960676 0.0018795035 0.0023472002 0.0027975254 0.00176185 0.0026132101
0.0022414047 0.0016114727 0.0016825299 0.002786189 0.002457494 0.0024008066 0.003687185 0.0032082826
0.0020507062 0.00020777258 0.00020025646 0.0021182322 0.0018415286 0.0014635467 0.0 0.0
0.0022396718 0.0017113968 0.0009301211 0.0 0.0 0.00042558857 0.0 0.0
0.0 0.0 3.9805233e-05 0.0 0.0 0.0 0.0 0.0026960657
0.0016310285 0.0011701004 0.0003440038 0.0003213802 0.002030738 0.0014902343 0.00063464005 0.0
0.0 0.0013127167 0.000678891 0.00029544946 0.0 0.0 0.00029245703 0.0
0.0 0.0 0.0 0.0002771391 0.0 0.0 0.0 0.0
00000000: 379e 3c3a f7a5 903a 18a8 6d3a d24c d53a
00000010: 13db cf3a 5b81 723a 974b 153b f440 0c3b
00000020: 0b3e b93a 5534 113b a12f 383b fa28 2d3b
00000030: e520 313b 50b9 d53a 1f0a 093b 0550 1f3b
00000040: a647 c43a 0b81 053b 5019 323b 9ec1 fd3a
00000050: cc47 1f3b b20f dd3a ca27 303b fd22 233b
00000060: bb70 ca3a f723 2b3b 75a9 3c3b ab04 1a3b
00000070: 2ded 2a3b ad1d bb3a 9a42 113b 22dd b13a
00000080: ebca 153b bad9 1a3b 9971 0a3b 0f95 0f3b
00000090: 80b0 ee3a d507 ff3a 4c73 143b 1ace bd3a
000000a0: e1b1 3c3b aadc 393b a20d 123b a97b 233b
000000b0: 5902 233b 0afa 3f3b 8658 493b ca5b 123b
000000c0: 8e82 903a 1347 623a dfb1 583a 4b85 093a
000000d0: 1b10 763a f4f6 f33a eed8 143b ed04 be3a
000000e0: b950 cd3a 37c3 023b 08b0 f73a 1fea b03a
000000f0: d2a2 263b da2e 0b3b 78f3 0f3b 493a f43a
00000100: c50b 193b f555 083b f99c 1e3b cdf9 103a
00000110: 3538 f139 afd1 9c3a 779a 5a3a 9b92 8f3a
00000120: 0000 0000 0000 0000 0498 c03a 97dd 803a
00000130: 295f 393a 0000 0000 0000 0000 9cf0 4a39
00000140: 0000 0000 0000 0000 0000 0000 0000 0000
00000150: bdcd 2337 0000 0000 0000 0000 0000 0000
00000160: 0000 0000 60f6 093b 14aa e13a 1461 c13a
00000170: 23ae cd39 cd3c 8f39 9c33 9d3a 22e0 643a
00000180: 76ab 843a 0000 0000 0000 0000 dba2 853a
00000190: 74ca 3d3a 6d97 783a 0000 0000 0000 0000
000001a0: 8fff 9539 0000 0000 0000 0000 0000 0000
000001b0: 0000 0000 0d73 3139 0000 0000 0000 0000
000001c0: 0000 0000 0000 0000 fabd 3e3b f4e8 073b
000001d0: a149 f63a 475d c139 45c3 ac39 a77a 1d3b
000001e0: 98ad fa3a ea1b c73a 0000 0000 0000 0000
000001f0: 69d9 e73a 9081 843a a584 883a 0000 0000
00000200: 0000 0000 1386 6b39 0000 0000 0000 0000
00000210: 0000 0000 0000 0000 4bf7 6939 0000 0000
00000220: 0000 0000 0000 0000 0000 0000 2bdc b53c
00000230: 36ea 8a3b d33e ff3b 28ae 1d3b 336e 403b
00000240: 1b45 f83a fe9d 083b 18de 683b 3ae1 343b
00000250: a1e2 2b3b 4e02 633b f25f 033b 72d3 533b
00000260: b7f4 603b a844 783b 03ab 5c3b 82f9 5d3b
00000270: d359 463b 284a 6b3b 9172 003b c18e 303b
00000280: ad9b 553b fe14 333b bb1a 3f3b e755 0f3b
00000290: a77a 083b e650 503b d449 133b f928 433b
000002a0: 7870 573b 1245 4f3b 2cfe 6e3b 22c5 553b
000002b0: 5aa5 213b fff5 fd3a 5ef1 593b a983 483b
000002c0: 2529 253b 27b2 7a3b 6d1b 743b d538 873b
000002d0: 830e 613b 2e94 133b e720 803b 4ead 653b
000002e0: 4f18 0f3b ac55 823b 7789 813b fce7 983b
000002f0: c186 8d3b e4ef 563b 9368 163b 416e 283b
00000300: c344 243b 766d 0c3b 076a eb3a ac59 f63a
00000310: 7cd3 193b b056 373b e0ed e63a 6442 2b3b
00000320: 88e4 123b 0d38 d33a 5688 dc3a 7f98 363b
00000330: e80d 213b da56 1d3b b3a4 713b 0d42 523b
00000340: 2465 063b 87dd 5939 effb 5139 0ad2 0a3b
00000350: 725f f13a 7ad4 bf3a 0000 0000 0000 0000
00000360: 75c7 123b f350 e03a 5fd3 733a 0000 0000
00000370: 0000 0000 8821 df39 0000 0000 0000 0000
00000380: 0000 0000 0000 0000 8bf4 2638 0000 0000
00000390: 0000 0000 0000 0000 0000 0000 7ab0 303b
000003a0: 3cc8 d53a 0e5e 993a 695b b439 ec7e a839
000003b0: 2116 053b f753 c33a f95d 263a 0000 0000
000003c0: 0000 0000 770f ac3a 9bf7 313a 8ee6 9a39
000003d0: 0000 0000 0000 0000 eb54 9939 0000 0000
000003e0: 0000 0000 0000 0000 0000 0000 fb4c 9139
000003f0: 0000 0000 0000 0000 0000 0000 0000 0000

exp_avg f4 [128]
0.00037161293 -0.018314028 -0.010772113 0.07239718 0.000397405 -0.056475867 -0.06675358 -3.9957236e-08
-0.013511654 0.0024637035 -0.009007879 0.0002363687 -0.015575878 0.040550563 9.201536e-09 0.018713316
3.0112928e-05 -1.3663523e-12 -0.010355396 0.036265403 -1.0087045e-07 -4.802607e-05 -0.026563872 0.021672856
0.0049110427 0.019873446 0.008593368 -0.027330779 -0.048746873 0.00026632077 -0.05260489 0.01616965
-0.07937077 0.019392982 -0.061561774 0.009185369 -0.021344109 -0.016064372 -0.00049889233 -2.2742175e-05
-0.0020259991 0.043183863 -0.0012623759 -0.0125440415 -0.027801128 0.0036166487 6.2832656e-11 -0.040740486
0.015004679 -0.00027183324 0.012881489 -0.015647743 0.0025445328 -8.16052e-05 0.035413377 0.026136715
0.004480024 -0.023054924 0.0067704716 0.042498123 -1.3428236e-05 0.004097837 0.0024695985 -0.005055054
0.017494537 0.0011100249 7.3830342e-06 0.007167963 0.021125074 0.00884253 2.8516975e-10 -0.009464423
0.004056994 0.015562711 0.0031755052 0.0059400573 -1.9790469e-10 0.002274525 0.008349461 -0.036664758
-0.0014463335 -0.005933236 0.03660807 -0.027052294 -0.021013318 0.00038046544 2.4775372e-16 2.3540751e-05
0.013200294 0.0055086194 -0.00044151506 -0.029046344 0.049712896 0.003539443 -0.0044377237 4.3160666e-09
-4.770738e-08 0.0065535526 0.0074079954 -0.028867614 -0.014521035 0.04098868 4.827529e-05 5.794883e-08
0.031890288 0.010641477 5.140778e-07 0.0007854467 8.879234e-09 -0.010962118 0.00022675727 -0.0057748808
-0.052039616 0.030993558 3.7683285e-12 4.3542055e-08 -0.016152272 -0.017181959 0.0126802055 8.082769e-06
-0.0449986 0.0014851186 0.012342003 -0.0040896814 0.008949493 0.0015335301 -0.04718407 0.007852857
00000000: 0bd5 c239 4d07 96bc 847d 30bc f944 943d
00000010: cc5a d039 3d53 67bd 1ab6 88bd 729d 2bb3
00000020: fc5f 5dbc 1676 213b c895 13bc bdd9 7739
00000030: f831 7fbc 5918 263d c914 1e32 ab4c 993c
00000040: 059b fc37 084c c0ab aea9 29bc 088b 143d
00000050: 1e9e d8b3 9a6f 49b8 7a9c d9bc 468b b13c
00000060: d0ec a03b a3cd a23c 33cb 0c3c cce4 dfbc
00000070: cdaa 47bd f8a0 8b39 3a78 57bd 3776 843c
00000080: 248d a2bd 08de 9e3c 3328 7cbd 3b7e 163c
00000090: d7d9 aebc 6e99 83bc 19c8 02ba 73c6 beb7
000000a0: a0c6 04bb 90e1 303d 4e76 a5ba 8685 4dbc
000000b0: 31bf e3bc 4c05 6d3b a42b 8a2e 7fdf 26bd
000000c0: 2fd6 753c d784 8eb9 e10c 533c b22f 80bc
000000d0: 2dc2 263b 7523 abb8 9e0d 113d aa1c d63c
000000e0: 2acd 923b aedd bcbc d5da dd3b 8312 2e3d
000000f0: d649 61b7 2647 863b fdd8 213b dea4 a5bb
00000100: b450 8f3c 417e 913a c8bb f736 3be1 ea3b
00000110: 7e0e ad3c 42e0 103c 13c6 9c2f ab10 1bbc
00000120: 88f0 843b befa 7e3c 231c 503b d0a4 c23b
00000130: 3899 59af 3210 153b 2dcc 083c c92d 16bd
00000140: e692 bdba 976b c2bb 58f2 153d c69c ddbc
00000150: 1f24 acbc 3579 c739 ffd1 8e25 6179 c537
00000160: 0c46 583c a681 b43b 267b e7b9 99f2 edbc
00000170: c09f 4b3d 00f6 673b 536a 91bb 864c 9431
00000180: d2e6 4cb3 2fbf d63b c5be f23b c67b ecbc
00000190: a3e9 6dbc bfe3 273d 337b 4a38 6ae3 7833
000001a0: 649f 023d 9759 2e3c 28ff 0935 70e6 4d3a
000001b0: 498b 1832 759a 33bc b1c5 6d39 363b bdbb
000001c0: 7e27 55bd 34e6 fd3c 1696 842c ff02 3b33
000001d0: c551 84bc 2ec1 8cbc a3c0 4f3c 3b9b 0737
000001e0: 7450 38bd 50a8 c23a 1d36 4a3c bc02 86bb
000001f0: e5a0 123c bb00 c93a 1544 41bd 45a9 003c

exp_avg_sq f4 [128]
0.0036601778 0.0056298394 0.00056787673 0.006482504 0.0017229725 0.004882129 0.0054938593 0.00041487126
0.003976143 0.0022031257 0.0057176207 0.00053526805 0.007008977 0.005771012 0.0002482527 0.0016808698
0.00053542544 0.0015858731 0.0042160572 0.0030010745 0.0010204668 0.0011676176 0.002712374 0.005956894
0.0007255389 0.0070692124 0.0021641725 0.0028126126 0.0074942037 0.0020252857 0.0010570991 0.004123952
0.0052489126 0.0053483387 0.0051104086 0.0024940677 0.008638737 0.0028026234 0.0004035856 0.0022242505
0.005703028 0.0019420292 0.00022069755 0.0031875425 0.005735335 0.00072693074 0.0014766033 0.004318414
0.0063885422 0.0025179842 0.0015894929 0.0073008193 0.006411429 0.0012188372 0.0039932304 0.0045682047
0.0038271823 0.0050244383 0.0056136595 0.0076482524 0.00023866724 0.0013751248 0.0006483647 0.0012452031
0.004011302 0.002343362 0.0005167376 0.009736277 0.0026855594 0.0052405526 7.475546e-05 0.003856483
0.0038728025 0.0011561313 0.0042700307 0.00028204572 0.0011571487 0.0015251848 0.0011131061 0.0026980187
0.0045507313 0.0052440693 0.0054845233 0.005973251 0.005057719 0.0048736287 2.591549e-05 0.0013798537
0.0039658803 0.0008896703 0.00042805713 0.0016643272 0.0054611117 0.0006498834 0.005456317 0.00013441422
0.00043210917 0.0052457205 0.0028120496 0.006556552 0.0032146042 0.0009821946 0.00025149225 0.0014215296
0.004330871 0.0021240602 0.0020083615 0.0011447048 7.4913616e-05 0.00092696404 0.00047983762 0.0019031296
0.0019850037 0.0047051855 4.738772e-06 0.0007774136 0.002177619 0.006200333 0.0007182649 0.0014875855
0.004312808 0.000109783316 0.0063204556 0.0059834155 0.0073928903 0.00063310144 0.0024223882 0.002369524
00000000: 98df 6f3b 847a b83b 90dd 143a 2f6b d43b
00000010: 5dd5 e13a 44fa 9f3b d505 b43b 1483 d939
00000020: 4e4a 823b 5162 103b e15a bb3b 3b51 0c3a
00000030: 8fab e53b c21a bd3b ea27 8239 a250 dc3a
00000040: cb5b 0c3a 12dd cf3a da26 8a3b adad 443b
00000050: 2fc1 853a bf0a 993a 16c2 313b 0c32 c33b
00000060: 1732 3e3a daa4 e73b cad4 0d3b cf53 383b
00000070: f091 f53b a8ba 043b 5c8e 8a3a 3722 873b
00000080: 12ff ab3b 1e41 af3b 3775 a73b 8373 233b
00000090: 7d89 0d3c 38ac 373b 5898 d339 bbc4 113b
000000a0: 77e0 ba3b b08b fe3a 0c6b 6739 17e6 503b
000000b0: 7aef bb3b 7f8f 3e3a 968a c13a 7b81 8d3b
000000c0: fa56 d13b c404 253b 8856 d03a b63b ef3b
000000d0: f716 d23b 64c1 9f3a a5d9 823b e1b0 953b
000000e0: 77d1 7a3b 0ba4 a43b caf2 b73b 319e fa3b
000000f0: c042 7a39 883d b43a 05f7 293a 1536 a33a
00000100: 3d71 833b 1793 193b ac75 073a e884 1f3c
00000110: 3600 303b f1b8 ab3b 08c6 9c38 0cbd 7c3b
00000120: d8ce 7d3b 5489 973a 9deb 8b3b 89df 9339
00000130: 78ab 973a b6e8 c73a a5e5 913a 3ed1 303b
00000140: 4d1e 953b 71d6 ab3b 84b7 b33b 43bb c33b
00000150: 39bb a53b f6b2 9f3b 1765 d937 35dc b43a
00000160: 37f4 813b c338 693a db6c e039 8e25 da3a
00000170: 20f3 b23b f05c 2a3a e8ca b23b 8bf1 0c39
00000180: b68c e239 4be4 ab3b 5d4a 383b 58d8 d63b
00000190: 1cac 523b fbbc 803a b8da 8339 9e52 ba3a
000001a0: fbe9 8d3b d133 0b3b b79e 033b eb09 963a
000001b0: f11a 9d38 81ff 723a b792 fb39 6f72 f93a
000001c0: d616 023b f52d 9a3b be01 9f36 58cb 4b3a
000001d0: 62b6 0e3b 2a2c cb3b f149 3c3a 16fb c23a
000001e0: 7552 8d3b 783b e638 d31b cf3b 8710 c43b
000001f0: 0f40 f23b b8f6 253a eec0 1e3b 044a 1b3b

exp_avg f4 [192, 128]
0.0035205511 0.005690551 -0.00012513874 0.0023009705 1.6960013e-07 0.0071250494 0.013820829 -4.5767625e-09
-3.613455e-05 -1.999228e-05 -0.0004382626 -3.4346477e-09 0.0007162728 0.0048359386 5.879291e-11 0.001950548
-2.48966e-07 -2.7204343e-13 0.008408277 0.0007798792 1.4336927e-10 -2.0871055e-07 -8.2846054e-05 0.0064839693
-1.307039e-07 0.002966228 0.00058317307 0.0013481663 0.0019720795 -8.6559844e-08 0.00058079785 0.007997731
0.0023403093 0.00062581856 0.005651273 0.0001381933 0.0028453611 -0.000255616 -3.8936085e-07 -1.4850585e-08
0.011734897 0.0016876139 -9.0218596e-11 0.0029583422 0.0048294184 -1.0923725e-06 -1.9704034e-14 -3.708148e-05
0.0046738256 0.0027960637 -0.00035110963 0.0051560397 -0.00024836327 7.544442e-07 3.1214024e-06 0.0021671746
0.0020006716 0.004237759 0.0061746 0.006501317 -1.6461517e-07 -2.1595528e-07 -3.6009766e-05 -8.968521e-06
0.002491523 -0.000117459356 5.034617e-10 0.004761287 -0.00024706396 0.0054218126 1.7599273e-10 2.5359735e-05
0.0020390132 -3.430522e-05 0.007865266 0.0015025897 2.112316e-13 -4.8908336e-05 -8.6459855e-05 -8.2691244e-05
0.00071827974 0.002156954 -0.0001749858 -0.0004272011 0.0033093193 2.2913142e-08 0.0 -1.8566425e-07
2.511208e-07 -9.417854e-05 -9.276585e-08 -4.2476455e-05 0.000706876 -3.299653e-05 0.0045494614 0.0
-4.7758784e-15 0.0007147162 -1.9132815e-06 0.0031018914 -1.8346195e-06 5.3348504e-06 1.2188754e-09 -5.762148e-07
-0.0003712507 -0.00012389394 1.2680955e-08 -3.399073e-07 -5.4377964e-16 -2.5189776e-05 2.2587076e-06 -3.538814e-05
-1.9022782e-05 0.003071143 -9.168908e-21 -5.9395327e-13 -0.00010571909 0.0020623398 9.45238e-10 6.413223e-08
-0.0002416522 -1.956808e-09 0.0033609585 -0.00067020184 0.0024914036 -4.3291282e-05 1.2113741e-06 -4.842292e-05
-0.0007731742 -0.00030485474 -0.0002680125 -0.0008817403 5.070211e-06 -0.00092252146 -0.001321014 -6.4698944e-09
-7.138897e-05 -3.3750894e-05 -0.00088115595 -4.8209787e-09 -0.00054085633 -0.001001376 -4.8923064e-23 -0.00024185036
-9.835729e-07 -3.329654e-13 -0.00042148167 4.719789e-05 -9.4502056e-14 -1.491771e-06 -0.00017363418 -0.000750198
3.481183e-08 -0.0012517151 -1.5887781e-07 -0.00030797193 -0.0007733846 -1.4441035e-07 -8.767625e-05 -0.00027986936
-0.00050292496 -0.00049878977 -0.001114816 2.5114052e-05 -0.00025735074 -0.0004924804 1.2502565e-07 -3.715014e-08
-0.001341267 -8.147924e-06 -1.3113073e-10 -0.000111384164 -0.0004844021 -2.8324937e-06 6.5233447e-13 -8.998297e-05
-0.000603411 -0.00012058949 -0.0007035033 -0.0008307887 -0.0005086512 6.3416866e-07 8.808125e-06 -0.00012972466
-0.0002504727 -0.00045775558 -0.0007406456 -0.0010995808 -6.4986614e-07 -2.08336e-06 -6.181207e-05 -1.5277335e-05
-0.00075143744 -0.0002126764 -5.8434046e-13 -0.0011095748 -0.00046614336 -0.0002740694 -3.553197e-14 -0.0005924468
-9.055775e-05 -8.7053355e-05 -0.0011978144 -4.293177e-05 2.5196598e-13 -8.3448285e-05 -0.00016318168 -0.00016008197
-0.00012888073 -0.00044033537 -0.0003060681 -0.0009514419 -0.0007255711 -4.3797368e-06 0.0 -7.354099e-07
-6.824201e-06 -0.00017691196 -1.5106313e-07 -9.406856e-05 -0.0002556591 -5.5901088e-05 -0.001034218 0.0
-5.3411767e-15 -0.00033232762 -6.169451e-06 -3.4532615e-05 -1.0481529e-05 5.153411e-07 1.1251305e-09 -2.1728479e-06
-0.00074621005 -0.0002544959 4.810026e-08 -1.2877598e-06 -6.327256e-16 -5.5887962e-05 9.426889e-06 -8.593241e-05
-0.0001064038 -0.00036633425 -1.01106795e-20 -6.3265755e-13 -0.00023711615 -0.00091956666 -4.322673e-12 2.3449293e-07
-0.0008018774 -2.9555653e-09 -0.0004337454 -0.0013740674 -0.00037009362 -7.5900134e-05 5.8216283e-06 -9.48097e-05
00000000: 0cb9 663b cd77 ba3b ad37 03b9 e1cb 163b
00000010: 541b 3634 3f79 e93b c270 623c a141 9db1
00000020: 2d8f 17b8 18b5 a7b7 9cc6 e5b9 f606 6cb1
00000030: 41c4 3b3a cb76 9e3b 7749 812e 88a9 ff3a
00000040: a0a9 85b4 9725 99aa dfc2 093c cf70 4c3a
00000050: dda2 1d2f eb19 60b4 a3bd adb8 7a77 d43b
00000060: 9d57 0cb4 0c65 423b 15e0 183a f4b4 b03a
00000070: 013e 013b c7e2 b9b3 af40 183a ea08 033c
00000080: e05f 193b f90d 243a 502e b93b fbe7 1039
00000090: 3d79 3a3b 3304 86b9 5909 d1b4 9021 7fb2
000000a0: ba43 403c ed32 dd3a 8e64 c6ae bfe0 413b
000000b0: 1940 9e3b a29d 92b5 697a b1a8 f087 1bb8
000000c0: e426 993b 2a3e 373b 2315 b8b9 fff3 a83b
000000d0: c136 82b9 0385 4a35 4979 5136 2807 0e3b
000000e0: b31d 033b e6dc 8a3b 4d54 ca3b 0009 d53b
000000f0: 13c1 30b4 56e1 67b4 3109 17b8 8177 16b7
00000100: d248 233b 8354 f6b8 f863 0a30 9204 9c3b
00000110: 5d88 81b9 76a9 b13b 8d81 412f 9ebb d437
00000120: f7a0 053b f3e2 0fb8 51dd 003c 8bf2 c43a
00000130: 5dd3 6d2a ed22 4db8 c851 b5b8 866a adb8
00000140: f04a 3c3a af5b 0d3b 657c 37b9 f6f9 dfb9
00000150: 2ae1 583b 88d2 c432 0000 0000 005b 47b4
00000160: c8d1 8634 b881 c5b8 9136 c7b3 bf28 32b8
00000170: a54d 393a c165 0ab8 a613 953b 0000 0000
00000180: b411 aca7 cb5b 3b3a ed65 00b6 1a49 4b3b
00000190: 0c3d f6b5 0402 b336 5e85 a730 2ead 1ab5
000001a0: 6da4 c2b9 87e9 01b9 6edb 5932 817c b6b4
000001b0: dbbb 1ca6 a24e d3b7 4d94 1736 ba6d 14b8
000001c0: 1d93 9fb7 3b45 493b 1e32 2d9e d82e 27ab
000001d0: 81b5 ddb8 5228 073b 9be9 8130 11b9 8933
000001e0: 0564 7db9 8878 06b1 8743 5c3b 7cb0 2fba
000001f0: d146 233b a993 35b8 7f96 a235 b719 4bb8
00000200: d8ae 4aba e9d4 9fb9 0784 8cb9 9724 67ba
00000210: c820 aa36 5ed5 71ba e025 adba cb4d deb1
00000220: a9b6 95b8 bf8f 0db8 60fd 66ba c7a5 a5b1
00000230: 41c8 0dba 9a40 83ba d293 6c9a 3699 7db9
00000240: 4f03 84b5 5f71 bbaa 50fa dcb9 59f6 4538
00000250: bacc d4a9 dc38 c8b5 9211 36b9 f0a8 44ba
00000260: 0384 1533 9710 a4ba 0098 2ab4 4b77 a1b9
00000270: f6bc 4aba 370f 1bb4 d4de b7b8 6ebb 92b9
00000280: b9d6 03ba 37c1 02ba 051f 92ba 04ac d237
00000290: 08ed 86b9 cd19 01ba ca3e 0634 038f 1fb3
000002a0: 74cd afba 11b3 08b7 052e 10af eb96 e9b8
000002b0: 59f7 fdb9 df15 3eb6 a79d 372b 3db5 bcb8
000002c0: 3a2e 1eba fde4 fcb8 4f6b 38ba 49c9 59ba
000002d0: 0157 05ba bd3b 2a35 9cc6 1337 b306 08b9
000002e0: e051 83b9 eafe efb9 e327 42ba cf1f 90ba
000002f0: 7672 2eb5 dacf 0bb6 1aa1 81b8 d427 80b7
00000300: 1dfc 44ba e301 5fb9 2b7a 24ab 276f 91ba
00000310: b464 f4b9 f9b0 8fb9 9305 20a9 6f4e 1bba
00000320: d2e9 bdb8 6a90 b6b8 fbff 9cba a311 34b8
00000330: 20d8 8d2a f500 afb8 c01b 2bb9 addb 27b9
00000340: 2824 07b9 d0dc e6b9 c477 a0b9 2f6a 79ba
00000350: 4134 3eba a7f5 92b6 0000 0000 fc68 45b5
00000360: 71fb e4b6 7181 39b9 eb33 22b4 ac46 c5b8
00000370: fc09 86b9 5677 6ab8 998e 87ba 0000 0000
00000380: a96f c0a7 423c aeb9 2e03 cfb6 1dd7 10b8
00000390: d3d9 2fb7 f955 0a35 03a3 9a30 3ed1 11b6
000003a0: 4f9d 43ba dd6d 85b9 cc96 4e33 17d7 acb5
000003b0: e95e 36a6 3e69 6ab8 2e28 1e37 9c36 b4b8
000003c0: 1b25 dfb8 8d10 c0b9 3ffc 3e9e c813 32ab
000003d0: 62a2 78b9 130f 71ba 2d17 98ac edc8 7b34
000003e0: 1535 52ba db1a 4bb1 5268 e3b9 0d1a b4ba
000003f0: 2009 c2b9 932c 9fb8 6857 c336 92d4 c6b8
