weights/policy_checkpoint1000.pt (torch, 522983 bytes, 12 tensors)

net.0.weight f4 [128, 142]
0	0x3d8c1505	0.06839947
1	0x3dec87a1	0.11549307
2	0xbaa11b9f	-0.0012291557
3	0x3e040933	0.12894134
4	0x3cb4880a	0.022037525
5	0x3dbef9af	0.09324967
6	0x3d2a1ef0	0.04153341
7	0x3da10ba7	0.07863551
8	0x3d5a03a0	0.053226113
9	0xbcc62c85	-0.02419115
10	0x3da2f0ad	0.079560615
11	0x3ce7d04c	0.028297566
12	0x3d16d1df	0.036821242
13	0x3cc84ac8	0.024449721
14	0x3d8a4920	0.06752229
15	0x3d16e7a0	0.03684199
16	0x3d36f7cd	0.044669915
17	0x3cefd5a7	0.029276682
18	0xbd34fd5c	-0.044186935
19	0x3c61377c	0.013746139
20	0xbd05d77b	-0.0326762
21	0x3d5512a5	0.052019734
22	0x3c7530e1	0.014965267
23	0x3e05cbeb	0.1306607
24	0xbd62fd1f	-0.055417176
25	0xbd5b4cee	-0.053540163
26	0xbbd6e01f	-0.006557479
27	0xbd68d38d	-0.056842376
28	0x3b69256b	0.0035575281
29	0xbdc29c2e	-0.09502445
30	0x3dd7675d	0.10517762
31	0xbcc91d80	-0.0245502
32	0x3da18fb6	0.07888739
33	0x3cd74bb7	0.02628122
34	0xbc5a6cda	-0.013331616
35	0x3d647d73	0.0557837
36	0x3881d8ce	6.191582e-05
37	0x3da92665	0.08259276
38	0xba15f67b	-0.00057206274
39	0x3cd23776	0.025661211
40	0x3dcda661	0.100415
41	0xbbb09000	-0.00538826
42	0x3ddbeed6	0.10738914
43	0x3dcbe49d	0.09955714
44	0x3dabb790	0.08384621
45	0x3c63d4f4	0.013905752
46	0x3df81ccd	0.12114868
47	0x3d8da773	0.06916704
48	0x3db521d6	0.08844344
49	0x3d0565af	0.032567676
50	0xbd256e05	-0.040388126
51	0x3ca39ac7	0.019971265
52	0xbc2205d0	-0.009889081
53	0x3e251fa9	0.16125359
54	0x3db4ae62	0.088223234
55	0x3dec3aa6	0.11534624
56	0x3ccea358	0.025224373
57	0x3d3eec39	0.046612
58	0x3e2346c3	0.15944962
59	0x3cab38f0	0.020901173
60	0x3cc96021	0.02458197
61	0xbca84e48	-0.02054514
62	0x3dc57b50	0.096426606
63	0x3cda8a1b	0.026677182
64	0x3ccf7674	0.025325038
65	0xbd5e12f0	-0.05421728
66	0x3d3cac1e	0.04606258
67	0xbd68e80a	-0.056861915
68	0xbd85b4c8	-0.06528622
69	0xbc43394b	-0.011915515
70	0x3daea407	0.085273795
71	0x3cde129f	0.027108489
72	0x3da56068	0.08075029
73	0xbd8dd5e8	-0.06925565
74	0xbd41c47b	-0.04730652
75	0xbd844eeb	-0.06460365
76	0xbd99e022	-0.07513453
77	0x3d0b3953	0.033990216
78	0x3cf62972	0.03004906
79	0x3df1a7a8	0.11799556
80	0xbd31829e	-0.043337457
81	0xbd6a52ec	-0.057207987
82	0x3d365ffc	0.04452513
83	0xbd0aefca	-0.033920087
84	0x3cc7c4b8	0.024385795
85	0xbca32253	-0.019913828
86	0x3d44a0ec	0.04800503
87	0xbd858879	-0.06520171
88	0xbd2d766d	-0.042349268
89	0x3ddcf834	0.107895285
90	0x3dbd0ac5	0.0923057
91	0x3d0495da	0.032369472
92	0x3dc7f8de	0.097642645
93	0x3dd6fb57	0.10497158
94	0xbc9802fa	-0.018556107
95	0xbcc80f71	-0.024421426
96	0x3dec4c6c	0.11538014
97	0xbce7f871	-0.028316708
98	0xbcf3b705	-0.029750356
99	0xbc06ea7b	-0.008234615
100	0x3c98a3be	0.018632766
101	0x3dab6985	0.08369736
102	0xbc357ab8	-0.011076622
103	0xbd798202	-0.060915
104	0x3d085832	0.033287235
105	0xbd6acb73	-0.05732293
106	0xbd91cf24	-0.07119587
107	0xbd3d474f	-0.046210583
108	0xbd966af2	-0.07344617
109	0x3bb9d34c	0.0056709405
110	0x3dabcc11	0.08388532
111	0x3c81d7ef	0.015850035
112	0x3cd3d8bf	0.025860189
113	0xbda04b91	-0.07826913
114	0xbcb356b9	-0.021891939
115	0x3b894882	0.004189552
116	0x3d35e6ca	0.04440955
117	0xbd165a4c	-0.036707208
118	0xbbdfdf64	-0.00683205
119	0xbd75d257	-0.06001505
120	0x3c80b281	0.015710117
121	0xbcda3919	-0.026638554
122	0xbbbe8d32	-0.0058151716
123	0xbd68ebb8	-0.056865424
124	0xbd9da346	-0.076971576
125	0xbd8f377a	-0.06993003
126	0xbd88d8c7	-0.06681972
127	0xbd87a635	-0.06623498
128	0x3d901a63	0.07036283
129	0xbce27c53	-0.027647173
130	0x3d93df1c	0.07220289
131	0x3cd6330d	0.02614739
132	0xbd9188c2	-0.071061626
133	0x3d6ddf53	0.058074307
134	0x3b5076a8	0.0031809006
135	0xbd03c29a	-0.03216801
136	0xbd8ea8d7	-0.069657974
137	0xbdaadc5c	-0.083428115
138	0x3cc4b05a	0.024009872
139	0x3ceb3d5d	0.028715784
140	0x3da464f5	0.080270685
141	0xbcd22cf0	-0.025656193
142	0x3d49296a	0.04911176
143	0xbdbdbbd9	-0.09264345
144	0xbd823340	-0.063574314
145	0xbc554dc6	-0.013019031
146	0x3cd6de17	0.026228948
147	0x3d7b5fd8	0.0613707
148	0x3d95b298	0.07309455
149	0xbd4ff979	-0.050775025
150	0x3c682346	0.014168566
151	0xbd8fd5ac	-0.070231766
152	0xbb92def1	-0.004482143
153	0xbd9fc658	-0.07801503
154	0x3d75f02a	0.06004349
155	0xbd8941af	-0.06701981
156	0x3d6af218	0.057359785
157	0x3b8b1cf0	0.004245393
158	0x3d7bd72d	0.061484504
159	0xbbaf7605	-0.005354645
160	0x3e029768	0.1275307
161	0x3d787a61	0.060663585
162	0x3d1e5d6e	0.03866332
163	0xbd37c16d	-0.0448622
164	0x3d943536	0.07236712
165	0xbb8c69fd	-0.0042850957
166	0xbc71ff46	-0.014770335
167	0x3dbe205d	0.092835166
168	0x3d5abb0e	0.053401046
169	0x3bd6bea8	0.0065534897
170	0xbc88ebe7	-0.01671405
171	0xbcad3848	-0.021145001
172	0x3d770da5	0.060315747
173	0xbcd51883	-0.026012665
174	0xbcf77e12	-0.030211482
175	0xbd5aeef3	-0.053450536
176	0xbd84e10e	-0.06488238
177	0x3d3b85cd	0.0457819
178	0x3d60e82d	0.05490892
179	0xbdd79aa4	-0.10527542
180	0x3cf9dfd5	0.03050224
181	0x3d8954fc	0.067056626
182	0x3d855be5	0.06511668
183	0xbccab475	-0.024744252
184	0x3d9445e6	0.072398946
185	0x3dd6d1b1	0.10489214
186	0x3d2193e7	0.03944769
187	0x3c6d1b7c	0.014471885
188	0x3cdfdd97	0.027327342
189	0x3d509753	0.050925564
190	0xbbedffbd	-0.0072631524
191	0xbc18cb0a	-0.009325752
192	0x3d90fe7b	0.07079788
193	0x3d9fbe40	0.07799959
194	0xbd05ef91	-0.03269917
195	0xbcd9ae4e	-0.026572373
196	0xbcbc4453	-0.022981798
197	0xbd6d7278	-0.057970494
198	0x3d1de24e	0.0385459
199	0x3cb40643	0.021975642
200	0xbd5cf61e	-0.053945653
201	0x3aae45dd	0.0013295967
202	0x3dcf8b57	0.10133999
203	0x3c1d3d4c	0.009597134
204	0xbd1b634f	-0.037936505
205	0xbd1a4359	-0.037661884
206	0xbd0c81bf	-0.034303423
207	0xbd85c740	-0.065321445
208	0xbcfe8f0e	-0.031074073
209	0x3d6476e7	0.055777457
210	0x3ddd6955	0.10811106
211	0x3d187a86	0.037226222
212	0xbdf67cf5	-0.120355524
213	0xbdb4f489	-0.08835704
214	0xbc58fc05	-0.01324368
215	0x3da640be	0.08117817
216	0x3d4a64f0	0.049412668
217	0xbd3878db	-0.04503713
218	0x3cf57dbf	0.029967187
219	0xbd02eb80	-0.03196287
220	0xbd5e7af8	-0.05431649
221	0x3d3b9282	0.045794018
222	0xbd1c4b47	-0.038157728
223	0xbc89cff6	-0.016822796
224	0xbdaaf8ad	-0.083482124
225	0x3d660c2b	0.056163948
226	0x3ce2a451	0.027666243
227	0x3cfa8ae8	0.030583814
228	0xbd6fac54	-0.058513954
229	0xbda99eaa	-0.08282216
230	0xbd8b95a9	-0.06815655
231	0x3c8aebd2	0.016958151
232	0x3d08424f	0.03326636
233	0x3d8a3bb1	0.067496665
234	0x3cf4e077	0.02989219
235	0xbb0077a5	-0.0019602564
236	0xbd27f0e5	-0.04100122
237	0xbda4055f	-0.08008837
238	0xbda8bf87	-0.08239656
239	0xbda0c0ca	-0.078492716
240	0x3d0cb59f	0.034352895
241	0xbd9194b6	-0.071084425
242	0xbbe33268	-0.006933499
243	0xbda63793	-0.08116069
244	0xbc7a8ab8	-0.015291862
245	0xbd71eda2	-0.059064515
246	0xbdc486bc	-0.09596011
247	0x3ce4097c	0.027836554
248	0xbccc4f53	-0.024940168
249	0x3d5432d6	0.051806293
250	0xbcdc8ad8	-0.026921675
251	0xbde57078	-0.11203092
252	0xbc7296a7	-0.014806426
253	0xbd269f21	-0.0406791
254	0xbcd25262	-0.025674049
255	0xbda39d36	-0.0798897

net.0.bias f4 [128]
0	0x3dde7ff3	0.10864248
1	0x3c6e6ada	0.014551843
2	0x3ca06773	0.019580578
3	0x3d98f826	0.074692056
4	0x3d31b212	0.04338271
5	0x3d565ee0	0.052336574
6	0xbc8caa25	-0.017170975
7	0xbd8ffca7	-0.070306115
8	0x3d39f0c2	0.04539562
9	0x3db7e594	0.089793354
10	0x3c9cd699	0.019145297
11	0x3ce4407a	0.027862776
12	0xbd239758	-0.039939255
13	0x3d97bb85	0.074088134
14	0xbd964ff0	-0.073394656
15	0xbd4b7839	-0.0496752
16	0x3d73c520	0.059514165
17	0xbd8a87c8	-0.067641795
18	0xbd806187	-0.06268602
19	0xbd07f547	-0.0331929
20	0x3c96f69e	0.018428143
21	0xbdb6e7c8	-0.089309275
22	0x3d875515	0.06608025
23	0x3cdfe7ad	0.027332151
24	0xbc8487e2	-0.016178075
25	0x3d1902c2	0.037356146
26	0x3ce97f15	0.02850298
27	0xbd1da3e2	-0.03848637
28	0xbd00edf3	-0.031476926
29	0x3d6c9199	0.05775604
30	0xbccb2c4f	-0.024801401
31	0xbd1bd1f9	-0.038042042
32	0x3cfda6d9	0.030963348
33	0x3d42527a	0.047441937
34	0x3ca7037e	0.020387407
35	0xbc5e15c7	-0.013554997
36	0xbdd908ea	-0.10597403
37	0x3baec06e	0.005332998
38	0x3d8a4008	0.06750494
39	0x3cf42480	0.02980256
40	0x3d9da1d8	0.07696885
41	0xbdaef6cd	-0.08543167
42	0x3d011c65	0.03152122
43	0x3d6fa404	0.058506027
44	0xbc9ebaaf	-0.019376127
45	0xbd22e72e	-0.03977125
46	0xbdab115c	-0.083529204
47	0xbcb6b7b0	-0.022304386
48	0xbd1ca9c1	-0.038247827
49	0xbd5166c6	-0.051123403
50	0xbd76b930	-0.060235202
51	0x3d4b8909	0.049691234
52	0xbd47e5b3	-0.048803043
53	0x3d0f9bc4	0.03506066
54	0x3d164943	0.03669096
55	0xbd9c56a1	-0.07633711
56	0xbd14e9dc	-0.03635584
57	0x3da7c5a3	0.08191993
58	0x3c24e328	0.010063924
59	0x3d64b432	0.05583591
60	0xbdc73dc5	-0.097285785
61	0x3d8b7e73	0.06811228
62	0x3c132989	0.008982071
63	0xbdaa6fa7	-0.08322077
64	0x3cb345a9	0.021883802
65	0x3cfe6672	0.03105471
66	0x3c9ad255	0.018899122
67	0x3d623ca5	0.055233616
68	0xbd11e3a5	-0.03561749
69	0xbcc0f537	-0.023554428
70	0xbda88e01	-0.0823021
71	0x3d6a9488	0.057270557
72	0x3b92a1c2	0.0044748494
73	0x3c83c4ff	0.016085146
74	0xbc02d9cd	-0.007986498
75	0xbdbbf726	-0.09177999
76	0xbc93f35e	-0.018060382
77	0x3d32924f	0.043596562
78	0x3d5ee0c0	0.054413557
79	0xbbfae0ad	-0.007656178
80	0x3d47748e	0.04869514
81	0x3b23b346	0.0024978681
82	0xbd0a9c05	-0.033840198
83	0x3e1b1544	0.15144831
84	0x3d19f855	0.037590344
85	0x3dd17191	0.10226739
86	0xbdf2a79d	-0.11848376
87	0xbca828e3	-0.020527309
88	0xbcff4130	-0.031159014
89	0x3de789f2	0.11305608
90	0x3ce56d4d	0.02800622
91	0xbc62c475	-0.013840784
92	0x3cdac9c3	0.026707536
93	0xbd712a3b	-0.058878165
94	0x3d2f3e41	0.04278398
95	0x3d0393ac	0.032123253
96	0xbd972015	-0.07379166
97	0x3d360529	0.044438515
98	0x3bb15bad	0.00541254
99	0xbd92623e	-0.071476445
100	0xbd916620	-0.07099557
101	0xbdb7060a	-0.08936699
102	0xbda422a9	-0.080144234
103	0xbd5959c8	-0.053064138
104	0x3cc03e56	0.023467224
105	0x3d120f3a	0.035659052
106	0x3d0d05d3	0.034429383
107	0xbc92e63d	-0.017932052
108	0xbdb98c19	-0.09059925
109	0xbdcc29e7	-0.0996893
110	0x3d520339	0.051272605
111	0x3c7bc213	0.015366095
112	0x3dea93f5	0.11454002
113	0xbd8a958c	-0.06766805
114	0xbd976dbc	-0.07393977
115	0xbd170882	-0.036873348
116	0x3d91156e	0.070841655
117	0xbda7e65d	-0.08198235
118	0xbd6bbe02	-0.057554252
119	0xbd89d74e	-0.06730519
120	0x3d476794	0.048682764
121	0xbd229375	-0.039691407
122	0xbcfd54a5	-0.03092415
123	0x3d9e5b15	0.07732216
124	0xbdb3cedc	-0.0877969
125	0xbcf15ee5	-0.029464195
126	0xbd71662e	-0.058935337
127	0xbc8dd4fd	-0.017313475

net.2.weight f4 [192, 128]
0	0xbd6347c1	-0.05548835
1	0xbd8678da	-0.06566019
2	0x3e1fa433	0.15589981
3	0xbdefdde1	-0.11712242
4	0xbd3c9bf4	-0.046047166
5	0xbd7b7fbd	-0.061401118
6	0xbdc834f6	-0.097757265
7	0x3db4034b	0.087896906
8	0x3d0e4a44	0.034738794
9	0x3c9c8d36	0.019110303
10	0x3c9c0ec5	0.019050011
11	0x3bb5bb58	0.0055460148
12	0x3c46dc1d	0.01213744
13	0xbd4997ab	-0.049216907
14	0x3d5d426f	0.054018434
15	0xbb69b550	-0.003566105
16	0x3dcb7967	0.09935265
17	0x3ce7d22a	0.028298456
18	0xbdcc0e8c	-0.09963712
19	0x3d39755c	0.04527794
20	0x3db69535	0.08915178
21	0xbd04e51f	-0.03244507
22	0xbcdb600f	-0.026779203
23	0xbe1045d1	-0.14089133
24	0x3cf400e7	0.029785587
25	0xbdc60a93	-0.096699856
26	0xbde62cbb	-0.112390004
27	0x3c919df0	0.017775506
28	0xbd5c96fd	-0.05385493
29	0x3d43d68a	0.047812022
30	0xbdee6e1f	-0.11642098
31	0xbdc80783	-0.09767058
32	0xbda2aea1	-0.07943464
33	0x3b3276aa	0.0027231374
34	0xbddb6c6a	-0.10714038
35	0xbe56b5f0	-0.20967841
36	0xbd8aaffb	-0.06771847
37	0xbd3a0cee	-0.045422487
38	0xbbe17548	-0.006880436
39	0x3cc73f73	0.024322247
40	0xbdf6eea7	-0.12057238
41	0xbda304fc	-0.07959935
42	0x3cb26a2c	0.021779142
43	0xbd99d319	-0.07510967
44	0xbddeadf7	-0.10873025
45	0x3da9285e	0.082596526
46	0xbd98dc3d	-0.07463882
47	0x3b27b8ec	0.00255924
48	0xbdb2548a	-0.08707531
49	0xbdcc603d	-0.099792935
50	0xbe0263b7	-0.1273335
51	0xbde7f12e	-0.11325298
52	0xbdc1d2be	-0.09464024
53	0xbdd39f16	-0.103330776
54	0xbd97f7b5	-0.07420293
55	0xbdfb7e8f	-0.122799985
56	0x3d311475	0.0432324
57	0xbde7b080	-0.113129616
58	0xbda5c8a2	-0.08094908
59	0x3c0608a7	0.008180774
60	0xbd904fed	-0.07046495
61	0xbcfe4f94	-0.031043805
62	0xbd96bd1d	-0.07360289
63	0xbd8517cc	-0.064986795
64	0x3ca7ef3b	0.020499816
65	0x3d847f0f	0.06469547
66	0x3b8d6fe5	0.0043163174
67	0x3c39a487	0.01133073
68	0x3be090ca	0.0068531977
69	0xbdff6769	-0.12470896
70	0xbda21ea8	-0.079160035
71	0xbb4cf55e	-0.003127418
72	0xbdc84167	-0.097780995
73	0x3e0cd555	0.13753255
74	0xbd705c26	-0.05868163
75	0x3d6cd0f1	0.05781645
76	0xbcf718d4	-0.030163206
77	0xbd08632f	-0.033297714
78	0xbde1ef42	-0.11031963
79	0x3d73d2af	0.059527095
80	0xbdda3885	-0.106553115
81	0x3cc45465	0.023966024
82	0xbd44555d	-0.04793297
83	0xbd215b8e	-0.039393954
84	0xbd81c925	-0.063371934
85	0xbcb25f9a	-0.021774102
86	0x3d8a24ad	0.067452766
87	0xbdb774a1	-0.08957792
88	0xbde5de0f	-0.11223995
89	0x3bec7d24	0.0072170664
90	0xbd259113	-0.040421557
91	0xbd915d1a	-0.07097836
92	0xbb9c0364	-0.0047611464
93	0x3d6c5f9b	0.057708364
94	0xbdad440b	-0.08460244
95	0x3d4ac9c2	0.049508817
96	0xbdb053c2	-0.086097255
97	0xbd6a4d45	-0.057202596
98	0xbd6ff8af	-0.058586773
99	0xbdd0266d	-0.10163579
100	0xbd87641b	-0.066108905
101	0xbdfb99eb	-0.12285217
102	0x3d8fbbf4	0.07018271
103	0xbd26f55b	-0.040761333
104	0x3e2e9d75	0.17052253
105	0x3cb0af2f	0.021567909
106	0xbbdc79ef	-0.006728403
107	0xbc440f77	-0.011966578
108	0xbccd4ccc	-0.025061034
109	0xbd2ca1a1	-0.04214633
110	0x3d91bb7e	0.071158394
111	0xbd335643	-0.043783437
112	0xbd08336d	-0.03325217
113	0xbe2a1df9	-0.16612996
114	0xbd0ec92a	-0.034859814
115	0x3d93a5a2	0.07209326
116	0xbb8ff287	-0.004392925
117	0xbdf5250d	-0.119699575
118	0xbdd27c86	-0.10277657
119	0xbcfe4181	-0.031037094
120	0xbd3e72ff	-0.046496388
121	0x3e11d646	0.14241895
122	0xbe0c7d95	-0.1371978
123	0xbcb99b0c	-0.02265694
124	0xbe098847	-0.13430892
125	0x3dfdfe49	0.12402017
126	0xbe0e17d7	-0.13876282
127	0xbda7766c	-0.08176884
128	0x3bcf753a	0.006331113
129	0x3cf60f7a	0.030036677
130	0xbcbac3db	-0.02279847
131	0xbce4bf48	-0.027923241
132	0x3d595858	0.053062767
133	0xbd3d5b58	-0.04622969
134	0x3d275937	0.040856566
135	0x3d1ee66a	0.03879396
136	0x3cb9cb1a	0.022679854
137	0xbd3c916c	-0.046037123
138	0x3dacb5de	0.08433126
139	0x3b65f4be	0.0035088505
140	0xbd23c170	-0.0399794
141	0x3cda31df	0.026635109
142	0xbd492012	-0.04910285
143	0x3c234cfa	0.009967083
144	0x3d93556d	0.07194028
145	0x3bd7157f	0.006563842
146	0xbb000113	-0.001953189
147	0xbccbb1e7	-0.024865104
148	0xbd9260cd	-0.071473695
149	0xbcbdb590	-0.023157865
150	0x3d9b176a	0.07572825
151	0x3d676d13	0.056500506
152	0xbd354b46	-0.04426124
153	0x3ce3a823	0.027790135
154	0x3ca23c10	0.01980403
155	0x3d7ff909	0.062493358
156	0x3d84b6d6	0.06480186
157	0xbc7c8793	-0.015413183
158	0x3c5fd9a2	0.013662728
159	0x3e06c56d	0.1316125
160	0x3cb8d1b8	0.02256094
161	0xbd61c28b	-0.05511717
162	0xbd10272a	-0.0351936
163	0xbd32f226	-0.043687962
164	0xbd97d22f	-0.07413136
165	0xbd2a726f	-0.04161304
166	0x3d2f6508	0.04282096
167	0x3c132fee	0.008983595
168	0x3d75e766	0.060035132
169	0xbd8a62f1	-0.06757153
170	0x3d9befb0	0.07614076
171	0x3d04cfea	0.032424845
172	0xbd89f850	-0.06736815
173	0xbc96bd50	-0.018400818
174	0x3ca0ad6d	0.019613946
175	0xbd687492	-0.056751795
176	0x3c327012	0.010890977
177	0x3da85c99	0.082207866
178	0xbd20d544	-0.039265886
179	0xbc6909f9	-0.014223569
180	0x3d9b936b	0.07596477
181	0xbd1479be	-0.036248915
182	0xbda1af63	-0.078947805
183	0x3cc149ff	0.023594854
184	0xbd84754f	-0.06467687
185	0x3d85227e	0.065007195
186	0xbd2dfc71	-0.042477075
187	0x3d0d45d4	0.03449042
188	0xbc1674b7	-0.0091831
189	0xbcdcfce2	-0.026976053
190	0xbcf458d9	-0.029827522
191	0x3d7d643b	0.061863165
192	0xbd65ccd7	-0.056103554
193	0x3d8eeb69	0.06978495
194	0x3d288841	0.041145567
195	0xbd43c074	-0.04779096
196	0x3d94db2b	0.072683655
197	0x3d62ea01	0.055398945
198	0xbd6176ef	-0.055045065
199	0x3c3e1d1d	0.011603621
200	0x3d13529c	0.035967454
201	0xbbf7a7a3	-0.0075578257
202	0x3daaa9dd	0.0833318
203	0xbca2f389	-0.019891517
204	0xbd116476	-0.035496198
205	0x3d28ebd6	0.041240536
206	0xbb9ee8a4	-0.0048495103
207	0x3dc041ee	0.09387575
208	0xbd77becf	-0.060484704
209	0xbc919ac6	-0.017773997
210	0xbd4dfd60	-0.050290465
211	0x3c561d09	0.013068446
212	0xbc1cebbf	-0.009577691
213	0xbd50111e	-0.050797574
214	0xbd55bf0c	-0.05218415
215	0xbd084a14	-0.03327377
216	0xbdd45ea3	-0.10369613
217	0x3d36b7c6	0.044608854
218	0x3d38942a	0.045063175
219	0xbd21354b	-0.039357465
220	0x3dbf44b3	0.09339275
221	0x3db4c485	0.088265456
222	0xbcd917e9	-0.026500659
223	0x3d2c18e5	0.04201593
224	0x3bffc3ef	0.0078053395
225	0x3d90ca00	0.070697784
226	0xbc88536c	-0.016641341
227	0xbc9c34b7	-0.019068105
228	0x3d1e9153	0.03871281
229	0xbdf8a1c5	-0.1214023
230	0x3cad7f94	0.021178998
231	0xbd948ad1	-0.0725304
232	0x3b8edaae	0.0043595647
233	0x3c9d4045	0.019195685
234	0xbd403382	-0.04692412
235	0xbce80d6a	-0.028326709
236	0xbcba110f	-0.022713212
237	0xbb8afb52	-0.0042413855
238	0x3ca6bd47	0.020353926
239	0xbd60de3e	-0.054899447
240	0x3dacf29c	0.084447116
241	0xbca11a56	-0.019665878
242	0xbb414047	-0.0029487775
243	0x3cdd3a34	0.027005292
244	0xbd1f7511	-0.038930003
245	0x3c6e4350	0.014542416
246	0xbdb6a38d	-0.089179136
247	0xb99f1be7	-0.00030347632
248	0xbc5c1dba	-0.013434822
249	0xbd9bd99a	-0.076098636
250	0x3ce987b6	0.028507095
251	0xbd9b4d9a	-0.07583161
252	0xbd7b3850	-0.061333
253	0xbd81cb1d	-0.06337569
254	0xbbc93d84	-0.0061413664
255	0xbac31986	-0.0014884926

net.2.bias f4 [192]
0	0xbc32d3aa	-0.010914722
1	0x3d513409	0.051075015
2	0x3d3cae32	0.046064563
3	0x3c82a11d	0.015945965
4	0x3ca134ae	0.01967844
5	0xb72035a6	-9.549234e-06
6	0x3cc78842	0.024356965
7	0x3b908655	0.004410545
8	0xbdd97c34	-0.10619393
9	0xbc56be7b	-0.0131069375
10	0x3cb65dd4	0.022261538
11	0xbcecc9d4	-0.028904833
12	0x3b8f4c13	0.0043730824
13	0x3bc69a27	0.006060857
14	0xbc5b2009	-0.013374337
15	0x3d7548ff	0.059884068
16	0x3d3a7e65	0.045530695
17	0x3cf73af5	0.03017948
18	0x3d0cb4bd	0.034352053
19	0x3e0182a7	0.12647496
20	0xbc140aea	-0.009035805
21	0x3c05ae54	0.008159239
22	0xbb348fe8	-0.0027551595
23	0x3de9e732	0.1142105
24	0x3d96f016	0.073700115
25	0x3da44282	0.08020498
26	0x3d26d7bc	0.040733084
27	0x3e1c7d12	0.15282086
28	0x3cc16e08	0.023612037
29	0x3c210704	0.009828333
30	0xbd1c839e	-0.038211457
31	0x3d01634a	0.03158883
32	0x3cec6978	0.028858885
33	0x3c235848	0.009969778
34	0x3d84ac91	0.06478227
35	0x3d383162	0.04496897
36	0x3cec7893	0.028866088
37	0x3d3e9bc8	0.046535283
38	0xbd8818fc	-0.066453904
39	0xbb13fcaf	-0.002258103
40	0xbd94d845	-0.07267813
41	0xbd35505e	-0.044266097
42	0x3da1affd	0.07894895
43	0x3dede5bc	0.11616084
44	0xbc9465fb	-0.018115034
45	0xbccc4159	-0.024933504
46	0xbdc6059f	-0.09669041
47	0x3b0da08d	0.0021610588
48	0x3da6cf4b	0.08145007
49	0xbd141d3e	-0.0361607
50	0x3d5c112d	0.053727318
51	0x3de31c6b	0.11089405
52	0x3d022ca3	0.03178085
53	0xbb86cf71	-0.0041140844
54	0x3da303db	0.0795972
55	0xbcaa942b	-0.020822605
56	0x3ca80f6f	0.020515172
57	0xbdad8851	-0.08473266
58	0x3b32b8cb	0.002727079
59	0xbcdf96c9	-0.02729358
60	0x3b910d0d	0.0044266046
61	0x3c309e22	0.010779889
62	0x3d8d98d0	0.06913912
63	0xbcce71b6	-0.025200706
64	0xbd7ae903	-0.061257374
65	0xbd488bbc	-0.048961386
66	0xbd5a3b0d	-0.05327897
67	0xbd0537df	-0.032523986
68	0xbd10a728	-0.035315663
69	0xbd8ccf07	-0.06875425
70	0x3d81060c	0.062999815
71	0xbd99bf5e	-0.075072035
72	0xbc8b89f3	-0.017033553
73	0x3c87b401	0.016565325
74	0x3cb71270	0.022347659
75	0x3d397cef	0.04528516
76	0x3cba93ba	0.02277552
77	0x3d573bac	0.052547142
78	0x3d63129b	0.055437665
79	0x3cfa16db	0.030528476
80	0x3cd3efc1	0.02587116
81	0x3c71bf50	0.014755085
82	0x3c696a41	0.014246524
83	0xbb998f6b	-0.004686286
84	0xbceabdf1	-0.028655024
85	0xbc66700d	-0.014064801
86	0x3d4b49d5	0.04963096
87	0x3d4554d2	0.048176594
88	0xbd803c4d	-0.062615015
89	0x3da49457	0.08036106
90	0x3d3f7259	0.04673991
91	0x3dcbca5b	0.099507056
92	0xbd060712	-0.032721587
93	0x3dab0ae5	0.08351687
94	0xbbdfc3ad	-0.0068287463
95	0x3dd5b645	0.10435156
96	0xbb77a1f3	-0.0037785738
97	0xbda4992b	-0.08037027
98	0xbd662631	-0.056188766
99	0xbcd4418f	-0.025910167
100	0x3c5bd1fe	0.013416765
101	0xbd0f7b11	-0.035029475
102	0xbc3e0d10	-0.011599794
103	0xbd651735	-0.055930335
104	0x3e02b945	0.12765987
105	0xbcb811c3	-0.022469407
106	0x3d8b3052	0.06796326
107	0xbc9d889e	-0.019230183
108	0x3d9c205b	0.07623359
109	0x3d040739	0.03223345
110	0x3cf90f8b	0.03040292
111	0xbd6fdaa4	-0.05855812
112	0xbd017c15	-0.031612474
113	0x3d9dd39d	0.07706378
114	0x3daa2f45	0.08309797
115	0x3d7f104f	0.062271412
116	0x3dc5f023	0.09664943
117	0xbde08b73	-0.10964098
118	0x3cfd2772	0.030902598
119	0xbd6f653f	-0.058446165
120	0xbdc1aea7	-0.094571404
121	0x3d476ab7	0.048685756
122	0x3c8bc0f8	0.017059788
123	0x3ca318af	0.019909231
124	0x3cbbd93c	0.022930734
125	0xbd0cfa39	-0.03441832
126	0x3cc90ea8	0.024543121
127	0x3d71d2db	0.059038978
128	0xbcdc8ef5	-0.026923636
129	0x3ddf195a	0.10893507
130	0xbd735908	-0.05941108
131	0xbc8feff0	-0.017570466
132	0xbc926bea	-0.017873723
133	0xbbda7a3b	-0.006667403
134	0xbddedc63	-0.10881879
135	0x3cc87ab3	0.02447257
136	0x38a69935	7.944034e-05
137	0x3df68118	0.120363414
138	0xba675999	-0.0008825302
139	0x3ce6681b	0.028125813
140	0xbd4010df	-0.04689109
141	0xbd3ccb28	-0.046092182
142	0x3a5c49a6	0.00084033085
143	0x3c2d07b1	0.010560916
144	0x3dd11ec6	0.10210948
145	0xbcb2381c	-0.02175527
146	0xbcd22570	-0.025652617
147	0x3dea2528	0.11432868
148	0x3e1e9cca	0.15489498
149	0xbce7f1a6	-0.02831347
150	0x3cd33cf2	0.025785897
151	0x3df1bdd1	0.11803783
152	0x3d8ebe40	0.06969881
153	0x3d1de6cb	0.03855018
154	0x3ddb8652	0.10718979
155	0x3d5b32a6	0.0535151
156	0x3d1f5b05	0.038905162
157	0x3d141821	0.036155824
158	0x3d47baed	0.04876225
159	0x3dd87d93	0.105708264
160	0xbc41b6b4	-0.011823345
161	0x3d34b983	0.04412223
162	0xbd8bc304	-0.06824306
163	0xbca4fe7a	-0.020140875
164	0x3cdbb79c	0.02682095
165	0xbdd65657	-0.10465687
166	0x3d60408a	0.05474905
167	0x3dd3d820	0.10343957
168	0x3d0fffb3	0.035155963
169	0x3dc59f51	0.09649528
170	0xbd0a7f7f	-0.033812996
171	0x3dc2f42a	0.09519227
172	0xbd45babd	-0.04827379
173	0xbd54e131	-0.05197257
174	0x3ca54704	0.020175464
175	0x3bacab70	0.0052694604
176	0xbc6288e7	-0.013826585
177	0x3db90ea8	0.090359986
178	0x3d6f9891	0.058495108
179	0x3c4c753f	0.0124791255
180	0x3da582e8	0.08081609
181	0xbd3f21d9	-0.04666314
182	0x3d68be49	0.056822095
183	0xbb1ccb56	-0.0023924909
184	0xbd93df17	-0.072202854
185	0x3d354f01	0.044264797
186	0x3cc815d3	0.02442447
187	0xbd21d150	-0.039506257
188	0xbc078037	-0.008270315
189	0x3d27ef7e	0.040999882
190	0x3d44cb35	0.048045356
191	0xbd67d5f2	-0.05660052

exp_avg f4 [128, 142]
0	0x3c1a8725	0.009431635
1	0x3d0b1da3	0.03396381
2	0x3d156e8d	0.036482383
3	0xbd333d32	-0.043759532
4	0xbcc98a99	-0.024602221
5	0xbcde9107	-0.027168764
6	0xbcd12d55	-0.025534311
7	0xbccf0f83	-0.025275951
8	0x3c1435a0	0.009045988
9	0x3d0c0c3f	0.034191366
10	0x3d146794	0.036231592
11	0xbd10881e	-0.03528606
12	0xbc672e13	-0.014110106
13	0xbc843f20	-0.016143382
14	0xbcccba4e	-0.02499118
15	0xbccdbb03	-0.025113588
16	0x3c133c4c	0.008986544
17	0xbc3c4379	-0.011490696
18	0xbc165343	-0.009175125
19	0xbc2f3f52	-0.010696249
20	0x3d10be95	0.035338003
21	0x3d084078	0.033264607
22	0x3cc66ed8	0.024222776
23	0x3cc568ea	0.024097878
24	0xbd26c5c7	-0.04071596
25	0xbc7e9462	-0.015538307
26	0xbc7ab1b8	-0.0153011605
27	0xbc67778a	-0.014127621
28	0xbbfcb2f2	-0.0077117616
29	0xbcc72e92	-0.024314199
30	0xbbc03d34	-0.005866671
31	0xbccede14	-0.02525238
32	0xbd227712	-0.039664336
33	0xbcc61bb3	-0.02418313
34	0xbd41b90c	-0.047295615
35	0xbd20301e	-0.039108388
36	0xbd17d3e4	-0.03706731
37	0xbd386b37	-0.045024123
38	0xbc828706	-0.015933525
39	0x3b2703cb	0.0025484439
40	0x3b14cb7c	0.0022704294
41	0x3cd22773	0.025653576
42	0x38d99ac7	0.00010376196
43	0xbd3eaef2	-0.04655356
44	0xbd509f46	-0.050933145
45	0xbd505504	-0.050862327
46	0xbcb2648e	-0.021776464
47	0x3b49440d	0.0030710727
48	0xbcd71d62	-0.026259128
49	0x3c094f6c	0.008380752
50	0x3c290348	0.010315724
51	0x3c2793b4	0.010228086
52	0xbcbedb8a	-0.023298044
53	0xbc771fb1	-0.015083239
54	0xbc8b8a42	-0.0170337
55	0x3c02f4e0	0.007992953
56	0xbcdc25f6	-0.02687357
57	0x3d05edec	0.032697603
58	0x3d07a7cb	0.033119004
59	0xbc0b5cb6	-0.008505991
60	0xbccca813	-0.024982488
61	0xbcbc7f2a	-0.023009855
62	0xbb893db8	-0.0041882657
63	0x3b008f37	0.0019616613
64	0xbd34228b	-0.043978255
65	0x3d10e81a	0.0353776
66	0xb98dae78	-0.00027023605
67	0xb917dd36	-0.0001448289
68	0xb99bcf8e	-0.00029718544
69	0x3b7adcf6	0.0038278676
70	0xbc657d10	-0.014006868
71	0x3a61520b	0.0008595294
72	0x00000000	0.0
73	0x00000000	0.0
74	0x3d12a6d5	0.035803635
75	0x3d073c37	0.03301641
76	0x391c0f09	0.0001488292
77	0x00000000	0.0
78	0x00000000	0.0
79	0x359cbd7c	1.1678053e-06
80	0x00000000	0.0
81	0x00000000	0.0
82	0x00000000	0.0
83	0x00000000	0.0
84	0x359cbd7c	1.1678053e-06
85	0x00000000	0.0
86	0x00000000	0.0
87	0x00000000	0.0
88	0x00000000	0.0
89	0xbc84f910	-0.016232044
90	0xbbf88c03	-0.00758505
91	0xbbb258e0	-0.0054427236
92	0x3851505d	4.9904327e-05
93	0xb3a373f5	-7.6113714e-08
94	0xbc6edacb	-0.0145785315
95	0xbc6b3e44	-0.014358107
96	0xbc694326	-0.014237201
97	0x00000000	0.0
98	0x00000000	0.0
99	0xbd398ab0	-0.04529828
100	0xbd399e9a	-0.04531727
101	0xbd38dda0	-0.045133233
102	0x00000000	0.0
103	0x00000000	0.0
104	0x2e2819c3	3.822166e-11
105	0x00000000	0.0
106	0x00000000	0.0
107	0x00000000	0.0
108	0x00000000	0.0
109	0xad3b8d0a	-1.0661036e-11
110	0x00000000	0.0
111	0x00000000	0.0
112	0x00000000	0.0
113	0x00000000	0.0
114	0x3d03ca10	0.032175124
115	0x3cbe047d	0.0231955
116	0x3ce5e3ee	0.028062787
117	0xb8c12224	-9.209316e-05
118	0xb8c12224	-9.209316e-05
119	0x3d0a98c4	0.033837095
120	0x3d01ab74	0.03165765
121	0x3d172c18	0.036907285
122	0x00000000	0.0
123	0x00000000	0.0
124	0x3cc58550	0.02411142
125	0x3ca7a276	0.02046321
126	0x3cebd60c	0.028788589
127	0x00000000	0.0
128	0x00000000	0.0
129	0x3b0aef7d	0.0021199875
130	0x00000000	0.0
131	0x00000000	0.0
132	0x00000000	0.0
133	0x00000000	0.0
134	0x3b0aef95	0.002119993
135	0x00000000	0.0
136	0x00000000	0.0
137	0x00000000	0.0
138	0x00000000	0.0
139	0xbc2771f2	-0.010220038
140	0x3b9ec23d	0.0048449324
141	0x39aca173	0.00032926686
142	0x3a2063af	0.00061183696
143	0x3b4e204d	0.0031452358
144	0x3bc013f8	0.0058617555
145	0x3c848ef7	0.016181452
146	0x3ca25fe9	0.019821124
147	0x3c8d3982	0.017239336
148	0x3c9c3f1d	0.019073064
149	0x3c9c400a	0.019073505
150	0xb85b04a9	-5.221801e-05
151	0x3b1f2424	0.0024283016
152	0x3bbae5dc	0.005703671
153	0x3c74a393	0.014931577
154	0x3ca5fffb	0.020263663
155	0x3ca5ec50	0.020254284
156	0x3ca82de2	0.020529691
157	0x3ca2b654	0.019862331
158	0x37045f13	7.889949e-06
159	0x3c8176ab	0.015803656
160	0x3c968736	0.01837502
161	0x3ca09c27	0.01960571
162	0x3bda95a8	0.0066706724
163	0x3bdcfac9	0.006743763
164	0x3becf1cb	0.0072309724
165	0x3bd728bf	0.0065661366
166	0x3c57ca58	0.013170801
167	0x3c79b86e	0.015241725
168	0x3c7bdccd	0.015372467
169	0x3ca50635	0.020144561
170	0x3c9767f3	0.018482184
171	0x3ca97a7c	0.020688288
172	0x3b9cc4b5	0.0047841915
173	0x3ca55b46	0.020185124
174	0x3c8b0852	0.01697174
175	0x3c7ba113	0.015358227
176	0x3c89fc0f	0.016843824
177	0x3c4d87d7	0.012544594
178	0x3c7670f9	0.015041583
179	0x3c7a29ab	0.0152687235
180	0x3c9aac7f	0.01888108
181	0x3b5f73ce	0.0034096125
182	0x3b3cab26	0.0028788536
183	0x3b101be3	0.0021989278
184	0x3a0a5376	0.0005276719
185	0x3c45a17c	0.012062427
186	0x3c8407a7	0.01611693
187	0x3c82ab39	0.015950786
188	0x3ca05012	0.01956943
189	0x3ae06a6d	0.0017121561
190	0x3c956414	0.018236198
191	0x39d306b2	0.00040250045
192	0x3b47198c	0.0030380217
193	0x3b1840c0	0.0023231953
194	0x3ca4dcd7	0.020124836
195	0x3ca130d3	0.019676602
196	0x3c8b11a4	0.016976185
197	0xb9c8514e	-0.0003820755
198	0x3c8eeaa0	0.017445862
199	0x3ad8d06c	0.0016541607
200	0x3a9fb25c	0.0012183893
201	0x3c92611e	0.017868575
202	0x3c9427ff	0.018085478
203	0x3ca84f92	0.020545755
204	0x3b9c3911	0.004767545
205	0x3b215229	0.0024615622
206	0x3c563d3c	0.013076123
207	0x3a8747a6	0.0010321036
208	0x3a920a64	0.0011142013
209	0x3a4f0ef1	0.000789865
210	0xadcd736a	-2.3357056e-11
211	0xb9ab530c	-0.00032677536
212	0x3c4f5e35	0.012656738
213	0x3428b95d	1.5713654e-07
214	0x00000000	0.0
215	0x00000000	0.0
216	0x3a0f8954	0.00054754806
217	0x3a2d31cd	0.0006606847
218	0x3a290b53	0.0006448526
219	0x00000000	0.0
220	0x00000000	0.0
221	0x331c0b1d	3.6331688e-08
222	0x00000000	0.0
223	0x00000000	0.0
224	0x00000000	0.0
225	0x00000000	0.0
226	0x331c0b1d	3.6331688e-08
227	0x00000000	0.0
228	0x00000000	0.0
229	0x00000000	0.0
230	0x00000000	0.0
231	0x3c8de61a	0.017321635
232	0x3c7f8a41	0.015596927
233	0x3c98e526	0.018663954
234	0xb7ccc55a	-2.4410594e-05
235	0xb3bcc8f4	-8.7909854e-08
236	0x3ca4da67	0.020123674
237	0x3ca4416c	0.020050727
238	0x3ca5d1e7	0.02024169
239	0x00000000	0.0
240	0x00000000	0.0
241	0x3c54f347	0.012997455
242	0x3c51fe01	0.012816907
243	0x3c51f7c1	0.012815417
244	0x00000000	0.0
245	0x00000000	0.0
246	0x2dc44408	2.2312832e-11
247	0x00000000	0.0
248	0x00000000	0.0
249	0x00000000	0.0
250	0x00000000	0.0
251	0xaeee2035	-1.0828708e-10
252	0x00000000	0.0
253	0x00000000	0.0
254	0x00000000	0.0
255	0x00000000	0.0

exp_avg_sq f4 [128, 142]
0	0x3c179dda	0.009253943
1	0x3c1f3435	0.009717037
2	0x3be77382	0.00706333
3	0x3c2673c7	0.010159439
4	0x3c138857	0.009004674
5	0x3c0aa7ef	0.00846289
6	0x3c162de8	0.009166218
7	0x3c37a3a7	0.011208451
8	0x3bfcfd14	0.007720599
9	0x3c185a37	0.009298853
10	0x3c19ef46	0.009395426
11	0x3c475762	0.01216683
12	0x3c241a9e	0.010016112
13	0x3be37c9b	0.0069423444
14	0x3c2e84eb	0.010651807
15	0x3bf120fc	0.0073586684
16	0x3c0d6ffe	0.008632658
17	0x3c5097f3	0.01273154
18	0x3c5355da	0.012898887
19	0x3c03ea01	0.008051396
20	0x3c3ccefe	0.01152396
21	0x3c38faee	0.011290295
22	0x3c61b58d	0.013776195
23	0x3c309094	0.010776658
24	0x3c09e749	0.008416959
25	0x3c34671b	0.01101091
26	0x3c4ee60d	0.012628091
27	0x3c3436a1	0.010999353
28	0x3c52da31	0.012869404
29	0x3c3cb187	0.011516935
30	0x3c273ac2	0.01020688
31	0x3c3bff1a	0.011474395
32	0x3c4270f3	0.0118677495
33	0x3c37bacf	0.011213972
34	0x3c4df3ca	0.012570331
35	0x3c5739e8	0.0131363645
36	0x3c1a57f2	0.009420382
37	0x3c41ac30	0.011820838
38	0x3c4aef6b	0.012386183
39	0x3c01fdf3	0.007934081
40	0x3c3a5c6e	0.011374576
41	0x3c201303	0.009770158
42	0x3c47e3b2	0.012200283
43	0x3c254953	0.010088283
44	0x3c33eb49	0.010981389
45	0x3c3a1489	0.011357435
46	0x3c2c2760	0.010507435
47	0x3c24b33b	0.0100524975
48	0x3c4857fd	0.012228009
49	0x3c12cb0e	0.008959545
50	0x3c143acf	0.009047224
51	0x3c0d8853	0.008638459
52	0x3c12a587	0.008950598
53	0x3bf1d313	0.0073798983
54	0x3c63cceb	0.013903837
55	0x3c1d9898	0.009618901
56	0x3c192abb	0.009348567
57	0x3c13ec85	0.009028559
58	0x3c4ea967	0.012613631
59	0x3c450353	0.012024718
60	0x3c20889b	0.009798194
61	0x3c07726f	0.008267029
62	0x3c4419f3	0.011969077
63	0x3bd6a046	0.006549868
64	0x3c1d961d	0.009618309
65	0x3c0ded69	0.00866256
66	0x3ba5a75f	0.0050553526
67	0x3a8ac8e7	0.0010588438
68	0x3a2afbb6	0.0006522493
69	0x3c1bfefb	0.009521241
70	0x3bce8d31	0.0063034524
71	0x3b781921	0.0037856775
72	0x00000000	0.0
73	0x00000000	0.0
74	0x3b9cf8ae	0.004790387
75	0x3b84c334	0.0040515903
76	0x3b16d34e	0.002301413
77	0x00000000	0.0
78	0x00000000	0.0
79	0x3a464568	0.0007563443
80	0x00000000	0.0
81	0x00000000	0.0
82	0x00000000	0.0
83	0x00000000	0.0
84	0x39f7dc62	0.0004727571
85	0x00000000	0.0
86	0x00000000	0.0
87	0x00000000	0.0
88	0x00000000	0.0
89	0x3c3fbe72	0.011703121
90	0x3c498d76	0.012301793
91	0x3c1c6cba	0.009547407
92	0x3a6a6f8c	0.00089430134
93	0x3a0d47d8	0.00053894287
94	0x3c3cb633	0.011518049
95	0x3c20d1cf	0.009815647
96	0x3bc1b3ba	0.0059113177
97	0x00000000	0.0
98	0x00000000	0.0
99	0x3c183436	0.009289792
100	0x3bfabf92	0.0076522315
101	0x3b9d1efe	0.0047949543
102	0x00000000	0.0
103	0x00000000	0.0
104	0x3a6f7697	0.0009134798
105	0x00000000	0.0
106	0x00000000	0.0
107	0x00000000	0.0
108	0x00000000	0.0
109	0x39afe53f	0.00033549403
110	0x00000000	0.0
111	0x00000000	0.0
112	0x00000000	0.0
113	0x00000000	0.0
114	0x3c52f802	0.0128765125
115	0x3c24f825	0.010068928
116	0x3bdde9b1	0.006772243
117	0x39f030c5	0.00045812703
118	0x39df3ed1	0.00042580676
119	0x3c3d4507	0.011552102
120	0x3c2171eb	0.00985382
121	0x3bfa06af	0.0076301913
122	0x00000000	0.0
123	0x00000000	0.0
124	0x3c00bb40	0.007857144
125	0x3bc5d529	0.0060373736
126	0x3b96363b	0.0045841015
127	0x00000000	0.0
128	0x00000000	0.0
129	0x3ab28365	0.0013619481
130	0x00000000	0.0
131	0x00000000	0.0
132	0x00000000	0.0
133	0x00000000	0.0
134	0x3a856b9a	0.0010179162
135	0x00000000	0.0
136	0x00000000	0.0
137	0x00000000	0.0
138	0x00000000	0.0
139	0x3d7f3b01	0.06231213
140	0x3cd15673	0.025553918
141	0x3ebff8d3	0.37494525
142	0x3c08161e	0.008306054
143	0x3c0f7b20	0.008757383
144	0x3c02bac9	0.007979103
145	0x3c02ad57	0.007975898
146	0x3c0a61c2	0.008446159
147	0x3c16cd52	0.009204226
148	0x3bdb6033	0.0066948174
149	0x3c02e276	0.007988563
150	0x3bfab109	0.0076504988
151	0x3c191275	0.009342779
152	0x3c18cfaa	0.009326855
153	0x3c162e39	0.009166294
154	0x3c189404	0.009312633
155	0x3c00b2a2	0.007855089
156	0x3c1b1180	0.009464622
157	0x3c0815d3	0.008305985
158	0x3bac96b2	0.0052669877
159	0x3c13bfd9	0.009017908
160	0x3c06af33	0.008220482
161	0x3bd6c414	0.006554136
162	0x3bf38b58	0.0074323826
163	0x3be8a6ae	0.007099948
164	0x3c10e948	0.008844681
165	0x3c00fc69	0.007872679
166	0x3bc9c67c	0.0061576944
167	0x3c255f3b	0.0100935055
168	0x3c2742b6	0.010208776
169	0x3c2318ec	0.009954672
170	0x3c3b58ec	0.011434775
171	0x3c215308	0.009846456
172	0x3bed1c59	0.0072360453
173	0x3c1f199e	0.009710697
174	0x3c0206b3	0.0079361675
175	0x3c1538b7	0.00910776
176	0x3c3bf242	0.011471333
177	0x3c33a495	0.010964532
178	0x3c07de34	0.008292723
179	0x3c23a897	0.009988925
180	0x3c17ce6b	0.0092655225
181	0x3bd6b8a0	0.0065527707
182	0x3c029b72	0.007971631
183	0x3c122d58	0.008921944
184	0x3c3531b6	0.011059215
185	0x3c302984	0.010752086
186	0x3c165eeb	0.009177904
187	0x3c3be6d4	0.011468608
188	0x3c0555c7	0.008138127
189	0x3bc409b9	0.0059826043
190	0x3c20780d	0.009794247
191	0x3c26c04a	0.010177681
192	0x3c11cab9	0.0088984305
193	0x3c1acdc1	0.00944847
194	0x3bd69838	0.0065489076
195	0x3bd28bef	0.006425373
196	0x3c03eec2	0.00805253
197	0x3b9dd57b	0.0048167086
198	0x3bb17b1d	0.0054162876
199	0x3c1d1fb8	0.009590082
200	0x3bebd2dd	0.0071967677
201	0x3c0bcd40	0.008532822
202	0x3bab33ce	0.0052246815
203	0x3bed8888	0.007248942
204	0x3bb6d088	0.005579058
205	0x3b5ba329	0.0033514
206	0x3c044331	0.00807266
207	0x3c015d8c	0.0078958385
208	0x3b8ad3d5	0.004236678
209	0x3aa0eb1d	0.00122771
210	0x39f1d937	0.0004612894
211	0x3bfc1fd0	0.007694222
212	0x3b98c1f4	0.004661793
213	0x3b4421a8	0.0029927287
214	0x00000000	0.0
215	0x00000000	0.0
216	0x3b8f3f11	0.004371532
217	0x3b5bb74f	0.0033526008
218	0x3b0e0186	0.0021668389
219	0x00000000	0.0
220	0x00000000	0.0
221	0x3a1f0146	0.00060655584
222	0x00000000	0.0
223	0x00000000	0.0
224	0x00000000	0.0
225	0x00000000	0.0
226	0x398d696d	0.00026972164
227	0x00000000	0.0
228	0x00000000	0.0
229	0x00000000	0.0
230	0x00000000	0.0
231	0x3c21ee28	0.009883441
232	0x3c34cd12	0.011035221
233	0x3c059155	0.008152326
234	0x3a2cfd60	0.0006599035
235	0x3a099683	0.0005248563
236	0x3c340138	0.010986619
237	0x3c10254b	0.008797954
238	0x3bad31ab	0.005285462
239	0x00000000	0.0
240	0x00000000	0.0
241	0x3bc90778	0.0061349235
242	0x3bcbae3d	0.006215839
243	0x3b83081b	0.003998769
244	0x00000000	0.0
245	0x00000000	0.0
246	0x39d3cd81	0.00040398168
247	0x00000000	0.0
248	0x00000000	0.0
249	0x00000000	0.0
250	0x00000000	0.0
251	0x39a36f2a	0.00031172606
252	0x00000000	0.0
253	0x00000000	0.0
254	0x00000000	0.0
255	0x00000000	0.0

exp_avg f4 [128]
0	0xbc4fde94	-0.012687344
1	0x3ca66377	0.0203111
2	0x357efbd7	9.498885e-07
3	0xbd3abfea	-0.04559318
4	0x3b7fa7da	0.003900996
5	0xbdafb2de	-0.08579038
6	0x3b0551cd	0.0020342947
7	0x3aece97f	0.0018074958
8	0xba48f207	-0.00076654594
9	0x3d69395a	0.05693946
10	0xb84e1137	-4.913026e-05
11	0x3b83965d	0.0040157274
12	0x3acd295c	0.0015652585
13	0x3d8f532d	0.069982864
14	0x1255503f	6.730986e-28
15	0x291fa2bd	3.5446245e-14
16	0x335d3dd5	5.1511808e-08
17	0x3a1c95bf	0.00059732416
18	0xbc80b518	-0.015711352
19	0x1fa728cf	7.0794763e-20
20	0x36785e13	3.7009638e-06
21	0x3ab2d92e	0.0013645047
22	0x3bce957f	0.0063044424
23	0xbd9cdde0	-0.07659507
24	0x31c5f195	5.7609193e-09
25	0x3a22b840	0.0006207265
26	0xb9410cf2	-0.00018410737
27	0xae082100	-3.095213e-11
28	0xbd0b51f5	-0.034013707
29	0x3a76bb34	0.0009412051
30	0xbd279d04	-0.040921226
31	0x3c051ed5	0.008125027
32	0x3d26a17a	0.04068134
33	0xba586c15	-0.00082558516
34	0x3c2f0468	0.010682203
35	0x3da4d562	0.08048512
36	0x32e46e9d	2.6592994e-08
37	0xba06357c	-0.0005119664
38	0xbcf18714	-0.029483356
39	0xba39e680	-0.0007091537
40	0xbd8487c8	-0.06471211
41	0xb91d43fd	-0.00014998014
42	0xb999a896	-0.0002930804
43	0x3a4da82d	0.00078451895
44	0x3bb716a2	0.005587415
45	0x3afa254b	0.00190846
46	0x2c077bfc	1.925348e-12
47	0x3a8b67cb	0.0010635791
48	0xbdd569e9	-0.104205914
49	0xbd7bc41a	-0.061466314
50	0x384aa59a	4.831478e-05
51	0xbda8e112	-0.08246054
52	0x29a7526b	7.430587e-14
53	0x3c8c71af	0.017144052
54	0x374c9d6a	1.2195998e-05
55	0xbdb23061	-0.08700634
56	0x33e0224e	1.0437053e-07
57	0x3bf7101e	0.007539763
58	0xbce49caf	-0.027906744
59	0xbd170c2d	-0.036876846
60	0x89c3df4e	-4.7154537e-33
61	0x3a735441	0.0009282269
62	0x3abeccfc	0.001455694
63	0x28818982	1.4381512e-14
64	0x3cac2bc2	0.02101696
65	0x3b1db6f5	0.002406535
66	0xb1a7ed7c	-4.8873385e-09
67	0x3cbadbf6	0.022809964
68	0x3aa7ccf2	0.0012802167
69	0x3d10dd19	0.035367105
70	0x02084dbd	1.0014012e-37
71	0xba989c27	-0.0011643217
72	0x3b133f0f	0.0022468006
73	0xb9997ce8	-0.00029275496
74	0xbd9e62f7	-0.0773372
75	0x18d0a002	5.3928306e-24
76	0xb5837ef0	-9.797204e-07
77	0x39154e47	0.00014238908
78	0x3a9d52d7	0.0012002838
79	0xb8fb40f1	-0.00011980709
80	0xbc52b76f	-0.012861117
81	0xbda3eec0	-0.08004522
82	0x3cb057d3	0.021526253
83	0x3c9c35ff	0.019068716
84	0x3cd8bfc7	0.026458634
85	0x3c706ecf	0.014674856
86	0x290bfb4a	3.108216e-14
87	0x381706f0	3.6007666e-05
88	0x3d7ce4c0	0.06174159
89	0x3d83f91a	0.06443997
90	0x3967642c	0.00022067194
91	0x38e81138	0.00011065829
92	0x3a589fb8	0.0008263546
93	0xba0f9889	-0.00054777466
94	0x3c048056	0.008087238
95	0xb9b556f6	-0.000345878
96	0xb5e216e1	-1.6844971e-06
97	0x3d43d3cc	0.047809407
98	0xbb57a9ae	-0.0032907533
99	0x3b08bb0b	0.002086344
100	0x37ba4666	2.220571e-05
101	0x38be7bb0	9.0829446e-05
102	0x38004a00	3.0586496e-05
103	0xae135257	-3.3497063e-11
104	0x3a123705	0.00055776566
105	0x3baacd10	0.0052124336
106	0x3a70b549	0.0009182287
107	0x39215201	0.00015384705
108	0x0484a052	3.1180282e-36
109	0xb6d54644	-6.3560747e-06
110	0x33053f63	3.1024125e-08
111	0x39221637	0.000154578
112	0xbd07258d	-0.032994796
113	0xbd083b76	-0.03325983
114	0x24ffaff4	1.108867e-16
115	0x371be31b	9.291597e-06
116	0xbd08badf	-0.03338134
117	0xba83811b	-0.0010032983
118	0xb5ca4854	-1.5071223e-06
119	0xb81fc7d5	-3.8094662e-05
120	0xbcb7a22c	-0.022416197
121	0x3a347a50	0.0006884681
122	0xbd5346d4	-0.05158122
123	0x3db6a63b	0.08918425
124	0xb8fb1cbb	-0.00011973964
125	0xb992cbf9	-0.00027999262
126	0x378a1a6c	1.6463186e-05
127	0x3dc81a85	0.09770683

exp_avg_sq f4 [128]
0	0x3ca09637	0.019602878
1	0x3c813165	0.015770623
2	0x3a09deac	0.0005259316
3	0x3c06933f	0.008213817
4	0x3a87057e	0.0010301319
5	0x3c90294f	0.017597822
6	0x3c829f8b	0.015945217
7	0x397e447d	0.00024248842
8	0x3b87050c	0.0041204747
9	0x3c5d548f	0.01350893
10	0x3c6097e4	0.013708089
11	0x3a5032ea	0.0007942157
12	0x3bf07d8a	0.007339184
13	0x3ca6ec02	0.02037621
14	0x3a82cf24	0.0009979946
15	0x3b5ff200	0.0034171343
16	0x3a0c08c0	0.000534188
17	0x3a863c8e	0.0010241435
18	0x3c95a3ac	0.018266521
19	0x3b0cb6be	0.0021471228
20	0x3a12e74b	0.00056039233
21	0x3b00d1d3	0.0019656315
22	0x3c1f26ac	0.00971381
23	0x3c94238c	0.018083356
24	0x3a8c1988	0.0010688761
25	0x3bd3c121	0.0064622317
26	0x3aa96bac	0.0012925765
27	0x3c37a9ae	0.011209888
28	0x3c95d1a0	0.018288434
29	0x3b56bb5a	0.0032765479
30	0x3c258eb4	0.010104824
31	0x3c395ee6	0.011314129
32	0x3c962dd6	0.018332403
33	0x3ba8e314	0.005154023
34	0x3cc9d24b	0.024636408
35	0x3c8aea07	0.016957296
36	0x3c03c216	0.008041879
37	0x3b151ef1	0.0022754038
38	0x3c3dd758	0.0115869865
39	0x3bcea328	0.006306071
40	0x3c874d23	0.016516274
41	0x3ab02b5b	0.0013440655
42	0x3b8dca17	0.0043270695
43	0x3b2b6fc1	0.002615914
44	0x3c0c9788	0.00858105
45	0x39f3bf2b	0.00046491003
46	0x3a6b82e4	0.0008984043
47	0x3b86b872	0.004111343
48	0x3c52620b	0.012840758
49	0x3bbf832b	0.005844494
50	0x3c959e25	0.018263886
51	0x3cac515b	0.021034887
52	0x3c462379	0.012093418
53	0x3c1c4316	0.009537479
54	0x3c488a2b	0.012239973
55	0x3c993921	0.018703999
56	0x3b87c14a	0.004142915
57	0x3c151320	0.009098798
58	0x3ca74085	0.020416507
59	0x3c97ec48	0.018545285
60	0x39094e4c	0.00013094506
61	0x3a7bd3fc	0.0009606478
62	0x39d4c57c	0.00040582928
63	0x3a8a69e1	0.0010560119
64	0x3bbbf673	0.005736166
65	0x3b852a19	0.0040638563
66	0x3995e110	0.0002858718
67	0x3cc7fd62	0.024412815
68	0x3b3ad53c	0.0028508445
69	0x3c8c7686	0.01714636
70	0x382c072c	4.1014675e-05
71	0x3bc9b4df	0.0061555947
72	0x3b4a118f	0.003083322
73	0x3a2f42e6	0.0006685689
74	0x3c813d64	0.015776344
75	0x3982ee6d	0.00024973173
76	0x3a2bb5b3	0.00065502076
77	0x3aae9e27	0.001332228
78	0x3b5fd834	0.0034155967
79	0x3c37b79d	0.01121321
80	0x3c0de69e	0.00866094
81	0x3c3badcb	0.01145501
82	0x3bed156c	0.0072352197
83	0x3c8cc744	0.017184861
84	0x3c37ba47	0.011213846
85	0x3c494d92	0.012286561
86	0x3aaff117	0.0013423291
87	0x3a9a5f19	0.0011777609
88	0x3c35c6c7	0.0110947555
89	0x3ca80708	0.020511165
90	0x3c8cfb74	0.017209746
91	0x3b1ea1df	0.002420537
92	0x3b9bf9f3	0.004760021
93	0x3af4d3f0	0.0018678885
94	0x3cda7f11	0.026671918
95	0x389de72c	7.5294025e-05
96	0x397ada19	0.00023923106
97	0x3c9f7fef	0.019470183
98	0x3c3203bf	0.010865151
99	0x3c8757da	0.016521383
100	0x3bed2046	0.0072365133
101	0x3b69cc72	0.0035674837
102	0x395b3349	0.00020904573
103	0x3a4d01ef	0.00078204175
104	0x3b8b3ded	0.0042493255
105	0x3ba7c6b9	0.005120125
106	0x3ac2de82	0.0014867338
107	0x3ac2df38	0.001486755
108	0x382c6453	4.110143e-05
109	0x3ae4369d	0.0017411296
110	0x399d1cfe	0.00029966974
111	0x3b7d37f2	0.0038638082
112	0x3c919fcc	0.017776392
113	0x3c8bb7e0	0.017055452
114	0x3804c95b	3.165878e-05
115	0x39e2fe6c	0.00043295638
116	0x3c00c419	0.007859253
117	0x3bd75647	0.0065715644
118	0x3b522953	0.0032068088
119	0x3c06a3ab	0.008217732
120	0x3c6c12bf	0.014408766
121	0x38badad5	8.909932e-05
122	0x3c2da5cf	0.010598614
123	0x3ca93c68	0.020658687
124	0x3ba5f6f5	0.00506484
125	0x3a037cec	0.0005015868
126	0x3c9a9497	0.018869681
127	0x3c85eace	0.016347315

exp_avg f4 [192, 128]
0	0xbcb40ebb	-0.02197968
1	0xbaac8312	-0.0013161621
2	0xaa9bd872	-2.768372e-13
3	0xb9f02b32	-0.0004580855
4	0xb6adc2d3	-5.1784823e-06
5	0xbb213ea1	-0.002460398
6	0xbcc56303	-0.024095064
7	0xb6458752	-2.9434054e-06
8	0xb709b8db	-8.208876e-06
9	0xbbf24f3d	-0.0073947
10	0xb59ac23b	-1.1530423e-06
11	0x3796f352	1.7994698e-05
12	0xb570ca15	-8.9701035e-07
13	0xbca56598	-0.020190045
14	0x00e0cfe4	2.0645728e-38
15	0x9969f0ed	-1.2094472e-23
16	0xa43887e9	-4.001376e-17
17	0x34af584e	3.266054e-07
18	0xbc216fea	-0.009853343
19	0x0d9ed7c4	9.7894455e-31
20	0x91967a0c	-2.3741044e-28
21	0xb71430ab	-8.832819e-06
22	0xbba29073	-0.0049610673
23	0xbc7112cd	-0.014713955
24	0x86740904	-4.5897923e-35
25	0xb6bec2a4	-5.6851004e-06
26	0x3474f4f3	2.2813383e-07
27	0xab058e59	-4.744864e-13
28	0xbc9859e6	-0.018597554
29	0xb6c29fc8	-5.8002515e-06
30	0xb86182c4	-5.3765965e-05
31	0x3772cdfb	1.4472283e-05
32	0xb7a5e59b	-1.9776451e-05
33	0xb7cd10f0	-2.4445791e-05
34	0xbc6809b5	-0.014162471
35	0xbc869d15	-0.016432324
36	0xad6e8f50	-1.35605555e-11
37	0xb7a6fd59	-1.9906716e-05
38	0xbc20c7b1	-0.009813235
39	0xb7498779	-1.2012076e-05
40	0xbb0e223b	-0.0021687883
41	0xb6f1e640	-7.2091643e-06
42	0xb6734b52	-3.6253664e-06
43	0xb6aa258b	-5.0707654e-06
44	0xb6a5ee17	-4.9451005e-06
45	0xb736c3ec	-1.0893662e-05
46	0xa84a40cf	-1.1227306e-14
47	0xb6e2787c	-6.749351e-06
48	0xbbbd290b	-0.005772715
49	0xb8afb49a	-8.37829e-05
50	0xb600ef6d	-1.921285e-06
51	0xbc7e048f	-0.015504017
52	0x9ec22b92	-2.055857e-20
53	0x381805a7	3.6244888e-05
54	0x27e589c4	6.3709634e-15
55	0xbb3e68af	-0.0029054096
56	0xac420867	-2.7573722e-12
57	0xbc1ff0ee	-0.009762032
58	0xbc1a6baa	-0.009425083
59	0xba977276	-0.0011554498
60	0x8699acd7	-5.780617e-35
61	0xb7f8dc91	-2.9666613e-05
62	0xb73c2bba	-1.1215854e-05
63	0x190fe5ac	7.4393086e-24
64	0xb8e40404	-0.00010872635
65	0xb7ad22fc	-2.0639498e-05
66	0x0270a43c	1.7679548e-37
67	0xbc6713c6	-0.014103835
68	0xb7b31710	-2.1349202e-05
69	0xbc79550d	-0.015218032
70	0x01a83d62	6.1801533e-38
71	0xb74b2d36	-1.2110269e-05
72	0xb40256d9	-1.2138788e-07
73	0xb724a790	-9.814175e-06
74	0xbca90ade	-0.020635065
75	0x918c4e9d	-2.2136555e-28
76	0xb2cac4f2	-2.3605455e-08
77	0xb832cf90	-4.2631815e-05
78	0xb73929da	-1.1036604e-05
79	0xb82676cf	-3.9688133e-05
80	0xbc474569	-0.012162545
81	0xbaad9691	-0.0013243725
82	0xb96109af	-0.0002146128
83	0xbcb76dad	-0.022391165
84	0xb8b1b7f7	-8.474284e-05
85	0xbbe7f7bd	-0.0070790933
86	0x00000000	0.0
87	0xb33c4b15	-4.3840448e-08
88	0xbb2e9505	-0.0026639116
89	0xbc51dff7	-0.012809745
90	0x34c3b99c	3.645663e-07
91	0x341db501	1.4687613e-07
92	0xb12c227d	-2.5048899e-09
93	0xb3400014	-4.4703555e-08
94	0xbcdff7ee	-0.027339902
95	0x00000000	0.0
96	0x800004ad	-1.677e-42
97	0xbc08d198	-0.008350752
98	0xb6896c38	-4.0955165e-06
99	0x3583e598	9.827081e-07
100	0xb219e803	-8.9585255e-09
101	0x1dc71e50	5.2706204e-21
102	0x99f7b02f	-2.5610361e-23
103	0xab3b3e30	-6.652205e-13
104	0xb8728210	-5.7818426e-05
105	0x380e279f	3.389234e-05
106	0x372609a0	9.896612e-06
107	0xb855e732	-5.0998475e-05
108	0x80000087	-1.89e-43
109	0x34b2d983	3.3313344e-07
110	0xadbc6631	-2.1418508e-11
111	0xb8ad15db	-8.253354e-05
112	0xbcb7a415	-0.022417108
113	0xbc263eea	-0.010146836
114	0x80000004	-6e-45
115	0xb1b293ea	-5.1972977e-09
116	0xba4e1332	-0.00078611367
117	0xb7dfeaed	-2.6693067e-05
118	0xa96499fd	-5.0759733e-14
119	0xa8262642	-9.223147e-15
120	0xbc253a6f	-0.010084732
121	0xb142c6ba	-2.8343679e-09
122	0xba1f6e32	-0.0006081789
123	0xbc276f42	-0.010219397
124	0xb7b4e0bb	-2.156232e-05
125	0xb6e688bc	-6.870452e-06
126	0x279ed8d7	4.4088908e-15
127	0xba13dbd4	-0.0005640362
128	0xbeee0f79	-0.4649618
129	0xbce054d0	-0.027384192
130	0xab1bf545	-5.540744e-13
131	0xbc1a61d5	-0.009422739
132	0xb73de555	-1.1318673e-05
133	0xbd5f5ce2	-0.05453194
134	0xbf033886	-0.5125812
135	0xb6b95c18	-5.5241508e-06
136	0xb7a866ea	-2.0075084e-05
137	0xbe20e652	-0.1571286
138	0xb62b5303	-2.5529305e-06
139	0x398adee8	0.0002648749
140	0x36fcc5d7	7.533217e-06
141	0xbedad291	-0.42738774
142	0x80000004	-6e-45
143	0x9a9f3c33	-6.5858116e-23
144	0xa66af52c	-8.151733e-16
145	0x31456767	2.872605e-09
146	0xbe542154	-0.20715839
147	0x909d7c88	-6.211745e-29
148	0x92898713	-8.679214e-28
149	0xb7a97847	-2.0202378e-05
150	0xbdd3b39b	-0.103369914
151	0xbe9ee8b3	-0.3103691
152	0x0581fe56	1.222453e-35
153	0xb7486c2c	-1.1946115e-05
154	0xb09a70a0	-1.1236985e-09
155	0xa4c06abb	-8.3447535e-17
156	0xbec8924a	-0.3917411
157	0xb736ad0c	-1.0888336e-05
158	0xbab0bd7d	-0.0013484206
159	0xbade5f85	-0.0016965723
160	0xbad5d858	-0.0016315086
161	0xb91370a2	-0.00014060971
162	0xbe98af7d	-0.29821387
163	0xbeb28754	-0.34868872
164	0xaee7f20b	-1.0547659e-10
165	0xb82b6103	-4.0859926e-05
166	0xbe56c40e	-0.20973226
167	0xb7c4b5d7	-2.3449697e-05
168	0xbd407207	-0.046983745
169	0xb8153606	-3.557468e-05
170	0xb7ccd94e	-2.4419885e-05
171	0xb8298e0b	-4.0425028e-05
172	0xb73421f2	-1.073674e-05
173	0xb7b8934c	-2.20031e-05
174	0xa8dd3c98	-2.4562207e-14
175	0xb80b05f9	-3.3145745e-05
176	0xbdf97cac	-0.121819824
177	0xbb9ce2f5	-0.0047877976
178	0xb678718b	-3.702097e-06
179	0xbea83d18	-0.3285911
180	0xa08acfcf	-2.3515626e-19
181	0xba0ffac5	-0.00054923847
182	0x2ef66dcd	1.12062894e-10
183	0xbd836207	-0.064151816
184	0xacad26a2	-4.921245e-12
185	0xbe524a13	-0.2053607
186	0xbe4c0e30	-0.19927287
187	0xbcbcb0af	-0.023033468
188	0x8797ab63	-2.2820687e-34
189	0xb8e04b04	-0.00010695125
190	0xb81cb241	-3.735931e-05
191	0x1ac4c1c9	8.1376777e-23
192	0xb9e8608d	-0.00044322424
193	0xb8346c84	-4.3016407e-05
194	0x80023c00	-2.05195e-40
195	0xbe981e16	-0.29710454
196	0xb8326b64	-4.2538522e-05
197	0xbea4c600	-0.32182312
198	0x800022c9	-1.2479e-41
199	0x383a5073	4.442078e-05
200	0xb401c436	-1.2085442e-07
201	0xb8414f15	-4.6088437e-05
202	0xbedf2645	-0.43583885
203	0x9217a9df	-4.785658e-28
204	0xb33013e8	-4.0996298e-08
205	0xb9424e86	-0.00018530534
206	0xb7beba93	-2.2736645e-05
207	0xb8cf3191	-9.879762e-05
208	0xbe82de14	-0.25560057
209	0xbce0cdba	-0.027441848
210	0xbb7c96b0	-0.0038541965
211	0xbef1a764	-0.4719802
212	0xba4c0eff	-0.0007784217
213	0xbe18ae7d	-0.14910312
214	0x00000000	0.0
215	0xb3a381dc	-7.6139e-08
216	0xbd63b23b	-0.055589896
217	0xbe8c48d8	-0.27399325
218	0x32f39f40	2.8361342e-08
219	0x359f53f2	1.1870854e-06
220	0xb18288b7	-3.7990406e-09
221	0xb3b1b8ce	-8.2758206e-08
222	0xbf13bd9e	-0.5771121
223	0x00000000	0.0
224	0x80000539	-1.874e-42
225	0xbe35d09e	-0.17755362
226	0xb75d3994	-1.3186032e-05
227	0x37132df7	8.772585e-06
228	0xb14f1e83	-3.0139808e-09
229	0x2052c8eb	1.785417e-19
230	0x1bbd3185	3.1299428e-22
231	0x9552a431	-4.2538686e-26
232	0xb910f73d	-0.00013825014
233	0x3a05c58a	0.0005102983
234	0xba6795d2	-0.00088342756
235	0xb983fd1b	-0.00025174845
236	0x8000009d	-2.2e-43
237	0x3644a82f	2.9304172e-06
238	0xae9f6ca7	-7.2497834e-11
239	0xb9a450bd	-0.00031340672
240	0xbef23b88	-0.47311044
241	0xbe5bb24f	-0.21454738
242	0x248eafc8	6.188047e-17
243	0xb21b121c	-9.026305e-09
244	0xbc81d1cf	-0.015847115
245	0xb90b7ff8	-0.00013303745
246	0xaa1cd816	-1.3930553e-13
247	0xa8b630a7	-2.0227159e-14
248	0xbe57b380	-0.21064568
249	0xb1bf3dbb	-5.5658496e-09
250	0xbc823e31	-0.015898796
251	0xbe59e5cf	-0.21279071
252	0xb8d313c7	-0.00010064948
253	0xb75ed9e8	-1.3282966e-05
254	0xaa1fcdaf	-1.4193398e-13
255	0xbc40c78b	-0.011766325
