weights/policy_checkpoint4200.pt (torch, 522983 bytes, 12 tensors)

net.0.weight f4 [128, 142]
000000 af b8 e7 3c b6 2d b3 3d 98 59 30 3c be 63 02 3e
       0.028286306 0.08748953 0.010763548 0.12733361
000010 ce 09 b5 3d af dc 14 3e 27 f7 b2 3d ca c7 46 3d
       0.08839761 0.14537309 0.08738547 0.048530377
000020 16 65 13 3d bc 82 78 bd d4 75 c2 3d 33 f3 87 3d
       0.035985075 -0.060671553 0.0949513 0.066381834
000030 5e 47 83 3d 63 fa 0a 3d 1c 55 d4 3d b2 07 7d 3d
       0.064100966 0.033930194 0.10367796 0.061774917
000040 ef 29 45 3d d8 07 07 bd 65 30 97 bd d7 c5 8b 3d
       0.048135694 -0.032966465 -0.073822774 0.06824844
000050 c7 4e 79 3c 9c d7 5e 3d e9 3f 18 3c e7 59 f4 3d
       0.015216536 0.05440484 0.009292581 0.1193121
000060 0a f2 cb bc d7 ee 25 bd df 6e e9 bc 0d 56 7c bd
       -0.024895687 -0.04051098 -0.02849525 -0.061605502
000070 10 7b d2 bb a3 5a d1 bd 61 e6 25 3e 46 a2 bc bb
       -0.0064233616 -0.10222366 0.16201164 -0.005756649
000080 7b 6a d0 3d 05 34 5e 3d a8 9f f3 bb 11 06 e8 3c
       0.101765595 0.05424883 -0.007434804 0.028323205
000090 f1 82 a6 3c bf 83 b6 3d 54 03 ff 3c ec 0e 58 bc
       0.02032611 0.08911847 0.031129517 -0.013187151
0000a0 9e 74 eb 3d 15 b6 c4 bc c4 d5 ac 3d 83 46 8c 3d
       0.11496852 -0.024012605 0.0843921 0.068493865
0000b0 2c 9c 71 3d 77 cb 45 3d be 48 c9 3d 84 86 81 3c
       0.058986828 0.048289742 0.098283276 0.015811212
0000c0 92 f5 b6 3d 63 d4 9b 3d 35 37 48 bd f2 b7 6e 3c
       0.089335576 0.07608869 -0.048880775 0.014570223
0000d0 ab 6c 3e bd 74 eb 62 3e bb ee ea 3d d7 64 e0 3d
       -0.046490353 0.2216013 0.114713155 0.10956734
0000e0 5f cc 0a 3d b5 c6 5c 3d e1 3c 4e 3e 0d 50 b2 3d
       0.03388631 0.05390044 0.20140411 0.08706675
0000f0 a9 4a 75 bc 68 ff 79 3c ba b9 f9 3d 6b 7d 94 3c
       -0.014971414 0.0152586475 0.12193628 0.01812621
000100 1e 02 9a 3c 99 dc 84 bd 07 69 b9 3d bc 9d 14 bd
       0.018799838 -0.06487388 0.090532355 -0.03628324
000110 53 ec 94 bc 75 a1 2b bd 5d 34 04 3e a1 07 c3 3d
       -0.018179094 -0.041902024 0.129106 0.095229395
000120 68 60 a5 3d e8 d5 8d bd 04 75 80 bd e4 62 cc bc
       0.08075029 -0.06925565 -0.06272319 -0.024949498
000130 fc 76 1b bd 53 39 0b 3d 72 29 f6 3c 9e b4 42 3d
       -0.03795527 0.033990216 0.03004906 0.04753553
000140 9e 82 31 bd ec 52 6a bd fc 5f 36 3d ca ef 0a bd
       -0.043337457 -0.057207987 0.04452513 -0.033920087
000150 f7 0b 8a bb 53 22 a3 bc ec a0 44 3d 79 88 85 bd
       -0.004212852 -0.019913828 0.04800503 -0.06520171
000160 6d 76 2d bd 79 e4 ac 3d a5 75 41 3d b2 97 d4 3c
       -0.042349268 0.08442015 0.047231335 0.02595124
000170 da 9d 88 3d ff e4 99 3d aa 41 0f bb d8 c3 a3 bd
       0.06670733 0.07514381 -0.0021859207 -0.079963386
000180 5a d9 f5 3d 71 f8 e7 bc 05 b7 f3 bc 99 ff ba 3b
       0.12004347 -0.028316708 -0.029750356 0.005706739
000190 e4 ca 53 bd b9 9b 60 3d b8 7a 35 bc 02 82 79 bd
       -0.051707163 0.05483601 -0.011076622 -0.060915
0001a0 12 4e ac 3d 73 cb 6a bd 24 cf 91 bd 4f 47 3d bd
       0.08413328 -0.05732293 -0.07119587 -0.046210583
0001b0 f2 6a 96 bd 1c 51 66 3d 11 cc ab 3d ef d7 81 3c
       -0.07344617 0.056229696 0.08388532 0.015850035
0001c0 bf d8 d3 3c 91 4b a0 bd 65 cc 3a bd 0e 6e cf 3c
       0.025860189 -0.07826913 -0.045605082 0.025321033
0001d0 26 21 80 3d 35 7b 89 bc 82 12 04 3c 99 0e fb bd
       0.062563226 -0.016782383 0.008061053 -0.12258644
0001e0 f1 5f 8a 3c a6 7f 98 bc 32 8d be bb b8 eb 68 bd
       0.016891452 -0.018615555 -0.0058151716 -0.056865424
0001f0 d1 09 34 be 3c 1b ba bd 5b ce 73 bd 35 a6 87 bd
       -0.1758187 -0.09087226 -0.059522968 -0.06623498
000200 63 1a 90 3d c6 b8 6b bd 1c df 93 3d 0d 33 d6 3c
       0.07036283 -0.05754926 0.07220289 0.02614739
000210 c2 88 91 bd 53 df 6d 3d ef 51 55 3c 9a c2 03 bd
       -0.071061626 0.058074307 0.013020023 -0.03216801
000220 d7 a8 8e bd 5c dc aa bd 5a b0 c4 3c 6a f5 b7 3d
       -0.069657974 -0.083428115 0.024009872 0.08982356
000230 35 a2 ad 3d 6a b0 c6 bb 6d e6 c2 3c c2 59 c0 bd
       0.08478204 -0.0060635107 0.023791516 -0.0939212
000240 f8 e9 be bd 47 8c 7f bd 5d 3e 30 3d 1a 8e 3f 3d
       -0.0932197 -0.06238964 0.043028224 0.046766378
000250 91 e5 a6 3d 6e 88 ec bd 45 6f 45 3c 85 67 40 bd
       0.08149255 -0.115494594 0.0120504545 -0.046973724
000260 17 a8 8e bb 0d ce e6 bd 6b c6 08 3e 33 09 fa bc
       -0.004353534 -0.1126977 0.1335694 -0.030521965
000270 ab 6f a2 3d a7 9b dd bc b5 9c 12 3d 49 8a 28 bd
       0.07931455 -0.02705176 0.03579398 -0.041147504
000280 39 28 aa 3d 98 e8 4c 3c ad e1 24 3b fa 7e a0 bd
       0.08308453 0.012506627 0.0025158927 -0.07836719
000290 77 81 cb 3d 8e 5a 1b 3c e4 e2 16 bd 76 93 ab 3d
       0.09936803 0.009482039 -0.036837474 0.08377735
0002a0 c4 02 a0 3d 78 b6 b6 bc be 1e 6f bd 46 7d a2 bd
       0.078130275 -0.022303805 -0.058378927 -0.0793405
0002b0 38 df da 3d c0 e4 53 3c 5c 24 44 bd 16 ce 16 bd
       0.10687107 0.012932956 -0.047886238 -0.036817633
0002c0 08 a1 a1 bd cc 04 61 3c d3 98 17 3d ac e4 23 be
       -0.078920424 0.013734054 0.03701098 -0.160052
0002d0 6b 0b ad 3d da de 9a 3d ac f3 0f bd e3 f7 ab bd
       0.084494434 0.07562037 -0.035144493 -0.0839689
0002e0 01 f3 fb 3c bb ea 91 3d bc de 15 bc bb be 2e bd
       0.030755522 0.071248494 -0.009147342 -0.042662363
0002f0 55 5e 37 3c c5 74 d9 3c cb a0 b3 bd e1 c7 75 bc
       0.011191924 0.026544938 -0.08770903 -0.015001268
000300 f0 1c 8d 3d 74 18 d4 3d ef a8 1c 3c 21 64 a6 3c
       0.06890285 0.103562266 0.009561761 0.020311417
000310 c0 56 55 3c 85 16 e3 bd a7 15 d4 3d c7 3a ad 3d
       0.013021171 -0.1108828 0.10355692 0.084584765
000320 a1 80 f5 bc 6f 00 98 3d 03 33 04 3e da 35 fb 3a
       -0.029968562 0.07421958 0.12910084 0.0019165829
000330 11 95 9b bc 9d ee 2b bd 8a 5b 99 bd 66 f2 be bd
       -0.018991979 -0.041975606 -0.07488163 -0.093235776
000340 63 63 51 bd c3 af 7b bc 59 3b 9a 3d 74 af 82 3d
       -0.051120173 -0.015361729 0.07530851 0.06381121
000350 3f 20 f1 bd 2f 5b 04 be 05 fc 58 bc be 40 a6 3d
       -0.117737286 -0.12925409 -0.01324368 0.08117817
000360 f9 10 ba 3d c2 e2 06 bd 4d ad 2c 3c 80 eb 02 bd
       0.090852685 -0.032931097 0.010539365 -0.03196287
000370 f8 7a 5e bd 8d 52 86 3d 47 4b 1c bd f6 cf 89 bc
       -0.05431649 0.06558714 -0.038157728 -0.016822796
000380 ad f8 aa bd 2b 0c 66 3d 34 61 62 3d e8 8a fa 3c
       -0.083482124 0.056163948 0.05526848 0.030583814
000390 54 ac 6f bd aa 9e a9 bd a9 95 8b bd 7d f0 2e 3c
       -0.058513954 -0.08282216 -0.06815655 0.010677454
0003a0 1c 3c 95 3c 38 58 ab 3d 03 73 a7 bd f2 92 ef bd
       0.018217139 0.08366436 -0.081762336 -0.116979495
0003b0 a6 d3 3c 3c c9 98 42 bd a0 67 82 bd ca c0 a0 bd
       0.01152507 -0.04750899 -0.06367421 -0.078492716
0003c0 9f b5 0c 3d c4 b0 ee bc a1 89 ea 3c eb c6 8e bd
       0.034352895 -0.029137023 0.02863008 -0.06971534
0003d0 b8 8a 7a bc a2 ed 71 bd 9a d8 27 bd 7c 09 e4 3c
       -0.015291862 -0.059064515 -0.04097805 0.027836554
0003e0 53 4f cc bc d6 32 54 3d d8 8a dc bc ae d8 93 bd
       -0.024940168 0.051806293 -0.026921675 -0.07219063
0003f0 a7 96 72 bc 21 9f 26 bd 62 52 d2 bc 36 9d a3 bd
       -0.014806426 -0.0406791 -0.025674049 -0.0798897

net.0.bias f4 [128]
000000 3c 3c 01 3e 07 0f 3d bc 57 49 e5 3a 4b 5b 5d 3d
       0.12620634 -0.011539227 0.001749317 0.054042142
000010 37 f2 df 3d 62 b9 fc 3c ae 42 30 3c d9 f9 b0 bd
       0.10934871 0.030850116 0.010758085 -0.08641405
000020 f5 03 70 3d 0b ac 5e 3d 1f 34 03 bb 2d 93 8b bc
       0.058597524 0.05436329 -0.002002008 -0.017037952
000030 df d6 7b bd 32 5d eb 3d f0 4f 96 bd b9 b9 61 bd
       -0.061484214 0.11492385 -0.073394656 -0.05510876
000040 cc 61 84 3d 94 66 aa bd 2c be c1 3c 55 9f 6f bd
       0.06463966 -0.083203465 0.023650251 -0.05850156
000050 12 01 e2 3a 20 5e db bd 8c c7 a7 3d a1 bb c2 3d
       0.0017242751 -0.10711312 0.081923574 0.095084436
000060 a6 63 4f bc 32 3c 13 3d 96 34 ae 3d a8 35 27 bd
       -0.012658035 0.03594608 0.08506124 -0.040822655
000070 9e 3d 70 bd e1 93 77 3d 30 27 e2 bc dc f4 80 3d
       -0.058652513 0.060443763 -0.027606577 0.06296703
000080 e6 48 ed 3d af 2e 13 3d ba 73 7d 3d 08 04 20 3c
       0.1158617 0.035933193 0.061877944 0.009766586
000090 b4 7c 06 be 0f 5c e8 3b 65 76 ac 3d 33 ee c1 3d
       -0.13133508 0.0070910524 0.084210195 0.09469261
0000a0 85 e1 b0 3d 52 93 ef bd 89 bf 4c 3b fa 32 58 3e
       0.086367644 -0.11698021 0.0031242094 0.21113196
0000b0 f9 3b 1c bd d3 bf 9e bd 32 2c c1 bd 79 c7 11 3e
       -0.038143132 -0.07751431 -0.09432258 0.14236249
0000c0 86 ad 94 bd 46 1a 8d bb 17 4f a6 3c 7b cd 10 3d
       -0.072596595 -0.0043061106 0.020301385 0.03535221
0000d0 5d cd 46 bd a3 64 8c 3c 1e e9 a2 3b db 0b 9c bd
       -0.048535693 0.017137831 0.0049716374 -0.07619449
0000e0 9b c9 39 bd 6e a7 f7 3c 0a 21 97 bc b7 87 7a 3c
       -0.04535828 0.030231204 -0.018448371 0.015291146
0000f0 43 96 e4 bd 7a 03 10 3d 58 06 e2 3d 81 2b af bd
       -0.11161473 0.035159566 0.11036366 -0.085532196
000100 f6 9b 69 bc cb 42 cb 3c 6a 12 3b bc d7 20 9d 3d
       -0.014258375 0.024812123 -0.0114179645 0.07672279
000110 52 ec 2e bd 70 aa ef 3c d7 54 e6 bd fa ed 5b 3d
       -0.04270584 0.029256076 -0.11246651 0.05369375
000120 5a 99 97 ba 20 d5 53 3d 2c e1 82 3d 06 05 e1 bd
       -0.0011566088 0.051716924 0.063906044 -0.10987286
000130 d6 cd 19 bd 73 51 8b 3d 2b 3e 2a 3e 6c 5f 52 bd
       -0.037549816 0.068026446 0.16625278 -0.051360533
000140 2e 02 ef bb 54 6d 2e bc c0 06 97 3d b6 88 01 3e
       -0.007293961 -0.010646183 0.07374334 0.12649807
000150 fe 65 b9 bc 4e ca 4f 3d 29 67 3c bd 9e 64 d9 bc
       -0.022631641 0.050730042 -0.04599682 -0.026537236
000160 ea 26 4b bd a8 6f e5 3d 81 de 23 3e 63 fd ce bc
       -0.04959766 0.11202937 0.16002847 -0.025267309
000170 9f 3c d7 3b fa e9 c0 bd 1d 4c 12 3e 00 61 c6 3c
       0.006568506 -0.094196275 0.14286847 0.024216175
000180 22 e5 ba bd c2 98 c7 b8 c7 41 db 3c 42 d8 fc bb
       -0.09125735 -9.517513e-05 0.026764764 -0.0077162096
000190 24 8b b2 bd 9c 3e d5 bd 45 e5 a9 bd 55 1e 86 bd
       -0.08717945 -0.104123324 -0.08295683 -0.06548754
0001a0 ba 62 0a 3d 10 9c 2f 3e 5f e2 9a 37 3a 3c 53 bd
       0.03378556 0.17149377 1.8463643e-05 -0.05157111
0001b0 19 8c b9 bd 9b 4e f7 bd 0d 28 0a 3d 5f df 17 3d
       -0.09059925 -0.1207554 0.0337296 0.037078258
0001c0 91 db d8 3d 20 3a eb bd 9b cf 80 bd 6b 0e 36 bd
       0.10588754 -0.11485696 -0.062895976 -0.044447344
0001d0 d0 3d 20 3e 0b b8 dd bd ce 6d 29 3d 22 9d 94 bd
       0.1564858 -0.10826119 0.041364484 -0.07256533
0001e0 69 d5 54 3d 50 71 39 bd 5b fc 6c bd 5e c9 2e 3b
       0.051961336 -0.04527408 -0.057857852 0.0026670317
0001f0 20 f1 d1 bd 94 f5 2e bd e1 75 83 bd 79 c7 54 bd
       -0.10251069 -0.04271467 -0.06418968 -0.051948044

net.2.weight f4 [192, 128]
000000 4b e7 99 bd b8 b9 95 bd 39 0e f3 3d 55 28 ef bd
       -0.07514819 -0.07310814 0.11867947 -0.116776146
000010 fb 4d 2f bd 7a dd 86 bd ff 47 00 be 9b 21 b4 3d
       -0.042798977 -0.06585212 -0.12527464 0.08795472
000020 0c 0d fd 39 25 c9 b8 3b 23 f9 9b 3c 19 a9 b9 bc
       0.0004826564 0.0056392127 0.019039696 -0.02266364
000030 20 47 3d 3c d2 73 87 bd 6f 42 5d 3d 50 b5 69 bb
       0.011552602 -0.06613888 0.054018434 -0.003566105
000040 98 49 c6 3d c4 ac d6 3c 50 86 fe bd 5c 75 39 3d
       0.09682006 0.026205428 -0.12427962 0.04527794
000050 dd ec b6 3d 2e 14 50 bd d2 78 ba bd 57 2d 38 be
       0.08931897 -0.050800495 -0.09105076 -0.17986046
000060 e7 00 f4 3c 94 61 c6 bd 8a 16 ef bd 9e 4d 8b 3c
       0.029785587 -0.0968658 -0.11674221 0.017004784
000070 56 fa 7d bd 53 3e 2a 3d 25 3b 39 be 22 71 ec bd
       -0.062006317 0.041563343 -0.18088968 -0.11545016
000080 4e 1b c9 bd 48 18 fd 3a 88 67 03 be 2f 69 80 be
       -0.09819661 0.0019309605 -0.12832463 -0.2508025
000090 fa b7 8a bd d0 4d 37 bd 4b 29 68 bd 28 1c e7 bd
       -0.06773372 -0.044751942 -0.056680005 -0.11284667
0000a0 9f bf cd bd f8 99 ae bd 30 3e 1e bd 92 88 fc bd
       -0.100463144 -0.08525461 -0.038633525 -0.12330736
0000b0 c2 0c df bd 95 ec a8 3d 11 64 9a bd a2 d1 8a bd
       -0.10891105 0.082482494 -0.075386174 -0.067782655
0000c0 ff 46 b9 bd 0a 47 02 be 80 f1 66 be b2 63 05 be
       -0.090467446 -0.12722412 -0.22553062 -0.13026312
0000d0 91 0f c2 bd 2c dd fc bd 97 07 98 bd e3 0f c7 bd
       -0.09475625 -0.12346873 -0.07423323 -0.09719827
0000e0 98 e9 30 3d f1 5e eb bd e8 83 a7 bd 4a 4a 33 3c
       0.043191522 -0.11492718 -0.08179456 0.010943005
0000f0 3b a8 90 bd 13 ee 09 bd 97 20 c8 bd e8 58 87 bd
       -0.070633374 -0.03367431 -0.09771841 -0.066087544
000100 c5 e3 f3 3c b1 fb 5c 3d 12 51 8b 3b 26 b8 7f ba
       0.029771695 0.05395097 0.0042516077 -0.0009754918
000110 3e fc e9 3b 03 cf 1b be 0c 19 a2 bd f5 b0 18 bc
       0.0071406653 -0.15215687 -0.079149336 -0.009319534
000120 74 65 c8 bd be 80 46 3d 0d 83 ea bd 3c d0 6c 3d
       -0.09784976 0.048462622 -0.11450777 0.057815775
000130 03 43 03 bd 02 14 a6 bd 67 fe 13 be 34 92 b2 3d
       -0.03204633 -0.08109285 -0.14452516 0.08719292
000140 1f 0c e2 bd 46 0c 71 3c b8 ae 88 bd 4d be 59 bd
       -0.11037468 0.014712399 -0.0667395 -0.05316
000150 ad f3 67 bd da b9 79 bd 41 e8 04 3c a3 31 b8 bd
       -0.05662887 -0.060968257 0.008112014 -0.089938425
000160 9e 54 c2 bd 1e 10 1b bc 3b 54 01 be fc 2b 92 bd
       -0.09488796 -0.009464292 -0.12629788 -0.071372956
000170 af c4 aa bb 1c b4 6c 3d 2c 85 e5 bd 31 68 c9 3d
       -0.005211435 0.057788953 -0.11207041 0.09834326
000180 c2 53 b0 bd 55 ed 83 bd 5f 2d 1f be 2f 93 10 be
       -0.086097255 -0.06441752 -0.15544651 -0.14118646
000190 f8 b4 87 bd 3e 32 fd bd f4 bb 8f 3d 6e 4a 2c bd
       -0.06626314 -0.123630986 0.07018271 -0.04206317
0001a0 4f 51 f3 3d ce b1 81 bd 65 8f 1f bc ae 61 41 bd
       0.11880743 -0.06332742 -0.009738778 -0.047212295
0001b0 cc 4c cd bc 2d e3 2c bd 70 ef 91 3d 87 a8 02 be
       -0.025061034 -0.04220884 0.07125747 -0.127596
0001c0 20 80 95 bd 20 fe 41 be c4 00 0f bd 31 e2 91 3d
       -0.072998285 -0.18944597 -0.03491284 0.07123221
0001d0 09 4b 89 bd 0f 20 e5 bd ca 65 44 be a7 1d 37 bd
       -0.06703765 -0.11187755 -0.19179454 -0.044706013
0001e0 01 14 80 bd 6e 85 0e 3e a8 18 df bd b5 ae f6 bc
       -0.062538154 0.13918087 -0.10893375 -0.030112604
0001f0 a8 77 09 be 84 45 0e 3e 97 3b 0e be 9d 5b f4 bd
       -0.13424551 0.13893706 -0.13889919 -0.11931536
000200 92 37 0a 3e d9 f8 a9 3d 43 ff f1 3b 68 33 b6 bc
       0.13497761 0.08299417 0.007385166 -0.02224131
000210 6a 43 dd 3d c7 69 b8 3c f7 f1 1a 3e 57 31 15 3d
       0.10803874 0.022511376 0.15131365 0.036424007
000220 11 8f ab 3d 13 fd bc bc e9 78 95 3d fa 94 53 bc
       0.08376897 -0.023069894 0.072984524 -0.012913937
000230 49 6a cf bc 72 dc 24 3e 12 20 49 bd fa 4c 23 3c
       -0.025319235 0.16099718 -0.04910285 0.009967083
000240 3e 0d b1 3c 91 55 46 3c 7e 95 f3 3d e7 b1 cb bc
       0.02161276 0.012105362 0.11893748 -0.024865104
000250 74 d2 4d bd c1 fa 90 3c 6c 7d 18 3e 6c 16 47 3e
       -0.050249532 0.017697694 0.14891595 0.19442147
000260 46 4b 35 bd f6 24 fd 3c 2b 16 0b 3e 3d 22 88 3d
       -0.04426124 0.030901413 0.13582675 0.066471554
000270 22 00 3d 3e 86 9a 1b 3d f0 7a 02 3e 02 eb 98 3e
       0.18457082 0.037989162 0.1274221 0.29866797
000280 81 5b 34 3e 0e ed 99 bb 82 ed e6 3d 52 02 92 3d
       0.17613031 -0.0046974486 0.1127577 0.07129349
000290 7a 6b 6c bd ea 56 db bc cb 05 2c 3e f5 da 8b 3d
       -0.057719685 -0.026774842 0.16799085 0.06828872
0002a0 90 92 de 3d a8 19 97 bd 3a 02 89 3d 5a 2c 39 3e
       0.10867798 -0.073779404 0.06689878 0.18083325
0002b0 d9 39 48 bd 14 ab 16 3c 45 c3 28 3d 3c da d4 3d
       -0.048883293 0.009196062 0.04120185 0.103931874
0002c0 c8 d3 56 3c 93 5f 63 3e 9c 69 ee 3d 29 e7 b6 3d
       0.013112016 0.22204427 0.11641237 0.08930809
0002d0 23 08 a0 3d b8 98 fb bc ad 35 80 bd 7a fe 9a 3c
       0.07814052 -0.03071247 -0.06260238 0.018920172
0002e0 de 28 81 bd db 6c 75 3d 21 ba 14 3d 79 10 46 3d
       -0.06306623 0.059918266 0.03631032 0.048355553
0002f0 96 ce 50 bd 57 63 a3 3c 88 e1 86 3d c9 99 e7 3c
       -0.050978266 0.01994483 0.065859854 0.028271573
000300 5c 18 73 bd 88 b7 38 3e ad bf 27 3d 35 41 a0 3d
       -0.059349403 0.18038762 0.04095428 0.07824937
000310 12 0a b2 3d 4c a9 4a 3e 1b 90 c7 bd 70 0b 03 3e
       0.08693327 0.19791144 -0.09744283 0.12797332
000320 12 88 2f 3d f1 4a d8 3d e6 2e 5a 3e b2 6b a3 bc
       0.042854376 0.10561169 0.21306953 -0.019948814
000330 da de 64 bc 94 22 b8 3d 26 8a 00 3e 93 c2 c9 3d
       -0.013969148 0.0899097 0.125527 0.09851565
000340 7f 26 34 bd 1e e4 ce 3d 4c ba 00 3e 9b ad d6 3d
       -0.043982025 0.10102104 0.12571067 0.10482331
000350 bc a8 69 3c cf fc 6e 3c c0 00 31 bd 17 8a 52 bd
       0.014261421 0.014586641 -0.043213606 -0.051401224
000360 fc 6b 72 bd b8 3e 30 3e 99 0c 25 3e ef 9d 86 bd
       -0.059185013 0.17211425 0.16118087 -0.06573092
000370 81 07 77 3d 9f 3f b2 3d f5 ba f0 3d bc fb 78 3d
       0.06030989 0.08703541 0.11754409 0.060786948
000380 ef c3 ff 3b ac d5 e3 3d 35 59 d3 3d 94 39 f8 3d
       0.0078053395 0.11124739 0.10319749 0.12120357
000390 18 cd 1e 3d db 25 f9 bd 94 7f ad 3c 48 14 9d bd
       0.03876981 -0.121654235 0.021178998 -0.07669884
0003a0 bf 21 b3 3c 2a 95 36 3e 2f be 90 bb 97 27 42 bd
       0.021866677 0.17830339 -0.004417203 -0.047401037
0003b0 0f 11 ba bc ac 8a 8e bb a1 c6 a1 3c 82 04 a3 3d
       -0.022713212 -0.004350027 0.019748034 0.07959844
0003c0 ed ea 45 3e 40 9c a0 3d 47 40 41 bb 32 57 c5 3c
       0.19327898 0.07842302 -0.0029487775 0.02408943
0003d0 50 69 fc 3d a0 f3 81 3d fa 53 ac 3d 57 2c f5 3a
       0.12324774 0.06345296 0.08414455 0.0018705231
0003e0 52 78 ba 3d 8b 25 8f bd 73 07 0c 3e 8b 2f 49 bd
       0.091049805 -0.06989583 0.13674717 -0.049117606
0003f0 98 22 71 bd 87 ce 83 bd 05 a1 b4 bb 89 5d d9 3d
       -0.05887088 -0.06435876 -0.005512359 0.106135435

net.2.bias f4 [192]
000000 f3 f9 b5 bc 05 b0 3a 3e 2a 8a db 3c 94 10 94 3d
       -0.022213912 0.18231209 0.02679928 0.072297245
000010 f0 24 25 bd 86 2f 1c bc e7 f6 0c 3c bd cd 7c bd
       -0.04031843 -0.009532815 0.008603788 -0.061719645
000020 38 2b 1b be db 71 88 3c 48 b2 8d bc 59 8b f2 bd
       -0.15153205 0.016655853 -0.017296925 -0.11842985
000030 99 5d fe bb dd c5 e0 3b 33 bd 35 bd 3d 1b 4f 3c
       -0.0077626226 0.0068595246 -0.044369888 0.012640771
000040 98 67 03 3e f8 92 11 bc a9 31 37 3c 6b e1 c3 3d
       0.12832487 -0.008885138 0.0111812735 0.095644794
000050 f8 69 76 bd e3 fd d0 bb 13 f1 4e bd 25 ec 76 3d
       -0.060159653 -0.006377922 -0.050522875 0.0602838
000060 2a 06 6e 3d cd 5b df 3d ee 85 ab 3c a0 61 56 3e
       0.058111347 0.109061815 0.020937886 0.20935678
000070 67 98 36 3a 38 b7 42 bd c1 e4 bd bd 14 18 f5 bc
       0.0006965459 -0.047538012 -0.09272147 -0.029918708
000080 72 74 49 3d 89 b6 b3 3c 98 c3 23 3e 7c db 53 3c
       0.049183317 0.021937625 0.15992582 0.012930747
000090 0b 77 34 3c fd c9 7b 3c 7d 0f 9c bd 44 8d 95 3c
       0.01101471 0.015367982 -0.07620142 0.018255837
0000a0 67 a9 a3 bd 8e 97 dd bd 36 c1 b1 3d aa 5d b3 3d
       -0.07991295 -0.108199224 0.0867943 0.087580994
0000b0 58 9f d1 3b 2c b6 7a bd 36 3d 01 be 73 df 85 bd
       0.006397169 -0.06120889 -0.12621006 -0.0653676
0000c0 6d bb bf 3d 24 c4 ac bd bd 05 9a bc b0 04 c0 3d
       0.093619205 -0.08435848 -0.018801564 0.09375894
0000d0 b8 c6 f4 3c 4f d9 e9 bc 20 7f 8a 3d eb 0b c4 3c
       0.029879913 -0.028546004 0.067625284 0.023931464
0000e0 2c 54 2c bd c9 5e be bd c8 eb d6 3c 92 e8 fc bd
       -0.04207246 -0.092954226 0.026235476 -0.12349047
0000f0 c3 15 97 b9 7f 8c 98 3b 49 4c 10 3d b6 71 ce bc
       -0.00028817178 0.0046554203 0.035229 -0.025200706
000100 74 db e2 bd 06 ec 82 bd b7 f2 e2 bd bb 99 18 bd
       -0.110770136 -0.06392674 -0.110814504 -0.037255984
000110 24 25 19 3d 57 dc 0a be 1c 30 13 3e c9 3f b5 bd
       0.037388936 -0.13560615 0.14373821 -0.08850057
000120 3a 7a e2 bc 55 97 4e bd 5a 03 a8 3c d4 7e a2 bb
       -0.027646173 -0.05043729 0.02050941 -0.0049589667
000130 97 f7 4d 3d b6 19 97 3d 71 62 2c 3e 13 65 20 3c
       0.05028495 0.07377951 0.16834427 0.009789723
000140 5a b0 58 bc 5f db 8e 3d 2d b5 e2 bc 8b 38 b4 38
       -0.013225639 0.069754355 -0.027674282 8.593601e-05
000150 14 24 a9 bd 65 0e 78 bd 67 42 30 3d 79 17 03 bd
       -0.082588345 -0.060560603 0.043032076 -0.032004807
000160 27 01 a7 bd 06 eb b4 3d 62 46 55 3c 0f 99 d8 3d
       -0.08154517 0.0883389 0.013017269 0.105760686
000170 78 c3 78 bd 82 c8 c0 3d f7 de 1a bd 3b 38 92 bc
       -0.06073329 0.09413244 -0.037810292 -0.017849078
000180 5f 05 83 3d d7 6f cb bd 2f 62 e0 bc 94 6d 76 3d
       0.06397509 -0.09933441 -0.027390568 0.060163096
000190 66 5b 2a bd 58 a0 23 bd 4b 9b 69 bc 01 92 98 bd
       -0.04159107 -0.039947838 -0.014258216 -0.07449723
0001a0 18 24 0f 3e 8d f6 fc bc 85 44 9b 3d e2 73 a9 bd
       0.13978612 -0.030879283 0.075814284 -0.08274056
0001b0 7c e6 87 3d 54 9c 83 bc e4 2d fd bb 07 72 7f bd
       0.06635758 -0.016065754 -0.007726418 -0.062364604
0001c0 20 6f 07 bd d6 f4 30 3d 59 19 eb 3d 54 1b 3c 3d
       -0.03306496 0.043202244 0.11479444 0.0459245
0001d0 2d 87 1a 3d 6a 7a ac bd ee 47 48 3d 5b 14 82 bd
       0.03772657 -0.08421786 0.048896722 -0.06351539
0001e0 42 92 02 be be 29 62 bc 39 35 01 3b 6d ed 8f b9
       -0.12751105 -0.013803897 0.001971556 -0.0002745198
0001f0 fb b9 0e ba 2b 74 2d bd d5 90 64 bc db d2 71 3d
       -0.00054445834 -0.042347115 -0.013950546 0.059038978
000200 cc 7e ef 3c c3 cd 0a 3e 52 bd c3 3b 52 2c 57 bd
       0.029235266 0.13555054 0.0059734965 -0.0525325
000210 15 f7 24 bd 25 63 80 bd 60 d1 a3 bd ed 92 8c 3d
       -0.0402747 -0.0626891 -0.079989195 0.06863961
000220 09 03 a0 bc 4e af 0c 3e db 8c b0 bc d0 61 c1 bc
       -0.019532697 0.13738748 -0.02155154 -0.023606211
000230 1f 2a c5 bd 71 39 18 bd 3f e7 01 bc 5f cc 4f 3c
       -0.096271746 -0.037164155 -0.0079286685 0.012683003
000240 d4 9b 08 3e 28 ba d6 bc b5 f0 a5 3d 97 e2 67 3e
       0.13340694 -0.026211813 0.08102552 0.22645031
000250 5f 74 04 3e 8f 91 a1 bd 25 62 09 3c 32 e2 9e 3d
       0.12935017 -0.07889091 0.008385216 0.07757987
000260 15 02 ac 3d e1 b4 cc 3d df e6 ac 3d bc 9e 0e bc
       0.083988346 0.099954374 0.08442473 -0.008704837
000270 8e cc 87 3d 11 bf d4 3c 68 4a 4a 3d ef d0 2c 3e
       0.066308126 0.025970014 0.049387366 0.16876577
000280 b1 49 d2 3d 93 b7 95 3c e6 77 34 bd 41 21 b6 3c
       0.10267962 0.018276012 -0.044059657 0.022232654
000290 2e d8 3c 3c 83 d7 84 bd 0d 31 dd ba eb c1 c6 3d
       0.011526151 -0.06486418 -0.001687558 0.09704956
0002a0 64 16 0e bc 9a 0e 0b 3d f6 48 65 bd 18 31 8b 3d
       -0.0086723305 0.033949472 -0.055977784 0.06796473
0002b0 11 6d c0 ba 3b 0e cf bd d2 63 a2 3d 1f 65 31 b8
       -0.0014680942 -0.10110136 0.079291955 -4.2294265e-05
0002c0 dc 1f ed bc 52 89 1e 3e fe ca 12 3d d2 94 de 3c
       -0.028945856 0.15482071 0.03583812 0.027170572
0002d0 40 3b be 3d 5c aa b1 bc 01 86 e8 3c 48 2f 41 bb
       0.09288645 -0.021687679 0.02838421 -0.0029477645
0002e0 2e 32 f6 bd e1 ed c5 3c a8 65 05 bc bf 1a 8b bd
       -0.1202129 0.024161281 -0.0081419125 -0.06792211
0002f0 41 f8 ca bd d7 f6 44 bc 64 47 69 3c f2 d5 67 bd
       -0.09910632 -0.012021742 0.014238212 -0.05660052

exp_avg f4 [128, 142]
000000 fd 42 b4 b8 16 6d e3 3b 6c 49 aa bb 9f 84 1d b8
       -8.5955464e-05 0.0069404943 -0.005196741 -3.755523e-05
000010 1f fa 28 3c 57 89 a3 3b ff 27 1c bc 90 79 9e bc
       0.01031354 0.0049907374 -0.00953102 -0.019345075
000020 fd 42 b4 b8 41 65 bb 3b 7a 94 4c 3b 96 43 1c b8
       -8.5955464e-05 0.0057188575 0.0031216429 -3.7256243e-05
000030 b5 fa 28 3c 04 3d 54 bb 38 1e 1e bc 39 c7 9e bc
       0.010313679 -0.0032385 -0.009650759 -0.019382106
000040 2f d7 d5 3b 78 b3 d5 3b 95 93 80 3b 02 32 04 38
       0.006525896 0.0065216385 0.003923843 3.1517826e-05
000050 d5 ea 1f 3c e9 a9 7d bb 16 02 59 bc fe c6 9e bc
       0.009760578 -0.003870601 -0.013245126 -0.019381996
000060 ef 96 35 3b 79 26 37 3b 1e 64 1c bc 16 c1 b3 b9
       0.0027708372 0.0027946515 -0.009545354 -0.000342854
000070 ff a0 b2 3b 09 88 0b bc 4d c0 a7 3b 75 6d b4 3a
       0.005451321 -0.00851632 0.0051193596 0.0013765531
000080 9f 8e d5 3b 35 9f 6a 38 c0 55 2e 3c 65 a0 a0 3b
       0.006517246 5.593822e-05 0.010640562 0.004901933
000090 fd 50 2e 3c 3d 7e 91 bc 46 66 47 bc 2d a5 83 bc
       0.010639426 -0.01776039 -0.01217038 -0.016069973
0000a0 26 5b 2f ba 8a b1 eb bb ac e6 cf 3a a9 ae 26 3c
       -0.00066893024 -0.007192795 0.0015861592 0.010173478
0000b0 18 3c 67 3b a4 a9 4a bc a1 20 c0 bb 6a 41 62 bc
       0.0035283621 -0.012369547 -0.0058632647 -0.013809541
0000c0 24 8e 21 ba 15 a5 ec bb d3 a3 d0 3a 1b 25 66 3b
       -0.0006162843 -0.0072218277 0.0015917964 0.0035117331
0000d0 98 14 67 3b 26 0f 39 bc 77 76 36 bc d3 57 9c bc
       0.0035260078 -0.011295116 -0.011136643 -0.019084847
0000e0 9b f8 cf 3b ab 65 45 b9 d0 6a 20 ba a8 05 94 36
       0.0063467748 -0.00018825258 -0.0006119432 4.411402e-06
0000f0 aa aa a7 bb ba 7f 8d bb c4 eb 89 bb 51 cf c0 3a
       -0.0051167803 -0.0043182047 -0.0042090137 0.0014710223
000100 67 c9 f2 ba af 07 0c 3c 5d 66 aa 3b 4e 4f 8c 37
       -0.0018523157 0.008546754 0.005200191 1.672623e-05
000110 15 4a 4a b4 68 fa 9c bb 03 7a c0 3b c3 23 aa 3b
       -1.8839667e-07 -0.004790593 0.00587392 0.0051922514
000120 00 00 00 00 00 00 00 00 96 49 e4 bb 47 17 81 3b
       0.0 0.0 -0.00696678 0.0039395425
000130 d7 f7 3f 3b 00 00 00 00 00 00 00 00 1e c9 4f 39
       0.0029292011 0.0 0.0 0.0001981598
000140 00 00 00 00 00 00 00 00 00 00 00 00 00 00 00 00
       0.0 0.0 0.0 0.0
000150 6d af 0c 35 00 00 00 00 00 00 00 00 00 00 00 00
       5.240934e-07 0.0 0.0 0.0
000160 00 00 00 00 fd 7e 45 bb ca 2d 37 39 be 05 45 bb
       0.0 -0.0030135505 0.00017469298 -0.0030063237
000170 de 0a 9c 31 87 f0 45 b2 0e ee ec bb 8b 82 78 bb
       4.541433e-09 -1.1521599e-08 -0.007230527 -0.0037919607
000180 20 ed 44 bb 00 00 00 00 00 00 00 00 91 c7 0a 3b
       -0.0030048564 0.0 0.0 0.002117608
000190 f6 5c ff 3a 9f 36 33 3b 00 00 00 00 00 00 00 00
       0.001948266 0.002734579 0.0 0.0
0001a0 07 04 dc 39 00 00 00 00 00 00 00 00 00 00 00 00
       0.0004196467 0.0 0.0 0.0
0001b0 00 00 00 00 81 db d7 39 00 00 00 00 00 00 00 00
       0.0 0.0004117154 0.0 0.0
0001c0 00 00 00 00 00 00 00 00 c3 2c 7c 3c 56 aa ed 3b
       0.0 0.0 0.015391531 0.0072529716
0001d0 2e 89 8a bb cb c8 ad 36 8f d2 ad 36 9a 8c 2a 3c
       -0.004227779 5.179177e-06 5.180314e-06 0.010409499
0001e0 9e f5 95 3b 9f e7 c0 ba 00 00 00 00 00 00 00 00
       0.004576399 -0.0014717466 0.0 0.0
0001f0 69 8e 88 3b e7 55 2b b7 79 60 c6 bb 00 00 00 00
       0.0041673672 -1.0212395e-05 -0.006053981 0.0
000200 00 00 00 00 88 fe 95 3b 00 00 00 00 00 00 00 00
       0.0 0.0045774616 0.0 0.0
000210 00 00 00 00 00 00 00 00 ad a1 2b ba 00 00 00 00
       0.0 0.0 -0.0006547224 0.0
000220 00 00 00 00 00 00 00 00 00 00 00 00 a4 8e 67 bd
       0.0 0.0 0.0 -0.056532517
000230 82 ad 5c bb a1 4d 50 3d 61 27 a4 3c 48 27 a4 3c
       -0.0033672755 0.050855283 0.020038309 0.020038262
000240 55 27 a4 3c dc 60 63 3c 4c 15 7b 34 8e 1f f3 30
       0.020038286 0.013878074 2.3383944e-07 1.7689545e-09
000250 a7 df c9 3b b3 dd c9 3b 61 27 a4 3c 48 27 a4 3c
       0.0061606946 0.006160462 0.020038309 0.020038262
000260 af c1 06 b6 e4 5f 63 3c 05 67 06 b2 26 e0 c9 3b
       -2.0080295e-06 0.013877843 -7.8232505e-09 0.006160754
000270 26 e0 c9 3b 9c cf c9 3b 85 2b a4 3c 6d 2b a4 3c
       0.006160754 0.006158782 0.020040283 0.020040238
000280 cd 16 7b 34 d9 60 63 3c 8b c1 6a 34 88 df c9 3b
       2.3384491e-07 0.013878071 2.1863359e-07 0.00616068
000290 27 cf c9 3b 8f cf c9 3b 5f 27 a4 3c 01 28 a4 3c
       0.0061587277 0.006158776 0.020038305 0.020038607
0002a0 f9 27 a4 3c dc 60 63 3c cd 12 7b 34 b0 dd c9 3b
       0.020038592 0.013878074 2.3383036e-07 0.0061604604
0002b0 28 1e e8 b5 8c b8 04 b6 c9 eb eb b5 db 0c eb b5
       -1.7294124e-06 -1.9776953e-06 -1.7577487e-06 -1.7512606e-06
0002c0 95 f9 cd 3b 3d 2e a5 3c 88 e8 cd 3b a4 f8 ff 3b
       0.006285856 0.02016365 0.0062838234 0.0078116227
0002d0 d7 f8 ff 3b 0e e8 ff 3b 03 61 63 3c 04 62 63 3c
       0.0078116464 0.0078096455 0.01387811 0.013878349
0002e0 06 a8 97 3c 36 de 97 3b aa ab 97 3c 34 68 63 3c
       0.018512737 0.004634644 0.018514473 0.013879824
0002f0 57 68 63 3c 48 52 b1 24 e4 5f 63 3c 0d 61 63 3c
       0.013879857 7.6900904e-17 0.013877843 0.013878119
000300 89 a7 97 3c 80 cd 97 3b 03 a7 97 3c 34 68 63 3c
       0.018512504 0.004632652 0.018512255 0.013879824
000310 38 69 63 3c 7d 2f 79 34 5f 27 a4 3c f3 27 a4 3c
       0.013880067 2.3207208e-07 0.020038305 0.02003858
000320 e6 27 a4 3c de c4 70 34 89 2b a4 3c 86 2b a4 3c
       0.020038556 2.2423362e-07 0.02004029 0.020040285
000330 de 27 a4 3c e3 2c 79 34 36 ab 97 3c 45 dc 97 3b
       0.020038541 2.3206262e-07 0.018514257 0.0046344125
000340 fb 37 05 b6 ed 99 9a 24 26 2b 57 9e 36 ab 97 3c
       -1.985113e-06 6.7047614e-17 -1.1390928e-20 0.018514257
000350 a8 cb 97 3b fe 9d c1 31 00 00 00 00 00 00 00 00
       0.004632432 5.635001e-09 0.0 0.0
000360 09 a7 97 3c 53 dc 97 3b ba a2 db 2a 00 00 00 00
       0.018512266 0.004634419 3.901513e-13 0.0
000370 00 00 00 00 80 3a e2 25 00 00 00 00 00 00 00 00
       0.0 3.9244392e-16 0.0 0.0
000380 00 00 00 00 00 00 00 00 3e 10 f5 25 00 00 00 00
       0.0 0.0 4.251173e-16 0.0
000390 00 00 00 00 00 00 00 00 00 00 00 00 76 2b a4 3c
       0.0 0.0 0.0 0.020040255
0003a0 d6 2a a4 3c d6 2a a4 3c 73 67 d4 24 d6 ef 3c 1e
       0.020039957 0.020039957 9.2115594e-17 1.0002234e-20
0003b0 26 e0 c9 3b 36 e0 c9 3b 08 2c a4 3c 00 00 00 00
       0.006160754 0.006160761 0.020040527 0.0
0003c0 00 00 00 00 a1 dd c9 3b b3 dd c9 3b 8c 2b a4 3c
       0.0 0.0061604534 0.006160462 0.020040296
0003d0 00 00 00 00 00 00 00 00 b5 8b 06 b2 00 00 00 00
       0.0 0.0 -7.831592e-09 0.0
0003e0 00 00 00 00 00 00 00 00 00 00 00 00 4c 9e c1 31
       0.0 0.0 0.0 5.6350355e-09
0003f0 00 00 00 00 00 00 00 00 00 00 00 00 00 00 00 00
       0.0 0.0 0.0 0.0

exp_avg_sq f4 [128, 142]
000000 4a 0c 1d 3c 7d f2 86 3c 9d 18 86 3c 38 ba 68 3c
       0.0095854495 0.01647305 0.016369158 0.014204554
000010 06 b2 5a 3c 54 18 df 3b 08 a7 9e 3b 0e 71 d5 3b
       0.013348108 0.00680832 0.004841689 0.0065137213
000020 9b b3 0e 3c c7 db 68 3c e0 c5 37 3c be ee 1a 3c
       0.0087098135 0.014212555 0.011216611 0.009456335
000030 e6 0e 62 3c 80 5f 6a 3c 0d 0c 6b 3c 73 73 25 3c
       0.013797497 0.014304996 0.014346135 0.010098326
000040 1f 14 51 3c f0 33 34 3c f9 cc 0f 3c 79 d0 1b 3c
       0.012761145 0.010998711 0.008776897 0.009510153
000050 5d 94 13 3c cf 6e 42 3c 3a 7d 5b 3c 38 fe 0f 3c
       0.0090075405 0.011867239 0.013396556 0.008788638
000060 92 d6 25 3c 45 e3 56 3c 99 71 15 3c 5c 8d 88 3c
       0.010121958 0.013115709 0.009121322 0.016668968
000070 a0 4c 7c 3c 11 cb 6e 3c 3e 69 1d 3c f0 07 f7 3b
       0.015399128 0.014574782 0.009607611 0.007538788
000080 8b f9 54 3c 42 f9 44 3c 4b 8d 42 3c 5b 7f 9f 3c
       0.012998949 0.012022318 0.011874507 0.019469908
000090 68 4d 60 3c c0 c3 5c 3c 99 0f d1 3b bf a1 0a 3c
       0.01369033 0.013474405 0.006380033 0.008461415
0000a0 7b fe 93 3c ca 4e 82 3c 52 5f 93 3c e8 f2 49 3c
       0.018065682 0.01590671 0.017989788 0.01232598
0000b0 1b c0 70 3c 30 42 22 3c b0 6a 26 3c eb 1a dd 3b
       0.014694239 0.009903476 0.010157272 0.0067475936
0000c0 45 1e 6f 3c 3c 45 35 3c 64 b3 51 3c 3a 25 c6 3b
       0.014594619 0.01106387 0.012799118 0.006046918
0000d0 cd 79 46 3c a7 a3 0a 3c b1 ab ed 3b 36 12 c3 3b
       0.0121140005 0.008461869 0.007253133 0.0059530986
0000e0 70 c8 4b 3c dd 38 0d 3c 69 6f 49 3c e7 03 77 3b
       0.012437925 0.008619514 0.012294629 0.0037691535
0000f0 8a a5 23 3c 1d ef d8 3b 1f f3 ea 3b a7 38 8c 3b
       0.009988198 0.0066203014 0.0071700956 0.0042792144
000100 1d 03 77 3c f3 6f 4e 3c a9 46 03 3c 34 f8 30 3b
       0.015076426 0.012599933 0.008012452 0.002700341
000110 81 c8 7e 3a be c1 74 3c e8 91 30 3c 98 39 f7 3b
       0.00097192085 0.01493877 0.010776974 0.0075447075
000120 00 00 00 00 00 00 00 00 bc dc 16 3c e6 4e a2 3b
       0.0 0.0 0.009207901 0.004953253
000130 91 4b 83 3b 00 00 00 00 00 00 00 00 b2 a3 2a 3b
       0.004006811 0.0 0.0 0.0026037511
000140 00 00 00 00 00 00 00 00 00 00 00 00 00 00 00 00
       0.0 0.0 0.0 0.0
000150 b0 72 ed 3a 00 00 00 00 00 00 00 00 00 00 00 00
       0.0018115845 0.0 0.0 0.0
000160 00 00 00 00 af 40 88 3c 2a 3e 50 3c d9 ab 17 3c
       0.0 0.016632406 0.012710134 0.00925728
000170 06 04 65 3a fb 10 e3 39 6e 49 65 3c 95 c6 3f 3c
       0.0008736256 0.00043309465 0.013994558 0.0117050605
000180 38 46 fe 3b 00 00 00 00 00 00 00 00 2c e3 16 3c
       0.0077598356 0.0 0.0 0.009209435
000190 12 d6 e9 3b d9 2e 58 3b 00 00 00 00 00 00 00 00
       0.007136115 0.0032986908 0.0 0.0
0001a0 67 b2 f7 3a 00 00 00 00 00 00 00 00 00 00 00 00
       0.0018897773 0.0 0.0 0.0
0001b0 00 00 00 00 5e dd d1 3a 00 00 00 00 00 00 00 00
       0.0 0.0016011407 0.0 0.0
0001c0 00 00 00 00 00 00 00 00 67 ac 3e 3c 14 7d e7 3b
       0.0 0.0 0.011637784 0.007064471
0001d0 78 bd af 3b 70 e5 36 3a e8 64 15 3a 7d 02 35 3c
       0.0053631626 0.0006976938 0.0005698935 0.0110479565
0001e0 1d 27 14 3c 97 60 93 3b 00 00 00 00 00 00 00 00
       0.009042528 0.0044975984 0.0 0.0
0001f0 fe 3d 13 3c b9 40 7b 3b 14 c5 2a 3b 00 00 00 00
       0.008986948 0.0038338138 0.002605741 0.0
000200 00 00 00 00 33 35 73 3a 00 00 00 00 00 00 00 00
       0.0 0.00092776417 0.0 0.0
000210 00 00 00 00 00 00 00 00 5b c1 18 3a 00 00 00 00
       0.0 0.0 0.0005827152 0.0
000220 00 00 00 00 00 00 00 00 00 00 00 00 85 16 2f 3e
       0.0 0.0 0.0 0.17098434
000230 1d 2d 6e 3c b7 02 39 3f 7d 56 8b 3b f5 17 e7 3b
       0.014537123 0.7226977 0.0042522536 0.0070524164
000240 a4 b8 fb 3b 0e c2 d7 3b 3a a1 b1 3b b9 97 8d 3b
       0.007681923 0.0065844124 0.005420831 0.0043210653
000250 b6 55 69 3b c1 47 11 3b db d3 90 3b 37 c2 d9 3b
       0.0035604066 0.0022168013 0.0044197864 0.0066454667
000260 64 15 cf 3b 38 d7 c3 3b 1b 9e ba 3b 75 b1 c9 3b
       0.0063196886 0.005976584 0.005695117 0.0061551877
000270 7b ae e6 3b 0b ce 89 3b 49 58 e9 3b 4c b5 ce 3b
       0.0070398427 0.0042054704 0.00712112 0.0063082334
000280 4f 05 d1 3b bc c8 de 3b 4e e8 ba 3b 23 7b a4 3b
       0.0063788067 0.0067988317 0.0057039624 0.005019562
000290 49 a1 bd 3b b3 6d 7c 3b e8 1e ac 3b f4 ec d9 3b
       0.005787049 0.0038517534 0.0052527077 0.0066505615
0002a0 f0 23 ba 3b 20 61 0a 3c c0 a5 bd 3b d1 d0 e8 3b
       0.0056805536 0.008446008 0.005787581 0.007104971
0002b0 1d 40 d5 3b 38 46 ce 3b c8 e7 e5 3b b7 44 e3 3b
       0.006507887 0.006294992 0.007016156 0.0069356817
0002c0 15 fd b1 3b a5 8c e9 3b 5c 58 cf 3b db bc e1 3b
       0.005431781 0.007127362 0.006327672 0.0068889684
0002d0 77 33 b1 3b c7 df 7d 3b 65 7b f2 3b b4 7a 04 3c
       0.0054077464 0.0038738118 0.0073999637 0.008085895
0002e0 a7 bd ee 3b 32 9e ac 3b 8b 9c c7 3b 98 4f bf 3b
       0.007285792 0.005267882 0.0060916594 0.0058383457
0002f0 89 54 c3 3b 99 bf 73 3b b8 04 e1 3b 48 df d0 3b
       0.005961005 0.0037193059 0.0068670176 0.0063742734
000300 79 1f a8 3b c5 9e 7a 3b dc 01 b0 3b d7 18 a3 3b
       0.005130705 0.0038241607 0.0053713154 0.0049773264
000310 78 ac 9c 3b 8a 82 8f 3b 77 aa b4 3b 2d 24 80 3b
       0.004781302 0.004379575 0.005513485 0.0039105625
000320 c4 b0 a1 3b 61 72 44 3b 27 50 8b 3b af ff 88 3b
       0.004934402 0.0029975402 0.0042514983 0.0041808705
000330 3f 00 93 3b 02 cf 2f 3b 21 97 f0 3b f1 0b a4 3b
       0.0044861133 0.0026826267 0.0073422347 0.0050063063
000340 85 1b 57 3b 88 f5 9a 3a 77 a1 b0 39 87 58 ba 3b
       0.00328228 0.0011822442 0.00033689637 0.005686823
000350 d1 67 5b 3b 37 f2 c8 3a 00 00 00 00 00 00 00 00
       0.0033478627 0.0015330975 0.0 0.0
000360 a8 49 7c 3b c7 58 c3 3a 49 82 ad 3a 00 00 00 00
       0.003849605 0.0014903777 0.001323768 0.0
000370 00 00 00 00 ea b0 94 3a 00 00 00 00 00 00 00 00
       0.0 0.0011344228 0.0 0.0
000380 00 00 00 00 00 00 00 00 46 c1 85 3a 00 00 00 00
       0.0 0.0 0.0010204695 0.0
000390 00 00 00 00 00 00 00 00 00 00 00 00 af 1b f2 3b
       0.0 0.0 0.0 0.007388554
0003a0 7e b8 a9 3b 6f 8e 8e 3b de d5 c8 39 be 7f 8b 39
       0.005179464 0.0043504755 0.00038306316 0.0002660732
0003b0 9b de be 3b 9d 9c a2 3b 57 d8 69 3b 00 00 00 00
       0.0058248765 0.0049625174 0.0035681927 0.0
0003c0 00 00 00 00 1a ab 89 3b 1a 2c 15 3b 7e 3f f7 3a
       0.0 0.004201305 0.0022761882 0.0018863527
0003d0 00 00 00 00 00 00 00 00 8a 43 a6 3a 00 00 00 00
       0.0 0.0 0.0012684923 0.0
0003e0 00 00 00 00 00 00 00 00 00 00 00 00 07 57 94 3a
       0.0 0.0 0.0 0.001131744
0003f0 00 00 00 00 00 00 00 00 00 00 00 00 00 00 00 00
       0.0 0.0 0.0 0.0

exp_avg f4 [128]
000000 1d 38 07 3b dc 27 a4 3c 17 fc 82 34 e0 28 7f ab
       0.0020632811 0.020038538 2.4397806e-07 -9.0650924e-13
000010 9d b9 98 bc 90 de a0 3c b5 4a 03 3d 04 00 00 00
       -0.018643195 0.019637376 0.032053668 6e-45
000020 c9 21 6c bb c6 f7 2d 2f 9a 31 bb 0b 50 32 a5 27
       -0.003603088 1.5822285e-10 7.210441e-32 4.585125e-15
000030 18 b9 02 13 55 77 99 3c 04 00 00 00 10 15 c9 0e
       1.6499565e-27 0.01873366 6e-45 4.9570608e-30
000040 33 3a d8 b6 48 82 98 34 d5 dc 39 bd be 00 03 00
       -6.444077e-06 2.8406998e-07 -0.045376617 2.75773e-40
000050 ce ac 08 00 71 f9 e6 ba 14 ed 29 bd 6e fc 89 bc
       7.96675e-40 -0.0017621947 -0.04148586 -0.016844
000060 04 00 00 80 0b 1f 5e 36 15 67 06 bd e7 dc d6 33
       -6e-45 3.3098647e-06 -0.03281315 1.00053335e-07
000070 ad f9 09 3b 95 57 bf 3c b9 a1 71 bb 5e 48 30 3d
       0.002105336 0.023357192 -0.0036870076 0.043037765
000080 97 eb 02 bd f5 de c8 38 ca 88 9b 3c cf 24 48 bd
       -0.031962957 9.578272e-05 0.018986125 -0.04886323
000090 cc 6c 8b 23 5e df 70 b7 9b 00 a4 3c 4e 00 f2 bb
       1.5116487e-17 -1.43571215e-05 0.02001982 -0.00738529
0000a0 ce d4 42 3c 4e 7c 37 2d 9d e2 af b3 bd b2 38 3c
       0.011891557 1.0429947e-11 -8.190293e-08 0.011273083
0000b0 f6 af f8 0b dd 2e 52 23 c8 08 00 00 ed d1 81 3c
       9.579088e-32 1.13940465e-17 3.15e-42 0.01584717
0000c0 a2 a3 4f 20 7a e9 df 3b 95 8a 15 3c 9b c1 8c ba
       1.7587724e-19 0.0068332525 0.009127279 -0.0010738851
0000d0 7f f4 b7 27 f2 df 13 bc 69 c7 c7 29 04 3b 62 3c
       5.1057787e-15 -0.009025561 8.8719674e-14 0.013808016
0000e0 04 00 00 00 02 bf 51 36 33 11 bb bb ca 8b 8d b8
       6e-45 3.1254608e-06 -0.0057088374 -6.749442e-05
0000f0 04 00 00 00 6e 54 ce 31 ef dd 13 bd bc e4 5b 01
       6e-45 6.0049876e-09 -0.036100324 4.0388056e-38
000100 17 46 91 1e 8b 38 85 38 04 00 00 00 2e bb 13 bd
       1.538146e-20 6.352466e-05 6e-45 -0.03606718
000110 36 b3 3c bc 44 35 e2 3b 6b 1f 17 02 67 c7 4d bb
       -0.011517337 0.0069033224 1.1102744e-37 -0.003139937
000120 e2 ea c4 b7 78 49 11 3d 76 b8 c0 3c 04 00 00 00
       -2.3474397e-05 0.035470456 0.023525458 6e-45
000130 6d 4a a2 9f a2 68 5f bd 25 bc 17 3d b9 70 56 1d
       -6.8732796e-20 -0.054543145 0.037044663 2.838094e-21
000140 8b 4b bf 35 a7 e2 f0 3c 81 d2 0f 3d d6 6d ab 3c
       1.4252595e-06 0.029404951 0.03511286 0.020926397
000150 01 52 a4 34 d0 f8 b9 3b 69 ee 9a bc c0 ef 54 a7
       3.0607046e-07 0.0056754127 -0.018912511 -2.9550879e-15
000160 c5 5a 40 ba f1 80 67 3c 2e fe f8 bb 73 85 46 34
       -0.00073377445 0.014129863 -0.00759866 1.8488736e-07
000170 f4 78 86 a2 a2 0f 62 1c 92 a7 c7 39 04 00 00 00
       -3.6448837e-18 7.479733e-22 0.00038081087 6e-45
000180 08 00 00 80 db 32 b0 b7 78 b5 56 bc bb 24 4b 3c
       -1.1e-44 -2.1004516e-05 -0.013104789 0.012398894
000190 1c 6e 46 1b df f9 f3 2c 04 00 00 00 6f bc 00 00
       1.6413754e-22 6.9342167e-12 6e-45 6.7597e-41
0001a0 0f 57 86 3b 45 da b7 bc 96 d7 ea 29 09 8a 71 2d
       0.0040997337 -0.022442946 1.0429086e-13 1.3729914e-11
0001b0 04 00 00 00 04 00 00 00 04 00 00 80 c9 f9 06 3d
       6e-45 6e-45 -6e-45 0.032953057
0001c0 f8 5f fb 3b 55 57 b0 b9 fa 26 93 ba 6d 12 82 0a
       0.0076713525 -0.00033634403 -0.0011226826 1.2525476e-32
0001d0 c0 61 af bc 50 fa 05 3a 15 21 00 3c cf b0 76 af
       -0.021408916 0.0005110847 0.007820387 -2.2436385e-10
0001e0 22 ef 24 3b 04 00 00 00 b6 00 97 b8 6c 60 26 3c
       0.0025166948 6e-45 -7.2003735e-05 0.010154825
0001f0 de a2 eb 08 04 00 00 00 81 11 07 ac f2 62 55 3c
       1.4181838e-33 6e-45 -1.919437e-12 0.013024079

exp_avg_sq f4 [128]
000000 ba dc ca 3c 09 00 35 3c c7 12 4e 38 1f be ff 39
       0.024763454 0.011047372 4.9131715e-05 0.0004877904
000010 41 b9 bd 3c f5 c2 68 3c f0 f6 a7 3c 62 e6 38 37
       0.023159625 0.014206638 0.020503491 1.1020895e-05
000020 76 52 23 3c 55 ce ff 3b 04 4d 37 3a 81 ec d0 38
       0.009968391 0.007806579 0.0006992372 9.962265e-05
000030 d8 57 97 3a d6 86 97 3c 2b 5c 2a 38 26 14 27 39
       0.0011546565 0.018496912 4.0616997e-05 0.00015933867
000040 d2 90 90 38 5b 7f fa 39 56 57 8d 3c 0e ad 69 39
       6.89343e-05 0.00047778603 0.01725356 0.0002228508
000050 eb 23 07 38 40 f2 10 3b aa ca c7 3c ae 7e d0 3c
       3.221996e-05 0.0022117049 0.02438863 0.02545103
000060 64 14 3a 38 de 4a af 39 49 e7 bf 3c af 37 0b 3a
       4.4364846e-05 0.00033434381 0.023425715 0.00053107267
000070 aa f4 91 3c cb e6 01 3d 96 d1 2e 3c 0a 15 db 3c
       0.01781686 0.031714242 0.010670086 0.02674343
000080 05 a1 9b 3c ea 78 6b 3a 51 a7 a2 3c 20 2f b4 3c
       0.018997679 0.0008982556 0.019855173 0.021995127
000090 52 2d 01 3a ac f0 81 39 a4 83 b6 3c c5 f7 ee 3c
       0.0004927713 0.00024784112 0.022279568 0.02917088
0000a0 ce af 1c 3c 99 0d 36 3a 1f dd 53 3c c4 aa ce 3c
       0.0095633995 0.0006944775 0.012931137 0.025227912
0000b0 95 fb f8 39 3a 75 39 39 74 e8 34 38 89 7b e0 3c
       0.0004748969 0.00017686645 4.3131833e-05 0.027402656
0000c0 27 d4 60 3a 02 d9 a5 3c 6a 65 ff 3c f7 d1 a1 3c
       0.0008576535 0.020245079 0.031176288 0.01975344
0000d0 ef 17 03 3a 92 90 41 3a 61 4f eb 3b 0e ab 03 3b
       0.000500082 0.00073839084 0.0071810936 0.002009097
0000e0 84 6f 3d 39 a2 dc f3 3a cb d1 83 3c 20 ec 01 3b
       0.00018065987 0.0018605182 0.016091248 0.001982458
0000f0 bb 7a f8 36 25 76 3b 39 34 a9 bf 3c 20 c6 37 38
       7.4052637e-06 0.00017877722 0.023396112 4.381512e-05
000100 3e bd 52 3a fa ca 09 3b e4 da 9b 37 ef 7c d1 3c
       0.00080390635 0.0021025524 1.8579369e-05 0.025572268
000110 dd d0 af 39 37 bd 97 3c 08 cb 74 37 29 df be 3b
       0.00033534216 0.018522842 1.4590805e-05 0.0058249426
000120 ac dc 85 39 32 75 3d 3c 73 86 b9 3c b1 c0 89 37
       0.0002553215 0.011563586 0.022647118 1.6421402e-05
000130 6e b3 38 39 85 f6 af 3c 19 7e a5 3c 3e 19 7e 3b
       0.0001761445 0.021479854 0.02020173 0.003877237
000140 fb 38 80 3a 96 9c bd 3c ce aa bd 3c da 3d ad 3c
       0.0009782607 0.023145955 0.023152735 0.021147657
000150 a3 04 05 3b ff 85 6e 3c 1f 67 7f 3a 8c d6 e6 39
       0.0020296953 0.014558314 0.0009742844 0.00044028868
000160 ad f4 82 3c 5a 69 b1 3c 05 37 f1 3c 08 46 c1 39
       0.015985811 0.02165668 0.02944518 0.00036864006
000170 de 73 f6 39 04 d2 8e 39 ff c5 8e 3c e2 22 ec 39
       0.00047007104 0.00027240824 0.017428396 0.00045039417
000180 b6 00 3e 37 97 a1 4f 3c 13 b6 94 3c b8 26 7b 3c
       1.1325048e-05 0.012672803 0.018153226 0.0153290555
000190 9c b1 03 3a 2d 6c 55 39 1d 92 10 37 a0 87 12 38
       0.0005023719 0.00020353562 8.6170885e-06 3.4935423e-05
0001a0 81 a3 84 3c b9 1c cd 3c 56 53 33 3a 45 f1 6e 3a
       0.016191246 0.02503811 0.0006840726 0.00091149315
0001b0 fe 83 e0 35 d0 72 ba 38 15 32 2d 38 06 68 c2 3c
       1.6727715e-06 8.890557e-05 4.1293057e-05 0.023731243
0001c0 4c 6f b6 3c db e3 89 3c 7b 39 c8 39 51 3d a0 37
       0.022269867 0.016832283 0.000381898 1.9102039e-05
0001d0 54 cc fb 3c 51 94 f3 3b 51 42 11 3d 50 c4 0f 3b
       0.03073708 0.007433452 0.035463635 0.002193708
0001e0 53 b9 57 3c 0e a4 ed 36 a1 d1 00 3c 6d e6 4e 3b
       0.013166743 7.082249e-06 0.007862479 0.003157045
0001f0 09 e0 79 39 82 6b 0d 38 af 53 70 3a 63 b8 7c 3c
       0.0002382995 3.3717144e-05 0.0009167743 0.015424821
