weights/policy_checkpoint900.pt (torch, 522961 bytes, 12 tensors)

net.0.weight f4 [128, 142]
0.074685894 0.12247379 0.010101586 0.13309284 0.03001001 0.095692955 0.0395034 0.07888075
0.06018674 -0.016914384 0.09015588 0.034341995 0.044537723 0.039367083 0.073543265 0.038503066
0.05085623 0.035027236 -0.033842254 0.022748448 -0.01932211 0.06388231 0.02144616 0.12937908
-0.048399054 -0.04660033 0.0004064819 -0.043986037 0.014485469 -0.08579832 0.11051687 -0.028597219
0.085083075 0.029526958 -0.013872653 0.06359962 0.0089153005 0.08921905 0.010511664 0.02775359
0.101515755 0.0057086204 0.104668394 0.09547219 0.07843288 0.014033663 0.1228224 0.06897925
0.09096583 0.037642457 -0.035519153 0.024460545 -0.010278742 0.16301109 0.09163047 0.11808798
0.026248999 0.050990034 0.16176568 0.023644157 0.022070507 -0.0171442 0.09891913 0.028960908
0.027731024 -0.05112079 0.043898307 -0.057380468 -0.06603985 -0.018683149 0.08741275 0.022111785
0.08075029 -0.06925565 -0.0514299 -0.06444183 -0.08126387 0.033990216 0.03004906 0.11748319
-0.043337457 -0.057207987 0.04452513 -0.033920087 0.02362902 -0.019913828 0.04800503 -0.06520171
-0.042349268 0.10577922 0.09980662 0.03750353 0.10374807 0.10415056 -0.020014526 -0.010574931
0.11850081 -0.028316708 -0.029750356 -0.007344052 0.02436754 0.0805469 -0.011076622 -0.060915
0.033287544 -0.05732293 -0.07119587 -0.046210583 -0.07344617 0.005670797 0.08388532 0.015850035
0.025860189 -0.07826913 -0.010547237 0.0057442817 0.04413294 -0.036507867 -0.006625241 -0.049450804
0.0230358 -0.012887064 -0.0058151716 -0.056865424 -0.07466442 -0.07401371 -0.06480258 -0.06623498
0.07036283 -0.019992422 0.07220289 0.02614739 -0.071061626 0.058074307 0.01202848 -0.03216801
-0.069657974 -0.083428115 0.024009872 0.024937388 0.08621309 -0.032359764 0.053451367 -0.08561371
-0.054020908 -0.0016275139 0.036694184 0.0669124 0.07604381 -0.047158927 0.0137927625 -0.07424213
-0.0020235213 -0.07710577 0.06767316 -0.05674006 0.06625113 0.008252466 0.06323931 0.0025565017
0.13231616 0.07311835 0.044647172 -0.03453754 0.0790423 0.00032785733 -0.013886753 0.10004098
0.05615174 0.014637616 -0.011852019 -0.0124482885 0.0694442 -0.022062363 -0.02581466 -0.053244147
-0.05714106 0.043692682 0.05653793 -0.104986675 0.03492115 0.07459566 0.07249243 -0.018614532
0.07685139 0.10495194 0.04223388 0.016710555 0.034722473 0.05436275 -0.0018871803 -0.0010481186
0.077963665 0.07868343 -0.028453348 -0.02640115 -0.025517847 -0.05584714 0.034103304 0.02733212
-0.05785537 0.0032203654 0.10997057 0.019371219 -0.027750084 -0.033579696 -0.030194428 -0.06031557
-0.019855004 0.05612839 0.108110815 0.044689164 -0.1110443 -0.07192507 -0.01324368 0.08117817
0.057650484 -0.034837473 0.041393872 -0.03196287 -0.05431649 0.04778439 -0.038157728 -0.016822796
-0.083482124 0.056163948 0.030775182 0.030583814 -0.058513954 -0.08282216 -0.06815655 0.017578872
0.031067211 0.07030129 0.024896445 -0.0029211456 -0.03611884 -0.07579607 -0.07806947 -0.078492716
0.034352895 -0.07055837 -0.0076441155 -0.081906855 -0.015291862 -0.059064515 -0.09595986 0.027836554
-0.024940168 0.051806293 -0.026921675 -0.11203242 -0.014806426 -0.0406791 -0.025674049 -0.0798897
00000000: ebf4 983d 8ad3 fa3d 1f81 253c 7d49 083e
00000010: 8dd7 f53c abfa c33d 51ce 213d 3b8c a13d
00000020: 5f86 763d 0990 8abc a5a3 b83d 31aa 0c3d
00000030: 306d 363d 613f 213d da9d 963d 64b5 1d3d
00000040: 9f4e 503d b878 0f3d 2d9e 0abd f45a ba3c
00000050: 6749 9ebc bbd4 823d dbaf af3c f37b 043e
00000060: 163e 46bd fddf 3ebd 141d d539 b42a 34bd
00000070: 7654 6d3c 08b7 afbd ab56 e23d b744 eabc
00000080: 0940 ae3d 85e2 f13c 204a 63bc 8440 823d
00000090: 7b11 123c 7ab8 b63d 1d39 2c3c 7f5b e33c
000000a0: 7ee7 cf3d 610f bb3b 625c d63d ec86 c33d
000000b0: 6ba1 a03d 73ed 653c 4f8a fb3d fe44 8d3d
000000c0: 4b4c ba3d fa2e 1a3d 887c 11bd 7b61 c83c
000000d0: 2b68 28bc 61ec 263e c1a8 bb3d 1cd8 f13d
000000e0: 2408 d73c edda 503d e7a5 253e 64b1 c13c
000000f0: 35cd b43c fe71 8cbc 1d96 ca3d 6d3f ed3c
00000100: 2c2c e33c 0964 51bd b6ce 333d c807 6bbd
00000110: e73f 87bd 670d 99bc 7505 b33d c623 b53c
00000120: 6860 a53d e8d5 8dbd 29a8 52bd 14fa 83bd
00000130: ac6d a6bd 5339 0b3d 7229 f63c 079b f03d
00000140: 9e82 31bd ec52 6abd fc5f 363d caef 0abd
00000150: a691 c13c 5322 a3bc eca0 443d 7988 85bd
00000160: 6d76 2dbd c7a2 d83d 6a67 cc3d 4d9d 193d
00000170: de79 d43d e44c d53d 81f5 a3bc 7a42 2dbc
00000180: 8db0 f23d 71f8 e7bc 05b7 f3bc 60a6 f0bb
00000190: 6f9e c73c c6f5 a43d b87a 35bc 0282 79bd
000001a0: 8558 083d 73cb 6abd 24cf 91bd 4f47 3dbd
000001b0: f26a 96bd 18d2 b93b 11cc ab3d efd7 813c
000001c0: bfd8 d33c 914b a0bd 51ce 2cbc 873a bc3b
000001d0: bec4 343d 4689 15bd 8d18 d9bb ed8c 4abd
000001e0: 93b5 bc3c 4424 53bc 328d bebb b8eb 68bd
000001f0: a9e9 98bd 8094 97bd 37b7 84bd 35a6 87bd
00000200: 631a 903d 26c7 a3bc 1cdf 933d 0d33 d63c
00000210: c288 91bd 53df 6d3d 1a13 453c 9ac2 03bd
00000220: d7a8 8ebd 5cdc aabd 5ab0 c43c 7e49 cc3c
00000230: 7d90 b03d ac8b 04bd d2ef 5a3d 3e56 afbd
00000240: 0745 5dbd 4e52 d5ba a44c 163d 5e09 893d
00000250: dbbc 9b3d b829 41bd 0afb 613c 420c 98bd
00000260: 0e9d 04bb a1e9 9dbd 3a98 8a3d 4468 68bd
00000270: acae 873d 5a35 073c 9d83 813d fb8a 273b
00000280: e37d 073e 13bf 953d f4df 363d 3c77 0dbd
00000290: eee0 a13d 44e4 ab39 4385 63bc 49e2 cc3d
000002a0: 5eff 653d 9dd2 6f3c f82e 42bc e8f3 4bbc
000002b0: c338 8e3d 21bc b4bc 4479 d3bc 8916 5abd
000002c0: be0c 6abd 19f7 323d 5194 673d 4103 d7bd
000002d0: 7b09 0f3d 9cc5 983d e976 943d 817d 98bc
000002e0: 4364 9d3d 0bf1 d63d 6ffd 2c3d 93e4 883c
000002f0: 2739 0e3d 7aab 5e3d 435b f7ba 0661 89ba
00000300: 6aab 9f3d c724 a13d ff16 e9bc 3947 d8bc
00000310: ce0a d1bc f8bf 64bd e8af 0b3d 9ce7 df3c
00000320: c1f9 6cbd c40c 533b 4038 e13d 64b0 9e3c
00000330: 2554 e3bc dd8a 09bd 4e5a f7bc 760d 77bd
00000340: f6a6 a2bc e2e6 653d 3469 dd3d fc0b 373d
00000350: 326b e3bd 734d 93bd 05fc 58bc be40 a63d
00000360: ea22 6c3d bdb1 0ebd 9f8c 293d 80eb 02bd
00000370: f87a 5ebd 91b9 433d 474b 1cbd f6cf 89bc
00000380: adf8 aabd 2b0c 663d 3c1c fc3c e88a fa3c
00000390: 54ac 6fbd aa9e a9bd a995 8bbd 9101 903c
000003a0: aa80 fe3c 1ffa 8f3d a1f3 cb3c b170 3fbb
000003b0: 59f1 13bd f83a 9bbd e3e2 9fbd cac0 a0bd
000003c0: 9fb5 0c3d e880 90bd 7d7b fabb c8be a7bd
000003d0: b88a 7abc a2ed 71bd 9a86 c4bd 7c09 e43c
000003e0: 534f ccbc d632 543d d88a dcbc 4171 e5bd
000003f0: a796 72bc 219f 26bd 6252 d2bc 369d a3bd

net.0.bias f4 [128]
0.11641407 0.021259125 0.020466784 0.07185706 0.048122816 0.0531471 -0.010214512 -0.06619
0.041213576 0.082431875 0.023295034 0.02334122 -0.035855617 0.07302459 -0.073394656 -0.0496752
0.060072258 -0.06218019 -0.044802137 -0.0331929 0.018873356 -0.08669276 0.07598886 0.024488404
-0.016133958 0.03744911 0.030934546 -0.038486432 -0.027995698 0.057844058 -0.026012592 -0.03220644
0.04343412 0.052491367 0.02281933 0.003689743 -0.105899796 0.010021671 0.076862246 0.03943289
0.08606498 -0.08258258 0.028164981 0.05944515 -0.017437845 -0.036869567 -0.083529204 -0.02080537
-0.041540943 -0.038121417 -0.061800532 0.045288198 -0.048803043 0.040778194 0.04711205 -0.06840507
-0.035949796 0.067666106 0.022322765 0.052079372 -0.097285785 0.068707235 0.011876779 -0.08322077
0.023311982 0.03530046 0.01882674 0.065055095 -0.029028093 -0.011104725 -0.0823021 0.058183562
0.011470239 0.013479636 0.009398654 -0.09177999 -0.01819202 0.033711255 0.0487114 0.0008750939
0.058575705 0.0029761875 -0.030399956 0.16233937 0.045788 0.10977216 -0.11848376 -0.019384919
-0.021307493 0.11352316 0.02412263 -0.009677443 0.032358944 -0.058569703 0.05092108 0.029224068
-0.07468037 0.044340782 0.015355313 -0.06569486 -0.054374684 -0.08678721 -0.078550026 -0.053064425
0.02247466 0.054375947 0.028912883 -0.015225724 -0.09059925 -0.099959366 0.051721375 0.014200288
0.11830844 -0.057689015 -0.07393977 -0.034161188 0.073680304 -0.08426357 -0.05894345 -0.07016313
0.06188905 -0.031941302 -0.026959682 0.07989221 -0.08129974 -0.025284145 -0.050523624 -0.007880752
00000000: 806a ee3d 9e27 ae3c f5a9 a73c cb29 933d
00000010: 6e1c 453d c6b0 593d c55a 27bc 9f8e 87bd
00000020: 91cf 283d 0bd2 a83d 3ad5 be3c 1636 bf3c
00000030: 57dd 12bd eb8d 953d f04f 96bd 3978 4bbd
00000040: 540e 763d a8b0 7ebd 7282 37bd 47f5 07bd
00000050: 4c9c 9a3c f98b b1bd 0ca0 9b3d e89b c83c
00000060: 5d2b 84bc 3d64 193d 726a fd3c f3a3 1dbd
00000070: 3c57 e5bc e4ed 6c3d 5c18 d5bc e6ea 03bd
00000080: fae7 313d 3001 573d 9bef ba3c 9ecf 713b
00000090: fee1 d8bd ef31 243c f469 9d3d 6284 213d
000000a0: d642 b03d 0e21 a9bd 3fba e63c c27c 733d
000000b0: d0d9 8ebc 8b04 17bd 5c11 abbd 0670 aabc
000000c0: d626 2abd 3425 1cbd 8e22 7dbd 1e80 393d
000000d0: b3e5 47bd 0907 273d 91f8 403d f517 8cbd
000000e0: 1840 13bd 8794 8a3d 3bde b63c 2e51 553d
000000f0: c53d c7bd 61b6 8c3d d296 423c a76f aabd
00000100: c5f8 be3c 3797 103d 893a 9a3c 9b3b 853d
00000110: 53cc edbc 98f0 35bc 018e a8bd e351 6e3d
00000120: abed 3b3c b1d9 5c3c d0fc 193c 26f7 bbbd
00000130: 6e07 95bc d014 0a3d 9b85 473d 8f66 653a
00000140: 14ed 6f3d 240c 433b 5409 f9bc 4b3c 263e
00000150: 338c 3b3d 3ad0 e03d 9da7 f2bd 1fcd 9ebc
00000160: 0d8d aebc d57e e83d d29c c53c 238e 1ebc
00000170: d08a 043d c9e6 6fbd 9f92 503d 5067 ef3c
00000180: 06f2 98bd ae9e 353d da94 7b3c 078b 86bd
00000190: fdb7 5ebd 7ebd b1bd d6de a0bd 155a 59bd
000001a0: c71c b83c 50b9 5e3d b6da ec3c 5175 79bc
000001b0: 198c b9bd 7fb7 ccbd cbd9 533d 53a8 683c
000001c0: b24b f23d 514b 6cbd bc6d 97bd 9aec 0bbd
000001d0: b3e5 963d 6192 acbd b06e 71bd b0b1 8fbd
000001e0: 5f7f 7d3d e2d4 02bd 8dda dcbc 879e a33d
000001f0: 7a80 a6bd b220 cfbc dcf1 4ebd 451e 01bc

net.2.weight f4 [192, 128]
-0.055088475 -0.06563155 0.15589939 -0.117163405 -0.04614301 -0.06149351 -0.09779067 0.087599136
0.03458482 0.018438552 0.01902014 0.005057964 0.012072061 -0.04943721 0.054018434 -0.003566105
0.09935265 0.039739188 -0.099749304 0.04527794 0.08915178 -0.032722197 -0.022642868 -0.14101897
0.029785587 -0.09671033 -0.11124854 0.017775463 -0.054378904 0.047653887 -0.11779434 -0.097791605
-0.07927145 0.0026259176 -0.10798114 -0.20944926 -0.067718536 -0.04604701 -0.006509193 0.02229522
-0.12071365 -0.079614036 0.021685582 -0.075176656 -0.10878715 0.08214908 -0.07463882 0.0024610646
-0.0871876 -0.099516675 -0.1273553 -0.11315543 -0.09464024 -0.1010621 -0.07420293 -0.12116727
0.04323237 -0.1136237 -0.080861375 0.0078592915 -0.07046495 -0.031659357 -0.07373315 -0.064986795
0.020125786 0.06206179 0.0043163174 0.011398153 0.006564074 -0.1251866 -0.079160035 -0.0034965894
-0.097814135 0.13656162 -0.05896487 0.05781645 -0.030211955 -0.033304103 -0.1095714 0.058323972
-0.10736178 0.023864439 -0.048043087 -0.03970659 -0.06343836 -0.021340277 0.067452766 -0.089754015
-0.11312578 0.008334866 -0.036324847 -0.07096541 -0.0047621136 0.0575812 -0.08508844 0.049508817
-0.086097255 -0.05887976 -0.058168832 -0.10165078 -0.066116124 -0.12285217 0.07018271 -0.040762298
0.16256247 0.023193512 -0.006491186 -0.012656315 -0.025061034 -0.042196248 0.07113818 -0.04560955
-0.03231573 -0.16539364 -0.034859814 0.07208232 -0.0002790579 -0.11971794 -0.10277657 -0.031037094
-0.046476297 0.14206393 -0.13651901 -0.022976112 -0.13445997 0.11967389 -0.13876282 -0.081535086
0.0052965824 0.030221254 -0.022798773 -0.028205203 0.052859873 -0.04809311 0.03952024 0.0362492
0.022580791 -0.04746675 0.08431075 0.008125923 -0.040021643 0.024425125 -0.04910285 0.009967083
0.07194028 0.0066064177 -0.0021318053 -0.024865104 -0.071473695 -0.023209136 0.07605441 0.05559343
-0.04426124 0.027769193 0.019790987 0.062493358 0.063402094 -0.015498276 0.0130244875 0.13038142
0.021955363 -0.05552972 -0.037396215 -0.044122845 -0.07413192 -0.04188529 0.04064702 0.009536188
0.058705796 -0.0676308 0.073178545 0.03200632 -0.06742679 -0.018740393 0.019613946 -0.056861196
0.009874925 0.07979162 -0.039268423 -0.015392262 0.07596477 -0.038235463 -0.07894664 0.019894332
-0.064676926 0.06239075 -0.042997193 0.034150444 -0.0091831 -0.027331533 -0.030785503 0.061863165
-0.056705862 0.0692026 0.041145567 -0.048480656 0.071690895 0.05408472 -0.055045065 0.010984134
0.035938665 -0.0076813893 0.082352675 -0.019891517 -0.035616715 0.03580131 -0.004924022 0.09377959
-0.06286537 -0.019111559 -0.050374594 0.0116858 -0.008643847 -0.05100546 -0.05218415 -0.033301584
-0.10368974 0.04271706 0.04567086 -0.039342407 0.093391545 0.088235274 -0.02847349 0.04201593
0.0078053395 0.0668713 -0.016375098 -0.018843422 0.03870816 -0.1214023 0.021178998 -0.0725304
0.003080224 0.02021569 -0.068964936 -0.031565756 -0.022713212 -0.00424542 0.020352652 -0.05536312
0.0828903 -0.019952105 -0.0029487775 0.027003193 -0.039268374 0.014475638 -0.089179136 -0.00030347687
-0.014303905 -0.07610084 0.020349177 -0.08230174 -0.061474994 -0.063729495 -0.0061413664 -0.001468296
00000000: 74a4 61bd d669 86bd 17a4 1f3e 5ef3 efbd
00000010: 7400 3dbd 9ee0 7bbd 7a46 c8bd 2d67 b33d
00000020: d0a8 0d3d 720c 973c 20d0 9b3c 47bd a53b
00000030: e5c9 453c ac7e 4abd 6f42 5d3d 50b5 69bb
00000040: 6779 cb3d 8fc5 223d 5d49 ccbd 5c75 393d
00000050: 3595 b63d b607 06bd 897d b9bc 4767 10be
00000060: e700 f43c 1110 c6bd 46d6 e3bd d99d 913c
00000070: 6abc 5ebd b930 433d 293e f1bd f746 c8bd
00000080: 1259 a2bd 9617 2c3b 3725 ddbd de79 56be
00000090: 04b0 8abd ca9b 3cbd 124b d5bb 77a4 b63c
000000a0: b838 f7bd af0c a3bd f6a5 b13c 38f6 99bd
000000b0: cccb debd c73d a83d 3ddc 98bd d049 213b
000000c0: 6a8f b2bd 66cf cbbd 6e69 02be 09be e7bd
000000d0: bed2 c1bd a5f9 cebd b5f7 97bd 8c26 f8bd
000000e0: 6d14 313d 8bb3 e8bd a69a a5bd 42c4 003c
000000f0: ed4f 90bd 3ead 01bd 6801 97bd cc17 85bd
00000100: d5de a43c 8134 7e3d e56f 8d3b 52bf 3a3c
00000110: 7217 d73b eb30 00be a81e a2bd 0927 65bb
00000120: c752 c8bd cfd6 0b3e 2685 71bd f1d0 6c3d
00000130: 107f f7bc e269 08bd f866 e0bd 1ee5 6e3d
00000140: 7ee0 dbbd 5b7f c33c d4c8 44bd 61a3 22bd
00000150: f9eb 81bd ced1 aebc ad24 8a3d f4d0 b7bd
00000160: 7dae e7bd f68e 083c 5dc9 14bd 5056 91bd
00000170: 810b 9cbb 44da 6b3d d942 aebd c2c9 4a3d
00000180: c253 b0bd e72b 71bd 7142 6ebd 492e d0bd
00000190: e467 87bd eb99 fbbd f4bb 8f3d 5ef6 26bd
000001a0: c776 263e 5200 be3c 04b4 d4bb 6f5c 4fbc
000001b0: cc4c cdbc f9d5 2cbd e5b0 913d 14d1 3abd
000001c0: 805d 04bd f35c 29be 2ac9 0ebd e59f 933d
000001d0: 844e 92b9 ae2e f5bd 867c d2bd 8141 febc
000001e0: ee5d 3ebd 3579 113e a4cb 0bbe 6638 bcbc
000001f0: e0af 09be 9617 f53d d717 0ebe defb a6bd
00000200: f48e ad3b 9092 f73c 7ec4 babc 990e e7bc
00000210: 9883 583d 48fd 44bd fadf 213d 0b7a 143d
00000220: 5afb b83c 7f6c 42bd 1dab ac3d 9722 053c
00000230: bced 23bd 3317 c83c 1220 49bd fa4c 233c
00000240: 6d55 933d a67a d83b c2b5 0bbb e7b1 cbbc
00000250: cd60 92bd 1621 bebc 6ac2 9b3d f0b5 633d
00000260: 464b 35bd 387c e33c b520 a23c 09f9 7f3d
00000270: f5d8 813d 7bec 7dbc a964 553c b582 053e
00000280: bcdb b33c 2273 63bd c62c 19bd 28ba 34bd
00000290: 7ad2 97bd e98f 2bbd 7d7d 263d ac3d 1c3c
000002a0: 7d75 703d 0482 8abd a2de 953d 0f19 033d
000002b0: 0f17 8abd 7485 99bc 6dad a03c 49e7 68bd
000002c0: 70ca 213c ca69 a33d edd7 20bd d32f 7cbc
000002d0: 6b93 9b3d ca9c 1cbd c7ae a1bd 70f9 a23c
000002e0: 5675 84bd 718d 7f3d d31d 30bd 56e1 0b3d
000002f0: b774 16bc 61e6 dfbc e131 fcbc 3b64 7d3d
00000300: 6844 68bd 18ba 8d3d 4188 283d a793 46bd
00000310: add2 923d f087 5d3d ef76 61bd ccf6 333c
00000320: 6c34 133d 2ab4 fbbb 85a8 a83d 89f3 a2bc
00000330: d5e2 11bd 65a4 123d b159 a1bb 840f c03d
00000340: 8fbf 80bd d88f 9cbc 9755 4ebd cc75 3f3c
00000350: ec9e 0dbc 1aeb 50bd 0cbf 55bd 3e67 08bd
00000360: 495b d4bd 15f8 2e3d 5e11 3b3d 8125 21bd
00000370: 1144 bf3d b2b4 b43d 3d41 e9bc e518 2c3d
00000380: efc3 ff3b d2f3 883d 1225 86bc 855d 9abc
00000390: 738c 1e3d c5a1 f8bd 947f ad3c d18a 94bd
000003a0: 95dd 493b 609b a53c 7d3d 8dbd 184b 01bd
000003b0: 0f11 babc 2a1d 8bbb 9bba a63c 70c4 62bd
000003c0: 64c2 a93d 9972 a3bc 4740 41bb cd35 dd3c
000003d0: e0d7 20bd 3a2b 6d3c 8da3 b6bd fa1b 9fb9
000003e0: ed5a 6abc c2da 9bbd 51b3 a63c d18d a8bd
000003f0: 34cd 7bbd 9c84 82bd 843d c9bb d773 c0ba

net.2.bias f4 [192]
-0.011118475 0.049504597 0.047011588 0.020650363 0.021885572 0.0056680394 0.02427204 0.004399519
-0.098317094 -0.013171615 0.024160594 -0.026741162 0.0049331803 0.005023987 -0.0018865949 0.05987563
0.06762923 0.011631432 0.034375906 0.12775832 -0.021118721 0.0073837414 -0.004088789 0.11421052
0.053061794 0.07612689 0.03947235 0.15175763 0.030991 0.010654904 -0.0414406 0.04017732
0.013359777 0.0041715107 0.06298864 0.044005383 0.028582728 0.05804591 -0.0680688 -0.002258103
-0.06705391 -0.046853725 0.08024962 0.115946196 -0.027387282 -0.024947716 -0.07750083 0.0021610588
0.08095568 -0.052704208 0.05426842 0.11192339 0.031578984 -0.0068329135 0.0771999 -0.020822605
0.020515172 -0.08473266 0.0027267016 -0.02729358 0.0044266046 0.010876502 0.06913912 -0.025200706
-0.057803985 -0.049546383 -0.05015244 -0.03648341 -0.03488366 -0.045749303 0.060921863 -0.07507282
-0.018990029 0.018400518 0.021715634 0.04674419 0.020738892 0.060858257 0.05429649 0.030528476
0.026162762 0.020926861 0.015845584 -0.0046374067 -0.027580453 -0.031698104 0.04565317 0.04817668
-0.058418073 0.08259734 0.047814686 0.10049828 -0.032835763 0.082082406 0.0065735914 0.10435169
0.0037155142 -0.08207616 -0.07775807 -0.018117828 0.021472096 -0.048225533 -0.011701899 -0.055930182
0.11911556 -0.02356588 0.07618288 -0.019963048 0.082909256 0.030977903 0.04088132 -0.05855807
-0.040860914 0.07728809 0.09156246 0.06317275 0.09769307 -0.10955368 0.030897265 -0.058075853
-0.0935821 0.051881745 0.012030312 0.020012181 0.02366434 -0.03443135 0.024543121 0.059038978
-0.025571698 0.0986552 -0.059512746 -0.016729651 -0.018207239 -0.004661363 -0.08183719 0.026289152
-0.00034652217 0.10975481 -0.007091326 0.030194182 -0.047922812 -0.045190785 0.00041068808 0.011564482
0.10597753 -0.022130186 -0.025432896 0.11142256 0.14772986 -0.02766999 0.025196515 0.13021244
0.06852956 0.054501936 0.10691877 0.05308893 0.038288105 0.045607686 0.04934815 0.12854172
-0.020007504 0.03854099 -0.089341156 -0.021527471 0.025874875 -0.10828257 0.055315644 0.10343921
0.04473147 0.09540877 -0.0465272 0.08841699 -0.04980013 -0.05070132 0.02072349 0.0052694604
-0.012951995 0.08979934 0.06066293 0.03616776 0.07657766 -0.048113875 0.056650374 -0.0023924909
-0.07282544 0.044112362 0.023373831 -0.040154595 -0.008270315 0.040999882 0.048045356 -0.05660052
00000000: 442a 36bc 55c5 4a3d 398f 403d f32a a93c
00000010: 5f49 b33c f6ba b93b 28d6 c63c d729 903b
00000020: 795a c9bd c2cd 57bc 70ec c53c 4810 dbbc
00000030: 84a6 a13b 42a0 a43b 9f47 f7ba 2640 753d
00000040: 3281 8a3d c391 3e3c c0cd 0c3d 14d3 023e
00000050: 2b01 adbc 50f3 f13b 40fb 85bb 35e7 e93d
00000060: 5357 593d 6ae8 9b3d c2ad 213d 5a66 1b3e
00000070: d6e0 fd3c e891 2e3c 9ebd 29bd f990 243d
00000080: f7e2 5a3c 2bb1 883b 3000 813d fd3e 343d
00000090: 5326 ea3c 8cc1 6d3d a867 8bbd affc 13bb
000000a0: 8f53 89bd b1e9 3fbd ea59 a43d 3375 ed3d
000000b0: 4b5b e0bc 275f ccbc c1b8 9ebd 8da0 0d3b
000000c0: 17cc a53d 5ee0 57bd 9048 5e3d 1738 e53d
000000d0: f758 013d a2e6 dfbb fb1a 9e3d 2b94 aabc
000000e0: 6f0f a83c 5188 adbd 76b2 323b c996 dfbc
000000f0: 0d0d 913b 5b33 323c d098 8d3d b671 cebc
00000100: dfc3 6cbd 26f1 4abd a56c 4dbd a16f 15bd
00000110: 2be2 0ebd 9f63 3bbd 3489 793d c7bf 99bd
00000120: fa90 9bbc afbc 963c fce4 b13c d676 3f3d
00000130: 9ce4 a93c 8246 793d ff65 5e3d db16 fa3c
00000140: 4a53 d63c cf6e ab3c 99ce 813c 63f5 97bb
00000150: 67f0 e1bc dfd5 01bd d2fe 3a3d e954 453d
00000160: ca47 6fbd cb28 a93d 55d9 433d 0bd2 cd3d
00000170: cb7e 06bd d21a a83d 4867 d73b 57b6 d53d
00000180: fc7f 733b 8c17 a8bd 9f3f 9fbd d76b 94bc
00000190: 40e6 af3c 2388 45bd 52b9 3fbc 0c17 65bd
000001a0: dcf2 f33d 3b0d c1bc c505 9c3d 8c89 a3bc
000001b0: 54cc a93d 5fc5 fd3c 2c73 273d 96da 6fbd
000001c0: c65d 27bd 3849 9e3d 1985 bb3d b760 813d
000001d0: 4e13 c83d ae5d e0bd 431c fd3c f2e0 6dbd
000001e0: f9a7 bfbd f481 543d c91a 453c 96f0 a33c
000001f0: b8db c13c e307 0dbd a80e c93c dbd2 713d
00000200: bd7b d1bc bd0b ca3d a3c3 73bd 9f0c 89bc
00000210: 5927 95bc 59be 98bb 429a a7bd 595c d73c
00000220: 6bad b5b9 21c7 e03d 5b5e e8bb ca59 f73c
00000230: b64a 44bd f919 39bd 9f51 d739 f478 3d3c
00000240: bf0a d93d 5d4a b5bc a658 d0bc 8331 e43d
00000250: 7f46 173e 2dac e2bc ec68 ce3c 6956 053e
00000260: 3a59 8c3d 6c3d 5f3d 3af8 da3d c773 593d
00000270: fdd3 1c3d 20cf 3a3d 4921 4a3d 71a0 033e
00000280: c7e6 a3bc 28dd 1d3d 7ff8 b6bd 615a b0bc
00000290: 8cf7 d33c 41c3 ddbd a892 623d f0d7 d33d
000002a0: 5938 373d ac65 c33d 4e93 3ebd f813 b53d
000002b0: 39fb 4bbd 30ac 4fbd 4fc4 a93c 70ab ac3b
000002c0: 9b34 54bc b7e8 b73d b179 783d a524 143d
000002d0: c0d4 9c3d 0e13 45bd 390a 683d 56cb 1cbb
000002e0: 8125 95bd 2aaf 343d 7a7a bf3c 2579 24bd
000002f0: 3780 07bc 7eef 273d 35cb 443d f2d5 67bd

exp_avg f4 [128, 142]
-0.029660838 -0.029505907 -0.038476873 -0.03466509 -0.03466564 -0.0023977435 -0.036854036 0.006808575
-0.0012470898 0.005000847 -0.0034543227 0.006734127 0.0053418446 -0.0023903921 -0.03853051 -0.02992465
-0.029032476 -0.029148132 -0.039531764 -0.0012438038 -0.028354278 -0.03900122 -0.042417508 -0.028230809
0.005011452 0.004996843 -0.03824666 -0.027235808 -0.028119078 -0.040431246 -0.04072622 -0.03693118
-0.03738263 -0.029353987 -0.038210247 -0.027074328 0.0067067305 -0.038428545 -0.006259492 -0.03461311
-0.035259195 0.008642657 -0.03645923 -0.027096162 -0.026424475 -0.036286682 -0.034693517 -0.03449109
0.00662778 0.0075633773 -0.0050114663 0.003902776 -0.0017713801 -0.0030351777 -0.0027770784 -0.0026801645
-0.00039737296 -0.0024849854 -0.034529645 -0.026861362 -0.021672476 -0.024008878 -0.033301678 -0.00199958
0.0008254076 -0.0296561 0.012144347 4.5338203e-07 4.5338237e-07 -0.031910967 -6.943218e-05 0.0077411197
0.0 0.0 0.0055846805 0.007888193 0.0075377733 0.0 0.0 -0.002121392
0.0 0.0 0.0 0.0 -0.002121392 0.0 0.0 0.0
0.0 0.007164105 0.0070780995 -0.003642706 -0.0027625486 -0.0028655783 -0.0033027332 0.0162544
-0.0013946536 0.0 0.0 -0.0031882103 0.011371949 -0.0014216256 0.0 0.0
1.4389927e-06 0.0 0.0 0.0 0.0 -4.0137354e-07 0.0 0.0
0.0 0.0 -0.025043884 -0.020495465 -0.033310134 -2.939104e-06 -2.9401865e-06 -0.020195032
-0.018308986 -0.03363952 0.0 0.0 -0.023438435 -0.019184398 -0.03361842 0.0
0.0 -0.00019161035 0.0 0.0 0.0 0.0 1.5658483e-05 0.0
0.0 0.0 0.0 -0.06072336 0.0042043817 -0.05892609 0.022223836 0.022291569
0.005871058 0.010615188 0.010612152 -0.0027761464 0.0073508746 0.016471539 -0.0012870323 0.01154343
-0.0040447456 0.013590629 0.012359295 -0.0011433371 0.007707527 0.02598052 0.025095724 0.025104353
0.0079940185 -0.0012861103 0.027264168 0.010872033 0.0069497973 0.027289685 0.0143659925 0.014353973
0.01097949 0.02597902 0.028591152 0.0088494 0.008283561 0.012358251 0.010821397 0.027386738
0.011013267 0.025991723 0.017680354 0.010736897 -0.0017812144 0.010734064 0.00947456 0.01628688
0.009606583 0.026203828 0.026045043 0.009599886 0.010686058 0.010718955 0.019635074 0.022026157
0.0032276576 0.01969253 0.004302582 0.0014087192 0.0012745112 0.0012233596 0.0061168894 0.004249524
0.0136174485 0.028736731 0.030749472 0.03229195 0.016082197 0.0013407182 0.005839763 0.008421625
0.02168712 -8.793612e-07 -8.793614e-07 0.005051239 -0.00063748873 0.02102192 0.0 0.0
0.017777452 0.016457241 0.014862221 0.0 0.0 0.0013534789 0.0 0.0
0.0 0.0 0.0013534789 0.0 0.0 0.0 0.0 0.014544311
0.013237097 -0.0041770083 -0.0032303778 -0.0033096853 -0.001209198 0.01768523 -0.0011975163 0.0
0.0 0.00022794858 0.017512653 -0.0012504674 0.0 0.0 8.400474e-07 0.0
0.0 0.0 0.0 -4.0768605e-06 0.0 0.0 0.0 0.0
00000000: 49fb f2bc 5fb6 f1bc ed99 1dbd fbfc 0dbd
00000010: 8ffd 0dbd 7623 1dbb 42f4 16bd 771a df3b
00000020: 6475 a3ba 25de a33b eb61 62bb f4a9 dc3b
00000030: a40a af3b 20a8 1cbb 2bd2 1dbd 8a24 f5bc
00000040: 84d5 edbc 10c8 eebc 0fec 21bd 2107 a3ba
00000050: 3b47 e8bc bebf 1fbd fbbd 2dbd 4c44 e7bc
00000060: 1b37 a43b 8fbc a33b 88a8 1cbd a11d dfbc
00000070: fb59 e6bc 3c9b 25bd 89d0 26bd 2645 17bd
00000080: 871e 19bd c677 f0bc 5982 1cbd fbca ddbc
00000090: 22c4 db3b 4067 1dbd 6d1c cdbb 7ac6 0dbd
000000a0: f26b 10bd ee99 0d3c 4656 15bd c5f8 ddbc
000000b0: 2478 d8bc 58a1 14bd ca1a 0ebd 8746 0dbd
000000c0: d92d d93b 35d6 f73b 3a37 a4bb b7c5 7f3b
000000d0: a72d e8ba d5e9 46bb a5ff 35bb b3a5 2fbb
000000e0: 7f56 d0b9 23db 22bb f56e 0dbd 5c0c dcbc
000000f0: 7a8a b1bc 44ae c4bc 5767 08bd 630b 03bb
00000100: 2b60 583a 59f1 f2bc 15f9 463c 5a68 f334
00000110: 6668 f334 13b5 02bd 1e9c 91b8 38a9 fd3b
00000120: 0000 0000 0000 0000 b2ff b63b 7b3d 013c
00000130: 6dff f63b 0000 0000 0000 0000 0d07 0bbb
00000140: 0000 0000 0000 0000 0000 0000 0000 0000
00000150: 0d07 0bbb 0000 0000 0000 0000 0000 0000
00000160: 0000 0000 dec0 ea3b 67ef e73b 77ba 6ebb
00000170: e00b 35bb 6dcc 3bbb ab72 58bb f327 853c
00000180: cfcc b6ba 0000 0000 0000 0000 4bf1 50bb
00000190: 6951 3a3c d755 baba 0000 0000 0000 0000
000001a0: 6a23 c135 0000 0000 0000 0000 0000 0000
000001b0: 0000 0000 5c7c d7b4 0000 0000 0000 0000
000001c0: 0000 0000 0000 0000 d528 cdbc 1be6 a7bc
000001d0: 3570 08bd 6c3d 45b6 0550 45b6 0d70 a5bc
000001e0: bafc 95bc 98c9 09bd 0000 0000 0000 0000
000001f0: f601 c0bc 9928 9dbc 78b3 09bd 0000 0000
00000200: 0000 0000 03eb 48b9 0000 0000 0000 0000
00000210: 0000 0000 0000 0000 565a 8337 0000 0000
00000220: 0000 0000 0000 0000 0000 0000 0fb9 78bd
00000230: e9c4 893b 7c5c 71bd c30e b63c cf9c b63c
00000240: 0162 c03b 53eb 2d3c 97de 2d3c 02f0 35bb
00000250: 9bdf f03b 52ef 863c a3b1 a8ba a820 3d3c
00000260: c989 84bb 3bab 5e3c a47e 4a3c 07dc 95ba
00000270: 6c8f fc3b 19d5 d43c 8c95 cd3c a5a7 cd3c
00000280: 58f9 023c b392 a8ba 1b59 df3c 9d20 323c
00000290: 20bb e33b 9e8e df3c 575f 6b3c ed2c 6b3c
000002a0: 52e3 333c f4d1 d43c fe37 ea3c 13fd 103c
000002b0: c6b7 073c 437a 4a3c 3b4c 313c 275a e03c
000002c0: fd70 343c 98ec d43c 64d6 903c cfe9 2f3c
000002d0: a377 e9ba eddd 2f3c 2f3b 1b3c 106c 853c
000002e0: ee64 1d3c 69a9 d63c 6a5c d53c d748 1d3c
000002f0: 9314 2f3c 8e9e 2f3c bcd9 a03c 3370 b43c
00000300: 1c87 533b 3b52 a13c acfc 8c3b c6a4 b83a
00000310: 800d a73a 2359 a03a 3070 c83b 973f 8b3b
00000320: b81b 5f3c 4b69 eb3c 51e6 fb3c 9044 043d
00000330: d0be 833c 0abb af3a 7c5b bf3b dbfa 093c
00000340: 30a9 b13c 3e0d 6cb5 410d 6cb5 dd84 a53b
00000350: 251d 27ba 2936 ac3c 0000 0000 0000 0000
00000360: 05a2 913c 56d1 863c ac80 733c 0000 0000
00000370: 0000 0000 3767 b13a 0000 0000 0000 0000
00000380: 0000 0000 0000 0000 3767 b13a 0000 0000
00000390: 0000 0000 0000 0000 0000 0000 434b 6e3c
000003a0: 69e0 583c 49df 88bb bfb4 53bb 4ee7 58bb
000003b0: f47d 9eba 9ee0 903c fbf5 9cba 0000 0000
000003c0: 0000 0000 7b05 6f39 b276 8f3c b9e6 a3ba
000003d0: 0000 0000 0000 0000 9e7f 6135 0000 0000
000003e0: 0000 0000 0000 0000 0000 0000 f7cb 88b6
000003f0: 0000 0000 0000 0000 0000 0000 0000 0000

exp_avg_sq f4 [128, 142]
0.008951809 0.009872823 0.006813362 0.010694544 0.008994589 0.008583198 0.00936638 0.011586791
0.008224503 0.008731178 0.008669197 0.0117506385 0.00900387 0.0062475307 0.010737883 0.007216463
0.00861995 0.013036451 0.012710927 0.0077261655 0.011101468 0.01066883 0.013820387 0.011146672
0.008244681 0.010961031 0.012380784 0.010287456 0.012507081 0.010908379 0.010107176 0.011609426
0.012012082 0.011113351 0.013213955 0.013385282 0.009052554 0.011840552 0.012159479 0.008244699
0.012243645 0.009570104 0.013126085 0.0105793625 0.01137658 0.011970269 0.01070595 0.010735316
0.011815676 0.0094592795 0.008603609 0.008175912 0.008932472 0.0068131704 0.0135432 0.010302703
0.008846219 0.009385107 0.012470639 0.011406789 0.00921467 0.007265328 0.011852123 0.0070974478
0.009856161 0.008952927 0.0052852975 0.0011694407 0.00072008354 0.010069518 0.0060080765 0.003939446
0.0 0.0 0.0046929205 0.004047488 0.0023997503 0.0 0.0 0.00069385447
0.0 0.0 0.0 0.0 0.000380427 0.0 0.0 0.0
0.0 0.011415315 0.011645016 0.009047255 0.00092683034 0.00059565296 0.011299532 0.008949421
0.005259661 0.0 0.0 0.0092668515 0.0075506326 0.0048918314 0.0 0.0
0.0010096006 0.0 0.0 0.0 0.0 0.00037079628 0.0 0.0
0.0 0.0 0.012726385 0.010633475 0.0071256733 0.0005052417 0.00046952054 0.01135415
0.009758386 0.0073680794 0.0 0.0 0.0080380095 0.00627158 0.00472496 0.0
0.0 0.0012092873 0.0 0.0 0.0 0.0 0.0008290545 0.0
0.0 0.0 0.0 0.0515674 0.025432115 0.3831478 0.008463278 0.00907544
0.008057723 0.008081798 0.008584054 0.009566425 0.007181281 0.008565847 0.0084410915 0.010183761
0.009532626 0.009688178 0.009315599 0.007796132 0.009664225 0.008894566 0.0056226193 0.009374552
0.008348375 0.006423451 0.007315485 0.0068689813 0.008891863 0.008437989 0.0066036084 0.010438984
0.010585405 0.0100181345 0.011739279 0.009893273 0.007186147 0.010384187 0.008476348 0.009862385
0.011882892 0.011955144 0.008772694 0.010708923 0.009504961 0.0065968535 0.008529238 0.0090590175
0.011526683 0.011635681 0.009740203 0.012421294 0.008306929 0.0063103256 0.010116087 0.010719486
0.008995209 0.010026206 0.0069249514 0.006842565 0.008624131 0.0052369135 0.005794734 0.010154132
0.0077772704 0.008994991 0.0049729557 0.0070249094 0.005201631 0.0035402784 0.008323022 0.008269715
0.0041470793 0.0013563344 0.00050982845 0.007861578 0.004596889 0.002794475 0.0 0.0
0.004275666 0.0032340176 0.0019268781 0.0 0.0 0.0005859961 0.0 0.0
0.0 0.0 0.0002137189 0.0 0.0 0.0 0.0 0.010562287
0.0118385665 0.008564477 0.00071318366 0.0005800843 0.011807627 0.009353687 0.0056448425 0.0
0.0 0.006593253 0.006820682 0.004394199 0.0 0.0 0.00044649042 0.0
0.0 0.0 0.0 0.00034452733 0.0 0.0 0.0 0.0
00000000: 9caa 123c 9fc1 213c 9f42 df3b 2b38 2f3c
00000010: 0a5e 133c 8ba0 0c3c 7275 193c 86d6 3d3c
00000020: 11c0 063c 370d 0f3c 3f09 0e3c c085 403c
00000030: f884 133c 16b8 cc3b f2ed 2f3c 1478 ec3b
00000040: b13a 0d3c d796 553c 7e41 503c c62b fd3b
00000050: eee2 353c 51cc 2e3c e86e 623c 88a0 363c
00000060: b314 073c e595 333c c6d8 4a3c b88c 283c
00000070: 80ea 4c3c 0fb9 323c 9298 253c 7635 3e3c
00000080: 53ce 443c c614 363c 587f 583c f14d 5b3c
00000090: 2a51 143c e0fe 413c 8d38 473c c614 073c
000000a0: 9299 483c edcb 1c3c ca0e 573c 1055 2d3c
000000b0: d664 3a3c f21e 443c 0268 2f3c 2ee3 2f3c
000000c0: 8a96 413c 18fb 1a3c 27f6 0c3c 43f4 053c
000000d0: 8159 123c 0441 df3b 4ce4 5d3c abcc 283c
000000e0: bbef 103c fec3 193c a751 4c3c 8ae3 3a3c
000000f0: 21f9 163c fd11 ee3b 682f 423c b591 e83b
00000100: bc7b 213c 4caf 123c 4a30 ad3b eb47 993a
00000110: fdc3 3c3a 9ffa 243c 66df c43b 7816 813b
00000120: 0000 0000 0000 0000 12c7 993b caa0 843b
00000130: 2145 1d3b 0000 0000 0000 0000 c9e3 353a
00000140: 0000 0000 0000 0000 0000 0000 0000 0000
00000150: 0c74 c739 0000 0000 0000 0000 0000 0000
00000160: 0000 0000 4d07 3b3c bdca 3e3c f03a 143c
00000170: 88f6 723a 9825 1c3a ac21 393c 98a0 123c
00000180: 3c59 ac3b 0000 0000 0000 0000 fed3 173c
00000190: 4c6b f73b a84b a03b 0000 0000 0000 0000
000001a0: 9354 843a 0000 0000 0000 0000 0000 0000
000001b0: 0000 0000 6f67 c239 0000 0000 0000 0000
000001c0: 0000 0000 0000 0000 5482 503c 0738 2e3c
000001d0: 7b7e e93b 3272 043a fb29 f639 c206 3a3c
000001e0: a3e1 1f3c ee6f f13b 0000 0000 0000 0000
000001f0: dbb1 033c d381 cd3b d6d3 9a3b 0000 0000
00000200: 0000 0000 f380 9e3a 0000 0000 0000 0000
00000210: 0000 0000 0000 0000 e854 593a 0000 0000
00000220: 0000 0000 0000 0000 0000 0000 5738 533d
00000230: 0357 d03c f32b c43e 90a9 0a3c 27b1 143c
00000240: 8a04 043c 8569 043c 22a4 0c3c 7fbc 1c3c
00000250: f450 eb3b c457 0c3c 814c 0a3c cad9 263c
00000260: bb2e 1c3c 2abb 1e3c 74a0 183c b276 ff3b
00000270: b356 1e3c 84ba 113c f33d b83b b997 193c
00000280: 9fc7 083c d07b d23b bcb6 ef3b 3115 e13b
00000290: 2daf 113c 7e3f 0a3c 1563 d83b 4608 2b3c
000002a0: 686e 2d3c 1a23 243c 1b56 403c 6517 223c
000002b0: c579 eb3b 7022 2a3c 61e0 0a3c d795 213c
000002c0: 76b0 423c 82df 433c 58bb 0f3c 7b74 2f3c
000002d0: b2ba 1b3c 6b2a d83b 38be 0b3c 466c 143c
000002e0: 6ada 3c3c 95a3 3e3c 5f95 1f3c af82 4b3c
000002f0: c919 083c d9c6 ce3b f2bd 253c c8a0 2f3c
00000300: a460 133c f544 243c b4ea e23b 9837 e03b
00000310: 3a4c 0d3c 6a9a ab3b c1e1 bd3b 845d 263c
00000320: 79d8 fe3b ba5f 133c 2df4 a23b 3631 e63b
00000330: 7272 aa3b 0404 683b 495d 083c b37d 073c
00000340: 39e4 873b 08c7 b13a 02a6 053a d9cd 003c
00000350: 80a1 963b 8323 373b 0000 0000 0000 0000
00000360: e31a 8c3b d0f1 533b 4d8f fc3a 0000 0000
00000370: 0000 0000 889d 193a 0000 0000 0000 0000
00000380: 0000 0000 0000 0000 bb19 6039 0000 0000
00000390: 0000 0000 0000 0000 0000 0000 710d 2d3c
000003a0: 8cf6 413c 0552 0c3c f2f4 3a3a cc10 183a
000003b0: c774 413c 3540 193c 5ff8 b83b 0000 0000
000003c0: 0000 0000 370c d83b 0780 df3b 36fd 8f3b
000003d0: 0000 0000 0000 0000 ee16 ea39 0000 0000
000003e0: 0000 0000 0000 0000 0000 0000 ada1 b439
000003f0: 0000 0000 0000 0000 0000 0000 0000 0000

exp_avg f4 [128]
-0.026872948 0.025359625 -1.0343409e-06 -0.0040398617 0.0023738581 -0.006563831 0.049759053 -1.8982757e-07
8.717287e-05 0.015602064 -0.00099522 -5.7170342e-05 -0.0028866546 0.018337088 2.5341238e-23 1.3345023e-09
0.0019393495 0.024028335 0.033959225 2.665326e-15 3.32539e-05 0.0018708347 0.011290646 -0.010694738
0.00021689072 -0.0028544709 -0.0005861577 -1.1653057e-06 0.00017072103 -0.0010474639 -0.015056367 0.024543485
-0.017667416 0.0039767064 -0.017454268 0.019179836 0.0010011896 0.006591337 -0.01879778 0.042015944
-0.010951918 0.0017813944 -7.4122894e-05 -1.6942184e-06 -0.0047240932 -0.00010634578 7.248672e-08 0.00037300165
0.005291405 -0.010375173 0.0048331777 -0.00377587 2.7975142e-09 -0.036314506 0.070135206 -0.04218078
0.003929408 -0.0023590578 -0.03085951 0.018506253 -1.7753032e-28 0.0009839372 0.0024663592 5.4144456e-10
-0.002254139 1.11110985e-05 -0.00018400159 0.022665724 -0.006983872 0.005685688 3.770137e-33 -0.0018426351
-0.0005248701 0.0003581661 0.016191654 2.0303264e-19 1.5685404e-13 -0.0003997189 0.0034104344 0.007656922
-0.04579469 -0.028896937 0.0018271129 -0.019611837 -0.0058947625 0.056200616 1.1702005e-09 -4.348001e-07
0.0033381998 -0.010636714 -0.0044270027 -1.0838484e-05 -0.0012115296 0.00019241053 -0.022342753 -1.4683857e-06
3.024047e-07 -0.054045677 0.05704719 0.0021022407 0.009678269 -5.9776944e-08 7.5267925e-09 -1.261118e-06
0.008229765 0.0050634085 -0.0025998561 0.00012351127 1.1738951e-31 -5.856402e-07 0.001168016 3.5979112e-05
0.031429436 0.03698851 4.1747335e-12 5.5517194e-05 -0.02379141 -0.00016703788 7.756939e-07 0.000301787
0.002605108 3.0800542e-12 0.00044890074 0.034751434 0.0029399348 0.00061239384 3.545278e-09 0.024348842
00000000: a824 dcbc fdbe cf3c afd3 8ab5 d160 84bb
00000010: bb92 1b3b 6815 d7bb 26d0 4b3d 68d3 4bb4
00000020: 94d0 b638 cd9f 7f3c 0b72 82ba 30ca 6fb8
00000030: 072e 3dbb a937 963c de15 f519 a069 b730
00000040: c531 fe3a 12d7 c43c d418 0b3d 960e 4027
00000050: 1a7a 0b38 cc36 f53a 67fc 383c fb38 2fbc
00000060: 296d 6339 1312 3bbb 61a8 19ba 9967 9cb5
00000070: 9403 3339 0e4b 89ba fbae 76bc 6b0f c93c
00000080: 42bb 90bc 084f 823b 41fc 8ebc 081f 9d3c
00000090: 593a 833a 24fc d73b cdfd 99bc e918 2c3d
000000a0: ac6f 33bc ad7d e93a 6d72 9bb8 e764 e3b5
000000b0: 91cc 9abb f505 dfb8 ffa9 9b33 6f8f c339
000000c0: 8663 ad3b a1fc 29bc a25f 9e3b 9674 77bb
000000d0: 643e 4031 85be 14bd 0ca3 8f3d c1c5 2cbd
000000e0: 43c2 803b 6c9a 1abb 15cd fcbc 6d9a 973c
000000f0: e20b 6191 74f7 803a a4a2 213b c6d4 1430
00000100: 2dba 13bb ce69 3a37 8df0 40b9 78ad b93c
00000110: f7d8 e4bb 024f ba3b f99a 9c09 9384 f1ba
00000120: 7097 09ba 3dc8 bb39 5ca4 843c dab2 6f20
00000130: 199a 302a 5d91 d1b9 9881 5f3b ebe6 fa3b
00000140: 3693 3bbd 45b9 ecbc bc7b ef3a 01a9 a0bc
00000150: da28 c1bb 9e32 663d c5d4 a030 796e e9b4
00000160: b3c5 5a3b 9d45 2ebc 6410 91bb efd6 35b7
00000170: 30cc 9eba cfc1 4939 2608 b7bc 5915 c5b5
00000180: 2f5a a234 005f 5dbd 50aa 693d bfc5 093b
00000190: 9a91 1e3c b95e 80b3 2f4f 0132 af43 a9b5
000001a0: 23d6 063c f3ea a53b 5962 2abb ce82 0139
000001b0: 5b61 180c e334 1db5 1d18 993a 47e8 1638
000001c0: 27bc 003d 4481 173d a8e2 922c 22db 6838
000001d0: 34e6 c2bc e426 2fb9 4739 5035 2a39 9e39
000001e0: 76ba 2a3b 53bd 582c 705a eb39 8557 0e3d
000001f0: ecab 403b 0e89 203a 31a1 7331 3977 c73c

exp_avg_sq f4 [128]
0.019403836 0.016424526 0.0005804074 0.008810956 0.0011158509 0.01831979 0.016804513 0.00025765543
0.0043114494 0.012074574 0.014001902 0.0008398185 0.008069313 0.020188551 0.001103008 0.0037767016
0.0005903979 0.0011082534 0.015748126 0.0023730523 0.0006191688 0.0021638975 0.008812351 0.015343838
0.0011813486 0.0071305074 0.0013969903 0.012389445 0.019337539 0.0034229278 0.010689989 0.011796691
0.018181363 0.005344503 0.025697451 0.01404173 0.008888081 0.0024408824 0.010751888 0.006512831
0.016423069 0.0014794627 0.0045917123 0.002888649 0.009418803 0.0004796041 0.0009929386 0.0045220624
0.013103189 0.005318224 0.0201043 0.020659996 0.013365942 0.009642115 0.012777184 0.018007625
0.0045788507 0.008950123 0.018341633 0.01980582 0.00014472369 0.0010270595 0.00044600802 0.0011671303
0.006042957 0.0044439994 0.00031595258 0.023435952 0.0028569037 0.014437593 4.5330416e-05 0.0067677535
0.003300546 0.0007327553 0.014468302 0.00027600984 0.0007239249 0.0011475157 0.0035207542 0.011689845
0.0076060942 0.011068164 0.007667212 0.016496034 0.009933174 0.012129026 0.0014835749 0.0012993542
0.009473427 0.019377246 0.018233962 0.0026234994 0.0050278795 0.002046969 0.027616953 8.188312e-05
0.0002624661 0.01997022 0.011392465 0.017005393 0.006874059 0.00391673 0.00022774117 0.000864332
0.0046410416 0.004622017 0.0014681235 0.0016069259 4.542634e-05 0.0019232974 0.0003312024 0.0041929577
0.017100113 0.015064712 3.4990062e-05 0.00047239295 0.007373847 0.007201126 0.0035330108 0.00895892
0.013956986 8.33075e-05 0.011037088 0.018456737 0.005346268 0.00052801415 0.019583844 0.01518464
00000000: cbf4 9e3c ba8c 863c 7b26 183a d45b 103c
00000010: be41 923a 6213 963c 9ea9 893c ed15 8739
00000020: 0f47 8d3b 6fd4 453c 3c68 653c 4427 5c3a
00000030: 2735 043c 7662 a53c cf92 903a 8a82 773b
00000040: efc4 1a3a d042 913a 3702 813c 3685 1b3b
00000050: b74f 223a 2dd0 0d3b ae61 103c b964 7b3c
00000060: 7bd7 9a3a 08a7 e93b 371b b73a 19fd 4a3c
00000070: c269 9e3c 3353 603b 1025 2f3c e946 413c
00000080: 15f1 943c f120 af3b 7683 d23c 490f 663c
00000090: 509f 113c 36f7 1f3b b028 303c 9669 d53b
000000a0: ac89 863c 88ea c13a 1376 963b 7d4f 3d3b
000000b0: 5351 1a3c 5f73 fb39 7e25 823a cf2d 943b
000000c0: c2ae 563c 7f44 ae3b c6b1 a43c 273f a93c
000000d0: d3fc 5a3c f6f9 1d3c 6557 513c ba84 933c
000000e0: 2f0a 963b 89a3 123c 3141 963c d13f a23c
000000f0: f8c0 1739 669e 863a 2fd6 e939 65fa 983a
00000100: ff03 c63b f89e 913b 70a6 a539 c1fc bf3c
00000110: e43a 3b3b a78b 6c3c 2a21 3e38 08c4 dd3b
00000120: f94d 583b 6016 403a 750c 6d3c 6ab5 9039
00000130: c7c5 3d3a 3d68 963a 74bc 663b c386 3f3c
00000140: 8b3c f93b 3f57 353c 3c3d fb3b b122 873c
00000150: c0be 223c d3b8 463c 8374 c23a 184f aa3a
00000160: 6f36 1b3c 08bd 9e3c 645f 953c 04ef 2b3b
00000170: e9c0 a43b 7126 063b f33c e23c aab8 ab38
00000180: 9b9b 8939 9698 a33c 76a7 3a3c e54e 8b3c
00000190: c93f e13b ea57 803b cecd 6e39 5794 623a
000001a0: e113 983b 4a74 973b 0d6e c03a 7c9f d23a
000001b0: 2988 3e38 2717 fc3a 3ca5 ad39 1465 893b
000001c0: 8915 8c3c fbd1 763c 4bc2 1238 82ab f739
000001d0: 50a0 f13b 6cf7 eb3b 168a 673b 6fc8 123c
000001e0: d8ab 643c 60b5 ae38 e7d4 343c 9532 973c
000001f0: bf2f af3b 6e6a 0a3a 4c6e a03c ffc8 783c

exp_avg f4 [192, 128]
-7.046782e-05 -2.2324262e-05 -1.0422545e-08 -1.3865326e-05 -1.32178575e-05 -1.1069116e-05 -9.945144e-05 -3.3008571e-09
-5.750276e-09 -1.734852e-05 -1.068705e-05 -1.3016985e-07 -2.478934e-05 -8.311415e-05 7.772833e-34 -4.5534e-19
-1.5064634e-12 -3.1339553e-08 -3.7367623e-05 3.6855914e-26 -8.93818e-24 -2.1054228e-05 -9.0019916e-05 -5.4836102e-05
-1.7279942e-30 -3.602318e-05 -7.821888e-06 -1.7863762e-08 -0.00013927065 -1.3052301e-06 -1.8419754e-05 -5.5300875e-06
-5.1725e-05 -3.4655055e-05 -5.713769e-05 -8.288443e-05 -5.105366e-07 -2.881409e-05 -2.1905357e-06 -2.3427434e-05
-7.277738e-05 -2.9865703e-08 -4.974934e-07 -1.2473369e-07 -3.536535e-05 -9.986713e-06 -4.2269252e-10 -1.1362265e-05
-2.4084788e-06 -3.8084763e-05 -9.151409e-06 -7.0951064e-05 -7.740023e-16 -1.8943838e-05 2.3985802e-10 -9.9843255e-06
-1.038113e-07 -7.396502e-05 -3.687327e-05 -3.0759122e-06 -2.1763225e-30 -1.6387196e-05 -2.0470345e-05 2.8007987e-19
-2.2867787e-05 -2.8523129e-05 6.656108e-33 -0.00010891194 -3.0875086e-05 -3.468194e-05 2.3267438e-33 -3.847128e-05
-4.3874857e-07 -1.4862114e-06 -0.00012974472 -8.3341135e-24 -4.4260075e-17 -2.5857147e-05 -8.483237e-06 -9.4065384e-05
-9.282687e-05 -6.0131682e-05 -6.4845044e-06 -0.00023482917 -5.0889532e-05 -6.506685e-05 0.0 -1.11942336e-17
-3.3654098e-05 -0.0001545164 -3.8185894e-09 -3.4385582e-08 -1.5756036e-07 -1.192797e-06 -0.00015156632 0.0
-6.31404e-38 -3.3231692e-05 -2.2728469e-05 -2.1166325e-05 -8.168017e-06 1.9843172e-16 -9.641948e-19 -2.5044653e-08
-5.865094e-05 -4.4922945e-05 -2.080658e-05 -4.9456414e-08 -7.18914e-39 -8.391922e-09 -8.063777e-07 -2.0244806e-06
-0.00013421835 -6.557146e-05 -1.19e-43 -2.527893e-25 -9.304405e-06 -3.925077e-11 -1.9110342e-09 -3.4723888e-10
-0.00011554616 -5.8481775e-16 -2.7491833e-05 -0.00016088865 -1.3000478e-05 -1.8976616e-05 1.6598875e-10 -1.9279518e-05
-0.00025297827 -0.00012202116 -2.0860147e-08 -3.053348e-05 -3.6033318e-05 -6.081763e-05 -0.0005032606 -6.5573924e-09
-2.7735139e-08 -0.00012708803 -2.6963955e-05 -2.840529e-07 -4.273052e-05 -0.00033915622 -6e-45 -2.4794677e-18
-3.0690166e-11 -1.3627574e-07 -0.00016916168 -2.338637e-24 -3.2676045e-23 -5.4849435e-05 -0.00031109503 -0.00024730992
4.602367e-31 -0.00011061274 -4.2305703e-05 -3.1416861e-12 -0.0005062993 -2.6535406e-06 -6.0669336e-05 -2.0234387e-05
-0.00012817288 -8.737285e-05 -0.00026456598 -0.00032558947 -3.9710503e-06 -6.5079876e-05 1.8231319e-06 -5.944637e-05
-0.00031916975 -1.2883731e-07 -9.666012e-07 -7.064133e-07 -0.00017433745 -3.083218e-05 -9.247335e-10 -2.2605887e-05
-1.1641731e-05 -0.0002829302 -3.2032414e-05 -0.00026656376 -8.853314e-15 -5.25883e-05 4.2190127e-06 -8.317051e-05
-1.8527813e-07 -0.00029854281 -0.00021028126 -8.159727e-06 -8.591678e-30 -5.6689325e-05 -4.6190184e-05 3.063724e-18
-8.59768e-05 -5.891981e-05 -7.725375e-36 -0.0003670311 -6.1239356e-05 -0.00016673954 -4.6975663e-37 -0.00012823472
-3.1810405e-08 -2.9690043e-06 -0.00048558958 -1.8017353e-23 -5.5750523e-16 -5.5251592e-05 -1.7200737e-05 -0.00029754595
-0.00036504364 -0.00022370744 -6.0762763e-06 -0.00079029525 -0.00020449162 -0.00023127603 0.0 -2.332513e-17
-0.000102532955 -0.00055950746 1.1115472e-08 1.6777369e-23 -2.3065499e-07 -2.3153136e-06 -0.0005359461 0.0
-7.061402e-38 -0.0002009688 -8.601943e-05 -8.693923e-05 -5.302043e-05 6.7218523e-15 1.178381e-17 -1.6015238e-21
-0.00015784071 -0.00019698015 -7.181749e-05 -1.549978e-08 -8.365064e-39 -2.7912242e-10 -2.729445e-06 -3.4134093e-06
-0.00046492368 -0.00026647747 2.3297141e-12 -4.7135193e-25 -0.00011168719 -1.7729412e-09 -5.2446625e-09 -7.615247e-10
-0.0004257664 -2.8197297e-17 -0.0001963058 -0.0005600837 -4.282045e-05 -3.778417e-05 -5.3436198e-09 -5.483342e-05
00000000: 1fc8 93b8 fd44 bbb7 d60e 33b2 1f9f 68b7
00000010: 44c2 5db7 7eb5 39b7 9690 d0b8 4bd5 62b1
00000020: f693 c5b1 aa87 91b7 884c 33b7 d1c4 0bb4
00000030: b4f2 cfb7 924d aeb8 fa25 8108 8564 06a1
00000040: 1004 d4ab 349a 06b3 2ebb 1cb8 6c80 3615
00000050: b9e3 2c99 9c9d b0b7 13c9 bcb8 d1ff 65b8
00000060: 0931 0c8e 9817 17b8 c13a 03b7 d472 99b2
00000070: 2e09 12b9 5d2f afb5 1f84 9ab7 178f b9b6
00000080: 4cf3 58b8 955a 11b8 21a7 6fb8 3dd2 adb8
00000090: cf0b 09b5 c9b5 f1b7 1e01 13b6 0886 c4b7
000000a0: 0fa0 98b8 b045 00b3 7c8b 05b5 89ee 05b4
000000b0: 4155 14b8 9b8c 27b7 af60 e8af 8ea0 3eb7
000000c0: 5aa1 21b6 34bd 1fb8 0189 19b7 90cb 94b8
000000d0: 4a17 5fa6 95e9 9eb7 04dd 832f 5a82 27b7
000000e0: deee deb3 ab1d 9bb8 5fa8 1ab8 c56b 4eb6
000000f0: 7390 308e 3c77 89b7 bbb7 abb7 7954 a520
00000100: 33d4 bfb7 f444 efb7 f13d 0a0a a767 e4b8
00000110: df7f 01b8 7377 11b8 5e4c 4109 395c 21b8
00000120: 258d ebb4 d679 c7b5 150c 08b9 8834 2199
00000130: 131d 4ca4 cde7 d8b7 3a53 0eb7 f844 c5b8
00000140: 0cac c2b8 e735 7cb8 7895 d9b6 7a3c 76b9
00000150: 3872 55b8 8074 88b8 0000 0000 467f 4ea3
00000160: d027 0db8 ae05 22b9 ab34 83b1 59af 13b3
00000170: dd2d 29b4 3118 a0b5 c6ed 1eb9 0000 0000
00000180: 70e2 ab81 4262 0bb8 04a9 beb7 568e b1b7
00000190: 5e09 09b7 b5c6 6425 404a 8ea1 c621 d7b2
000001a0: f8ff 75b8 a56b 3cb8 ca89 aeb7 e769 54b3
000001b0: 6648 4e80 102c 10b2 db75 58b5 50dc 07b6
000001c0: f7bc 0cb9 6983 89b8 5500 0080 1078 9c96
000001d0: 1d1a 1cb7 70a0 2cae 4553 03b1 87e5 beaf
000001e0: 5f51 f2b8 ef8f 28a6 439e e6b7 38b4 28b9
000001f0: a11c 5ab7 f92f 9fb7 ae81 362f 73ba a1b7
00000200: 2ba2 84b9 9de5 ffb8 f32f b3b2 1311 00b8
00000210: 7b22 17b8 6f16 7fb8 3fed 03ba 6f4f e1b1
00000220: 373e eeb2 ef42 05b9 a730 e2b7 ef7f 98b4
00000230: 8c39 33b8 c7d0 b1b9 0400 0080 d2f3 36a2
00000240: 0efa 06ae 3153 12b4 fe60 31b9 7af1 3498
00000250: fc02 1e9a 220e 66b8 781a a3b9 60a9 81b9
00000260: f85a 150d c3f8 e7b8 6771 31b8 9613 5dac
00000270: 2cb9 04ba 7b13 32b6 3477 7eb8 04bd a9b7
00000280: 2566 06b9 f13b b7b8 72b5 8ab9 e1b3 aab9
00000290: 103f 85b6 7e7b 88b8 56b2 f435 0e56 79b8
000002a0: 3d56 a7b9 8856 0ab4 2abc 81b5 5aa0 3db5
000002b0: 5ace 36b9 cd51 01b8 5630 7eb0 c6a1 bdb7
000002c0: db50 43b7 4056 94b9 8b5a 06b8 95c1 8bb9
000002d0: b47c 1fa8 4292 5cb8 0b91 8d36 d46b aeb8
000002e0: ddf0 46b4 bd85 9cb9 f27e 5cb9 c3e5 08b7
000002f0: 8b42 2e8f b3c5 6db8 55bc 41b8 1c10 6222
00000300: 714e b4b8 aa20 77b8 f14c 2485 156e c0b9
00000310: a16d 80b8 ced6 2eb9 93d9 1f83 bf76 06b9
00000320: e99f 08b3 1b3f 47b6 bb96 feb9 ce40 ae99
00000330: a0b0 20a6 f2bd 67b8 4d4a 90b7 f1ff 9bb9
00000340: 5463 bfb9 0293 6ab9 d1e2 cbb6 d12b 4fba
00000350: cd6c 56b9 b082 72b9 0000 0000 e822 d7a3
00000360: f606 d7b8 e9ab 12ba 5df6 3e32 c142 a219
00000370: f6a9 77b4 c960 1bb6 bc7e 0cba 0000 0000
00000380: ca3a c081 27bb 52b9 5465 b4b8 2553 b6b8
00000390: 4162 5eb8 252e f227 785f 5923 f303 f29c
000003a0: 0b82 25b9 758c 4eb9 b99c 96b8 6024 85b2
000003b0: 6516 5b80 fd72 99af 822b 37b6 ed11 65b6
000003c0: 00c1 f3b9 00b6 8bb9 66f0 232c 59e0 1197
000003d0: 9b39 eab8 d3ab f3b0 8a34 b4b1 8953 51b0
000003e0: 6639 dfb9 7e09 02a4 70d7 4db9 95d2 12ba
000003f0: 1c9a 33b8 727a 1eb8 fa9a b7b1 f0fc 65b8
